siamese-models/siam_v2_48.pth (torch, 102187 bytes, 11 tensors)

conv1.weight f4 [14, 31, 6, 6]
00000000: 19ee d9bc 65ce a73c 9a8a 923c 5605 8abb
00000010: 0e26 c3bb d139 d13c d176 ac3c 83f9 443b
00000020: 27bd 87bc 8f9a 7d3a 130e b63c a152 90bc
00000030: 3abb c63c 8554 d0bc b444 67bc d985 d13c
00000040: 2ed9 5ebc 5a0f 9f3b 145f 6cba babd b63b
00000050: 274d dbbc 6302 c93c ae85 e63c b8b6 173b
00000060: 559d 9f3c a0a6 85bc 3806 833c 4599 21bc
00000070: 984a c13b 1497 193c d822 ec3a 467a b7bb
00000080: 1f4f babc 194e a33c db83 d63c 1228 c4bc
00000090: fc7c 23bc 8fc5 a83c 249a 45ba 329f 393c
000000a0: ec92 0dbc afd7 e93c 382a 1a3c 4750 d5bc
000000b0: 80ae a53c b781 bdbc c4a2 983c 7409 283c
000000c0: 1d57 bb3c ba33 cb3c 70a0 30bc 6afd df3b
000000d0: 87e9 00bc 8fbb e9bc 5399 ca3b 301e dabc
000000e0: fe8a 45bc 1fa1 da3c 0beb cf3c 2984 ff3b
000000f0: 6f3c 36bc 29f6 66bc 9b62 f13c 95ab b93c
00000100: 900f 9f3c 1469 7cbb 1b11 ccbc 94a5 02bb
00000110: 2b85 9fbc 62c2 a23c fb5c ea3c 29db cebc
00000120: b51e ef3c c3b8 ecbc 7cc2 683b bcf9 f23c
00000130: 1791 cdbc 9aff 9ebc 5d03 2bbc 6bbf 983c
00000140: b29c a8bb 1ae3 adbb 5643 993c 3d75 c6ba
00000150: aa5f e13c e59c 62bb 2242 12bb 61c8 5fbc
00000160: e5d1 fa3b 9eca 29bc 50f0 48bc 4d21 853b
00000170: 901d bb3c dc64 e4bc 1ca4 4abc 3ca4 b4bc
00000180: e08a 73bc c107 233c 9d96 173c f089 ce3c
00000190: 5e36 c4bc e4c9 d5bc 5ad8 c73c e3c5 d8bc
000001a0: 0d01 4e3c 9c2b 4f3c 53bd cebc 58ae 84bc
000001b0: 950a f13c 131e e6ba 1416 af3c f24f e1ba
000001c0: b8b1 9dbc 3e2b d1bc f463 45bb 8be6 b6bc
000001d0: e6a9 503c 67c6 63bb ad3d c835 b34d f9bb
000001e0: ca7e a1bc 234a a43a 4148 66bc 4ee1 70bb
000001f0: f642 b3bc 2b31 9f3c a3af 24bb f643 c2bc
00000200: b2d3 98bb a8f9 cabc 4c3e b0bc 8ceb a8ba
00000210: a32d c1bc f90e efbc 7987 c83b e23e 57bc
00000220: 98ce a6bc 28f0 673b 60b5 833c 6cd5 cdbb
00000230: 75c9 7fbc cc78 253b d8bc a93b 01cf ecbc
00000240: 577d a0bc e62e b73c 20cf 5ebc da03 dc3c
00000250: 01ad f03b 02a4 543b 6962 8d3c 66b1 d5bc
00000260: f784 0dbc 3c9d 243c e0d1 473a 66fb 8c3c
00000270: 80df bc3c 0756 88bc 1c2e c03c dd6e 44bc
00000280: 19c7 c4bc c8d9 a5bc 09ad 543c 1673 9f3c
00000290: b300 abbc dc94 e3bc e51b c3bc 3b51 c13c
000002a0: 077e 6bbb 1dc3 e9bc 326a cabc a3cf 673c
000002b0: 73b5 dfbc d1d5 dd3c c6be b83c f17b a13c
000002c0: 26d4 69bc ef1a c2bc 3f95 00bc de96 da3c
000002d0: bccb b5bc 659b dfbc 0492 7a3c 6189 c5bc
000002e0: badc 973c 7d95 e93a 0233 6c3c 9031 40bc
000002f0: f711 21bc bba1 16bc e6c4 4fbc b328 8fbc
00000300: 6da5 df3b b98e 893b 5bc7 063c 9e33 843c
00000310: 21f6 8cbc f4aa eb3b 684a aabc 57e4 9dbc
00000320: a0b8 113c bf5a 31bc f7da d53c ad9e 3dbc
00000330: 80fc c83c ed3b bb3c bb76 8c3c 6b9a 623c
00000340: b973 a2bc 915c 85bc 6e56 b0bb 73e1 46bc
00000350: c608 773c dfa9 a83b 50ba 753c a5b6 d43b
00000360: 180d d1bc 750d 17bb bc03 e23c 5311 adbc
00000370: f3ad 6b3c 70cb efbc 1d49 bc3c a120 0a3c
00000380: e71e 9f3c 0e58 603c 09cd 04b9 fc7a a13c
00000390: f8b8 0ebc 35ec 203c 7b74 4fbb c588 243c
000003a0: 84b7 aabc b21c cbbc e0f2 87bb 7e87 aabc
000003b0: 3b0e 95bc 64ce eabc d7e0 df3c 536e bfbc
000003c0: 9803 e73c 2848 533c 7ae9 453c f12b b83c
000003d0: a9b7 39bc 6ca4 243c 0a36 f03c 50a4 6f3c
000003e0: b145 ed3c da0f 98ba d669 99bc 4253 78bc
000003f0: b6a3 113c fdda cbbc 512d 1f3c 92d8 ca3c
-0.026602792 0.020484159 0.017888356 -0.004212062 -0.005955464 0.025540264 0.02105275 0.0030055947
-0.016569687 0.0009674215 0.022223508 -0.017617526 0.024259198 -0.025430927 -0.014115501 0.025576519
-0.013601584 0.004854125 -0.00090168533 0.0055768164 -0.026770188 0.02453727 0.028139915 0.002314968
0.019484201 -0.016314805 0.015994176 -0.009863202 0.005898785 0.009374399 0.0018015755 -0.005599293
-0.022742806 0.0199347 0.02618592 -0.023944888 -0.009978529 0.020602016 -0.00075379224 0.011329459
-0.008640986 0.028545229 0.00940948 -0.026039256 0.02022481 -0.023133142 0.0186323 0.01025616
0.022868687 0.024804939 -0.010780439 0.006835629 -0.007868177 -0.028531818 0.0061828285 -0.026625723
-0.012057064 0.026688157 0.025380632 0.007797737 -0.011122807 -0.014096775 0.029465964 0.022664825
0.0194166 -0.003851478 -0.0249105 -0.0019935118 -0.01947268 0.01986808 0.02860879 -0.025250988
0.029189447 -0.028896695 0.0035516312 0.029660098 -0.025093598 -0.01940899 -0.010437814 0.018645963
-0.0051456327 -0.0053066136 0.018708866 -0.0015141141 0.027511436 -0.003457838 -0.002231725 -0.013658614
0.007654416 -0.010363249 -0.012264326 0.0040628077 0.022841245 -0.027880125 -0.012368228 -0.02205097
-0.014864653 0.009950579 0.009252218 0.025212258 -0.023951706 -0.026097246 0.024395157 -0.026461547
0.012573493 0.012644675 -0.025236761 -0.016196415 0.029423991 -0.001755657 0.021372832 -0.0017189963
-0.019249782 -0.025533315 -0.003011939 -0.022326728 0.012735819 -0.0034755708 1.4919111e-06 -0.0076081394
-0.019713778 0.0012534301 -0.014055313 -0.0036755386 -0.021882515 0.019432625 -0.0025129102 -0.023714047
-0.004663908 -0.024777249 -0.02151408 -0.0012887581 -0.023581332 -0.029181944 0.006119665 -0.013137551
-0.020362183 0.0035390947 0.016077697 -0.0062815454 -0.015611996 0.0025249003 0.0051799826 -0.0289073
-0.019591017 0.02236123 -0.013599187 0.026857305 0.0073448424 0.003244639 0.01725884 -0.026085567
-0.008637658 0.010047253 0.00076225214 0.01720972 0.023055792 -0.016642584 0.023459487 -0.0119893225
-0.024020718 -0.020245448 0.012980708 0.019464057 -0.020874357 -0.027780943 -0.023817012 0.023598304
-0.0035933272 -0.02853542 -0.024708841 0.014148626 -0.027308201 0.027079495 0.022551905 0.01971242
-0.014271772 -0.023694484 -0.007848083 0.026683267 -0.022191875 -0.027295778 0.015293602 -0.024113359
0.018537868 0.001782104 0.014416458 -0.011730567 -0.009830943 -0.009193833 -0.012681222 -0.017475462
0.00682514 0.004197922 0.008226241 0.016137894 -0.017207207 0.00719201 -0.020787433 -0.01927392
0.008894116 -0.010824858 0.026105387 -0.011573476 0.024534464 0.022855723 0.017146459 0.013830761
-0.019830571 -0.01627949 -0.005381397 -0.012138712 0.015077775 0.0051472033 0.014998034 0.0064914995
-0.025518939 -0.0023048793 0.027589671 -0.021126425 0.014384734 -0.029271811 0.022984082 0.008430631
0.019423915 0.013692869 -0.00012664883 0.019711964 -0.008711092 0.009821941 -0.003165512 0.010042374
-0.02083946 -0.024793956 -0.004148826 -0.02081656 -0.018195262 -0.028662868 0.027328892 -0.023368036
0.028199956 0.012895621 0.012079591 0.02248189 -0.011335292 0.010048967 0.029322643 0.0146265775
0.028963896 -0.0011601404 -0.018727224 -0.015156569 0.008889129 -0.024884695 0.009715394 0.024761472

conv1.bias f4 [14]
00000000: 3a4f 6cbc 9078 54bc 2983 b8bc 2004 9ebc
00000010: f45d 7b3c 7996 85bc c5bf 81bc 841b 36bc
00000020: feed 67bc fc6b 9ebb 88f7 37bc 189d 643c
00000030: a874 8dbc 18da d83b
-0.014423186 -0.012968197 -0.02252348 -0.019289076 0.015342224 -0.016307103 -0.015838513 -0.011114959
-0.014155863 -0.00483465 -0.01122845 0.01395347 -0.01726754 0.0066177957

conv2.weight f4 [7, 14, 6, 6]
00000000: 1893 303c 90dd 17bd c521 27bd 5a30 88bc
00000010: 1b4d 263d 6e94 cfbc 1143 653c 5ad9 f5bc
00000020: b308 173d 0ce4 153d c329 ab3c 2837 9bbc
00000030: b40b 12bd bb71 4d3c bbbc 133d e080 4dbc
00000040: 97f2 9ebc 9664 2f3d be4b 303d 3c9f 03bc
00000050: b06e 083d 952e 17bc a2e6 263d 291d 0dbd
00000060: 077a d93c 3e2e 8d3b 3222 f33c 7ab0 213c
00000070: f865 963c 3636 1dbc 6168 d63c 9221 35bd
00000080: b167 54bb e585 7bbc 1290 81bb fe38 19bd
00000090: f38e 75bc adc9 e93c a55d 173d 6e3d 44bb
000000a0: b75a 71bc 9dda f5bc c6ab 573c c38d 133d
000000b0: 54d9 c73c 9092 113d 189c 6a3b 696e a93c
000000c0: f7af 523c 25c9 fbbc 69df 1d3c 6b8d e3bc
000000d0: 36de bd3c 8783 97bc 1678 ffbc ccf6 37bb
000000e0: a6e7 7c3a fced cfbc f60d 26bd 8f63 18bd
000000f0: 0ac8 1c3d 8c0c fb3c 9f89 e03c 9939 b43b
00000100: 18b1 90bc ed0a 873b 7954 b63c c58b c6bc
00000110: d9b5 5b3c aae3 223b c9a1 003a 5ed8 5c3c
00000120: 2823 1abc 3a93 20bc cf9f 863c 9e7e 203d
00000130: a1b2 52bc bfbf 16bb 2e8d 4b3c 8d4e e33c
00000140: 710b 31bd f201 863c 2e70 0bbd f4fd cd3b
00000150: 01a5 aa3c e4b9 f23b ba3f 5e3c 3196 6bbc
00000160: 21d2 8abc 5709 613c 5672 1fbd 74fa c9bc
00000170: 9b63 0f3c 6262 84bc 10a3 d8bc 65b1 073d
00000180: f7bd 593c 9d13 993c c421 223b bcb8 a63c
00000190: 6aaa 5dbc adfb 89ba 53d4 cabc 8a6e 133d
000001a0: 626f fcbc 1fd8 debc e21f 9bbb dbbf 8ebc
000001b0: 6b81 313d 7c0a 123d 0488 d6bc 3733 d1bc
000001c0: 4b75 f5bc 224a e6bc 92e2 05bd 9700 77bb
000001d0: 64ea 3cbc c9c6 c83b ca16 8b3c 2f2f 0c3d
000001e0: c8e2 1c3c 61e0 2fbd 2c40 da3c e0ae 933b
000001f0: bca9 c1bc 0e5e 15bd b86b c1bc 541e 08bd
00000200: 55d6 143c eb24 bcbb 7163 863c 4564 0f3d
00000210: 1009 26bd 7354 17bd 8580 30bd 6497 e93a
00000220: 57e1 023d 8032 593c f526 0ebd 15c7 0bbd
00000230: b77d 333d 94eb bfbc bfba ce3c 592c ffbb
00000240: e880 12bd 1538 29bd c96c 09bc 0a52 03bd
00000250: 47d4 1e3d 8d05 1cbd 15dd 1dbd cc01 0d3d
00000260: 0488 bfbc ef6c 18bd b99f ca3a 7886 cb3c
00000270: 3407 313d 9441 113d 7664 873c 284f 81bc
00000280: 138d 143d 2f85 95bc 9f27 d13c aa1a 9bbc
00000290: 9836 d8bc 1788 ee3c ba4f 05bd c357 94bc
000002a0: 9fcb a2bc a6f8 2bbd 7897 b6ba 1bfa 5c3b
000002b0: c84c f5bc 8f64 c83c 0100 ef3c 759e 2cbc
000002c0: 6cb7 29bd b12c 9f3b 1be6 34bd 03c7 bd3c
000002d0: 74b5 92bc 550b 10bc 7f2f fe3c 4efa 033c
000002e0: ef16 9a3c 5f7e 9fbc 7bd1 a8bc c0ad ef3c
000002f0: cc35 16bd 1f82 9b3c f378 013d e5d0 de3b
00000300: 4583 1c3d 2a05 1c3d da11 e6bb 0590 12bd
00000310: bd2e 8b3a 86f4 1e3d f2a3 2dbd 9908 353c
00000320: f303 31bd 94e8 4b3c 658e 0abd f56d 0a3c
00000330: b6e6 b5bc f5c5 2bbc 2628 73bc 8b94 e3bc
00000340: e431 563c 55db 06bd 1a09 503b ea5f d8bc
00000350: 2275 09bd eef7 cfbc da55 08bd d44e fcbb
00000360: 54b8 2ebd ac33 2bbc 9c23 d2bb d370 cc3c
00000370: c4df bfbc 1c2a 343b 32c4 9e3c 5605 20bd
00000380: 08a8 1dbd fabe c3bc 0da7 00bd 8406 243d
00000390: c15b 7dbb d90a c93c ed2e e43c ae3d 0ebd
000003a0: 851c b6bc a41e 16bb d047 90bc 2e83 d4bc
000003b0: f040 28bd a00e 8dbc f605 94bc 1f63 213d
000003c0: 5fbf 9f3c fb2f 6c3c 6f91 22bc b705 8dbb
000003d0: 588b f8bc 4abe d63c 8efe cebc d24e 8e3c
000003e0: 234a a93a 804e 6cbc c199 26bb ad2a 81bb
000003f0: a1cf 113d 4e82 74bc ffae 87bc 0b90 343d
0.010777257 -0.037076533 -0.04080369 -0.016624618 0.040600877 -0.025339331 0.013993041 -0.030010868
0.03687353 0.036594436 0.020893937 -0.018947199 -0.035655692 0.0125393225 0.03606866 -0.012542933
-0.019402785 0.042820536 0.043040983 -0.00803357 0.033308685 -0.009227415 0.040747292 -0.034451637
0.026547445 0.004308491 0.029679392 0.009868735 0.01835917 -0.009595444 0.026172819 -0.04422147
-0.0032410438 -0.015351747 -0.003953942 -0.037407868 -0.014987695 0.02853855 0.03695454 -0.0029943842
-0.014731101 -0.03001147 0.013163513 0.036023866 0.024395622 0.035540164 0.0035798606 0.02068253
0.012859336 -0.030735562 0.009635785 -0.027777394 0.023177247 -0.018495334 -0.031185191 -0.0028070686
0.00096475554 -0.025382034 -0.040540658 -0.03720432 0.03827671 0.030645631 0.027409373 0.0055000302
-0.01766257 0.0041211755 0.022257077 -0.02423657 0.013410055 0.0024854937 0.00049069204 0.01347932
-0.009407796 -0.009800727 0.016433625 0.03918325 -0.012859971 -0.0023002473 0.012423797 0.027747417
-0.043223802 0.01635835 -0.03404253 0.006286377 0.020830633 0.007407414 0.013564998 -0.01437907
-0.0169459 0.013735137 -0.0389274 -0.024655558 0.008751775 -0.016160194 -0.026444942 0.03312816
0.01328992 0.01868611 0.0024739364 0.02035176 -0.013529399 -0.0010527276 -0.024759447 0.03599409
-0.03081483 -0.027202664 -0.0047340253 -0.017425468 0.043336313 0.03565453 -0.026187904 -0.025537116
-0.029963156 -0.028111521 -0.032686777 -0.003768956 -0.011530492 0.0061272127 0.01697864 0.034224685
0.009575553 -0.042938594 0.026641928 0.0045069307 -0.023640506 -0.03646665 -0.023610935 -0.03323205
0.009084304 -0.0057417057 0.01640484 0.035007734 -0.040535986 -0.03694577 -0.043091316 0.0017821607
0.031953182 0.013256669 -0.03470512 -0.034125406 0.043821063 -0.023427762 0.025235532 -0.007787269
-0.035767466 -0.04131325 -0.008387753 -0.03206066 0.038776662 -0.03809123 -0.03854092 0.03442554
-0.023380287 -0.037213262 0.0015458978 0.024844393 0.04321976 0.03546293 0.016527396 -0.015784815
0.03626735 -0.018251983 0.025531588 -0.018933613 -0.02639322 0.029117627 -0.032546736 -0.018108254
-0.019872485 -0.041985177 -0.0013930639 0.003371841 -0.029943839 0.024462013 0.029174807 -0.010535826
-0.04143469 0.0048576226 -0.04416476 0.023166185 -0.01790879 -0.008791764 0.031028507 0.008055283
0.018809764 -0.019469438 -0.0206077 0.029257655 -0.0366724 0.018982945 0.031609487 0.0067998045
0.038211126 0.038090862 -0.007021171 -0.03578188 0.0010618787 0.038807414 -0.04239268 0.011049413
-0.043216657 0.012445588 -0.033827204 0.008449067 -0.022204738 -0.010484208 -0.014841115 -0.027780792
0.013073418 -0.032924015 0.0031743706 -0.026412923 -0.033558972 -0.025386777 -0.033285 -0.0076998267
-0.042656258 -0.010449331 -0.0064129364 0.024956143 -0.02342213 0.002749092 0.019380663 -0.03906759
-0.038490325 -0.023894776 -0.031409312 0.040045276 -0.0038659426 0.024541305 0.027854407 -0.03472679
-0.022230396 -0.0022906447 -0.017612368 -0.025941458 -0.041077554 -0.017218888 -0.018069249 0.03940117
0.019500433 0.014415736 -0.009922369 -0.00430366 -0.030339882 0.026213784 -0.025267866 0.017371569
0.0012915771 -0.014423013 -0.0025421234 -0.003941855 0.0355984 -0.014923645 -0.016562937 0.044082683

conv2.bias f4 [7]
00000000: 4872 dbbc b023 c8bc 90bf b23c bc87 613c
00000010: daf2 6abc 49db 9abc 5028 193b
-0.026787892 -0.02443108 0.02181986 0.013765272 -0.014340127 -0.018903391 0.0023369975

conv3.weight f4 [7, 14, 6, 6]
00000000: 975f d7bc 2fae 06bc fdc4 213d 7586 f2bc
00000010: b709 1fbc 0629 70bb d33d 0e3d abbe 8bbb
00000020: 93d3 4a3c ab38 143d 4b48 2ebb 3399 8cbc
00000030: f299 9f3c d50a 79ba 8c12 053d 2d48 d6bc
00000040: 7b93 303c 6979 463c 3e7a ab3c 8790 d7bc
00000050: 95ac ea3c 456f 2ebd 9bb7 12bc 284c 2d3d
00000060: 8666 6d3c 6692 063d 8fed 233c 346f 74bc
00000070: 0033 183d 79a5 2c3d c774 a2bc 7022 7ebb
00000080: 3c59 e3bc c684 53bc 3400 213d 6b1c e63c
00000090: 8db5 0b3c 9d73 f9bc 374b 5c3c c8a6 1abd
000000a0: 923b a13c d5b1 c3bc 1cb1 d63b 2768 babc
000000b0: 5829 1bbc 898e 8a3c e0a9 2cbd c4f1 d53c
000000c0: fb84 c83c 5d81 df3c 596c 2b3d d303 4bbc
000000d0: c034 2fbd 8f09 babc e3c2 943c cabc afbc
000000e0: 8633 243d d480 073d 5889 1b3d c059 debb
000000f0: 72ae cfbc ca90 9f3c b8e3 0b3c d8dc 04bd
00000100: 5fb7 293c 8cb9 d13b 2bfe 363b d85c 1ebd
00000110: 54ec 2e3d 602f 20bc 6e87 abbc 7758 33bd
00000120: 28f2 ee3c 5af6 703c 7fee 1e3d 04a5 02bd
00000130: 6687 efbc 0331 68ba 404f e43c 95a7 adbc
00000140: 1817 143d 3fc4 21bd 5bb4 ec3b dcfd 0e3d
00000150: a005 17bd 5182 d83c 6640 a7bc 0485 18bd
00000160: e1b3 483c 5484 b338 c8d9 b73c 16e7 1a3d
00000170: 486c 823c 61a5 bb3c ca6f d23c 30f1 b0bc
00000180: 9f39 773c 98ff 813c 7334 bfba 2971 f83c
00000190: 6803 15bc ce4d a03c acd9 7b3c 3d02 b0bc
000001a0: a53a 20bd f9b2 2ebd 47b3 91bc d360 d73c
000001b0: af4e 22bd 10df d3bc 252e 183d 179f 6e3c
000001c0: dae1 0ebd a764 403b 3398 083d f937 b73c
000001d0: 6d72 2dbc 861b 01bd 4c38 a33c 6ac1 343c
000001e0: 75b8 b93c c582 353c 7235 d33c 3ec9 68bb
000001f0: 232f 08bd ade7 e03c 7306 adbb 277f 0cbd
00000200: 0a1b ec3c cfc6 15bd 2361 e93c efce 22bd
00000210: 3549 bebc 3cc3 0f3d c565 0b3c 9b1d f1bc
00000220: 3ad0 703c 1deb 663c 49ac 113c 0a84 10bd
00000230: c07f dcbc 8b83 093d dc67 11bd b935 31bd
00000240: 3568 c2bc c017 a6bc d9a2 0dbd f379 45bc
00000250: 0c01 cdbc a75a 6b3c ac98 fdbc d238 853c
00000260: 9354 e23c e30a fcbc ce0e 0f3c 4e56 863c
00000270: ac09 ff3c 0b90 15bd 8b0c 643b 017f e6bc
00000280: 8962 62bc 3160 8fbc 94a6 0d3d 6632 dc3c
00000290: e106 34bd 4d75 da3c 01a2 b6bc 5b07 5c3c
000002a0: ae14 d73c 525f 333d 15b9 abbb c0b9 573a
000002b0: 25f8 acbb 559a 573c 09b5 013d fb2e 7fbb
000002c0: 7d6f 12bc a551 1b3c 70a8 13bd 1f1b c43c
000002d0: af2b e63b de90 01bd 339a e9bb 8256 2d3d
000002e0: 25b2 10bd 56ff 20bc 38a5 083d 4e2f f5ba
000002f0: 7bdc e3bc fdff a1bc b247 85bc 4845 1a3c
00000300: c603 eabc 4b72 a6bc 36b3 aabc bf6d 1d3d
00000310: b425 93bc 68fe 773c 3436 463c 55fe bebc
00000320: e8ec b93c 72ca c3bc 728a 8bbb d876 423c
00000330: 4063 053d cd76 a53c 9519 b3bc 61ba 09bd
00000340: ea56 dbbc 80e5 393c 4d5c e13c bf64 45bc
00000350: c6f8 f83c 6826 2cbc 4774 953c b88d 183d
00000360: b5ee 0fbd db90 283d 371b 213d 805e a03c
00000370: baa4 e3bc 0265 863c 5be3 073d 8163 ccbc
00000380: 8e1e 83bc 65c7 953c 10ce 793c b75a 99bc
00000390: 3c0c 79bc ec01 04bd c698 3ebc 151d bcbb
000003a0: 1d11 5dbc 315d 92bb 5975 233d 4900 3d3c
000003b0: 33a2 dbbb f280 5dbc fe3f 513c 8930 bcba
000003c0: c61d 08bd 0910 aabc f971 9d3c 5748 a93c
000003d0: f8d6 c93c 27db 1a3d 2f64 42bb f82f 0cbd
000003e0: 83f1 2c3d 84dc c1bb 6373 2cbd 8420 c2bb
000003f0: 9d0e c6bc ad69 003d 826b 943b 9d5f 1bbd
-0.026290698 -0.00822024 0.039494503 -0.02960513 -0.009706906 -0.0036645546 0.03472693 -0.0042646728
0.012379545 0.036186855 -0.0026593383 -0.017162895 0.019482587 -0.000950021 0.03248839 -0.026157463
0.01077735 0.012113907 0.020932313 -0.026314033 0.028646747 -0.042586584 -0.008954908 0.042308956
0.0144897755 0.03285446 0.010005369 -0.014919091 0.037158012 0.042149995 -0.019831074 -0.003877785
-0.027752511 -0.012910074 0.039306834 0.028089723 0.008527172 -0.030450637 0.013445667 -0.03775671
0.019681726 -0.023888508 0.006551875 -0.022754742 -0.009470306 0.01691367 -0.042154193 0.02611626
0.024477473 0.027283365 0.041851375 -0.0123910485 -0.042774916 -0.022709636 0.018159335 -0.021452326
0.0400882 0.033081844 0.037972778 -0.0067856014 -0.025351737 0.01947822 0.008538179 -0.032437176
0.0103586605 0.0064002927 0.0027922492 -0.03866276 0.04270585 -0.00977692 -0.020938601 -0.04378554
0.029168203 0.014707172 0.038801666 -0.031895652 -0.029239368 -0.0008857401 0.02786982 -0.021198073
0.036154836 -0.039493795 0.0072236485 0.034910068 -0.0368706 0.026429327 -0.02041645 -0.03723623
0.012249918 8.560033e-05 0.022442713 0.037818037 0.015920773 0.022906007 0.02568807 -0.021599382
0.0150894215 0.015868947 -0.0014587775 0.030327396 -0.00909505 0.01956835 0.015371721 -0.021485442
-0.039118428 -0.04265115 -0.017785681 0.026291287 -0.03962582 -0.0258632 0.03715338 0.014564297
-0.034883358 0.0029356868 0.033348273 0.022365557 -0.010586363 -0.03152039 0.019924305 0.011032442
0.022670964 0.011078541 0.02578232 -0.003552034 -0.033248078 0.027454222 -0.00528031 -0.03430095
0.028821487 -0.03656655 0.028488701 -0.03974813 -0.023228267 0.0350983 0.0085081505 -0.029433062
0.014698083 0.014094141 0.008891174 -0.035282172 -0.026916385 0.033572715 -0.03549944 -0.043264125
-0.02373133 -0.020274997 -0.03457913 -0.012053001 -0.025024913 0.014364875 -0.030956589 0.016262446
0.027628219 -0.03076691 0.008731557 0.016398575 0.031132542 -0.036514323 0.0034797515 -0.028136732
-0.013817438 -0.017501922 0.03458269 0.0268795 -0.043951873 0.026667261 -0.022294046 0.013429488
0.026254978 0.043792076 -0.0052405694 0.0008229278 -0.0052786046 0.013159354 0.03166679 -0.0038937915
-0.008937714 0.009479915 -0.036049306 0.023938714 0.0070242505 -0.031632297 -0.0071289777 0.04231883
-0.035326142 -0.009826502 0.03336069 -0.0018706114 -0.027815094 -0.019775385 -0.016269539 0.009415932
-0.028566252 -0.020318171 -0.020837408 0.03843474 -0.017962314 0.015136339 0.012097884 -0.023314634
0.022695974 -0.023900244 -0.0042584473 0.011869155 0.032565355 0.02019825 -0.021862784 -0.03362501
-0.026774842 0.011346221 0.027509833 -0.0120479455 0.030392062 -0.010507204 0.018243922 0.03724453
-0.03513976 0.04115377 0.039332595 0.019576311 -0.027788509 0.016405586 0.033175807 -0.02494979
-0.01600578 0.018283555 0.015246883 -0.018720014 -0.015200671 -0.032228395 -0.011633104 -0.0057407715
-0.01349285 -0.0044666757 0.039906833 0.0115357125 -0.0067026853 -0.0135195125 0.012771605 -0.0014357726
-0.03323152 -0.0207596 0.019219385 0.020664377 0.024638638 0.037806656 -0.0029661765 -0.034225434
0.04222251 -0.00591618 -0.04210223 -0.0059242863 -0.02417689 0.03135078 0.0045294175 -0.03793298

conv3.bias f4 [7]
00000000: f46f 23bd e082 c13b 281a 20bc 2cc1 0a3d
00000010: 35f0 14bd b1bc 8ebc 5019 43bc
-0.03990169 0.005905494 -0.009771861 0.03387563 -0.03636189 -0.01742396 -0.01190789

conv4.weight f4 [3, 14, 6, 6]
00000000: aea5 93bc 9012 9dbc 8977 133d 264a 363b
00000010: f8f5 823b b4c0 1ebd 78ef b33c b838 273d
00000020: 6d9d d73c ca3a 2e3d 53f6 0c3c a23d 023d
00000030: f41a 403c 4e01 46bc 197f 413c 292f 2dbd
00000040: 8afb 2b3d ce83 d4bc 4b07 c13b 2dcf e93b
00000050: 5fbf a0bb 76e7 2bbc 149e 91bc 815a f73c
00000060: 1148 1d3d bca1 b6bc 0b67 1dbd 583e 0dbd
00000070: 31bc 48bc 1aba 213d 4b08 20bd 5fd0 293d
00000080: b133 0d3c e1dd 383d 7b1b 993c 0e8f 1fbd
00000090: a000 90bc 4ef5 a1bc fcfb a1bc a03f 2a3d
000000a0: a0ca 553c c5f7 32bd 4b5e bcbc a8a2 cebc
000000b0: bf3d 21bd dae4 17bd 8768 283d 4eff 083d
000000c0: 735e 333d 0f1f 023d 5833 1abd 77d4 163d
000000d0: 1be1 8c3c d996 31bd 9d53 173d c521 9d3c
000000e0: 1f58 dcbc 797e 12bc 7566 d3bc de0e 58bc
000000f0: 2abd 243d ce09 d7bc 4129 34bd c69b d7bb
00000100: 8b12 9abc fca9 83bb 2901 23bc f486 b13c
00000110: e53c 1f3d 8521 e93c 1a3b 1ebd 734b 0cbb
00000120: f864 0c3d f1ee b43b d8b0 f9bc d950 87bc
00000130: e4d0 7c3b 6172 aabc fb9c 143c 5d54 163d
00000140: d123 b93b a8f4 fcbc 44f6 d43c 911a fa3c
00000150: b28a 1ebd ce81 24bd 4e8d 1bbd f1b6 2ebc
00000160: 9e59 e4bb eeb0 ea3c aace 003d ec68 2a3d
00000170: c297 1b3c a3df afbc 80d9 00bd 764a bc3c
00000180: 789f d63c 2ad9 9abb 3c9c 29bd 72a4 aa3a
00000190: 18e5 9d3c d6e3 8dbc 6170 ecbc 9633 813c
000001a0: 596e cf3c 4558 f23c f081 67bb bb52 84bc
000001b0: c61a 073d 7bb6 0e3d 3e34 5fbb 63ef ebba
000001c0: 12fd 213b 44e4 1fbd 1b33 103d b9ce f5bc
000001d0: 8791 bf3c beab 05bd 1ea1 b23c aaa2 213c
000001e0: 0c07 1a3d a639 f1bc 8545 00bd 3a8b 1dbd
000001f0: 1072 2a3d 85a3 31bd b109 e1bc 397e 61bc
00000200: 3496 cbbc b1ef e93b d342 3bbc 3b93 aabc
00000210: b787 d2bc 6801 ddbc 1be0 9bbc ab2b 2f3c
00000220: ec33 7bbb 4d6e 44bc 78cf 133d 423a 933c
00000230: c337 093d ff17 833c 470b 953c cf27 04bc
00000240: 5fc2 483c 6428 243d fea4 713a f112 48bc
00000250: 10ef 723c 30b6 05bb 8042 6dbc e1f3 a83c
00000260: 6fe2 07bd 0d42 213c 8b77 ef3c aa32 a2bc
00000270: 8464 a0bb 5557 a0bc 55a5 0b3d a369 1f3d
00000280: 138c 243d ca2a f83c ee98 493a 9c55 2a3c
00000290: dc6f 113c 1186 02bd 6719 76bb 414b b73c
000002a0: 5534 b8bc d9f4 ddbc 4421 0fbd eba4 843c
000002b0: 1cfc 91bb 7fdb 28bd 47f9 02bd fae4 1ebd
000002c0: 533b 123d b5a1 e6bc a320 c33c 9d61 10bd
000002d0: e54b 8cbc 72d3 033c 6c36 e7bc 65d4 90bc
000002e0: 993e f73b eb3a c53c d96c 253d c339 be3c
000002f0: 5761 b1bc 5b2c 303d c13f 5dbc 5119 cd3b
00000300: 3652 51bc b4ad 9e3b fa90 7fbc 921c 1dbc
00000310: 8d2e b33b 151b a63c cd15 e2bb 1dd7 323d
00000320: fa01 aabb 4535 4fbc 084a 1ebd 0880 1bbd
00000330: 84de 0f3d 39dd c7bc ec6c 2b3c 7f4d 003c
00000340: 256d 0d3d 174c 2a3d ddcb 063d 62a7 003d
00000350: 79bf febc 3ecc 223d de1d de3c d596 adbb
00000360: 7cee a13c ea34 e03c 0122 09bd 47ba c13c
00000370: eab6 b1bc c7eb 82bb 1b6a e23b 969b 9c3b
00000380: e957 d43a 8e36 b9bb b52e d5bc 8c32 803c
00000390: 1cad 0fbd 5fc3 0c3d 3430 30bd 7b87 efbb
000003a0: 298a 19bd e49c 13bd 9768 11bc f39f f9bc
000003b0: c427 e33c d2f9 64bc ff4b 8ebc 56ad ca3c
000003c0: 404e 2b3d d4d1 ef3c 318b 04bd 9316 8fbc
000003d0: 6ed7 053d 3ff7 1d3c 4c51 e4bc 6073 20bd
000003e0: 9a75 c6bc 3d62 aabb 671d 77bc 6614 13bc
000003f0: 004f 363d 5b2f e53c 999f ce3c ac4a 103d
-0.018023338 -0.01917389 0.03600267 0.0027815192 0.003996607 -0.038757995 0.021964774 0.040825576
0.026320184 0.042536534 0.00860365 0.03179706 0.011725176 -0.012085272 0.011810088 -0.042281304
0.041987933 -0.025941756 0.005890762 0.007135293 -0.0049056257 -0.010492196 -0.017775573 0.030194523
0.038398806 -0.022293918 -0.038428348 -0.034483284 -0.0122519 0.03948412 -0.03907041 0.041458484
0.008618281 0.045133475 0.018689862 -0.038954787 -0.017578423 -0.01977029 -0.019773476 0.041564584
0.013048798 -0.043693323 -0.022994181 -0.025224045 -0.039365526 -0.037083484 0.04111531 0.033446603
0.043791246 0.0317679 -0.03764662 0.036823716 0.017197182 -0.04335675 0.036944974 0.019181142
-0.026897488 -0.008941286 -0.025805691 -0.013187138 0.040219463 -0.026249792 -0.043984655 -0.006579849
-0.01880767 -0.0040180665 -0.009949007 0.021670796 0.038876433 0.028458366 -0.038630582 -0.0021407276
0.03427598 0.005521648 -0.030479833 -0.016518043 0.0038576657 -0.020806493 0.00907063 0.03670155
0.0056500216 -0.03087838 0.025996335 0.030530246 -0.03870649 -0.040162854 -0.037976556 -0.010663734
-0.006968691 0.02864882 0.03144709 0.041603968 0.009496631 -0.021468943 -0.031457424 0.022984724
0.026199088 -0.004725595 -0.041408762 0.0013018979 0.01927428 -0.017320555 -0.02886218 0.015771668
0.025321173 0.029583106 -0.0035325252 -0.01615273 0.032984518 0.034841996 -0.0034058238 -0.001800042
0.0024717492 -0.03903605 0.035204988 -0.0300058 0.023384823 -0.03263449 0.021805342 0.009865442
0.037604377 -0.029446434 -0.0313163 -0.038462855 0.041612685 -0.043368835 -0.027470442 -0.013763004
-0.024851896 0.007139169 -0.011429506 -0.020822158 -0.02569948 -0.02697821 -0.01902776 0.010691564
-0.0038330508 -0.011989188 0.03608653 0.017972115 0.033500444 0.016002653 0.018193854 -0.008066132
0.012253373 0.040077582 0.0009218006 -0.012211547 0.014827505 -0.0020402782 -0.014481187 0.020624103
-0.03317493 0.009842408 0.029231807 -0.01979955 -0.004894795 -0.019572893 0.03409322 0.038919102
0.040172648 0.03029384 0.000769033 0.010396387 0.008876767 -0.031866137 -0.0037551762 0.022374751
-0.022485891 -0.027094292 -0.034943834 0.01619192 -0.0044551026 -0.041224953 -0.03197601 -0.038792588
0.035701107 -0.02815328 0.023819273 -0.03524934 -0.017126033 0.008046018 -0.028224193 -0.017679403
0.007545304 0.024075946 0.04038701 0.023220902 -0.02165286 0.04301105 -0.01350397 0.0062591215
-0.012775948 0.0048424844 -0.01559853 -0.009589331 0.005468196 0.020276586 -0.0068995715 0.04366218
-0.005188224 -0.012646978 -0.03864482 -0.037963897 0.035124317 -0.02439748 0.010462981 0.0078309765
0.034527916 0.04157647 0.032909263 0.03140963 -0.03109716 0.03974556 0.027113851 -0.0052975216
0.019767039 0.027368981 -0.033479694 0.023648394 -0.021693666 -0.003995392 0.0069096214 0.0047792895
0.0016200516 -0.0056522554 -0.026023248 0.015649103 -0.0350772 0.034366008 -0.04301472 -0.0073098517
-0.037485275 -0.036038294 -0.008875034 -0.030471778 0.027728923 -0.013975577 -0.017370222 0.024740856
0.041822672 0.029274859 -0.032359306 -0.017466819 0.032676153 0.009641468 -0.027870797 -0.03917253
-0.024225999 -0.005199699 -0.015082694 -0.008977031 0.044508934 0.027976682 0.025222586 0.035227463

conv4.bias f4 [3]
00000000: ec3c c93a 6e4e 1f3d a70d 8cbc
0.0015353239 0.038893156 -0.017096354

conv5.weight f4 [1, 3, 6, 6]
00000000: 510b 753a 86c1 983c d7f7 3c3d ca56 a0bd
00000010: 91bf a8bd dc94 b9bc 27d3 28bd 63bc 61bd
00000020: d5f5 5a3d eede a738 273f 4b3d de59 04bb
00000030: e0a8 bf3d 475b 09bd 25f5 60bc 9119 9c3d
00000040: 5955 4b3d 798e 10bd 2803 ac3d 28fe 143d
00000050: cf01 63bd 4f57 653d 287a 4d3d f065 8c3d
00000060: ef60 333d a0b9 c7bc 8cfd 5abd 1837 86bb
00000070: 9dad ed3c 3e75 ab3c 58a4 88bd bda4 0f3d
00000080: acb9 38bd 71a8 593d 393b b63c 6144 3abd
00000090: 290b ac3d 414c 86bc ca14 48bd 8066 9a3d
000000a0: 0e69 813d 6221 96bd 2181 9bbd ccd2 9f3d
000000b0: 8dbe 2abd 5e2c a13d 221f a73d 6a0e b03d
000000c0: 66db 96bd 287b 983d 5513 823d 005f e63c
000000d0: 9230 3abd 50ee 2c3d d004 adbd 8855 2bbd
000000e0: e761 823d 72cf 423d caf2 63bd 0518 9abc
000000f0: b9bf 9ebc 6f09 bebd 5150 0fbc 3e07 bcbc
00000100: c2a8 a8bd 320d a33d 3e52 73bd fa30 193d
00000110: afea 37bd 82a1 71bd c3a5 a8bd f273 0ebd
00000120: 7adc d03c 8635 863c 0449 e9bc 0bf0 173d
00000130: aa8e 60bc d7e4 76bd 0d37 93bd 78bb 263d
00000140: 5c19 ec3c bb73 a03c 2e3a 213d 3339 8bbd
00000150: f243 373d 07d2 8a3d 9b93 ba3d f0c6 8ebd
00000160: 4cf5 e03c 1317 143d aaf7 eb3c f07a 933d
00000170: d7ac b13d 82b2 a13d 6862 663d cfe0 1abd
00000180: 7878 ed3c 5d40 183d 4fc5 8b3d 271c 7ebd
00000190: 0737 c63c fd85 9ebd 2274 9ebd f08e 123d
000001a0: d868 49bd ce26 b03d 794f ab3d 0c55 8fbd
0.00093476946 0.018646967 0.046134796 -0.07829054 -0.082396634 -0.02265399 -0.041216996 -0.0551113
0.0534571 8.0047044e-05 0.049620774 -0.0020195167 0.09358382 -0.033534314 -0.013730322 0.07622064
0.04964194 -0.035292123 0.083990395 0.036375195 -0.055421647 0.055991467 0.050165325 0.068553805
0.043793615 -0.024380505 -0.053464457 -0.004095923 0.02901345 0.020929929 -0.06671971 0.035069216
-0.045098945 0.053139154 0.022245036 -0.045475367 0.08400566 -0.016393783 -0.04884795 0.075390816
0.06318866 -0.07330586 -0.07592989 0.07803878 -0.04168563 0.078697905 0.08160235 0.08596499
-0.07366066 0.07445365 0.063513435 0.028121471 -0.045456477 0.04221946 -0.084481835 -0.041829616
0.0636633 0.047561117 -0.055651464 -0.018810282 -0.01937853 -0.09279143 -0.008747176 -0.022952672
-0.08235313 0.07961501 -0.059404604 0.037400223 -0.044901546 -0.058991916 -0.082347415 -0.034778543
0.025495756 0.016382944 -0.0284772 0.037094157 -0.013705889 -0.060276832 -0.071882345 0.040706128
0.028820686 0.019586435 0.039362125 -0.06798019 0.044742532 0.06778341 0.09110185 -0.06971538
0.027460717 0.036154818 0.028804619 0.07201183 0.08675545 0.07895376 0.05624619 -0.03781205
0.028988108 0.037170757 0.06824743 -0.062038567 0.024196161 -0.077404 -0.07736994 0.035780847
-0.049172252 0.086011514 0.083647676 -0.06998643

conv6.weight f4 [1, 3, 6, 6]
00000000: b0bf 7dbd eef8 19bd 9f2d b93d 3a1d b1bd
00000010: d93e 6b3d bbea 51bd 0bf3 d6ba d99f b0bd
00000020: 0c7c 053b 7998 233d 784a 963d 648d 4b3c
00000030: 2305 b7bd 7d8d abbd ea8f 35bc fedb f63b
00000040: 2a24 c7bc 6f41 083d fd24 3f3d 9f44 2cbb
00000050: 7055 2b3d 72ea 3fbd 0c1c 033c f1c6 193d
00000060: 166a 0bbd 305b 20bd f350 a3bd b897 91bd
00000070: bb58 a83c f129 083d 0d53 3dbd 5592 b03d
00000080: 8753 693d bc18 473c cad1 b0bd cb3f 1cbd
00000090: 163e 5fbd dc43 53bd 142c 8f3d 7010 003d
000000a0: 7148 21bd 7673 b7bd 1e37 943d f1eb 61bd
000000b0: df05 763d e134 993d 6b77 4dbd 5346 ba3d
000000c0: c75b 74bd 1ce4 983d 8c1e bbbd 977a 003d
000000d0: 74a2 9a39 301e 9ebd cf99 28bd f6e9 bcbd
000000e0: efb1 0fbd 1078 5abc a356 793d 2b6c c3bd
000000f0: 9254 363d 8c02 5ebc f165 ad3d df18 5c3d
00000100: 95ff aa3d 2a63 45bd ac48 9abd d0f7 813d
00000110: 997b 873d e859 69bd 3200 363c 1680 b9bd
00000120: 4984 55bd c48b fe3b 49e0 51bd b49b 793d
00000130: c38a c23d acb9 b03d 83d7 66bd 8c53 b9bd
00000140: a415 b3bc 7f5a 98bd ce40 493d 44f7 513d
00000150: 13ab c8bc aaa3 a53b cd0c f6bc f1a0 7cbd
00000160: 61fe 9d3d 5c85 21bd 4e04 e5bb e7fa e7bc
00000170: ef90 953d 86c2 c5bd db8c 363d da08 8f3d
00000180: 76dc 4b3d ba64 383d c447 eabc 77f4 823d
00000190: 9c3e 55bd 456a 883c 83c8 aebd b23c cebc
000001a0: ce1e b5bd 71d9 843d 2b78 c5bc d680 113c
-0.061950386 -0.037590913 0.09041905 -0.08648153 0.057432983 -0.051249247 -0.0016399337 -0.086242385
0.0020368127 0.03994033 0.073384225 0.012423847 -0.089365266 -0.08376596 -0.011081675 0.0075335493
-0.024309237 0.033265527 0.046666134 -0.0026286019 0.041829526 -0.046854444 0.008002292 0.03754324
-0.03403672 -0.039149463 -0.07974424 -0.07109016 0.020550122 0.033243123 -0.04622178 0.086216606
0.056964424 0.012151893 -0.08633764 -0.038146775 -0.05450257 -0.051578388 0.06990829 0.031265676
-0.039375726 -0.08957569 0.07237075 -0.055156652 0.060064193 0.07480789 -0.050162714 0.090954445
-0.05965784 0.074653834 -0.09136686 0.03136691 0.00029494206 -0.077206016 -0.04116231 -0.09224312
-0.0350818 -0.013334289 0.06087364 -0.09542116 0.044514246 -0.013550412 0.084667094 0.053734656
0.0834953 -0.048190273 -0.07533392 0.063460946 0.06615371 -0.056970507 0.011108445 -0.090576336
-0.05212811 0.007768126 -0.051239286 0.060939506 0.09499123 0.08629164 -0.05635787 -0.090491384
-0.021860905 -0.07439136 0.04913407 0.0512612 -0.024495637 0.0050549107 -0.0300354 -0.061676923
0.077145346 -0.039433822 -0.0069890385 -0.028317882 0.073030345 -0.09656243 0.044567924 0.0698411
0.049770795 0.045017935 -0.028598674 0.06394284 -0.052061662 0.016652236 -0.08534338 -0.025175426
-0.08843766 0.06486786 -0.024105152 0.008880815

conv7.weight f4 [1, 2, 6, 6]
00000000: 5763 92bc b963 923c e9b6 2abd 4a48 c8bc
00000010: cd2f 343d 95a8 79bd b16f 743d 50a1 f53c
00000020: cd2f 813d 3f8e a23d 413a d13d 7ac9 1dbd
00000030: 6bc4 c8bc b2a0 4c3c c6c9 873d 8473 5c3d
00000040: 1c4e 27bd e1ff c9bd 4938 2cbd 4f1e d23d
00000050: 946b e1bd 365e b8bc fef3 bd3b 7e8b 03bd
00000060: 7291 883d 8abd 67ba 439d c13d 887a 4fbd
00000070: 2368 cb3d 1b35 dfbc 02cf 9c3c dcb8 863d
00000080: 8ff8 a23c 7f32 d93d fb03 1dbd 4b47 2f3d
00000090: 42f1 493d 9b0e 583d 421c e43d bfe7 273d
000000a0: 391c 8cbd c257 adba 2426 e6bd 4e40 b1bd
000000b0: 5695 74bd 2c41 113d 5473 3f3d 3d5a 2a3d
000000c0: 1331 a1bd fbab b93d 7940 533d 64a9 473a
000000d0: 9cb5 083d 857e abbb e5d4 b6bd 6c2b 8bbd
000000e0: de63 033d e79b f0bd 291d a7bd f7ed b83d
000000f0: 99fe d73d b9d8 ebbd f762 c6bd 8845 71bc
00000100: ed08 523d 62eb b4bc 6730 5d3d 0884 e5bd
00000110: 08e1 463d 2e40 95bc e809 df3d 858e 9cbd
-0.017869635 0.017869817 -0.041678343 -0.024448533 0.0439909 -0.060951788 0.05967683 0.029984146
0.063079454 0.079372875 0.10216189 -0.03852222 -0.024507722 0.012489485 0.06630282 0.0538211
-0.040845975 -0.09863258 -0.042045865 0.10259687 -0.11006847 -0.02250586 0.0057969084 -0.032115452
0.066683665 -0.0008840194 0.094538234 -0.050653964 0.09931972 -0.027247002 0.019141678 0.06578228
0.019893913 0.106053345 -0.038333874 0.0427926 0.049302347 0.052748304 0.11138202 0.040992495
-0.068413205 -0.0013225006 -0.112377435 -0.08654843 -0.05971273 0.035462543 0.046740845 0.041589964
-0.07870688 0.09066006 0.051575158 0.0007616489 0.03337632 -0.005233588 -0.08927325 -0.067953914
0.032077663 -0.11748486 -0.08159859 0.09029763 0.105466075 -0.11515946 -0.09686845 -0.01472605
0.051278044 -0.022084896 0.05400124 -0.112068236 0.04855445 -0.01821908 0.10890561 -0.07644371
