siamese-models/siam_v2_45.pth (torch, 102187 bytes, 11 tensors)

conv1.weight f4 [14, 31, 6, 6]
000000 53 e2 d9 bc 4e e8 a7 3c 04 8f 92 3c c2 be 89 bb
       -0.026597178 0.020496514 0.01789046 -0.0042036483
000010 c4 ce c2 bb f3 37 d1 3c ab 93 ac 3c a0 86 45 3b
       -0.0059450585 0.025539374 0.021066507 0.0030140057
000020 7c b0 87 bc 68 3d 80 3a 94 1f b6 3c b5 3e 90 bc
       -0.016563646 0.0009783925 0.022231854 -0.017608026
000030 fd df c6 3c ed 2f d0 bc f4 0d 67 bc 52 99 d1 3c
       0.024276728 -0.025413478 -0.014102448 0.025585804
000040 e9 c6 5e bc 57 94 9f 3b 5f 50 67 ba 13 a1 b7 3b
       -0.013597229 0.0048699784 -0.0008823927 0.0056039183
000050 b2 18 db bc 26 3b c9 3c 11 b3 e6 3c dd 04 19 3b
       -0.026745174 0.024564337 0.028161557 0.0023348846
000060 99 d4 9f 3c 1e 61 85 bc 09 25 83 3c 7c 22 21 bc
       0.019510554 -0.01628166 0.01600887 -0.009834882
000070 8e 4f c2 3b f8 ed 19 3c a4 00 f0 3a 4f 62 b6 bb
       0.005929894 0.009395115 0.0018310738 -0.0055659185
000080 c0 fe b9 bc 44 99 a3 3c 02 bd d6 3c 38 f5 c3 bc
       -0.022704482 0.019970544 0.026213173 -0.02392064
000090 d8 98 23 bc 49 d5 a8 3c 1b 55 48 ba 1e 79 39 3c
       -0.009985171 0.020609515 -0.0007642076 0.0113203805
0000a0 c0 75 0d bc be da e9 3c 9d 69 1a 3c 78 32 d5 bc
       -0.008634031 0.028546687 0.009424594 -0.026025042
0000b0 8e c2 a5 3c c0 7b bd bc 7e ba 98 3c 57 40 28 3c
       0.020234372 -0.023130298 0.018643614 0.010269246
0000c0 1d 77 bb 3c 4f 52 cb 3c 66 71 30 bc 0d fa df 3b
       0.022883946 0.024819521 -0.010769224 0.0068352283
0000d0 c5 e1 00 bc c4 a6 e9 bc 9c e2 ca 3b 6c fc d9 bc
       -0.007866328 -0.028521903 0.0061915647 -0.026609622
0000e0 00 58 45 bc 52 a9 da 3c fb 05 d0 3c 07 8b ff 3b
       -0.012044907 0.026692066 0.025393477 0.007798556
0000f0 3b 5f 36 bc 34 f8 66 bc 8b 28 f1 3c 5b 76 b9 3c
       -0.011131103 -0.014097262 0.029438278 0.022639444
000100 a9 00 9f 3c 0f d8 7d bb 60 46 cc bc bd df 04 bb
       0.019409494 -0.0038733517 -0.024935901 -0.002027496
000110 70 a6 9f bc e9 86 a2 3c 8f 1e ea 3c 15 02 cf bc
       -0.019488543 0.01983972 0.028579025 -0.025269547
000120 10 f9 ee 3c a9 7e ec bc 00 41 68 3b f5 f8 f2 3c
       0.029171497 -0.02886899 0.0035439134 0.029659728
000130 59 7b cd bc e8 05 9f bc 45 90 2a bc 88 d0 98 3c
       -0.02508323 -0.019411996 -0.010410373 0.018654123
000140 11 34 a8 bb a1 ab ad bb 75 73 99 3c ad 40 c4 ba
       -0.00513316 -0.005300001 0.018731812 -0.0014972888
000150 11 81 e1 3c 8c a5 60 bb 48 35 11 bb 3f b7 5f bc
       0.027527364 -0.003427836 -0.0022157002 -0.013654529
000160 5f de fa 3b aa 9f 29 bc ae bb 48 bc bc 1e 86 3b
       0.007655903 -0.010353008 -0.012251778 0.0040930193
000170 a9 57 bb 3c 7c 3d e4 bc 71 5f 4a bc b5 8d b4 bc
       0.022868948 -0.02786135 -0.012351857 -0.022040227
000180 03 39 73 bc 4b 51 23 3c 58 29 17 3c 7e 8f ce 3c
       -0.014845136 0.009968112 0.009226166 0.025214907
000190 af 0e c4 bc c1 c5 d5 bc 4f e4 c7 3c 2f c7 d8 bc
       -0.023932783 -0.026095273 0.024400858 -0.026462166
0001a0 aa 39 4e 3c 90 55 4f 3c 0e d1 ce bc 59 95 84 bc
       0.01258699 0.012654677 -0.02524617 -0.016184496
0001b0 ae db f0 3c 33 54 e2 ba e0 f4 ae 3c 8b 64 e1 ba
       0.029401626 -0.0017267525 0.021357 -0.0017196102
0001c0 cd c6 9d bc a5 52 d1 bc 29 f0 44 bb 41 c0 b6 bc
       -0.019259835 -0.025552103 -0.0030050373 -0.02230847
0001d0 1c 7f 50 3c 0e 86 63 bb 44 06 3a 36 d1 d1 f8 bb
       0.012725618 -0.0034717354 2.7719807e-06 -0.0075933714
0001e0 3d 7c a1 bc 36 8e a8 3a 31 42 66 bc 19 a3 70 bb
       -0.019712562 0.0012859765 -0.014053867 -0.0036718308
0001f0 cf 6b b3 bc 48 53 9f 3c 2c f7 24 bb 2e eb c1 bc
       -0.021901993 0.019448891 -0.002517174 -0.023671713
000200 ed c3 98 bb 52 d6 ca bc 65 54 b0 bc f5 37 a7 ba
       -0.004662028 -0.024760399 -0.021524617 -0.0012757765
000210 db 28 c1 bc cc a2 ee bc 77 c4 c7 3b 36 eb 56 bc
       -0.023579052 -0.029130362 0.0060964185 -0.013117602
000220 0a 94 a6 bc c7 43 69 3b cc ca 83 3c 3c 8a cc bb
       -0.020334262 0.0035593377 0.016087912 -0.0062420648
000230 32 6c 7f bc 50 31 27 3b 12 02 aa 3b 5c a8 ec bc
       -0.015589761 0.002551157 0.005188235 -0.028888874
000240 f1 a2 a0 bc 49 66 b7 3c b3 14 5f bc 27 00 dc 3c
       -0.019608947 0.02238764 -0.013615775 0.026855541
000250 3a 65 f0 3b bd 6d 53 3b e1 6f 8d 3c 3e 80 d5 bc
       0.007336286 0.0032261454 0.017265262 -0.026062127
000260 b4 b7 0d bc 2d b4 24 3c 87 17 47 3a 25 15 8d 3c
       -0.008649755 0.010052723 0.00075947534 0.017221997
000270 15 f0 bc 3c b4 1f 88 bc cc 32 c0 3c 7c 68 44 bc
       0.023063699 -0.01661668 0.023461722 -0.011987802
000280 6b fb c4 bc b4 aa a5 bc 24 9e 54 3c 47 c9 9f 3c
       -0.024045667 -0.020223 0.012977157 0.019505156
000290 38 04 ab bc 29 6c e3 bc 94 2c c3 bc fa 6b c1 3c
       -0.020876035 -0.027761536 -0.023824967 0.023611058
0002a0 ef c8 6b bb db 44 e9 bc 02 93 ca bc b1 1f 68 3c
       -0.003597792 -0.028475216 -0.024728302 0.014167712
0002b0 b9 72 df bc e7 fc dd 3c 75 d1 b8 3c 2d c3 a1 3c
       -0.027276384 0.027098132 0.022560814 0.019746387
0002c0 1b 61 69 bc 68 f4 c1 bc 30 64 00 bc 67 b6 da 3c
       -0.014244343 -0.023676112 -0.007836387 0.026698304
0002d0 f0 c9 b5 bc 88 77 df bc 93 80 7a 3c 21 96 c5 bc
       -0.022191018 -0.027278677 0.015289444 -0.024119439
0002e0 98 f6 97 3c 55 93 e9 3a bc 83 6c 3c 63 b0 3f bc
       0.018550202 0.0017820398 0.014435705 -0.011699769
0002f0 67 f0 20 bc 74 7b 16 bc ca b8 4f bc 58 02 8f bc
       -0.009822941 -0.009184707 -0.0126783345 -0.017457172
000300 95 8a e0 3b 00 1d 8a 3b ef 1b 07 3c 1e 2e 84 3c
       0.0068524578 0.004214883 0.008246406 0.016135272
000310 db 0e 8d bc 46 86 ec 3b 7b 28 aa bc cf 9e 9d bc
       -0.017218998 0.007218155 -0.020771256 -0.019240765
000320 ec 03 12 3c 3d 18 31 bc 73 07 d6 3c 30 6c 3d bc
       0.008912068 -0.0108090015 0.026126599 -0.011561438
000330 e9 f2 c8 3c 47 94 bb 3c 9f 57 8c 3c 49 87 62 3c
       0.024529891 0.022897853 0.017131625 0.0138262
000340 35 38 a2 bc d8 57 85 bc e1 3a b0 bb 10 0a 47 bc
       -0.019802192 -0.016277239 -0.0053781127 -0.012148395
000350 64 7f 77 3c 23 57 a8 3b bb ba 75 3c d1 e0 d4 3b
       0.015106056 0.0051373406 0.014998133 0.0064965268
000360 34 24 d1 bc d2 4f 17 bb 56 02 e2 3c 7a 11 ad bc
       -0.025529958 -0.0023088348 0.027589004 -0.021126498
000370 fd 5c 6b 3c d1 f0 ef bc 19 4e bc 3c 8e 25 0a 3c
       0.014365432 -0.029289635 0.022986459 0.008431805
000380 ab 21 9f 3c 01 79 60 3c 76 d2 05 b9 52 80 a1 3c
       0.019425234 0.013700725 -0.00012762271 0.019714508
000390 dd b9 0e bc 47 f7 20 3c be a3 4e bb 29 b0 24 3c
       -0.008711305 0.0098245805 -0.0031530703 0.0100517655
0003a0 e9 aa aa bc 8b 14 cb bc 3d 34 88 bb a0 95 aa bc
       -0.02083345 -0.02479007 -0.004156618 -0.0208233
0003b0 0d 11 95 bc da ae ea bc 28 ce df 3c 1e 6b bf bc
       -0.018196607 -0.028647829 0.027319983 -0.023366507
0003c0 ab db e6 3c cd 05 53 3c 07 85 45 3c 71 12 b8 3c
       0.028180918 0.012879801 0.012055642 0.022469731
0003d0 9e 27 3a bc cf 3e 24 3c 28 d6 ef 3c a1 f8 6e 3c
       -0.011361985 0.01002474 0.029276922 0.014585645
0003e0 a1 f5 ec 3c a4 ef 9c ba 88 c3 99 bc 27 4f 79 bc
       0.028925719 -0.0011973274 -0.018769994 -0.015216625
0003f0 55 30 11 3c 03 ed cb bc 36 15 1f 3c 42 d3 ca 3c
       0.008861621 -0.02489329 0.009709647 0.024758939

conv1.bias f4 [14]
000000 3a 4f 6c bc 90 78 54 bc 29 83 b8 bc 20 04 9e bc
       -0.014423186 -0.012968197 -0.02252348 -0.019289076
000010 f4 5d 7b 3c 79 96 85 bc c5 bf 81 bc 84 1b 36 bc
       0.015342224 -0.016307103 -0.015838513 -0.011114959
000020 fe ed 67 bc fc 6b 9e bb 88 f7 37 bc 18 9d 64 3c
       -0.014155863 -0.00483465 -0.01122845 0.01395347
000030 a8 74 8d bc 18 da d8 3b
       -0.01726754 0.0066177957

conv2.weight f4 [7, 14, 6, 6]
000000 95 1f 31 3c 53 d6 17 bd ad 19 27 bd e1 0a 88 bc
       0.010810752 -0.03706963 -0.04079597 -0.01660675
000010 e3 60 26 3d 8c 51 cf bc 7a 35 65 3c f7 d6 f5 bc
       0.040619742 -0.02530744 0.013989801 -0.03000973
000020 75 09 17 3d ed f0 15 3d d8 49 ab 3c 53 20 9b bc
       0.036874253 0.036606718 0.020909235 -0.018936312
000030 fb 00 12 bd bc 5f 4d 3c ad c1 13 3d ee cc 4d bc
       -0.035645466 0.012535032 0.036073375 -0.012561066
000040 4c ea 9e bc 15 71 2f 3d 2d 43 30 3d ff 66 03 bc
       -0.01939883 0.042832453 0.043032814 -0.008020162
000050 da 71 08 3d 32 69 17 bc ae e2 26 3d d7 2d 0d bd
       0.033311702 -0.009241389 0.040743522 -0.034467544
000060 51 7b d9 3c d0 4a 8d 3b 9b 4e f3 3c 2c cd 21 3c
       0.02654806 0.004311897 0.029700568 0.009875577
000070 33 71 96 3c e4 40 1d bc 80 b2 d6 3c 04 12 35 bd
       0.018364524 -0.009597991 0.026208162 -0.044206634
000080 6e 65 52 bb a4 65 7b bc f7 da 80 bb 85 28 19 bd
       -0.0032103914 -0.015344057 -0.0039323526 -0.037392158
000090 4e c2 75 bc a5 a7 e9 3c 19 78 17 3d 2a 85 44 bb
       -0.014999939 0.028522322 0.03697977 -0.0029986599
0000a0 9f d7 70 bc a4 bb f5 bc a8 8c 57 3c b5 81 13 3d
       -0.014699846 -0.0299967 0.013156094 0.03601237
0000b0 52 b5 c7 3c 05 a2 11 3d 58 51 6c 3b 60 61 a9 3c
       0.024378452 0.035554904 0.0036059227 0.020676315
0000c0 29 fb 52 3c 4c e8 fb bc 49 46 1d 3c bb 83 e3 bc
       0.012877264 -0.030750416 0.009599277 -0.027772775
0000d0 b4 19 be 3c c9 a4 97 bc 49 67 ff bc 98 7a 38 bb
       0.023205616 -0.018511193 -0.03117718 -0.0028149243
0000e0 aa b9 75 3a f8 bf cf bc 86 19 26 bd a9 41 18 bd
       0.00093736744 -0.025360093 -0.040551685 -0.037171993
0000f0 fd cd 1c 3d 6e 3e fb 3c 43 8c e0 3c ea c5 b4 3b
       0.038282383 0.030669417 0.027410632 0.0055167573
000100 1b ba 90 bc f6 a0 87 3b 05 4d b6 3c fb 93 c6 bc
       -0.017666867 0.004139061 0.022253523 -0.024240484
000110 08 c0 5b 3c 1b 81 24 3b dd ca 07 3a 02 f0 5c 3c
       0.013412483 0.0025101367 0.00051800703 0.013484957
000120 47 71 1a bc 4e 8f 20 bc 28 a5 86 3c a7 71 20 3d
       -0.0094264215 -0.0097997915 0.016436175 0.039170887
000130 4b cf 52 bc a0 af 16 bb 31 d3 4a 3c 36 45 e3 3c
       -0.012866805 -0.0022992864 0.0123794535 0.027742963
000140 8e 08 31 bd cb ee 85 3c 47 84 0b bd 88 49 cd 3b
       -0.04322105 0.016349217 -0.034061696 0.006264869
000150 20 8e aa 3c 77 48 f3 3b e3 ac 5e 3c 65 67 6b bc
       0.020819724 0.00742441 0.013591024 -0.014367913
000160 0e b4 8a bc 3b e8 60 3c 47 84 1f bd a6 ec c9 bc
       -0.01693156 0.013727243 -0.03894451 -0.024648976
000170 a4 70 0f 3c e5 59 84 bc 5a aa d8 bc 10 b2 07 3d
       0.008754883 -0.016156146 -0.026448417 0.033128798
000180 e9 b9 59 3c 4f 20 99 3c 56 40 21 3b c3 ac a6 3c
       0.013288953 0.018692164 0.0024604998 0.020346051
000190 3b f3 5d bc 9a 9a 8c ba fe d2 ca bc e0 79 13 3d
       -0.01354676 -0.0010727227 -0.024758812 0.0360049
0001a0 0c 98 fc bc f3 e3 de bc e9 cc 9a bb f4 dd 8e bc
       -0.03083422 -0.027208304 -0.004724134 -0.01743982
0001b0 9f 89 31 3d e0 12 12 3d 50 93 d6 bc f1 45 d1 bc
       0.043344136 0.03566253 -0.026193291 -0.025546046
0001c0 a6 8f f5 bc d3 55 e6 bc f8 c8 05 bd 29 39 76 bb
       -0.029975723 -0.028117096 -0.03266236 -0.0037570691
0001d0 27 f4 3c bc 44 46 c8 3b a2 ec 8a 3c 7b 29 0c 3d
       -0.01153282 0.006111892 0.016958538 0.034219246
0001e0 87 c2 1c 3c 56 01 30 bd 9a 4c da 3c 46 39 93 3b
       0.009567863 -0.042970024 0.026647855 0.0044929115
0001f0 c6 c7 c1 bc 0b 81 15 bd 65 5c c1 bc 59 1f 08 bd
       -0.02365483 -0.036500018 -0.023603627 -0.03323302
000200 ca be 14 3c 9c a2 bc bb 81 51 86 3c 8b 5a 0f 3d
       0.009078691 -0.0057566892 0.016396286 0.034998458
000210 16 24 26 bd 21 58 17 bd 99 91 30 bd e4 e5 e6 3a
       -0.040561758 -0.03694928 -0.043107603 0.001761612
000220 8b d2 02 3d c9 d7 58 3c 1a 44 0e bd 8a d3 0b bd
       0.03193907 0.013235041 -0.034732915 -0.034137286
000230 59 6c 33 3d 01 f7 bf bc 29 8c ce 3c 20 d3 ff bb
       0.0438045 -0.02343321 0.025213318 -0.0078071505
000240 a6 79 12 bd 0a 40 29 bd 2a 11 09 bc 10 60 03 bd
       -0.035760544 -0.041320838 -0.008365909 -0.032074034
000250 d5 c4 1e 3d 7a 07 1c bd 72 eb 1d bd 5d f5 0c 3d
       0.038761932 -0.038093068 -0.038554616 0.034413684
000260 e7 73 bf bc 71 7e 18 bd 7b 51 c8 3a a5 6d cb 3c
       -0.023370696 -0.03722996 0.0015283072 0.024832556
000270 d0 1c 31 3d eb 65 11 3d fe 98 87 3c 64 34 81 bc
       0.04324037 0.035497587 0.016552445 -0.015772052
000280 67 94 14 3d 33 7c 95 bc a0 27 d1 3c b0 1f 9b bc
       0.03627434 -0.0182477 0.02553159 -0.018936008
000290 67 37 d8 bc 39 70 ee 3c d5 60 05 bd 52 4a 94 bc
       -0.026393605 0.029106246 -0.03256305 -0.018101845
0002a0 fe e8 a2 bc ac f1 2b bd ab 1c b7 ba b7 12 5c 3b
       -0.01988649 -0.041978523 -0.0013970336 0.003358049
0002b0 89 72 f5 bc 81 1a c8 3c 92 d9 ee 3c 82 d8 2c bc
       -0.029961841 0.0244267 0.02915648 -0.010549666
0002c0 0c be 29 bd 34 03 9f 3b 2c 02 35 bd c5 b1 bd 3c
       -0.04144101 0.0048526768 -0.044191524 0.023156056
0002d0 c7 cb 92 bc da 7c 10 bc bf 17 fe 3c 31 c8 03 3c
       -0.017919434 -0.008818829 0.031017182 0.008043335
0002e0 fc 12 9a 3c 20 b6 9f bc 0e ae a8 bc b6 9c ef 3c
       0.01880788 -0.019496024 -0.020590808 0.02924953
0002f0 fc 35 16 bd 73 88 9b 3c 17 83 01 3d 91 d3 de 3b
       -0.036672577 0.018985962 0.031619158 0.006800123
000300 a6 79 1c 3d b1 e8 1b 3d 25 69 e6 bb aa a0 12 bd
       0.03820195 0.03806371 -0.007031577 -0.035797752
000310 1e 48 8a 3a a2 ea 1e 3d 58 9e 2d bd de a5 34 3c
       0.0010550057 0.038797982 -0.042387336 0.011025874
000320 9b 03 31 bd 1a bb 4b 3c 9c 9f 0a bd 8b 14 0a 3c
       -0.04321633 0.012434745 -0.03384362 0.008427749
000330 1b d9 b5 bc 32 8c 2b bc d4 55 73 bc d1 c3 e3 bc
       -0.02219825 -0.010470437 -0.014852006 -0.027803333
000340 fa 41 56 3c 6b cf 06 bd 38 92 4f 3b d7 5d d8 bc
       0.0130772535 -0.032912653 0.0031672847 -0.026411934
000350 aa 83 09 bd 6f 15 d0 bc c7 52 08 bd af e5 fc bb
       -0.03357283 -0.025400845 -0.033282068 -0.00771781
000360 eb c5 2e bd fe 49 2b bc e5 64 d1 bb 72 5c cc 3c
       -0.042669218 -0.010454653 -0.0063902014 0.024946425
000370 e8 d9 bf bc 88 a7 32 3b 33 b8 9e 3c 75 19 20 bd
       -0.023419335 0.00272605 0.019374942 -0.039086778
000380 6c 9a 1d bd dd e1 c3 bc 36 be 00 bd 48 e8 23 3d
       -0.038477346 -0.023911411 -0.0314314 0.040016443
000390 0a a1 7e bb fc e1 c8 3c 6e 3b e4 3c 0c 51 0e bd
       -0.003885331 0.02452182 0.02786037 -0.03474526
0003a0 79 26 b6 bc 18 ad 19 bb c3 45 90 bc 1a b6 d4 bc
       -0.022235142 -0.002344912 -0.01761139 -0.025965739
0003b0 2a 35 28 bd 63 14 8d bc 4b 10 94 bc 31 4e 21 3d
       -0.041066326 -0.017221635 -0.018074175 0.03938121
0003c0 1d 86 9f 3c c4 c0 6b 3c 24 c2 22 bc d6 06 8e bb
       0.01947313 0.014389221 -0.009933982 -0.004334311
0003d0 71 84 f8 bc d0 b9 d6 3c 89 3e cf bc 88 22 8e 3c
       -0.03033659 0.02621165 -0.025298374 0.01735045
0003e0 9e 39 a8 3a db 99 6c bc e8 36 26 bb 60 90 81 bb
       0.0012834554 -0.014440979 -0.0025362317 -0.0039539784
0003f0 59 dd 11 3d 1d bf 74 bc 1e ab 87 bc ca 8e 34 3d
       0.035611484 -0.014938143 -0.016561087 0.044081487

conv2.bias f4 [7]
000000 48 72 db bc b0 23 c8 bc 90 bf b2 3c bc 87 61 3c
       -0.026787892 -0.02443108 0.02181986 0.013765272
000010 da f2 6a bc 49 db 9a bc 50 28 19 3b
       -0.014340127 -0.018903391 0.0023369975

conv3.weight f4 [7, 14, 6, 6]
000000 14 37 d7 bc d8 c6 06 bc e8 e7 21 3d 7a 54 f2 bc
       -0.02627138 -0.008226119 0.039527804 -0.029581297
000010 03 ec 1e bc a2 ae 6d bb 8f 4d 0e 3d 7f 90 8a bb
       -0.009699824 -0.003626742 0.034741934 -0.004228651
000020 e6 f0 4a 3c 9d 47 14 3d cf f7 2d bb b0 b7 8c bc
       0.012386536 0.03620111 -0.002654541 -0.017177433
000030 83 d6 9f 3c 44 96 78 ba da 1a 05 3d c9 4a d6 bc
       0.019511467 -0.00094828405 0.03249631 -0.026158707
000040 65 dd 30 3c 20 c4 46 3c a8 9f ab 3c 92 49 d7 bc
       0.010794972 0.012131721 0.020950153 -0.026280198
000050 5b ec ea 3c 1f 33 2e bd 04 7d 12 bc 6a 95 2d 3d
       0.028677156 -0.04252922 -0.008940939 0.04237882
000060 82 11 6e 3c 2a da 06 3d b9 58 24 3c db 20 74 bc
       0.014530541 0.0329229 0.010030919 -0.0149004115
000070 be 42 18 3d 53 a1 2c 3d 5a c4 a2 bc f9 23 80 bb
       0.037173025 0.04214604 -0.019869018 -0.0039105383
000080 2e de e3 bc 8a b5 53 bc 37 f2 20 3d 2b 3a e6 3c
       -0.027815904 -0.0129217 0.039293494 0.028103909
000090 22 7f 0b 3c 6a 6d f9 bc 78 91 5c 3c 28 a8 1a bd
       0.008514198 -0.03044768 0.013462417 -0.037758023
0000a0 dd 9b a1 3c 13 b6 c3 bc 74 47 d7 3b a0 97 ba bc
       0.019727642 -0.02389053 0.006569797 -0.022777379
0000b0 66 29 1b bc 15 a4 8a 3c f6 8c 2c bd 4a 1b d6 3c
       -0.009470319 0.016923944 -0.04212662 0.02613606
0000c0 c0 cc c8 3c ee 36 df 3c 01 70 2b 3d a4 d3 4a bc
       0.024511695 0.027247872 0.041854862 -0.012379561
0000d0 e2 33 2f bd 87 d2 b9 bc b8 bd 94 3c cd c7 af bc
       -0.04277409 -0.022683395 0.018156871 -0.021457577
0000e0 75 2f 24 3d 5e a3 07 3d e6 7f 1b 3d 48 2b de bb
       0.04008432 0.033114783 0.03796377 -0.006780062
0000f0 b2 d8 cf bc 01 a8 9f 3c 3f c8 0a 3c 3a de 04 bd
       -0.025371883 0.01948929 0.008470594 -0.032438494
000100 ff f8 29 3c d2 85 d1 3b fe 05 39 3b d6 75 1e bd
       0.010374307 0.0063941265 0.0028232331 -0.038686596
000110 76 c0 2e 3d cc d5 20 bc 05 89 ab bc ae 74 33 bd
       0.042664014 -0.009816598 -0.02093936 -0.043812446
000120 fb ab ee 3c cf 12 70 3c 9a d6 1e 3d fd c3 02 bd
       0.029134741 0.014652922 0.03877888 -0.03192519
000130 4d c6 ef bc cb 6f 6c ba 61 02 e4 3c d4 b1 ad bc
       -0.029269362 -0.0009019344 0.027833166 -0.02120296
000140 37 f7 13 3d f9 c2 21 bd 6d 63 ec 3b e1 f1 0e 3d
       0.036124434 -0.03949258 0.007214001 0.034898642
000150 5d 09 17 bd 6f 44 d8 3c 3d af a7 bc 41 b4 18 bd
       -0.036874164 0.02639982 -0.020469302 -0.03728128
000160 43 67 48 3c ce e8 2a 38 47 77 b7 3c 66 b0 1a 3d
       0.012231651 4.0747975e-05 0.022395743 0.037765883
000170 2b 17 82 3c 6d 47 bb 3c bb 11 d2 3c c6 43 b1 bc
       0.015880188 0.022861207 0.02564322 -0.021638762
000180 2d 97 76 3c 07 a5 81 3c c9 c6 c5 ba 3a 3f f8 3c
       0.015050692 0.015825761 -0.001508915 0.030303586
000190 f2 38 16 bc 4c f0 9f 3c 01 ea 7b 3c 98 59 b0 bc
       -0.00916885 0.019523762 0.015375615 -0.021527097
0001a0 80 6d 20 bd ff ab 2e bd a9 e4 91 bc e9 46 d7 3c
       -0.039166927 -0.042644497 -0.017809229 0.02627893
0001b0 5e 2f 22 bd 74 c3 d3 bc 40 34 18 3d 10 6a 6e 3c
       -0.039595954 -0.025850035 0.037159204 0.014551654
0001c0 26 d5 0e bd 79 82 40 3b ef 8b 08 3d 30 52 b7 3c
       -0.034871243 0.0029374643 0.033336576 0.022378057
0001d0 76 05 2d bc 20 f2 00 bd a8 6d a3 3c ee 6d 35 3c
       -0.010560384 -0.03148091 0.01994975 0.011073573
0001e0 5b e6 b9 3c 5e c8 35 3c 7c c4 d3 3c c2 32 68 bb
       0.02269285 0.011095135 0.025850527 -0.0035430645
0001f0 b1 09 08 bd 47 2d e1 3c df ea ab bb 3a 8e 0c bd
       -0.033212367 0.02748741 -0.0052465047 -0.034315325
000200 99 46 ec 3c d5 b7 15 bd 7d 89 e9 3c 2d be 22 bd
       0.028842257 -0.03655227 0.028507942 -0.039732147
000210 7b 52 be bc 96 cd 0f 3d 9c 4c 0b 3c f2 0a f1 bc
       -0.02323269 0.03510817 0.008502152 -0.029424164
000220 0a 2a 71 3c 91 1b 67 3c 9c cf 11 3c 04 79 10 bd
       0.014719496 0.014105693 0.008899596 -0.03527166
000230 76 4e dc bc cf 86 09 3d 06 83 11 bd ac 57 31 bd
       -0.026892882 0.03357583 -0.035525344 -0.0432965
000240 1d e4 c2 bc 0d 9e a6 bc 2c cb 0d bd a5 34 46 bc
       -0.023790414 -0.020339036 -0.034617588 -0.012097512
000250 35 6b cd bc 86 88 6a 3c a4 ca fd bc c1 cf 84 3c
       -0.025075534 0.014314776 -0.030980416 0.016212346
000260 a0 2e e2 3c 64 8f fc bc de b8 0e 3c 7c f2 85 3c
       0.027610123 -0.030830093 0.008711068 0.016350977
000270 6d a5 fe 3c 15 ca 15 bd 61 18 63 3b d1 c0 e6 bc
       0.03108474 -0.036569674 0.0034651982 -0.028168114
000280 48 21 63 bc 49 fd 8f bc 12 52 0d 3d ad d9 db 3c
       -0.013862915 -0.01757683 0.034502096 0.026837194
000290 27 29 34 bd 60 f0 d9 3c 5d 31 b7 bc 03 e2 5a 3c
       -0.04398456 0.026603878 -0.022362405 0.013359549
0002a0 2f c5 d6 3c 42 2a 33 3d 89 7e ac bb 87 47 4b 3a
       0.026217071 0.043741472 -0.0052641076 0.0007754494
0002b0 9c d4 ad bb d4 3d 57 3c 67 ac 01 3d cb 8c 80 bb
       -0.005304886 0.0131373 0.031658556 -0.003923034
0002c0 85 c9 12 bc bb 1e 1b 3c 97 a5 13 bd c3 d2 c3 3c
       -0.008959179 0.009467776 -0.03604659 0.02390421
0002d0 ff 89 e7 3b 05 77 01 bd 55 0c e8 bb fa 78 2d 3d
       0.007066011 -0.031607646 -0.007081548 0.0423517
0002e0 6d 6f 10 bd c2 78 20 bc 26 ce 08 3d e7 41 f0 ba
       -0.035262514 -0.009794416 0.033399723 -0.0018330187
0002f0 f8 95 e3 bc c0 ce a1 bc ee 04 85 bc 3c be 1a 3c
       -0.027781472 -0.019751906 -0.016237702 0.0094447695
000300 ea fa e9 bc 8c 1f a6 bc cc 5f aa bc 05 9f 1d 3d
       -0.028562028 -0.020278715 -0.020797633 0.03848173
000310 66 b2 92 bc 96 e0 78 3c 0a 98 46 3c 32 df be bc
       -0.017907333 0.015190264 0.01212121 -0.023299787
000320 e0 30 ba 3c 2d 5d c3 bc 8a 60 89 bb aa f9 42 3c
       0.022728384 -0.02384814 -0.0041924166 0.011900345
000330 45 9c 05 3d d3 d6 a5 3c 94 c8 b2 bc d3 82 09 bd
       0.032619733 0.020244038 -0.021824159 -0.03357203
000340 5a e3 da bc 50 64 3a 3c 81 80 e1 3c a9 cd 44 bc
       -0.026719738 0.011376455 0.027527096 -0.012011924
000350 71 4e f9 3c 18 99 2b bc f0 db 95 3c 5f a8 18 3d
       0.030432912 -0.010473512 0.018293351 0.037269946
000360 99 06 10 bd 1a 91 28 3d 7c 21 21 3d 47 0e a0 3c
       -0.035162542 0.041154005 0.039338574 0.019538058
000370 cf fc e3 bc e3 4d 86 3c b2 c8 07 3d 3c 69 cc bc
       -0.02783051 0.016394561 0.033150382 -0.024952523
000380 43 14 83 bc f1 0d 96 3c 2d 81 79 3c 3f 85 99 bc
       -0.016000872 0.018317195 0.015228552 -0.018740295
000390 28 f5 78 bc 3d 07 04 bd 5c 09 3e bc a3 ec bb bb
       -0.015195169 -0.032233465 -0.011598911 -0.0057349964
0003a0 e8 23 5d bc 03 8a 92 bb 5e 55 23 3d f9 76 3c 3c
       -0.01349733 -0.0044720187 0.039876334 0.011502975
0003b0 a9 33 db bb 0c f3 5d bc df eb 50 3c 2a 45 bb ba
       -0.006689508 -0.013546716 0.012751549 -0.001428758
0003c0 08 49 08 bd bc 19 aa bc f3 64 9d 3c 37 2b a9 3c
       -0.033272773 -0.020764224 0.019213175 0.02065049
0003d0 6a b6 c9 3c 31 c3 1a 3d 5d 44 45 bb 25 6c 0c bd
       0.024623115 0.037783805 -0.0030100562 -0.034282822
0003e0 09 e5 2c 3d 07 6d c3 bb d2 75 2c bd 7f 3f c3 bb
       0.042210612 -0.005963925 -0.04210455 -0.005958497
0003f0 a1 a6 c5 bc a8 a6 00 3d 35 a2 95 3b 06 1f 1b bd
       -0.024127306 0.031408936 0.0045664557 -0.037871383

conv3.bias f4 [7]
000000 f4 6f 23 bd e0 82 c1 3b 28 1a 20 bc 2c c1 0a 3d
       -0.03990169 0.005905494 -0.009771861 0.03387563
000010 35 f0 14 bd b1 bc 8e bc 50 19 43 bc
       -0.03636189 -0.01742396 -0.01190789

conv4.weight f4 [3, 14, 6, 6]
000000 06 e3 93 bc 88 48 9d bc b7 77 13 3d 70 45 34 3b
       -0.01805259 -0.019199625 0.03600284 0.0027507208
000010 04 2a 83 3b b1 b7 1e bd 91 9e b3 3c 4c 3b 27 3d
       0.0040028114 -0.0387494 0.021926196 0.040828034
000020 86 e4 d7 3c 40 62 2e 3d 8a 23 0d 3c 82 83 02 3d
       0.026354086 0.042574167 0.00861443 0.031863697
000030 11 68 3e 3c 16 19 48 bc c5 b7 40 3c c5 4c 2d bd
       0.011621491 -0.012213012 0.011762564 -0.04230954
000040 64 9f 2b 3d a3 9e d4 bc ec a3 bc 3b 54 5a e7 3b
       0.041900054 -0.02595455 0.0057568457 0.0070603285
000050 8c 07 a5 bb 0a 77 2c bc 4b 5b 92 bc 6a 66 f7 3c
       -0.0050363 -0.010526428 -0.017865798 0.030200202
000060 73 bf 1c 3d 01 83 b7 bc ea 04 1e bd d5 5b 0d bd
       0.038268518 -0.022401335 -0.038578905 -0.034511406
000070 48 fb 49 bc bc 69 21 3d 18 ae 20 bd db 46 29 3d
       -0.0123279765 0.039407477 -0.03922853 0.04132734
000080 b1 73 0c 3c 8a a4 38 3d dd 29 98 3c 92 10 20 bd
       0.008572505 0.04507879 0.01857465 -0.039078303
000090 22 37 8f bc b1 70 a0 bc 24 e6 a0 bc a4 d2 2a 3d
       -0.017482344 -0.019584985 -0.01964099 0.04170479
0000a0 fe 68 57 3c e6 71 32 bd cd e7 bb bc 4f 2b ce bc
       0.013147591 -0.043565653 -0.02293768 -0.025167136
0000b0 ca e8 20 bd dd a6 17 bd 76 e0 28 3d 52 9b 09 3d
       -0.039284505 -0.037024368 0.041229688 0.03359539
0000c0 04 af 33 3d 0f 67 02 3d c2 ce 19 bd 8e 02 17 3d
       0.04386808 0.031836566 -0.037550695 0.03686767
0000d0 e0 c5 8d 3c 71 ef 30 bd 8a 6d 17 3d b2 c5 9d 3c
       0.017306268 -0.0431971 0.0369697 0.019259308
0000e0 d6 78 dc bc d9 d6 12 bc 80 f4 d2 bc d6 08 56 bc
       -0.026913088 -0.0089623565 -0.025751352 -0.01306363
0000f0 ff 01 25 3d 6d 6d d6 bc 8f ad 33 bd 84 5e d6 bb
       0.040285107 -0.026175225 -0.04386669 -0.006542029
000100 7f 9c 99 bc f8 91 80 bb 7c c6 21 bc da 9e b1 3c
       -0.018751381 -0.003923651 -0.0098739825 0.021682192
000110 6e bf 1f 3d 71 52 e9 3c 69 0c 1e bd 7d ae 0b bb
       0.03900092 0.028481694 -0.038586054 -0.002131372
000120 7f 85 0c 3d 65 ae b4 3b 8f 44 fa bc 94 f7 87 bc
       0.034307 0.0055139535 -0.03055027 -0.016597547
000130 c4 01 7f 3b 12 e8 aa bc 0c e5 14 3c 61 76 16 3d
       0.0038910965 -0.020862613 0.009087812 0.03673399
000140 4a ac b8 3b e9 2e fd bc 3f e7 d4 3c 2a f6 f9 3c
       0.005635773 -0.030906158 0.025989173 0.030512888
000150 d3 ee 1e bd 4e 8f 24 bd 22 a0 1b bd 02 cc 2e bc
       -0.03880198 -0.04017573 -0.03799451 -0.010668756
000160 af a2 e4 bb 79 75 ea 3c c4 da 00 3d 40 4b 2a 3d
       -0.006977401 0.028620468 0.03145863 0.04157567
000170 93 2b 1a 3c a8 14 b0 bc ef 23 01 bd 20 1f bc 3c
       0.009409803 -0.021494225 -0.03152841 0.02296406
000180 19 4a d5 3c 47 a2 9e bb db 0e 2a bd ba 31 a3 3a
       0.02603631 -0.0048411223 -0.041518074 0.0012450733
000190 b7 1b 9d 3c d8 02 8e bc 1b 63 ed bc 6b 4b 81 3c
       0.019178255 -0.01733534 -0.028977921 0.015783032
0001a0 20 f0 ce 3c a6 f3 f1 3c d4 a9 6e bb a7 96 84 bc
       0.025260985 0.029535126 -0.0036417143 -0.016185118
0001b0 d0 67 07 3d dc d3 0e 3d 36 4c 58 bb 60 05 e2 ba
       0.033057988 0.034870014 -0.003300441 -0.0017244034
0001c0 f4 15 21 3b 96 c4 1f bd b0 9e 10 3d 2c a4 f5 bc
       0.0024579735 -0.03900584 0.035307586 -0.02998551
0001d0 76 47 c0 3c e6 30 05 bd 26 b9 b2 3c a4 97 22 3c
       0.023471575 -0.032517336 0.021816801 0.009923849
0001e0 0d 9a 1a 3d 7c dc f0 bc bf cb ff bc 0e f6 1c bd
       0.03774457 -0.02940201 -0.031225083 -0.038320594
0001f0 1e 97 2a 3d bf 7d 31 bd b9 ff df bc cf 06 60 bc
       0.041648023 -0.04333281 -0.027343618 -0.013673498
000200 33 ac ca bc 16 05 ed 3b 3b 2a 3a bc 7c d1 a9 bc
       -0.024740314 0.0072332723 -0.011362608 -0.020729773
000210 dd b2 d1 bc f4 8b dc bc db 33 9b bc 21 90 30 3c
       -0.025597984 -0.026922204 -0.018945625 0.0107765505
000220 0e 5e 77 bb 24 ab 43 bc 05 1b 14 3d 97 6a 93 3c
       -0.003774527 -0.011942659 0.03615858 0.017995162
000230 d6 91 09 3d a9 e6 83 3c 35 9b 95 3c d3 b4 03 bc
       0.033586346 0.016101198 0.018262485 -0.008038717
000240 71 f4 46 3c 83 fe 23 3d 19 e8 58 3a 7a e7 48 bc
       0.01214324 0.040037643 0.00082743313 -0.01226222
000250 f0 3b 71 3c 40 44 0b bb 48 d8 6e bc 23 c1 a8 3c
       0.014723763 -0.0021250397 -0.014577933 0.020599907
000260 ea 2d 08 bd d1 e8 20 3c fa e3 ee 3c a6 db a2 bc
       -0.033246912 0.009821133 0.029161442 -0.019880127
000270 54 d1 a1 bb 5c a1 a0 bc 08 4d 0b 3d b3 37 1f 3d
       -0.004938284 -0.019608192 0.03400901 0.03887148
000280 d1 75 24 3d fb 88 f7 3c 14 e5 38 3a f3 df 29 3c
       0.04015142 0.030216685 0.0007053178 0.010368335
000290 25 c6 0f 3c 47 f7 02 bd 4c 06 75 bb 6c 31 b7 3c
       0.008775269 -0.031974103 -0.0037387786 0.022362433
0002a0 34 43 b8 bc e2 27 de bc 97 26 0f bd 9b 0d 84 3c
       -0.022492982 -0.027118627 -0.03494891 0.016119769
0002b0 3d e1 94 bb 37 16 29 bd 96 11 03 bd 27 de 1e bd
       -0.004543452 -0.04128095 -0.031999193 -0.03878608
0002c0 28 62 12 3d 93 41 e7 bc 98 ea c2 3c ba 7f 10 bd
       0.03573814 -0.02822951 0.023793504 -0.03527806
0002d0 a1 f8 8b bc fd 1d 04 3c 59 ce e6 bc 87 b8 90 bc
       -0.017086329 0.00806379 -0.028174566 -0.017666114
0002e0 0e 29 fa 3b 1e 61 c5 3c 77 69 25 3d 6d 05 be 3c
       0.0076342886 0.02409416 0.040383782 0.023195947
0002f0 59 21 b1 bc a4 17 30 3d 3c 91 5c bc da 1a cd 3b
       -0.021622347 0.042991295 -0.013462361 0.0062593045
000300 90 6f 51 bc be 75 9f 3b da 96 7e bc c4 98 1c bc
       -0.012782946 0.004866331 -0.0155388955 -0.009557907
000310 55 b3 b4 3b 35 8e a6 3c 74 3b e5 bb 27 b0 32 3d
       0.005514542 0.020331481 -0.0069956128 0.043625023
000320 00 e3 aa bb 72 f3 4f bc 37 56 1e bd 6a 92 1b bd
       -0.005215049 -0.012692319 -0.03865644 -0.03798143
000330 96 96 0f 3d a2 90 c8 bc 25 54 2a 3c b9 d3 fe 3b
       0.03505572 -0.024483029 0.010396038 0.007776704
000340 ba 64 0d 3d 76 38 2a 3d 7b 71 06 3d 84 5d 00 3d
       0.03451989 0.04155775 0.032823067 0.031339183
000350 2b 25 ff bc 6e 8e 22 3d 93 f2 dd 3c 43 aa ae bb
       -0.031145653 0.039686613 0.027093207 -0.0053303554
000360 f1 9a a2 3c 31 e2 e0 3c 84 d8 08 bd 2e 15 c2 3c
       0.019849272 0.027451606 -0.03340961 0.02369174
000370 f6 92 b1 bc ab 27 80 bb 87 3f e2 3b 04 53 9d 3b
       -0.021676522 -0.003910979 0.0069045457 0.004801156
000380 9a b2 e3 3a 02 e8 b6 bb a5 4c d5 bc 78 15 80 3c
       0.0017371953 -0.0055818567 -0.026037524 0.015635237
000390 6e d2 0f bd 84 6b 0c 3d 06 21 30 bd 21 fc ee bb
       -0.03511279 0.034282222 -0.043000244 -0.0072932397
0003a0 79 59 19 bd 50 a2 13 bd 8a 0d 10 bc 1b 01 fa bc
       -0.037438843 -0.036043465 -0.00879229 -0.030518105
0003b0 93 ec e2 3c d2 d9 63 bc d7 e9 8d bc e5 ca ca 3c
       0.027700698 -0.013906913 -0.017323418 0.02475495
0003c0 30 83 2b 3d 4f 9e ef 3c 8d 7d 04 bd ea 7c 8f bc
       0.041873157 0.029250292 -0.032346297 -0.017515618
0003d0 9a c0 05 3d ea a7 1d 3c 44 4d e4 bc 14 9b 20 bd
       0.032654382 0.009622553 -0.027868874 -0.039210394
0003e0 32 4f c6 bc 5e 4b ac bb 64 90 77 bc ec 3e 12 bc
       -0.024207685 -0.005258008 -0.015110109 -0.008926135
0003f0 3a d6 36 3d 0e 41 e6 3c d9 c3 cf 3c 68 ff 10 3d
       0.044637896 0.028107192 0.025361942 0.035399824

conv4.bias f4 [3]
000000 ec 3c c9 3a 6e 4e 1f 3d a7 0d 8c bc
       0.0015353239 0.038893156 -0.017096354

conv5.weight f4 [1, 3, 6, 6]
000000 c9 e1 53 3a 55 2a 98 3c fd f7 3c 3d c6 7f a0 bd
       0.0008082656 0.018574873 0.046134938 -0.07836871
000010 c6 d9 a8 bd c0 f6 b9 bc a5 41 29 bd a9 1e 62 bd
       -0.08244662 -0.022700667 -0.04132237 -0.05520502
000020 53 b5 5a 3d 98 4e 04 39 5c fd 4a 3d 7b 32 08 bb
       0.05339558 0.0001261778 0.04955803 -0.0020782042
000030 ba 8a bf 3d 1b c2 09 bd 25 4e 62 bc 13 fb 9b 3d
       0.09352632 -0.03363238 -0.013812576 0.07616248
000040 5e 32 4b 3d ea 0f 11 bd a8 ca ab 3d 23 91 14 3d
       0.04960858 -0.035415567 0.08388263 0.036271226
000050 ba a8 63 bd 68 1e 65 3d 09 62 4d 3d de 40 8c 3d
       -0.055580832 0.0559372 0.05014232 0.0684831
000060 22 8b 33 3d 71 5f c8 bc c2 0b 5b bd 74 47 87 bb
       0.04383386 -0.024459573 -0.05347801 -0.004128391
000070 35 c2 ed 3c 4a 8b ab 3c 91 ee 88 bd f9 1c 0f 3d
       0.02902327 0.020940442 -0.06686128 0.03493974
000080 b1 5f 39 bd 87 27 59 3d fe 0a b6 3c d4 aa 3a bd
       -0.045257274 0.05301621 0.022222038 -0.04557307
000090 d4 dd ab 3d aa 4d 86 bc 92 1a 48 bd 8f 67 9a 3d
       0.0839192 -0.016394455 -0.048853464 0.075392835
0000a0 21 63 81 3d 7f 22 96 bd f6 8a 9b bd 03 c2 9f 3d
       0.063177355 -0.07330798 -0.07594864 0.07800677
0000b0 90 ff 2a bd cb 1b a1 3d 2f 05 a7 3d ba 03 b0 3d
       -0.04174763 0.07866629 0.081552856 0.08594461
0000c0 07 d7 96 bd 9f 71 98 3d 54 24 82 3d 8e f9 e5 3c
       -0.07365232 0.074435465 0.06354585 0.028073099
0000d0 9d 08 3a bd fd f8 2c 3d 9f 04 ad bd 81 19 2b bd
       -0.04541837 0.04222964 -0.08448147 -0.04177237
0000e0 45 65 82 3d 75 b6 42 3d d8 00 64 bd 1f f5 99 bc
       0.06366972 0.047537286 -0.055664867 -0.01879364
0000f0 0d 22 9e bc 69 e8 bd bd 71 39 0f bc b5 a6 bb bc
       -0.019303346 -0.09272844 -0.008741722 -0.02290664
000100 bb 87 a8 bd 79 1c a3 3d f5 42 73 bd 8c 64 19 3d
       -0.082290135 0.07964415 -0.059390027 0.037449405
000110 33 ef 37 bd 84 9a 71 bd e5 aa a8 bd 0d 80 0e bd
       -0.044905853 -0.05898525 -0.082357205 -0.034790087
000120 ce e5 d0 3c e2 a0 85 3c c0 5d e9 bc c5 17 18 3d
       0.025500204 0.016312066 -0.028487086 0.037132043
000130 45 29 60 bc 9a b3 76 bd 9c 38 93 bd e1 a7 26 3d
       -0.013681714 -0.060229875 -0.07188532 0.040687446
000140 16 ad eb 3c f8 aa a0 3c 63 6a 21 3d 45 30 8b bd
       0.028769057 0.019612774 0.0394081 -0.06796316
000150 e0 71 37 3d 8a bd 8a 3d a8 9a ba 3d 0c d4 8e bd
       0.044786334 0.06774433 0.091115296 -0.069740385
000160 2e f7 e0 3c 86 32 14 3d 5b 5a ec 3c d1 89 93 3d
       0.027461614 0.036180995 0.028851679 0.07204021
000170 70 bd b1 3d 5f ab a1 3d 97 74 66 3d 53 f2 1a bd
       0.086787105 0.078940146 0.056263532 -0.037828755
000180 77 d0 ed 3c 2f 40 18 3d e9 dd 8b 3d 33 fb 7d bd
       0.029030068 0.037170585 0.068294354 -0.06200714
000190 21 c7 c6 3c 8a 51 9e bd 02 6f 9e bd d5 c3 12 3d
       0.024264874 -0.07730396 -0.07736017 0.03583129
0001a0 d4 07 49 bd 2f 5e b0 3d 8d 8f ab 3d 5d 44 8f bd
       -0.04907973 0.08611714 0.083769895 -0.06995461

conv6.weight f4 [1, 3, 6, 6]
000000 40 93 7d bd 65 0b 1a bd 24 07 b9 3d 92 32 b1 bd
       -0.061908007 -0.037608523 0.09034565 -0.08652224
000010 49 f5 6a 3d 81 e2 51 bd 72 a0 d4 ba 98 a7 b0 bd
       0.05736283 -0.0512414 -0.0016222133 -0.08625716
000020 ef fc 05 3b fa af 23 3d e7 41 96 3d 51 90 4b 3c
       0.002044495 0.039962746 0.073367886 0.012424544
000030 ae 18 b7 bd 93 87 ab bd d1 9b 36 bc eb cf f7 3b
       -0.08940254 -0.08375468 -0.011145548 0.0075626276
000040 9e 4b c7 bc b1 77 08 3d cf ae 3f 3d 95 99 26 bb
       -0.02432805 0.03331727 0.04679757 -0.0025421132
000050 9b b6 2b 3d c4 a3 3f bd 09 e4 03 3c a4 19 1a 3d
       0.041922193 -0.04678704 0.008049973 0.03762211
000060 f1 75 0b bd 63 15 20 bd e7 2d a3 bd a9 6a 91 bd
       -0.034048025 -0.039082896 -0.079677396 -0.07100422
000070 41 71 a8 3c cf 6a 08 3d 35 b8 3c bd f8 de b0 3d
       0.020561816 0.033304986 -0.04607411 0.08636278
000080 57 ca 69 3d 17 87 48 3c 2b db b0 bd 4b 15 1c bd
       0.057077732 0.012239239 -0.08635553 -0.038106244
000090 1e b7 5e bd af b5 52 bd c0 7c 8f 3d 67 b8 00 3d
       -0.054373853 -0.0514428 0.07006216 0.03142586
0000a0 09 cf 20 bd b8 0a b7 bd d6 7c 94 3d e4 a8 61 bd
       -0.039259944 -0.08937591 0.07250373 -0.055092707
0000b0 c2 64 76 3d 74 61 99 3d 22 08 4d bd 7e 75 ba 3d
       0.060154684 0.07489291 -0.050056584 0.09104441
0000c0 89 f1 73 bd 82 1b 99 3d be f8 ba bd a7 0c 01 3d
       -0.059556518 0.0747595 -0.09129475 0.031506207
0000d0 05 90 d8 39 8d cf 9d bd fe 17 28 bd 4e c7 bc bd
       0.00041306033 -0.07705603 -0.041038506 -0.09217702
0000e0 1b 4c 0f bd 7e e3 58 bc cf cd 79 3d 2b 3a c3 bd
       -0.03498469 -0.013237832 0.06098729 -0.09532579
0000f0 16 b1 36 3d c1 15 5d bc 28 8e ad 3d d6 a4 5c 3d
       0.044602476 -0.013493956 0.0847438 0.053868137
000100 23 36 ab 3d 12 de 44 bd 97 2c 9a bd fc 13 82 3d
       0.08359935 -0.048063345 -0.07528036 0.06351468
000110 3c 9d 87 3d 46 21 69 bd b3 87 36 3c 6c 49 b9 bd
       0.06621787 -0.056916498 0.011140752 -0.09047207
000120 dc 57 55 bd 11 ac fe 3b b8 d7 51 bd fb 94 79 3d
       -0.052085742 0.0077719768 -0.051231116 0.060933094
000130 54 8a c2 3d aa b8 b0 3d ea d0 66 bd 40 61 b9 bd
       0.0949904 0.08628972 -0.05635158 -0.09051752
000140 a8 14 b3 bc 4a 6b 98 bd 6a 1a 49 3d 14 ec 51 3d
       -0.021860436 -0.07442339 0.049097456 0.051250532
000150 18 ce c8 bc 26 0a a4 3b b1 f6 f5 bc b9 b4 7c bd
       -0.024512336 0.0050060926 -0.030024858 -0.061695788
000160 6c e6 9d 3d 0c c0 21 bd d1 15 e6 bb 7c 57 e8 bc
       0.07709965 -0.03948979 -0.0070216437 -0.028362028
000170 56 ae 95 3d cb c2 c5 bd 0e 72 36 3d 33 03 8f 3d
       0.073086426 -0.096562944 0.044542365 0.06983032
000180 55 ea 4b 3d 35 5b 38 3d 56 3d ea bc f2 f0 82 3d
       0.049784023 0.045008857 -0.0285937 0.06393613
000190 15 89 55 bd 44 04 88 3c 27 ca ae bd 8d b7 ce bc
       -0.052132685 0.016603597 -0.08534651 -0.025234008
0001a0 38 2b b5 bd c8 d5 84 3d 0f 22 c6 bc fa 6d 10 3c
       -0.08846134 0.06486088 -0.024186162 0.008815283

conv7.weight f4 [1, 2, 6, 6]
000000 93 5a 92 bc f1 f3 91 3c 6c 14 2b bd 47 02 c9 bc
       -0.017865455 0.017816516 -0.041767523 -0.024537219
000010 72 c4 33 3d 0b eb 79 bd ec 4f 74 3d 2b 91 f5 3c
       0.043888517 -0.06101517 0.059646532 0.029976448
000020 4e 21 81 3d e1 78 a2 3d bc 24 d1 3d fb 10 1e bd
       0.063051805 0.07933212 0.10212085 -0.038590413
000030 b8 81 c9 bc c0 a7 4c 3c 19 d0 87 3d 42 65 5c 3d
       -0.024597988 0.012491167 0.06631488 0.053807504
000040 67 dc 27 bd 4f 3f ca bd b6 8c 2c bd a0 2b d2 3d
       -0.040981676 -0.098753564 -0.04212638 0.10262227
000050 b2 a1 e1 bd 4f 62 b9 bc a1 f3 ba 3b 07 cb 03 bd
       -0.11017169 -0.022629885 0.0057053124 -0.032176044
000060 78 84 88 3d 2f f5 77 ba 5c 89 c1 3d a3 b8 4f bd
       0.066658914 -0.00094588374 0.09450027 -0.050713193
000070 b0 6c cb 3d bd e9 de bc c0 26 9c 3c 50 98 86 3d
       0.0993284 -0.027211064 0.019061446 0.0657202
000080 d6 cd a2 3c 92 1f d9 3d 7e 25 1d bd 75 56 2f 3d
       0.01987354 0.10601725 -0.038365833 0.04280706
000090 c4 ce 49 3d 57 10 58 3d 3d 3a e4 3d 05 11 28 3d
       0.049269453 0.052749958 0.111439206 0.041031856
0000a0 88 06 8c bd 7e 8b a6 ba f1 4b e6 bd 4b 55 b1 bd
       -0.06837183 -0.0012706367 -0.112449534 -0.086588465
0000b0 99 7a 74 bd 37 82 11 3d c6 be 3f 3d 68 ac 2a 3d
       -0.05968723 0.035524573 0.046812795 0.041668326
0000c0 86 6a a1 bd f7 79 b9 3d b3 22 53 3d e6 18 44 3a
       -0.07881646 0.09056466 0.051546764 0.0007480517
0000d0 36 c7 08 3d a0 c2 a9 bb d6 27 b7 bd b3 88 8b bd
       0.033393107 -0.005180672 -0.08943145 -0.06813183
0000e0 48 e4 02 3d 63 d1 f0 bd b5 44 a7 bd 25 ed b8 3d
       0.031955987 -0.11758687 -0.08167402 0.09029607
0000f0 e8 ad d7 3d b5 3c ec bd a6 ba c6 bd ac f9 72 bc
       0.10531217 -0.115350164 -0.09703569 -0.014830034
000100 b8 9f 51 3d 5a 86 b5 bc 9e d3 5c 3d 37 c2 e5 bd
       0.05117771 -0.02215879 0.05391275 -0.11218684
000110 b6 65 46 3d af 24 96 bc 31 e8 de 3d 15 b4 9c bd
       0.048436843 -0.018328039 0.10884131 -0.076515354
