siamese-models/siam_v2_5.pth (torch, 102171 bytes, 11 tensors)

conv1.weight f4 [14, 31, 6, 6]
0	0xbcd8f8bd	-0.026485795
1	0x3ca997c5	0.020702252
2	0x3c932ae7	0.017964793
3	0xbb847d37	-0.004043247
4	0xbbbc8a8a	-0.00575382
5	0x3cd1f759	0.02563064
6	0x3cadfeeb	0.021239718
7	0x3b507236	0.0031806356
8	0xbc8698c5	-0.016430268
9	0x3a9b5ea1	0.0011853763
10	0x3cb7fc7a	0.022459257
11	0xbc8f6698	-0.017504975
12	0x3cc83481	0.024439098
13	0xbcce9bc2	-0.025220755
14	0xbc63a666	-0.013894653
15	0x3cd2f06d	0.02574941
16	0xbc5c1150	-0.013431862
17	0x3ba36531	0.004986428
18	0xba385d45	-0.0007032941
19	0x3bbbeb9c	0.005734874
20	0xbcd9ed13	-0.026602304
21	0x3ccb5cff	0.024824617
22	0x3ce8c25b	0.028412988
23	0x3b240771	0.002502885
24	0x3ca1660b	0.019701978
25	0xbc832f29	-0.016013699
26	0x3c855a01	0.016278269
27	0xbc1d5e3e	-0.009604989
28	0x3bc968d0	0.006146528
29	0x3c1c91bb	0.009556229
30	0x3b09ec85	0.0021045518
31	0xbbaef579	-0.005339321
32	0xbcb84fd4	-0.022499003
33	0x3ca56b8e	0.020192888
34	0x3cd8d472	0.02646849
35	0xbcc305a7	-0.023806406
36	0xbc255273	-0.010090458
37	0x3ca8cafd	0.020604605
38	0xba6f14b7	-0.0009120213
39	0x3c3711ca	0.011173675
40	0xbc0d66a2	-0.008630427
41	0x3ce9686c	0.028492175
42	0x3c1b0b86	0.009463197
43	0xbcd50fb2	-0.02600846
44	0x3ca5c306	0.020234596
45	0xbcbd011f	-0.023071824
46	0x3c99b1b6	0.018761497
47	0x3c289360	0.010289043
48	0x3cbb4899	0.022861766
49	0x3ccbb4c0	0.024866462
50	0xbc2ef191	-0.010677711
51	0x3bde6848	0.0067873336
52	0xbc015ace	-0.007895185
53	0xbcea0183	-0.028565174
54	0x3bccba6c	0.006247809
55	0xbcdacd56	-0.02670924
56	0xbc46f54c	-0.012143444
57	0x3cdaa220	0.026688635
58	0x3cd0f812	0.025508914
59	0x3bff5417	0.0077920067
60	0xbc37111a	-0.011173511
61	0xbc65f4f6	-0.014035454
62	0x3cf1f769	0.02953692
63	0x3cb902bd	0.022584314
64	0x3c9f1a3a	0.019421685
65	0xbb7fa080	-0.0039005578
66	0xbccb853a	-0.0248438
67	0xbb076cdb	-0.0020664248
68	0xbca04db0	-0.019568294
69	0x3ca22181	0.019791367
70	0x3cea9544	0.028635629
71	0xbccf3422	-0.025293414
72	0x3cedf600	0.029047966
73	0xbcea9ac9	-0.02863826
74	0x3b611545	0.0034344953
75	0x3cf362c0	0.029710174
76	0xbccd1849	-0.025035994
77	0xbc9ed901	-0.019390585
78	0xbc27caee	-0.010241253
79	0x3c99422e	0.018708315
80	0xbba2d9bc	-0.0049698036
81	0xbba838e5	-0.0051337355
82	0x3c9b4c91	0.018957408
83	0xbabc74ae	-0.0014378035
84	0x3ce1cb10	0.027562648
85	0xbb52a8b8	-0.0032144021
86	0xbb00690e	-0.0019593867
87	0xbc5eb4f0	-0.013592944
88	0x3bfb1d14	0.0076633785
89	0xbc29c2f3	-0.010361421
90	0xbc46e15a	-0.012138689
91	0x3b850558	0.004059475
92	0x3cbc01ca	0.022950072
93	0xbce33154	-0.027733482
94	0xbc4844e4	-0.012223456
95	0xbcb41a30	-0.021985143
96	0xbc7236b1	-0.014783547
97	0x3c281dc8	0.010261007
98	0x3c1a682f	0.009424253
99	0x3ccf6d43	0.025320655
100	0xbcc3600f	-0.023849515
101	0xbcd51cee	-0.026014771
102	0x3cc9b07b	0.024620285
103	0xbcd85e65	-0.026412198
104	0x3c50721e	0.01272252
105	0x3c50bdab	0.012740533
106	0xbccdd602	-0.025126461
107	0xbc844f03	-0.016150957
108	0x3cee9e3b	0.029128185
109	0xbaa6b6ee	-0.0012719312
110	0x3caede92	0.021346364
111	0xbacb680a	-0.0015518677
112	0xbc9f501c	-0.019447379
113	0xbcd1bb0c	-0.025601886
114	0xbb49c5e9	-0.003078813
115	0xbcb42f88	-0.02199532
116	0x3c541ca5	0.0129462825
117	0xbb583ba3	-0.003299453
118	0xb8a02bcc	-7.637552e-05
119	0xbbf91ed4	-0.007602552
120	0xbca268f9	-0.019825445
121	0x3adac42e	0.0016690546
122	0xbc61e37f	-0.013787149
123	0xbb6c834c	-0.0036089001
124	0xbcb5a45c	-0.0221731
125	0x3c9f3c8e	0.019438054
126	0xbb2ea968	-0.0026651267
127	0xbcc02f94	-0.023460187
128	0xbb95339c	-0.0045532715
129	0xbcc92848	-0.02455534
130	0xbcb243cc	-0.021760844
131	0xbaa4cacd	-0.0012572646
132	0xbcc1c82f	-0.023655025
133	0xbceabab7	-0.028653486
134	0x3bce14e7	0.006289113
135	0xbc54c1db	-0.012985672
136	0xbca7e4a9	-0.020494776
137	0x3b6ea3bd	0.0036413514
138	0x3c844678	0.016146883
139	0xbbc1dea2	-0.0059164325
140	0xbc7b136a	-0.015324453
141	0x3b31e15b	0.002714238
142	0x3ba66275	0.005077655
143	0xbced3d14	-0.028959788
144	0xbca2aab9	-0.019856798
145	0x3cbaf551	0.022822054
146	0xbc5ee948	-0.013605423
147	0x3cdcf167	0.026970578
148	0x3beac982	0.007165135
149	0x3b4d9678	0.0031370204
150	0x3c8c7930	0.01714763
151	0xbcd2a840	-0.025714993
152	0xbc0ae5ec	-0.008477669
153	0x3c27be27	0.010238207
154	0x3a2c75ff	0.0006578862
155	0x3c8d020b	0.017212888
156	0x3cbc4714	0.022983111
157	0xbc8532b5	-0.01625953
158	0x3cc25e89	0.023726719
159	0xbc437670	-0.011930093
160	0xbcc76888	-0.024341837
161	0xbca577a3	-0.020198649
162	0x3c522eaa	0.012828508
163	0x3ca18b56	0.01971976
164	0xbcaa691a	-0.02080207
165	0xbce18724	-0.02753026
166	0xbcc4f606	-0.024043094
167	0x3cc17731	0.023616405
168	0xbb71d2c3	-0.0036899305
169	0xbce59223	-0.028023785
170	0xbcc89e6d	-0.024489606
171	0x3c69ca70	0.014269456
172	0xbce0b4b3	-0.027429914
173	0x3cde9d4c	0.027174614
174	0x3cb91861	0.022594633
175	0x3ca4bd66	0.020109843
176	0xbc658283	-0.014008167
177	0xbcc0cbf6	-0.023534756
178	0xbc020bcd	-0.007937384
179	0x3cda2b1e	0.026631888
180	0xbcb61d16	-0.022230666
181	0xbcde0914	-0.027103938
182	0x3c7a19b6	0.015264919
183	0xbcc642de	-0.024201807
184	0x3c98ac36	0.018636804
185	0x3ae3fa1a	0.0017393262
186	0x3c6d54e0	0.014485568
187	0xbc3c45e2	-0.011491271
188	0xbc202a02	-0.00977564
189	0xbc137785	-0.009000664
190	0xbc4d528d	-0.012531889
191	0xbc8e5467	-0.01737423
192	0x3be2bc2d	0.006919405
193	0x3b90002f	0.004394553
194	0x3c0ae19f	0.008476644
195	0x3c8430e3	0.016136592
196	0xbc8d5af5	-0.017255286
197	0x3beefe7b	0.00729352
198	0xbca98b19	-0.02069621
199	0xbc9d98bf	-0.019237874
200	0x3c11207a	0.008857841
201	0xbc2e2c41	-0.010630668
202	0x3cd79505	0.026316175
203	0xbc3cb996	-0.0115188565
204	0x3cc8ef3e	0.024528142
205	0x3cbda8c5	0.023151765
206	0x3c8f1efd	0.017470831
207	0x3c62ebe9	0.013850191
208	0xbca151b8	-0.019692287
209	0xbc84a160	-0.01619023
210	0xbbaa1e1a	-0.0051915767
211	0xbc44a55d	-0.012002316
212	0x3c7817f0	0.015142426
213	0x3ba9eb55	0.0051855245
214	0x3c7824c9	0.015145489
215	0x3bd4730c	0.006483441
216	0xbcd302a4	-0.025758095
217	0xbb252877	-0.002520112
218	0x3ce04942	0.027378682
219	0xbcae8b9e	-0.021306809
220	0x3c6786fa	0.014131302
221	0xbcf1a44c	-0.029497288
222	0x3cbb3362	0.02285165
223	0x3c07f8cd	0.008299065
224	0x3c9e2924	0.019306727
225	0x3c5f4a12	0.0136285
226	0xb953bfd9	-0.00020193997
227	0x3ca0d61b	0.019633343
228	0xbc11762c	-0.008878272
229	0x3c1ed2e5	0.009693836
230	0xbb54bda7	-0.0032461674
231	0x3c22bed7	0.009933195
232	0xbcabc5ec	-0.0209684
233	0xbccc7967	-0.024960233
234	0xbb8ef520	-0.0043627173
235	0xbcac3fcc	-0.021026514
236	0xbc96dd8f	-0.018416194
237	0xbceb926d	-0.028756345
238	0x3cdf036d	0.027223313
239	0xbcc054e2	-0.023477975
240	0x3ce4f35e	0.027948078
241	0x3c502b4d	0.012705636
242	0x3c44319d	0.011974719
243	0x3cb6dc7b	0.02232193
244	0xbc3d702f	-0.011562391
245	0x3c20f594	0.009824175
246	0x3ceecc6c	0.02915021
247	0x3c6cc6a4	0.0144516565
248	0x3cebcf94	0.028785504
249	0xbaa98129	-0.001293217
250	0xbc9a8289	-0.018861072
251	0xbc7c81e2	-0.015411826
252	0x3c0b61c9	0.0085072005
253	0xbccd804f	-0.025085596
254	0x3c1b77bc	0.009488996
255	0x3cc98c05	0.0246029

conv1.bias f4 [14]
0	0xbc6c4f3a	-0.014423186
1	0xbc547890	-0.012968197
2	0xbcb88329	-0.02252348
3	0xbc9e0420	-0.019289076
4	0x3c7b5df4	0.015342224
5	0xbc859679	-0.016307103
6	0xbc81bfc5	-0.015838513
7	0xbc361b84	-0.011114959
8	0xbc67edfe	-0.014155863
9	0xbb9e6bfc	-0.00483465
10	0xbc37f788	-0.01122845
11	0x3c649d18	0.01395347
12	0xbc8d74a8	-0.01726754
13	0x3bd8da18	0.0066177957

conv2.weight f4 [7, 14, 6, 6]
0	0x3c31eec0	0.010860145
1	0xbd170647	-0.03687122
2	0xbd265d70	-0.040616453
3	0xbc876e8f	-0.01653221
4	0x3d270c62	0.040783294
5	0xbcce777b	-0.025203457
6	0x3c63a7ef	0.013895019
7	0xbcf57ec3	-0.029967671
8	0x3d177f87	0.036986854
9	0x3d16abb3	0.03678484
10	0x3cabb487	0.020960106
11	0xbc9aec83	-0.018911606
12	0xbd128afc	-0.035777077
13	0x3c4da398	0.012551211
14	0x3d14622f	0.036226448
15	0xbc4f73d9	-0.012661898
16	0xbc9f4e41	-0.019446494
17	0x3d2fb421	0.042896394
18	0x3d2f6881	0.042824272
19	0xbc04c695	-0.008103986
20	0x3d08616a	0.033296026
21	0xbc1a6c1d	-0.00942519
22	0x3d26c68d	0.040716697
23	0xbd0d9ac4	-0.034571424
24	0x3cd98a04	0.026555069
25	0x3b8c8af8	0.0042890273
26	0x3cf433ea	0.02980991
27	0x3c1f2043	0.009712282
28	0x3c96ae04	0.018393524
29	0xbc1ea7ca	-0.009683559
30	0x3cd6481a	0.026157428
31	0xbd352786	-0.044227146
32	0xbb4904dc	-0.0030673062
33	0xbc7d933f	-0.015477001
34	0xbb8170fd	-0.003950237
35	0xbd197233	-0.037462424
36	0xbc7482dc	-0.014923777
37	0x3ce9711c	0.028496318
38	0x3d1767b5	0.036964137
39	0xbb457feb	-0.003013606
40	0xbc6dada7	-0.014506734
41	0xbcf38cd5	-0.02973024
42	0x3c5b00c9	0.013366886
43	0x3d138ea5	0.03602471
44	0x3cc6d9b8	0.024273738
45	0x3d11d51e	0.035603635
46	0x3b6d5a20	0.0036217049
47	0x3ca9ccac	0.020727478
48	0x3c54d8d4	0.012991149
49	0xbcfbbc00	-0.030729294
50	0x3c1cc647	0.009568757
51	0xbce3f472	-0.027826522
52	0x3cbf85ca	0.023379225
53	0xbc963a1f	-0.018338261
54	0xbcfd4196	-0.030915063
55	0xbb2daa95	-0.002649938
56	0x3a46ad79	0.000757895
57	0xbcce48d1	-0.025181206
58	0xbd253972	-0.040337987
59	0xbd16d002	-0.036819465
60	0x3d1da93d	0.038491476
61	0x3cfbd0f8	0.030739293
62	0x3ce0346d	0.027368749
63	0x3bbd6c5c	0.0057807397
64	0xbc8ef8ff	-0.017452715
65	0x3b91bb30	0.0044473633
66	0x3cb6b6bc	0.022303931
67	0xbcc44c84	-0.023962267
68	0x3c5aa4a8	0.013344921
69	0x3b2825c1	0.0025657269
70	0x3a2c8cbb	0.000658225
71	0x3c61475b	0.013749923
72	0xbc1b6c5c	-0.009486284
73	0xbc21b8ee	-0.009870751
74	0x3c87676b	0.016528806
75	0x3d2065a4	0.039159432
76	0xbc52e2eb	-0.012871484
77	0xbb1a0e9f	-0.002350725
78	0x3c48f6a7	0.012265838
79	0x3ce32c3f	0.02773106
80	0xbd3036d8	-0.043021053
81	0x3c8760cf	0.016525654
82	0xbd0b446d	-0.034000803
83	0x3bcf0fe0	0.006319031
84	0x3caa8237	0.020814044
85	0x3bf54de5	0.0074860924
86	0x3c60dba0	0.013724238
87	0xbc696316	-0.014244815
88	0xbc8a569f	-0.016887007
89	0x3c60c128	0.013717927
90	0xbd1f0a01	-0.0388279
91	0xbcc83242	-0.024438027
92	0x3c13373d	0.008985338
93	0xbc817250	-0.015801579
94	0xbcd6f830	-0.026241392
95	0x3d08f889	0.033440147
96	0x3c5c4ae2	0.013445588
97	0x3c9b0fbe	0.018928405
98	0x3b2fbeda	0.0026816637
99	0x3ca86dc2	0.02056015
100	0xbc5c115c	-0.013431873
101	0xba8b784f	-0.0010640713
102	0xbccac541	-0.024752261
103	0x3d1439a5	0.036187787
104	0xbcf9949f	-0.030466376
105	0xbcdcf205	-0.026970873
106	0xbb911d88	-0.004428569
107	0xbc8ef14e	-0.017449047
108	0x3d31a975	0.043374497
109	0x3d123ce1	0.03570259
110	0xbcd6e966	-0.02623434
111	0xbcd0e68b	-0.025500556
112	0xbcf55541	-0.029947879
113	0xbce8499f	-0.028355418
114	0xbd05baeb	-0.032648962
115	0xbb776d48	-0.0037754346
116	0xbc3f2d9f	-0.011668592
117	0x3bc33054	0.005956689
118	0x3c893782	0.016750101
119	0x3d0b519d	0.03401338
120	0x3c1cbd0b	0.009566556
121	0xbd3062d3	-0.043062996
122	0x3cd8ecbd	0.026480073
123	0x3b9010ad	0.004396519
124	0xbcc20d64	-0.023688026
125	0xbd15e24f	-0.036592778
126	0xbcc11672	-0.023570273
127	0xbd08d89f	-0.03340971
128	0x3c11d07d	0.008899805
129	0xbbc37b15	-0.0059656003
130	0x3c844c3c	0.016149633
131	0x3d0e63df	0.034763213
132	0xbd266a03	-0.040628444
133	0xbd17b461	-0.037037257
134	0xbd310c08	-0.043224365
135	0x3ae03180	0.0017104596
136	0x3d0305f8	0.031988114
137	0x3c576d43	0.013148609
138	0xbd0e1617	-0.034689035
139	0xbd0ba905	-0.034096736
140	0x3d32e5c7	0.043676164
141	0xbcc0f816	-0.023555797
142	0x3ccea2e0	0.02522415
143	0xbc01b451	-0.007916526
144	0xbd127cdc	-0.035763606
145	0xbd2a7e6d	-0.041624475
146	0xbc0ba869	-0.008524039
147	0xbd045533	-0.032307815
148	0x3d1d93f0	0.038471162
149	0xbd1cf958	-0.03832373
150	0xbd1db0cb	-0.03849868
151	0x3d0cce4e	0.034376435
152	0xbcbf3a37	-0.023343189
153	0xbd18eb87	-0.03733399
154	0x3ac6bd1c	0.001516256
155	0x3ccaca9d	0.024754817
156	0x3d312365	0.043246645
157	0x3d10e976	0.035378896
158	0x3c871e13	0.016493833
159	0xbc81718e	-0.015801217
160	0x3d13d9cf	0.03609639
161	0xbc97e785	-0.018543014
162	0x3cd0f1c7	0.025505913
163	0xbc9a7abb	-0.01885735
164	0xbcd84e1f	-0.026404439
165	0x3cee243b	0.02907001
166	0xbd060cf8	-0.03272721
167	0xbc95901f	-0.018257199
168	0xbca364e9	-0.019945579
169	0xbd2c6142	-0.04208494
170	0xbad6c321	-0.0016385057
171	0x3b5c2b05	0.0033594978
172	0xbcf73628	-0.03017719
173	0x3cc5f6b7	0.024165494
174	0x3ced2d05	0.028952131
175	0xbc2fe7ab	-0.010736386
176	0xbd2a4247	-0.041567113
177	0x3b9f8690	0.004868336
178	0xbd360ef7	-0.044447865
179	0x3cbd577f	0.02311301
180	0xbc9192f5	-0.01777027
181	0xbc1031f4	-0.008800972
182	0x3cfd1c1b	0.03089719
183	0x3c03b438	0.008038573
184	0x3c9a7ace	0.018857386
185	0xbc9fe777	-0.01951955
186	0xbca8c069	-0.02059956
187	0x3cee9e10	0.029128104
188	0xbd170a42	-0.036875017
189	0x3c9b763a	0.018977273
190	0x3d01e207	0.031709697
191	0x3bd7499a	0.0065700533
192	0x3d1c9f53	0.03823788
193	0x3d1c00c0	0.038086653
194	0xbbe76380	-0.007061422
195	0xbd12f19e	-0.035874955
196	0x3a8a74d2	0.001056338
197	0x3d1ee22e	0.03878992
198	0xbd2cd0b7	-0.042191233
199	0x3c331c66	0.010932064
200	0xbd31f0c7	-0.043442514
201	0x3c47ced5	0.012195309
202	0xbd0b04a7	-0.033939984
203	0x3c04c45a	0.0081034545
204	0xbcb5a4f9	-0.022173392
205	0xbc2cc0d6	-0.010544023
206	0xbc7521d2	-0.014961677
207	0xbce34e08	-0.02774717
208	0x3c54e245	0.0129934
209	0xbd06fb02	-0.032954223
210	0x3b57abd6	0.0032908819
211	0xbcd8ee0c	-0.026480697
212	0xbd0ab2bf	-0.03386187
213	0xbcd0ff92	-0.02551249
214	0xbd085939	-0.033288214
215	0xbbff3431	-0.007788204
216	0xbd2e6dfb	-0.042585354
217	0xbc2b2161	-0.01044497
218	0xbbd0cd1b	-0.0063721067
219	0x3ccdc6fc	0.025119297
220	0xbcbdd023	-0.023170536
221	0x3b283921	0.0025668817
222	0x3c9f3a22	0.0194369
223	0xbd2050bc	-0.039139494
224	0xbd1dfb4e	-0.03856974
225	0xbcc38606	-0.023867618
226	0xbd006680	-0.03134775
227	0x3d2298b0	0.039696395
228	0xbb7de704	-0.0038742432
229	0x3cc865f9	0.024462687
230	0x3ce40510	0.027834445
231	0xbd0e3084	-0.034714237
232	0xbcb3f0ba	-0.021965373
233	0xbb26181d	-0.0025343962
234	0xbc8f7694	-0.017512597
235	0xbcd65811	-0.02616504
236	0xbd297fe5	-0.041381735
237	0xbc8d8501	-0.017275335
238	0xbc9479bf	-0.01812446
239	0x3d1fd41d	0.039020646
240	0x3c9f8209	0.019471185
241	0x3c691603	0.014226439
242	0xbc2601fa	-0.010132307
243	0xbb89da3e	-0.0042069247
244	0xbcf66b9e	-0.030080613
245	0x3cd55e8f	0.026046066
246	0xbccf40c2	-0.025299434
247	0x3c8db089	0.017296093
248	0x3a93050a	0.0011216712
249	0xbc6acfff	-0.014331817
250	0xbb191ade	-0.0023361961
251	0xbb898573	-0.0041968166
252	0x3d11d1a3	0.035600316
253	0xbc705e0e	-0.014670862
254	0xbc884bd4	-0.01663772
255	0x3d33b62e	0.043874912

conv2.bias f4 [7]
0	0xbcdb7248	-0.026787892
1	0xbcc823b0	-0.02443108
2	0x3cb2bf90	0.02181986
3	0x3c6187bc	0.013765272
4	0xbc6af2da	-0.014340127
5	0xbc9adb49	-0.018903391
6	0x3b192850	0.0023369975

conv3.weight f4 [7, 14, 6, 6]
0	0xbcd62b72	-0.026143763
1	0xbc08c94b	-0.008348773
2	0x3d20b1da	0.039232112
3	0xbcf00dbf	-0.02930343
4	0xbc1dd057	-0.009632192
5	0xbb6303b9	-0.003463967
6	0x3d0d8a86	0.034555934
7	0xbb8b5396	-0.0042519076
8	0x3c46dd8e	0.012137784
9	0x3d143ea7	0.036192562
10	0xbb3304ca	-0.0027316087
11	0xbc8de210	-0.017319709
12	0x3ca0b2df	0.019616542
13	0xba76f7ac	-0.0009421061
14	0x3d056dfb	0.03257559
15	0xbcd767e4	-0.026294656
16	0x3c2e69c0	0.01064533
17	0x3c463bae	0.01209919
18	0x3ca9c469	0.020723538
19	0xbcda2551	-0.026629122
20	0x3ce7ab55	0.02827994
21	0xbd2e09ee	-0.04248994
22	0xbc1552b2	-0.009113954
23	0x3d2dee92	0.042463847
24	0x3c715d2b	0.014731686
25	0x3d06efb4	0.032943442
26	0x3c209515	0.009801169
27	0xbc71086f	-0.014711483
28	0x3d17b52d	0.037038017
29	0x3d2bf0aa	0.041977562
30	0xbca4b26f	-0.020104615
31	0xbb8e6f91	-0.004346796
32	0xbce9ec99	-0.028555201
33	0xbc574dc2	-0.0131410975
34	0x3d1fc8e8	0.03900996
35	0x3ce5cd84	0.028052099
36	0x3c03aef8	0.008037321
37	0xbcfb4dae	-0.030676689
38	0x3c5c3887	0.013441212
39	0xbd1a9ce5	-0.037747283
40	0x3ca126ce	0.019671824
41	0xbcc9638b	-0.024583599
42	0x3bcdbd54	0.006278673
43	0xbcbb19a9	-0.022839384
44	0xbc1cc589	-0.00956858
45	0x3c896a94	0.016774453
46	0xbd2e6c3b	-0.042583685
47	0x3cd206e5	0.025638053
48	0x3cc910bf	0.024544118
49	0x3ce0cafa	0.027440537
50	0x3d2b6e98	0.041853517
51	0xbc488a5d	-0.01224002
52	0xbd2ff93e	-0.042962305
53	0xbcb9e04b	-0.022689959
54	0x3c921d6f	0.0178363
55	0xbcb1a3fa	-0.021684635
56	0x3d247881	0.040153984
57	0x3d082441	0.0332377
58	0x3d1a53c9	0.03767756
59	0xbbe7eb06	-0.0070775775
60	0xbccff012	-0.02538303
61	0x3c9bddea	0.019026715
62	0x3c06cd30	0.008227631
63	0xbd0481d5	-0.03235038
64	0x3c2911ca	0.010319183
65	0x3bd4ae39	0.0064904955
66	0x3b3e01d7	0.0028992796
67	0xbd208f7e	-0.039199345
68	0x3d2e79de	0.04259669
69	0xbc2322b5	-0.009957005
70	0xbcb17f27	-0.021667076
71	0xbd34b382	-0.044116504
72	0x3cec7cd1	0.02886811
73	0x3c687fa2	0.014190586
74	0x3d1cf55c	0.03831993
75	0xbd04f9f5	-0.03246494
76	0xbcf37ecd	-0.02972355
77	0xba7c8797	-0.00096332416
78	0x3ce18420	0.027528822
79	0xbcae4413	-0.021272695
80	0x3d1277bf	0.03575873
81	0xbd22ddc9	-0.039762292
82	0x3be21bb0	0.0069002733
83	0x3d0f582b	0.034996193
84	0xbd177857	-0.03698
85	0x3cd81d89	0.026381271
86	0xbcabfa9e	-0.020993527
87	0xbd1ad144	-0.037797228
88	0x3c45612d	0.012047094
89	0xb897873e	-7.225432e-05
90	0x3cb5a766	0.022174548
91	0x3d1aa09d	0.03775083
92	0x3c792202	0.015205862
93	0x3cb855fd	0.02250194
94	0x3cd24996	0.025669854
95	0xbcb19efc	-0.021682255
96	0x3c74689b	0.014917518
97	0x3c82d5df	0.015971122
98	0xbb04c5da	-0.002025953
99	0x3cf629a7	0.030049158
100	0xbc1aec0d	-0.009455693
101	0x3c9e50b8	0.0193256
102	0x3c7dbcd0	0.015486911
103	0xbcaebf57	-0.021331472
104	0xbd219e45	-0.03945758
105	0xbd2ecf6f	-0.042678293
106	0xbc935a19	-0.017987298
107	0x3cd7c72a	0.026340086
108	0xbd2051ea	-0.03914062
109	0xbcd1452f	-0.025545685
110	0x3d1adc3d	0.03780769
111	0x3c74101f	0.014896422
112	0xbd0dd7cc	-0.034629628
113	0x3b681dea	0.003541822
114	0x3d0a87db	0.033820968
115	0x3cba1605	0.022715578
116	0xbc27e7a6	-0.0102481
117	0xbcfee1ef	-0.031113593
118	0x3ca76303	0.020432955
119	0x3c3d336b	0.0115479035
120	0x3cbd15bf	0.023081658
121	0x3c3b873b	0.011445816
122	0x3cd9ef38	0.026603326
123	0xbb4e6b4b	-0.0031497057
124	0xbd057b1c	-0.03258811
125	0x3ce60add	0.028081352
126	0xbb9c4c16	-0.0047698123
127	0xbd0b0701	-0.033942226
128	0x3cf12863	0.029438203
129	0xbd14cf0d	-0.03633027
130	0x3ced0887	0.02893473
131	0xbd210b28	-0.03931728
132	0xbcbdaf20	-0.023154795
133	0x3d11cc6c	0.035595343
134	0x3c1365a3	0.0089964
135	0xbcedb00b	-0.029014608
136	0x3c7a4e3e	0.015277443
137	0x3c70defe	0.014701603
138	0x3c194749	0.009355375
139	0xbd0e16d9	-0.034689758
140	0xbcd8dc69	-0.026472287
141	0x3d0b69eb	0.034036558
142	0xbd101836	-0.03517934
143	0xbd30a624	-0.043127194
144	0xbcc5a9a7	-0.024128748
145	0xbca9ddda	-0.02073567
146	0xbd0ef907	-0.03490546
147	0xbc48d72a	-0.01225833
148	0xbccdcf81	-0.02512336
149	0x3c6a7e8c	0.014312398
150	0xbcfc4ce6	-0.030798387
151	0x3c832afa	0.016011704
152	0x3ce16b8d	0.027517105
153	0xbcfde434	-0.030992605
154	0x3c12692d	0.008936209
155	0x3c874f1b	0.016517213
156	0x3cfbd97a	0.03074335
157	0xbd1719fe	-0.036890022
158	0x3b55f31d	0.0032646128
159	0xbce89b6d	-0.028394425
160	0xbc64a665	-0.013955687
161	0xbc906e20	-0.017630637
162	0x3d0c2167	0.034211542
163	0x3cda1433	0.02662096
164	0xbd34d0a1	-0.044144277
165	0x3cd70f80	0.026252508
166	0xbcb72f81	-0.022361519
167	0x3c5a9df9	0.013343328
168	0x3cd5e913	0.026112115
169	0x3d320f45	0.043471593
170	0xbbb11c67	-0.005404997
171	0x39f2b88d	0.00046295338
172	0xbbabb7c5	-0.005240413
173	0x3c5511eb	0.01300476
174	0x3d022820	0.031776547
175	0xbb865005	-0.0040988945
176	0xbc12aa46	-0.008951729
177	0x3c1772df	0.009243696
178	0xbd121487	-0.035664108
179	0x3cc2d099	0.023781108
180	0x3bf17204	0.007368328
181	0xbd00e590	-0.031468928
182	0xbbdd3826	-0.006751078
183	0x3d2ecb9e	0.042674653
184	0xbd0e933e	-0.03480839
185	0xbc1cb91e	-0.00956562
186	0x3d09e951	0.033669773
187	0xbae825ad	-0.0017711424
188	0xbcdfdddc	-0.02732747
189	0xbc9fdba5	-0.019513914
190	0xbc83f2d8	-0.016107008
191	0x3c1cbc44	0.00956637
192	0xbce8b69e	-0.028407391
193	0xbca62875	-0.020282963
194	0xbca8b907	-0.02059604
195	0x3d1f6b60	0.03892076
196	0xbc8f9a1c	-0.01752954
197	0x3c7fc6e3	0.015611383
198	0x3c4af9ff	0.012388705
199	0xbcbfcc8b	-0.023412963
200	0x3cbaf11d	0.02282005
201	0xbcc200ed	-0.023682082
202	0xbb7116ac	-0.0036787195
203	0x3c475574	0.01216637
204	0x3d06700b	0.032821696
205	0x3ca86559	0.020556139
206	0xbcb0634d	-0.021531725
207	0xbd090645	-0.033453245
208	0xbcd83a36	-0.026394945
209	0x3c3defed	0.011592847
210	0x3ce189d9	0.027531551
211	0xbc478cec	-0.0121795945
212	0x3cfa7d22	0.030577246
213	0xbc2cd036	-0.010547688
214	0x3c98f2e5	0.018670509
215	0x3d18f5eb	0.0373439
216	0xbd1055fd	-0.035238255
217	0x3d29d9ae	0.04146736
218	0x3d20ab79	0.03922603
219	0x3c9fa794	0.019489087
220	0xbce31642	-0.027720574
221	0x3c879f01	0.016555311
222	0x3d0734b8	0.03300926
223	0xbcca8c22	-0.024725024
224	0xbc8415c9	-0.01612367
225	0x3c98079a	0.018558312
226	0x3c765438	0.015034728
227	0xbc97d60a	-0.018534679
228	0xbc6f6949	-0.014612504
229	0xbd0324c7	-0.032017495
230	0xbc3db633	-0.011579084
231	0xbbb2786f	-0.0054464857
232	0xbc5b24e5	-0.013375496
233	0xbb8db83c	-0.004324941
234	0x3d23a0cd	0.039948273
235	0x3c396c2a	0.011317292
236	0xbbe3c3e2	-0.0069508413
237	0xbc5eb7f2	-0.013593661
238	0x3c51fa72	0.0128160585
239	0xba8adda8	-0.0010594623
240	0xbd07f021	-0.03318799
241	0xbcaa449c	-0.020784669
242	0x3c9e2113	0.01930288
243	0x3cab8ee6	0.020942163
244	0x3ccc0bc6	0.024907958
245	0x3d1d44d3	0.038395714
246	0xbb2a78fa	-0.002601205
247	0xbd0cdb6b	-0.03438894
248	0x3d2e0427	0.04248443
249	0xbbcbe139	-0.006221917
250	0xbd2ca4ec	-0.04214947
251	0xbbbde2e8	-0.0057948716
252	0xbcc43c73	-0.023954606
253	0x3d023583	0.031789314
254	0x3ba4b9fe	0.005027055
255	0xbd17d895	-0.037071783

conv3.bias f4 [7]
0	0xbd236ff4	-0.03990169
1	0x3bc182e0	0.005905494
2	0xbc201a28	-0.009771861
3	0x3d0ac12c	0.03387563
4	0xbd14f035	-0.03636189
5	0xbc8ebcb1	-0.01742396
6	0xbc431950	-0.01190789

conv4.weight f4 [3, 14, 6, 6]
0	0xbc938df4	-0.018012024
1	0xbc970797	-0.018436236
2	0x3d1568f3	0.03647704
3	0x3b60d146	0.0034304424
4	0x3b7bef1f	0.0038442088
5	0xbd1f570a	-0.038901366
6	0x3cb06129	0.021530705
7	0x3d29355c	0.041310653
8	0x3cddb86a	0.027065475
9	0x3d32415f	0.043519374
10	0x3c0dcd59	0.008654916
11	0x3d02bc70	0.03191799
12	0x3c4079f4	0.011747826
13	0xbc580ebb	-0.013187106
14	0x3c35cecd	0.011096668
15	0xbd2afa1e	-0.041742437
16	0x3d2d39a0	0.042291284
17	0xbcdb062c	-0.026736341
18	0x3bbb4677	0.005715187
19	0x3bd45f4c	0.006481087
20	0xbbd01ba9	-0.0063509536
21	0xbc21b212	-0.009869115
22	0xbc8cb728	-0.01717718
23	0x3cf557ef	0.029949157
24	0x3d1d1969	0.03835431
25	0xbcbadb7e	-0.02280974
26	0xbd2414a5	-0.04005875
27	0xbd119426	-0.035541676
28	0xbc4f72b3	-0.012661624
29	0x3d1f5be0	0.03890598
30	0xbd22bab8	-0.03972885
31	0x3d271b5d	0.04079758
32	0x3c09c53b	0.00840884
33	0x3d33abc4	0.04386498
34	0x3c91867b	0.01776432
35	0xbd23e684	-0.04001476
36	0xbc8c6191	-0.017136367
37	0xbc9a3c72	-0.01882765
38	0xbc9a8c86	-0.018865835
39	0x3d2f854c	0.04285173
40	0x3c5d8e78	0.013522737
41	0xbd2b60d5	-0.041840393
42	0xbcbcb050	-0.023033291
43	0xbccd9875	-0.025097111
44	0xbd1f6857	-0.038917866
45	0xbd16779b	-0.03673516
46	0x3d2a4ae3	0.041575324
47	0x3d10ff9c	0.035400018
48	0x3d342422	0.04397977
49	0x3d023f55	0.03179868
50	0xbd15d32e	-0.03657835
51	0x3d183e43	0.037168752
52	0x3c91c2bc	0.017793052
53	0xbd28964c	-0.04115896
54	0x3d180dd5	0.037122566
55	0x3c9b9dc6	0.01899613
56	0xbcdc4f3f	-0.026893256
57	0xbc16e20e	-0.009209169
58	0xbcd37184	-0.025810964
59	0xbc3c68f4	-0.011499632
60	0x3d26af86	0.040694736
61	0xbcd6bace	-0.026212122
62	0xbd30d95e	-0.043176048
63	0xbbd1b33c	-0.00639954
64	0xbc9aac6d	-0.018881047
65	0xbb34d3d9	-0.0027592091
66	0xbc224ec2	-0.009906473
67	0x3caa16b6	0.020762783
68	0x3d204675	0.039129693
69	0x3cea3ac6	0.028592478
70	0xbd2067ef	-0.03916162
71	0xbad171e7	-0.001597938
72	0x3d0c4ec3	0.0342548
73	0x3bae33dd	0.005316241
74	0xbcf97a8a	-0.030453939
75	0xbc8cbc6f	-0.017179696
76	0x3b8d541c	0.004313005
77	0xbcad4dab	-0.021155199
78	0x3c1a88a3	0.009431991
79	0x3d17ff58	0.03710875
80	0x3bac7b4e	0.0052637225
81	0xbd007c52	-0.03136856
82	0x3cd92c52	0.026510391
83	0x3cfb1d5c	0.030653648
84	0xbd20a12b	-0.0392162
85	0xbd279e69	-0.040922556
86	0xbd1cbe5c	-0.03826748
87	0xbc2fa611	-0.010720746
88	0xbbe3726d	-0.006941131
89	0x3ce7fef8	0.02831982
90	0x3d02af2a	0.03190533
91	0x3d2a0e31	0.04151744
92	0x3c1eb605	0.0096869515
93	0xbcad3cde	-0.021147188
94	0xbd01a1c7	-0.031648424
95	0x3cbab5c0	0.022791743
96	0x3cd2615e	0.025681194
97	0xbbb235f5	-0.005438561
98	0xbd2dfce2	-0.042477496
99	0x3a6a7e03	0.0008945169
100	0x3c997d28	0.018736437
101	0xbc8f96f9	-0.017528044
102	0xbcedcc19	-0.029027985
103	0x3c7fee75	0.015620817
104	0x3ccd623c	0.025071256
105	0x3cf79910	0.030224353
106	0xbb67a2b3	-0.003534478
107	0xbc86f0a1	-0.016472163
108	0x3d06f8ac	0.032951996
109	0x3d0d453b	0.03448985
110	0xbb5a1352	-0.0033275676
111	0xba694894	-0.00088990596
112	0x3aebfe95	0.0018004949
113	0xbd22f384	-0.039783016
114	0x3d129b7d	0.035792816
115	0xbcf807ff	-0.03027725
116	0x3cbebfa3	0.023284739
117	0xbd02a9c3	-0.03190018
118	0x3caf2814	0.021381415
119	0x3c197eff	0.009368657
120	0x3d1dfa93	0.038569044
121	0xbcf282d0	-0.029603392
122	0xbd01565d	-0.031576503
123	0xbd1ae57d	-0.037816513
124	0x3d2bba33	0.04192562
125	0xbd332bb4	-0.04374285
126	0xbcdab8e7	-0.026699496
127	0xbc5ab145	-0.013347928
128	0xbcc94812	-0.024570499
129	0x3bee0e39	0.007264879
130	0xbc3ce1a0	-0.011528403
131	0xbcab49e6	-0.020909261
132	0xbcca72d0	-0.02471295
133	0xbcdbbb9f	-0.026822863
134	0xbc96bc6a	-0.01840039
135	0x3c37e3d5	0.011223753
136	0xbb8570d5	-0.0040722885
137	0xbc41f0a5	-0.011837159
138	0x3d15cd94	0.036573008
139	0x3c924ccf	0.01785889
140	0x3d0b3a59	0.03399119
141	0x3c8ba8fe	0.017048355
142	0x3c94054f	0.018068938
143	0xbc07b430	-0.008282706
144	0x3c40d942	0.011770548
145	0x3d2400bb	0.04003976
146	0x3950455c	0.00019862264
147	0xbc55dd19	-0.013053202
148	0x3c627bad	0.013823432
149	0xbb3550a3	-0.0027666471
150	0xbc7913fb	-0.015202518
151	0x3ca8a9c4	0.020588763
152	0xbd0b31b3	-0.033982944
153	0x3c164036	0.0091705825
154	0x3ce626a9	0.028094606
155	0xbca9ff68	-0.02075167
156	0xbbaf02cb	-0.005340909
157	0xbca2c202	-0.0198679
158	0x3d09ec2d	0.0336725
159	0x3d1da999	0.03849182
160	0x3d21f57c	0.039540753
161	0x3cf223b6	0.029558044
162	0x396eee61	0.00022786252
163	0x3c26f439	0.010190063
164	0x3c05ca80	0.008165956
165	0xbd06a086	-0.03286793
166	0xbb9796fc	-0.004626153
167	0x3cb3ff96	0.021972459
168	0xbcbc9555	-0.023020426
169	0xbcdf4237	-0.027253253
170	0xbd0f6c2a	-0.035015263
171	0x3c823048	0.015892163
172	0xbbae4dc0	-0.005319327
173	0xbd2ada50	-0.041712105
174	0xbd04d342	-0.032428034
175	0xbd1fd09e	-0.039017312
176	0x3d1307f7	0.035896268
177	0xbce7c3e2	-0.028291646
178	0x3cbda9c2	0.023152236
179	0xbd1273a7	-0.035754826
180	0xbc8a0830	-0.016849607
181	0x3bfb0c32	0.007661366
182	0xbce61152	-0.02808443
183	0xbc9444a7	-0.018099142
184	0x3c093313	0.008373993
185	0x3cc5c0be	0.024139758
186	0x3d2512ff	0.04030132
187	0x3cbe9143	0.023262626
188	0xbcb08dfc	-0.021552078
189	0x3d2f8acb	0.042856973
190	0xbc59d126	-0.013294494
191	0x3bd9be84	0.0066450257
192	0xbc56a2bb	-0.013100321
193	0x3ba3d3a4	0.0049995948
194	0xbc7e269e	-0.015512137
195	0xbc1de079	-0.009636038
196	0x3bb4c013	0.005516061
197	0x3ca9f34c	0.020745896
198	0xbc0283b2	-0.007965969
199	0x3d3120cb	0.043244164
200	0xbbabbf31	-0.0052412977
201	0xbc5182fc	-0.012787577
202	0xbd1e86e2	-0.038702853
203	0xbd1ca459	-0.03824267
204	0x3d0cb42c	0.034351513
205	0xbcce8ea8	-0.025214508
206	0x3c21cf87	0.0098761385
207	0x3bf27e9d	0.0074003474
208	0x3d0dc268	0.03460923
209	0x3d284c9f	0.041088697
210	0x3d0461c8	0.032319814
211	0x3cfd6fcb	0.030937096
212	0xbd01b343	-0.031665098
213	0x3d212e62	0.039350875
214	0x3cdf25b3	0.027239656
215	0xbbb8841a	-0.005630982
216	0x3c9f5f28	0.019454554
217	0x3ce1b93e	0.02755415
218	0xbd066f2a	-0.032820858
219	0x3cc2f5ef	0.02379891
220	0xbcb557d2	-0.022136603
221	0xbb60fea7	-0.0034331472
222	0x3be3e5b5	0.0069548734
223	0x3ba27f10	0.0049589947
224	0x3b255c35	0.0025231962
225	0xbbab6e7b	-0.005231676
226	0xbcd366c9	-0.025805848
227	0x3c82208d	0.015884662
228	0xbd1258c6	-0.035729192
229	0x3d0a5d80	0.033780575
230	0xbd3183e6	-0.04333868
231	0xbbdf3089	-0.0068112058
232	0xbd189351	-0.037249867
233	0xbd155e1c	-0.036466703
234	0xbc0c022d	-0.008545441
235	0xbcfaa356	-0.030595463
236	0x3ce0c8b8	0.02743946
237	0xbc657700	-0.014005423
238	0xbc8a5a56	-0.016888779
239	0x3cc9a77b	0.024615994
240	0x3d2b1a72	0.041773267
241	0x3cedb8f9	0.029018866
242	0xbd049b9a	-0.032374956
243	0xbc9558aa	-0.018230755
244	0x3d0541ca	0.032533444
245	0x3c18b273	0.009319889
246	0xbce83b24	-0.028348513
247	0xbd22be72	-0.039732404
248	0xbcc5157c	-0.024058096
249	0xbbb6c71b	-0.0055779344
250	0xbc744f5f	-0.014911502
251	0xbc1a5f42	-0.009422125
252	0x3d36cb69	0.04462758
253	0x3ce67dfb	0.028136244
254	0x3cd27f7d	0.025695557
255	0x3d11e07a	0.03561447

conv4.bias f4 [3]
0	0x3ac93ce2	0.0015353227
1	0x3d1f4e6e	0.038893156
2	0xbc8c0da7	-0.017096354

conv5.weight f4 [1, 3, 6, 6]
0	0x38c7698f	9.508721e-05
1	0x3c935506	0.017984878
2	0x3d3a496b	0.045480173
3	0xbda216a6	-0.07914476
4	0xbdaaa1e9	-0.08331663
5	0xbcc0c0df	-0.023529468
6	0xbd2c7c3a	-0.04211066
7	0xbd64bcd3	-0.05584414
8	0x3d58a158	0.052888244
9	0xba4318db	-0.00074423634
10	0x3d473797	0.048637
11	0xbb2e1348	-0.0026561785
12	0x3dbe36b0	0.092877746
13	0xbd0bc055	-0.03411897
14	0xbc66ecfe	-0.014094589
15	0x3d9ac975	0.07557956
16	0x3d4a4411	0.04938132
17	0xbd1591f8	-0.03651616
18	0x3daa4c96	0.08315389
19	0x3d122456	0.035679184
20	0xbd66d24b	-0.056352895
21	0x3d63479c	0.055488214
22	0x3d4c306c	0.049850866
23	0x3d8b7bf7	0.06810754
24	0x3d327b82	0.043574817
25	0xbcd0b95e	-0.025479015
26	0xbd5e8a8c	-0.054331347
27	0xbba1706e	-0.0049267327
28	0x3ce932c0	0.028466582
29	0x3ca85860	0.020549953
30	0xbd8a68cf	-0.06758272
31	0x3d0bb51a	0.03410826
32	0xbd3d7be5	-0.046260733
33	0x3d561882	0.052269466
34	0x3cace1ca	0.021103758
35	0xbd3e6d2a	-0.046490826
36	0x3dabe500	0.08393288
37	0xbc82ca12	-0.015965495
38	0xbd4931e7	-0.049119856
39	0x3d9ba0d9	0.07599039
40	0x3d81d5e9	0.06339628
41	0xbd96471c	-0.07337782
42	0xbd9a8310	-0.075445294
43	0x3da0c299	0.078496166
44	0xbd2a55e2	-0.04158581
45	0x3da1de5c	0.0790374
46	0x3da79067	0.081818394
47	0x3db06d23	0.08614566
48	0xbd95aa0f	-0.07307827
49	0x3d9970c0	0.074922085
50	0x3d829bbc	0.0637736
51	0x3ce84207	0.028351797
52	0xbd37dd3b	-0.044888716
53	0x3d2e0c2f	0.042492088
54	0xbdad2226	-0.08453779
55	0xbd2858a9	-0.041100178
56	0x3d83d54c	0.064371675
57	0x3d44ef44	0.048079744
58	0xbd62e729	-0.055396233
59	0xbc98034a	-0.018556256
60	0xbc9b3a0c	-0.018948577
61	0xbdbcba33	-0.09215202
62	0xbc0e3df9	-0.008681768
63	0xbcb6f564	-0.022333808
64	0xbda73ae2	-0.08165528
65	0x3da46cff	0.08028602
66	0xbd7146a3	-0.058905255
67	0x3d1b83fa	0.03796766
68	0xbd367323	-0.044543397
69	0xbd70ad5a	-0.05875907
70	0xbda880e7	-0.08227711
71	0xbd0cabde	-0.034343593
72	0x3ccb218e	0.024796274
73	0x3c8160f3	0.0157933
74	0xbcec90bc	-0.028877608
75	0x3d168fb1	0.03675813
76	0xbc640a43	-0.013918462
77	0xbd770e3f	-0.06031632
78	0xbd93486c	-0.07191548
79	0x3d26d0df	0.04072654
80	0x3ce989cf	0.028508095
81	0x3ca2d2d4	0.019875921
82	0x3d215d19	0.039395425
83	0xbd8b7f8c	-0.06811437
84	0x3d362026	0.044464253
85	0x3d8ab14f	0.067721
86	0x3dba92de	0.09110044
87	0xbd901855	-0.07035891
88	0x3cdcf2d1	0.026971253
89	0x3d11aff0	0.035568178
90	0x3cea704d	0.028618002
91	0x3d931c73	0.07183161
92	0x3db14adf	0.08656859
93	0x3da16eb0	0.0788244
94	0x3d657a1f	0.056024667
95	0xbd1b47c2	-0.03791023
96	0x3cece48d	0.028917575
97	0x3d17a404	0.037021652
98	0x3d8bfa9b	0.068349086
99	0xbd7d9084	-0.0619054
100	0x3cc6aabe	0.024251338
101	0xbd9db170	-0.07699859
102	0xbd9e8a2b	-0.07741197
103	0x3d138f6e	0.036025457
104	0xbd48a16d	-0.048982073
105	0x3db00fdc	0.08596775
106	0x3dad05b2	0.08448352
107	0xbd8f11de	-0.0698583

conv6.weight f4 [1, 3, 6, 6]
0	0xbd8005de	-0.06251119
1	0xbd147055	-0.03623994
2	0x3db97773	0.09055986
3	0xbdb06527	-0.08613043
4	0x3d690123	0.05688585
5	0xbd516d16	-0.051129423
6	0xbaa49f9f	-0.0012559778
7	0xbdafec48	-0.08589989
8	0x3b25fc12	0.0025327248
9	0x3d280cb0	0.041027725
10	0x3d9839d9	0.074329086
11	0x3c4fb8f0	0.01267837
12	0xbdb8debe	-0.0902686
13	0xbdaacc2b	-0.08339723
14	0xbc3aed8e	-0.0114091765
15	0x3c170531	0.009217546
16	0xbcc59b78	-0.024121985
17	0x3d08695f	0.033303615
18	0x3d452361	0.048129443
19	0xba6f7b86	-0.0009135533
20	0x3d3165ed	0.043310095
21	0xbd3c78a3	-0.046013486
22	0x3c1badad	0.009501857
23	0x3d1ee2c2	0.03879047
24	0xbd09db84	-0.033656612
25	0xbd17d401	-0.037067417
26	0xbda2cf6e	-0.0794972
27	0xbd8e6f6d	-0.069548465
28	0x3cae54fb	0.021280756
29	0x3d0e63af	0.034763034
30	0xbd38d2b8	-0.045122832
31	0x3db4c87b	0.08827301
32	0x3d7189f3	0.05896945
33	0x3c60f8b4	0.01373117
34	0xbdb052ee	-0.086095676
35	0xbd1910d1	-0.037369553
36	0xbd5d68a8	-0.054054886
37	0xbd4f426e	-0.05060046
38	0x3d906e03	0.07052233
39	0x3d05016a	0.03247205
40	0xbd1fcbd0	-0.03901273
41	0xbdb4bb97	-0.088248424
42	0x3d95f663	0.07322385
43	0xbd61f773	-0.055167627
44	0x3d7686ed	0.06018727
45	0x3d99dd7f	0.0751295
46	0xbd4baf1a	-0.049727537
47	0x3dbbc70c	0.091688246
48	0xbd71b213	-0.059007715
49	0x3d9a381a	0.07530232
50	0xbdbca1db	-0.09210559
51	0x3d05dc41	0.032680754
52	0x3a9d729e	0.0012012308
53	0xbd9c1f1c	-0.07623121
54	0xbd231a74	-0.03982015
55	0xbdbc813b	-0.09204336
56	0xbd10ff6b	-0.035399836
57	0xbc59bd4a	-0.013289759
58	0x3d7cb113	0.06169231
59	0xbdc26475	-0.09491817
60	0x3d377a19	0.044794176
61	0xbc5a95de	-0.013341395
62	0x3dac2281	0.084050186
63	0x3d5cdef7	0.053923573
64	0x3daafa2e	0.08348499
65	0xbd42771e	-0.04747688
66	0xbd99d519	-0.07511348
67	0x3d822a1e	0.063556895
68	0x3d878de9	0.06618864
69	0xbd6a0a79	-0.057138894
70	0x3c2e41cd	0.010635805
71	0xbdb8974f	-0.09013235
72	0xbd518677	-0.051153626
73	0x3c04b32e	0.00809936
74	0xbd50e445	-0.050998945
75	0x3d7d77d9	0.061881874
76	0x3dc291b9	0.09500451
77	0x3db0a2de	0.086248145
78	0xbd623208	-0.055223495
79	0xbdb8a7d4	-0.09016386
80	0xbcab46b7	-0.020907743
81	0xbd96a8a1	-0.07356382
82	0x3d49c10f	0.04925638
83	0x3d517120	0.051133275
84	0xbcbb9dc7	-0.022902383
85	0x3bd26a4a	0.006421362
86	0xbceac7f7	-0.028659804
87	0xbd77fa51	-0.060541455
88	0x3d9f44ce	0.07776795
89	0xbd1f8114	-0.038941458
90	0xbbcaa1b2	-0.0061838264
91	0xbce4e4c4	-0.027941115
92	0x3d972c09	0.07381446
93	0xbdc4e324	-0.09613636
94	0x3d351492	0.04420907
95	0x3d8f0788	0.06983858
96	0x3d4e166a	0.050314344
97	0x3d392803	0.045204174
98	0xbce866a6	-0.02836926
99	0x3d83b303	0.06430628
100	0xbd5ad5ad	-0.053426433
101	0x3c81f1e7	0.015862418
102	0xbdad166c	-0.08451542
103	0xbccc0e18	-0.024909064
104	0xbdb50fc7	-0.088409
105	0x3d86ca37	0.06581538
106	0xbcccba74	-0.024991252
107	0x3c096699	0.008386278

conv7.weight f4 [1, 2, 6, 6]
0	0xbc90eedc	-0.017692022
1	0x3c92bdca	0.017912764
2	0xbd2cb619	-0.04216585
3	0xbccd4ee8	-0.02506204
4	0x3d32b185	0.043626327
5	0xbd7b1c51	-0.0613063
6	0x3d765f3c	0.060149416
7	0x3cf2eed6	0.029654901
8	0x3d82df7c	0.063902825
9	0x3da317a6	0.07963495
10	0x3dd135f7	0.10215371
11	0xbd1eaf7b	-0.03874157
12	0xbcc9d05c	-0.024635486
13	0x3c57c7fc	0.013170239
14	0x3d8995d6	0.06718032
15	0x3d6098ef	0.05483335
16	0xbd2edbff	-0.042690273
17	0xbdcc0143	-0.09961178
18	0xbd2f6371	-0.042819444
19	0x3dd5c51f	0.104379885
20	0xbde3e72f	-0.11128079
21	0xbcbfbd64	-0.023405738
22	0x3bb0d6f0	0.0053967163
23	0xbd05a81c	-0.032631025
24	0x3d897376	0.067114756
25	0xba8e48e7	-0.0010855467
26	0x3dc4a79e	0.09602283
27	0xbd543f42	-0.05181814
28	0x3dcd38ab	0.10020574
29	0xbcda4258	-0.026642963
30	0x3c9d26a6	0.019183468
31	0x3d867df2	0.06566991
32	0x3ca3728d	0.019952083
33	0x3ddaaa7d	0.10677049
34	0xbd21e39b	-0.039523702
35	0x3d31c7e0	0.043403506
36	0x3d4b3f45	0.049620885
37	0x3d5b15bc	0.053487524
38	0x3de74acb	0.112935625
39	0x3d2dadea	0.042402185
40	0xbd8a9ed1	-0.06768573
41	0xba7b6e3f	-0.0009591318
42	0xbde6f1e8	-0.11276609
43	0xbdb0b688	-0.08628565
44	0xbd6f62b2	-0.058443733
45	0x3d1789f6	0.036996804
46	0x3d44145d	0.047870982
47	0x3d2d50e9	0.04231349
48	0xbda12c76	-0.078698084
49	0x3dbb59c2	0.09147979
50	0x3d58be56	0.052915893
51	0x3af704a1	0.0018845984
52	0x3d0c9d9e	0.034330003
53	0xbb91a027	-0.0044441405
54	0xbdb6dc80	-0.08928776
55	0xbd8a58ab	-0.06755193
56	0x3d066917	0.032815065
57	0xbdefcd44	-0.11709073
58	0xbda6255d	-0.08112595
59	0x3dbab617	0.09116762
60	0x3dd7ff49	0.10546739
61	0xbdec611d	-0.115419604
62	0xbdc672ef	-0.096898906
63	0xbc6c1d52	-0.014411287
64	0x3d537e73	0.051634263
65	0xbcb1e935	-0.021717647
66	0x3d5e3bd5	0.05425628
67	0xbde55fe8	-0.11199933
68	0x3d47c94f	0.048775967
69	0xbc90ba70	-0.017667025
70	0x3de00264	0.10937956
71	0xbd9ce055	-0.076599754
