siamese-models/siam_v2_0.pth (torch, 102171 bytes, 11 tensors)

conv1.weight f4 [14, 31, 6, 6]
0	0xbcd70348	-0.026246682
1	0x3cab9584	0.020945318
2	0x3c949f13	0.018142259
3	0xbb7b1627	-0.0038312764
4	0xbbb5b8e0	-0.0055457205
5	0x3cd2f954	0.025753655
6	0x3cafd8b7	0.021465642
7	0x3b5e716d	0.0033942119
8	0xbc85239a	-0.016252328
9	0x3ab4e364	0.0013800678
10	0x3cb95e2c	0.022627912
11	0xbc8ea3ef	-0.017412154
12	0x3cc9c458	0.024629757
13	0xbccd3f3c	-0.025054567
14	0xbc6124ff	-0.013741731
15	0x3cd410d0	0.025886923
16	0xbc59ee7e	-0.01330149
17	0x3ba5345f	0.0050416435
18	0xba07ba81	-0.00051776326
19	0x3bc0957c	0.005877195
20	0xbcd89490	-0.026438028
21	0x3cccd4ab	0.025003752
22	0x3ce9d5de	0.028544363
23	0x3b29d66f	0.0025915166
24	0x3ca32709	0.019916074
25	0xbc817fc8	-0.015808001
26	0x3c86c12a	0.01644953
27	0xbc1a6de7	-0.009425617
28	0x3bcfb92f	0.0063392143
29	0x3c1dceb8	0.009631805
30	0x3b146b3d	0.0022646927
31	0xbbaa9b9a	-0.0052065374
32	0xbcb743ca	-0.022371192
33	0x3ca6733a	0.020318616
34	0x3cd9da89	0.026593463
35	0xbcc2d4a4	-0.023783036
36	0xbc24a26e	-0.010048492
37	0x3ca914de	0.020639833
38	0xba7a3b11	-0.0009545545
39	0x3c36edfe	0.01116514
40	0xbc0cec46	-0.008601254
41	0x3ce920f3	0.028458094
42	0x3c1c544d	0.009541583
43	0xbcd4844b	-0.025941988
44	0x3ca61405	0.020273218
45	0xbcbc73e6	-0.023004483
46	0x3c9a0281	0.018800022
47	0x3c289e08	0.010291584
48	0x3cbc1689	0.022959964
49	0x3ccc79e6	0.02496047
50	0xbc2d9dc8	-0.0105967
51	0x3be08845	0.006852182
52	0xbc0063e7	-0.007836319
53	0xbce9dd1c	-0.028547816
54	0x3bcdeee6	0.0062845824
55	0xbcdaae3d	-0.026694411
56	0xbc4671e4	-0.012112115
57	0x3cdb10eb	0.026741466
58	0x3cd10814	0.025516547
59	0x3bff50c3	0.00779161
60	0xbc34a61d	-0.011025933
61	0xbc638964	-0.013887737
62	0x3cf2c568	0.029635146
63	0x3cb9e9b6	0.02269445
64	0x3ca03265	0.01955528
65	0xbb7bfa70	-0.0038448833
66	0xbccaea8d	-0.024770046
67	0xbb050f01	-0.0020303132
68	0xbc9fe582	-0.019518618
69	0x3ca29a55	0.019848982
70	0x3ceaeec0	0.028678298
71	0xbccf1dac	-0.025282703
72	0x3ceef9ff	0.029171942
73	0xbce8df7e	-0.028426882
74	0x3b6521b7	0.0034962723
75	0x3cf45b52	0.029828701
76	0xbccc067e	-0.02490544
77	0xbc9e9dca	-0.019362349
78	0xbc24f3ad	-0.010067862
79	0x3c9ad3fd	0.018899912
80	0xbb9ed231	-0.004846834
81	0xbba2e6af	-0.0049713473
82	0x3c9c06c9	0.019046204
83	0xbab62021	-0.0013895073
84	0x3ce2f373	0.027703976
85	0xbb491d72	-0.0030687717
86	0xbaea683e	-0.001788385
87	0xbc5d6896	-0.013513705
88	0x3bfeb200	0.007772684
89	0xbc29d419	-0.010365509
90	0xbc44e831	-0.012018249
91	0x3b87e593	0.0041472404
92	0x3cbd1adb	0.023084095
93	0xbce1e0a6	-0.027572941
94	0xbc47b613	-0.012189406
95	0xbcb3bb1a	-0.021939803
96	0xbc6f36fb	-0.014600511
97	0x3c2c29c8	0.010508008
98	0x3c1c7ebb	0.009551699
99	0x3cd0f364	0.025506683
100	0xbcc1c5c5	-0.023653874
101	0xbcd4bd0a	-0.025969047
102	0x3ccaaefc	0.024741642
103	0xbcd76de9	-0.026297526
104	0x3c5266b0	0.012841865
105	0x3c528514	0.012849111
106	0xbccd2e3d	-0.025046462
107	0xbc844407	-0.01614572
108	0x3cee9db9	0.029127942
109	0xba652a20	-0.0008741934
110	0x3cb053e7	0.021524383
111	0xbab3bc9f	-0.001371283
112	0xbc9e9b9d	-0.019361312
113	0xbcd18951	-0.025578173
114	0xbb495bbc	-0.0030724844
115	0xbcb165d3	-0.021654999
116	0x3c573887	0.013136036
117	0xbb4f8876	-0.003166703
118	0xb7c575da	-2.3539109e-05
119	0xbbf84463	-0.0075765117
120	0xbca25ffb	-0.019821158
121	0x3afd97e3	0.0019347634
122	0xbc5ef2da	-0.013607705
123	0xbb6aa2c1	-0.0035802575
124	0xbcb57946	-0.022152554
125	0x3c9f0a70	0.019414157
126	0xbb302d08	-0.002688231
127	0xbcbe737d	-0.023248428
128	0xbb8ecbde	-0.004357799
129	0xbcc820a4	-0.024429627
130	0xbcb28474	-0.021791674
131	0xbaa5bcfe	-0.0012644825
132	0xbcc1f55e	-0.02367657
133	0xbce7f732	-0.028316114
134	0x3bd411ed	0.0064718635
135	0xbc533772	-0.012891637
136	0xbca7125e	-0.0203945
137	0x3b6dac16	0.0036265901
138	0x3c844a53	0.016148722
139	0xbbb91026	-0.005647677
140	0xbc7800be	-0.015136896
141	0x3b362bea	0.002779717
142	0x3ba6f462	0.0050950507
143	0xbcede7c3	-0.029041177
144	0xbca2a15b	-0.01985233
145	0x3cbe3001	0.02321625
146	0xbc5bf1f1	-0.013424383
147	0x3cde635d	0.02714699
148	0x3bedc32f	0.0072559337
149	0x3b4ee0d7	0.003156712
150	0x3c8c6d73	0.017142033
151	0xbccfee41	-0.025382163
152	0xbc079f20	-0.008277684
153	0x3c29d2d9	0.010365211
154	0x3a3bc014	0.0007162106
155	0x3c8d254f	0.017229704
156	0x3cbc613a	0.02299558
157	0xbc82de63	-0.015975183
158	0x3cc3af91	0.023887428
159	0xbc42a7fa	-0.011880869
160	0xbcc76f84	-0.024345167
161	0xbca57206	-0.020195972
162	0x3c51c1f8	0.012802593
163	0x3ca34e10	0.019934684
164	0xbca8d9b1	-0.020611616
165	0xbce0966b	-0.027415475
166	0xbcc52b46	-0.024068486
167	0x3cc1551a	0.02360015
168	0xbb7299f9	-0.0037018044
169	0xbce2de1b	-0.027693799
170	0xbcc6ef34	-0.024283983
171	0x3c6af3c4	0.014340345
172	0xbcdfe039	-0.027328597
173	0x3cde9761	0.027171792
174	0x3cb916f9	0.022593962
175	0x3ca6dbe4	0.020368524
176	0xbc627521	-0.013821871
177	0xbcc05034	-0.023475744
178	0xbc01d0a5	-0.00792328
179	0x3cd96a24	0.02653987
180	0xbcb4e2e0	-0.022080839
181	0xbcdc556e	-0.026896205
182	0x3c7b630f	0.015343442
183	0xbcc54f42	-0.024085645
184	0x3c99b9b9	0.018765317
185	0x3ae870cd	0.0017733813
186	0x3c6f5f9a	0.0146101955
187	0xbc390e94	-0.01129498
188	0xbc1dc21f	-0.009628802
189	0xbc112959	-0.008859956
190	0xbc4bc834	-0.012437869
191	0xbc8dea8e	-0.017323758
192	0x3be7f45e	0.0070786914
193	0x3b96931e	0.0045951745
194	0x3c0ce0d5	0.008598526
195	0x3c851cfb	0.01624917
196	0xbc8ce35f	-0.017198263
197	0x3bf1172f	0.0073575
198	0xbca8c362	-0.020600978
199	0xbc9ccd97	-0.019141002
200	0x3c133832	0.008985566
201	0xbc2c14c2	-0.010502996
202	0x3cd7f8b2	0.026363704
203	0xbc3c64d5	-0.01149865
204	0x3cca8006	0.02471925
205	0x3cbfb658	0.023402378
206	0x3c90bb5b	0.017667463
207	0x3c64e4b4	0.013970543
208	0xbc9fa1a9	-0.019486265
209	0xbc83f451	-0.01610771
210	0xbba63a24	-0.005072849
211	0xbc42f78f	-0.011899843
212	0x3c7a1183	0.015262964
213	0x3bace4b0	0.005276285
214	0x3c794839	0.015214973
215	0x3bd3c866	0.0064630983
216	0xbcd41f19	-0.025893735
217	0xbb2d9522	-0.0026486595
218	0x3cdf7a01	0.027279856
219	0xbcaf7e9e	-0.02142268
220	0x3c655b29	0.013998785
221	0xbcf2ce6f	-0.02963945
222	0x3cbafefe	0.022826668
223	0x3c06f4ad	0.008237046
224	0x3c9db958	0.019253418
225	0x3c5e62a2	0.013573321
226	0xb98b5558	-0.00026575732
227	0x3ca058d3	0.019573605
228	0xbc11b0a3	-0.008892211
229	0x3c1f057a	0.009705896
230	0xbb533840	-0.0032229573
231	0x3c22afc7	0.009929604
232	0xbcabf1a6	-0.02098925
233	0xbcccad31	-0.024984928
234	0xbb918073	-0.004440361
235	0xbcacdd93	-0.021101749
236	0xbc979f24	-0.018508501
237	0xbcebf30a	-0.028802413
238	0x3cde8e46	0.02716745
239	0xbcc0e01f	-0.02354437
240	0x3ce51741	0.02796519
241	0x3c50dac3	0.012747469
242	0x3c44a0cd	0.0120012285
243	0x3cb741e3	0.022370284
244	0xbc3d486b	-0.01155291
245	0x3c20f345	0.009823625
246	0x3ceed70e	0.02915528
247	0x3c6cfff0	0.014465317
248	0x3cebf113	0.028801477
249	0xbaa84f9a	-0.0012841106
250	0xbc9aa086	-0.018875372
251	0xbc7d240d	-0.01545049
252	0x3c08e318	0.008354925
253	0xbcce7ea9	-0.02520688
254	0x3c19e459	0.009392821
255	0x3cc8d036	0.024513345

conv1.bias f4 [14]
0	0xbc6c4f3a	-0.014423186
1	0xbc547890	-0.012968197
2	0xbcb88329	-0.02252348
3	0xbc9e0420	-0.019289076
4	0x3c7b5df4	0.015342224
5	0xbc859679	-0.016307103
6	0xbc81bfc5	-0.015838513
7	0xbc361b84	-0.011114959
8	0xbc67edfe	-0.014155863
9	0xbb9e6bfc	-0.00483465
10	0xbc37f788	-0.01122845
11	0x3c649d18	0.01395347
12	0xbc8d74a8	-0.01726754
13	0x3bd8da18	0.0066177957

conv2.weight f4 [7, 14, 6, 6]
0	0x3c316959	0.0108283395
1	0xbd16cf39	-0.036818717
2	0xbd260f64	-0.04054202
3	0xbc870efe	-0.016486641
4	0x3d272aed	0.04081242
5	0xbcce8b33	-0.02521286
6	0x3c63b08a	0.013897071
7	0xbcf53081	-0.029930355
8	0x3d17fecb	0.037108224
9	0x3d16d7d5	0.036826927
10	0x3cacda33	0.02110014
11	0xbc9a7627	-0.018855168
12	0xbd12a9ce	-0.03580647
13	0x3c4e6173	0.012596476
14	0x3d14a110	0.036286414
15	0xbc4f2712	-0.012643592
16	0xbc9ee216	-0.019394916
17	0x3d2fd198	0.042924494
18	0x3d2f2265	0.04275741
19	0xbc04c215	-0.008102913
20	0x3d088915	0.033333857
21	0xbc1b38ab	-0.00947396
22	0x3d26cb09	0.040720973
23	0xbd0dfe28	-0.03466621
24	0x3cd8e81a	0.026477862
25	0x3b8b4bb9	0.00425097
26	0x3cf3d58f	0.029764919
27	0x3c1d4617	0.00959923
28	0x3c962740	0.018329263
29	0xbc2023c2	-0.00977415
30	0x3cd58c2b	0.026067814
31	0xbd357b9e	-0.044307344
32	0xbb49f842	-0.003081814
33	0xbc7e140d	-0.01550771
34	0xbb81d0b4	-0.003961647
35	0xbd19927b	-0.03749321
36	0xbc749ff1	-0.014930711
37	0x3ce9904e	0.028511193
38	0x3d16e421	0.036838654
39	0xbb4afe31	-0.0030974264
40	0xbc6dd062	-0.014515014
41	0xbcf30e18	-0.029669806
42	0x3c5c8e4d	0.0134616615
43	0x3d1372aa	0.035998024
44	0x3cc5cf2a	0.024146635
45	0x3d11821a	0.035524465
46	0x3b6d5428	0.003621349
47	0x3ca9b9a0	0.020718396
48	0x3c55512f	0.013019844
49	0xbcfbd8d1	-0.030743035
50	0x3c19ac65	0.009379481
51	0xbce46023	-0.027877873
52	0x3cbf6693	0.02336434
53	0xbc95db39	-0.01829301
54	0xbcfd84bb	-0.03094708
55	0xbb2aea99	-0.0026079773
56	0x3a0c7590	0.00053580943
57	0xbcce9996	-0.02521972
58	0xbd256350	-0.040377915
59	0xbd16a7d9	-0.036781166
60	0x3d1dd4e7	0.038533118
61	0x3cfc24f0	0.030779332
62	0x3cdf14eb	0.027231654
63	0x3bbc5d7c	0.005748449
64	0xbc8e8599	-0.017397689
65	0x3b9582f3	0.0045627295
66	0x3cb6dfce	0.022323515
67	0xbcc42e7a	-0.023947943
68	0x3c5788c3	0.013155165
69	0x3b25f395	0.0025322188
70	0x3a3eb57b	0.00072749675
71	0x3c622321	0.013802321
72	0xbc1d0877	-0.009584538
73	0xbc2248f3	-0.009905088
74	0x3c87f647	0.016596926
75	0x3d205cdb	0.039151054
76	0xbc52c567	-0.012864447
77	0xbb1e5389	-0.0024158678
78	0x3c470dac	0.012149256
79	0x3ce28c0b	0.027654668
80	0xbd302c8b	-0.04301123
81	0x3c87a658	0.016558811
82	0xbd0b3753	-0.03398831
83	0x3bcaf7ae	0.0061940765
84	0x3ca9e039	0.0207368
85	0x3bf349a7	0.0074245515
86	0x3c61ee0d	0.013789666
87	0xbc68293c	-0.014169987
88	0xbc8a0978	-0.016850218
89	0x3c5fe745	0.013665979
90	0xbd1f6ac0	-0.038920164
91	0xbcc80f2c	-0.024421297
92	0x3c15040c	0.009095203
93	0xbc809c27	-0.01569946
94	0xbcd66bd4	-0.026174463
95	0x3d08dd9c	0.03341447
96	0x3c5ab2b2	0.013348268
97	0x3c9b4be6	0.01895709
98	0x3b37d83e	0.0028052474
99	0x3ca9470d	0.020663762
100	0xbc5a6d32	-0.013331698
101	0xba8ba09d	-0.0010652725
102	0xbccb1bb1	-0.024793478
103	0x3d148487	0.0362592
104	0xbcf8098c	-0.03027799
105	0xbcdbf876	-0.026851874
106	0xbb8bf034	-0.004270578
107	0xbc8f1b9b	-0.017469218
108	0x3d3206d0	0.04346353
109	0x3d127a90	0.035761416
110	0xbcd712bf	-0.026254056
111	0xbcd02437	-0.025407894
112	0xbcf4a39a	-0.029863168
113	0xbce83ab3	-0.028348302
114	0xbd05731d	-0.032580484
115	0xbb782294	-0.0037862407
116	0xbc3fd245	-0.011707847
117	0x3bc1d84f	0.0059156786
118	0x3c892ad6	0.016744059
119	0x3d0ae458	0.03390917
120	0x3c1d79dc	0.009611573
121	0xbd3081dd	-0.043092597
122	0x3cd89c6b	0.026441773
123	0x3b8e5519	0.0043436405
124	0xbcc22061	-0.02369708
125	0xbd162281	-0.036654
126	0xbcc14986	-0.023594629
127	0xbd091fb1	-0.03347749
128	0x3c10d129	0.00883893
129	0xbbc626a8	-0.0060470887
130	0x3c841e6a	0.016127784
131	0x3d0e2a70	0.03470844
132	0xbd263922	-0.04058183
133	0xbd17b5e3	-0.037038695
134	0xbd3108de	-0.043221347
135	0x3ae4d6d4	0.0017459043
136	0x3d0370c3	0.03208996
137	0x3c573cf7	0.013137094
138	0xbd0dd594	-0.034627512
139	0xbd0b9b56	-0.034083687
140	0x3d32d9d6	0.043664776
141	0xbcc09b23	-0.023511475
142	0x3cced7c3	0.025249368
143	0xbc02ba62	-0.007979007
144	0xbd122604	-0.035680786
145	0xbd2ab045	-0.04167201
146	0xbc0ba9b0	-0.008524343
147	0xbd0475be	-0.03233885
148	0x3d1d1eea	0.03835956
149	0xbd1d6e7e	-0.03843545
150	0xbd1d878c	-0.038459346
151	0x3d0c5512	0.034260817
152	0xbcbf6658	-0.023364231
153	0xbd18d370	-0.037311018
154	0x3ac413e4	0.0014959541
155	0x3cca2143	0.024674064
156	0x3d312c7d	0.043255318
157	0x3d10ee33	0.035383414
158	0x3c87511f	0.016518174
159	0xbc80e019	-0.015731858
160	0x3d13d3e7	0.036090758
161	0xbc98780f	-0.018611936
162	0x3cd0c885	0.02548624
163	0xbc9abfd5	-0.0188903
164	0xbcd7f8a1	-0.026363673
165	0x3cee8416	0.029115718
166	0xbd0654e2	-0.032795794
167	0xbc95acb9	-0.018270837
168	0xbca3c467	-0.019991113
169	0xbd2ccab2	-0.042185493
170	0xbadc95a7	-0.0016829268
171	0x3b5bdf44	0.0033549825
172	0xbcf83ac3	-0.030301457
173	0x3cc525d3	0.024065888
174	0x3cecc9d5	0.028904835
175	0xbc31945a	-0.010838592
176	0xbd2a4972	-0.04157395
177	0x3b9fd845	0.0048780763
178	0xbd365f42	-0.04452444
179	0x3cbcfc9e	0.023069676
180	0xbc907201	-0.017632486
181	0xbc0f5728	-0.008748807
182	0x3cfd0719	0.030887173
183	0x3c04551d	0.008076933
184	0x3c9ab32e	0.018884268
185	0xbc9fb5c8	-0.01949586
186	0xbca7cfa3	-0.020484751
187	0x3ceebe20	0.029143393
188	0xbd1730ca	-0.036911763
189	0x3c9bbbca	0.019010443
190	0x3d02098f	0.031747397
191	0x3bd7b681	0.0065830355
192	0x3d1d4f78	0.038405865
193	0x3d1c403c	0.038147196
194	0xbbe6d57a	-0.0070444914
195	0xbd12cc88	-0.035839587
196	0x3a89a8ce	0.0010502578
197	0x3d1ebf08	0.0387564
198	0xbd2c51c1	-0.042070154
199	0x3c3383ba	0.010956699
200	0xbd3201f2	-0.043458886
201	0x3c47ad9b	0.012187387
202	0xbd0afb83	-0.033931267
203	0x3c03cc87	0.008044369
204	0xbcb439b9	-0.02200018
205	0xbc2c56e9	-0.010518768
206	0xbc74e790	-0.014947787
207	0xbce28ca3	-0.027654951
208	0x3c549250	0.012974337
209	0xbd070626	-0.032964848
210	0x3b607b2f	0.003425311
211	0xbcd8e3d4	-0.026475824
212	0xbd0af396	-0.033923708
213	0xbcd11fd8	-0.02552788
214	0xbd084230	-0.033266246
215	0xbbfe464e	-0.007759846
216	0xbd2defd9	-0.042465065
217	0xbc29abbc	-0.010355886
218	0xbbd0aa4f	-0.0063679586
219	0x3ccf57c0	0.025310397
220	0xbcbc424a	-0.022980828
221	0x3b268a1e	0.0025411914
222	0x3c9ff114	0.019524135
223	0xbd2059d7	-0.039148178
224	0xbd1df618	-0.03856477
225	0xbcc2e68b	-0.023791572
226	0xbcffcd8e	-0.031225946
227	0x3d2221ee	0.03958314
228	0xbb77b76e	-0.0037798542
229	0x3cc7dc26	0.024396967
230	0x3ce37201	0.027764322
231	0xbd0e0b27	-0.034678604
232	0xbcb2f928	-0.021847323
233	0xbb2f775d	-0.0026774027
234	0xbc8f2a41	-0.017476203
235	0xbcd6c62c	-0.026217543
236	0xbd2966d6	-0.041357838
237	0xbc8d2ea6	-0.017234158
238	0xbc94493a	-0.018101323
239	0x3d1f6e93	0.03892381
240	0x3ca0900b	0.019599935
241	0x3c69c2fa	0.014267677
242	0xbc25eb9d	-0.010126975
243	0xbb8660b4	-0.0041008834
244	0xbcf55849	-0.029949324
245	0x3cd5022a	0.026002008
246	0xbcce3d25	-0.02517564
247	0x3c8d950a	0.017282981
248	0x3a94a02c	0.0011339239
249	0xbc68688c	-0.014185082
250	0xbb0c8cdf	-0.002144627
251	0xbb8bbe2e	-0.0042646145
252	0x3d12119a	0.035661317
253	0xbc6e3a67	-0.014540291
254	0xbc883bfd	-0.016630167
255	0x3d33238b	0.04373507

conv2.bias f4 [7]
0	0xbcdb7248	-0.026787892
1	0xbcc823b0	-0.02443108
2	0x3cb2bf90	0.02181986
3	0x3c6187bc	0.013765272
4	0xbc6af2da	-0.014340127
5	0xbc9adb49	-0.018903391
6	0x3b192850	0.0023369975

conv3.weight f4 [7, 14, 6, 6]
0	0xbcd5b74f	-0.026088385
1	0xbc098789	-0.0083941305
2	0x3d20967d	0.039206017
3	0xbcee9360	-0.029123008
4	0xbc1cda5f	-0.009573548
5	0xbb595249	-0.0033160618
6	0x3d0d3497	0.03447398
7	0xbb8c058b	-0.0042731217
8	0x3c451130	0.012028024
9	0x3d14157e	0.03615331
10	0xbb3810e1	-0.0028086232
11	0xbc8e269e	-0.017352398
12	0x3ca0b13c	0.019615762
13	0xba76f839	-0.00094211433
14	0x3d051616	0.032491766
15	0xbcd81015	-0.026374856
16	0x3c2c720b	0.010525237
17	0x3c4666f0	0.012109503
18	0x3ca97e16	0.020690005
19	0xbcdaacbb	-0.026693692
20	0x3ce737c8	0.02822484
21	0xbd2dd97c	-0.042443737
22	0xbc164f77	-0.009174219
23	0x3d2e2ab1	0.042521182
24	0x3c7268fe	0.01479554
25	0x3d0699d8	0.03286156
26	0x3c1e98f8	0.009680025
27	0xbc70b2fc	-0.014691111
28	0x3d174be8	0.036937624
29	0x3d2bc4f4	0.041935876
30	0xbca62da6	-0.020285439
31	0xbb97cb22	-0.0046323696
32	0xbceca57f	-0.028887508
33	0xbc5baccd	-0.013407898
34	0x3d1ec760	0.038764358
35	0x3ce532c8	0.027978316
36	0x3bffd344	0.0078071672
37	0xbcfd43c4	-0.030916102
38	0x3c5bb240	0.013409197
39	0xbd1b0210	-0.037843764
40	0x3ca01e2b	0.019545635
41	0xbccc5ef4	-0.02494762
42	0x3bc8166e	0.0061061895
43	0xbcbc3fa8	-0.022979572
44	0xbc1d305b	-0.009594048
45	0x3c8823cc	0.016618632
46	0xbd2f6246	-0.04281833
47	0x3cd0bf0b	0.025481721
48	0x3cc7b7e6	0.024379682
49	0x3cdfe521	0.027330937
50	0x3d2b719b	0.04185639
51	0xbc491ef2	-0.012275444
52	0xbd30d8ed	-0.043175627
53	0xbcbaebbf	-0.02281749
54	0x3c90a1bb	0.017655244
55	0xbcb24d2b	-0.021765312
56	0x3d24b697	0.040213194
57	0x3d085db4	0.033292487
58	0x3d19dfa8	0.03756681
59	0xbbf130cb	-0.007360553
60	0xbcd0f28d	-0.025506282
61	0x3c9aebdf	0.0189113
62	0x3c05d8e2	0.008169385
63	0xbd04b83a	-0.032402255
64	0x3c261872	0.010137664
65	0x3bd0ed4a	0.0063759433
66	0x3b3a8864	0.0028462643
67	0xbd20dcb8	-0.039272994
68	0x3d2e8e2f	0.042616066
69	0xbc252ca7	-0.010081447
70	0xbcb40016	-0.021972697
71	0xbd35aa66	-0.044351958
72	0x3ceadde3	0.028670257
73	0x3c651198	0.013981245
74	0x3d1bb882	0.038017757
75	0xbd05d521	-0.03267396
76	0xbcf5d606	-0.03000928
77	0xba9e129b	-0.0012059988
78	0x3ce079c6	0.027401816
79	0xbcae1808	-0.021251693
80	0x3d116ebc	0.035505995
81	0xbd237868	-0.03990975
82	0x3bda4702	0.006661297
83	0x3d0f3011	0.03495795
84	0xbd17bec9	-0.03704718
85	0x3cd77fe8	0.026306108
86	0xbcae2be5	-0.021261165
87	0xbd1b9beb	-0.03799049
88	0x3c428069	0.011871436
89	0xb8a9f346	-8.103861e-05
90	0x3cb56e6d	0.022147382
91	0x3d1a1360	0.037616134
92	0x3c76321c	0.015026595
93	0x3cb71ba4	0.022352047
94	0x3cd1219a	0.025528718
95	0xbcb1e8fe	-0.021717545
96	0x3c73916b	0.014866213
97	0x3c821443	0.015878802
98	0xbb118ca0	-0.0022209063
99	0x3cf53a49	0.02993502
100	0xbc1e7fd0	-0.009674028
101	0x3c9e1da1	0.019301238
102	0x3c7ea8b6	0.0155431535
103	0xbcaddd6e	-0.02122375
104	0xbd21b4f9	-0.03947923
105	0xbd2ee89a	-0.042702295
106	0xbc93b38a	-0.018029947
107	0x3cd84e14	0.026404418
108	0xbd1ed4fd	-0.03877734
109	0xbcceb57a	-0.02523302
110	0x3d1c277e	0.0381236
111	0x3c78885c	0.015169229
112	0xbd0cbb40	-0.034358263
113	0x3b80ca0f	0.0039303373
114	0x3d0b39b2	0.03399057
115	0x3cbca379	0.023027169
116	0xbc257022	-0.010097535
117	0xbcfd5fe9	-0.030929523
118	0x3ca908d0	0.020634085
119	0x3c41bb8f	0.011824503
120	0x3cbf2542	0.023333196
121	0x3c3e6e7b	0.01162302
122	0x3cdbb0d2	0.026817713
123	0xbb449878	-0.0029998105
124	0xbd0461a7	-0.03231969
125	0x3ce80567	0.028322889
126	0xbb933d15	-0.0044933655
127	0xbd0a3ca1	-0.033749226
128	0x3cf2ed53	0.02965418
129	0xbd14b3f5	-0.036304433
130	0x3cee9c87	0.029127372
131	0xbd204552	-0.03912861
132	0xbcbccf4b	-0.023048064
133	0x3d12b1e5	0.035814185
134	0x3c166a51	0.009180621
135	0xbcecb703	-0.02889586
136	0x3c7df01d	0.015499142
137	0x3c74749c	0.01492038
138	0x3c1c4679	0.009538286
139	0xbd0d14d7	-0.034443703
140	0xbcd768a4	-0.026295014
141	0x3d0c278f	0.034217414
142	0xbd0f4310	-0.034976065
143	0xbd302538	-0.043004245
144	0xbcc60e2b	-0.024176678
145	0xbcaa38ee	-0.0207791
146	0xbd0f5ac4	-0.03499867
147	0xbc49be0b	-0.012313376
148	0xbccd23d1	-0.025041493
149	0x3c6a7d12	0.014312046
150	0xbcfb0aea	-0.030644853
151	0x3c837d72	0.016051028
152	0x3ce25949	0.027630465
153	0xbcfdfcac	-0.031004272
154	0x3c16caa4	0.009203587
155	0x3c88c330	0.016694635
156	0x3cfd0224	0.03088481
157	0xbd16cf02	-0.03681851
158	0x3b58846d	0.0033037916
159	0xbce8828a	-0.028382558
160	0xbc611521	-0.013737948
161	0xbc8f4afc	-0.01749181
162	0x3d0c35bd	0.034230936
163	0x3cdacedb	0.026709964
164	0xbd34ca4b	-0.044138234
165	0x3cd75a02	0.026288036
166	0xbcb5cdd4	-0.022192873
167	0x3c5d3b56	0.013502916
168	0x3cd6efaf	0.026237337
169	0x3d32712c	0.04356496
170	0xbbafb650	-0.0053623095
171	0x3a03b6a0	0.00050244667
172	0xbba69537	-0.0050837058
173	0x3c564fa3	0.01308051
174	0x3d02e809	0.031959567
175	0xbb829ea7	-0.003986198
176	0xbc113b2e	-0.008864207
177	0x3c174639	0.009233051
178	0xbd10e6ca	-0.035376348
179	0x3cc42637	0.023944004
180	0x3bf36691	0.0074279984
181	0xbd00add1	-0.031415764
182	0xbbd88031	-0.0066070785
183	0x3d2ef88a	0.042717494
184	0xbd0dcb49	-0.034617696
185	0xbc198e08	-0.009372242
186	0x3d09dbc0	0.033656836
187	0xbae7105c	-0.0017628777
188	0xbcdf3c8c	-0.02725055
189	0xbc9f8f30	-0.019477457
190	0xbc838c32	-0.016058061
191	0x3c1dadfa	0.009623999
192	0xbce8ef90	-0.028434545
193	0xbca65f86	-0.020309221
194	0xbca8e53c	-0.02061712
195	0x3d1fb820	0.038993955
196	0xbc8eded8	-0.017440245
197	0x3c800c1d	0.015630776
198	0x3c4b9f55	0.012428124
199	0xbcc03851	-0.023464354
200	0x3cbaba3e	0.022793885
201	0xbcc2050d	-0.023684049
202	0xbb65f4ea	-0.0035088607
203	0x3c47e95f	0.012201636
204	0x3d067315	0.032824595
205	0x3ca955c3	0.020670777
206	0xbcafcc4b	-0.02145972
207	0xbd090f81	-0.03346205
208	0xbcd7fd61	-0.026365938
209	0x3c3dc9d1	0.011583761
210	0x3ce13d06	0.027494919
211	0xbc48ce95	-0.012256284
212	0x3cfae17c	0.030625097
213	0xbc2d613b	-0.010582264
214	0x3c98861e	0.01861864
215	0x3d1893c8	0.03725031
216	0xbd0faefe	-0.035078995
217	0x3d2aeca5	0.041729588
218	0x3d211443	0.039325964
219	0x3c9fcfb4	0.01950822
220	0xbce105ed	-0.027468646
221	0x3c89d83a	0.016826738
222	0x3d074606	0.033025764
223	0xbcc967af	-0.024585573
224	0xbc84abd7	-0.01619522
225	0x3c98da30	0.018658727
226	0x3c78094f	0.015138938
227	0xbc95fd00	-0.018309116
228	0xbc6ce6af	-0.014459296
229	0xbd02a770	-0.031897962
230	0xbc3f4653	-0.011674481
231	0xbbb1847a	-0.0054174038
232	0xbc580e28	-0.013186969
233	0xbb87a3d8	-0.0041394047
234	0x3d240a91	0.04004914
235	0x3c39b310	0.011334196
236	0xbbea1f3a	-0.007144836
237	0xbc5f60f6	-0.013633957
238	0x3c54ee93	0.012996334
239	0xba843594	-0.0010086768
240	0xbd080aa4	-0.033213273
241	0xbca9f153	-0.020744955
242	0x3c9e1eb1	0.019301744
243	0x3cabbf52	0.020965252
244	0x3ccd9ddb	0.025099685
245	0x3d1e5096	0.03865107
246	0xbb1d5b3c	-0.0024010679
247	0xbd0c6a5f	-0.03428113
248	0x3d2e10cd	0.04249649
249	0xbbcdd21a	-0.0062811496
250	0xbd2c2425	-0.042026658
251	0xbbb8ac61	-0.0056357835
252	0xbcc3dba4	-0.023908444
253	0x3d02a34c	0.031894013
254	0x3bab3cd6	0.005225758
255	0xbd1687b0	-0.036750495

conv3.bias f4 [7]
0	0xbd236ff4	-0.03990169
1	0x3bc182e0	0.005905494
2	0xbc201a28	-0.009771861
3	0x3d0ac12c	0.03387563
4	0xbd14f035	-0.03636189
5	0xbc8ebcb1	-0.01742396
6	0xbc431950	-0.01190789

conv4.weight f4 [3, 14, 6, 6]
0	0xbc91c444	-0.017793782
1	0xbc965c10	-0.018354446
2	0x3d16896b	0.036752146
3	0x3b76cef8	0.0037659984
4	0x3b801231	0.0039084186
5	0xbd1f8aa8	-0.038950592
6	0x3cb42168	0.021988586
7	0x3d2a25ce	0.04153996
8	0x3ce1b6eb	0.027553042
9	0x3d331fc6	0.043731473
10	0x3c0e0f9c	0.008670714
11	0x3d03495a	0.032052375
12	0x3c47edcb	0.01220269
13	0xbc5707d2	-0.013124423
14	0x3c36a034	0.011146594
15	0xbd29b7f5	-0.0414352
16	0x3d2f14f4	0.04274459
17	0xbcd9d531	-0.026590915
18	0x3bca566a	0.006174852
19	0x3bdda0d9	0.0067635593
20	0xbbd02a0f	-0.00635267
21	0xbc1df7d4	-0.009641606
22	0xbc8aa27e	-0.016923185
23	0x3cf4d511	0.029886754
24	0x3d1ec5de	0.03876292
25	0xbcb9e200	-0.022690773
26	0xbd2488a5	-0.040169377
27	0xbd119b69	-0.0355486
28	0xbc511066	-0.012760257
29	0x3d1fa08d	0.038971473
30	0xbd221931	-0.039574806
31	0x3d278fed	0.040908743
32	0x3c0ed953	0.008718806
33	0x3d338c00	0.043834686
34	0x3c9146e4	0.017733999
35	0xbd254e30	-0.04035777
36	0xbc8b05a4	-0.016970463
37	0xbc988a6b	-0.01862069
38	0xbc99093d	-0.018681163
39	0x3d307620	0.043081403
40	0x3c606a01	0.013697148
41	0xbd28d3a1	-0.04121745
42	0xbcbd7368	-0.023126319
43	0xbccd7540	-0.025080323
44	0xbd1ed687	-0.038778808
45	0xbd160158	-0.036622375
46	0x3d2a7f12	0.04162509
47	0x3d13943d	0.036030043
48	0x3d33cda0	0.04389727
49	0x3d01d7fc	0.03170012
50	0xbd144389	-0.03619722
51	0x3d1891a4	0.03724827
52	0x3c926ecf	0.017875103
53	0xbd2605ba	-0.040532805
54	0x3d172f15	0.036910135
55	0x3c9a07ee	0.01880261
56	0xbcdc089b	-0.026859572
57	0xbc1bfe61	-0.009521098
58	0xbcd3df49	-0.025863307
59	0xbc346cc6	-0.011012262
60	0x3d26be4d	0.04070883
61	0xbcd83cdf	-0.026396213
62	0xbd304014	-0.04302986
63	0xbbd23c72	-0.006415897
64	0xbc9bd245	-0.019021163
65	0xbb14a41e	-0.002268083
66	0xbc261dbf	-0.010138928
67	0x3ca67724	0.020320483
68	0x3d1ffa09	0.03905681
69	0x3ce91470	0.028452128
70	0xbd2120d7	-0.03933796
71	0xbaa51bb2	-0.0012596755
72	0x3d0ddb72	0.034633107
73	0x3bbc3e1d	0.005744709
74	0xbcf7599e	-0.0301941
75	0xbc8c289a	-0.017109204
76	0x3b9a11f5	0.0047018477
77	0xbcacd38a	-0.021096963
78	0x3c214a68	0.0098444
79	0x3d19e227	0.03756919
80	0x3bb3d1fa	0.0054876776
81	0xbcff37d9	-0.03115456
82	0x3cdc53ff	0.026895521
83	0x3cfcca65	0.030858228
84	0xbd1ef907	-0.03881171
85	0xbd261349	-0.040545736
86	0xbd1a7733	-0.037711333
87	0xbc26409a	-0.010147238
88	0xbbd3a7c2	-0.0064592073
89	0x3ceaec00	0.028676987
90	0x3d044779	0.032294724
91	0x3d2a866a	0.041632093
92	0x3c277414	0.010220546
93	0xbca98ee5	-0.02069802
94	0xbd00e0dc	-0.031464443
95	0x3cbcdc93	0.023054397
96	0x3cd6bbbb	0.026212564
97	0xbbabc300	-0.0052417517
98	0xbd2d1e7d	-0.042265404
99	0x3ac0a5d2	0.0014697856
100	0x3c9b9d69	0.018995957
101	0xbc8ccfe3	-0.017188972
102	0xbceaf3ef	-0.02868077
103	0x3c828180	0.015930891
104	0x3cceaa88	0.0252278
105	0x3cfd9cea	0.030958612
106	0xbb5eeec8	-0.0034016836
107	0xbc845934	-0.016155817
108	0x3d0649b6	0.03278514
109	0x3d0c32ee	0.034228258
110	0xbb628943	-0.0034566678
111	0xba6bbaf8	-0.0008992399
112	0x3ab7546a	0.0013986949
113	0xbd248ecc	-0.040175244
114	0x3d1215f7	0.03566548
115	0xbcfabaa1	-0.03060657
116	0x3cbd29f2	0.02309129
117	0xbd026747	-0.031836774
118	0x3cac143e	0.021005746
119	0x3c144b63	0.009051177
120	0x3d1db93f	0.038506743
121	0xbcf614bf	-0.03003919
122	0xbd02aaba	-0.0319011
123	0xbd1a9557	-0.037740078
124	0x3d2adbdc	0.04171358
125	0xbd34bfd0	-0.04412824
126	0xbcdb2dc4	-0.026755221
127	0xbc6079ee	-0.013700945
128	0xbcca3e58	-0.024687931
129	0x3befa180	0.0073129535
130	0xbc3fce9b	-0.011706973
131	0xbcacc634	-0.021090604
132	0xbcc99ac2	-0.024609927
133	0xbcdd6344	-0.027024873
134	0xbc974420	-0.018465102
135	0x3c3ae810	0.011407867
136	0xbb892fdf	-0.004186615
137	0xbc42828b	-0.011871944
138	0x3d16047d	0.036625374
139	0x3c9021a0	0.017594159
140	0x3d0b1af6	0.03396126
141	0x3c8e0e39	0.017340766
142	0x3c942f8a	0.018089075
143	0xbc097e0c	-0.008391868
144	0x3c3b9aef	0.011450513
145	0x3d22eca5	0.039776463
146	0xb8c7d3a0	-9.528478e-05
147	0xbc5d4f50	-0.013507679
148	0x3c5a94db	0.013341154
149	0xbb4763f6	-0.0030424572
150	0xbc7f548b	-0.015584121
151	0x3ca61fb2	0.020278785
152	0xbd0cf44d	-0.03441267
153	0x3c0e3ed0	0.008681968
154	0x3ce3b4ed	0.027796233
155	0xbcadbce4	-0.021208234
156	0xbbbe9263	-0.0058157905
157	0xbca5e294	-0.020249642
158	0x3d085026	0.03327956
159	0x3d1bc40c	0.03802876
160	0x3d1fca60	0.03901136
161	0x3cef4781	0.0292089
162	0xb9b547de	-0.00034576555
163	0x3c204142	0.009781184
164	0x3bfb2fef	0.0076656262
165	0xbd0a36a3	-0.033743512
166	0xbbb384ec	-0.005478492
167	0x3cb08ea2	0.021552388
168	0xbcc10804	-0.023563392
169	0xbce3a87e	-0.027790304
170	0xbd1150bb	-0.03547738
171	0x3c7a3528	0.0152714625
172	0xbbc3d4fe	-0.0059763184
173	0xbd2d251f	-0.04227173
174	0xbd071208	-0.03297618
175	0xbd20ff95	-0.039306242
176	0x3d11c7ea	0.035591044
177	0xbceaf76f	-0.028682439
178	0x3cb93b74	0.022611357
179	0xbd13f972	-0.03612656
180	0xbc871d92	-0.016493592
181	0x3c042181	0.008064629
182	0xbce1d26c	-0.027566157
183	0xbc91b332	-0.017785642
184	0x3c1178de	0.008878915
185	0x3cc88112	0.024475608
186	0x3d268c30	0.040661037
187	0x3cc177dc	0.023616724
188	0xbcadbf07	-0.021209253
189	0x3d3092f5	0.0431089
190	0xbc51d868	-0.012807943
191	0x3bebb135	0.0071927556
192	0xbc4dc85e	-0.012559978
193	0x3bb7260b	0.005589252
194	0xbc74312e	-0.0149043035
195	0xbc13dafd	-0.009024379
196	0x3bcbe3e4	0.006222235
197	0x3cae4ad2	0.021275911
198	0xbbff3265	-0.00778799
199	0x3d322946	0.043496393
200	0xbb9fc8bd	-0.004876225
201	0xbc4cce16	-0.012500307
202	0xbd1d14d3	-0.038349938
203	0xbd1b8d0d	-0.037976313
204	0x3d0e2346	0.034701608
205	0xbccab5d5	-0.024744907
206	0x3c2832da	0.01026603
207	0x3bfc11df	0.00769256
208	0x3d102236	0.035188876
209	0x3d299372	0.04140038
210	0x3d048f0a	0.032362975
211	0x3cfe3a63	0.0310337
212	0xbd00f5e4	-0.0314845
213	0x3d21bc8d	0.039486457
214	0x3ce1ccab	0.027563414
215	0xbbb56fe5	-0.0055370205
216	0x3c9fe163	0.019516652
217	0x3ce3bad5	0.02779905
218	0xbd053e22	-0.032529958
219	0x3cc522d3	0.024064457
220	0xbcb68261	-0.022278966
221	0xbb505ade	-0.0031792442
222	0x3beac943	0.0071651055
223	0x3bac43e7	0.005257118
224	0x3b2d934c	0.00264855
225	0xbba7c6ea	-0.005120148
226	0xbcd23193	-0.025658404
227	0x3c83e84b	0.016101977
228	0xbd137ea6	-0.036009453
229	0x3d0a0a61	0.033701304
230	0xbd31a57d	-0.043370713
231	0xbbd1fa8a	-0.0064080404
232	0xbd1880ca	-0.037232198
233	0xbd166637	-0.036718573
234	0xbc0cdbcb	-0.008597325
235	0xbcf99d38	-0.030470476
236	0x3ce0b39d	0.027429396
237	0xbc613eda	-0.013747895
238	0xbc8bb6fa	-0.017055023
239	0x3cc9b169	0.024620729
240	0x3d2af51c	0.04173766
241	0x3cedc314	0.029023685
242	0xbd03d71d	-0.03218757
243	0xbc94ef79	-0.018180596
244	0x3d06414d	0.03277712
245	0x3c193807	0.009351737
246	0xbce7d9d4	-0.02830211
247	0xbd234a6a	-0.03986589
248	0xbcc3a976	-0.023884516
249	0xbbafcd2f	-0.005365036
250	0xbc7235dc	-0.014783349
251	0xbc1b4abd	-0.009478268
252	0x3d35ccef	0.044384893
253	0x3ce4f1e7	0.02794738
254	0x3cd182fd	0.025575155
255	0x3d11efbc	0.03562902

conv4.bias f4 [3]
0	0x3ac93ce0	0.0015353225
1	0x3d1f4e6e	0.038893156
2	0xbc8c0da7	-0.017096354

conv5.weight f4 [1, 3, 6, 6]
0	0xb9006562	-0.000122448
1	0x3c91226a	0.017716605
2	0x3d3a23fa	0.045444466
3	0xbda29c64	-0.079399854
4	0xbdab13a0	-0.083533525
5	0xbcc0629f	-0.023484526
6	0xbd2d3604	-0.04228784
7	0xbd653c2d	-0.05596559
8	0x3d589179	0.05287311
9	0xba88e069	-0.0010442856
10	0x3d46fcce	0.048580937
11	0xbb2dcb11	-0.0026518742
12	0x3dbde06a	0.09271319
13	0xbd0c15bc	-0.034200415
14	0xbc646f95	-0.013942619
15	0x3d9af6e2	0.075666204
16	0x3d4b17ed	0.049583364
17	0xbd162f98	-0.036666483
18	0x3da9b1a4	0.082858354
19	0x3d127b7d	0.0357623
20	0xbd677202	-0.05650521
21	0x3d62d2cd	0.055376817
22	0x3d4bc144	0.04974486
23	0x3d8b6984	0.06807235
24	0x3d3179af	0.043328937
25	0xbcd0e2ad	-0.025498712
26	0xbd5f932c	-0.054583713
27	0xbbab9693	-0.0052364557
28	0x3ce6925a	0.028145958
29	0x3ca77bc9	0.020444768
30	0xbd8a8ffa	-0.067657426
31	0x3d0ba615	0.034093935
32	0xbd3e428d	-0.046450187
33	0x3d54ed17	0.05198392
34	0x3caa394d	0.020779276
35	0xbd3ef129	-0.046616707
36	0x3dacad60	0.08431506
37	0xbc81216b	-0.015763005
38	0xbd48fd59	-0.049069736
39	0x3d9c43a8	0.07630092
40	0x3d82692d	0.06367717
41	0xbd963b0b	-0.0733548
42	0xbd9a0cfc	-0.07522008
43	0x3da192dd	0.0788934
44	0xbd2a53da	-0.041583873
45	0x3da269d2	0.0793034
46	0x3da80d82	0.082057014
47	0x3db0f1be	0.08639859
48	0xbd953372	-0.07285203
49	0x3d99f485	0.075173415
50	0x3d82bf2d	0.0638412
51	0x3ce91f1a	0.028457213
52	0xbd36da3b	-0.044641715
53	0x3d2f08df	0.04273307
54	0xbdace2c8	-0.084416926
55	0xbd27edb5	-0.04099818
56	0x3d842a3c	0.06453368
57	0x3d454eca	0.048170842
58	0xbd625796	-0.05525931
59	0xbc96a3ff	-0.018388746
60	0xbc991703	-0.01868773
61	0xbdbc3f64	-0.09191778
62	0xbc0c1153	-0.008549052
63	0xbcb3c0a3	-0.021942442
64	0xbda6ec78	-0.081505716
65	0x3da53c92	0.080681935
66	0xbd705a74	-0.058680013
67	0x3d1bcdc1	0.03803802
68	0xbd35dd71	-0.044400636
69	0xbd70116b	-0.05861036
70	0xbda84ea8	-0.082181275
71	0xbd0babdd	-0.03409945
72	0x3cc97e93	0.024596488
73	0x3c7e60b1	0.015525983
74	0xbcee5962	-0.029095355
75	0x3d15a0f1	0.03653044
76	0xbc63fb3f	-0.013914882
77	0xbd76dd9b	-0.060269933
78	0xbd93e792	-0.07221903
79	0x3d261c3b	0.040554266
80	0x3ce71bd7	0.028211517
81	0x3ca2c8d1	0.019871147
82	0x3d21378a	0.039359607
83	0xbd8bd1da	-0.068271354
84	0x3d353a6c	0.04424517
85	0x3d8a721d	0.06760047
86	0x3db9ffbd	0.09081981
87	0xbd90b3f2	-0.07065572
88	0x3cd9904c	0.026558064
89	0x3d0fcc46	0.03510692
90	0x3cea6c58	0.028616115
91	0x3d9316b9	0.071820684
92	0x3db0d126	0.08633642
93	0x3da125a1	0.07868505
94	0x3d643829	0.05571762
95	0xbd1bfbe6	-0.038082026
96	0x3cec91e3	0.028878158
97	0x3d179dad	0.037015606
98	0x3d8bbfca	0.0682369
99	0xbd7dc1f6	-0.061952554
100	0x3cc63323	0.024194306
101	0xbd9dda82	-0.07707693
102	0xbd9e5372	-0.0773076
103	0x3d136b60	0.035991073
104	0xbd492445	-0.049106855
105	0x3dafccc0	0.08583975
106	0x3dacf3ec	0.08444962
107	0xbd8f6526	-0.070017144

conv6.weight f4 [1, 3, 6, 6]
0	0xbd801712	-0.062544
1	0xbd11ec3a	-0.035625674
2	0x3db9f888	0.09080607
3	0xbdb02c62	-0.08602215
4	0x3d68bdd0	0.056821644
5	0xbd51797c	-0.051141247
6	0xba81ff30	-0.0009917971
7	0xbdaf70cf	-0.085664384
8	0x3b32c5f4	0.0027278634
9	0x3d291e39	0.04128859
10	0x3d9947aa	0.07484372
11	0x3c510b98	0.012759112
12	0xbdb97ae1	-0.090566404
13	0xbdaa5f47	-0.08318954
14	0xbc35e973	-0.011103022
15	0x3c1dda36	0.009634545
16	0xbcc43913	-0.023952996
17	0x3d072418	0.032993406
18	0x3d46beea	0.048521914
19	0xb9f093d0	-0.00045886496
20	0x3d333070	0.043747365
21	0xbd3cb222	-0.04606832
22	0x3c1fcdc5	0.009753649
23	0x3d1ed65a	0.03877864
24	0xbd081868	-0.0332264
25	0xbd150ec0	-0.03639102
26	0xbda23dc2	-0.079219356
27	0xbd8dcf72	-0.06924333
28	0x3cb28b64	0.021794982
29	0x3d0f69c5	0.03501298
30	0xbd3784d8	-0.044804424
31	0x3db6289a	0.08894463
32	0x3d742ac7	0.05961111
33	0x3c694196	0.014236828
34	0xbdb033a4	-0.086036
35	0xbd19c0e0	-0.037537456
36	0xbd5ca512	-0.05386836
37	0xbd4f53d8	-0.05061707
38	0x3d907b62	0.070547834
39	0x3d061c3f	0.03274178
40	0xbd1fd447	-0.039020803
41	0xbdb4195c	-0.087938994
42	0x3d9699be	0.07353543
43	0xbd62386b	-0.055229586
44	0x3d756dd4	0.059919193
45	0x3d9a0d64	0.07522085
46	0xbd4b4374	-0.049624875
47	0x3dbcc633	0.09217491
48	0xbd71147e	-0.058857433
49	0x3d9a5712	0.075361386
50	0xbdbd71b5	-0.092502035
51	0x3d075466	0.033039473
52	0x3ad12b18	0.0015958278
53	0xbd9b8b17	-0.07594889
54	0xbd22bb4e	-0.03972941
55	0xbdbcd29a	-0.092198566
56	0xbd12b3f8	-0.035816163
57	0xbc5c656e	-0.013451917
58	0x3d7d8fe2	0.061904795
59	0xbdc2b4cd	-0.09507141
60	0x3d373f66	0.044738196
61	0xbc5ec212	-0.013596075
62	0x3dab2596	0.08356778
63	0x3d5bb040	0.053634882
64	0x3daaf814	0.083480984
65	0xbd42ea62	-0.047586806
66	0xbd9a1cd7	-0.07525032
67	0x3d81b343	0.063330196
68	0x3d87354d	0.06601963
69	0xbd6b0fd9	-0.05738816
70	0x3c2bbe18	0.010482334
71	0xbdb8abb9	-0.090171285
72	0xbd4eac86	-0.0504575
73	0x3c1190ea	0.008884648
74	0xbd4f11b8	-0.050554007
75	0x3d80bc49	0.062859125
76	0x3dc34d8d	0.09536276
77	0x3db16910	0.08662617
78	0xbd5e1343	-0.05421759
79	0xbdb6a019	-0.08917255
80	0xbca29bb6	-0.01984964
81	0xbd9453a1	-0.072425134
82	0x3d4ca71c	0.049964055
83	0x3d537398	0.05162391
84	0xbcadcc1b	-0.02121549
85	0x3c02ac00	0.007975578
86	0xbcdf935c	-0.027291946
87	0xbd72535d	-0.059161533
88	0x3da192c5	0.07889322
89	0xbd1b5653	-0.037924122
90	0xbba0d156	-0.0049077673
91	0xbcdd15d8	-0.026987955
92	0x3d996075	0.07489101
93	0xbdc2d433	-0.0951313
94	0x3d37fa30	0.04491633
95	0x3d90477b	0.07044884
96	0x3d51c7f4	0.05121608
97	0x3d3c88b4	0.046028808
98	0xbce37cf1	-0.027769538
99	0x3d855864	0.06511
100	0xbd5b0d3f	-0.05347943
101	0x3c853e71	0.016265126
102	0xbdab1b62	-0.08354832
103	0xbcc575a1	-0.024103941
104	0xbdb3b61a	-0.087749675
105	0x3d88da62	0.06682278
106	0xbccb39e9	-0.024807887
107	0x3c115880	0.008871198

conv7.weight f4 [1, 2, 6, 6]
0	0xbc910cca	-0.017706294
1	0x3c9238f4	0.017849423
2	0xbd2e722e	-0.04258936
3	0xbcd00a41	-0.025395514
4	0x3d3221f5	0.043489415
5	0xbd7c36bd	-0.06157564
6	0x3d76ed59	0.060284946
7	0x3cf04b12	0.029332671
8	0x3d837ff7	0.06420892
9	0x3da42d58	0.08016461
10	0x3dd1b1f3	0.10239019
11	0xbd1f4c87	-0.03889134
12	0xbcc8fd74	-0.024534918
13	0x3c5cab7a	0.013468618
14	0x3d8a6d1e	0.06759094
15	0x3d62a437	0.05533239
16	0xbd326ec2	-0.043562658
17	0xbdcd4bc9	-0.100242205
18	0xbd311039	-0.04322836
19	0x3dd7b3e9	0.10532362
20	0xbde52624	-0.11188915
21	0xbcc4883a	-0.02399074
22	0x3bb07d2d	0.005386016
23	0xbd05b6d5	-0.032645065
24	0x3d897ddc	0.06713459
25	0xba914dd2	-0.0011085814
26	0x3dc5894a	0.096453264
27	0xbd56de66	-0.05245819
28	0x3dcde8d2	0.100541726
29	0xbcd91442	-0.026498917
30	0x3c9ecd87	0.019385112
31	0x3d867849	0.06565911
32	0x3ca3416c	0.019928657
33	0x3ddb27ea	0.107009724
34	0xbd2475af	-0.040151294
35	0x3d32180e	0.04347997
36	0x3d4e936d	0.050433565
37	0x3d5e0da4	0.054212227
38	0x3de8dbfa	0.11370082
39	0x3d308534	0.043095782
40	0xbd899528	-0.067179024
41	0xba2d6ec3	-0.0006615931
42	0xbde5125c	-0.111851424
43	0xbdaed6c4	-0.08537057
44	0xbd6b0a1f	-0.0573827
45	0x3d1be0f2	0.03805632
46	0x3d47545e	0.048664443
47	0x3d2ff349	0.042956624
48	0xbd9e8dda	-0.077419
49	0x3dbe2cfc	0.09285924
50	0x3d5e9307	0.054339435
51	0x3b4aa82a	0.0030922987
52	0x3d10e5cc	0.0353754
53	0xbb6443cb	-0.0034830447
54	0xbdb36fd8	-0.08761567
55	0xbd86e71d	-0.0658705
56	0x3d0d4985	0.03449394
57	0xbdecf430	-0.115700126
58	0xbda393bf	-0.07987165
59	0x3dbd63c9	0.09247548
60	0x3ddbdfe9	0.10736067
61	0xbde9272a	-0.11384423
62	0xbdc35496	-0.09537618
63	0xbc52bf50	-0.012862995
64	0x3d58fbb7	0.05297443
65	0xbca7c846	-0.02048124
66	0x3d6501d4	0.055909947
67	0xbde262e7	-0.110540204
68	0x3d4dc7a6	0.050239228
69	0xbc84d616	-0.016215365
70	0x3de2955d	0.11063645
71	0xbd9ad8b0	-0.07560861
