siamese-models/siam_v2_8.pth (torch, 102171 bytes, 11 tensors)

conv1.weight f4 [14, 31, 6, 6]
0	0xbcd8db46	-0.026471745
1	0x3ca99b06	0.020703804
2	0x3c933e63	0.017974084
3	0xbb844486	-0.004036489
4	0xbbbbf0c4	-0.0057354886
5	0x3cd22104	0.025650509
6	0x3cae0a23	0.021245068
7	0x3b502309	0.0031759164
8	0xbc86940a	-0.016428012
9	0x3a9b4960	0.0011847429
10	0x3cb80864	0.022464938
11	0xbc8f4c34	-0.017492391
12	0x3cc84368	0.024446204
13	0xbcceb4e7	-0.025232745
14	0xbc63c3b8	-0.013901643
15	0x3cd2ec7d	0.025747532
16	0xbc5bb8ef	-0.013410791
17	0x3ba376ce	0.004988528
18	0xba39cd58	-0.00070877885
19	0x3bbbe31c	0.0057338607
20	0xbcd9db39	-0.026593791
21	0x3ccb362d	0.024806106
22	0x3ce8c3e1	0.028413715
23	0x3b23fd69	0.002502287
24	0x3ca16698	0.01970224
25	0xbc835c70	-0.016035289
26	0x3c851c0b	0.016248723
27	0xbc1d90e3	-0.009617063
28	0x3bc9770b	0.006148224
29	0x3c1c8ad0	0.00955458
30	0x3b08264d	0.0020774782
31	0xbbaf85db	-0.005356533
32	0xbcb86cf5	-0.022512892
33	0x3ca54ec1	0.020179154
34	0x3cd8c2f4	0.026460148
35	0xbcc316ec	-0.023814641
36	0xbc2502fa	-0.01007151
37	0x3ca8d5f2	0.02060983
38	0xba689a7e	-0.0008873119
39	0x3c3787c6	0.0112018045
40	0xbc0cfc56	-0.008605083
41	0x3ce991e3	0.028511947
42	0x3c1aee87	0.009456283
43	0xbcd5185e	-0.026012596
44	0x3ca5d119	0.020241307
45	0xbcbcff47	-0.023070944
46	0x3c99a040	0.018753171
47	0x3c2892a3	0.010288867
48	0x3cbb639a	0.022874642
49	0x3ccbc499	0.024874019
50	0xbc2ef3ad	-0.010678214
51	0x3bdedb8e	0.0068010753
52	0xbc01278e	-0.007882966
53	0xbce9f8b4	-0.028560974
54	0x3bcd050e	0.006256706
55	0xbcda7e3f	-0.026671527
56	0xbc460e57	-0.01208838
57	0x3cdad7af	0.026714174
58	0x3cd1043a	0.02551471
59	0x3c000bab	0.007815282
60	0xbc36e81d	-0.011163739
61	0xbc664d3b	-0.014056499
62	0x3cf1aa18	0.029500052
63	0x3cb8f20e	0.022576358
64	0x3c9f0e9d	0.019416148
65	0xbb7fd20b	-0.0039035107
66	0xbccbd9d8	-0.02488415
67	0xbb07e19f	-0.0020733846
68	0xbca038d7	-0.019558353
69	0x3ca22de7	0.019797279
70	0x3cea732b	0.02861937
71	0xbccf4706	-0.025302421
72	0x3cee4a37	0.029088123
73	0xbceac0da	-0.028656412
74	0x3b627839	0.0034556522
75	0x3cf37ab7	0.029721601
76	0xbcccc16b	-0.024994573
77	0xbc9ea3a1	-0.019365134
78	0xbc281b9d	-0.01026049
79	0x3c995b97	0.018720431
80	0xbba2b98d	-0.004965967
81	0xbba88437	-0.0051427144
82	0x3c9b3a46	0.018948685
83	0xbabc2a72	-0.0014355911
84	0x3ce20390	0.02758959
85	0xbb543ccb	-0.0032384868
86	0xbb0106a7	-0.0019687803
87	0xbc5ed239	-0.013599926
88	0x3bfc70ca	0.007703875
89	0xbc29d1ab	-0.01036493
90	0xbc46c480	-0.01213181
91	0x3b862bfa	0.004094598
92	0x3cbc544a	0.02298941
93	0xbce32494	-0.027727403
94	0xbc4815f8	-0.012212269
95	0xbcb3ebd0	-0.02196303
96	0xbc71fded	-0.014770013
97	0x3c27707f	0.010219692
98	0x3c19b155	0.009380658
99	0x3ccf53d7	0.025308533
100	0xbcc3686d	-0.023853505
101	0xbcd51c87	-0.02601458
102	0x3cc962ad	0.024583185
103	0xbcd86263	-0.026414102
104	0x3c50098e	0.0126975905
105	0x3c50c9ab	0.012743394
106	0xbccdeadd	-0.025136406
107	0xbc846541	-0.016161563
108	0x3cef2914	0.029194392
109	0xbaad36dc	-0.0013215202
110	0x3caed6db	0.021342685
111	0xbacc0a09	-0.0015566956
112	0xbc9ec383	-0.019380337
113	0xbcd1778f	-0.025569705
114	0xbb46cb91	-0.0030333737
115	0xbcb47b0e	-0.022031333
116	0x3c53c2b6	0.012924841
117	0xbb5913ad	-0.00331233
118	0xb808bc6d	-3.2600412e-05
119	0xbbf876ec	-0.007582536
120	0xbca1f4e0	-0.019770086
121	0x3ad07b59	0.0015905901
122	0xbc625068	-0.013813116
123	0xbb6d97d6	-0.0036253831
124	0xbcb4d9a1	-0.02207643
125	0x3c9f4897	0.019443793
126	0xbb2cabc3	-0.0026347495
127	0xbcc07995	-0.023495475
128	0xbb94ab3f	-0.0045370157
129	0xbcc96b65	-0.024587343
130	0xbcb1bb84	-0.02169586
131	0xbaa4275f	-0.001252394
132	0xbcc183c8	-0.023622409
133	0xbceb3df3	-0.028716063
134	0x3bccef0b	0.006254082
135	0xbc54f1c7	-0.012997097
136	0xbca78d90	-0.020453244
137	0x3b6f57e4	0.0036520893
138	0x3c8470f7	0.016167147
139	0xbbc33146	-0.0059568016
140	0xbc7bbf23	-0.015365395
141	0x3b305ac5	0.0026909572
142	0x3ba78505	0.0051122927
143	0xbced29a3	-0.028950518
144	0xbca23102	-0.01979876
145	0x3cba9281	0.022774937
146	0xbc5ef537	-0.013608268
147	0x3cdcf1a8	0.0269707
148	0x3bece76c	0.007229736
149	0x3b4fae87	0.003168972
150	0x3c8cf8d3	0.017208492
151	0xbcd310d7	-0.025764866
152	0xbc0b3466	-0.0084963795
153	0x3c278b90	0.010226145
154	0x3a39cba7	0.00070875365
155	0x3c8d310f	0.017235307
156	0x3cbca7de	0.023029264
157	0xbc85be9c	-0.016326241
158	0x3cc22492	0.023699079
159	0xbc439d1c	-0.011939313
160	0xbcc6a37c	-0.024247877
161	0xbca56238	-0.020188436
162	0x3c52ad03	0.012858632
163	0x3ca1391b	0.01968055
164	0xbcaa35c8	-0.020777598
165	0xbce1d767	-0.027568532
166	0xbcc46e3c	-0.023978345
167	0x3cc17afd	0.023618216
168	0xbb6f4f26	-0.0036515682
169	0xbce61312	-0.028085265
170	0xbcc8f8f0	-0.024532765
171	0x3c699e73	0.014258969
172	0xbce05285	-0.027383098
173	0x3cdeaeb3	0.027182912
174	0x3cb945b8	0.022616252
175	0x3ca45317	0.020059152
176	0xbc65ec51	-0.014033393
177	0xbcc0f951	-0.023556383
178	0xbc0176fc	-0.007901903
179	0x3cda43a3	0.02664358
180	0xbcb5f540	-0.02221167
181	0xbcde114e	-0.02710786
182	0x3c7a6641	0.015283168
183	0xbcc60921	-0.024174275
184	0x3c98f53f	0.01867163
185	0x3ae770e1	0.0017657542
186	0x3c6dad80	0.014506698
187	0xbc3cbf7c	-0.011520263
188	0xbc20298a	-0.009775529
189	0xbc13823b	-0.009003217
190	0xbc4d3e57	-0.01252707
191	0xbc8e38d3	-0.01736108
192	0x3be3178c	0.0069302972
193	0x3b8fb3ab	0.0043854318
194	0x3c0a8f54	0.008457024
195	0x3c845e31	0.016158195
196	0xbc8d1641	-0.017222526
197	0x3bef48bb	0.0073023713
198	0xbca981b8	-0.020691738
199	0xbc9d7eb8	-0.019225463
200	0x3c123935	0.008924772
201	0xbc2e3904	-0.010633711
202	0x3cd7ac8f	0.0263274
203	0xbc3c8b08	-0.011507757
204	0x3cc92a3d	0.024556274
205	0x3cbd5be7	0.023115112
206	0x3c8e9a2c	0.0174075
207	0x3c62dcce	0.013846589
208	0xbca140fc	-0.019684307
209	0xbc84b8e5	-0.016201446
210	0xbbab69e7	-0.0052311304
211	0xbc4517c1	-0.012029589
212	0x3c7875db	0.015164818
213	0x3ba9f0a3	0.005186157
214	0x3c77ed24	0.015132222
215	0x3bd485a0	0.006485656
216	0xbcd2cd5b	-0.025732687
217	0xbb22e833	-0.002485764
218	0x3ce07d30	0.027403444
219	0xbcae4adb	-0.021275928
220	0x3c680a30	0.014162585
221	0xbcf17754	-0.029475845
222	0x3cbb6d30	0.022879213
223	0x3c0858c4	0.008321945
224	0x3c9e52b3	0.019326543
225	0x3c5f842d	0.013642353
226	0xb9404d41	-0.00018339326
227	0x3ca0f404	0.019647606
228	0xbc10d08d	-0.008838785
229	0x3c1f1eb2	0.009711908
230	0xbb5390e7	-0.0032282413
231	0x3c231f1f	0.00995615
232	0xbcab8d12	-0.020941291
233	0xbccc3584	-0.024927862
234	0xbb8d4fab	-0.0043124757
235	0xbcabd45a	-0.02097528
236	0xbc96675e	-0.018359836
237	0xbceb33c8	-0.028711215
238	0x3cdf580b	0.027263662
239	0xbcc00888	-0.023441568
240	0x3ce52e10	0.027976066
241	0x3c508790	0.012727633
242	0x3c443468	0.011975385
243	0x3cb70f0d	0.022346044
244	0xbc3d0a24	-0.011538062
245	0x3c214056	0.009841999
246	0x3ceeeb47	0.029164923
247	0x3c6d2e16	0.01447632
248	0x3cec0b2c	0.02881392
249	0xbaa8008f	-0.0012817549
250	0xbc9a64d0	-0.0188469
251	0xbc7c167a	-0.015386218
252	0x3c0c7961	0.008573861
253	0xbcccfb6b	-0.02502223
254	0x3c1c8c46	0.009554928
255	0x3cca1e43	0.024672633

conv1.bias f4 [14]
0	0xbc6c4f3a	-0.014423186
1	0xbc547890	-0.012968197
2	0xbcb88329	-0.02252348
3	0xbc9e0420	-0.019289076
4	0x3c7b5df4	0.015342224
5	0xbc859679	-0.016307103
6	0xbc81bfc5	-0.015838513
7	0xbc361b84	-0.011114959
8	0xbc67edfe	-0.014155863
9	0xbb9e6bfc	-0.00483465
10	0xbc37f788	-0.01122845
11	0x3c649d18	0.01395347
12	0xbc8d74a8	-0.01726754
13	0x3bd8da18	0.0066177957

conv2.weight f4 [7, 14, 6, 6]
0	0x3c320fd1	0.010868029
1	0xbd170f63	-0.03687991
2	0xbd265050	-0.040603936
3	0xbc878854	-0.016544499
4	0x3d27061f	0.040777322
5	0xbcce8d2b	-0.025213799
6	0x3c63a06c	0.013893228
7	0xbcf5c5ff	-0.030001638
8	0x3d1758af	0.03694981
9	0x3d1681bb	0.036744814
10	0x3caba768	0.020953849
11	0xbc9b1c23	-0.018934315
12	0xbd127384	-0.035754696
13	0x3c4d7312	0.012539642
14	0x3d142c9b	0.03617535
15	0xbc4f05d0	-0.012635663
16	0xbc9f2456	-0.019426506
17	0x3d2fa0c3	0.042877924
18	0x3d2f9b58	0.042872757
19	0xbc044259	-0.008072459
20	0x3d088b91	0.033336226
21	0xbc19a881	-0.009378553
22	0x3d26f39e	0.040759675
23	0xbd0d6315	-0.03451832
24	0x3cd9981e	0.026561793
25	0x3b8d3413	0.0043091862
26	0x3cf40f81	0.02979255
27	0x3c1f44fc	0.009721037
28	0x3c96a234	0.018387891
29	0xbc1eb50f	-0.009686722
30	0x3cd60f27	0.026130272
31	0xbd3537ee	-0.04424279
32	0xbb4969ec	-0.00307333
33	0xbc7d5fdb	-0.015464748
34	0xbb811230	-0.0039389357
35	0xbd196686	-0.03745129
36	0xbc752111	-0.014961497
37	0x3ce95cc5	0.028486619
38	0x3d1746ea	0.036932863
39	0xbb47f449	-0.0030510596
40	0xbc6e525b	-0.014546002
41	0xbcf42beb	-0.029806098
42	0x3c59d4a7	0.013295329
43	0x3d13891f	0.03601944
44	0x3cc7022f	0.024293033
45	0x3d11c661	0.03558958
46	0x3b6c743b	0.003608002
47	0x3ca9b3e6	0.020715665
48	0x3c545e85	0.012961988
49	0xbcfbeb3b	-0.030751815
50	0x3c1c3211	0.009533421
51	0xbce45f83	-0.027877575
52	0x3cbef0b0	0.023308128
53	0xbc96f23b	-0.018426051
54	0xbcfdf713	-0.031001603
55	0xbb300e0e	-0.0026863846
56	0x3a419ef7	0.00073860533
57	0xbccea09e	-0.025223073
58	0xbd258532	-0.040410228
59	0xbd171426	-0.03688445
60	0x3d1daae4	0.038493052
61	0x3cfbc41f	0.030733166
62	0x3ce000e6	0.027344178
63	0x3bbc358d	0.0057436884
64	0xbc8f3ec4	-0.017485984
65	0x3b90f81a	0.0044241073
66	0x3cb6b793	0.022304332
67	0xbcc48207	-0.023987783
68	0x3c5a6b2a	0.013331214
69	0x3b271b2b	0.002549837
70	0x3a2ee7ca	0.00066721125
71	0x3c60860b	0.013703833
72	0xbc1ba7cd	-0.009500456
73	0xbc21b513	-0.009869832
74	0x3c872422	0.016496722
75	0x3d203b84	0.03911926
76	0xbc52f2e3	-0.0128752915
77	0xbb1aa1c6	-0.002359496
78	0x3c48c05f	0.012252896
79	0x3ce2fac0	0.027707458
80	0xbd308043	-0.04309107
81	0x3c86f636	0.016474824
82	0xbd0b4811	-0.034004275
83	0x3bcf4b9e	0.006326153
84	0x3caa59be	0.020794746
85	0x3bf463a1	0.0074581658
86	0x3c605116	0.013691207
87	0xbc6a1e59	-0.014289462
88	0xbc8a8234	-0.016907789
89	0x3c608bf3	0.0137052415
90	0xbd1f4687	-0.03888562
91	0xbcc8aef4	-0.024497487
92	0x3c1217e6	0.008916831
93	0xbc820581	-0.015871765
94	0xbcd79c19	-0.02631955
95	0x3d08a03d	0.03335594
96	0x3c5bb3a4	0.013409529
97	0x3c9ace72	0.018897269
98	0x3b2d2bb5	0.0026423756
99	0x3ca82dee	0.020529713
100	0xbc5c546c	-0.013447862
101	0xba88a3fb	-0.0010424847
102	0xbccb035b	-0.024781873
103	0x3d142650	0.03616935
104	0xbcfa012b	-0.030518135
105	0xbcdd46fe	-0.02701139
106	0xbb923fec	-0.0044631865
107	0xbc8f1666	-0.017466735
108	0x3d31c3bd	0.04339956
109	0x3d125dfd	0.035734165
110	0xbcd6add9	-0.026205944
111	0xbcd099d3	-0.025463974
112	0xbcf50f0d	-0.029914403
113	0xbce7bdb0	-0.028288692
114	0xbd0594d7	-0.032612648
115	0xbb759a8a	-0.0037476146
116	0xbc3e1d80	-0.011603713
117	0x3bc4898a	0.0059978412
118	0x3c89a263	0.016801065
119	0x3d0b7ffd	0.034057606
120	0x3c1d2b6b	0.009592871
121	0xbd304820	-0.043037534
122	0x3cd91f46	0.02650417
123	0x3b918cd4	0.004441837
124	0xbcc1aab9	-0.023640977
125	0xbd15b39b	-0.03654824
126	0xbcc0dcad	-0.023542726
127	0xbd089a7e	-0.03335046
128	0x3c12d658	0.008962236
129	0xbbc176b8	-0.005904045
130	0x3c84e321	0.016221585
131	0x3d0eacf0	0.034832895
132	0xbd265eaa	-0.040617622
133	0xbd178fbf	-0.03700232
134	0xbd30e589	-0.04318765
135	0x3ae614bf	0.001755379
136	0x3d031cf9	0.032010052
137	0x3c57e3ad	0.013176841
138	0xbd0e01b4	-0.034669593
139	0xbd0b9ba1	-0.034083966
140	0x3d33163f	0.043722387
141	0xbcc0a996	-0.023518365
142	0x3cced173	0.025246358
143	0xbc01689b	-0.007898475
144	0xbd128ad3	-0.035776924
145	0xbd2a78aa	-0.04161898
146	0xbc0c0004	-0.008544926
147	0xbd045be8	-0.03231421
148	0x3d1d8121	0.038453225
149	0xbd1d0b04	-0.038340583
150	0xbd1dcde7	-0.038526442
151	0x3d0ca153	0.03433354
152	0xbcbf9514	-0.023386516
153	0xbd1902ff	-0.037356373
154	0x3ac0fd5c	0.0014723944
155	0x3cca812e	0.0247198
156	0x3d310014	0.043212965
157	0x3d10f479	0.035389397
158	0x3c86ebc1	0.016469838
159	0xbc81a4a7	-0.015825583
160	0x3d13be67	0.036070254
161	0xbc9800e0	-0.018555105
162	0x3cd06a93	0.025441444
163	0xbc9b14e3	-0.018930858
164	0xbcd896ac	-0.026439033
165	0x3ced8b21	0.028997006
166	0xbd064cd7	-0.032788124
167	0xbc95e411	-0.018297227
168	0xbca38843	-0.019962436
169	0xbd2c77e1	-0.042106513
170	0xbad4e409	-0.0016242276
171	0x3b59b3b8	0.0033218693
172	0xbcf7604f	-0.03019729
173	0x3cc5faa9	0.024167376
174	0x3cecfc72	0.028928969
175	0xbc302016	-0.010749837
176	0xbd2a6244	-0.04159762
177	0x3b9eca73	0.004845911
178	0xbd361c6e	-0.044460706
179	0x3cbcff33	0.023070907
180	0xbc91394d	-0.017727518
181	0xbc0f4365	-0.008744095
182	0x3cfdc82d	0.03097924
183	0x3c048026	0.008087194
184	0x3c9ad2f4	0.018899418
185	0xbc9f495a	-0.019444156
186	0xbca883ed	-0.02057072
187	0x3cef6a47	0.029225482
188	0xbd16a948	-0.036782533
189	0x3c9be6d1	0.01903096
190	0x3d020794	0.03174551
191	0x3bd9effa	0.006650922
192	0x3d1cd393	0.03828771
193	0x3d1c42b1	0.03814954
194	0xbbe4e085	-0.0069847726
195	0xbd12a70c	-0.03580384
196	0x3a93fc51	0.0011290406
197	0x3d1f25d9	0.038854454
198	0xbd2c9220	-0.042131543
199	0x3c3421b2	0.010994362
200	0xbd3196e7	-0.043356802
201	0x3c49c65c	0.012315359
202	0xbd0ab29c	-0.03386174
203	0x3c0685db	0.008210625
204	0xbcb56e96	-0.022147458
205	0xbc2c3b7a	-0.010512227
206	0xbc743ca6	-0.014907038
207	0xbce2e75c	-0.027698211
208	0x3c556fdb	0.013027157
209	0xbd06d15c	-0.032914504
210	0x3b5a0d4d	0.0033272088
211	0xbcd8956e	-0.026438441
212	0xbd0a6367	-0.033786204
213	0xbcd08f58	-0.025458977
214	0xbd080a15	-0.03321274
215	0xbbfd62be	-0.0077327183
216	0xbd2e6f49	-0.0425866
217	0xbc2a882f	-0.010408445
218	0xbbd1232c	-0.0063823666
219	0x3ccdabe0	0.02510637
220	0xbcbe0787	-0.023196949
221	0x3b2b4da4	0.0026138807
222	0x3c9f2add	0.019429618
223	0xbd2034d1	-0.03911287
224	0xbd1dd27c	-0.03853081
225	0xbcc389df	-0.023869453
226	0xbd00715d	-0.03135811
227	0x3d22b8d2	0.03972704
228	0xbb7c897a	-0.003853409
229	0x3cc8700a	0.024467487
230	0x3ce45f46	0.027877461
231	0xbd0e20dc	-0.034699306
232	0xbcb427e3	-0.021991676
233	0xbb2344af	-0.0024912765
234	0xbc8f9dc9	-0.017531293
235	0xbcd5df6e	-0.026107516
236	0xbd291aee	-0.041285448
237	0xbc8d10ed	-0.017219985
238	0xbc941f43	-0.018081313
239	0x3d201b90	0.039088786
240	0x3c9f9b15	0.019483129
241	0x3c699d06	0.014258629
242	0xbc25d9f3	-0.010122764
243	0xbb89bff5	-0.0042037913
244	0xbcf68dbb	-0.03009688
245	0x3cd58a64	0.026066966
246	0xbccf753e	-0.02532446
247	0x3c8dc712	0.017306838
248	0x3a92ae8f	0.0011190939
249	0xbc6acfd8	-0.01433178
250	0xbb187c81	-0.002326757
251	0xbb888e89	-0.004167382
252	0x3d120e6a	0.035658278
253	0xbc707918	-0.0146773085
254	0xbc87ae5c	-0.016562633
255	0x3d33f69b	0.043936353

conv2.bias f4 [7]
0	0xbcdb7248	-0.026787892
1	0xbcc823b0	-0.02443108
2	0x3cb2bf90	0.02181986
3	0x3c6187bc	0.013765272
4	0xbc6af2da	-0.014340127
5	0xbc9adb49	-0.018903391
6	0x3b192850	0.0023369975

conv3.weight f4 [7, 14, 6, 6]
0	0xbcd63215	-0.026146928
1	0xbc085b1d	-0.008322504
2	0x3d20da4e	0.03927069
3	0xbcf02d51	-0.029318484
4	0xbc1e55c7	-0.009664006
5	0xbb621505	-0.0034497392
6	0x3d0dd2b6	0.034624778
7	0xbb89e52c	-0.0042082276
8	0x3c47f77d	0.012205002
9	0x3d1461c2	0.03622604
10	0xbb32544b	-0.0027210887
11	0xbc8db3b3	-0.017297601
12	0x3ca181dc	0.019715242
13	0xba6c9097	-0.0009024231
14	0x3d058f29	0.03260723
15	0xbcd6fe41	-0.026244285
16	0x3c2ed98b	0.0106719835
17	0x3c472bcc	0.012156438
18	0x3caa32dd	0.020776207
19	0xbcd97ae8	-0.026547864
20	0x3ce848fb	0.028355112
21	0xbd2e0963	-0.04248942
22	0xbc15093d	-0.009096441
23	0x3d2e028a	0.04248289
24	0x3c70d974	0.014700282
25	0x3d06f0cf	0.032944497
26	0x3c212f2a	0.009837905
27	0xbc71032e	-0.014710231
28	0x3d17ba81	0.0370431
29	0x3d2c29c8	0.042032033
30	0xbca4a11b	-0.020096352
31	0xbb8e5f24	-0.0043448377
32	0xbce9150b	-0.028452417
33	0xbc57b0a6	-0.013164675
34	0x3d1fb6df	0.03899276
35	0x3ce5db5c	0.0280587
36	0x3c045736	0.008077433
37	0xbcfb9cdb	-0.030714443
38	0x3c5b3298	0.013378762
39	0xbd1ab978	-0.037774533
40	0x3ca08d42	0.019598607
41	0xbcc96edf	-0.024589
42	0x3bcd17a0	0.00625892
43	0xbcbb0708	-0.022830501
44	0xbc1d4b34	-0.009600449
45	0x3c898ca3	0.016790694
46	0xbd2e3ba8	-0.04253736
47	0x3cd25851	0.025676878
48	0x3cc87125	0.024468014
49	0x3ce06573	0.027392125
50	0x3d2b10f7	0.041764226
51	0xbc492c85	-0.012278681
52	0xbd2fff5d	-0.042968143
53	0xbcb9fc3c	-0.022703283
54	0x3c92728a	0.017876882
55	0xbcb19026	-0.02167518
56	0x3d2413d4	0.040057972
57	0x3d07f59b	0.033193212
58	0x3d1a57b6	0.037681304
59	0xbbe8497f	-0.0070888395
60	0xbccff73b	-0.025386443
61	0x3c9c19d8	0.019055292
62	0x3c06d068	0.008228399
63	0xbd04b46f	-0.032398637
64	0x3c297ac0	0.010344207
65	0x3bd2db69	0.006434847
66	0x3b39058e	0.002823207
67	0xbd207219	-0.039171312
68	0x3d2e5ef7	0.042571034
69	0xbc2239ee	-0.009901507
70	0xbcb1729f	-0.0216611
71	0xbd348467	-0.04407158
72	0x3cec5e7a	0.028853644
73	0x3c68a9f0	0.0142006725
74	0x3d1d198b	0.038354438
75	0xbd04b9e4	-0.03240384
76	0xbcf3426b	-0.029694756
77	0xba87aa29	-0.0010350394
78	0x3ce19b8f	0.027539996
79	0xbcae60a7	-0.021286322
80	0x3d12be4f	0.035826024
81	0xbd22cea0	-0.039747834
82	0x3be27e3d	0.0069120214
83	0x3d0f1e21	0.034940843
84	0xbd177bc6	-0.036983274
85	0x3cd7d7ac	0.026347958
86	0xbcab682a	-0.020923693
87	0xbd1aa213	-0.037752222
88	0x3c45770c	0.012052309
89	0xb88d3b84	-6.7344896e-05
90	0x3cb5d3a9	0.022195654
91	0x3d1a8254	0.037721947
92	0x3c7abe98	0.01530423
93	0x3cb81b35	0.02247391
94	0x3cd21f5e	0.025649723
95	0xbcb23763	-0.021754926
96	0x3c73a01d	0.014869717
97	0x3c81ee8e	0.015860822
98	0xbb01e942	-0.001982287
99	0x3cf651cf	0.030068306
100	0xbc1afd36	-0.009459784
101	0x3c9df970	0.01928398
102	0x3c7cd609	0.015431889
103	0xbcae97cc	-0.021312617
104	0xbd215ce4	-0.039395228
105	0xbd2eb493	-0.042652678
106	0xbc93229a	-0.017960835
107	0x3cd77e25	0.026305268
108	0xbd2090db	-0.039200645
109	0xbcd16ad1	-0.02556363
110	0x3d1a7f3c	0.037718996
111	0x3c73ff0b	0.01489235
112	0xbd0de7fc	-0.034645066
113	0x3b655381	0.00349924
114	0x3d0a53bb	0.033771258
115	0x3cb9f2b0	0.02269873
116	0xbc281b86	-0.010260468
117	0xbcff6af6	-0.031178933
118	0x3ca718d7	0.020397587
119	0x3c3cef73	0.0115316985
120	0x3cbd3eda	0.023101259
121	0x3c3aca81	0.01140082
122	0x3cd99ef8	0.02656506
123	0xbb53dc47	-0.003232734
124	0xbd058b02	-0.03260327
125	0x3ce54e18	0.02799134
126	0xbb9e8e4b	-0.00483874
127	0xbd0b2cae	-0.033978157
128	0x3cf0b16b	0.029381474
129	0xbd14d390	-0.036334574
130	0x3cecc067	0.028900338
131	0xbd212662	-0.039343245
132	0xbcbdc748	-0.023166314
133	0x3d11b681	0.03557444
134	0x3c12b9d7	0.0089554405
135	0xbcee0c38	-0.02905856
136	0x3c794929	0.015215197
137	0x3c6fcdb8	0.0146364495
138	0x3c183cba	0.009291822
139	0xbd0e3ef3	-0.034728
140	0xbcd925ae	-0.026507225
141	0x3d0b235a	0.03396926
142	0xbd104b31	-0.035227958
143	0xbd30a8cb	-0.043129724
144	0xbcc646a0	-0.024203598
145	0xbcaa3430	-0.020776838
146	0xbd0f26fb	-0.034949284
147	0xbc49fbe8	-0.012328126
148	0xbcceafd6	-0.02523033
149	0x3c692709	0.014230498
150	0xbcfdb4cb	-0.030969998
151	0x3c82a09d	0.015945727
152	0x3ce10372	0.027467463
153	0xbcfe5c01	-0.03104973
154	0x3c10ed31	0.008845613
155	0x3c86b269	0.016442494
156	0x3cfb41a8	0.030670956
157	0xbd17545f	-0.036945697
158	0x3b528087	0.0032120065
159	0xbce9107e	-0.028450247
160	0xbc65376b	-0.013990263
161	0xbc912199	-0.017716216
162	0x3d0be94e	0.034158044
163	0x3cd987cc	0.02655401
164	0xbd351169	-0.044206057
165	0x3cd68d29	0.026190357
166	0xbcb7e96f	-0.022450177
167	0x3c596194	0.013267893
168	0x3cd51342	0.02601016
169	0x3d31d8d7	0.043419685
170	0xbbb33625	-0.005469101
171	0x39ca625c	0.00038601726
172	0xbbad8d15	-0.0052963593
173	0x3c541414	0.01294424
174	0x3d01b111	0.031663004
175	0xbb8883db	-0.004166109
176	0xbc13d5f5	-0.009023179
177	0x3c164ee1	0.00917408
178	0xbd12a59d	-0.035802472
179	0x3cc245f1	0.023714991
180	0x3bf2dd83	0.00741166
181	0xbd00a5a2	-0.03140796
182	0xbbdc54bd	-0.006723969
183	0x3d2f1c6b	0.04275171
184	0xbd0e6559	-0.03476462
185	0xbc1b71a6	-0.009487545
186	0x3d0a1bfc	0.033718094
187	0xbada6c31	-0.0016664324
188	0xbcdfca82	-0.027318243
189	0xbc9f2bb1	-0.019430013
190	0xbc833894	-0.01601819
191	0x3c1e6fd6	0.009670218
192	0xbce83509	-0.028345602
193	0xbca5150e	-0.020151641
194	0xbca81a7e	-0.020520445
195	0x3d1f95c2	0.03896118
196	0xbc8f715a	-0.017510105
197	0x3c8067c9	0.015674489
198	0x3c4bc000	0.012435913
199	0xbcbef755	-0.023311296
200	0x3cbba19e	0.022904214
201	0xbcc12881	-0.023578884
202	0xbb6f5058	-0.0036516394
203	0x3c48a775	0.012246956
204	0x3d06da62	0.03292311
205	0x3ca8adb1	0.020590635
206	0xbcafa5ac	-0.021441303
207	0xbd08aab1	-0.03336591
208	0xbcd7c1a5	-0.026337454
209	0x3c3efd46	0.011657065
210	0x3ce2301a	0.027610827
211	0xbc460874	-0.012086976
212	0x3cfb0c13	0.030645406
213	0xbc2b124d	-0.010441375
214	0x3c9904cb	0.018679043
215	0x3d195738	0.037436694
216	0xbd1098b5	-0.035301883
217	0x3d29c407	0.041446712
218	0x3d20b03c	0.03923057
219	0x3c9fafb2	0.019492958
220	0xbce323df	-0.027727066
221	0x3c875fac	0.016525112
222	0x3d072adc	0.03299986
223	0xbcca970f	-0.024730233
224	0xbc83fd88	-0.016112104
225	0x3c97efc5	0.018546948
226	0x3c771688	0.015081055
227	0xbc980f00	-0.01856184
228	0xbc704ff9	-0.0146675045
229	0xbd033caf	-0.032040294
230	0xbc3d9409	-0.011570939
231	0xbbb533d3	-0.0055298596
232	0xbc5bfd43	-0.0134270815
233	0xbb8dafa7	-0.004323918
234	0x3d239e38	0.03994581
235	0x3c397ebb	0.011321719
236	0xbbe22999	-0.0069019315
237	0xbc5e9adf	-0.013586729
238	0x3c51a5e8	0.012795903
239	0xba972238	-0.0011530584
240	0xbd07f60c	-0.033193633
241	0xbcaa052d	-0.020754421
242	0x3c9e8e9b	0.019355109
243	0x3cab66e1	0.02092308
244	0x3ccb9c38	0.024854764
245	0x3d1ccf28	0.038283497
246	0xbb2e785b	-0.002662203
247	0xbd0cca56	-0.03437265
248	0x3d2dff58	0.042479843
249	0xbbca4fd9	-0.0061740694
250	0xbd2cbde6	-0.04217329
251	0xbbbdeaf9	-0.005795833
252	0xbcc40880	-0.023929834
253	0x3d023fdc	0.031799182
254	0x3ba616c2	0.005068631
255	0xbd180c10	-0.03712088

conv3.bias f4 [7]
0	0xbd236ff4	-0.03990169
1	0x3bc182e0	0.005905494
2	0xbc201a28	-0.009771861
3	0x3d0ac12c	0.03387563
4	0xbd14f035	-0.03636189
5	0xbc8ebcb1	-0.01742396
6	0xbc431950	-0.01190789

conv4.weight f4 [3, 14, 6, 6]
0	0xbc921f18	-0.017837092
1	0xbc966966	-0.018360805
2	0x3d15db8e	0.036586337
3	0x3b603861	0.0034213292
4	0x3b846bbf	0.0040411646
5	0xbd1e9fc7	-0.038726594
6	0x3cb29a38	0.021802053
7	0x3d296f10	0.041365683
8	0x3cde6846	0.02714933
9	0x3d320937	0.04346582
10	0x3c0f8bbc	0.008761343
11	0x3d032daf	0.03202599
12	0x3c4224ab	0.011849563
13	0xbc53dadc	-0.012930598
14	0x3c39aeca	0.011333177
15	0xbd2abc0c	-0.04168324
16	0x3d2d6438	0.042331904
17	0xbcd950d4	-0.0265278
18	0x3bc0f4d0	0.005888559
19	0x3bd9963a	0.006640223
20	0xbbc85b77	-0.006114419
21	0xbc20c588	-0.00981272
22	0xbc8c0d87	-0.017096294
23	0x3cf6d409	0.030130403
24	0x3d1dc705	0.038519878
25	0xbcb9d6ed	-0.022685492
26	0xbd233961	-0.039849643
27	0xbd110307	-0.035403278
28	0xbc4c81aa	-0.012482086
29	0x3d1f91dc	0.03895746
30	0xbd225367	-0.03963032
31	0x3d2831c8	0.0410631
32	0x3c0b72f5	0.008511295
33	0x3d345f07	0.044035938
34	0x3c92ec7f	0.017935036
35	0xbd232c77	-0.039837327
36	0xbc8c7ff1	-0.017150851
37	0xbc9ae9a8	-0.018910244
38	0xbc9a676c	-0.018848144
39	0x3d2f11ba	0.042741515
40	0x3c5d0e0b	0.013492118
41	0xbd2c2ae0	-0.042033076
42	0xbcbc0252	-0.022950325
43	0xbcce162b	-0.025157055
44	0xbd1f3230	-0.038866222
45	0xbd168470	-0.036747396
46	0x3d2a04c8	0.041508466
47	0x3d105938	0.035241336
48	0x3d346929	0.0440456
49	0x3d021042	0.031753786
50	0xbd160184	-0.03662254
51	0x3d184a4d	0.037180234
52	0x3c915a89	0.017743366
53	0xbd29ae50	-0.041426003
54	0x3d183654	0.037161186
55	0x3c9be8cc	0.019031905
56	0xbcdc975d	-0.026927644
57	0xbc164839	-0.009172493
58	0xbcd38740	-0.025821328
59	0xbc3f5c32	-0.011679696
60	0x3d270032	0.04077167
61	0xbcd5d1bd	-0.026100988
62	0xbd30f346	-0.043200754
63	0xbbd2b02d	-0.006429693
64	0xbc99f509	-0.0187936
65	0xbb3933f7	-0.0028259733
66	0xbc20ecd9	-0.009822094
67	0x3cabd402	0.020975117
68	0x3d20aeec	0.03922932
69	0x3ce9e33a	0.028550733
70	0xbd1ff9e7	-0.039056685
71	0xbad27c18	-0.0016058711
72	0x3d0bdd12	0.034146376
73	0x3baa9f34	0.005206967
74	0xbcfae943	-0.030628806
75	0xbc8cffb0	-0.017211765
76	0x3b865591	0.004099556
77	0xbcadee30	-0.02123174
78	0x3c16a269	0.009193995
79	0x3d16e377	0.03683802
80	0x3ba7b854	0.005118409
81	0xbd00dd61	-0.031461123
82	0x3cd6e353	0.026231444
83	0x3cf96cf5	0.030447463
84	0xbd20ed71	-0.03928894
85	0xbd272e2a	-0.04081551
86	0xbd1c9548	-0.038228303
87	0xbc30e5d5	-0.010796984
88	0xbbe515ec	-0.0069911387
89	0x3ce7e813	0.028308904
90	0x3d019397	0.031634893
91	0x3d290da2	0.041272767
92	0x3c19e3b4	0.009392668
93	0xbcaea2b0	-0.02131781
94	0xbd024ef5	-0.03181358
95	0x3cb9802e	0.022644129
96	0x3cd176ef	0.025569407
97	0xbbb5ad2c	-0.0055443253
98	0xbd2e0c1b	-0.042492013
99	0x3a5ae23d	0.0008349752
100	0x3c995326	0.018716406
101	0xbc911280	-0.017709017
102	0xbceefbc1	-0.02917278
103	0x3c7c5ff9	0.015403741
104	0x3ccbd8ec	0.02488371
105	0x3cf531ab	0.02993091
106	0xbb719db2	-0.0036867675
107	0xbc8738b6	-0.016506534
108	0x3d0732ca	0.03300742
109	0x3d0ddc01	0.03463364
110	0xbb5ae634	-0.0033401372
111	0xba855bf0	-0.0010174494
112	0x3b00144f	0.0019543355
113	0xbd2234af	-0.039601024
114	0x3d126387	0.035739448
115	0xbcf745ab	-0.030184587
116	0x3cbf5f2c	0.023360811
117	0xbd0318f3	-0.032006215
118	0x3caf5096	0.021400731
119	0x3c1a67f6	0.0094242
120	0x3d1d72d3	0.038439583
121	0xbcf27af2	-0.02959964
122	0xbd00e8a2	-0.031471856
123	0xbd1b3489	-0.0378919
124	0x3d2b41ec	0.041810915
125	0xbd330ad0	-0.043711483
126	0xbcdaa012	-0.026687656
127	0xbc5bbeb7	-0.013412169
128	0xbcc9512c	-0.024574839
129	0x3bee07c4	0.0072641093
130	0xbc3bc3d9	-0.011460268
131	0xbcab6598	-0.020922467
132	0xbccb42b1	-0.024812074
133	0xbcdc168c	-0.02686622
134	0xbc979820	-0.018505156
135	0x3c375184	0.011188868
136	0xbb84c0c9	-0.004051302
137	0xbc41ecfe	-0.0118362885
138	0x3d15bc6f	0.036556657
139	0x3c927948	0.017880097
140	0x3d0ad326	0.033892773
141	0x3c8a1cd4	0.01685945
142	0x3c93c357	0.018037481
143	0xbc076d9b	-0.008265878
144	0x3c45b4dd	0.012067047
145	0x3d2496ab	0.04018275
146	0x39f776cc	0.00047200022
147	0xbc50195f	-0.012701361
148	0x3c683e4e	0.014175011
149	0xbb214b24	-0.0024611438
150	0xbc725201	-0.014790059
151	0x3caabfc9	0.020843403
152	0xbd09ddf7	-0.033658948
153	0x3c1ae8dd	0.009454933
154	0x3ce96e54	0.028494991
155	0xbca70067	-0.020385934
156	0xbba6c42f	-0.005089305
157	0xbca1303b	-0.019676318
158	0x3d0aa57b	0.03384922
159	0x3d1ea83b	0.038734656
160	0x3d22fc80	0.039791584
161	0x3cf4a313	0.029862916
162	0x39e9a06e	0.00044560753
163	0x3c2b119a	0.010441208
164	0x3c09fd05	0.008422141
165	0xbd0599aa	-0.03261725
166	0xbb904c99	-0.0044036624
167	0x3cb5064a	0.022097725
168	0xbcba4e4f	-0.022742419
169	0xbcdda7cc	-0.02705755
170	0xbd0e7819	-0.034782503
171	0x3c842fc2	0.016136054
172	0xbba58a62	-0.005051897
173	0xbd29e804	-0.041481033
174	0xbd03a441	-0.032139067
175	0xbd1edcfe	-0.038784973
176	0x3d13e736	0.03610917
177	0xbce5b745	-0.028041491
178	0x3cc02feb	0.023460349
179	0xbd114ca6	-0.03547349
180	0xbc8bae5e	-0.017050918
181	0x3bf75c46	0.0075488416
182	0xbce7cb70	-0.028295249
183	0xbc9590bf	-0.018257497
184	0x3c043f1a	0.008071685
185	0x3cc47831	0.023983093
186	0x3d24546a	0.040119566
187	0x3cbcfb59	0.02306907
188	0xbcb22f49	-0.021751063
189	0x3d2ee6ba	0.042700507
190	0xbc5c74a9	-0.013455548
191	0x3bd1f8e8	0.0064078458
192	0xbc58726b	-0.013210873
193	0x3ba0e124	0.0049096514
194	0xbc8047df	-0.01565927
195	0xbc1fbf0f	-0.009750142
196	0x3bae5e1c	0.0053212773
197	0x3ca85c2a	0.02055176
198	0xbc02d016	-0.007984182
199	0x3d308f83	0.043105613
200	0xbbb1f674	-0.005430991
201	0xbc539e82	-0.012916209
202	0xbd1f0de0	-0.03883159
203	0xbd1d298b	-0.038369697
204	0x3d0c6be3	0.034282576
205	0xbccf49bf	-0.02530372
206	0x3c1fae31	0.00974612
207	0x3bef0643	0.0072944476
208	0x3d0d34f5	0.034474332
209	0x3d278c84	0.04090549
210	0x3d03d711	0.032187525
211	0x3cfc5b30	0.0308052
212	0xbd022bb5	-0.031779964
213	0x3d2089ab	0.03919379
214	0x3cddc476	0.027071219
215	0xbbbc1354	-0.005739609
216	0x3c9e89ca	0.019352812
217	0x3ce17f14	0.027526416
218	0xbd06c99d	-0.032907117
219	0x3cc1be53	0.023650324
220	0xbcb4f498	-0.022089288
221	0xbb6d6a84	-0.0036226818
222	0x3bdd39aa	0.006751259
223	0x3b9b4a28	0.0047390647
224	0x3b1abf03	0.0023612387
225	0xbbb20281	-0.0054324274
226	0xbcd533f5	-0.026025752
227	0x3c810709	0.015750425
228	0xbd126e20	-0.035749555
229	0x3d0a102b	0.033706825
230	0xbd31bb85	-0.043391723
231	0xbbe1d9a2	-0.006892399
232	0xbd1910a3	-0.03736938
233	0xbd15b7e3	-0.03655232
234	0xbc0cee23	-0.008601698
235	0xbcfbc2da	-0.03073256
236	0x3cdf6f66	0.027274799
237	0xbc677b7a	-0.01412856
238	0xbc8ac9c0	-0.016941905
239	0x3cc8f9ab	0.024533113
240	0x3d2b268a	0.0417848
241	0x3cedfc9b	0.029051116
242	0xbd057cc1	-0.032589678
243	0xbc961f14	-0.018325366
244	0x3d050968	0.032479674
245	0x3c17590f	0.009237542
246	0xbce8573d	-0.028361911
247	0xbd230932	-0.03980369
248	0xbcc6dbab	-0.024274668
249	0xbbbadd43	-0.005702646
250	0xbc76a0a5	-0.015052949
251	0xbc1a745d	-0.009427157
252	0x3d373278	0.044725865
253	0x3ce771c4	0.02825249
254	0x3cd2f526	0.025751662
255	0x3d122aa1	0.035685185

conv4.bias f4 [3]
0	0x3ac93ce5	0.0015353231
1	0x3d1f4e6e	0.038893156
2	0xbc8c0da7	-0.017096354

conv5.weight f4 [1, 3, 6, 6]
0	0x39912864	0.00027686649
1	0x3c942b27	0.018086983
2	0x3d3b09ae	0.04566353
3	0xbda19b1a	-0.078909114
4	0xbdaa9074	-0.083283335
5	0xbcbf334b	-0.023339888
6	0xbd2bc012	-0.04193122
7	0xbd642de8	-0.055707842
8	0x3d592959	0.053017948
9	0xba07d43f	-0.00051814684
10	0x3d47d0d8	0.048783153
11	0xbb28cd53	-0.0025757148
12	0x3dbe9050	0.09304869
13	0xbd0b2bd2	-0.033977337
14	0xbc64034b	-0.013916801
15	0x3d9b0a2d	0.075703
16	0x3d4aaeb2	0.04948301
17	0xbd14afda	-0.036300518
18	0x3daa6cfd	0.08321569
19	0x3d123fb8	0.0357053
20	0xbd665481	-0.056232933
21	0x3d638411	0.05554587
22	0x3d4c5d64	0.04989375
23	0x3d8ba76e	0.06819044
24	0x3d335ca3	0.043789517
25	0xbcceeb79	-0.025258766
26	0xbd5d2db2	-0.053998657
27	0xbb9a0c2a	-0.004701157
28	0x3cea26a8	0.028582886
29	0x3ca92613	0.020648038
30	0xbd8a00a3	-0.06738403
31	0x3d0c3695	0.03423174
32	0xbd3cc1f9	-0.046083424
33	0x3d56c22c	0.05243127
34	0x3cad8406	0.021181118
35	0xbd3e050b	-0.046391528
36	0x3dabf4d8	0.083963096
37	0xbc8311f8	-0.01599978
38	0xbd48e11f	-0.049042817
39	0x3d9b7ab8	0.07591766
40	0x3d81bd2b	0.06334909
41	0xbd963e29	-0.07336075
42	0xbd9aca9c	-0.07558176
43	0x3da056d3	0.078290604
44	0xbd2a724c	-0.04161291
45	0x3da1bc23	0.07897212
46	0x3da77166	0.08175926
47	0x3db06907	0.086137824
48	0xbd95f031	-0.073212035
49	0x3d991019	0.074737735
50	0x3d828d56	0.06374614
51	0x3ce79ad3	0.028272068
52	0xbd384de8	-0.044996172
53	0x3d2e0103	0.042481434
54	0xbdad2a1d	-0.08455298
55	0xbd28de25	-0.04122748
56	0x3d83a192	0.064273015
57	0x3d44f04f	0.04808074
58	0xbd62ece8	-0.055401713
59	0xbc9819f6	-0.018567067
60	0xbc9b93fd	-0.018991465
61	0xbdbcfd3c	-0.09227988
62	0xbc0d616c	-0.008629184
63	0xbcb786a9	-0.022403078
64	0xbda74c2e	-0.08168827
65	0x3da479a1	0.080310114
66	0xbd719e6d	-0.058988977
67	0x3d1b2bac	0.037883446
68	0xbd365601	-0.044515613
69	0xbd70c1cb	-0.058778565
70	0xbda88a01	-0.08229447
71	0xbd0ca26a	-0.034334578
72	0x3ccbe998	0.02489166
73	0x3c81a81e	0.015827235
74	0xbcebbd62	-0.028776828
75	0x3d1707eb	0.036872786
76	0xbc637cba	-0.013884718
77	0xbd76b6bd	-0.060232867
78	0xbd938263	-0.07202604
79	0x3d26f0f6	0.040757142
80	0x3ce980e5	0.028503845
81	0x3ca211f4	0.019783951
82	0x3d2187a4	0.039435998
83	0xbd8b71b1	-0.06808794
84	0x3d363f12	0.044493742
85	0x3d8ab54f	0.06772863
86	0x3dba9ac7	0.09111553
87	0xbd8ff714	-0.07029548
88	0x3cdd3d68	0.02700682
89	0x3d11f9d5	0.03563865
90	0x3ceaf0f4	0.028679349
91	0x3d9341ca	0.07190283
92	0x3db1889d	0.08668635
93	0x3da175c5	0.07883791
94	0x3d65b388	0.056079417
95	0xbd1b0c7f	-0.037853714
96	0x3ced3ed1	0.028960617
97	0x3d17ca50	0.037058175
98	0x3d8bfb0d	0.068349935
99	0xbd7dbfa3	-0.061950337
100	0x3cc6de3b	0.02427589
101	0xbd9db3af	-0.077002876
102	0xbd9e7045	-0.077362575
103	0x3d13a896	0.036049448
104	0xbd4871d8	-0.048936695
105	0x3db01ade	0.085988745
106	0x3dacd297	0.08438604
107	0xbd8f0fc6	-0.069854304

conv6.weight f4 [1, 3, 6, 6]
0	0xbd801de7	-0.062557034
1	0xbd1585da	-0.036504604
2	0x3db93e20	0.090450525
3	0xbdb070fd	-0.08615301
4	0x3d6906d3	0.056891274
5	0xbd51a990	-0.051187098
6	0xbab98328	-0.0014153467
7	0xbdb04f2f	-0.08608853
8	0x3b1dac74	0.002405909
9	0x3d2743aa	0.040836014
10	0x3d97cf9d	0.07412646
11	0x3c4e916f	0.012607916
12	0xbdb8b8d4	-0.09019628
13	0xbdaae051	-0.08343566
14	0xbc3b34a6	-0.011426127
15	0x3c129daf	0.0089487275
16	0xbcc57b0a	-0.024106521
17	0x3d08928f	0.033342894
18	0x3d43f2d1	0.04783899
19	0xbaa79b65	-0.00127874
20	0x3d3004d1	0.042973343
21	0xbd3d14d6	-0.04616245
22	0x3c1705fb	0.009217734
23	0x3d1e1a57	0.03859934
24	0xbd0a573e	-0.033774607
25	0xbd192e7c	-0.037397847
26	0xbda2f9c7	-0.079577975
27	0xbd8f0ccf	-0.06984865
28	0x3cad009f	0.02111846
29	0x3d0d5628	0.034505993
30	0xbd397b3b	-0.045283537
31	0x3db41c14	0.08794418
32	0x3d7034ba	0.058644034
33	0x3c5cee16	0.0134844985
34	0xbdb08416	-0.086189434
35	0xbd199a34	-0.037500575
36	0xbd5d78e8	-0.054070383
37	0xbd4f9a2e	-0.050684147
38	0x3d905e60	0.070492506
39	0x3d04898a	0.03235773
40	0xbd1fd643	-0.039022695
41	0xbdb4e634	-0.0883297
42	0x3d95deea	0.07317908
43	0xbd61c919	-0.055123422
44	0x3d76a0b7	0.060211863
45	0x3d99dfe0	0.07513404
46	0xbd4bbd1b	-0.049740892
47	0x3dbbadf4	0.09164038
48	0xbd71cdc8	-0.05903414
49	0x3d9a2c78	0.07528013
50	0xbdbc4ed5	-0.091947235
51	0x3d053840	0.032524347
52	0x3a920e59	0.0011143192
53	0xbd9c3c2b	-0.07628664
54	0xbd23af65	-0.03996219
55	0xbdbc7e16	-0.092037365
56	0xbd10da39	-0.035364363
57	0xbc591d57	-0.013251624
58	0x3d7c5936	0.061608516
59	0xbdc26ce8	-0.094934285
60	0x3d3785c7	0.044805314
61	0xbc5a60db	-0.013328756
62	0x3dac5dda	0.08416338
63	0x3d5cc599	0.05389938
64	0x3daafca5	0.08348969
65	0xbd42b469	-0.047535334
66	0xbd99d152	-0.07510628
67	0x3d823175	0.063570894
68	0x3d879d40	0.0662179
69	0xbd69c025	-0.05706801
70	0x3c2ee731	0.0106752375
71	0xbdb8973f	-0.09013223
72	0xbd52add0	-0.05143529
73	0x3c00e5c3	0.007867279
74	0xbd51a43d	-0.05118202
75	0x3d7c5fc4	0.061614767
76	0x3dc23394	0.09482494
77	0x3db04ddc	0.086086005
78	0xbd636817	-0.05551919
79	0xbdb91214	-0.09036651
80	0xbcad5e5a	-0.021163154
81	0xbd973616	-0.07383363
82	0x3d492e76	0.049116574
83	0x3d513a89	0.051081214
84	0xbcbeebee	-0.02330586
85	0x3bc576ec	0.0060261395
86	0xbcedafef	-0.029014556
87	0xbd792212	-0.060823508
88	0x3d9eb163	0.077486776
89	0xbd2064b0	-0.039158523
90	0xbbd19888	-0.006396357
91	0xbce64696	-0.02810983
92	0x3d96d1dd	0.07364247
93	0xbdc54408	-0.096321166
94	0x3d34bf2a	0.04412762
95	0x3d8ecb46	0.06972365
96	0x3d4d7a47	0.05016544
97	0x3d38dd03	0.04513265
98	0xbce95704	-0.028483875
99	0x3d836130	0.064150214
100	0xbd5ac828	-0.05341354
101	0x3c827de1	0.015929164
102	0xbdada62c	-0.084789604
103	0xbccd9672	-0.025096152
104	0xbdb5248c	-0.088448614
105	0x3d8647dc	0.06556675
106	0xbcccf59f	-0.025019465
107	0x3c076a42	0.00826508

conv7.weight f4 [1, 2, 6, 6]
0	0xbc90a8ab	-0.017658552
1	0x3c93117f	0.017952679
2	0xbd2c35e5	-0.042043585
3	0xbccc553f	-0.024942992
4	0x3d32a6ad	0.043615986
5	0xbd7acb53	-0.06122906
6	0x3d765867	0.0601429
7	0x3cf35781	0.029704811
8	0x3d82b21c	0.06381628
9	0x3da329e2	0.07966973
10	0x3dd11673	0.1020936
11	0xbd1ea411	-0.038730685
12	0xbcc8deeb	-0.024520358
13	0x3c57c39a	0.013169194
14	0x3d8957ec	0.06706223
15	0x3d601c19	0.054714296
16	0xbd2dd9b1	-0.042443935
17	0xbdcb919c	-0.09939882
18	0xbd2eea07	-0.042703655
19	0x3dd56ef0	0.1042155
20	0xbde374e9	-0.11106283
21	0xbcbf3029	-0.023338394
22	0x3bb32e01	0.0054681306
23	0xbd04e344	-0.0324433
24	0x3d897cef	0.06713282
25	0xba81ea23	-0.0009911697
26	0x3dc4443f	0.095833294
27	0xbd53a541	-0.05167127
28	0x3dcd1364	0.10013464
29	0xbcda074c	-0.026614808
30	0x3c9e2508	0.019304767
31	0x3d86915d	0.065706946
32	0x3ca38322	0.01995999
33	0x3dda72c3	0.1066642
34	0xbd20ddf6	-0.03927418
35	0x3d31e6cf	0.043433007
36	0x3d4a2219	0.049348924
37	0x3d59a422	0.053135045
38	0x3de67442	0.11252643
39	0x3d2c340c	0.042041823
40	0xbd8b17c5	-0.06791643
41	0xba922b4e	-0.0011151822
42	0xbde75e4e	-0.11297284
43	0xbdb15d99	-0.086604305
44	0xbd70f7fd	-0.05883025
45	0x3d160285	0.036623497
46	0x3d42c7f3	0.047553968
47	0x3d2c6626	0.042089604
48	0xbda1b499	-0.078957744
49	0x3dba9a2c	0.09111437
50	0x3d573473	0.052540254
51	0x3ace0378	0.0015717587
52	0x3d0b6b02	0.034037597
53	0xbb988323	-0.0046543046
54	0xbdb74c0a	-0.0895005
55	0xbd8ae447	-0.06781822
56	0x3d054a4c	0.03254156
57	0xbdf038ad	-0.1172956
58	0xbda68b0c	-0.0813199
59	0x3dba4541	0.090952404
60	0x3dd7924d	0.105259515
61	0xbdecbb96	-0.11559217
62	0xbdc6c810	-0.09706128
63	0xbc6f6d84	-0.014613513
64	0x3d52a0b6	0.051422797
65	0xbcb33bdf	-0.021879135
66	0x3d5d108a	0.05397085
67	0xbde5e255	-0.1122481
68	0x3d4701b7	0.04858562
69	0xbc927dea	-0.017882306
70	0x3ddf8e47	0.10915809
71	0xbd9d12d1	-0.076696046
