siamese-models/siam_v2_6.pth (torch, 102171 bytes, 11 tensors)

conv1.weight f4 [14, 31, 6, 6]
0	0xbcd93a13	-0.02651695
1	0x3ca94077	0.020660622
2	0x3c92d6a5	0.017924616
3	0xbb85ec3c	-0.004086999
4	0xbbbd9297	-0.005785297
5	0x3cd1a803	0.02559281
6	0x3cadac58	0.021200344
7	0x3b4d8db8	0.0031364989
8	0xbc86fd70	-0.01647827
9	0x3a957a65	0.0011404274
10	0x3cb7a6cc	0.022418402
11	0xbc8fc6a1	-0.017550768
12	0x3cc7e493	0.024400985
13	0xbccefe45	-0.02526773
14	0xbc6489e6	-0.013948893
15	0x3cd29b8b	0.025708934
16	0xbc5ca69d	-0.013467458
17	0x3ba1a86a	0.0049334066
18	0xba43fea5	-0.00074766047
19	0x3bba789f	0.0056906487
20	0xbcda3ce5	-0.026640365
21	0x3ccaf557	0.02477519
22	0x3ce8695a	0.028370548
23	0x3b205eba	0.0024470524
24	0x3ca11c80	0.01966691
25	0xbc839cb7	-0.016065938
26	0x3c84da8f	0.016217498
27	0xbc1e2aeb	-0.009653787
28	0x3bc7fc04	0.0061030407
29	0x3c1b867d	0.009492514
30	0x3b05eea5	0.0020436433
31	0xbbb09e9a	-0.0053900005
32	0xbcb8c63e	-0.022555467
33	0x3ca4fc62	0.020139877
34	0x3cd86788	0.026416555
35	0xbcc38b81	-0.023870232
36	0xbc2583aa	-0.010102192
37	0x3ca8934c	0.02057805
38	0xba73276e	-0.000927559
39	0x3c36c0dd	0.011154381
40	0xbc0d9309	-0.008641013
41	0x3ce93bd8	0.028470919
42	0x3c1aa908	0.009439714
43	0xbcd54fd5	-0.026039043
44	0x3ca5916f	0.02021095
45	0xbcbd292f	-0.023090927
46	0x3c997595	0.018732825
47	0x3c27fa3b	0.010252531
48	0x3cbb06dc	0.02283042
49	0x3ccb65f7	0.024828894
50	0xbc2fab8f	-0.010722055
51	0x3bdd82a6	0.0067599593
52	0xbc021738	-0.007940106
53	0xbcea6491	-0.028612407
54	0x3bcbf1bb	0.006223885
55	0xbcdae094	-0.026718415
56	0xbc46eafd	-0.0121409865
57	0x3cda8f7a	0.026679743
58	0x3cd0ceb0	0.025489181
59	0x3bfec414	0.007774839
60	0xbc371d7e	-0.011176465
61	0xbc666b01	-0.014063598
62	0x3cf19ef6	0.029494744
63	0x3cb8d135	0.022560695
64	0x3c9ef89e	0.01940566
65	0xbb80de99	-0.0039327857
66	0xbccbdbc7	-0.024885071
67	0xbb08b732	-0.0020861146
68	0xbca06cd4	-0.019583143
69	0x3ca2038b	0.01977708
70	0x3cea5ce5	0.028608749
71	0xbccf797b	-0.025326481
72	0x3cedd2df	0.029031215
73	0xbceaf99f	-0.028683482
74	0x3b5ed243	0.0033999837
75	0x3cf30624	0.029666014
76	0xbccd2f90	-0.025047094
77	0xbc9f29ac	-0.01942905
78	0xbc287ea7	-0.0102841025
79	0x3c98f1e5	0.018670032
80	0xbba4405a	-0.005012554
81	0xbba96d4a	-0.005170499
82	0x3c9addcc	0.01890459
83	0xbac2bfac	-0.0014858148
84	0x3ce19ae7	0.027539684
85	0xbb56cc25	-0.0032775488
86	0xbb050250	-0.0020295568
87	0xbc5f59cb	-0.013632248
88	0x3bf9d857	0.0076246667
89	0xbc2ab84a	-0.0104199145
90	0xbc4795e5	-0.012181734
91	0x3b84580c	0.0040388163
92	0x3cbbd8d7	0.022930546
93	0xbce38598	-0.027773663
94	0xbc48db35	-0.012259294
95	0xbcb45b76	-0.022016268
96	0xbc72548a	-0.0147906635
97	0x3c272546	0.010201758
98	0x3c1945e1	0.009355039
99	0x3ccf19e4	0.0252809
100	0xbcc3a0d8	-0.023880407
101	0xbcd5a54d	-0.026079798
102	0x3cc933fc	0.02456092
103	0xbcd89ac3	-0.026440984
104	0x3c4f9377	0.012669436
105	0x3c5023be	0.012703834
106	0xbcce3116	-0.02516989
107	0xbc84c672	-0.016207907
108	0x3ceea84e	0.029132988
109	0xbaaf1ad8	-0.001335944
110	0x3cae8d9a	0.021307755
111	0xbad08edb	-0.0015911715
112	0xbc9f56cb	-0.019450566
113	0xbcd211af	-0.025643198
114	0xbb4a2f51	-0.0030850957
115	0xbcb4969f	-0.022044478
116	0x3c53288c	0.012888085
117	0xbb5b2833	-0.0033440709
118	0xb8e6d8a1	-0.00011007605
119	0xbbfa655f	-0.007641479
120	0xbca2611d	-0.019821698
121	0x3ad0c28e	0.0015927122
122	0xbc6317ae	-0.013860626
123	0xbb6e7e57	-0.0036391222
124	0xbcb5a3b3	-0.022172784
125	0x3c9ee0a2	0.019394223
126	0xbb303ec5	-0.0026892882
127	0xbcc0b2de	-0.02352279
128	0xbb9649dc	-0.0045864414
129	0xbcc99996	-0.024609368
130	0xbcb257ec	-0.02177044
131	0xbaab0a0f	-0.0013049262
132	0xbcc1e029	-0.023666458
133	0xbceb5a26	-0.02872951
134	0x3bcbe69d	0.0062225596
135	0xbc556389	-0.013024219
136	0xbca81481	-0.02051759
137	0x3b6a75d7	0.0035775804
138	0x3c8404b0	0.016115516
139	0xbbc38e78	-0.0059679113
140	0xbc7c4392	-0.015396969
141	0x3b2e4d69	0.0026596433
142	0x3ba53a66	0.005042362
143	0xbcedab34	-0.0290123
144	0xbca2a361	-0.019853296
145	0x3cba637d	0.022752518
146	0xbc5f85db	-0.0136427535
147	0x3cdca756	0.02693526
148	0x3bea9515	0.0071588852
149	0x3b4b0c37	0.0030982622
150	0x3c8c7b9e	0.017148789
151	0xbcd316fe	-0.0257678
152	0xbc0bd8cc	-0.008535575
153	0x3c26f5df	0.010190456
154	0x3a258163	0.00063135306
155	0x3c8cae42	0.017172936
156	0x3cbc4033	0.022979831
157	0xbc85c555	-0.016329447
158	0x3cc1c5d8	0.02365391
159	0xbc43de43	-0.011954847
160	0xbcc76f53	-0.024345076
161	0xbca5d56a	-0.020243365
162	0x3c51e115	0.012810011
163	0x3ca0fb90	0.019651204
164	0xbcaaa487	-0.020830406
165	0xbce1fa1b	-0.02758508
166	0xbcc503d0	-0.02404967
167	0x3cc10aba	0.023564685
168	0xbb728e3c	-0.0037011048
169	0xbce62e3a	-0.028098214
170	0xbcc92bd8	-0.02455704
171	0x3c6920a8	0.014228977
172	0xbce0e2a9	-0.02745183
173	0x3cde1d2c	0.02711352
174	0x3cb8d3a6	0.02256186
175	0x3ca44337	0.020051582
176	0xbc669822	-0.014074357
177	0xbcc139f6	-0.023587208
178	0xbc02a67d	-0.007974264
179	0x3cd9bb8f	0.026578693
180	0xbcb648fb	-0.022251597
181	0xbcde7b23	-0.027158326
182	0x3c79aa1b	0.01523831
183	0xbcc68b8b	-0.024236461
184	0x3c988037	0.018615825
185	0x3adf74be	0.0017048342
186	0x3c6ce7d7	0.014459572
187	0xbc3d1a1b	-0.011541869
188	0xbc20e839	-0.009820991
189	0xbc142f8e	-0.009044541
190	0xbc4de1da	-0.012566054
191	0xbc8ebd2d	-0.01742419
192	0x3be1592b	0.0068770847
193	0x3b8e3d43	0.004340799
194	0x3c09c5b3	0.008408952
195	0x3c840579	0.01611589
196	0xbc8dc626	-0.017306399
197	0x3bed1e7a	0.007236299
198	0xbca9d3fa	-0.020730961
199	0xbc9dee36	-0.019278627
200	0x3c110ffa	0.008853907
201	0xbc2eb8b9	-0.0106641585
202	0x3cd7539b	0.026284983
203	0xbc3d7c7e	-0.011565326
204	0x3cc8cd51	0.024511965
205	0x3cbd3b84	0.023099668
206	0x3c8e885f	0.017399011
207	0x3c6241fb	0.013809676
208	0xbca198e7	-0.01972623
209	0xbc851f97	-0.016250415
210	0xbbac3960	-0.005255863
211	0xbc45603b	-0.012046869
212	0x3c7789c0	0.015108526
213	0x3ba8d438	0.0051522516
214	0x3c774d9e	0.015094189
215	0x3bd2daad	0.0064347596
216	0xbcd2fa28	-0.02575405
217	0xbb244182	-0.002506346
218	0x3ce05eaa	0.02738889
219	0xbcae806a	-0.021301467
220	0x3c67ba81	0.014143587
221	0xbcf19cec	-0.029493771
222	0x3cbb4651	0.022860678
223	0x3c081c2b	0.008307497
224	0x3c9e381a	0.01931386
225	0x3c5f4994	0.013628382
226	0xb94e7549	-0.00019689383
227	0x3ca0ed28	0.019644335
228	0xbc116600	-0.008874416
229	0x3c1e9f52	0.00968154
230	0xbb557261	-0.0032569396
231	0x3c22aef3	0.009929406
232	0xbcabd0c0	-0.020973563
233	0xbccc6c78	-0.024954066
234	0xbb8e587c	-0.0043440443
235	0xbcac298a	-0.021015901
236	0xbc96c253	-0.018403208
237	0xbceb755d	-0.028742487
238	0x3cdf277b	0.027240505
239	0xbcc030df	-0.023460804
240	0x3ce5047c	0.02795624
241	0x3c5033c4	0.012707654
242	0x3c4427a9	0.011972346
243	0x3cb6e792	0.022327218
244	0xbc3d3e83	-0.0115505485
245	0x3c210a87	0.00982917
246	0x3ceed5d3	0.029154694
247	0x3c6d0b84	0.014468078
248	0x3cebe9df	0.028798042
249	0xbaa95f2f	-0.0012922044
250	0xbc9a774d	-0.018855715
251	0xbc7c4f96	-0.015399834
252	0x3c0b9409	0.008519181
253	0xbccd591a	-0.025066901
254	0x3c1bed69	0.009517052
255	0x3cc9b8d3	0.024624264

conv1.bias f4 [14]
0	0xbc6c4f3a	-0.014423186
1	0xbc547890	-0.012968197
2	0xbcb88329	-0.02252348
3	0xbc9e0420	-0.019289076
4	0x3c7b5df4	0.015342224
5	0xbc859679	-0.016307103
6	0xbc81bfc5	-0.015838513
7	0xbc361b84	-0.011114959
8	0xbc67edfe	-0.014155863
9	0xbb9e6bfc	-0.00483465
10	0xbc37f788	-0.01122845
11	0x3c649d18	0.01395347
12	0xbc8d74a8	-0.01726754
13	0x3bd8da18	0.0066177957

conv2.weight f4 [7, 14, 6, 6]
0	0x3c322182	0.010872247
1	0xbd170d44	-0.036877885
2	0xbd263dc4	-0.040586248
3	0xbc8771a5	-0.016533682
4	0x3d2711df	0.040788528
5	0xbcce71b9	-0.025200712
6	0x3c6365a9	0.013879218
7	0xbcf5db4c	-0.030011795
8	0x3d1754b8	0.03694603
9	0x3d168e15	0.036756594
10	0x3cab8615	0.020937959
11	0xbc9b1e73	-0.018935418
12	0xbd1289b1	-0.035775844
13	0x3c4d1ec3	0.012519541
14	0x3d143843	0.036186468
15	0xbc4f651b	-0.012658383
16	0xbc9f3e7b	-0.019438973
17	0x3d2f9924	0.042870656
18	0x3d2f8797	0.042853918
19	0xbc044e80	-0.0080753565
20	0x3d087130	0.03331107
21	0xbc1a2561	-0.009408326
22	0x3d26da23	0.040735375
23	0xbd0d751b	-0.03453551
24	0x3cd98774	0.026553847
25	0x3b8d32f2	0.0043090517
26	0x3cf4362a	0.029810984
27	0x3c1f0467	0.009705639
28	0x3c96a138	0.018387422
29	0xbc1e8825	-0.009676014
30	0x3cd623fc	0.026140206
31	0xbd3532a5	-0.04423775
32	0xbb4855b2	-0.0030568657
33	0xbc7d800a	-0.015472421
34	0xbb815125	-0.0039464408
35	0xbd19583a	-0.037437655
36	0xbc74c75c	-0.014940109
37	0x3ce97aa2	0.028500859
38	0x3d175d46	0.036954187
39	0xbb45ecfc	-0.0030201068
40	0xbc6db13f	-0.014507591
41	0xbcf3e72c	-0.029773317
42	0x3c5a9ecf	0.013343527
43	0x3d13976b	0.036033075
44	0x3cc724a8	0.024309471
45	0x3d120023	0.03564466
46	0x3b6edd24	0.0036447728
47	0x3ca9bb82	0.020719294
48	0x3c549d10	0.0129769
49	0xbcfbb514	-0.030725993
50	0x3c1cec8b	0.009577881
51	0xbce3e763	-0.027820295
52	0x3cbf8d91	0.023382934
53	0xbc96824a	-0.018372674
54	0xbcfd645b	-0.030931642
55	0xbb2e4b9a	-0.0026595355
56	0x3a4b0c0c	0.00077456306
57	0xbcce3fd0	-0.025176913
58	0xbd2536f5	-0.040335614
59	0xbd16bcaf	-0.036801036
60	0x3d1ddc07	0.038539913
61	0x3cfc013d	0.03076231
62	0x3ce0486c	0.027378283
63	0x3bbdae34	0.005788589
64	0xbc8eeca2	-0.01744682
65	0x3b91fbf4	0.004455084
66	0x3cb6d2c9	0.022317307
67	0xbcc43afb	-0.023953905
68	0x3c5a90c3	0.013340178
69	0x3b2828dc	0.002565912
70	0x3a333b09	0.0006837105
71	0x3c6120b3	0.013740706
72	0xbc1b52e2	-0.00948021
73	0xbc21d336	-0.009877017
74	0x3c874d4b	0.016516348
75	0x3d2039f9	0.039117787
76	0xbc5318d3	-0.0128843365
77	0xbb1b0ca5	-0.002365866
78	0x3c4924c9	0.012276837
79	0x3ce32b52	0.027730618
80	0xbd3037d5	-0.043021996
81	0x3c873e2d	0.01650914
82	0xbd0b3eb1	-0.033995334
83	0x3bcf84e4	0.0063329805
84	0x3caa8ee2	0.020820085
85	0x3bf50e75	0.00747853
86	0x3c60f809	0.013731011
87	0xbc69e02f	-0.014274641
88	0xbc8a82c1	-0.016908051
89	0x3c60b23e	0.013714371
90	0xbd1f187b	-0.038841706
91	0xbcc86e13	-0.02446655
92	0x3c12e922	0.008966716
93	0xbc81aca1	-0.015829386
94	0xbcd74545	-0.026278147
95	0x3d08dffc	0.033416733
96	0x3c5c346e	0.013440235
97	0x3c9b0abf	0.018926023
98	0x3b2fbc7e	0.002681523
99	0x3ca87fa1	0.02056867
100	0xbc5bce6e	-0.013415916
101	0xba8851dc	-0.0010400373
102	0xbccac5dd	-0.024752552
103	0x3d14394b	0.03618745
104	0xbcf9cabe	-0.030492183
105	0xbcdd25a1	-0.026995482
106	0xbb91c3d2	-0.0044483924
107	0xbc8ef083	-0.01744867
108	0x3d31a8d6	0.043373905
109	0x3d122e16	0.035688482
110	0xbcd7055b	-0.02624767
111	0xbcd0e6d0	-0.025500685
112	0xbcf56260	-0.029954135
113	0xbce831b2	-0.02834401
114	0xbd05c17b	-0.03265522
115	0xbb780cb9	-0.003784938
116	0xbc3ef0f6	-0.011654129
117	0x3bc36b27	0.0059637013
118	0x3c8947b4	0.016757824
119	0x3d0b52c0	0.034014463
120	0x3c1caa5c	0.009562101
121	0xbd30657b	-0.04306553
122	0x3cd8d0cf	0.026466755
123	0x3b905ad1	0.0044053574
124	0xbcc1e749	-0.023669856
125	0xbd15d53e	-0.036580317
126	0xbcc10ef2	-0.023566697
127	0xbd08ca96	-0.033396326
128	0x3c126897	0.008936069
129	0xbbc2b37a	-0.0059418054
130	0x3c849635	0.016184906
131	0x3d0e7ba7	0.034785893
132	0xbd266132	-0.040620036
133	0xbd17b399	-0.037036512
134	0xbd3107da	-0.04322038
135	0x3ae1e93a	0.0017235645
136	0x3d030da1	0.03199542
137	0x3c577b6e	0.0131519865
138	0xbd0e21e8	-0.034700304
139	0xbd0badc8	-0.034101278
140	0x3d3300c3	0.0437019
141	0xbcc0ec39	-0.02355014
142	0x3ccebde3	0.02523703
143	0xbc017788	-0.007902034
144	0xbd1264db	-0.035740715
145	0xbd2a714b	-0.04161195
146	0xbc0b4f44	-0.008502785
147	0xbd0454ed	-0.032307554
148	0x3d1d7fdb	0.03845201
149	0xbd1d0b07	-0.038340595
150	0xbd1da159	-0.03848395
151	0x3d0cc80a	0.03437046
152	0xbcbf3b90	-0.023343831
153	0xbd18fb5a	-0.037349083
154	0x3ac5c4e2	0.0015088583
155	0x3ccaa3f4	0.024736382
156	0x3d311964	0.043237105
157	0x3d10ec03	0.03538133
158	0x3c86ff9a	0.016479302
159	0xbc818554	-0.015810646
160	0x3d13bd6b	0.036069315
161	0xbc98151e	-0.018564757
162	0x3cd0afc7	0.025474442
163	0xbc9ad44e	-0.018900063
164	0xbcd87d04	-0.0264268
165	0x3cedc0fd	0.029022688
166	0xbd0638e2	-0.03276909
167	0xbc95c474	-0.018282153
168	0xbca36e9b	-0.019950202
169	0xbd2c648c	-0.042088076
170	0xbad72654	-0.0016414621
171	0x3b5bb315	0.003352349
172	0xbcf75313	-0.03019098
173	0x3cc5f83b	0.024166217
174	0x3ced193a	0.028942693
175	0xbc3004f7	-0.010743371
176	0xbd2a59d8	-0.041589588
177	0x3b9e9ca8	0.004840452
178	0xbd36276a	-0.044471182
179	0x3cbd0477	0.023073418
180	0xbc919c34	-0.017774679
181	0xbc0fd697	-0.00877919
182	0x3cfd5c88	0.030927911
183	0x3c0439ca	0.008070419
184	0x3c9ab5e5	0.018885562
185	0xbc9f9bf2	-0.01948354
186	0xbca8c376	-0.020601016
187	0x3ceef10b	0.029167673
188	0xbd16ecc3	-0.036846887
189	0x3c9bb019	0.019004868
190	0x3d01f0c3	0.03172375
191	0x3bd85c45	0.0066027963
192	0x3d1ca14b	0.03823976
193	0x3d1c11a6	0.03810277
194	0xbbe6a9f8	-0.007039305
195	0xbd12d697	-0.03584918
196	0x3a900c88	0.0010990063
197	0x3d1f0551	0.03882343
198	0xbd2cb341	-0.042163137
199	0x3c338863	0.01095781
200	0xbd31c571	-0.043401185
201	0x3c4894d9	0.012242519
202	0xbd0aca02	-0.033884056
203	0x3c05a3b7	0.008156708
204	0xbcb59799	-0.022167014
205	0xbc2ccdd6	-0.010547122
206	0xbc74dad9	-0.0149447555
207	0xbce32da7	-0.02773173
208	0x3c54dc90	0.012992039
209	0xbd06f17d	-0.032945145
210	0x3b5857df	0.003301136
211	0xbcd8b83e	-0.026455041
212	0xbd0aa18d	-0.033845473
213	0xbcd0d6b4	-0.025493003
214	0xbd082a04	-0.033243194
215	0xbbfe8d45	-0.0077683055
216	0xbd2e6afb	-0.042582493
217	0xbc2b0dc7	-0.0104402965
218	0xbbd14ab6	-0.00638708
219	0x3ccd9828	0.025096968
220	0xbcbe2daf	-0.023215143
221	0x3b28c207	0.0025750415
222	0x3c9f3242	0.019433144
223	0xbd204e73	-0.039137315
224	0xbd1deed4	-0.038557842
225	0xbcc3a276	-0.023881178
226	0xbd007555	-0.031361897
227	0x3d228e66	0.039686583
228	0xbb7f3f4e	-0.0038947645
229	0x3cc844f3	0.02444694
230	0x3ce43036	0.02785502
231	0xbd0e2fe8	-0.034713656
232	0xbcb3fceb	-0.021971187
233	0xbb2589fe	-0.0025259252
234	0xbc8f83df	-0.017518936
235	0xbcd622af	-0.026139585
236	0xbd2939b2	-0.04131479
237	0xbc8d593b	-0.017254462
238	0xbc943e74	-0.018096186
239	0x3d1ff704	0.03905393
240	0x3c9faf82	0.019492868
241	0x3c691b27	0.014227665
242	0xbc25cadf	-0.010119169
243	0xbb89bf46	-0.00420371
244	0xbcf6858b	-0.030092975
245	0x3cd56f93	0.02605418
246	0xbccf55a8	-0.025309399
247	0x3c8db1a3	0.017296618
248	0x3a929583	0.0011183474
249	0xbc6acfd8	-0.01433178
250	0xbb17f62c	-0.0023187501
251	0xbb891ae6	-0.0041841147
252	0x3d120081	0.03564501
253	0xbc709360	-0.014683574
254	0xbc881e52	-0.01661602
255	0x3d33cf2a	0.04389874

conv2.bias f4 [7]
0	0xbcdb7248	-0.026787892
1	0xbcc823b0	-0.02443108
2	0x3cb2bf90	0.02181986
3	0x3c6187bc	0.013765272
4	0xbc6af2da	-0.014340127
5	0xbc9adb49	-0.018903391
6	0x3b192850	0.0023369975

conv3.weight f4 [7, 14, 6, 6]
0	0xbcd624ec	-0.026140653
1	0xbc08aafb	-0.008341546
2	0x3d20bc53	0.0392421
3	0xbcf0183c	-0.02930843
4	0xbc1dc239	-0.009628826
5	0xbb6122b5	-0.0034352962
6	0x3d0db0c1	0.034592394
7	0xbb8ad6dc	-0.004237039
8	0x3c473aef	0.012160047
9	0x3d14327f	0.03618097
10	0xbb33857c	-0.0027392795
11	0xbc8dfd33	-0.017332649
12	0x3ca113b6	0.01966272
13	0xba70735f	-0.0009172465
14	0x3d0565b0	0.03256768
15	0xbcd7490a	-0.026279945
16	0x3c2e4235	0.010635902
17	0x3c46b0c8	0.012127109
18	0x3ca9cd11	0.020727666
19	0xbcd9bfeb	-0.026580771
20	0x3ce825b0	0.028338283
21	0xbd2df961	-0.042474154
22	0xbc151462	-0.009099098
23	0x3d2e0170	0.04248184
24	0x3c713898	0.014722966
25	0x3d06eba9	0.032939587
26	0x3c20cf1e	0.009815006
27	0xbc711ecb	-0.014716814
28	0x3d17c666	0.037054442
29	0x3d2c06aa	0.041998543
30	0xbca4a689	-0.020098941
31	0xbb8e9464	-0.0043511856
32	0xbce9865b	-0.028506448
33	0xbc576f07	-0.01314903
34	0x3d1fd19a	0.03901825
35	0x3ce5f7e0	0.028072298
36	0x3c0465f3	0.008080947
37	0xbcfb3ab1	-0.030667635
38	0x3c5b8ec8	0.013400741
39	0xbd1ab4a5	-0.037769932
40	0x3ca107ec	0.019657098
41	0xbcc99907	-0.024609102
42	0x3bccfd3d	0.0062557743
43	0xbcbad21c	-0.022805266
44	0xbc1d4296	-0.009598395
45	0x3c89e35a	0.016832042
46	0xbd2e3089	-0.042526755
47	0x3cd25768	0.025676444
48	0x3cc91479	0.024545895
49	0x3ce0ec19	0.02745633
50	0x3d2b78ed	0.04186337
51	0xbc486ad4	-0.012232501
52	0xbd2fc31a	-0.042910673
53	0xbcb9db87	-0.022687687
54	0x3c92b6c7	0.01790942
55	0xbcb169b6	-0.021656852
56	0x3d247f62	0.040160544
57	0x3d081b47	0.03322914
58	0x3d1a8150	0.03772098
59	0xbbe70ee0	-0.007051334
60	0xbccf8704	-0.025332935
61	0x3c9c0ed0	0.019050032
62	0x3c06d3aa	0.008229176
63	0xbd045abf	-0.032313105
64	0x3c299d1f	0.010352402
65	0x3bd4fc6c	0.0064998176
66	0x3b3c8ff6	0.002877233
67	0xbd206ab4	-0.03916426
68	0x3d2e74b2	0.042591758
69	0xbc226a60	-0.009913057
70	0xbcb17653	-0.021662867
71	0xbd347fa5	-0.044067044
72	0x3cec5a08	0.028851524
73	0x3c68c091	0.014206068
74	0x3d1cff49	0.038329396
75	0xbd04d125	-0.03242602
76	0xbcf36214	-0.029709853
77	0xba837947	-0.001003065
78	0x3ce18e33	0.027533626
79	0xbcae1a9a	-0.021252919
80	0x3d12cdf7	0.035840955
81	0xbd22a959	-0.039712284
82	0x3be2e862	0.006924675
83	0x3d0f5326	0.034991406
84	0xbd177cd7	-0.03698429
85	0x3cd81d21	0.026381077
86	0xbcab3568	-0.02089949
87	0xbd1a8cd7	-0.03773197
88	0x3c45b9b3	0.0120682
89	0xb8590b7f	-5.174754e-05
90	0x3cb57e94	0.022155084
91	0x3d1abac0	0.037775755
92	0x3c7a556b	0.015279154
93	0x3cb834fe	0.022486206
94	0x3cd25d5d	0.025679285
95	0xbcb1ea22	-0.021718089
96	0x3c742082	0.014900329
97	0x3c827b91	0.015928062
98	0xbb02a33f	-0.0019933728
99	0x3cf662c4	0.030076392
100	0xbc1aa120	-0.009437829
101	0x3c9e569e	0.019328412
102	0x3c7d0a3f	0.015444337
103	0xbcae5b5d	-0.0212838
104	0xbd21771c	-0.039420232
105	0xbd2ea482	-0.042637356
106	0xbc930da0	-0.017950833
107	0x3cd7bcab	0.026335081
108	0xbd208b9f	-0.039195653
109	0xbcd179f4	-0.025570847
110	0x3d1a8597	0.037725057
111	0x3c73fade	0.014891354
112	0xbd0df3fd	-0.034656513
113	0x3b666c40	0.0035159737
114	0x3d0a3f68	0.033751875
115	0x3cb9ab17	0.02266459
116	0xbc284812	-0.010271089
117	0xbcff41c1	-0.031159284
118	0x3ca7020b	0.020386716
119	0x3c3cb956	0.011518797
120	0x3cbcef55	0.023063341
121	0x3c3abaa3	0.011397037
122	0x3cd97ceb	0.026548823
123	0xbb53c78e	-0.0032314989
124	0xbd05a489	-0.032627616
125	0x3ce59037	0.028022869
126	0xbb9e2715	-0.0048264363
127	0xbd0b1762	-0.033957846
128	0x3cf0a39b	0.029374888
129	0xbd14ee40	-0.036360025
130	0x3ceca271	0.028886052
131	0xbd212ecb	-0.039351266
132	0xbcbde9fd	-0.023182863
133	0x3d11a244	0.03555514
134	0x3c12ffe4	0.008972142
135	0xbcee1189	-0.029061096
136	0x3c7940fb	0.015213246
137	0x3c6fed0b	0.014643918
138	0x3c1886a4	0.009309445
139	0xbd0e511b	-0.034745317
140	0xbcd93753	-0.026515638
141	0x3d0b2fc3	0.033981096
142	0xbd105982	-0.03524161
143	0xbd30c2a3	-0.04315437
144	0xbcc5c91c	-0.024143748
145	0xbca9fab8	-0.020749435
146	0xbd0f05e9	-0.034917746
147	0xbc48fb15	-0.012266894
148	0xbcce3a04	-0.025174148
149	0x3c6a1a67	0.014288521
150	0xbcfcc981	-0.030857803
151	0x3c83147a	0.016000975
152	0x3ce18b0d	0.027532125
153	0xbcfdcde2	-0.030981962
154	0x3c125032	0.008930253
155	0x3c87391e	0.016506728
156	0x3cfb8c32	0.030706499
157	0xbd171a25	-0.036890168
158	0x3b56486b	0.0032696973
159	0xbce87ab4	-0.028378822
160	0xbc64d18a	-0.013965974
161	0xbc907290	-0.017632753
162	0x3d0c0f47	0.034194257
163	0x3cd9ac1f	0.026571332
164	0xbd34e051	-0.044159237
165	0x3cd6ef6c	0.026237212
166	0xbcb78c76	-0.022405844
167	0x3c5a9ac9	0.013342568
168	0x3cd596a0	0.0260728
169	0x3d31f2da	0.043444492
170	0xbbb0652c	-0.0053831544
171	0x39e51ba1	0.0004369887
172	0xbbab8996	-0.0052349074
173	0x3c54f983	0.012998941
174	0x3d020472	0.03174252
175	0xbb86c5e1	-0.0041129445
176	0xbc1309f9	-0.008974546
177	0x3c173a06	0.009230142
178	0xbd12483e	-0.035713427
179	0x3cc2aff9	0.02376555
180	0x3bf1f109	0.00738347
181	0xbd00dea2	-0.03146232
182	0xbbdd211d	-0.006748332
183	0x3d2ee14b	0.042695325
184	0xbd0e870c	-0.03479676
185	0xbc1c43d4	-0.009537656
186	0x3d09e416	0.033664785
187	0xbae62217	-0.0017557767
188	0xbce01e1e	-0.027358111
189	0xbc9fa0d8	-0.019485876
190	0xbc840172	-0.01611397
191	0x3c1cbf5a	0.009567106
192	0xbce8d5d2	-0.02842227
193	0xbca61bd0	-0.020276934
194	0xbca8a7b9	-0.020587789
195	0x3d1f4b7a	0.03889034
196	0xbc900d22	-0.017584387
197	0x3c7f9a6b	0.015600781
198	0x3c4b0bb6	0.012392929
199	0xbcbfcd61	-0.023413362
200	0x3cbb0b6c	0.022832595
201	0xbcc1f0bc	-0.023674361
202	0xbb7278f2	-0.0036998359
203	0x3c47a273	0.012184727
204	0x3d067ae0	0.032832026
205	0x3ca859f1	0.0205507
206	0xbcb04e78	-0.021521792
207	0xbd08f80f	-0.033439692
208	0xbcd84bf1	-0.0264034
209	0x3c3e33fd	0.011609075
210	0x3ce18262	0.027527992
211	0xbc47f9d3	-0.012205559
212	0x3cfac214	0.030610122
213	0xbc2c7e67	-0.010528184
214	0x3c98a12e	0.018631544
215	0x3d190523	0.037358414
216	0xbd1084da	-0.035282947
217	0x3d29ce65	0.0414566
218	0x3d209994	0.039208964
219	0x3c9f7e12	0.019469295
220	0xbce34863	-0.027744478
221	0x3c8741be	0.01651084
222	0x3d071be6	0.03298559
223	0xbcca9e5c	-0.024733715
224	0xbc840ecd	-0.016120339
225	0x3c97f399	0.018548774
226	0x3c75c7d8	0.01500126
227	0xbc981c54	-0.018568195
228	0xbc7005d4	-0.014649827
229	0xbd035dcb	-0.03207187
230	0xbc3e0d20	-0.011599809
231	0xbbb47e88	-0.0055082478
232	0xbc5be9c2	-0.013422431
233	0xbb8e60c0	-0.0043450296
234	0x3d23909e	0.03993284
235	0x3c39109c	0.011295464
236	0xbbe3e418	-0.006954681
237	0xbc5edfe0	-0.013603181
238	0x3c514e01	0.012774945
239	0xba91d567	-0.0011126221
240	0xbd080c95	-0.033215124
241	0xbcaa3429	-0.020776825
242	0x3c9e64fe	0.019335266
243	0x3cab5798	0.020915791
244	0x3ccba925	0.024860928
245	0x3d1d0dc9	0.038343225
246	0xbb2eb08e	-0.0026655528
247	0xbd0cf6b2	-0.034414954
248	0x3d2e00b7	0.04248115
249	0xbbcabf6c	-0.00618737
250	0xbd2cc43f	-0.042179342
251	0xbbbdd655	-0.0057933726
252	0xbcc474ee	-0.023981538
253	0x3d024c85	0.031811256
254	0x3ba56d62	0.00504844
255	0xbd17ed4b	-0.037091535

conv3.bias f4 [7]
0	0xbd236ff4	-0.03990169
1	0x3bc182e0	0.005905494
2	0xbc201a28	-0.009771861
3	0x3d0ac12c	0.03387563
4	0xbd14f035	-0.03636189
5	0xbc8ebcb1	-0.01742396
6	0xbc431950	-0.01190789

conv4.weight f4 [3, 14, 6, 6]
0	0xbc9323ce	-0.017961409
1	0xbc97751d	-0.018488461
2	0x3d157882	0.03649188
3	0x3b5e3a17	0.0033909136
4	0x3b803cd5	0.0039135017
5	0xbd1f1b4b	-0.038844388
6	0x3cb16b2c	0.021657549
7	0x3d28f8ab	0.041252773
8	0x3cdca1dc	0.02693265
9	0x3d31c507	0.04340079
10	0x3c0cc99d	0.00859299
11	0x3d027e07	0.03185847
12	0x3c41e086	0.011833316
13	0xbc568766	-0.013093805
14	0x3c378361	0.011200757
15	0xbd2aafcf	-0.04167157
16	0x3d2d4cdc	0.042309627
17	0xbcda7e71	-0.02667162
18	0x3bbdadb2	0.0057885284
19	0x3bd493aa	0.0064873295
20	0xbbcf9c2c	-0.006335756
21	0xbc22d255	-0.009937842
22	0xbc8ce573	-0.017199254
23	0x3cf58dd3	0.029974854
24	0x3d1d6912	0.03843028
25	0xbcba61e0	-0.022751749
26	0xbd23d41e	-0.039997213
27	0xbd11698a	-0.03550104
28	0xbc4de8e3	-0.012567732
29	0x3d1f3725	0.03887095
30	0xbd22f36f	-0.039782938
31	0x3d274f80	0.0408473
32	0x3c092d8b	0.008372675
33	0x3d33caa5	0.04389443
34	0x3c91444a	0.017732758
35	0xbd23e096	-0.040009104
36	0xbc8c3bc9	-0.017118352
37	0xbc9abdbd	-0.018889302
38	0xbc99cc1a	-0.018774081
39	0x3d2f3d4b	0.042783063
40	0x3c5d777c	0.013517257
41	0xbd2b98e2	-0.041893847
42	0xbcbc191c	-0.022961192
43	0xbcce22db	-0.025163105
44	0xbd1f0f48	-0.038832933
45	0xbd1671a3	-0.036729466
46	0x3d2a42b1	0.041567508
47	0x3d10da77	0.035364594
48	0x3d348d86	0.04408028
49	0x3d022ac5	0.03177907
50	0xbd15c878	-0.036568135
51	0x3d18498e	0.037179522
52	0x3c922299	0.017838763
53	0xbd28c770	-0.041205823
54	0x3d1856c9	0.03719214
55	0x3c9bc693	0.019015586
56	0xbcdc392d	-0.026882732
57	0xbc168492	-0.009186881
58	0xbcd325fb	-0.025774946
59	0xbc3c96ad	-0.011510533
60	0x3d26e93f	0.040749785
61	0xbcd669a5	-0.026173422
62	0xbd30b61c	-0.043142423
63	0xbbd2e143	-0.0064355447
64	0xbc9a09bf	-0.018803475
65	0xbb34dc83	-0.0027597256
66	0xbc21ebe1	-0.009882898
67	0x3caacb98	0.020849034
68	0x3d208f90	0.039199412
69	0x3ce9976c	0.028514586
70	0xbd202571	-0.039098207
71	0xbad4aab7	-0.0016225193
72	0x3d0c3ad9	0.03423581
73	0x3bad33c1	0.0052857106
74	0xbcfa0a8e	-0.030522611
75	0xbc8d73f7	-0.01726721
76	0x3b87d5f5	0.0041453787
77	0xbcae45b8	-0.021273479
78	0x3c19605c	0.009361353
79	0x3d178876	0.036995374
80	0x3bac2590	0.0052535012
81	0xbd008389	-0.03137544
82	0x3cd8877c	0.026431791
83	0x3cfa1d17	0.03053145
84	0xbd20df23	-0.0392753
85	0xbd274151	-0.040833775
86	0xbd1ca6e4	-0.038245097
87	0xbc30433d	-0.010758218
88	0xbbe43fdc	-0.0069656204
89	0x3ce75792	0.028239999
90	0x3d026627	0.0318357
91	0x3d29fdfa	0.041501977
92	0x3c1d2688	0.009591706
93	0xbcad52d1	-0.021157654
94	0xbd01fec8	-0.03173712
95	0x3cb9e96c	0.022694312
96	0x3cd272ff	0.0256896
97	0xbbb4aca4	-0.0055137444
98	0xbd2df7ad	-0.04247253
99	0x3a698ae1	0.0008908939
100	0x3c997ab7	0.018735273
101	0xbc906c18	-0.017629668
102	0xbcee430c	-0.029084705
103	0x3c80500e	0.015663173
104	0x3ccd564b	0.025065562
105	0x3cf6c167	0.030121518
106	0xbb6a77da	-0.0035777004
107	0xbc8695e7	-0.0164289
108	0x3d073e31	0.033018295
109	0x3d0da5df	0.034582015
110	0xbb5881c1	-0.0033036324
111	0xba65bbd3	-0.0008763645
112	0x3af76830	0.0018875655
113	0xbd228461	-0.039677028
114	0x3d129d0e	0.03579431
115	0xbcf7baff	-0.030240534
116	0x3cbedab5	0.023297647
117	0xbd02b743	-0.031913053
118	0x3caf47cb	0.021396538
119	0x3c19054d	0.009339643
120	0x3d1dc097	0.038513746
121	0xbcf24e77	-0.02957843
122	0xbd00f2ff	-0.03148174
123	0xbd1aedd6	-0.037824474
124	0x3d2b92e4	0.041888133
125	0xbd335cb8	-0.043789595
126	0xbcda8b59	-0.026677774
127	0xbc5acb87	-0.013354189
128	0xbcc977c0	-0.024593234
129	0x3bed878a	0.0072488235
130	0xbc3cb450	-0.011517599
131	0xbcab63d8	-0.020921633
132	0xbccae5e1	-0.024767818
133	0xbcdc1414	-0.026865043
134	0xbc96d1aa	-0.018410522
135	0x3c37e0d2	0.011223035
136	0xbb84af84	-0.0040492434
137	0xbc421d7b	-0.011847849
138	0x3d15a8b1	0.03653783
139	0x3c92321b	0.017846158
140	0x3d0b507d	0.034012306
141	0x3c8b22c4	0.016984351
142	0x3c93a08f	0.018020896
143	0xbc07bc61	-0.008284659
144	0x3c424441	0.011857093
145	0x3d23e76d	0.040015627
146	0x398522bf	0.00025393625
147	0xbc5420df	-0.01294729
148	0x3c648d2c	0.013949674
149	0xbb2e76ad	-0.002662103
150	0xbc766479	-0.015038603
151	0x3ca912b6	0.020638805
152	0xbd0aa7b8	-0.033851355
153	0x3c17ab7e	0.0092571955
154	0x3ce7a3e4	0.028276391
155	0xbca8b133	-0.020592308
156	0xbbad0e5b	-0.0052812523
157	0xbca2abc9	-0.019857304
158	0x3d0a09f9	0.033700917
159	0x3d1dab6d	0.038493562
160	0x3d221bb2	0.039577194
161	0x3cf2b935	0.02962933
162	0x398f5fb6	0.00027346396
163	0x3c27b631	0.010236309
164	0x3c07139e	0.008244423
165	0xbd066e92	-0.03282029
166	0xbb956e56	-0.004560272
167	0x3cb45363	0.022012418
168	0xbcbc02cf	-0.022950558
169	0xbcdf4e77	-0.027259095
170	0xbd0f5478	-0.034992665
171	0x3c822f8c	0.015891813
172	0xbbadff2e	-0.005309961
173	0xbd2a9ad9	-0.04165158
174	0xbd046d00	-0.032330513
175	0xbd1fab0b	-0.03898148
176	0x3d135a0a	0.03597454
177	0xbce78ac3	-0.028264409
178	0x3cbea6df	0.02327293
179	0xbd122b3e	-0.03568577
180	0xbc8a98ad	-0.016918505
181	0x3bfa1778	0.007632192
182	0xbce6e174	-0.028183676
183	0xbc94b505	-0.018152723
184	0x3c06d803	0.008230212
185	0x3cc54707	0.02408172
186	0x3d24f5ae	0.04027336
187	0x3cbe1e98	0.023207948
188	0xbcb11ec2	-0.021621112
189	0x3d2f466a	0.04279176
190	0xbc5b0be3	-0.013369533
191	0x3bd58ba6	0.0065168915
192	0xbc56d1d5	-0.013111551
193	0x3ba50e6a	0.0050371187
194	0xbc7e4596	-0.01551952
195	0xbc1ddfcd	-0.009635878
196	0x3bb2aa36	0.0054524196
197	0x3ca96875	0.020679692
198	0xbc01aec0	-0.007915199
199	0x3d311ba2	0.043239243
200	0xbbadf017	-0.005308162
201	0xbc52523a	-0.012836987
202	0xbd1ec98a	-0.03876642
203	0xbd1ccfe0	-0.038284183
204	0x3d0cf40d	0.034412432
205	0xbcce528f	-0.025185851
206	0x3c22743e	0.00991541
207	0x3bf33c27	0.007422942
208	0x3d0dd877	0.034630265
209	0x3d2827ae	0.041053466
210	0x3d04474f	0.032294568
211	0x3cfd7fe7	0.030944778
212	0xbd01be2e	-0.03167551
213	0x3d2120e8	0.039338022
214	0x3cdecbcf	0.027196793
215	0xbbb8f3dc	-0.0056443047
216	0x3c9fb4aa	0.019495327
217	0x3ce21aeb	0.027600726
218	0xbd06a304	-0.032870308
219	0x3cc29cf1	0.023756476
220	0xbcb5176e	-0.022105899
221	0xbb693e6b	-0.0035590183
222	0x3bdf9938	0.006823685
223	0x3b9edd1e	0.0048481366
224	0x3b1d810c	0.0024033217
225	0xbbaf2664	-0.0053451527
226	0xbcd4e041	-0.025985839
227	0x3c80e300	0.015733242
228	0xbd122f4a	-0.03568963
229	0x3d0aa10a	0.033844985
230	0xbd31679e	-0.043311708
231	0xbbde3577	-0.006781276
232	0xbd18d9e9	-0.03731719
233	0xbd159602	-0.03652001
234	0xbc0c6f17	-0.008571408
235	0xbcfb7ed2	-0.030700121
236	0x3cdfabc7	0.02730359
237	0xbc670c37	-0.014102033
238	0xbc8a4d6c	-0.01688262
239	0x3cc8e28f	0.024522094
240	0x3d2b7db8	0.04186794
241	0x3ceeb022	0.029136721
242	0xbd04be6e	-0.03240817
243	0xbc9575cc	-0.018244646
244	0x3d0502b2	0.032473274
245	0x3c1877b8	0.009305887
246	0xbce8540c	-0.02836039
247	0xbd22b846	-0.039726518
248	0xbcc5d19f	-0.024147807
249	0xbbb9ca85	-0.005669894
250	0xbc77167f	-0.015081047
251	0xbc1a13a6	-0.009404099
252	0x3d3718c5	0.044701356
253	0x3ce75293	0.028237617
254	0x3cd31e72	0.025771353
255	0x3d12394d	0.035699178

conv4.bias f4 [3]
0	0x3ac93ce2	0.0015353227
1	0x3d1f4e6e	0.038893156
2	0xbc8c0da7	-0.017096354

conv5.weight f4 [1, 3, 6, 6]
0	0x394f56b1	0.00019773353
1	0x3c93b101	0.018028738
2	0x3d3aa821	0.045570496
3	0xbda1c408	-0.07898718
4	0xbdaa9f6c	-0.083311886
5	0xbcbfd794	-0.023418225
6	0xbd2c27fb	-0.042030316
7	0xbd64a6a6	-0.05582299
8	0x3d58f337	0.052966323
9	0xba1e1b77	-0.0006031314
10	0x3d47a1ba	0.04873822
11	0xbb2b61cf	-0.0026150828
12	0x3dbe69a0	0.0929749
13	0xbd0b7474	-0.034046605
14	0xbc63b009	-0.0138969505
15	0x3d9b1237	0.075718336
16	0x3d4a5271	0.04939503
17	0xbd151c3a	-0.036403872
18	0x3daa7ddd	0.08324788
19	0x3d12021a	0.035646535
20	0xbd668731	-0.056281272
21	0x3d6381d5	0.05554374
22	0x3d4c4566	0.04987087
23	0x3d8ba068	0.068177044
24	0x3d32c7bb	0.04364751
25	0xbcd00eec	-0.02539774
26	0xbd5dbb62	-0.05413378
27	0xbb9d8743	-0.004807384
28	0x3ce99c72	0.028516982
29	0x3ca8d52e	0.020609464
30	0xbd8a352c	-0.06748423
31	0x3d0c0945	0.034188528
32	0xbd3d341c	-0.046192273
33	0x3d563326	0.052294873
34	0x3cad22ba	0.021134723
35	0xbd3dfd7b	-0.046384316
36	0x3dabf02d	0.08395419
37	0xbc8329d6	-0.01601116
38	0xbd491763	-0.04909457
39	0x3d9b82c9	0.07593305
40	0x3d81ce34	0.06338158
41	0xbd96392e	-0.07335125
42	0xbd9a96c1	-0.07548285
43	0x3da08448	0.07837731
44	0xbd2a414b	-0.041566174
45	0x3da1d410	0.07901776
46	0x3da79b23	0.08183887
47	0x3db07dbe	0.086177334
48	0xbd95e0c1	-0.07318259
49	0x3d9927e7	0.07478314
50	0x3d82a375	0.06378833
51	0x3ce7eb98	0.028310582
52	0xbd381afe	-0.044947617
53	0x3d2e0f6c	0.042495176
54	0xbdad22ef	-0.08453929
55	0xbd2899d5	-0.04116233
56	0x3d83b854	0.06431642
57	0x3d44f3eb	0.04808418
58	0xbd62dd30	-0.055386722
59	0xbc97c578	-0.018526778
60	0xbc9bb9af	-0.01900944
61	0xbdbceebf	-0.09225225
62	0xbc0d4be6	-0.008624053
63	0xbcb7698a	-0.022389192
64	0xbda73a0c	-0.081653684
65	0x3da47b05	0.080312766
66	0xbd717b39	-0.058955405
67	0x3d1b2c1f	0.037883874
68	0xbd36520d	-0.044511843
69	0xbd70ee8f	-0.058821257
70	0xbda86e59	-0.08224172
71	0xbd0c8a82	-0.03431178
72	0x3ccb77c2	0.024837378
73	0x3c81756e	0.015803065
74	0xbceb7792	-0.028743539
75	0x3d16c59b	0.036809545
76	0xbc63b0c6	-0.013897127
77	0xbd76b366	-0.06022968
78	0xbd935ebf	-0.07195806
79	0x3d26efa8	0.040755898
80	0x3ce9d511	0.02854398
81	0x3ca212a2	0.019784275
82	0x3d219d2f	0.039456543
83	0xbd8b6d55	-0.06807963
84	0x3d36397a	0.044488408
85	0x3d8a9ccd	0.067681886
86	0x3dba9cc3	0.09111931
87	0xbd901ab7	-0.070363455
88	0x3cdcdf3c	0.026961915
89	0x3d11b992	0.035577364
90	0x3cea52ff	0.028604029
91	0x3d932d94	0.07186428
92	0x3db170b4	0.086640745
93	0x3da16f12	0.07882513
94	0x3d65c0d8	0.056092113
95	0xbd1b16e6	-0.037863635
96	0x3ced1791	0.028941901
97	0x3d17d5c5	0.0370691
98	0x3d8c133f	0.068396084
99	0xbd7d8f97	-0.061904516
100	0x3cc734d1	0.024317177
101	0xbd9da0f6	-0.076967165
102	0xbd9e84d6	-0.0774018
103	0x3d138438	0.036014766
104	0xbd48801b	-0.048950296
105	0x3db01360	0.085974455
106	0x3dace24e	0.08441602
107	0xbd8f025b	-0.06982871

conv6.weight f4 [1, 3, 6, 6]
0	0xbd7ffa48	-0.062494546
1	0xbd1525f2	-0.03641314
2	0x3db971a8	0.09054881
3	0xbdb07efd	-0.08617971
4	0x3d69786d	0.056999613
5	0xbd51bf08	-0.051207572
6	0xbaacf7f8	-0.0013196459
7	0xbdb01bbf	-0.08599042
8	0x3b22b8e9	0.0024829453
9	0x3d27b70a	0.040946044
10	0x3d98090c	0.074236006
11	0x3c4f03c0	0.012635171
12	0xbdb8ab44	-0.09017041
13	0xbdaac9a5	-0.08339242
14	0xbc3a2afe	-0.011362789
15	0x3c1487f0	0.009065613
16	0xbcc4e2d3	-0.02403394
17	0x3d088dba	0.033338286
18	0x3d44c8d5	0.04804309
19	0xba8ea562	-0.0010883028
20	0x3d30a838	0.043129176
21	0xbd3cc290	-0.046083987
22	0x3c1a22c2	0.009407701
23	0x3d1e8736	0.038703166
24	0xbd09eeec	-0.03367512
25	0xbd1871ec	-0.03721802
26	0xbda2c638	-0.079479635
27	0xbd8eb089	-0.06967265
28	0x3cae3a09	0.021267908
29	0x3d0de892	0.034645624
30	0xbd38ffb7	-0.045165744
31	0x3db49016	0.08816545
32	0x3d711f3d	0.05886768
33	0x3c5f6cce	0.013636781
34	0xbdb063ed	-0.08612809
35	0xbd19438a	-0.037417926
36	0xbd5d767b	-0.05406807
37	0xbd4f5ddd	-0.050626624
38	0x3d905727	0.07047873
39	0x3d048d4f	0.032361325
40	0xbd1fd528	-0.03902164
41	0xbdb4d991	-0.0883056
42	0x3d9606cb	0.073255144
43	0xbd61d1bf	-0.05513167
44	0x3d7692b6	0.06019851
45	0x3d99e253	0.07513871
46	0xbd4b9dfa	-0.049711205
47	0x3dbbc5b5	0.09168569
48	0xbd71e8dd	-0.059059966
49	0x3d9a27c9	0.0752712
50	0xbdbc8c70	-0.09206474
51	0x3d0559e3	0.032556426
52	0x3a96b3ce	0.0011497678
53	0xbd9c44fa	-0.07630344
54	0xbd234cbe	-0.03986811
55	0xbdbc6f7b	-0.09200951
56	0xbd10f859	-0.035393093
57	0xbc595d52	-0.013266878
58	0x3d7c833b	0.06164859
59	0xbdc265a7	-0.09492045
60	0x3d376bb7	0.04478046
61	0xbc5bcd6d	-0.013415677
62	0x3dac2947	0.084063105
63	0x3d5ca10c	0.053864524
64	0x3dab03f0	0.083503604
65	0xbd42b994	-0.047540262
66	0xbd99ce54	-0.07510057
67	0x3d822fb4	0.06356755
68	0x3d879a2c	0.06621203
69	0xbd69df52	-0.05709774
70	0x3c2e0a9f	0.010622649
71	0xbdb89b00	-0.09013939
72	0xbd51e8a2	-0.051247247
73	0x3c039a41	0.0080323825
74	0xbd5120be	-0.051056616
75	0x3d7d328c	0.061815783
76	0x3dc26d44	0.09493497
77	0x3db07900	0.08616829
78	0xbd6272b2	-0.055285163
79	0xbdb8bd1c	-0.09020445
80	0xbcac21a9	-0.021012144
81	0xbd96dc29	-0.07366211
82	0x3d499e74	0.04922338
83	0x3d519363	0.05116595
84	0xbcbca01f	-0.02302557
85	0x3bcf2ce7	0.0063224914
86	0xbcebca9a	-0.028783131
87	0xbd784512	-0.060612746
88	0x3d9f1054	0.07766786
89	0xbd1fc2bd	-0.039004076
90	0xbbcd6161	-0.006267712
91	0xbce521fe	-0.02797031
92	0x3d971c26	0.07378416
93	0xbdc4f72d	-0.096174575
94	0x3d34cd50	0.044141114
95	0x3d8eed76	0.06978886
96	0x3d4e213a	0.050324656
97	0x3d3942cc	0.045229718
98	0xbce89305	-0.028390417
99	0x3d83a2c1	0.06427527
100	0xbd5aaf8e	-0.05339008
101	0x3c824cab	0.015905699
102	0xbdad4dab	-0.084620796
103	0xbccca11e	-0.02497917
104	0xbdb518ed	-0.08842645
105	0x3d86a81d	0.06575034
106	0xbccc72b8	-0.024957046
107	0x3c0883d4	0.0083322115

conv7.weight f4 [1, 2, 6, 6]
0	0xbc915f7b	-0.017745724
1	0x3c92b77d	0.01790976
2	0xbd2cac19	-0.042156313
3	0xbccc98b3	-0.024975156
4	0x3d32c007	0.043640163
5	0xbd7b1d86	-0.061307453
6	0x3d762420	0.060093045
7	0x3cf2e066	0.029648017
8	0x3d82d846	0.06388907
9	0x3da3303c	0.07968184
10	0x3dd12e4b	0.10213908
11	0xbd1ee5e2	-0.038793452
12	0xbcc9fe04	-0.024657257
13	0x3c56b2c5	0.013104145
14	0x3d897a03	0.06712725
15	0x3d608c3e	0.054821245
16	0xbd2e9cad	-0.042629886
17	0xbdcbe9fa	-0.09956737
18	0xbd2f61ed	-0.042818
19	0x3dd59586	0.1042891
20	0xbde3c8d5	-0.1112229
21	0xbcbfdebe	-0.023421641
22	0x3bb18ec7	0.0054186317
23	0xbd05ab50	-0.03263408
24	0x3d896416	0.06708543
25	0xba841fc6	-0.001008027
26	0x3dc48a95	0.09596745
27	0xbd542b7a	-0.051799275
28	0x3dcd10ef	0.100129955
29	0xbcdac1b9	-0.026703702
30	0x3c9d79ac	0.019223057
31	0x3d8680d0	0.06567538
32	0x3ca3a3b4	0.01997552
33	0x3dda8a7d	0.10670946
34	0xbd219b07	-0.039454486
35	0x3d316d31	0.043317024
36	0x3d4b02f4	0.049563363
37	0x3d5a7e02	0.053342827
38	0x3de6e7ca	0.11274679
39	0x3d2cfbd3	0.042232346
40	0xbd8ad2ca	-0.06778486
41	0xba872373	-0.0010310247
42	0xbde705f8	-0.11280435
43	0xbdb0ea08	-0.08638388
44	0xbd6feadb	-0.058573585
45	0x3d17022b	0.036867302
46	0x3d43b1fd	0.047777165
47	0x3d2d1eb2	0.0422656
48	0xbda141df	-0.07873892
49	0x3dbb326f	0.09140479
50	0x3d586b9a	0.05283699
51	0x3af0dc20	0.0018376149
52	0x3d0c89fe	0.034311287
53	0xbb915465	-0.0044351094
54	0xbdb6c4ac	-0.08924231
55	0xbd8a5840	-0.067551136
56	0x3d06796b	0.032830637
57	0xbdefb609	-0.11704642
58	0xbda5fd5a	-0.081049636
59	0x3dbaca2c	0.091205925
60	0x3dd821bb	0.105533086
61	0xbdec4091	-0.115357526
62	0xbdc650fc	-0.09683415
63	0xbc6b060e	-0.014344705
64	0x3d53b41e	0.051685445
65	0xbcb18d41	-0.0216738
66	0x3d5e44e3	0.054264914
67	0xbde54cb7	-0.11196273
68	0x3d4817a7	0.04885068
69	0xbc8ff5d1	-0.01757327
70	0x3de02a59	0.10945577
71	0xbd9cb083	-0.076508544
