siamese-models/siam_v2_27.pth (torch, 102187 bytes, 11 tensors)

conv1.weight f4 [14, 31, 6, 6]
0	0xbcd874db	-0.026422909
1	0x3ca99550	0.02070108
2	0x3c93dd48	0.018049851
3	0xbb83262c	-0.004002353
4	0xbbbbdc54	-0.0057330523
5	0x3cd2b660	0.025721729
6	0x3cae2556	0.021258038
7	0x3b5242c3	0.003208325
8	0xbc8630a2	-0.016380612
9	0x3a9d0141	0.0011978523
10	0x3cb822a9	0.022477465
11	0xbc8e9fb0	-0.01741013
12	0x3cc86d76	0.024466258
13	0xbcceb814	-0.02523426
14	0xbc63c0e2	-0.013900967
15	0x3cd33185	0.025780449
16	0xbc5b6df4	-0.013392914
17	0x3ba542c5	0.00504336
18	0xba3b5b0c	-0.0007147051
19	0x3bbcc8aa	0.0057612257
20	0xbcd99625	-0.026560852
21	0x3ccafd69	0.024779039
22	0x3ce87b58	0.028379127
23	0x3b268e2f	0.0025414338
24	0x3ca13ac3	0.01968134
25	0xbc83a38d	-0.016069198
26	0x3c84b807	0.016201032
27	0xbc1e0e2a	-0.009646932
28	0x3bc90d92	0.006135651
29	0x3c1d0f6c	0.009586196
30	0x3b0573bb	0.002036317
31	0xbbb097d1	-0.0053891917
32	0xbcb883da	-0.02252381
33	0x3ca52c7d	0.020162815
34	0x3cd8838b	0.026429912
35	0xbcc28a57	-0.023747606
36	0xbc22dc81	-0.009940268
37	0x3ca96759	0.020679163
38	0xba44dc41	-0.0007509627
39	0x3c39ee3f	0.011348306
40	0xbc0c1b98	-0.008551501
41	0x3cea5b2f	0.028607933
42	0x3c1b87b4	0.009492803
43	0xbcd4a6bd	-0.025958413
44	0x3ca63e04	0.020293243
45	0xbcbcd76d	-0.023051942
46	0x3c99ac01	0.018758776
47	0x3c29c8e0	0.010362834
48	0x3cbc0f26	0.022956442
49	0x3ccbebfc	0.0248928
50	0xbc2ed9c6	-0.010672038
51	0x3be1bbb8	0.006888833
52	0xbbffaba7	-0.007802445
53	0xbce946b4	-0.028476097
54	0x3bcdba07	0.0062782797
55	0xbcd9ac9b	-0.026571563
56	0xbc4436d2	-0.011975961
57	0x3cdb4d89	0.02677037
58	0x3cd118c5	0.025524506
59	0x3c01a758	0.007913433
60	0xbc364ae5	-0.011126255
61	0xbc65ff0d	-0.01403786
62	0x3cf16a49	0.029469626
63	0x3cb95776	0.022624712
64	0x3c9f537e	0.019448992
65	0xbb7c3f23	-0.003848978
66	0xbccb4f95	-0.024818221
67	0xbb008b8a	-0.0019614422
68	0xbc9f1708	-0.019420162
69	0x3ca333a0	0.019922078
70	0x3ceb1bfc	0.028699867
71	0xbcce27c3	-0.025165444
72	0x3cefb61b	0.02926164
73	0xbceaea4f	-0.02867618
74	0x3b6d3203	0.003619314
75	0x3cf453ed	0.029825175
76	0xbccc3bb5	-0.024930814
77	0xbc9dd6e5	-0.019267509
78	0xbc27d01b	-0.010242487
79	0x3c99e9ca	0.018788237
80	0xbba2595c	-0.0049545
81	0xbba7a31c	-0.0051158797
82	0x3c9b6247	0.01896776
83	0xbaaf9f51	-0.001339892
84	0x3ce2bd65	0.027678201
85	0xbb55ad8f	-0.003260467
86	0xbb02a6df	-0.0019935889
87	0xbc5d7acf	-0.013518049
88	0x3bff3320	0.007788077
89	0xbc27b0ab	-0.010234992
90	0xbc465ced	-0.012107116
91	0x3b896a7d	0.0041936026
92	0x3cbcc845	0.023044715
93	0xbce2d00e	-0.027687099
94	0xbc47980e	-0.012182249
95	0xbcb32697	-0.021868987
96	0xbc71bc7e	-0.014754413
97	0x3c26b33e	0.010174571
98	0x3c192912	0.009348171
99	0x3ccf745d	0.025324041
100	0xbcc3097b	-0.023808232
101	0xbcd4ae1d	-0.02596193
102	0x3cc9a764	0.02461595
103	0xbcd7e606	-0.0263548
104	0x3c50faea	0.012755135
105	0x3c5216c6	0.012822812
106	0xbccd5e5d	-0.02506941
107	0xbc834588	-0.016024366
108	0x3cf13d85	0.02944828
109	0xbac3a3b0	-0.0014926102
110	0x3cafdcbb	0.021467557
111	0xbac4d2a6	-0.0015016391
112	0xbc9d47e5	-0.019199321
113	0xbcd08930	-0.025456041
114	0xbb3dca21	-0.002895959
115	0xbcb52383	-0.02211166
116	0x3c53e111	0.012932078
117	0xbb561133	-0.003266406
118	0x39019360	0.000123573
119	0xbbf5384f	-0.007483519
120	0xbca080a7	-0.019592596
121	0x3ac17bec	0.0014761663
122	0xbc62bc83	-0.01383889
123	0xbb67725b	-0.0035315964
124	0xbcb31c36	-0.021864038
125	0x3ca00eaf	0.019538252
126	0xbb204204	-0.002445341
127	0xbcc0c0a4	-0.023529358
128	0xbb9336ef	-0.0044926326
129	0xbcc94c46	-0.024572503
130	0xbcb0359a	-0.021509934
131	0xba99319d	-0.001168776
132	0xbcc065b5	-0.023485998
133	0xbcec80c3	-0.028869992
134	0x3bcc870e	0.0062416857
135	0xbc546849	-0.012964317
136	0xbca637fd	-0.02029037
137	0x3b71c041	0.0036888274
138	0x3c853afb	0.016263476
139	0xbbc77ae9	-0.00608765
140	0xbc7c49f0	-0.015398487
141	0x3b318d49	0.002709227
142	0x3bac18a6	0.0052519618
143	0xbcec2970	-0.028828353
144	0xbca025fb	-0.01954936
145	0x3cb948b2	0.022617672
146	0xbc5d11ea	-0.013493041
147	0x3cdd987d	0.027050251
148	0x3bf29304	0.0074027795
149	0x3b58be2a	0.003307233
150	0x3c8e3d56	0.017363232
151	0xbcd3cd6d	-0.02585479
152	0xbc0aa09d	-0.008461145
153	0x3c2838ad	0.010267419
154	0x3a6347ce	0.00086700625
155	0x3c8e15e2	0.017344419
156	0x3cbe03ae	0.023195114
157	0xbc86a762	-0.016437236
158	0x3cc1dca7	0.023664786
159	0xbc420464	-0.011841867
160	0xbcc4b956	-0.024014156
161	0xbca4e860	-0.020130336
162	0x3c55c5bb	0.013047631
163	0x3ca0e383	0.019639736
164	0xbca9a1fa	-0.02070712
165	0xbce1dab0	-0.027570099
166	0xbcc2fc66	-0.023801994
167	0x3cc24108	0.02371265
168	0xbb65bf32	-0.0035056588
169	0xbce735c5	-0.028223881
170	0xbcc9408b	-0.02456691
171	0x3c6a74a8	0.01431004
172	0xbcdf0d12	-0.027227912
173	0x3cdef9b1	0.027218672
174	0x3cba1dea	0.022719342
175	0x3ca32bc5	0.019918332
176	0xbc665a3e	-0.014059601
177	0xbcc0c5f1	-0.023531886
178	0xbbfe8cef	-0.0077682654
179	0x3cdb34bd	0.026758546
180	0xbcb4b0fa	-0.022057045
181	0xbcddfb51	-0.027097376
182	0x3c7c432d	0.015396875
183	0xbcc4ace2	-0.024008218
184	0x3c994fb8	0.01871477
185	0x3af8b703	0.001897544
186	0x3c6ed20f	0.014576449
187	0xbc3c9e3a	-0.0115123335
188	0xbc1ec039	-0.009689384
189	0xbc1357ed	-0.008993131
190	0xbc4c9332	-0.012486266
191	0xbc8d67fd	-0.0172615
192	0x3be5e254	0.007015506
193	0x3b8f154d	0.004366553
194	0x3c0a1d91	0.008429901
195	0x3c855071	0.016273709
196	0xbc8bfacf	-0.017087368
197	0x3bf06743	0.0073365285
198	0xbca9222b	-0.020646175
199	0xbc9ce918	-0.019154117
200	0x3c148dc4	0.009067003
201	0xbc2e2d57	-0.010630927
202	0x3cd7a0d5	0.026321808
203	0xbc3aa9fe	-0.011393068
204	0x3cc9a362	0.02461404
205	0x3cbd2219	0.023087548
206	0x3c8db9fc	0.017300598
207	0x3c63dbde	0.013907401
208	0xbca11312	-0.019662414
209	0xbc8468fb	-0.01616334
210	0xbbaa5b48	-0.00519887
211	0xbc44a359	-0.012001836
212	0x3c79f040	0.015255034
213	0x3bace564	0.005276369
214	0x3c78c223	0.015183005
215	0x3bd96d5f	0.0066353525
216	0xbcd1be12	-0.025603328
217	0xbb1b98a3	-0.0023742102
218	0x3ce1565b	0.027506998
219	0xbcad7a3d	-0.021176452
220	0x3c69fbef	0.014281257
221	0xbcf08423	-0.029359883
222	0x3cbbc219	0.022919701
223	0x3c092c05	0.0083723115
224	0x3c9ebe4e	0.019377854
225	0x3c5fe19b	0.013664628
226	0xb9245908	-0.00015673426
227	0x3ca1302f	0.019676296
228	0xbc0f4597	-0.008744619
229	0x3c2051b4	0.009785105
230	0xbb4f7969	-0.003165806
231	0x3c2433bd	0.010022101
232	0xbcaaf606	-0.020869266
233	0xbccb7a36	-0.024838548
234	0xbb88d04f	-0.004175223
235	0xbcaae1a1	-0.020859541
236	0xbc955d46	-0.018232953
237	0xbceaace2	-0.02864689
238	0x3cdfe6e7	0.027331783
239	0xbcbf4531	-0.023348423
240	0x3ce5c725	0.028049061
241	0x3c51819d	0.01278725
242	0x3c44c140	0.012008965
243	0x3cb76da7	0.022391153
244	0xbc3bc330	-0.011460111
245	0x3c22985d	0.009924022
246	0x3cefd98d	0.029278541
247	0x3c6f1cf0	0.014594302
248	0x3ced1261	0.028939428
249	0xba9ae077	-0.0011816163
250	0xbc9998ea	-0.018749673
251	0xbc79baca	-0.015242288
252	0x3c100b0b	0.008791695
253	0xbccc12cd	-0.024911309
254	0x3c1e5700	0.009664297
255	0x3ccad7b4	0.024761058

conv1.bias f4 [14]
0	0xbc6c4f3a	-0.014423186
1	0xbc547890	-0.012968197
2	0xbcb88329	-0.02252348
3	0xbc9e0420	-0.019289076
4	0x3c7b5df4	0.015342224
5	0xbc859679	-0.016307103
6	0xbc81bfc5	-0.015838513
7	0xbc361b84	-0.011114959
8	0xbc67edfe	-0.014155863
9	0xbb9e6bfc	-0.00483465
10	0xbc37f788	-0.01122845
11	0x3c649d18	0.01395347
12	0xbc8d74a8	-0.01726754
13	0x3bd8da18	0.0066177957

conv2.weight f4 [7, 14, 6, 6]
0	0x3c31fcb0	0.010863468
1	0xbd177553	-0.036977123
2	0xbd26c41f	-0.04071438
3	0xbc87a186	-0.016556513
4	0x3d26aec5	0.040694017
5	0xbccec4bc	-0.025240295
6	0x3c64f29d	0.013973859
7	0xbcf5e993	-0.030018603
8	0x3d170d67	0.036878016
9	0x3d163ed0	0.036680996
10	0x3cab70d8	0.020927832
11	0xbc9b2eb6	-0.018943172
12	0xbd12298a	-0.035684146
13	0x3c4d3ace	0.012526227
14	0x3d13cd85	0.03608467
15	0xbc4dd6b4	-0.012563396
16	0xbc9ed5ac	-0.019388996
17	0x3d2f93a7	0.04286542
18	0x3d2fe0ad	0.042938877
19	0xbc04985b	-0.008092965
20	0x3d084e23	0.033277642
21	0xbc18a11b	-0.009315754
22	0x3d26db26	0.04073634
23	0xbd0d3c2a	-0.034481205
24	0x3cd96826	0.02653892
25	0x3b8d87f9	0.0043191877
26	0x3cf3c376	0.029756289
27	0x3c210a5b	0.009829129
28	0x3c96844f	0.018373637
29	0xbc1e9c61	-0.009680838
30	0x3cd6857d	0.026186699
31	0xbd352b85	-0.044230957
32	0xbb4ed7fc	-0.0031561842
33	0xbc7bf1dc	-0.015377488
34	0xbb7fac74	-0.0039012702
35	0xbd19466e	-0.037420683
36	0xbc75aaf5	-0.014994373
37	0x3ce9541f	0.028482495
38	0x3d1781b4	0.03698893
39	0xbb468d9d	-0.003029681
40	0xbc70a2e2	-0.014687272
41	0xbcf56b3d	-0.029958362
42	0x3c57b54b	0.013165782
43	0x3d1392a6	0.036028527
44	0x3cc77491	0.024347575
45	0x3d119cca	0.035549916
46	0x3b6907da	0.0035557658
47	0x3ca8e79f	0.020618258
48	0x3c532211	0.01288654
49	0xbcfbd89c	-0.030742936
50	0x3c1cda52	0.009573536
51	0xbce41be3	-0.027845329
52	0x3cbe2c4a	0.023214478
53	0xbc97a8a9	-0.01851304
54	0xbcfe942b	-0.031076511
55	0xbb33f30d	-0.0027458102
56	0x3a6400fa	0.0008697655
57	0xbcceeb14	-0.025258578
58	0xbd260178	-0.040528744
59	0xbd181372	-0.03712792
60	0x3d1d1630	0.038351238
61	0x3cfb90c6	0.030708682
62	0x3ce06aa0	0.027394593
63	0x3bb7effe	0.005613326
64	0xbc908869	-0.01764317
65	0x3b89c80d	0.004204756
66	0x3cb63059	0.02223985
67	0xbcc5d58b	-0.024149677
68	0x3c5b170f	0.013372197
69	0x3b245a38	0.0025078189
70	0x3a0cdbef	0.0005373349
71	0x3c5df830	0.013547942
72	0xbc1a8113	-0.009430188
73	0xbc219f90	-0.009864703
74	0x3c867cfb	0.016417017
75	0x3d204359	0.039126728
76	0xbc52f162	-0.012874933
77	0xbb1725b7	-0.0023063251
78	0x3c4a8c2c	0.012362521
79	0x3ce31530	0.027720064
80	0xbd30e67d	-0.04318856
81	0x3c8658a9	0.016399698
82	0xbd0b6087	-0.034027603
83	0x3bcea9f1	0.0063068797
84	0x3caa842f	0.020814983
85	0x3bf24bec	0.0073943045
86	0x3c5f0299	0.013611459
87	0xbc6b96a2	-0.014379175
88	0xbc8ac77b	-0.016940823
89	0x3c60ab80	0.013712764
90	0xbd1f23fe	-0.038852684
91	0xbcc94b72	-0.024572108
92	0x3c10c762	0.008836599
93	0xbc8390df	-0.01606029
94	0xbcd7f073	-0.026359772
95	0x3d08451b	0.03326903
96	0x3c5b2763	0.01337609
97	0x3c99c5c1	0.018771054
98	0x3b24ac0f	0.002512697
99	0x3ca70301	0.020387175
100	0xbc5d71c8	-0.013515897
101	0xba8a68d2	-0.0010559803
102	0xbccaee95	-0.024771968
103	0x3d139760	0.036033034
104	0xbcfbf91c	-0.030758433
105	0xbcdebfd3	-0.027191078
106	0xbb973abf	-0.0046151574
107	0xbc8f0a13	-0.017460858
108	0x3d31bdf7	0.043394055
109	0x3d126c5f	0.035747882
110	0xbcd643c8	-0.026155367
111	0xbcd0826d	-0.025452817
112	0xbcf50c9a	-0.029913235
113	0xbce69143	-0.028145438
114	0xbd059f6b	-0.032622736
115	0xbb744433	-0.0037272095
116	0xbc3d1fa1	-0.011543185
117	0x3bc81a76	0.00610667
118	0x3c8a77d0	0.016902834
119	0x3d0c1b9f	0.03420603
120	0x3c1d72e6	0.009609913
121	0xbd2ff11f	-0.04295456
122	0x3cda3ec2	0.026641253
123	0x3b93fbaa	0.0045160847
124	0xbcc1a080	-0.023636103
125	0xbd1569c9	-0.036477838
126	0xbcc0fa77	-0.023556931
127	0xbd0847a3	-0.033271443
128	0x3c148944	0.00906593
129	0xbbbd647c	-0.005779801
130	0x3c85b5eb	0.016322097
131	0x3d0f1fc4	0.034942403
132	0xbd26255c	-0.040562972
133	0xbd17559d	-0.03694688
134	0xbd309a87	-0.04311612
135	0x3ae9f66d	0.001784993
136	0x3d030f26	0.03199687
137	0x3c597890	0.013273373
138	0xbd0e04c7	-0.034672525
139	0xbd0b9468	-0.034077078
140	0x3d3380fa	0.043824174
141	0xbcc015dc	-0.023447923
142	0x3cced96c	0.02525016
143	0xbbffaafe	-0.0078023663
144	0xbd12a491	-0.035801474
145	0xbd2a02dc	-0.041506633
146	0xbc0b7cb6	-0.00851362
147	0xbd040ceb	-0.032238882
148	0x3d1e1efe	0.038603775
149	0xbd1c74b9	-0.038197253
150	0xbd1e0415	-0.03857811
151	0x3d0ccd22	0.034375317
152	0xbcbfd01e	-0.023414668
153	0xbd18efbe	-0.03733801
154	0x3ac18e4b	0.0014767138
155	0x3ccaf8f9	0.024776923
156	0x3d30db1a	0.0431777
157	0x3d1108e6	0.035408877
158	0x3c86c112	0.016449485
159	0xbc81d77f	-0.015849827
160	0x3d143329	0.036181603
161	0xbc96b041	-0.018394591
162	0x3cd0e764	0.02550096
163	0xbc9b1575	-0.01893113
164	0xbcd87efe	-0.026427742
165	0x3cee4216	0.029084247
166	0xbd05c04d	-0.032654095
167	0xbc95001b	-0.018188527
168	0xbca34069	-0.019928174
169	0xbd2c3d88	-0.04205087
170	0xbac9e06d	-0.0015401967
171	0x3b57d81d	0.003293521
172	0xbcf68901	-0.030094625
173	0x3cc72cde	0.024313387
174	0x3cedcb52	0.029027615
175	0xbc2ecc07	-0.010668761
176	0xbd2a3a5b	-0.04155956
177	0x3b9d4a0b	0.0048000864
178	0xbd35989f	-0.044335004
179	0x3cbd3294	0.023095407
180	0xbc91bbaf	-0.01778969
181	0xbc0ed65d	-0.0087181
182	0x3cfe5960	0.031048477
183	0x3c0523f7	0.0081262505
184	0x3c9aecdf	0.018911777
185	0xbc9f1e71	-0.019423695
186	0xbca88129	-0.0205694
187	0x3cefb84d	0.029262686
188	0xbd164ce0	-0.036694407
189	0x3c9c1c92	0.019056592
190	0x3d01d58a	0.031697787
191	0x3bddb634	0.006766105
192	0x3d1cc8a3	0.03827728
193	0x3d1c4238	0.03814909
194	0xbbe3fe8d	-0.006957835
195	0xbd126d46	-0.035748743
196	0x3a91a41f	0.0011111534
197	0x3d1f2554	0.03885396
198	0xbd2d1e11	-0.042265
199	0x3c34d388	0.011036761
200	0xbd31268d	-0.043249656
201	0x3c4b83d9	0.012421572
202	0xbd0aa48c	-0.03384833
203	0x3c089500	0.008336306
204	0xbcb5b2eb	-0.022180041
205	0xbc2bab1d	-0.010477808
206	0xbc734097	-0.014846942
207	0xbce30f9e	-0.027717408
208	0x3c56a321	0.013100416
209	0xbd06b889	-0.03289083
210	0x3b551d27	0.0032518597
211	0xbcd814a0	-0.026377022
212	0xbd09af01	-0.033614162
213	0xbcd015fd	-0.02540111
214	0xbd0802ff	-0.033205982
215	0xbbfa7c23	-0.007644193
216	0xbd2e9398	-0.042621225
217	0xbc2a3cca	-0.01039047
218	0xbbd0fe5c	-0.0063779783
219	0x3ccd3ab7	0.025052411
220	0xbcbeec40	-0.023306012
221	0x3b31bc3d	0.0027120255
222	0x3c9ee051	0.019394072
223	0xbd1ff310	-0.03905016
224	0xbd1de429	-0.03854767
225	0xbcc3ab37	-0.023885353
226	0xbd00786a	-0.031364836
227	0x3d23a2e9	0.039950285
228	0xbb7d684b	-0.00386669
229	0x3cc906fe	0.024539467
230	0x3ce46686	0.027880918
231	0xbd0e1854	-0.03469117
232	0xbcb5089c	-0.022098832
233	0xbb1aeed8	-0.0023640897
234	0xbc8feb72	-0.017568324
235	0xbcd508c2	-0.026005153
236	0xbd28b665	-0.04118957
237	0xbc8cf149	-0.017204897
238	0xbc94198d	-0.01807859
239	0x3d20d183	0.039262306
240	0x3c9f9ea9	0.019484835
241	0x3c6bfe55	0.014403899
242	0xbc241516	-0.010014793
243	0xbb8b2748	-0.004246626
244	0xbcf79d2a	-0.030226309
245	0x3cd6a0c1	0.0261997
246	0xbccf6241	-0.025315406
247	0x3c8e129e	0.017342862
248	0x3a9c69c2	0.0011933374
249	0xbc6bfb00	-0.014403105
250	0xbb201eb5	-0.0024432365
251	0xbb8209dc	-0.0039684605
252	0x3d11dece	0.035612874
253	0xbc71f237	-0.014767221
254	0xbc878063	-0.016540712
255	0x3d34b452	0.04411728

conv2.bias f4 [7]
0	0xbcdb7248	-0.026787892
1	0xbcc823b0	-0.02443108
2	0x3cb2bf90	0.02181986
3	0x3c6187bc	0.013765272
4	0xbc6af2da	-0.014340127
5	0xbc9adb49	-0.018903391
6	0x3b192850	0.0023369975

conv3.weight f4 [7, 14, 6, 6]
0	0xbcd66ed1	-0.026175888
1	0xbc07470d	-0.008256686
2	0x3d216043	0.039398443
3	0xbcf15084	-0.029457338
4	0xbc1ef336	-0.009701541
5	0xbb6aae90	-0.0035809614
6	0x3d0e02fd	0.03467082
7	0xbb8bdb3b	-0.0042680777
8	0x3c492e81	0.012279154
9	0x3d1425d7	0.0361689
10	0xbb30f6f5	-0.0027002667
11	0xbc8d36ab	-0.017237982
12	0x3ca077e5	0.01958842
13	0xba67968c	-0.0008834384
14	0x3d057630	0.032583416
15	0xbcd70134	-0.02624569
16	0x3c2f9b0c	0.010718118
17	0x3c45f447	0.012082166
18	0x3caa60d6	0.020798128
19	0xbcd8a4b6	-0.026445728
20	0x3ce93883	0.02846933
21	0xbd2e8dec	-0.042615816
22	0xbc15445b	-0.0091105355
23	0x3d2d7355	0.042346317
24	0x3c6f7826	0.014616048
25	0x3d06c1c5	0.032899637
26	0x3c22ba73	0.009932148
27	0xbc73d6af	-0.0148827275
28	0x3d17d74b	0.037070554
29	0x3d2c2297	0.042025175
30	0xbca32d0b	-0.01991894
31	0xbb8598ba	-0.0040770443
32	0xbce65563	-0.028116887
33	0xbc55bb4a	-0.0130451415
34	0x3d206251	0.03915626
35	0x3ce59a02	0.028027538
36	0x3c086a89	0.008326181
37	0xbcfaee9a	-0.030631352
38	0x3c5c0a22	0.01343015
39	0xbd1b1104	-0.037858024
40	0x3ca1287c	0.019672625
41	0xbcc5ce57	-0.024146242
42	0x3bd3e65d	0.0064666704
43	0xbcbb7094	-0.02288083
44	0xbc1cdb94	-0.009573836
45	0x3c898464	0.016786762
46	0xbd2da498	-0.042393297
47	0x3cd43a43	0.025906688
48	0x3cc88ee2	0.024482194
49	0x3cdf732d	0.0272766
50	0x3d2b396c	0.04180281
51	0xbc4ab343	-0.012371841
52	0xbd2fd258	-0.04292521
53	0xbcb9b185	-0.022667656
54	0x3c93af0a	0.018027801
55	0xbcb085ea	-0.02154823
56	0x3d23ef4b	0.04002313
57	0x3d078a97	0.033091154
58	0x3d1b15e2	0.037862666
59	0xbbe2ad1c	-0.006917609
60	0xbcd043a8	-0.025422886
61	0x3c9dbdc6	0.01925553
62	0x3c083b77	0.008314959
63	0xbd053514	-0.032521322
64	0x3c2a6525	0.010400091
65	0x3bcfd35b	0.006342334
66	0x3b335e97	0.0027369612
67	0xbd1f7b39	-0.038935874
68	0x3d2e5f30	0.042571247
69	0xbc21c176	-0.009872785
70	0xbcae26ef	-0.0212588
71	0xbd3446e7	-0.04401293
72	0x3cedfb06	0.029050361
73	0x3c6ea9a3	0.014566812
74	0x3d1e1e56	0.03860315
75	0xbd037742	-0.032096155
76	0xbcf13000	-0.029441833
77	0xba7184ab	-0.00092131895
78	0x3ce2dead	0.02769407
79	0xbcad7e82	-0.021178488
80	0x3d13a5c4	0.03604676
81	0xbd21f4f4	-0.039540246
82	0x3be8216d	0.007084063
83	0x3d0f0d02	0.034924515
84	0xbd17104a	-0.03688077
85	0x3cd882b1	0.026429506
86	0xbca8d72c	-0.020610414
87	0xbd1950e3	-0.037430655
88	0x3c472b6a	0.012156347
89	0x38851015	6.34493e-05
90	0x3cb70a4c	0.022343777
91	0x3d1aec8d	0.03782325
92	0x3c80b066	0.015709113
93	0x3cbad07f	0.022804497
94	0x3cd26041	0.025680663
95	0xbcb0f906	-0.021603119
96	0x3c75e163	0.01500735
97	0x3c81cfb9	0.01584612
98	0xbadb2cf3	-0.001672177
99	0x3cf7a3e3	0.030229514
100	0xbc1830a9	-0.009288945
101	0x3c9f8b19	0.019475507
102	0x3c7c480e	0.015398039
103	0xbcafaec5	-0.021445641
104	0xbd20a4ab	-0.03921954
105	0xbd2e7f16	-0.042601667
106	0xbc926d51	-0.017874392
107	0x3cd78dcc	0.026312731
108	0xbd217244	-0.039415613
109	0xbcd2235b	-0.025651624
110	0x3d194d02	0.037426956
111	0x3c71ea73	0.01476537
112	0xbd0e3a4c	-0.034723565
113	0x3b52d0da	0.0032167942
114	0x3d097b37	0.033564772
115	0x3cb8d17b	0.022560826
116	0xbc2ab7dc	-0.010419812
117	0xbd004201	-0.031312946
118	0x3ca5164f	0.02015224
119	0x3c39810b	0.01132227
120	0x3cbb8dea	0.022894818
121	0x3c385b78	0.011252277
122	0x3cd651f9	0.026162134
123	0xbb5ad9b4	-0.0033393921
124	0xbd06c61b	-0.03290377
125	0x3ce36c1e	0.027761515
126	0xbba4da59	-0.005030912
127	0xbd0baa8b	-0.03409819
128	0x3cee062c	0.029055677
129	0xbd15217b	-0.036408883
130	0x3ceafaf5	0.028684119
131	0xbd21f139	-0.03953669
132	0xbcbd64d8	-0.023119375
133	0x3d10ec47	0.03538158
134	0x3c0f10a9	0.008731999
135	0xbceef363	-0.02916879
136	0x3c75c6d5	0.0150010185
137	0x3c6c3a09	0.014418134
138	0x3c165c7c	0.009177323
139	0xbd0f3af9	-0.03496835
140	0xbcda09ba	-0.026615966
141	0x3d0a8b2f	0.033824142
142	0xbd10e088	-0.03537038
143	0xbd30a355	-0.043124516
144	0xbcc44971	-0.0239608
145	0xbca878a4	-0.020565338
146	0xbd0e8bf7	-0.03480145
147	0xbc47ab67	-0.012186862
148	0xbcce20f1	-0.025162192
149	0x3c695af6	0.014242878
150	0xbcfdead9	-0.030995773
151	0x3c840fc8	0.016120806
152	0x3ce12b76	0.027486544
153	0xbcfd494f	-0.030918745
154	0x3c0f5d8b	0.00875033
155	0x3c85ee88	0.016349092
156	0x3cfcb2a2	0.030846898
157	0xbd165812	-0.036705084
158	0x3b5779a3	0.0032878898
159	0xbce7c2bc	-0.028291099
160	0xbc645cef	-0.013938173
161	0xbc9077d0	-0.017635256
162	0x3d0ccc8c	0.03437476
163	0x3cdaaec1	0.026694657
164	0xbd349ea4	-0.044096604
165	0x3cd8db41	0.026471736
166	0xbcb75aa5	-0.02238209
167	0x3c5a7a10	0.013334766
168	0x3cd5ab1d	0.02608257
169	0x3d323a55	0.04351266
170	0xbbb1e0da	-0.0054284157
171	0x3a15ed3d	0.000571925
172	0xbbafe3c3	-0.0053677275
173	0x3c5556bd	0.013021168
174	0x3d017618	0.031606764
175	0xbb8647a1	-0.0040978943
176	0xbc14e0ec	-0.009086829
177	0x3c188569	0.009309151
178	0xbd138c7f	-0.03602266
179	0x3cc2e713	0.023791825
180	0x3bebbb82	0.0071939835
181	0xbd011c09	-0.031520877
182	0xbbe33c16	-0.006934653
183	0x3d2dd95f	0.04244363
184	0xbd0f88fe	-0.035042755
185	0xbc1f4d77	-0.009723059
186	0x3d0954d4	0.033528164
187	0xbae58762	-0.0017511661
188	0xbce20608	-0.027590767
189	0xbca0f5a4	-0.01964838
190	0xbc843679	-0.016139256
191	0x3c1bb78c	0.00950421
192	0xbce92e77	-0.028464539
193	0xbca575bb	-0.02019774
194	0xbca979af	-0.020687906
195	0x3d1e5960	0.038659453
196	0xbc917e9b	-0.017760566
197	0x3c7b5a69	0.01534138
198	0x3c496825	0.012292896
199	0xbcbf1698	-0.023326203
200	0x3cba7b0a	0.022763748
201	0xbcc27cd0	-0.023741156
202	0xbb81f176	-0.003965552
203	0x3c44925b	0.0119977845
204	0x3d061f34	0.0327446
205	0x3ca764e2	0.020433847
206	0xbcb1e325	-0.021714756
207	0xbd0914bd	-0.033467043
208	0xbcd98e8b	-0.026557228
209	0x3c3bde3d	0.01146656
210	0x3ce1f3a5	0.027582
211	0xbc44518f	-0.011982336
212	0x3cf9c1aa	0.030487854
213	0xbc2b89d0	-0.010469869
214	0x3c96f68e	0.018428113
215	0x3d18ee85	0.037336845
216	0xbd0fd307	-0.03511336
217	0x3d292952	0.04129917
218	0x3d2132bb	0.03935502
219	0x3c9ff2a5	0.019524882
220	0xbce3358c	-0.027735494
221	0x3c875455	0.016519705
222	0x3d0792bb	0.033098917
223	0xbccb8194	-0.024842061
224	0xbc8332b2	-0.016015384
225	0x3c96e34d	0.018418932
226	0x3c790a4f	0.015200212
227	0xbc98553f	-0.018595336
228	0xbc74b5ba	-0.014935905
229	0xbd039b73	-0.03213067
230	0xbc3d71d7	-0.011562786
231	0xbbb8b517	-0.005636822
232	0xbc5bf238	-0.013424449
233	0xbb905068	-0.0044041164
234	0x3d23b85b	0.039970737
235	0x3c3c3b87	0.011488802
236	0xbbde2811	-0.0067796786
237	0xbc5e14c3	-0.013554755
238	0x3c51852e	0.0127881
239	0xbaabd5d9	-0.0013109996
240	0xbd07d9fa	-0.033166863
241	0xbca92a2d	-0.020649994
242	0x3c9e4318	0.019319102
243	0x3caaf93d	0.0208708
244	0x3ccbb971	0.024868699
245	0x3d1ba847	0.03800228
246	0xbb36c86f	-0.0027890464
247	0xbd0c1b1b	-0.034205537
248	0x3d2da1c6	0.042390607
249	0xbbc45f44	-0.005992802
250	0xbd2c6a71	-0.042093698
251	0xbbbfc69f	-0.005852535
252	0xbcc4b338	-0.02401124
253	0x3d0185b3	0.031621646
254	0x3b9c4dd8	0.004770022
255	0xbd19f19c	-0.037583932

conv3.bias f4 [7]
0	0xbd236ff4	-0.03990169
1	0x3bc182e0	0.005905494
2	0xbc201a28	-0.009771861
3	0x3d0ac12c	0.03387563
4	0xbd14f035	-0.03636189
5	0xbc8ebcb1	-0.01742396
6	0xbc431950	-0.01190789

conv4.weight f4 [3, 14, 6, 6]
0	0xbc9242ac	-0.017854057
1	0xbc9aa2d9	-0.01887648
2	0x3d143c6b	0.03619043
3	0x3b3ea09e	0.0029087435
4	0x3b84b8e2	0.00405036
5	0xbd1eb42a	-0.038746037
6	0x3cb2c46d	0.021822179
7	0x3d27b422	0.040943272
8	0x3cd923ad	0.02650627
9	0x3d2f9b7f	0.042872902
10	0x3c0c9d08	0.008582361
11	0x3d024585	0.03180458
12	0x3c41161f	0.011785059
13	0xbc4c53c6	-0.012471145
14	0x3c3cf099	0.011531972
15	0xbd2cb182	-0.042161472
16	0x3d2c47cf	0.04206067
17	0xbcd65dc1	-0.026167752
18	0x3bbd216e	0.0057718074
19	0x3be0c03c	0.0068588536
20	0xbbb8eb22	-0.0056432644
21	0xbc2ab204	-0.010418419
22	0xbc909c19	-0.017652558
23	0x3cf6cae1	0.030126037
24	0x3d1d53cd	0.038409997
25	0xbcb7f12b	-0.022453865
26	0xbd1fc176	-0.039002858
27	0xbd0f0a3f	-0.03492188
28	0xbc4b73e5	-0.012417768
29	0x3d200740	0.039069414
30	0xbd2175fd	-0.039419163
31	0x3d28606b	0.041107576
32	0x3c0c03b1	0.008545802
33	0x3d362713	0.044470858
34	0x3c95bf28	0.018279627
35	0xbd21f9a0	-0.0395447
36	0xbc8fa801	-0.017536165
37	0xbc9fa2a3	-0.01948673
38	0xbca03dd5	-0.019560734
39	0x3d2b8d8d	0.04188304
40	0x3c5587c8	0.013032861
41	0xbd30efb5	-0.043197352
42	0xbcbd3345	-0.023095736
43	0xbccf1aaf	-0.025281278
44	0xbd210422	-0.039310582
45	0xbd17e21d	-0.037080873
46	0x3d284e36	0.041090213
47	0x3d0b6bd0	0.034038365
48	0x3d334807	0.043769863
49	0x3d01b67e	0.03166818
50	0xbd1919e5	-0.03737821
51	0x3d16d039	0.03681967
52	0x3c8c70be	0.017143603
53	0xbd2edd62	-0.042691596
54	0x3d179348	0.037005693
55	0x3c9c5b9d	0.019086653
56	0xbcdd9f4b	-0.027053496
57	0xbc144c06	-0.0090513285
58	0xbcd49c71	-0.025953503
59	0xbc4f58db	-0.012655462
60	0x3d2554ac	0.040363953
61	0xbcd6be44	-0.026213773
62	0xbd3367df	-0.04380023
63	0xbbd748b0	-0.0065699443
64	0xbc9b66c5	-0.018969903
65	0xbb757313	-0.0037452623
66	0xbc23cc75	-0.009997477
67	0x3caf12b5	0.021371225
68	0x3d1f58e0	0.038903117
69	0x3ce90d1a	0.02844863
70	0xbd1fa664	-0.03897704
71	0xbb07469e	-0.0020641456
72	0x3d0baf75	0.034102876
73	0x3baae715	0.0052155354
74	0xbcfbdef2	-0.030745957
75	0xbc8b6b44	-0.017018922
76	0x3b80495b	0.0039149947
77	0xbcad14ad	-0.021128023
78	0x3c13f65f	0.009030907
79	0x3d168dad	0.036756206
80	0x3baecf41	0.005334765
81	0xbd0004f0	-0.03125471
82	0x3cd5b680	0.026088
83	0x3cf8e72d	0.03038367
84	0xbd209306	-0.039202712
85	0xbd26f2ca	-0.040758885
86	0xbd1cda62	-0.038294204
87	0xbc3408c2	-0.010988416
88	0xbbeb6dca	-0.0071847187
89	0x3ce7ae27	0.028281284
90	0x3d00d099	0.031448934
91	0x3d291deb	0.041288298
92	0x3c175947	0.009237594
93	0xbcb0c33d	-0.021577472
94	0xbd01d5ce	-0.03169804
95	0x3cba48ad	0.022739733
96	0x3cd239bb	0.025662294
97	0xbbad8e46	-0.0052965013
98	0xbd2cc179	-0.042176697
99	0x3a42cfb3	0.0007431462
100	0x3c998794	0.018741407
101	0xbc90739b	-0.01763325
102	0xbceeaa79	-0.029134022
103	0x3c7f16c2	0.015569391
104	0x3cccb994	0.024990834
105	0x3cf23097	0.029564185
106	0xbb70e5b0	-0.0036757998
107	0xbc85d4f9	-0.016336905
108	0x3d074500	0.033024788
109	0x3d0e703e	0.03477501
110	0xbb5bfcff	-0.0033567545
111	0xbac57778	-0.0015065512
112	0x3b135702	0.002248228
113	0xbd20b471	-0.039234582
114	0x3d111aec	0.035426065
115	0xbcf5d731	-0.030009838
116	0x3cbfa94a	0.023396153
117	0xbd04dc97	-0.032436933
118	0x3cb074cd	0.02154007
119	0x3c1f481f	0.009721785
120	0x3d1b9b7b	0.037990075
121	0xbcf1bae3	-0.02950806
122	0xbd00330a	-0.031298675
123	0xbd1c5c24	-0.03817381
124	0x3d2aa47e	0.04166078
125	0xbd327653	-0.043569874
126	0xbcded889	-0.027202861
127	0xbc606b72	-0.013697492
128	0xbccacd40	-0.024756074
129	0x3beb9a43	0.0071900203
130	0xbc3bb0af	-0.011455699
131	0xbcac4e06	-0.021033298
132	0xbccf6dfd	-0.025321001
133	0xbcdd4e8b	-0.027014991
134	0xbc9a4d2f	-0.018835632
135	0x3c32e2c8	0.010918327
136	0xbb7d8942	-0.0038686548
137	0xbc44d00a	-0.012012491
138	0x3d14baf4	0.036311105
139	0x3c91e6b2	0.0178102
140	0x3d0930cc	0.033493802
141	0x3c85cbe9	0.016332584
142	0x3c949d58	0.018141434
143	0xbc064a8d	-0.008196485
144	0x3c480f1e	0.0122106355
145	0x3d24dafb	0.0402479
146	0x3a459292	0.00075367943
147	0xbc49470e	-0.012285007
148	0x3c6f1420	0.0145922005
149	0xbb0f9b8b	-0.002191278
150	0xbc6d5a44	-0.014486853
151	0x3cab61ee	0.02092072
152	0xbd0822f2	-0.03323645
153	0x3c226560	0.009911865
154	0x3ced9f8b	0.02900674
155	0xbca3c462	-0.019991104
156	0xbb9feed3	-0.004880765
157	0xbc9fbb87	-0.0194986
158	0x3d0b7246	0.034044527
159	0x3d1ff2d0	0.039049923
160	0x3d243c4d	0.04009657
161	0x3cf6a808	0.03010942
162	0x3a6fe68c	0.00091514806
163	0x3c2de0be	0.010612665
164	0x3c11d8be	0.008901773
165	0xbd02e1d1	-0.031953637
166	0xbb778c6d	-0.003777291
167	0x3cb73573	0.022364354
168	0xbcb842b2	-0.02249274
169	0xbcdcfff3	-0.026977515
170	0xbd0e7d30	-0.034787357
171	0x3c85539e	0.016275223
172	0xbb94e194	-0.0045434926
173	0xbd295673	-0.04134221
174	0xbd029732	-0.031882472
175	0xbd1e1b82	-0.038600452
176	0x3d138e3c	0.036024317
177	0xbce51184	-0.027962454
178	0x3cc2faed	0.023801291
179	0xbd1080bd	-0.035279024
180	0xbc8d61a6	-0.017258476
181	0x3bf99f1d	0.0076178447
182	0xbce8f9fd	-0.028439516
183	0xbc94b770	-0.018153876
184	0x3bfa1237	0.007631566
185	0x3cc35290	0.02384308
186	0x3d2467e4	0.04013814
187	0x3cbbcbe0	0.022924364
188	0xbcb320a8	-0.021866158
189	0x3d2ec060	0.04266393
190	0xbc5f012f	-0.013611122
191	0x3bca18df	0.0061675156
192	0xbc586170	-0.013206825
193	0x3b94dc15	0.0045428374
194	0xbc8272b6	-0.015923839
195	0xbc22fd6b	-0.009948115
196	0x3ba9fb25	0.0051874095
197	0x3ca55949	0.020184176
198	0xbbf53f90	-0.007484384
199	0x3d31072a	0.043219723
200	0xbbb4c382	-0.0055164704
201	0xbc5523de	-0.01300904
202	0xbd1f2933	-0.03885765
203	0xbd1cbec3	-0.038267862
204	0x3d0d82d0	0.03454858
205	0xbccd3e80	-0.025054216
206	0x3c21cef0	0.009875998
207	0x3bee414a	0.0072709667
208	0x3d0c3e84	0.034239307
209	0x3d287d1e	0.041134946
210	0x3d04e387	0.03244355
211	0x3cfde541	0.030993106
212	0xbd01000b	-0.03149418
213	0x3d2121dc	0.03933893
214	0x3cdc67ae	0.026904907
215	0xbbb87e4e	-0.005630291
216	0x3ca0247b	0.019548645
217	0x3cdf9364	0.027291961
218	0xbd08e772	-0.03342385
219	0x3cc070a7	0.023491217
220	0xbcb3f60b	-0.021967908
221	0xbb7a7784	-0.003821821
222	0x3bda8f60	0.0066699237
223	0x3b97c6e5	0.0046318644
224	0x3afbb3e5	0.0019203393
225	0xbbbd75fb	-0.0057818866
226	0xbcd6e547	-0.026232375
227	0x3c80367b	0.015650978
228	0xbd11a8c1	-0.035561327
229	0x3d0aecc8	0.03391722
230	0xbd31591e	-0.04329788
231	0xbbf0c35d	-0.007347508
232	0xbd19c241	-0.03753877
233	0xbd14bfa6	-0.036315583
234	0xbc12454e	-0.008927656
235	0xbcfc3bac	-0.030790173
236	0x3cdfb190	0.027306348
237	0xbc670682	-0.014100673
238	0xbc8d8a70	-0.017277926
239	0x3cc87eb8	0.024474487
240	0x3d2b39b0	0.041803062
241	0x3cede8f0	0.029041737
242	0xbd05953b	-0.03261302
243	0xbc92469a	-0.017855931
244	0x3d04e582	0.03244544
245	0x3c18bb3c	0.009321984
246	0xbce6707a	-0.028129805
247	0xbd2242ef	-0.039614614
248	0xbcc89198	-0.024483487
249	0xbbb71512	-0.0055872286
250	0xbc781551	-0.015141801
251	0xbc17515b	-0.009235705
252	0x3d362022	0.044464238
253	0x3ce4a8b3	0.027912473
254	0x3cce98d6	0.025219362
255	0x3d0ff46d	0.035145212

conv4.bias f4 [3]
0	0x3ac93ce8	0.0015353234
1	0x3d1f4e6e	0.038893156
2	0xbc8c0da7	-0.017096354

conv5.weight f4 [1, 3, 6, 6]
0	0x39fcc7b0	0.00048213964
1	0x3c9595ec	0.018259965
2	0x3d3bd360	0.04585588
3	0xbda11cae	-0.07866798
4	0xbda97ce0	-0.08275771
5	0xbcbdd902	-0.023174766
6	0xbd2a5f7f	-0.04159498
7	0xbd6308ed	-0.055428434
8	0x3d59df48	0.053191453
9	0xb7b9d5f9	-2.2153357e-05
10	0x3d48a360	0.04898393
11	0xbb216afe	-0.0024630423
12	0x3dbf1e05	0.09331898
13	0xbd0a5e2f	-0.033781227
14	0xbc637a40	-0.013884127
15	0x3d9b9e25	0.07598523
16	0x3d4ad383	0.04951812
17	0xbd136034	-0.03598042
18	0x3dab81b1	0.08374346
19	0x3d13bb25	0.036067147
20	0xbd64c908	-0.05585578
21	0x3d64b63e	0.055837862
22	0x3d4cfd8d	0.050046492
23	0x3d8b9cbc	0.06817004
24	0x3d33d2f5	0.043902356
25	0xbccb3084	-0.024803407
26	0xbd5bb8d2	-0.053643055
27	0xbb8aa941	-0.0042316024
28	0x3cec84f6	0.028871994
29	0x3caa98b6	0.020824771
30	0xbd896883	-0.06709387
31	0x3d0da54a	0.03458146
32	0xbd3abdb8	-0.045591086
33	0x3d57e537	0.05270883
34	0x3cb1742e	0.021661844
35	0xbd3cdcfb	-0.04610918
36	0x3dac1d25	0.084039964
37	0xbc839e20	-0.01606661
38	0xbd47b011	-0.048751894
39	0x3d9b1daf	0.07574021
40	0x3d81d4cf	0.06339418
41	0xbd95fea3	-0.07323959
42	0xbd9aefad	-0.07565246
43	0x3da05c21	0.07830072
44	0xbd29ebed	-0.041484762
45	0x3da1aa02	0.078937545
46	0x3da76c20	0.0817492
47	0x3db06d6b	0.0861462
48	0xbd964f83	-0.073393844
49	0x3d9900fe	0.07470892
50	0x3d82ac96	0.063805744
51	0x3ce7d270	0.028298587
52	0xbd38a3b8	-0.04507801
53	0x3d2df4be	0.042469732
54	0xbdaccf8a	-0.084380224
55	0xbd29980e	-0.041404776
56	0x3d8350c0	0.06411886
57	0x3d43ed9d	0.047834028
58	0xbd631278	-0.055437535
59	0xbc97df28	-0.018539026
60	0xbc9cb946	-0.019131314
61	0xbdbd677c	-0.09248254
62	0xbc0cc552	-0.008591967
63	0xbcb91b39	-0.022595989
64	0xbda7cb61	-0.08193088
65	0x3da3e30f	0.08002292
66	0xbd727dd7	-0.05920204
67	0x3d1a4afa	0.03766916
68	0xbd3712e1	-0.04469574
69	0xbd70ed4e	-0.05882006
70	0xbda8b66f	-0.082379214
71	0xbd0da2cd	-0.034579087
72	0x3ccda151	0.025101336
73	0x3c835878	0.016033396
74	0xbce99680	-0.028514147
75	0x3d179be9	0.037013922
76	0xbc6132c9	-0.013745018
77	0xbd76da53	-0.060266804
78	0xbd935276	-0.071934626
79	0x3d26b9c2	0.040704496
80	0x3ceb757d	0.028742546
81	0x3ca1be18	0.019743964
82	0x3d21b826	0.03948226
83	0xbd8b33ab	-0.06796964
84	0x3d36dfb4	0.044646934
85	0x3d8abaea	0.06773932
86	0x3dbab233	0.0911602
87	0xbd8f45ea	-0.06995757
88	0x3cdf7cd1	0.027281197
89	0x3d1339c4	0.03594376
90	0x3cea8ea8	0.028632477
91	0x3d934414	0.07190719
92	0x3db1af79	0.08676047
93	0x3da17651	0.07883895
94	0x3d661c69	0.056179438
95	0xbd1af4b1	-0.037831012
96	0x3ced18c5	0.028942475
97	0x3d176edd	0.03697096
98	0x3d8be8ac	0.06831488
99	0xbd7ded77	-0.061994042
100	0x3cc64b12	0.024205718
101	0xbd9e0a70	-0.077168345
102	0xbd9e88e7	-0.07740956
103	0x3d12ea40	0.03586793
104	0xbd489ed2	-0.048979588
105	0x3db030c4	0.08603051
106	0x3dac3507	0.08408552
107	0xbd8f0184	-0.06982711

conv6.weight f4 [1, 3, 6, 6]
0	0xbd7e55ac	-0.06209342
1	0xbd17a539	-0.037022803
2	0x3db957ea	0.090499714
3	0xbdb06a8d	-0.08614073
4	0x3d6b29aa	0.05741278
5	0xbd50de0e	-0.050993018
6	0xbabd8a01	-0.0014460684
7	0xbdb04d1e	-0.08608459
8	0x3b1515e3	0.0022748641
9	0x3d254717	0.040351
10	0x3d97240e	0.07379924
11	0x3c4ee4aa	0.01262776
12	0xbdb7d2ac	-0.08975729
13	0xbdab2037	-0.08355754
14	0xbc38a89c	-0.011270668
15	0x3c074e9c	0.008258488
16	0xbcc6188e	-0.02418163
17	0x3d08ee74	0.03343053
18	0x3d415d32	0.04720802
19	0xbb074ca7	-0.0020645054
20	0x3d2e1182	0.042497166
21	0xbd3e46b7	-0.046454158
22	0x3c0e56fd	0.008687732
23	0x3d1be276	0.038057767
24	0xbd0b08c1	-0.033943895
25	0xbd1cfa9e	-0.038324945
26	0xbda31957	-0.079638176
27	0xbd8fef78	-0.07028097
28	0x3caaad47	0.020834578
29	0x3d0ae5f7	0.033910718
30	0xbd3b4ae1	-0.045725707
31	0x3db21ce6	0.08696918
32	0x3d6c86c0	0.057745695
33	0x3c5269e8	0.012842633
34	0xbdb05b53	-0.08611169
35	0xbd1a40d7	-0.037659492
36	0xbd5f155d	-0.054463733
37	0xbd52c3a2	-0.0514561
38	0x3d8f388a	0.06993206
39	0x3d00da3d	0.03145813
40	0xbd217e43	-0.039427053
41	0xbdb6cf4f	-0.0892626
42	0x3d94acec	0.07259545
43	0xbd62c574	-0.055364087
44	0x3d7582a5	0.059939045
45	0x3d98f01b	0.074676715
46	0xbd4da072	-0.05020184
47	0x3dba5fc3	0.09100296
48	0xbd7434ac	-0.059620544
49	0x3d9912c9	0.07474286
50	0xbdbc11f5	-0.091831125
51	0x3d01476b	0.03156225
52	0x399c87e5	0.00029855888
53	0xbd9de91a	-0.07710476
54	0xbd273ae2	-0.04082764
55	0xbdbd1d3d	-0.092340924
56	0xbd109d53	-0.035306286
57	0xbc5de71b	-0.013543869
58	0x3d7992fe	0.0609312
59	0xbdc37c1d	-0.09545157
60	0x3d35ff20	0.04443276
61	0xbc6197ba	-0.013769085
62	0x3dac85e5	0.08423976
63	0x3d5b8f00	0.053603172
64	0x3daa7c76	0.0832452
65	0xbd458369	-0.048221026
66	0xbd9a4528	-0.07532722
67	0x3d81ab29	0.06331474
68	0x3d872888	0.065995276
69	0xbd6a43f2	-0.057193704
70	0x3c306061	0.010765166
71	0xbdb989cc	-0.09059486
72	0xbd54c2ef	-0.051943716
73	0x3c00161f	0.007817774
74	0xbd522947	-0.051308896
75	0x3d7a819a	0.061158754
76	0x3dc219e9	0.09477598
77	0x3db097ea	0.08622725
78	0xbd661a64	-0.05617751
79	0xbdb9849f	-0.090584986
80	0xbcb22124	-0.021744318
81	0xbd9832ab	-0.07431539
82	0x3d4865b8	0.04892513
83	0x3d5126f5	0.051062543
84	0xbcc60d6e	-0.024176326
85	0x3bafbf23	0.0053633614
86	0xbcf31f7c	-0.029678099
87	0xbd7b4083	-0.06134082
88	0x3d9e1a03	0.07719805
89	0xbd2172de	-0.039416187
90	0xbbe2636b	-0.006908824
91	0xbce8f1e1	-0.02843565
92	0x3d95a320	0.07306504
93	0xbdc5b99b	-0.09654542
94	0x3d3535db	0.044240814
95	0x3d8ec8ea	0.06971915
96	0x3d4c43f3	0.04986949
97	0x3d383854	0.044975594
98	0xbceb3465	-0.028711507
99	0x3d82e756	0.0639178
100	0xbd57ef73	-0.05271859
101	0x3c857467	0.016290857
102	0xbdae9025	-0.08523587
103	0xbcce4c1b	-0.025182774
104	0xbdb57c68	-0.08861619
105	0x3d85365d	0.065045096
106	0xbcca7b39	-0.02471696
107	0x3c0dad14	0.008647222

conv7.weight f4 [1, 2, 6, 6]
0	0xbc90853b	-0.017641654
1	0x3c92e34f	0.017930655
2	0xbd2b4ce1	-0.041821364
3	0xbcca3bca	-0.024686713
4	0x3d32d9cf	0.04366475
5	0xbd7a9299	-0.061174963
6	0x3d7550a4	0.059891358
7	0x3cf5cdc4	0.030005343
8	0x3d81b192	0.06332697
9	0x3da2c9d2	0.079486504
10	0x3dd11c45	0.1021047
11	0xbd1e78cb	-0.038689416
12	0xbcc83890	-0.024441034
13	0x3c52b8f9	0.012861484
14	0x3d88c53f	0.06678247
15	0x3d5e0a22	0.054208882
16	0xbd29ccaf	-0.041454967
17	0xbdcb0b51	-0.09914268
18	0xbd2c913c	-0.042130694
19	0x3dd3a030	0.10333288
20	0xbde1f889	-0.110337324
21	0xbcbb3dcc	-0.022856615
22	0x3bbac541	0.005699784
23	0xbd041bb6	-0.03225299
24	0x3d891b47	0.06694656
25	0xba438774	-0.0007458844
26	0x3dc2cb23	0.095114015
27	0xbd505554	-0.050862625
28	0x3dcc3e6f	0.09972846
29	0xbcdbf772	-0.02685139
30	0x3c9d03ed	0.019166911
31	0x3d86d4c0	0.065835476
32	0x3ca471d0	0.020073801
33	0x3dd9cfbf	0.106353275
34	0xbd1e2d69	-0.038617525
35	0x3d304320	0.043032765
36	0x3d49ffc4	0.049316183
37	0x3d58f1b1	0.05296487
38	0x3de563af	0.11200654
39	0x3d2a87c3	0.04163338
40	0xbd8b28ba	-0.06794877
41	0xba750468	-0.0009346665
42	0xbde6cfa0	-0.1127007
43	0xbdb150a5	-0.0865796
44	0xbd72aa05	-0.059244175
45	0x3d144d1c	0.03620635
46	0x3d424b57	0.04743513
47	0x3d2ca326	0.042147778
48	0xbda19dba	-0.07891412
49	0x3db9e8ec	0.090776294
50	0x3d5513f0	0.052020967
51	0x3aa53bb6	0.0012606296
52	0x3d0b021f	0.03393757
53	0xbb993a82	-0.004676164
54	0xbdb75fa6	-0.0895379
55	0xbd8b6e65	-0.068081655
56	0x3d03cb91	0.032176558
57	0xbdf062e1	-0.1173761
58	0xbda6a298	-0.08136481
59	0x3db9f3c2	0.09079696
60	0x3dd76ba7	0.1051858
61	0xbdecab43	-0.11556103
62	0xbdc6df3e	-0.09710549
63	0xbc713538	-0.014722161
64	0x3d524c59	0.051342342
65	0xbcb394f8	-0.02192162
66	0x3d5cb577	0.053883996
67	0xbde5de29	-0.11224014
68	0x3d469f18	0.048491567
69	0xbc94a391	-0.0181444
70	0x3ddf3dcf	0.10900461
71	0xbd9cba70	-0.07652748
