siamese-models/siam_v2_24.pth (torch, 102187 bytes, 11 tensors)

conv1.weight f4 [14, 31, 6, 6]
0	0xbcd8cbcd	-0.026464367
1	0x3ca969a2	0.020680252
2	0x3c9395b7	0.018015726
3	0xbb841d21	-0.0040317927
4	0xbbbc7743	-0.005751522
5	0x3cd27d28	0.025694445
6	0x3cadcc2c	0.02121552
7	0x3b4fab02	0.0031687622
8	0xbc867aa5	-0.016415903
9	0x3a99093a	0.0011675723
10	0x3cb7dd89	0.022444503
11	0xbc8edabf	-0.01743829
12	0x3cc812b3	0.024422979
13	0xbccf0042	-0.025268678
14	0xbc644aa0	-0.013933808
15	0x3cd2f491	0.025751384
16	0xbc5c0140	-0.013428032
17	0x3ba45e19	0.0050161
18	0xba44f6b5	-0.0007513569
19	0x3bbbcb61	0.0057310318
20	0xbcd9d600	-0.026591301
21	0x3ccacab9	0.024754869
22	0x3ce85712	0.02836183
23	0x3b25168c	0.002519044
24	0x3ca0ee37	0.01964484
25	0xbc83e509	-0.016100423
26	0x3c84812a	0.016174871
27	0xbc1e6460	-0.009667486
28	0x3bc84b92	0.0061125243
29	0x3c1cb6e9	0.009565094
30	0x3b038d7c	0.0020073345
31	0xbbb17805	-0.005415919
32	0xbcb8b3f7	-0.022546751
33	0x3ca50303	0.020143038
34	0x3cd85cb4	0.026411392
35	0xbcc2bd2b	-0.023771843
36	0xbc23a726	-0.009988582
37	0x3ca927e4	0.020648904
38	0xba4f5f2f	-0.0007910607
39	0x3c392e4c	0.011302542
40	0xbc0c9033	-0.008579302
41	0x3cea0851	0.028568419
42	0x3c1b449a	0.009476805
43	0xbcd4caf7	-0.025975687
44	0x3ca62c4d	0.020284796
45	0xbcbce892	-0.023060117
46	0x3c998e4e	0.018744614
47	0x3c29b9e4	0.010359261
48	0x3cbbc4cb	0.022920987
49	0x3ccbc485	0.024873981
50	0xbc2f22c7	-0.010689444
51	0x3be10c32	0.006867909
52	0xbc004f5f	-0.007831424
53	0xbce96fce	-0.028495695
54	0x3bccfc96	0.0062556965
55	0xbcd9dbe2	-0.026594106
56	0xbc449e03	-0.012000564
57	0x3cdb177f	0.026744602
58	0x3cd0f6d8	0.02550833
59	0x3c011f1d	0.007880953
60	0xbc373fb1	-0.011184619
61	0xbc66f5e4	-0.014096711
62	0x3cf10e53	0.029425776
63	0x3cb8eb09	0.022573011
64	0x3c9ee168	0.019394591
65	0xbb7f9275	-0.0038997207
66	0xbccbd5f9	-0.024882304
67	0xbb052c1b	-0.0020320478
68	0xbc9f90f2	-0.019478295
69	0x3ca2baa7	0.019864393
70	0x3ceaadc4	0.028647311
71	0xbcceb11e	-0.02523094
72	0x3cef2ba0	0.029195607
73	0xbceb0282	-0.02868772
74	0x3b69a30e	0.0035650167
75	0x3cf3f178	0.029778227
76	0xbccc60d2	-0.024948511
77	0xbc9e3ce5	-0.019316146
78	0xbc285988	-0.010275252
79	0x3c99a064	0.018753238
80	0xbba2ca4b	-0.004967963
81	0xbba8afbb	-0.005147902
82	0x3c9b1a89	0.018933551
83	0xbab19bdf	-0.0013550482
84	0x3ce237c8	0.02761449
85	0xbb56f76c	-0.0032801284
86	0xbb0567de	-0.00203561
87	0xbc5de20f	-0.013542666
88	0x3bfde249	0.0077479226
89	0xbc2852c3	-0.010273638
90	0xbc46f517	-0.012143395
91	0x3b88807f	0.0041657086
92	0x3cbca2aa	0.023026783
93	0xbce31e4d	-0.02772441
94	0xbc47f0bd	-0.012203393
95	0xbcb36b28	-0.021901682
96	0xbc728c07	-0.014803893
97	0x3c25d0c5	0.010120575
98	0x3c186497	0.009301326
99	0x3ccf0837	0.025272472
100	0xbcc37165	-0.023857782
101	0xbcd504df	-0.0260033
102	0x3cc93233	0.02456007
103	0xbcd853fc	-0.026407234
104	0x3c50319d	0.012707141
105	0x3c514be9	0.012774446
106	0xbccdb1bc	-0.025109164
107	0xbc83bc06	-0.016080867
108	0x3cf0b565	0.02938337
109	0xbac1dd58	-0.0014790697
110	0x3caf6d88	0.021414533
111	0xbacb6133	-0.0015516639
112	0xbc9d6bc5	-0.019216428
113	0xbcd0d9af	-0.025494425
114	0xbb414f3e	-0.0029496695
115	0xbcb55468	-0.022134975
116	0x3c533c3d	0.01289278
117	0xbb59720b	-0.0033179547
118	0x38a27bb9	7.747807e-05
119	0xbbf68741	-0.0075234477
120	0xbca109db	-0.01965802
121	0x3abf0232	0.0014572798
122	0xbc637a1a	-0.013884092
123	0xbb6a0959	-0.0035711138
124	0xbcb39be9	-0.02192493
125	0x3c9fb3ab	0.019494852
126	0xbb23e7d4	-0.0025010007
127	0xbcc0e3ca	-0.023546118
128	0xbb944571	-0.0045248796
129	0xbcc9a2ac	-0.0246137
130	0xbcb082e0	-0.021546781
131	0xba9de1ea	-0.0012045477
132	0xbcc0be3e	-0.023528215
133	0xbcec9ec0	-0.028884292
134	0x3bcb2c33	0.0062003373
135	0xbc5517a5	-0.013006126
136	0xbca67d7b	-0.020323506
137	0x3b7022d9	0.0036641865
138	0x3c84e613	0.01622299
139	0xbbc7e929	-0.006100793
140	0xbc7cc01b	-0.015426661
141	0x3b2fb8b8	0.0026812982
142	0x3bab6481	0.005230487
143	0xbcec7911	-0.028866323
144	0xbca0ad62	-0.019613925
145	0x3cb95b4d	0.022626543
146	0xbc5de239	-0.013542705
147	0x3cdd279a	0.026996423
148	0x3bf1eb49	0.0073827845
149	0x3b5635b8	0.0032685827
150	0x3c8dc9ae	0.017308082
151	0xbcd3fb8e	-0.025876787
152	0xbc0b5f9b	-0.008506681
153	0x3c276c23	0.010218653
154	0x3a576b04	0.00082175457
155	0x3c8dbd51	0.017302187
156	0x3cbd8d23	0.023138588
157	0xbc86d78a	-0.016460199
158	0x3cc19593	0.023630893
159	0xbc42bc92	-0.011885779
160	0xbcc53f8e	-0.024078157
161	0xbca530d0	-0.020164877
162	0x3c54ddd5	0.012992342
163	0x3ca0c305	0.019624243
164	0xbca9f6d1	-0.020747574
165	0xbce229ce	-0.027607825
166	0xbcc34161	-0.023834886
167	0x3cc1efe4	0.02367396
168	0xbb68f73f	-0.003554776
169	0xbce74e45	-0.028235564
170	0xbcc9918c	-0.024605535
171	0x3c69ce01	0.014270307
172	0xbcdf4fa1	-0.02725965
173	0x3cdec295	0.027192393
174	0x3cb9ce42	0.02268136
175	0x3ca30802	0.01990128
176	0xbc66bfd5	-0.014083822
177	0xbcc10449	-0.023561614
178	0xbbff2b4a	-0.007787143
179	0x3cdaebff	0.02672386
180	0xbcb52d50	-0.022116333
181	0xbcde34f6	-0.027124863
182	0x3c7b9b68	0.015356876
183	0xbcc52cf8	-0.024069294
184	0x3c9925c9	0.018694775
185	0x3af31c26	0.0018547818
186	0x3c6e3dac	0.014541071
187	0xbc3d2287	-0.0115438765
188	0xbc1f4509	-0.009721049
189	0xbc139d55	-0.009009679
190	0xbc4d18db	-0.012518133
191	0xbc8d8e14	-0.017279662
192	0x3be48857	0.006974261
193	0x3b8df103	0.0043317094
194	0x3c09d7be	0.008413253
195	0x3c8503c8	0.016237155
196	0xbc8c6965	-0.0171401
197	0x3befd3ad	0.007318935
198	0xbca96be5	-0.020681331
199	0xbc9d20b9	-0.019180642
200	0x3c13edb0	0.009028837
201	0xbc2ea44f	-0.010659291
202	0x3cd790a1	0.026314082
203	0xbc3b43d6	-0.011429748
204	0x3cc91d6c	0.024550162
205	0x3cbcbd7a	0.023039568
206	0x3c8d6eef	0.017264811
207	0x3c631d69	0.013861992
208	0xbca16ef6	-0.01970623
209	0xbc84c201	-0.01620579
210	0xbbabec14	-0.0052466486
211	0xbc45a660	-0.012063593
212	0x3c79501f	0.015216856
213	0x3bab56b0	0.00522884
214	0x3c78452f	0.015153213
215	0x3bd79ab6	0.0065797223
216	0xbcd1ec66	-0.025625419
217	0xbb1c586b	-0.0023856412
218	0x3ce137d6	0.027492445
219	0xbcada87e	-0.021198507
220	0x3c6991f5	0.01425599
221	0xbcf0ae83	-0.029380089
222	0x3cbbe2a8	0.022935227
223	0x3c097162	0.008388849
224	0x3c9ece75	0.019385556
225	0x3c602849	0.01368148
226	0xb9139595	-0.00014074736
227	0x3ca14d35	0.019690135
228	0xbc0f62e0	-0.008751601
229	0x3c20485a	0.009782875
230	0xbb4f9f4e	-0.0031680646
231	0x3c2436b3	0.010022807
232	0xbcaaf416	-0.020868342
233	0xbccb7be3	-0.024839347
234	0xbb8949fe	-0.0041897288
235	0xbcaaeb1c	-0.020864062
236	0xbc9567ce	-0.018237974
237	0xbceaa89e	-0.028644856
238	0x3cdfd566	0.027323436
239	0xbcbf6281	-0.0233624
240	0x3ce58d45	0.028021464
241	0x3c5110f9	0.012760394
242	0x3c444851	0.011980132
243	0x3cb7388a	0.022365827
244	0xbc3c3aa7	-0.011488593
245	0x3c221aeb	0.009894113
246	0x3cef7d88	0.029234663
247	0x3c6e654c	0.014550518
248	0x3cecac19	0.028890656
249	0xba9f4e5a	-0.0012154088
250	0xbc99efc0	-0.01879108
251	0xbc7a9451	-0.01529415
252	0x3c0f5e7d	0.008750555
253	0xbccc3b50	-0.024930626
254	0x3c1e34a3	0.009656104
255	0x3ccac11f	0.02475029

conv1.bias f4 [14]
0	0xbc6c4f3a	-0.014423186
1	0xbc547890	-0.012968197
2	0xbcb88329	-0.02252348
3	0xbc9e0420	-0.019289076
4	0x3c7b5df4	0.015342224
5	0xbc859679	-0.016307103
6	0xbc81bfc5	-0.015838513
7	0xbc361b84	-0.011114959
8	0xbc67edfe	-0.014155863
9	0xbb9e6bfc	-0.00483465
10	0xbc37f788	-0.01122845
11	0x3c649d18	0.01395347
12	0xbc8d74a8	-0.01726754
13	0x3bd8da18	0.0066177957

conv2.weight f4 [7, 14, 6, 6]
0	0x3c320e73	0.010867703
1	0xbd175ccc	-0.036953732
2	0xbd26aa2f	-0.040689643
3	0xbc87abda	-0.016561437
4	0x3d26c460	0.04071462
5	0xbccec7b7	-0.025241716
6	0x3c647762	0.013944479
7	0xbcf5f27d	-0.030022854
8	0x3d170c49	0.03687695
9	0x3d163935	0.03667565
10	0x3cab7d05	0.020933637
11	0xbc9b49a9	-0.018956022
12	0xbd12192d	-0.03566854
13	0x3c4d9fe1	0.012550325
14	0x3d13dff7	0.03610226
15	0xbc4e4a5b	-0.01259097
16	0xbc9efaad	-0.01940664
17	0x3d2f8ca0	0.04285872
18	0x3d2ff3ac	0.042956993
19	0xbc04257a	-0.008065576
20	0x3d088024	0.03332533
21	0xbc18b66f	-0.009320839
22	0x3d26e539	0.040745948
23	0xbd0d42ee	-0.034487657
24	0x3cd99b61	0.026563348
25	0x3b8e0f9d	0.0043353573
26	0x3cf407cd	0.029788876
27	0x3c20fee2	0.009826394
28	0x3c96b788	0.018398061
29	0xbc1e5ccd	-0.00966568
30	0x3cd6b04c	0.026207112
31	0xbd352471	-0.044224206
32	0xbb4cee04	-0.0031269798
33	0xbc7bee7b	-0.015376682
34	0xbb7ee080	-0.0038891137
35	0xbd194483	-0.037418853
36	0xbc75552c	-0.01497392
37	0x3ce96938	0.028492555
38	0x3d178846	0.036995195
39	0xbb452d56	-0.0030086837
40	0xbc705215	-0.014668007
41	0xbcf537f3	-0.029933905
42	0x3c57ccc8	0.013171382
43	0x3d137dfe	0.036008827
44	0x3cc7184f	0.024303583
45	0x3d11a121	0.035554055
46	0x3b6a447c	0.0035746386
47	0x3ca8f52c	0.02062472
48	0x3c53d4fc	0.012929197
49	0xbcfbceee	-0.03073832
50	0x3c1c5680	0.009542108
51	0xbce4199f	-0.027844248
52	0x3cbe4d8a	0.023230333
53	0xbc97867c	-0.018496744
54	0xbcfe66d5	-0.031054894
55	0xbb346070	-0.0027523302
56	0x3a57bf35	0.0008230091
57	0xbcced120	-0.025246203
58	0xbd260885	-0.04053547
59	0xbd17fccd	-0.037106324
60	0x3d1d2b4c	0.03837137
61	0x3cfb95e9	0.030711131
62	0x3ce05249	0.027382987
63	0x3bb8f3ef	0.0056443135
64	0xbc90971e	-0.017650183
65	0x3b8b16f9	0.004244682
66	0x3cb6353f	0.022242187
67	0xbcc5af69	-0.024131494
68	0x3c5ae975	0.013361325
69	0x3b266ffb	0.0025396335
70	0x3a0d2e53	0.0005385626
71	0x3c5e8563	0.013581607
72	0xbc1a6a00	-0.009424686
73	0xbc21a3d9	-0.0098657245
74	0x3c86c18d	0.016449714
75	0x3d2042ed	0.039126325
76	0xbc52b3c6	-0.012860244
77	0xbb17a634	-0.0023139836
78	0x3c4a5759	0.012349927
79	0x3ce30ec6	0.027717005
80	0xbd30b97a	-0.043145634
81	0x3c867a54	0.016415752
82	0xbd0b62d7	-0.034029808
83	0x3bcf199c	0.0063201915
84	0x3caa7608	0.020808235
85	0x3bf2ac47	0.007405791
86	0x3c5f6092	0.013633864
87	0xbc6b5745	-0.014364068
88	0xbc8ab269	-0.016930776
89	0x3c60d1d9	0.013721907
90	0xbd1f43ee	-0.038883142
91	0xbcc95943	-0.024578696
92	0x3c1138b4	0.008863617
93	0xbc83702b	-0.016044697
94	0xbcd7f5d4	-0.026362337
95	0x3d083fae	0.033263855
96	0x3c5af101	0.013363124
97	0x3c99e494	0.018785752
98	0x3b2592cb	0.0025264497
99	0x3ca70f38	0.020392999
100	0xbc5d3c7b	-0.013503189
101	0xba8a1406	-0.0010534532
102	0xbccaed5b	-0.024771383
103	0x3d13a461	0.036045436
104	0xbcfbb299	-0.03072481
105	0xbcdea726	-0.027179312
106	0xbb9688e1	-0.004593954
107	0xbc8f2444	-0.017473347
108	0x3d319309	0.043353114
109	0x3d124e85	0.035719413
110	0xbcd679f0	-0.026181191
111	0xbcd0b48d	-0.025476718
112	0xbcf5382e	-0.029934015
113	0xbce6e090	-0.028183252
114	0xbd05ac1e	-0.032634847
115	0xbb75f306	-0.0037528886
116	0xbc3d6a9b	-0.011561061
117	0x3bc68213	0.0060579865
118	0x3c8a4c49	0.016882079
119	0x3d0bfdc1	0.034177545
120	0x3c1d3bb6	0.009596756
121	0xbd301111	-0.042985026
122	0x3cda2227	0.026627613
123	0x3b935e1b	0.004497302
124	0xbcc1af7c	-0.023643248
125	0xbd158972	-0.03650803
126	0xbcc0f510	-0.023554355
127	0xbd085e85	-0.033293266
128	0x3c14402a	0.009048501
129	0xbbbe1962	-0.0058013657
130	0x3c859a8f	0.01630905
131	0x3d0f0f3f	0.03492665
132	0xbd263a81	-0.040583137
133	0xbd1771c7	-0.03697374
134	0xbd30a06b	-0.043121736
135	0x3ae8ca09	0.0017760406
136	0x3d030432	0.031986423
137	0x3c58cf6f	0.01323305
138	0xbd0e1bd9	-0.034694526
139	0xbd0ba9ee	-0.034097604
140	0x3d336cc6	0.043804906
141	0xbcc044ba	-0.023470271
142	0x3cceb7cf	0.025234131
143	0xbc003fc0	-0.007827699
144	0xbd12a03f	-0.035797354
145	0xbd29f4ce	-0.04149323
146	0xbc0ade3a	-0.0084758345
147	0xbd041337	-0.032244887
148	0x3d1e0960	0.03858316
149	0xbd1c854f	-0.03821307
150	0xbd1e164d	-0.038595486
151	0x3d0cc77e	0.034369938
152	0xbcbfbc2a	-0.023405153
153	0xbd18f6bd	-0.037344683
154	0x3abf88bc	0.0014612894
155	0x3ccaf545	0.024775157
156	0x3d30d810	0.043174803
157	0x3d11048a	0.03540472
158	0x3c86e80d	0.016468072
159	0xbc81cf51	-0.015845926
160	0x3d141e51	0.036161724
161	0xbc96cfe5	-0.018409679
162	0x3cd0cbe2	0.025487844
163	0xbc9b0e29	-0.01892765
164	0xbcd87ac9	-0.026425736
165	0x3cee0f0c	0.02905991
166	0xbd05e817	-0.03269204
167	0xbc953634	-0.018214323
168	0xbca32abe	-0.019917842
169	0xbd2c26c0	-0.042029142
170	0xbacac8a5	-0.0015471174
171	0x3b581cd7	0.0032976174
172	0xbcf6a6d6	-0.03010885
173	0x3cc723f9	0.024309145
174	0x3cedd6df	0.029033123
175	0xbc2e9c3e	-0.010657368
176	0xbd2a2b5d	-0.04154526
177	0x3b9e3983	0.0048286333
178	0xbd359341	-0.044329885
179	0x3cbd2fef	0.023094146
180	0xbc91d565	-0.01780195
181	0xbc0f2832	-0.008737611
182	0x3cfe311f	0.031029282
183	0x3c055e97	0.008140228
184	0x3c9ae247	0.018906726
185	0xbc9f2abb	-0.019429555
186	0xbca87990	-0.020565778
187	0x3cef9456	0.029245537
188	0xbd164ec2	-0.036696203
189	0x3c9c0b77	0.019048436
190	0x3d01d17b	0.031693917
191	0x3bdd45ce	0.006752706
192	0x3d1cc517	0.038273897
193	0x3d1c2ee0	0.03813064
194	0xbbe455cc	-0.0069682356
195	0xbd127f15	-0.035765726
196	0x3a903513	0.0011002145
197	0x3d1f154d	0.038838673
198	0xbd2d0a83	-0.042246353
199	0x3c34a6e4	0.011026118
200	0xbd312d3a	-0.043256022
201	0x3c4b76fb	0.012418504
202	0xbd0aa688	-0.033850223
203	0x3c083dc2	0.008315505
204	0xbcb5aa5f	-0.022175966
205	0xbc2bc90d	-0.010484946
206	0xbc73760c	-0.014859688
207	0xbce32743	-0.027728682
208	0x3c561daf	0.013068601
209	0xbd06c969	-0.032906923
210	0x3b55f888	0.0032649357
211	0xbcd80981	-0.02637172
212	0xbd09b4ca	-0.03361968
213	0xbcd011e9	-0.025399165
214	0xbd0800ba	-0.033203818
215	0xbbfa9189	-0.0076467437
216	0xbd2ec2ee	-0.04266637
217	0xbc2ad0eb	-0.0104257865
218	0xbbd0692b	-0.0063601932
219	0x3cccfaa8	0.025021866
220	0xbcbed9bf	-0.023297189
221	0x3b2f79bc	0.002677544
222	0x3c9ea718	0.019366786
223	0xbd20145e	-0.039081924
224	0xbd1dd519	-0.038533304
225	0xbcc3b983	-0.02389217
226	0xbd0060c5	-0.031342287
227	0x3d238318	0.039919943
228	0xbb7e93f3	-0.0038845509
229	0x3cc8c522	0.024508063
230	0x3ce48f28	0.027900293
231	0xbd0e1bbf	-0.03469443
232	0xbcb4f1e4	-0.022087999
233	0xbb1ccc6a	-0.0023925551
234	0xbc8ff863	-0.017574495
235	0xbcd5471a	-0.02603488
236	0xbd28b90d	-0.041192103
237	0xbc8ce4a7	-0.017198874
238	0xbc942062	-0.018081848
239	0x3d20afb6	0.03923007
240	0x3c9f7589	0.019465225
241	0x3c6b770d	0.014371646
242	0xbc240bae	-0.01001255
243	0xbb8b2fdf	-0.00424765
244	0xbcf78b07	-0.03021766
245	0x3cd65ff8	0.026168808
246	0xbccfc1e1	-0.025361003
247	0x3c8dd70e	0.01731446
248	0x3a9b5608	0.0011851201
249	0xbc6c10a5	-0.014408265
250	0xbb1f0fae	-0.002427082
251	0xbb8351a5	-0.0040075355
252	0x3d11f05a	0.035629608
253	0xbc721231	-0.014774845
254	0xbc87a886	-0.01655985
255	0x3d348a84	0.04407741

conv2.bias f4 [7]
0	0xbcdb7248	-0.026787892
1	0xbcc823b0	-0.02443108
2	0x3cb2bf90	0.02181986
3	0x3c6187bc	0.013765272
4	0xbc6af2da	-0.014340127
5	0xbc9adb49	-0.018903391
6	0x3b192850	0.0023369975

conv3.weight f4 [7, 14, 6, 6]
0	0xbcd61eaf	-0.026137678
1	0xbc06e87f	-0.008234142
2	0x3d217a46	0.03942325
3	0xbcf11c5a	-0.029432464
4	0xbc1eea31	-0.00969939
5	0xbb67fdcb	-0.0035399075
6	0x3d0e0704	0.03467466
7	0xbb8a3d95	-0.004218767
8	0x3c493581	0.012280823
9	0x3d144006	0.03619387
10	0xbb2fde58	-0.0026835408
11	0xbc8d1182	-0.017220262
12	0x3ca0f5ec	0.019648515
13	0xba5eb959	-0.0008496247
14	0x3d0598e8	0.032616526
15	0xbcd68dfd	-0.026190752
16	0x3c2ffee7	0.010741926
17	0x3c468cbc	0.012118515
18	0x3caae15f	0.020859418
19	0xbcd85643	-0.02640832
20	0x3ce97458	0.02849786
21	0xbd2e4e86	-0.042555355
22	0xbc147858	-0.009061895
23	0x3d2dbf97	0.042419042
24	0x3c6ff9a0	0.014646918
25	0x3d070423	0.03296293
26	0x3c238143	0.009979549
27	0xbc72ecc7	-0.01482696
28	0x3d180bb4	0.037120536
29	0x3d2c67ea	0.042091288
30	0xbca3372e	-0.019923773
31	0xbb86bfd7	-0.0041122246
32	0xbce68473	-0.028139329
33	0xbc557a07	-0.013029582
34	0x3d203a65	0.03911819
35	0x3ce602d3	0.028077519
36	0x3c07d99d	0.008291629
37	0xbcfae4e1	-0.030626716
38	0x3c5c1f69	0.013435223
39	0xbd1af721	-0.037833337
40	0x3ca15395	0.019693175
41	0xbcc60979	-0.024174439
42	0x3bd40b9c	0.0064711105
43	0xbcbb148e	-0.02283695
44	0xbc1d2938	-0.009592347
45	0x3c89d167	0.016823484
46	0xbd2d8893	-0.042366575
47	0x3cd410df	0.025886951
48	0x3cc8c0fd	0.024506086
49	0x3cdf9dbb	0.027296891
50	0x3d2b3400	0.041797638
51	0xbc4a4de6	-0.012347674
52	0xbd2faa5f	-0.042887088
53	0xbcb9a6ed	-0.022662604
54	0x3c9361ff	0.017991064
55	0xbcb07dcd	-0.021544361
56	0x3d23ce37	0.039991584
57	0x3d07b240	0.033128977
58	0x3d1b1cee	0.037869386
59	0xbbe2b7f1	-0.0069189
60	0xbcd04c0e	-0.02542689
61	0x3c9dcfd9	0.019264149
62	0x3c082d25	0.008311545
63	0xbd0516ee	-0.03249257
64	0x3c2abcbc	0.010420974
65	0x3bd10fd9	0.006380063
66	0x3b38eb54	0.0028216438
67	0xbd1f9411	-0.038959567
68	0x3d2e78e3	0.042595755
69	0xbc2190af	-0.009861155
70	0xbcae3873	-0.021267151
71	0xbd342efa	-0.043990113
72	0x3cedd888	0.029033914
73	0x3c6dd8b5	0.014516999
74	0x3d1e24a8	0.038609177
75	0xbd03932e	-0.032122783
76	0xbcf1449b	-0.029451659
77	0xba740a95	-0.0009309438
78	0x3ce2b91c	0.027676158
79	0xbcadbf7a	-0.021209467
80	0x3d13a3d5	0.036044914
81	0xbd220ec5	-0.039564867
82	0x3be88473	0.0070958673
83	0x3d0f06c1	0.03491855
84	0xbd171e4a	-0.03689412
85	0x3cd83c8d	0.02639606
86	0xbca92113	-0.020645654
87	0xbd196f73	-0.037459802
88	0x3c474b3b	0.012163932
89	0x37ce44d1	2.4589159e-05
90	0x3cb67f3d	0.022277469
91	0x3d1aca4f	0.037790593
92	0x3c8017ac	0.015636288
93	0x3cba508f	0.022743491
94	0x3cd25d26	0.025679182
95	0xbcb1b239	-0.021691428
96	0x3c759f89	0.014991649
97	0x3c81b0d9	0.015831398
98	0xbadde2cf	-0.0016928556
99	0x3cf7804c	0.030212544
100	0xbc1865d3	-0.009301621
101	0x3c9ee951	0.019398363
102	0x3c7c3fbc	0.015396055
103	0xbcaf925a	-0.02143209
104	0xbd20cfbd	-0.039260615
105	0xbd2e8910	-0.04261118
106	0xbc926867	-0.017872049
107	0x3cd751bd	0.026284093
108	0xbd216971	-0.039407197
109	0xbcd2723c	-0.025689237
110	0x3d194cfb	0.03742693
111	0x3c718e77	0.014743439
112	0xbd0e5979	-0.034753297
113	0x3b52f079	0.003218679
114	0x3d097aeb	0.03356449
115	0x3cb8a6a4	0.022540398
116	0xbc2acc9a	-0.010424757
117	0xbd004de9	-0.0313243
118	0x3ca52355	0.02015845
119	0x3c3936b2	0.011304544
120	0x3cbb71af	0.022881357
121	0x3c38150d	0.011235488
122	0x3cd69e3b	0.026198497
123	0xbb5d48c4	-0.0033765296
124	0xbd06a565	-0.032872576
125	0x3ce38a48	0.027775899
126	0xbba5ed2b	-0.005063673
127	0xbd0bc69d	-0.03412496
128	0x3cee245c	0.029070072
129	0xbd152c21	-0.036419038
130	0x3ceaecc3	0.02867735
131	0xbd220899	-0.03955898
132	0xbcbde9a9	-0.023182707
133	0x3d10d4ac	0.03535907
134	0x3c0ecb0e	0.008715404
135	0xbcef714c	-0.029228829
136	0x3c759849	0.014989921
137	0x3c6b9ba2	0.0143803675
138	0x3c15b1ab	0.009136598
139	0xbd0f4f4b	-0.03498773
140	0xbcda4d81	-0.026648285
141	0x3d0a7290	0.03380066
142	0xbd10df28	-0.03536907
143	0xbd30dfc3	-0.043182146
144	0xbcc4cc4e	-0.024023201
145	0xbca91f5f	-0.020644842
146	0xbd0ea574	-0.034825757
147	0xbc489f19	-0.012244963
148	0xbccea8fa	-0.025227059
149	0x3c68abad	0.014201087
150	0xbcfe10ab	-0.031013807
151	0x3c836157	0.016037626
152	0x3ce0e545	0.027453074
153	0xbcfd8b58	-0.030950233
154	0x3c0e8dcd	0.0087008
155	0x3c85c66a	0.016329963
156	0x3cfc310d	0.030785108
157	0xbd16b196	-0.036790453
158	0x3b55b5b2	0.003260952
159	0xbce810b3	-0.028328275
160	0xbc652196	-0.013985058
161	0xbc91112d	-0.017708385
162	0x3d0c9135	0.034318168
163	0x3cda4b23	0.026647156
164	0xbd34bd89	-0.044126067
165	0x3cd8301d	0.02639013
166	0xbcb7d67c	-0.022441141
167	0x3c592ff5	0.013256063
168	0x3cd53b80	0.026029348
169	0x3d3214fc	0.043477044
170	0xbbb1ba94	-0.005423853
171	0x3a0c6f5f	0.0005357172
172	0xbbaf54d8	-0.0053506903
173	0x3c5482f0	0.012970671
174	0x3d01577b	0.03157757
175	0xbb872455	-0.004124204
176	0xbc14cb8f	-0.009081735
177	0x3c181a89	0.00928367
178	0xbd137b2b	-0.036006134
179	0x3cc280de	0.02374309
180	0x3bed445c	0.007240815
181	0xbd00f9fd	-0.031488407
182	0xbbe27cc1	-0.0069118445
183	0x3d2e24e7	0.04251566
184	0xbd0f62b9	-0.03500626
185	0xbc1eba4e	-0.009687973
186	0x3d0997ba	0.033591963
187	0xbae0596f	-0.0017116497
188	0xbce1c02d	-0.027557457
189	0xbca0834a	-0.019593854
190	0xbc83e330	-0.016099542
191	0x3c1c778f	0.009549989
192	0xbce8c957	-0.028416319
193	0xbca549e3	-0.020176833
194	0xbca945eb	-0.020663222
195	0x3d1e9b39	0.03872225
196	0xbc90e7a2	-0.017688576
197	0x3c7c9fd2	0.0154189635
198	0x3c49dffd	0.012321469
199	0xbcbee197	-0.023300929
200	0x3cbab550	0.022791535
201	0xbcc203d0	-0.023683459
202	0xbb7fdf48	-0.0039042998
203	0x3c45d41a	0.012074495
204	0x3d064a74	0.032785848
205	0x3ca782c1	0.02044809
206	0xbcb17bd8	-0.021665499
207	0xbd08cee8	-0.033400446
208	0xbcd93a87	-0.026517166
209	0x3c3cc009	0.011520394
210	0x3ce24d35	0.027624706
211	0xbc446648	-0.011987276
212	0x3cf9f028	0.030510023
213	0xbc2b00bc	-0.010437187
214	0x3c978c5f	0.018499551
215	0x3d191a55	0.037378628
216	0xbd101604	-0.035177246
217	0x3d291f00	0.04128933
218	0x3d20ecb5	0.03928824
219	0x3c9ffbad	0.019529188
220	0xbce38ed3	-0.027778065
221	0x3c8723fb	0.016496649
222	0x3d078110	0.033082068
223	0xbccb7fa5	-0.02484114
224	0xbc837ff5	-0.016052226
225	0x3c970514	0.018435039
226	0x3c789b03	0.015173676
227	0xbc98d30b	-0.01865532
228	0xbc74365f	-0.014905541
229	0xbd03888c	-0.032112643
230	0xbc3d1936	-0.011541655
231	0xbbb85def	-0.005626432
232	0xbc5bea68	-0.013422586
233	0xbb90ff1f	-0.004424944
234	0x3d238324	0.039919987
235	0x3c3b339c	0.011425879
236	0xbbde3fef	-0.006782524
237	0xbc5e330f	-0.013561978
238	0x3c511e6d	0.012763602
239	0xbaabefa3	-0.0013117682
240	0xbd080f38	-0.03321764
241	0xbca9cbb8	-0.020727023
242	0x3c9e17f5	0.019298533
243	0x3caad166	0.020851802
244	0x3ccb49c9	0.024815457
245	0x3d1baf0f	0.038008746
246	0xbb37cd7d	-0.0028046065
247	0xbd0c83be	-0.034305327
248	0x3d2d8d42	0.042371042
249	0xbbc5c0b7	-0.0060349363
250	0xbd2c98da	-0.042137958
251	0xbbc21d5e	-0.005923911
252	0xbcc468f7	-0.023975832
253	0x3d019083	0.031631958
254	0x3b9d12a9	0.004793484
255	0xbd19b4cd	-0.03752594

conv3.bias f4 [7]
0	0xbd236ff4	-0.03990169
1	0x3bc182e0	0.005905494
2	0xbc201a28	-0.009771861
3	0x3d0ac12c	0.03387563
4	0xbd14f035	-0.03636189
5	0xbc8ebcb1	-0.01742396
6	0xbc431950	-0.01190789

conv4.weight f4 [3, 14, 6, 6]
0	0xbc9149d6	-0.017735403
1	0xbc98af60	-0.018638313
2	0x3d15419a	0.036439516
3	0x3b5425af	0.0032371094
4	0x3b8ae0f5	0.0042382427
5	0xbd1daef3	-0.038496923
6	0x3cb35e3c	0.02189552
7	0x3d28898e	0.041146807
8	0x3cdb7846	0.02679075
9	0x3d30c4a2	0.043156274
10	0x3c1081d4	0.008820016
11	0x3d034609	0.032049213
12	0x3c421151	0.011844949
13	0xbc4b4829	-0.012407341
14	0x3c3ec5f6	0.011643877
15	0xbd2bbc07	-0.041927364
16	0x3d2d0605	0.04224207
17	0xbcd5b1b7	-0.026085718
18	0x3bbf47d8	0.005837422
19	0x3be230c8	0.006902788
20	0xbbb7c8a7	-0.0056086364
21	0xbc27c235	-0.010239174
22	0xbc8ed066	-0.017433356
23	0x3cf7f006	0.03026582
24	0x3d1d8ad4	0.038462475
25	0xbcb7de0a	-0.022444744
26	0xbd1ff7a7	-0.03905454
27	0xbd0ece6e	-0.034864835
28	0xbc49e78e	-0.012323273
29	0x3d20af33	0.039229583
30	0xbd21b590	-0.039479792
31	0x3d28584c	0.04109983
32	0x3c0cd07c	0.008594628
33	0x3d3621b3	0.04446573
34	0x3c956335	0.018235782
35	0xbd219c6d	-0.03945582
36	0xbc8ee68d	-0.01744392
37	0xbc9eb8a0	-0.019375145
38	0xbc9edd9e	-0.019392785
39	0x3d2c53c0	0.042072058
40	0x3c56951f	0.013097077
41	0xbd306f45	-0.043074865
42	0xbcbc0512	-0.022951636
43	0xbcce6a36	-0.02519713
44	0xbd2054ab	-0.039143246
45	0xbd176c48	-0.0369685
46	0x3d28e366	0.04123249
47	0x3d0c34f8	0.034230202
48	0x3d33d17f	0.043900963
49	0x3d020a0d	0.031747866
50	0xbd18690b	-0.03720955
51	0x3d17182d	0.03688829
52	0x3c8d64a2	0.0172599
53	0xbd2dd544	-0.042439714
54	0x3d17f25c	0.037096366
55	0x3c9d107d	0.019172901
56	0xbcdc85fd	-0.02691936
57	0xbc13fc66	-0.009032344
58	0xbcd4045e	-0.025880989
59	0xbc4bd454	-0.01244076
60	0x3d25c491	0.040470663
61	0xbcd5e59f	-0.026110468
62	0xbd32a374	-0.043612912
63	0xbbd5dced	-0.0065265805
64	0xbc9b32f2	-0.018945191
65	0xbb68b8b7	-0.003551049
66	0xbc21713f	-0.00985366
67	0x3caf2a95	0.02138261
68	0x3d20147e	0.039082043
69	0x3ce9b8c4	0.028530486
70	0xbd1f6912	-0.038918562
71	0xbb024bbe	-0.0019881572
72	0x3d0bc3af	0.034122165
73	0x3baae51b	0.0052153
74	0xbcfbf308	-0.030755535
75	0xbc8bb7ec	-0.017055474
76	0x3b81f17d	0.003965555
77	0xbcacf1aa	-0.021111328
78	0x3c13d73b	0.009023483
79	0x3d1664c6	0.0367172
80	0x3bad907f	0.0052967663
81	0xbd006b11	-0.031352106
82	0x3cd54056	0.026031654
83	0x3cf8c156	0.030365627
84	0xbd20c0b1	-0.039246265
85	0xbd26eb59	-0.04075179
86	0xbd1d05c5	-0.03833558
87	0xbc352c3e	-0.011057911
88	0xbbeb4498	-0.007179808
89	0x3ce74c41	0.028234603
90	0x3d00e932	0.031472392
91	0x3d28e05e	0.0412296
92	0x3c16a961	0.0091956565
93	0xbcb11af9	-0.021619307
94	0xbd025fc8	-0.031829625
95	0x3cb98abd	0.022649163
96	0x3cd1708d	0.025566364
97	0xbbb0d504	-0.005396487
98	0xbd2d16e4	-0.04225816
99	0x3a39083a	0.0007058416
100	0x3c98e15f	0.018662153
101	0xbc914d37	-0.017737014
102	0xbceed786	-0.029155504
103	0x3c7dad7f	0.015483259
104	0x3ccc05c6	0.024905097
105	0x3cf20b1f	0.029546319
106	0xbb77f198	-0.003783321
107	0xbc86a643	-0.016436702
108	0x3d072564	0.032994643
109	0x3d0e5834	0.034752086
110	0xbb5d278a	-0.003374549
111	0xbabc8931	-0.0014384148
112	0x3b0fca6f	0.0021940728
113	0xbd211f47	-0.03933647
114	0x3d1133a8	0.035449654
115	0xbcf64f51	-0.030067118
116	0x3cbfedf2	0.02342889
117	0xbd0477a3	-0.032340657
118	0x3cb0afa6	0.02156813
119	0x3c1ed3ac	0.009694021
120	0x3d1bd03a	0.038040377
121	0xbcf1aa51	-0.029500159
122	0xbd0025dc	-0.031286106
123	0xbd1c1d94	-0.038114145
124	0x3d2ac874	0.041695073
125	0xbd32875f	-0.04358613
126	0xbcde1363	-0.027108854
127	0xbc5feb6d	-0.01366697
128	0xbcca6896	-0.024708074
129	0x3bebecaf	0.0071998457
130	0xbc3befae	-0.011470718
131	0xbcac0600	-0.020998955
132	0xbcceb51f	-0.02523285
133	0xbcdd05a6	-0.026980232
134	0xbc99a03e	-0.018753167
135	0x3c335b87	0.010947115
136	0xbb81297d	-0.0039417134
137	0xbc443d50	-0.011977509
138	0x3d14f175	0.036363084
139	0x3c921b67	0.017835332
140	0x3d098e0d	0.033582736
141	0x3c8696e7	0.016429378
142	0x3c94622e	0.018113222
143	0xbc068332	-0.00820999
144	0x3c47af3c	0.012187775
145	0x3d24a509	0.040196452
146	0x3a2f7273	0.00066927745
147	0xbc49e6b5	-0.012323071
148	0x3c6d811b	0.014496113
149	0xbb1555e0	-0.0022786781
150	0xbc6e02ca	-0.014527032
151	0x3cab2cde	0.020895418
152	0xbd087b20	-0.033320546
153	0x3c217880	0.00985539
154	0x3cecf488	0.028925195
155	0xbca41eb3	-0.02003417
156	0xbb9efb84	-0.0048517603
157	0xbc9fdafe	-0.019513603
158	0x3d0b41c5	0.03399827
159	0x3d1fb74a	0.038993157
160	0x3d2404b3	0.040043544
161	0x3cf65b9f	0.030072985
162	0x3a6bacbe	0.0008990279
163	0x3c2dda3c	0.010611113
164	0x3c10ae08	0.008830555
165	0xbd0329a4	-0.032022133
166	0xbb7b9c87	-0.0038392858
167	0x3cb6d591	0.022318633
168	0xbcb83ddc	-0.022490434
169	0xbcdcb71e	-0.026942786
170	0xbd0e4e8a	-0.03474287
171	0x3c8586cd	0.01629963
172	0xbb9802d0	-0.004639007
173	0xbd29403b	-0.04132102
174	0xbd02a965	-0.03189983
175	0xbd1df873	-0.038567018
176	0x3d13e18c	0.03610377
177	0xbce4b643	-0.02791894
178	0x3cc2c8f4	0.023777463
179	0xbd1072c2	-0.03526569
180	0xbc8c6f90	-0.01714304
181	0x3bfc0e59	0.00769214
182	0xbce83582	-0.028345827
183	0xbc9447ea	-0.018100698
184	0x3bfe8160	0.0077668875
185	0x3cc42836	0.023944955
186	0x3d248acb	0.040171426
187	0x3cbc5104	0.02298785
188	0xbcb289a6	-0.021794152
189	0x3d2ed319	0.042681787
190	0xbc5d866c	-0.013520818
191	0x3bcc79a1	0.0062400852
192	0xbc57f292	-0.013180392
193	0x3b97fb64	0.0046381224
194	0xbc818c36	-0.015813928
195	0xbc21a5f4	-0.009866226
196	0x3bab4519	0.005226743
197	0x3ca5cbb6	0.020238739
198	0xbbf73d35	-0.0075451382
199	0x3d3120c5	0.043244142
200	0xbbb2d4b7	-0.0054574865
201	0xbc54465e	-0.01295623
202	0xbd1f1513	-0.038838457
203	0xbd1cbae9	-0.03826419
204	0x3d0d565f	0.034506198
205	0xbccd7b6b	-0.025083264
206	0x3c21cf35	0.009876062
207	0x3beea9d2	0.0072834278
208	0x3d0c6c47	0.03428295
209	0x3d2842f5	0.04107948
210	0x3d04b13c	0.032395586
211	0x3cfda623	0.03096301
212	0xbd0148b7	-0.031563487
213	0x3d20fb82	0.039302357
214	0x3cdca1a3	0.026932543
215	0xbbb8ec0b	-0.005643373
216	0x3ca061b6	0.019577842
217	0x3ce06433	0.027391529
218	0xbd080a19	-0.033212755
219	0x3cc145eb	0.02359291
220	0xbcb36278	-0.02189754
221	0xbb788840	-0.0037923008
222	0x3bdb9d25	0.0067020827
223	0x3b9ac6fa	0.004723427
224	0x3b05e9a1	0.0020433443
225	0xbbb9fdeb	-0.0056760213
226	0xbcd5d50b	-0.026102563
227	0x3c809193	0.015694415
228	0xbd11814b	-0.035523694
229	0x3d0b0161	0.033936862
230	0xbd31285b	-0.043251377
231	0xbbed7980	-0.00724715
232	0xbd193fac	-0.037414238
233	0xbd1496b9	-0.036276553
234	0xbc0f9d64	-0.008765552
235	0xbcfc0982	-0.030766252
236	0x3ce083f4	0.02740667
237	0xbc65eb17	-0.014033101
238	0xbc8cc4ec	-0.017183743
239	0x3cc98c31	0.024602981
240	0x3d2b4ff7	0.041824307
241	0x3cee56d1	0.029094132
242	0xbd0528dd	-0.032509673
243	0xbc92c10e	-0.017914321
244	0x3d050b64	0.032481566
245	0x3c197815	0.009367009
246	0xbce69020	-0.028144896
247	0xbd2229e5	-0.039590735
248	0xbcc7a448	-0.024370328
249	0xbbb67dd7	-0.0055692005
250	0xbc783124	-0.015148435
251	0xbc175324	-0.009236131
252	0x3d368ea5	0.04456963
253	0x3ce5709b	0.028007796
254	0x3ccf71b4	0.025322773
255	0x3d1053bc	0.035236105

conv4.bias f4 [3]
0	0x3ac93ce8	0.0015353234
1	0x3d1f4e6e	0.038893156
2	0xbc8c0da7	-0.017096354

conv5.weight f4 [1, 3, 6, 6]
0	0x3a072538	0.00051553873
1	0x3c95d0a9	0.018287973
2	0x3d3c2761	0.045935992
3	0xbda0f560	-0.078593016
4	0xbda99ee0	-0.08282256
5	0xbcbdbf87	-0.023162616
6	0xbd2a9137	-0.041642394
7	0xbd62fe60	-0.055418372
8	0x3d5a3c8f	0.05328041
9	0xb87727a2	-5.89263e-05
10	0x3d48b37e	0.048999302
11	0xbb21e946	-0.0024705692
12	0x3dbf244f	0.09333097
13	0xbd0a4bd7	-0.033763733
14	0xbc6248be	-0.013811288
15	0x3d9bb4c8	0.07602841
16	0x3d4a9ad6	0.04946407
17	0xbd131317	-0.035906877
18	0x3dab5d61	0.0836742
19	0x3d13a859	0.03604922
20	0xbd649a79	-0.05581138
21	0x3d647ea2	0.05578483
22	0x3d4d0215	0.050050814
23	0x3d8b866b	0.068127476
24	0x3d33b8a6	0.043877266
25	0xbccbfcba	-0.024900783
26	0xbd5bc20f	-0.053651866
27	0xbb8cc3e0	-0.004295811
28	0x3cec52d2	0.028848086
29	0x3caa7a70	0.020810336
30	0xbd89810b	-0.06714066
31	0x3d0d6d0c	0.034527823
32	0xbd3aca71	-0.04560322
33	0x3d57cc1d	0.052684892
34	0x3cb1284a	0.021625657
35	0xbd3d30db	-0.04618917
36	0x3dabe6f6	0.08393662
37	0xbc84cc38	-0.01621066
38	0xbd483d84	-0.04888679
39	0x3d9af19b	0.07565614
40	0x3d819968	0.06328088
41	0xbd96351e	-0.0733435
42	0xbd9b0a74	-0.07570353
43	0x3da0223d	0.078190304
44	0xbd2a4049	-0.041565213
45	0x3da17a7e	0.07884692
46	0x3da74822	0.08168055
47	0x3db03151	0.08603156
48	0xbd964927	-0.073381715
49	0x3d98d1ba	0.07461877
50	0x3d829108	0.06375319
51	0x3ce6e71c	0.028186373
52	0xbd38ecbb	-0.04514764
53	0x3d2d9e88	0.042387515
54	0xbdaceee2	-0.08444001
55	0xbd29d0f5	-0.041459043
56	0x3d8345ac	0.06409773
57	0x3d43ace7	0.047772314
58	0xbd6353cd	-0.05549984
59	0xbc9867d7	-0.018604202
60	0xbc9cbe5a	-0.019133735
61	0xbdbd6eda	-0.09249659
62	0xbc0d3fc4	-0.00862116
63	0xbcb91189	-0.02259137
64	0xbda7c830	-0.081924796
65	0x3da3f2ee	0.080053195
66	0xbd7292af	-0.05922192
67	0x3d1a2c83	0.037640106
68	0xbd36f806	-0.044670127
69	0xbd7112a8	-0.058855683
70	0xbda8b693	-0.08237948
71	0xbd0dc56d	-0.034612108
72	0x3ccd5dc9	0.025069134
73	0x3c834172	0.016022418
74	0xbcea25b3	-0.02858243
75	0x3d175ff4	0.036956742
76	0xbc6302f7	-0.013855687
77	0xbd77152c	-0.060322925
78	0xbd9363f6	-0.071968004
79	0x3d26cd05	0.040722866
80	0x3ceb1063	0.028694337
81	0x3ca0faef	0.019650904
82	0x3d216cdd	0.03941046
83	0xbd8b49e0	-0.068012
84	0x3d36f3b4	0.044666007
85	0x3d8ad3ed	0.06778703
86	0x3dbab86a	0.091172054
87	0xbd8f5f81	-0.07000638
88	0x3cdf2b7e	0.027242418
89	0x3d12ddfb	0.03585623
90	0x3ceb2e92	0.02870873
91	0x3d93659c	0.07197115
92	0x3db1b610	0.08677304
93	0x3da18a3c	0.07887694
94	0x3d662c7d	0.05619477
95	0xbd1afbec	-0.037837908
96	0x3ced93fb	0.029001227
97	0x3d17c703	0.037055027
98	0x3d8c1323	0.068395875
99	0xbd7ded22	-0.061993726
100	0x3cc670f2	0.024223778
101	0xbd9dece7	-0.07711201
102	0xbd9e730a	-0.07736786
103	0x3d132e92	0.035933085
104	0xbd4892b2	-0.048968025
105	0x3db036f2	0.0860423
106	0x3dac6414	0.08417526
107	0xbd8efc3f	-0.06981706

conv6.weight f4 [1, 3, 6, 6]
0	0xbd7effd5	-0.0622557
1	0xbd17bc66	-0.037044905
2	0x3db90d57	0.090357475
3	0xbdb07e8b	-0.08617886
4	0x3d6a6ed2	0.057234593
5	0xbd51318d	-0.051072646
6	0xbacf96a2	-0.0015837739
7	0xbdb07fe6	-0.08618145
8	0x3b0f193f	0.0021835116
9	0x3d253411	0.040332858
10	0x3d96ff11	0.07372869
11	0x3c4d402a	0.012527505
12	0xbdb8150f	-0.089883916
13	0xbdab4cf7	-0.08364289
14	0xbc3b5cf2	-0.011435734
15	0x3c078686	0.008271819
16	0xbcc6a2c2	-0.02424753
17	0x3d08db4e	0.03341227
18	0x3d416215	0.04721268
19	0xbb0339d3	-0.002002348
20	0x3d2dc7ea	0.04242698
21	0xbd3e6193	-0.046479773
22	0x3c0deec5	0.008662884
23	0x3d1c10b4	0.038101867
24	0xbd0b7c1e	-0.034053914
25	0xbd1ca258	-0.03824076
26	0xbda34650	-0.079723954
27	0xbd8ff3f2	-0.07028951
28	0x3caa2923	0.020771569
29	0x3d0b0b63	0.033946406
30	0xbd3b7162	-0.045762427
31	0x3db24ab0	0.08705652
32	0x3d6c96e2	0.05776108
33	0x3c531df3	0.012885558
34	0xbdb0b315	-0.08627907
35	0xbd1a51d4	-0.037675694
36	0xbd5e33b2	-0.05424852
37	0xbd518f9a	-0.05116234
38	0x3d8fb0f4	0.07016173
39	0x3d0227a8	0.0317761
40	0xbd20b9f7	-0.03923985
41	0xbdb62cf0	-0.0889529
42	0x3d9524a3	0.072823785
43	0xbd61f9a2	-0.05516971
44	0x3d7635ae	0.060109787
45	0x3d9966de	0.074903235
46	0xbd4ce3a5	-0.050021786
47	0x3dbac3e3	0.09119394
48	0xbd73497f	-0.059396263
49	0x3d999b8b	0.075003706
50	0xbdbbcfbe	-0.09170483
51	0x3d027056	0.031845413
52	0x3a0f72d9	0.0005472131
53	0xbd9d5c48	-0.07683617
54	0xbd2630d5	-0.040573914
55	0xbdbcab8f	-0.0921241
56	0xbd10205c	-0.03518711
57	0xbc5ad830	-0.013357207
58	0x3d7a6b28	0.06113735
59	0xbdc30947	-0.09523254
60	0x3d367b24	0.04455103
61	0xbc5e87b6	-0.013582161
62	0x3daca7cc	0.08430442
63	0x3d5c3717	0.053763475
64	0x3daab780	0.08335781
65	0xbd44b19c	-0.048020944
66	0xbd9a0cdb	-0.07521983
67	0x3d81f1ee	0.063449726
68	0x3d8758bf	0.06608724
69	0xbd69dab5	-0.05709334
70	0x3c311f32	0.01081066
71	0xbdb9392f	-0.0904411
72	0xbd544a7e	-0.051828854
73	0x3c00b5c4	0.007855836
74	0xbd51d38b	-0.051227134
75	0x3d7acdc3	0.061231386
76	0x3dc25373	0.09488573
77	0x3db0ba0d	0.08629236
78	0xbd657ef6	-0.056029283
79	0xbdb96804	-0.090530425
80	0xbcb0fed6	-0.02160589
81	0xbd97f860	-0.07420421
82	0x3d48f24b	0.049059194
83	0x3d5189aa	0.051156677
84	0xbcc471c8	-0.023980036
85	0x3bb306a7	0.0054634395
86	0xbcf21be8	-0.029554322
87	0xbd7ad519	-0.061238382
88	0x3d9e58b8	0.077317655
89	0xbd21214e	-0.039338402
90	0xbbe105e1	-0.006867156
91	0xbce890b9	-0.028389322
92	0x3d95ea2b	0.073200546
93	0xbdc5b16f	-0.096529834
94	0x3d355c6d	0.044277597
95	0x3d8ee2c9	0.069768496
96	0x3d4c3aa1	0.0498606
97	0x3d381f3a	0.044951655
98	0xbceb16bc	-0.028697364
99	0x3d82f7f3	0.06394949
100	0xbd584688	-0.05280164
101	0x3c85262e	0.016253557
102	0xbdae734f	-0.08518087
103	0xbcceac2f	-0.025228588
104	0xbdb56bbd	-0.0885844
105	0x3d85502a	0.06509431
106	0xbcca1a4c	-0.024670742
107	0x3c0d00bb	0.008606131

conv7.weight f4 [1, 2, 6, 6]
0	0xbc90761e	-0.017634448
1	0x3c934ab8	0.017979965
2	0xbd2b31c8	-0.041795522
3	0xbcca12f9	-0.02466725
4	0x3d32ff5a	0.043700553
5	0xbd7ae511	-0.06125361
6	0x3d755e14	0.059904173
7	0x3cf52199	0.029923247
8	0x3d81ccb3	0.063378714
9	0x3da2da1a	0.07951756
10	0x3dd10a20	0.10207009
11	0xbd1f07e0	-0.03882587
12	0xbcc86010	-0.024459869
13	0x3c54bb71	0.012984143
14	0x3d88ccf9	0.066797204
15	0x3d5e6b35	0.05430146
16	0xbd2a5f6c	-0.041594908
17	0xbdcb4536	-0.0992531
18	0xbd2d3bee	-0.04229348
19	0x3dd3fcdc	0.103509635
20	0xbde21d79	-0.11040778
21	0xbcbba803	-0.022907263
22	0x3bba152c	0.0056787934
23	0xbd049950	-0.032372773
24	0x3d89011a	0.06689663
25	0xba591ddf	-0.0008282344
26	0x3dc2f9b7	0.095202856
27	0xbd50f0c5	-0.051010866
28	0x3dcc4339	0.09973759
29	0xbcdc9788	-0.026927724
30	0x3c9cddfe	0.019148823
31	0x3d86bce4	0.06578997
32	0x3ca3dfd0	0.020004183
33	0x3dd9cbc8	0.10634571
34	0xbd1ed433	-0.038776588
35	0x3d302ae6	0.04300966
36	0x3d4a0f5c	0.049331054
37	0x3d592933	0.053017806
38	0x3de5a932	0.11213912
39	0x3d2b140e	0.041767173
40	0xbd8ae9a6	-0.06782846
41	0xba587fe1	-0.00082588015
42	0xbde6d681	-0.11271382
43	0xbdb143a9	-0.08655483
44	0xbd7256ef	-0.059164938
45	0x3d14af51	0.036300007
46	0x3d429c35	0.047512252
47	0x3d2d1e87	0.04226544
48	0xbda1a3b2	-0.078925505
49	0x3db9f648	0.090801775
50	0x3d553c24	0.052059308
51	0x3aacac10	0.0013173837
52	0x3d0b4398	0.03400001
53	0xbb971e30	-0.004611753
54	0xbdb76386	-0.089545295
55	0xbd8b5fec	-0.06805405
56	0x3d04004a	0.03222684
57	0xbdf0515f	-0.1173427
58	0xbda6827d	-0.081303574
59	0x3dba154c	0.09086093
60	0x3dd76c15	0.10518662
61	0xbdecaa65	-0.11555938
62	0xbdc6dddd	-0.09710286
63	0xbc70e7e6	-0.014703726
64	0x3d526ce4	0.051373377
65	0xbcb3182f	-0.021862118
66	0x3d5cda6c	0.05391924
67	0xbde5ea83	-0.1122637
68	0x3d4690c3	0.0484779
69	0xbc946930	-0.018116564
70	0x3ddf4e36	0.109035894
71	0xbd9caeb4	-0.076505095
