siamese-models/siam_v2_26.pth (torch, 102187 bytes, 11 tensors)

conv1.weight f4 [14, 31, 6, 6]
000000 99 61 d8 bc 4b b3 a9 3c a0 f2 93 3c bb c1 82 bb
       -0.026413726 0.020715376 0.018060029 -0.0039903796
000010 2b 6f bb bb 35 cf d2 3c 09 3b ae 3c 11 00 53 3b
       -0.0057200394 0.02573357 0.021268385 0.0032196085
000020 31 1e 86 bc ba 76 9e 3a d5 33 b8 3c 58 8b 8e bc
       -0.016371818 0.0012089827 0.022485653 -0.017400429
000030 11 7b c8 3c 84 9c ce bc 65 97 63 bc cb 4d d3 3c
       0.024472745 -0.025221117 -0.013891076 0.02579393
000040 0e 49 5b bc 34 ad a5 3b 37 67 38 ba 18 0a bd 3b
       -0.013384117 0.005056048 -0.0007034423 0.0057690255
000050 fd 8a d9 bc 49 19 cb 3c 8e 96 e8 3c 64 0b 27 3b
       -0.026555533 0.02479233 0.028392103 0.0025488967
000060 5e 4c a1 3c 73 8b 83 bc 9f d0 84 3c a5 e0 1d bc
       0.019689735 -0.016057706 0.01621276 -0.009636079
000070 b4 43 c9 3b 4a 2e 1d 3c b0 6d 06 3b ee 1b b0 bb
       0.006142104 0.009593556 0.0020512156 -0.005374423
000080 27 6d b8 bc f7 44 a5 3c c4 96 d8 3c c2 76 c2 bc
       -0.022512985 0.020174487 0.026439078 -0.023738269
000090 31 ca 22 bc 11 75 a9 3c ff 6a 44 ba 8a e1 39 3c
       -0.0099359015 0.020685704 -0.00074927503 0.011345277
0000a0 cb 02 0c bc 10 60 ea 3c 16 9a 1b 3c dd a1 d4 bc
       -0.008545588 0.02861026 0.009497186 -0.025956089
0000b0 80 42 a6 3c 63 d5 bc bc d2 ab 99 3c 76 bb 29 3c
       0.020295382 -0.02305097 0.018758688 0.010359636
0000c0 0e f0 bb 3c 9c e3 cb 3c ea f0 2e bc 90 71 e1 3b
       0.022941615 0.024888806 -0.010677556 0.006879993
0000d0 4f 02 00 bc 01 51 e9 bc d2 f3 cd 3b 24 a7 d9 bc
       -0.00781305 -0.028481008 0.006285169 -0.026568957
0000e0 ca 3b 44 bc ad 59 db 3c dc 2f d1 3c 08 a4 01 3c
       -0.011977145 0.02677616 0.025535516 0.007912643
0000f0 81 5d 36 bc 23 01 66 bc 68 78 f1 3c 90 5b b9 3c
       -0.0111306915 -0.014038357 0.02947636 0.022626668
000100 18 4b 9f 3c 98 73 7c bb f2 2b cb bc 15 60 ff ba
       0.019444987 -0.0038521048 -0.024801228 -0.0019483591
000110 86 fd 9e bc 52 4f a3 3c 97 38 eb 3c 3b 0e ce bc
       -0.019407999 0.019935284 0.028713508 -0.02515327
000120 93 b9 ef 3c 39 c8 ea bc 9c 98 6d 3b a3 57 f4 3c
       0.029263293 -0.028659927 0.0036254292 0.029826945
000130 3f 1b cc bc b5 c7 9d bc 40 9e 27 bc a1 00 9a 3c
       -0.024915336 -0.019260267 -0.010230601 0.018799128
000140 fa 2b a2 bb 91 73 a7 bb 5e 6a 9b 3c 63 34 af ba
       -0.00494909 -0.005110212 0.018971618 -0.0013367053
000150 d4 9e e2 3c 5d df 54 bb 7f ae 02 bb 14 64 5d bc
       0.027663626 -0.0032481768 -0.0019940434 -0.01351263
000160 5b fa fe 3b ff 9b 27 bc fc 12 46 bc 29 8e 89 3b
       0.0077813095 -0.010230063 -0.012089487 0.004197855
000170 75 c9 bc 3c 02 bd e2 bc 62 4a 47 bc bf 20 b3 bc
       0.023045281 -0.027678017 -0.01216373 -0.0218662
000180 86 bb 71 bc ba e5 26 3c 77 52 19 3c 81 7f cf 3c
       -0.014754182 0.010186607 0.00935804 0.025329353
000190 1f 0f c3 bc c2 ac d4 bc d8 d1 c9 3c 41 c3 d7 bc
       -0.023810921 -0.025961284 0.024636194 -0.026338222
0001a0 52 34 51 3c 85 4d 52 3c 9d 40 cd bc 0f 2d 83 bc
       0.012768822 0.012835865 -0.025055224 -0.016012697
0001b0 66 2f f1 3c b6 d4 c0 ba 15 d7 af 3c 39 66 c4 ba
       0.029441547 -0.001471183 0.021464864 -0.0014984078
0001c0 6d 42 9d bc 9e 76 d0 bc 8b 84 3d bb 91 fc b4 bc
       -0.019196713 -0.025447186 -0.0028918113 -0.02209309
0001d0 d5 d6 53 3c dd c9 55 bb 46 61 f5 38 45 03 f5 bb
       0.012929638 -0.003262154 0.00011700629 -0.0074771964
0001e0 d3 8e a0 bc d5 de c3 3a fc d6 62 bc c2 81 66 bb
       -0.019599354 0.0014943728 -0.013845202 -0.0035172557
0001f0 b3 29 b3 bc 49 21 a0 3c d4 04 20 bb b9 b7 c0 bc
       -0.02187047 0.019547122 -0.002441694 -0.023525106
000200 ab 67 93 bb 08 34 c9 bc 4b 2f b0 bc 2c 4e 99 ba
       -0.004498442 -0.024560943 -0.021506926 -0.0011696271
000210 91 69 c0 bc d2 60 ec bc 06 98 cc 3b a3 56 54 bc
       -0.023487838 -0.028854761 0.0062437085 -0.012960109
000220 55 41 a6 bc 90 d7 71 3b 44 47 85 3c 36 ed c6 bb
       -0.020294825 0.0036902167 0.016269334 -0.006070758
000230 c9 41 7c bc 20 49 32 3b d7 1a ac 3b 4d 21 ec bc
       -0.015396544 0.002720423 0.005252223 -0.028824473
000240 3a 2c a0 bc 8c 75 b9 3c 8b 21 5d bc 4d 9e dd 3c
       -0.019552339 0.022639059 -0.013496767 0.027053023
000250 02 95 f2 3b 08 66 59 3b 08 41 8e 3c 23 aa d3 bc
       0.007403017 0.0033172388 0.017364994 -0.025837963
000260 e1 ad 0a bc 91 4a 28 3c bd 4f 61 3a 96 21 8e 3c
       -0.0084643075 0.010271684 0.0008594951 0.01735
000270 85 fb bd 3c 8f 84 86 bc d4 d3 c1 3c 09 cf 41 bc
       0.023191223 -0.01642063 0.023660578 -0.011829146
000280 2e c0 c4 bc 0a d5 a4 bc 25 c6 55 3c 25 ef a0 3c
       -0.02401742 -0.020121116 0.01304773 0.019645283
000290 18 af a9 bc 30 be e1 bc 46 f8 c2 bc ba 3d c2 3c
       -0.020713374 -0.027556509 -0.023800027 0.023711074
0002a0 cc d1 65 bb ed 19 e7 bc 31 39 c9 bc 26 88 6a 3c
       -0.0035067676 -0.028210605 -0.024563404 0.014314687
0002b0 b1 14 df bc 49 fd de 3c f6 2b ba 3c c7 52 a3 3c
       -0.027231546 0.027220385 0.02272604 0.019936932
0002c0 39 51 66 bc b2 ac c0 bc ab 87 fe bb 46 3f db 3c
       -0.014057451 -0.023519848 -0.0077676377 0.02676357
0002d0 d2 9e b4 bc ee db dd bc e6 55 7c 3c 93 a9 c4 bc
       -0.022048388 -0.02708241 0.015401339 -0.02400664
0002e0 1e 65 99 3c 50 da f9 3a 8b e7 6e 3c 84 85 3c bc
       0.018724974 0.0019062255 0.014581571 -0.011506442
0002f0 59 a6 1e bc 43 3b 13 bc fb 8f 4c bc 50 64 8d bc
       -0.009683215 -0.008986297 -0.0124854995 -0.017259747
000300 6f b8 e5 3b d2 45 8f 3b 32 25 0a 3c 37 56 85 3c
       0.0070105116 0.004372337 0.00843172 0.016276462
000310 f4 fa 8b bc a5 9a f0 3b ba 12 a9 bc 5f da 9c bc
       -0.017087437 0.007342654 -0.020638812 -0.019147096
000320 15 91 14 3c 7e e9 2d bc 04 c0 d7 3c 28 a7 3a bc
       0.009067793 -0.010614751 0.026336677 -0.011392392
000330 38 a5 c9 3c 4a 2f bd 3c 47 d8 8d 3c d4 00 64 3c
       0.024614915 0.023093838 0.017315043 0.013916213
000340 07 12 a1 bc 57 64 84 bc be b0 a9 bb 45 51 44 bc
       -0.019661916 -0.016161127 -0.00517854 -0.011982267
000350 b1 22 7a 3c 39 80 ad 3b 89 fe 78 3c 41 d1 d9 3b
       0.01526706 0.0052948263 0.015197405 0.0066472595
000360 e0 c0 d1 bc a6 b0 1b bb 29 4f e1 3c 12 7e ad bc
       -0.025604665 -0.0023756414 0.027503567 -0.02117828
000370 a3 f1 69 3c 04 8a f0 bc e0 b7 bb 3c 10 1e 09 3c
       0.014278802 -0.029362686 0.022914827 0.008368984
000380 53 b5 9e 3c 4f dd 5f 3c 4a 80 28 b9 1a 29 a1 3c
       0.019373572 0.013663604 -0.0001606952 0.019672919
000390 b9 9c 0f bc 6e 02 20 3c d7 85 50 bb 20 fc 23 3c
       -0.008765393 0.009766204 -0.0031818056 0.010008842
0003a0 0b 15 ab bc 6f 99 cb bc 40 0f 89 bb 2b e6 aa bc
       -0.020884058 -0.024853436 -0.004182726 -0.020861706
0003b0 82 62 95 bc 6d 9a ea bc 82 e8 df 3c ee 48 bf bc
       -0.018235449 -0.02863809 0.027332548 -0.023350205
0003c0 2a b9 e5 3c f7 75 51 3c 00 aa 44 3c 99 66 b7 3c
       0.028042395 0.012784473 0.012003422 0.02238779
0003d0 fc d7 3b bc 54 7d 22 3c 4f ee ef 3c c9 3e 6f 3c
       -0.011465069 0.009917576 0.02928844 0.0146023715
0003e0 f8 28 ed 3c f5 0e 99 ba b3 87 99 bc f6 9b 79 bc
       0.0289502 -0.0011677431 -0.018741464 -0.015234938
0003f0 62 e0 0f 3c 38 2e cc bc ac 2e 1e 3c 7f cf ca 3c
       0.008781524 -0.024924383 0.009654682 0.024757145

conv1.bias f4 [14]
000000 3a 4f 6c bc 90 78 54 bc 29 83 b8 bc 20 04 9e bc
       -0.014423186 -0.012968197 -0.02252348 -0.019289076
000010 f4 5d 7b 3c 79 96 85 bc c5 bf 81 bc 84 1b 36 bc
       0.015342224 -0.016307103 -0.015838513 -0.011114959
000020 fe ed 67 bc fc 6b 9e bb 88 f7 37 bc 18 9d 64 3c
       -0.014155863 -0.00483465 -0.01122845 0.01395347
000030 a8 74 8d bc 18 da d8 3b
       -0.01726754 0.0066177957

conv2.weight f4 [7, 14, 6, 6]
000000 23 ff 31 3c d2 76 17 bd 44 b6 26 bd 39 a1 87 bc
       0.010864052 -0.03697855 -0.040701166 -0.01655637
000010 b1 ad 26 3d dd bd ce bc 5d 68 64 3c ee 26 f6 bc
       0.04069299 -0.025237018 0.013940898 -0.03004786
000020 f4 f4 16 3d 53 2c 16 3d 1e 46 ab 3c 60 50 9b bc
       0.0368547 0.036663365 0.020907458 -0.018959224
000030 e2 33 12 bd 89 25 4d 3c 6b ce 13 3d 66 23 4e bc
       -0.03569401 0.012521156 0.036085527 -0.012581682
000040 01 f4 9e bc 20 8a 2f 3d bd df 2f 3d 62 94 04 bc
       -0.01940346 0.042856336 0.042937983 -0.008092018
000050 d1 60 08 3d 8f bc 18 bc a0 e0 26 3d 5d 37 0d bd
       0.033295456 -0.0093223 0.040741563 -0.034476627
000060 f8 6d d9 3c 4d f2 8d 3b 2c d6 f3 3c 99 04 21 3c
       0.026541695 0.004331863 0.029765211 0.009827756
000070 c8 a0 96 3c bc 84 1e bc 9a 99 d6 3c 5d 2c 35 bd
       0.018387213 -0.009675201 0.02619629 -0.04423176
000080 9c 6c 4e bb 20 fc 7b bc 2b 4e 7f bb 92 3d 19 bd
       -0.0031497842 -0.0153799355 -0.0038956504 -0.037412234
000090 b3 7b 75 bc f8 69 e9 3c 48 82 17 3d 43 e1 45 bb
       -0.0149831055 0.028492913 0.03698948 -0.003019408
0000a0 47 83 70 bc 33 65 f5 bc 11 cb 57 3c d1 8e 13 3d
       -0.014679736 -0.029955482 0.013170973 0.036024872
0000b0 77 5f c7 3c 35 a0 11 3d e5 f2 68 3b 35 f3 a8 3c
       0.024337513 0.035553176 0.0035545167 0.020623783
0000c0 bd 61 53 3c 48 e3 fb bc 4e d7 1c 3c ca 0d e4 bc
       0.012901721 -0.030748025 0.009572817 -0.027838606
0000d0 a8 49 be 3c 29 98 97 bc 90 74 fe bc 58 21 34 bb
       0.023228481 -0.018505173 -0.03106144 -0.0027485695
0000e0 f3 c7 62 3a 73 fb ce bc 66 04 26 bd 1d 07 18 bd
       0.00086510106 -0.025266385 -0.04053154 -0.03711616
0000f0 10 2c 1d 3d be 9b fb 3c e0 61 e0 3c 79 3b b8 3b
       0.0383721 0.030713912 0.02739042 0.005622324
000100 d0 5d 90 bc f9 43 8a 3b fe 38 b6 3c 80 c0 c5 bc
       -0.017622858 0.0042195288 0.022243973 -0.024139643
000110 08 12 5b 3c c4 91 25 3b 02 06 13 3a 2e 1d 5e 3c
       0.013370998 0.0025263885 0.00056085 0.013556762
000120 2b 76 1a bc 2a 97 21 bc 9f 88 86 3c 12 3f 20 3d
       -0.0094275875 -0.0098627005 0.016422568 0.03912265
000130 54 e4 52 bc e8 74 17 bb c1 96 4a 3c 60 35 e3 3c
       -0.0128718205 -0.0023110453 0.012365044 0.027735412
000140 6d de 30 bd 6e 76 86 3c ed 5b 0b bd 90 e3 ce 3b
       -0.04318087 0.016413894 -0.034023214 0.0063137487
000150 61 90 aa 3c 47 b6 f2 3b 47 33 5f 3c 81 66 6b bc
       0.020820798 0.007406983 0.013623065 -0.014367701
000160 e5 bd 8a bc 18 97 60 3c 8f 26 1f bd b7 49 c9 bc
       -0.016936252 0.013707899 -0.03885513 -0.024571283
000170 c9 da 10 3c df 70 83 bc 94 fd d7 bc 4f 47 08 3d
       0.008841225 -0.016045032 -0.026366033 0.03327113
000180 2f 20 5b 3c e4 d8 99 3c c2 6f 24 3b 8d 17 a7 3c
       0.013374372 0.01878018 0.0025091027 0.020396972
000190 f4 6a 5d bc 35 02 8c ba e6 fb ca bc 80 98 13 3d
       -0.013514269 -0.001068181 -0.024778318 0.036034107
0001a0 d4 d8 fb bc 90 ad de bc db 13 97 bb 5b 18 8f bc
       -0.03074304 -0.02718237 -0.0046105213 -0.017467668
0001b0 48 ba 31 3d 8b 6e 12 3d 38 48 d6 bc 91 7e d0 bc
       0.043390542 0.035749953 -0.026157483 -0.025450977
0001c0 f1 00 f5 bc d6 94 e6 bc 5a 9f 05 bd c1 71 74 bb
       -0.029907675 -0.028147142 -0.032622673 -0.0037299248
0001d0 ae 17 3d bc 75 e2 c7 3b d8 76 8a 3c 8c 1c 0c 3d
       -0.01154129 0.006099994 0.016902372 0.034206912
0001e0 5e 78 1d 3c ba f7 2f bd 16 3e da 3c e8 e3 93 3b
       0.009611217 -0.04296086 0.026640933 0.0045132525
0001f0 b9 94 c1 bc a1 6a 15 bd 06 e0 c0 bc cc 44 08 bd
       -0.023630487 -0.036478642 -0.023544323 -0.033268735
000200 49 a2 14 3c 55 84 bd bb fb cb 85 3c df 24 0f 3d
       0.009071895 -0.0057835975 0.016332617 0.034947272
000210 8b 2b 26 bd 71 58 17 bd 1d a4 30 bd 6e ba ea 3a
       -0.04056887 -0.03694958 -0.04312526 0.0017908344
000220 60 10 03 3d e6 7b 59 3c f5 0c 0e bd 35 8c 0b bd
       0.03199804 0.013274169 -0.034680326 -0.03406926
000230 a6 80 33 3d bb 15 c0 bc d4 d3 ce 3c 18 f1 ff bb
       0.04382386 -0.023447862 0.025247492 -0.007810723
000240 b4 94 12 bd e1 f2 29 bd 61 3f 0b bc 94 03 04 bd
       -0.035786346 -0.041491393 -0.008498997 -0.032229975
000250 8a 1d 1e 3d 49 7d 1c bd a9 f6 1d bd 1d d7 0c 3d
       0.03860239 -0.03820542 -0.03856531 0.034384836
000260 60 b3 bf bc 49 e3 18 bd a3 c1 c2 3a 51 09 cb 3c
       -0.023400962 -0.03732613 0.0014858734 0.024784716
000270 36 e1 30 3d 48 13 11 3d 59 e6 86 3c b8 bf 81 bc
       0.043183528 0.03541878 0.01646726 -0.015838489
000280 b6 32 14 3d c5 bc 96 bc f0 eb d0 3c b0 02 9b bc
       0.036181174 -0.01840056 0.025503129 -0.01892218
000290 4b 75 d8 bc 5b 57 ee 3c 3d c2 05 bd f7 08 95 bc
       -0.026423117 0.029094389 -0.032655943 -0.018192751
0002a0 aa 29 a3 bc f4 27 2c bd 70 ac c8 ba da b1 58 3b
       -0.019917328 -0.04203029 -0.001531018 0.0033064992
0002b0 51 80 f6 bc 38 29 c7 3c 14 f1 ed 3c 57 5a 2e bc
       -0.030090483 0.024311647 0.02904562 -0.010641656
0002c0 e6 2b 2a bd 5f 0b 9e 3b 58 86 35 bd 09 5c bd 3c
       -0.04154577 0.004823133 -0.044317573 0.023115175
0002d0 ed d8 91 bc 5e 04 0f bc 7c 38 fe 3c 9e f1 04 3c
       -0.017803634 -0.008729069 0.031032793 0.008114247
0002e0 01 f4 9a 3c 16 21 9f bc ce 94 a8 bc 1e 8e ef 3c
       0.018915178 -0.019424956 -0.020578768 0.029242571
0002f0 ab 5b 16 bd a3 07 9c 3c 1e d4 01 3d 19 56 dd 3b
       -0.036708515 0.01904661 0.03169643 0.0067546484
000300 f8 b0 1c 3d 26 2e 1c 3d 12 81 e4 bb 35 7e 12 bd
       0.038254708 0.038129948 -0.006973394 -0.03576489
000310 db f4 8f 3a 0c 17 1f 3d b8 29 2d bd fc 7c 34 3c
       0.0010983007 0.03884034 -0.042276114 0.011016127
000320 62 3d 31 bd eb 53 4b 3c 89 a8 0a bd 6e 3a 08 3c
       -0.04327143 0.012410144 -0.033852134 0.008314712
000330 f3 d3 b5 bc 7b 1a 2c bc 27 ae 73 bc 02 40 e3 bc
       -0.022195792 -0.01050436 -0.014873064 -0.027740482
000340 83 67 56 3c 8b c6 06 bd e1 3a 54 3b 70 3b d8 bc
       0.013086203 -0.03290419 0.0032383727 -0.02639553
000350 a7 c9 09 bd 49 27 d0 bc fc 10 08 bd 0e cb fa bb
       -0.033639576 -0.025409358 -0.033219323 -0.0076536005
000360 43 8a 2e bd 0b 52 2a bc 74 d2 d0 bb 64 3d cd 3c
       -0.042612325 -0.010395537 -0.006372744 0.025053687
000370 ca e4 be bc cd 29 31 3b 3c e8 9e 3c a5 f9 1f bd
       -0.023302455 0.0027032972 0.019397847 -0.03905644
000380 b2 e0 1d bd be ab c3 bc 00 71 00 bd 73 a0 23 3d
       -0.038544364 -0.023885604 -0.031357765 0.03994794
000390 45 18 7d bb a2 fb c8 3c fa 7d e4 3c 30 13 0e bd
       -0.0038619202 0.02453405 0.027892102 -0.034686267
0003a0 df 01 b5 bc 3c 2b 1b bb 74 cd 8f bc 32 13 d5 bc
       -0.022095619 -0.0023676893 -0.017554022 -0.02601013
0003b0 98 b3 28 bd 1a f0 8c bc 91 0d 94 bc 6f ca 20 3d
       -0.0411869 -0.017204333 -0.018072875 0.039255556
0003c0 d4 9c 9f 3c cb e9 6b 3c 64 29 24 bc 7b 1c 8b bb
       0.019483961 0.014399002 -0.010019634 -0.0042453385
0003d0 52 83 f7 bc 34 91 d6 3c 59 72 cf bc b2 05 8e 3c
       -0.030213986 0.026192285 -0.02532308 0.0173367
0003e0 55 ef 9b 3a 2f 0a 6c bc 0d 9a 1f bb cd 85 82 bb
       0.0011896888 -0.014406725 -0.0024353296 -0.0039832355
0003f0 2f db 11 3d 45 eb 71 bc 5c 9a 87 bc 03 9e 34 3d
       0.03560942 -0.014765565 -0.016553096 0.044096004

conv2.bias f4 [7]
000000 48 72 db bc b0 23 c8 bc 90 bf b2 3c bc 87 61 3c
       -0.026787892 -0.02443108 0.02181986 0.013765272
000010 da f2 6a bc 49 db 9a bc 50 28 19 3b
       -0.014340127 -0.018903391 0.0023369975

conv3.weight f4 [7, 14, 6, 6]
000000 6e 59 d6 bc bb 40 07 bc b4 5c 21 3d 36 33 f1 bc
       -0.02616569 -0.008255179 0.03939505 -0.029443365
000010 f5 05 1f bc 13 34 6b bb f8 f3 0d 3d 85 c5 8b bb
       -0.00970601 -0.0035889193 0.034656495 -0.0042654895
000020 e8 f9 48 3c 3c 2f 14 3d 38 fc 31 bb 8a 3e 8d bc
       0.012266614 0.03617786 -0.002715839 -0.017241735
000030 da a1 a0 3c 2c be 6a ba 9d 6f 05 3d 9f e9 d6 bc
       0.019608427 -0.00089547294 0.032577146 -0.026234446
000040 4b 41 2f 3c 0a 17 46 3c 34 4a aa 3c cc e8 d8 bc
       0.010696719 0.012090454 0.020787336 -0.026478194
000050 ba f7 e8 3c fa 9a 2e bd 10 38 15 bc 83 71 2d 3d
       0.028438438 -0.042628266 -0.009107605 0.04234458
000060 f2 8a 6f 3c d7 b9 06 3d 4e bb 22 3c 14 c8 73 bc
       0.0146205295 0.032892074 0.009932352 -0.014879245
000070 5d d3 17 3d 11 2c 2c 3d dd 49 a3 bc c0 4a 86 bb
       0.037066806 0.042034212 -0.019932682 -0.0040982664
000080 75 66 e6 bc f3 d9 55 bc 95 49 20 3d ed a9 e5 3c
       -0.028125027 -0.013052451 0.039132673 0.028035128
000090 ce f9 07 3c f7 c1 fa bc e1 c9 5b 3c 7d f8 1a bd
       0.008299304 -0.030610068 0.013414831 -0.037834633
0000a0 60 11 a1 3c 2a 26 c6 bc 82 9a d2 3b 75 4a bb bc
       0.019661605 -0.02418812 0.00642711 -0.022862652
0000b0 be 67 1d bc b0 b4 89 3c 5f b2 2d bd a8 20 d4 3c
       -0.009607254 0.016809791 -0.042406436 0.025894478
0000c0 13 5e c8 3c ab 94 df 3c 56 24 2b 3d 68 2f 4a bc
       0.02445892 0.02729257 0.0417827 -0.012340404
0000d0 90 d1 2f bd a4 cc b9 bc 37 aa 93 3c 57 a8 b0 bc
       -0.042924464 -0.022680588 0.0180255 -0.021564646
0000e0 6c d4 23 3d 7a 9c 07 3d cf f8 1a 3d fa 12 e3 bb
       0.039997503 0.033108212 0.03783494 -0.0069297524
0000f0 c4 51 d0 bc c8 6f 9d 3c ad 46 08 3c 5f 14 05 bd
       -0.025429614 0.01921834 0.008317632 -0.03249013
000100 4d 28 2a 3c 8b 82 d1 3b 93 b1 34 3b ed 99 1f bd
       0.010385585 0.0063937358 0.0027571663 -0.038965154
000110 70 6c 2e 3d c7 b1 21 bc e7 ab ae bc c8 31 34 bd
       0.042583883 -0.009869046 -0.021322204 -0.043992788
000120 69 e9 ed 3c be fe 6d 3c cd 15 1e 3d 37 91 03 bd
       0.029041963 0.014526067 0.03859501 -0.03212091
000130 75 4d f1 bc 15 25 72 ba e3 bb e2 3c 6c ae ad bc
       -0.02945588 -0.0009237093 0.027677482 -0.021201335
000140 a0 a9 13 3d b6 29 22 bd a9 3f e8 3b c3 15 0f 3d
       0.03605044 -0.03959056 0.007087667 0.034932863
000150 75 27 17 bd c1 6c d8 3c f7 fe a8 bc 1e 82 19 bd
       -0.036902864 0.026419045 -0.02062939 -0.037477605
000160 1d 52 47 3c b3 7e 43 38 21 ce b6 3c 3d f9 1a 3d
       0.012165573 4.660962e-05 0.022315087 0.03783535
000170 e7 77 80 3c 5a 91 ba 3c 91 7d d2 3c 3d 50 b1 bc
       0.015682174 0.022774387 0.02569464 -0.021644706
000180 da 55 75 3c 7a d5 81 3c 69 4f e0 ba b6 74 f7 3c
       0.014974082 0.015848864 -0.001711351 0.03020702
000190 70 3f 18 bc 50 3a 9f 3c 75 39 7c 3c ea 8f af bc
       -0.009292468 0.019436985 0.015394558 -0.021430928
0001a0 42 c6 20 bd 78 8d 2e bd 83 6f 92 bc a4 4f d7 3c
       -0.039251573 -0.042615384 -0.017875439 0.026283093
0001b0 f4 46 21 bd d0 01 d2 bc 66 7c 19 3d ab 56 72 3c
       -0.039374307 -0.02563563 0.03747215 0.014791171
0001c0 ef 36 0e bd 98 49 56 3b 5e 95 09 3d c0 ec b8 3c
       -0.034720358 0.0032697674 0.033589713 0.022573829
0001d0 95 2d 2a bc 97 43 00 bd 06 43 a5 3c 15 a6 39 3c
       -0.010386844 -0.03131446 0.02017356 0.011331101
0001e0 94 ac bb 3c 1a aa 38 3c a3 a1 d6 3c b5 50 5a bb
       0.02290944 0.011271024 0.026200121 -0.0033312265
0001f0 9b 8f 06 bd bf 99 e3 3c 1f a5 a4 bb 06 93 0b bd
       -0.032851797 0.027783273 -0.005024567 -0.03407576
000200 1a 50 ee 3c 55 14 15 bd 2f 49 eb 3c 10 dc 21 bd
       0.02909093 -0.036396343 0.02872142 -0.03951651
000210 7d 53 bd bc b0 10 11 3d f7 bf 0f 3c 3e cc ee bc
       -0.0231111 0.035416305 0.008773795 -0.029150125
000220 20 b4 76 3c 10 9d 6c 3c f2 ab 16 3c 04 18 0f bd
       0.015057594 0.0144417435 0.009196268 -0.034935012
000230 9c d7 d9 bc d8 a1 0a 3d 43 ba 10 bd 2e 94 30 bd
       -0.026592068 0.033845752 -0.035333883 -0.043110065
000240 83 4e c4 bc 96 95 a8 bc 9f 74 0e bd 75 ac 47 bc
       -0.023963219 -0.02057914 -0.034779187 -0.012187113
000250 07 13 ce bc fc 66 69 3c 0a be fd bc 24 16 84 3c
       -0.025155557 0.014245745 -0.030974407 0.016123839
000260 7b 60 e1 3c 87 35 fd bc 80 8e 0f 3c fb 25 86 3c
       0.027511826 -0.030909313 0.008762002 0.016375532
000270 40 d9 fc 3c b0 66 16 bd ed 8e 57 3b 41 bd e7 bc
       0.030865312 -0.036719024 0.0032891587 -0.028288485
000280 6f 4d 64 bc 78 6f 90 bc 8d e2 0c 3d 24 ba da 3c
       -0.013934477 -0.017631277 0.034395743 0.026700087
000290 1b 84 34 bd e3 b2 d8 3c e9 2e b7 bc 4d 6f 5a 3c
       -0.044071298 0.026452487 -0.022361236 0.0133322
0002a0 ca a4 d5 3c 0e 3b 32 3d ab a7 b1 bb 21 ab 11 3a
       0.026079554 0.04351335 -0.005421599 0.0005556811
0002b0 a0 f7 ae bb 66 4a 55 3c d0 7b 01 3d 72 ed 85 bb
       -0.005339578 0.013018226 0.031612217 -0.0040871436
0002c0 e0 92 14 bc 2a 56 18 3c 37 73 13 bd 64 d9 c2 3c
       -0.009068221 0.009297887 -0.03599855 0.0237853
0002d0 84 ec eb 3b 71 21 01 bd 60 79 e3 bb 17 f8 2d 3d
       0.0071998257 -0.031526033 -0.0069419593 0.042472925
0002e0 e3 8c 0f bd e5 e9 1e bc 0c 58 09 3d 1d c1 e7 ba
       -0.03504647 -0.0096993195 0.033531234 -0.0017681454
0002f0 d5 fa e1 bc 48 dc a0 bc 86 5c 84 bc 71 eb 1b 3c
       -0.027585426 -0.019636288 -0.0161574 0.009516583
000300 24 10 e9 bc 55 9c a5 bc 68 63 a9 bc 37 66 1e 3d
       -0.02845008 -0.020216146 -0.020677283 0.0386717
000310 31 6d 91 bc a2 d8 7b 3c fc 4e 49 3c 6b 68 bf bc
       -0.017752262 0.0153714735 0.012286898 -0.02336522
000320 d6 94 ba 3c 79 a0 c2 bc a9 c9 81 bb 53 dd 44 3c
       0.022776049 -0.02375816 -0.0039608073 0.012015658
000330 38 1c 06 3d 10 3e a7 3c 4d af b1 bc a4 1b 09 bd
       0.032741755 0.020415336 -0.021690035 -0.033473626
000340 79 8e d9 bc 42 1e 3c 3c f4 ca e1 3c 73 d2 44 bc
       -0.026557194 0.011481823 0.027562596 -0.012013066
000350 32 b2 f9 3c 3c f3 2b bc 27 33 97 3c 12 eb 18 3d
       0.030480478 -0.010495003 0.018457009 0.037333556
000360 cf cd 0f bd b1 47 29 3d a2 23 21 3d 3c 4c a0 3c
       -0.035108384 0.041328136 0.039340623 0.019567601
000370 3c 3e e3 bc cd 6b 87 3c d9 94 07 3d 46 90 cb bc
       -0.027739637 0.016530896 0.033100937 -0.024849068
000380 6f 73 83 bc e3 ff 96 3c 58 b5 78 3c fa 5f 98 bc
       -0.016046254 0.018432563 0.0151799545 -0.018600453
000390 58 fe 73 bc 94 7f 03 bd 0d 5e 3d bc c1 f0 b7 bb
       -0.014892183 -0.03210409 -0.011558068 -0.005613417
0003a0 d9 21 5c bc 54 4c 90 bb cb c1 23 3d 3b cd 3b 3c
       -0.013435804 -0.0044036303 0.039979737 0.011462505
0003b0 b4 97 de bb 93 ed 5d bc 8e 8f 51 3c 30 55 a8 ba
       -0.0067929868 -0.013545412 0.012790574 -0.0012842771
0003c0 4a cf 07 bd 0d 3e a9 bc 59 92 9e 3c d5 2b ab 3c
       -0.03315667 -0.02065947 0.019356893 0.020894924
0003d0 22 c2 cb 3c f6 d4 1b 3d 80 d1 34 bb 53 3f 0c bd
       0.024872843 0.038044892 -0.0027590692 -0.03424008
0003e0 1a b9 2d 3d 59 32 c5 bb 94 67 2c bd 38 3f bf bb
       0.042412855 -0.006017965 -0.042090967 -0.0058363937
0003f0 8a 8c c4 bc 0e 78 01 3d c0 03 9c 3b ba d2 19 bd
       -0.023992795 0.031608634 0.004761189 -0.03755448

conv3.bias f4 [7]
000000 f4 6f 23 bd e0 82 c1 3b 28 1a 20 bc 2c c1 0a 3d
       -0.03990169 0.005905494 -0.009771861 0.03387563
000010 35 f0 14 bd b1 bc 8e bc 50 19 43 bc
       -0.03636189 -0.01742396 -0.01190789

conv4.weight f4 [3, 14, 6, 6]
000000 21 a1 92 bc 6e 71 9a bc 1d 7b 14 3d 82 c0 40 3b
       -0.017899098 -0.018852916 0.036250222 0.0029411619
000010 a1 3a 83 3b ae bc 1e bd e8 43 b2 3c 2a 9d 27 3d
       0.004004792 -0.038754158 0.021760896 0.040921368
000020 95 35 d9 3c 50 d1 2f 3d ac 44 0c 3c 36 33 02 3d
       0.026514808 0.042924225 0.0085612945 0.03178712
000030 88 8c 40 3c 3f eb 4c bc 76 f4 3c 3c 86 4f 2c bd
       0.011752255 -0.012507259 0.011532893 -0.042068027
000040 bb 68 2c 3d 44 bc d6 bc b6 ef bc 3b c1 91 df 3b
       0.042092066 -0.026212819 0.0057658805 0.006822795
000050 ab 1e bb bb b4 c4 2a bc fb a1 90 bc 27 94 f6 3c
       -0.005710443 -0.010422874 -0.017655363 0.030099941
000060 02 42 1d 3d 40 25 b8 bc a2 0e 20 bd 05 3c 0f bd
       0.038393028 -0.0224787 -0.039076455 -0.03496935
000070 6f 6b 4b bc 45 2a 20 3d 76 9a 21 bd ec 57 28 3d
       -0.012415751 0.03910281 -0.039453946 0.041099474
000080 eb 0a 0b 3c 1b 0b 36 3d ea ef 94 3c 7f 1d 22 bd
       0.00848649 0.044444185 0.018180806 -0.03957891
000090 0e dd 8f bc c1 d6 9f bc c9 08 a0 bc 1c ce 2b 3d
       -0.017561462 -0.019511582 -0.01953544 0.041944608
0000a0 9c 08 56 3c ec 00 31 bd d4 4d bd bc 76 37 cf bc
       0.013063576 -0.04321377 -0.0231084 -0.025295
0000b0 3b ff 20 bd f3 a3 17 bd cb 85 28 3d 82 a6 0b 3d
       -0.039305907 -0.03702159 0.04114322 0.03409434
0000c0 f7 48 33 3d 3d b9 01 3d 9c 1b 19 bd 05 d9 16 3d
       0.043770757 0.031670798 -0.037379846 0.03682806
0000d0 3f cd 8c 3c b7 79 2e bd 50 94 17 3d da a3 9c 3c
       0.017187713 -0.042596545 0.037006676 0.0191211
0000e0 00 6c dd bc 2e 28 14 bc 6b 73 d4 bc c9 c3 4d bc
       -0.027029037 -0.009042783 -0.025933942 -0.012558886
0000f0 f4 40 25 3d a6 a4 d6 bc 39 62 33 bd 1b 39 d8 bb
       0.040345147 -0.026201557 -0.043794844 -0.0065986044
000100 b4 c0 9b bc 48 de 71 bb 61 59 24 bc 93 e5 ae 3c
       -0.019012786 -0.0036906172 -0.010031075 0.021349704
000110 d0 74 1f 3d 13 35 e9 3c e7 c1 1f bd ec 29 08 bb
       0.03892976 0.02846769 -0.03900328 -0.002077694
000120 62 d9 0b 3d 0f bf ab 3b 7c 95 fb bc 2d 51 8b bc
       0.03414286 0.005241282 -0.030710928 -0.017006481
000130 72 a3 81 3b 0e 08 ad bc 13 42 14 3c 8d 97 16 3d
       0.003956252 -0.021122005 0.009048956 0.036765624
000140 18 b4 ad 3b 1e 37 00 bd 34 be d5 3c cc fc f8 3c
       0.00530101 -0.031302564 0.026091672 0.03039398
000150 b8 8f 20 bd 39 c0 26 bd 9a ba 1c bd 6e 62 34 bc
       -0.03919956 -0.04071066 -0.038263895 -0.011009796
000160 af 9e ea bb c4 a3 e7 3c c9 ce 00 3d 95 30 29 3d
       -0.00716003 0.028276332 0.031447206 0.041306097
000170 40 be 17 3c a7 12 b1 bc cb f0 01 bd 43 13 ba 3c
       0.009261668 -0.02161534 -0.03172378 0.022714263
000180 3e 3f d2 3c 27 35 ae bb 8f b9 2c bd 7c 37 43 3a
       0.025664922 -0.005316395 -0.04216915 0.00074469275
000190 54 95 99 3c 2c df 90 bc 40 a1 ee bc e7 d6 7e 3c
       0.018747963 -0.017684542 -0.029129624 0.015554166
0001a0 ff ed cc 3c b9 64 f2 3c 33 b4 70 bb b4 30 86 bc
       0.02501583 0.029589044 -0.00367285 -0.016380645
0001b0 e0 27 07 3d 6d 49 0e 3d 2e 89 5c bb 1b bd bf ba
       0.032997012 0.034737993 -0.0033651101 -0.0014628501
0001c0 87 39 13 3b 47 d1 20 bd 0a 12 11 3d 94 3e f6 bc
       0.002246471 -0.039262082 0.035417594 -0.030059136
0001d0 ce 7c bf 3c 44 a8 04 bd 83 af b0 3c 8e 1c 1f 3c
       0.023374941 -0.032387033 0.021568066 0.009711398
0001e0 85 a2 1b 3d 97 e5 f1 bc e8 5d 00 bd 81 68 1c bd
       0.037996788 -0.029528422 -0.031339556 -0.0381856
0001f0 8f b9 2a 3d f1 71 32 bd d4 bf de bc 68 5a 60 bc
       0.04168087 -0.043565694 -0.02719108 -0.0136934295
000200 b5 12 cb bc 4d f5 e9 3b 74 d5 3b bc 0a 19 ac bc
       -0.024789194 0.007139838 -0.011464465 -0.021008033
000210 93 27 cf bc eb 01 dd bc 3a 20 9a bc 30 1d 33 3c
       -0.025287425 -0.026978454 -0.018814195 0.010932252
000220 0d 66 7e bb 63 64 44 bc 6e a7 14 3d 68 3a 92 3c
       -0.0038818151 -0.011986825 0.036292486 0.017850116
000230 95 5a 09 3d 1c 05 86 3c 30 71 94 3c 9c 6d 06 bc
       0.03353365 0.016359858 0.018120378 -0.008204844
000240 49 55 48 3c f2 dd 24 3d 1d 79 3d 3a 33 1b 49 bc
       0.012227365 0.040250726 0.0007227825 -0.012274551
000250 9e 5b 6f 3c 1a ea 0e bb 86 48 6d bc fa 8d ab 3c
       0.014609246 -0.0021807016 -0.014482623 0.020941723
000260 85 36 08 bd ec 6f 22 3c 2b bc ed 3c 35 7f a3 bc
       -0.03325512 0.00991438 0.02902039 -0.019958118
000270 70 66 9f bb 62 7d 9f bc 1e 6e 0b 3d 17 f3 1f 3d
       -0.0048645064 -0.019468967 0.034040563 0.039050188
000280 e1 2d 24 3d 1a df f6 3c fd b4 67 3a 04 06 2e 3c
       0.040082816 0.03013568 0.000883892 0.010621551
000290 cc ce 11 3c 3a cc 02 bd cc b5 78 bb 26 3c b7 3c
       0.008899402 -0.031933047 -0.0037950156 0.022367548
0002a0 4b a5 b8 bc b3 d7 dc bc 11 68 0e bd 4c 7a 85 3c
       -0.022539755 -0.026958322 -0.034767214 0.016293667
0002b0 4a 61 96 bb 13 58 29 bd 80 bc 02 bd 9b 2c 1e bd
       -0.0045892345 -0.04134376 -0.03191805 -0.038616758
0002c0 50 91 13 3d ca ef e4 bc 5b fd c2 3c 60 64 10 bd
       0.036027253 -0.027946372 0.02380245 -0.035251975
0002d0 50 02 8d bc 2f 39 fa 3b cb 0c e9 bc 97 d5 94 bc
       -0.017213017 0.0076362113 -0.028448483 -0.018168254
0002e0 d1 ed fa 3b 32 a5 c3 3c 33 75 24 3d c5 01 bc 3c
       0.0076577445 0.023882482 0.040150832 0.022950063
0002f0 b4 29 b3 bc 45 a6 2e 3d 5e 32 5f bc 5e 69 ca 3b
       -0.021870472 0.042639036 -0.013622848 0.0061771115
000300 29 b5 58 bc ad b6 95 3b ca 0f 82 bc 02 12 23 bc
       -0.013226786 0.004568896 -0.01587667 -0.009953024
000310 dd e6 a8 3b 4e 42 a5 3c d9 67 f6 bb a5 07 31 3d
       0.005154474 0.020173218 -0.007519704 0.04322018
000320 0b 82 b3 bb 13 af 54 bc e7 2f 1f bd 50 d3 1c bd
       -0.005478149 -0.012981194 -0.038864043 -0.03828746
000330 41 72 0d 3d cb 72 cd bc f2 e4 21 3c ad 90 ef 3b
       0.03453279 -0.025079152 0.009881245 0.007310948
000340 05 54 0c 3d 4e 4d 28 3d 72 f1 04 3d ca bf fd 3c
       0.034259815 0.04108935 0.032456823 0.030975241
000350 cb 01 01 bd 0d 2a 21 3d 55 9e dc 3c 50 fe b7 bb
       -0.03149585 0.039346743 0.026930967 -0.005615033
000360 f4 cf 9f 3c 53 af df 3c 5e 88 08 bd 75 fa c0 3c
       0.01950834 0.02730528 -0.033333175 0.023556927
000370 30 ec b3 bc fc 66 7a bb 5f 65 da 3b 04 8c 97 3b
       -0.021963209 -0.0038208356 0.0066649164 0.0046248455
000380 9e c8 00 3b 23 fc bb bb 84 72 d6 bc 1e 2d 80 3c
       0.0019650827 -0.005736844 -0.026177652 0.015646514
000390 4e 7b 11 bd 69 da 0a 3d ba 70 31 bd 53 53 f0 bb
       -0.035517983 0.0338997 -0.043320395 -0.007334152
0003a0 92 81 19 bd b3 c4 14 bd 87 31 11 bc 14 e6 fb bc
       -0.037477084 -0.0363204 -0.008861906 -0.030749358
0003b0 6e bd df 3c 6c 18 67 bc f8 ed 8c bc 78 36 c9 3c
       0.027312007 -0.014104944 -0.017203316 0.024562106
0003c0 5a 3d 2b 3d b3 4c ee 3c 2d 3e 05 bd 3c 92 92 bc
       0.041806556 0.029089307 -0.03253 -0.017891996
0003d0 52 ed 04 3d 25 79 19 3c 53 8d e6 bc d0 39 22 bd
       0.03245289 0.009367262 -0.02814356 -0.039605916
0003e0 60 c8 c7 bc 4f 48 b6 bb 5f 7c 78 bc a7 a0 17 bc
       -0.024387538 -0.005562819 -0.015166371 -0.009254611
0003f0 2a e7 35 3d 4d 5b e4 3c b5 7e ce 3c 95 f5 0f 3d
       0.04440991 0.027875567 0.025206903 0.035146315

conv4.bias f4 [3]
000000 e8 3c c9 3a 6e 4e 1f 3d a7 0d 8c bc
       0.0015353234 0.038893156 -0.017096354

conv5.weight f4 [1, 3, 6, 6]
000000 83 45 ef 39 9b 79 95 3c 12 a3 3b 3d d9 25 a1 bd
       0.00045637423 0.018246463 0.045809813 -0.07868547
000010 34 9c a9 bd b4 34 be bc 34 64 2a bd c6 f7 62 bd
       -0.082817465 -0.02321849 -0.041599467 -0.055412076
000020 a6 d1 59 3d df 46 1e b8 5a a7 48 3d a8 12 24 bb
       0.053178452 -3.773614e-05 0.048987724 -0.0025035534
000030 0f 1b bf 3d 88 61 0a bd f2 3e 63 bc 6b 9a 9b 3d
       0.09331333 -0.03378442 -0.013869988 0.07597812
000040 3f dd 4a 3d 7d 6a 13 bd 5b 8d ab 3d 70 de 13 3d
       0.049527403 -0.035990227 0.08376571 0.036100805
000050 b4 bc 64 bd 00 ac 64 3d 68 c3 4c 3d af 87 8b 3d
       -0.055844024 0.055828094 0.04999104 0.06812989
000060 cd bd 33 3d 8b 92 cb bc bb 02 5c bd 8f d0 8b bb
       0.04388218 -0.02485015 -0.05371354 -0.0042668055
000070 b6 24 ec 3c ee 19 aa 3c 6c 88 89 bd 57 7a 0d 3d
       0.028826099 0.020764317 -0.067154735 0.0345405
000080 dd f4 3a bd e9 91 57 3d db c9 b0 3c 5f 37 3d bd
       -0.045643676 0.052629385 0.021580627 -0.046195384
000090 37 2d ac 3d c8 95 83 bc 59 a1 47 bd fd 23 9b 3d
       0.084070615 -0.016062632 -0.048737857 0.075752236
0000a0 5d d9 81 3d e7 0c 96 bd f5 e9 9a bd c4 57 a0 3d
       0.06340287 -0.0732668 -0.07564155 0.0782924
0000b0 0d 05 2a bd 09 a8 a1 3d 66 69 a7 3d 15 54 b0 3d
       -0.041508723 0.07893378 0.081744 0.086097874
0000c0 75 40 96 bd 42 01 99 3d 26 a9 82 3d 19 e0 e7 3c
       -0.07336513 0.07470943 0.06379919 0.0283051
0000d0 92 ad 38 bd f1 d3 2d 3d 19 c1 ac bd 36 97 29 bd
       -0.045087405 0.04243845 -0.08435268 -0.04140397
0000e0 cb 55 83 3d 96 f1 43 3d f0 18 63 bd 80 cd 97 bc
       0.06412848 0.047837816 -0.055443704 -0.018530607
0000f0 29 5d 9c bc 73 62 bd bd 24 73 0c bc 70 dd b8 bc
       -0.019087391 -0.09247293 -0.008572374 -0.022566527
000100 f3 cf a7 bd af ec a3 3d 0c 7b 72 bd e3 3f 1a 3d
       -0.0819396 0.08004128 -0.059199378 0.037658583
000110 39 09 37 bd a9 e7 70 bd a4 b9 a8 bd fb ac 0d bd
       -0.04468653 -0.05881468 -0.08238533 -0.034588795
000120 20 9e cd 3c 33 28 83 3c 73 c8 e9 bc 6d 92 17 3d
       0.025099814 0.01601038 -0.028537964 0.037004877
000130 88 7e 61 bc 7d d6 76 bd da 5b 93 bd bc bc 26 3d
       -0.013763078 -0.060263146 -0.07195254 0.040707335
000140 88 34 eb 3c da 79 a1 3c be 9e 21 3d 50 3b 8b bd
       0.028711572 0.019711424 0.03945803 -0.06798422
000150 89 d2 36 3d a9 b6 8a 3d 06 a7 ba 3d a6 59 8f bd
       0.044634376 0.06773121 0.091138884 -0.06999521
000160 ad 25 df 3c 84 22 13 3d 07 c9 ea 3c 29 4e 93 3d
       0.027239645 0.03592159 0.02866031 0.07192642
000170 85 a9 b1 3d 4a 7d a1 3d dc 0f 66 3d f3 f6 1a bd
       0.086749114 0.07885225 0.05616747 -0.037833165
000180 cb 2f ed 3c 37 8e 17 3d 1e f3 8b 3d f6 e1 7d bd
       0.028953454 0.03700086 0.0683348 -0.06198307
000190 44 35 c6 3c bf 0b 9e bd 5a 7f 9e bd 2a f6 12 3d
       0.02419532 -0.07717084 -0.07739134 0.03587929
0001a0 bd af 48 bd 59 23 b0 3d a1 40 ac 3d e3 02 8f bd
       -0.048995722 0.08600492 0.084107645 -0.069829725

conv6.weight f4 [1, 3, 6, 6]
000000 5a 5b 7e bd 7f 50 17 bd 43 69 b9 3d 2b 4d b0 bd
       -0.06209884 -0.036942 0.0905328 -0.086084686
000010 d5 16 6b 3d 23 c8 50 bd e9 8d c1 ba c7 57 b0 bd
       0.05739482 -0.050972115 -0.0014767024 -0.08610492
000020 2e 0b 15 3b 41 89 25 3d 17 24 97 3d 37 d4 4e 3c
       0.002274226 0.0404141 0.073799305 0.012623838
000030 b1 d0 b7 bd c6 1d ab bd 09 4b 39 bc d9 6e 08 3c
       -0.089753516 -0.08355288 -0.011309394 0.008327209
000040 b4 b7 c5 bc 7e 21 09 3d 6f a8 41 3d b0 46 02 bb
       -0.024135448 0.033479206 0.04727977 -0.0019878559
000050 fa f2 2d 3d 25 2e 3e bd b2 12 0f 3c f0 32 1c 3d
       0.04246805 -0.046430726 0.008732485 0.038134515
000060 52 e8 0a bd 8f 81 1c bd e9 08 a3 bd 83 d0 8f bd
       -0.033912964 -0.038209494 -0.07960684 -0.07022192
000070 95 07 ab 3c d8 4c 0b 3d 5d 31 3b bd 4c 4d b2 3d
       0.020877639 0.03400883 -0.045701373 0.087061495
000080 ed cf 6c 3d 32 55 53 3c 47 7b b0 bd 44 1d 1a bd
       0.05781548 0.01289873 -0.08617263 -0.037625566
000090 8f 43 5f bd fb bb 52 bd 26 43 8f 3d 93 03 01 3d
       -0.05450779 -0.051448803 0.069952294 0.03149755
0000a0 d1 8a 21 bd 25 c1 b6 bd 5e a2 94 3d 47 ec 62 bd
       -0.039439026 -0.08923558 0.072575316 -0.055401113
0000b0 57 86 75 3d c7 ff 98 3d 27 a7 4d bd 7e 60 ba 3d
       0.05994257 0.07470661 -0.050208237 0.09100436
0000c0 b0 3a 74 bd ab 12 99 3d 53 22 bc bd f9 76 01 3d
       -0.05962628 0.07474264 -0.09186234 0.0316076
0000d0 58 ee b6 39 a9 d7 9d bd ca 19 27 bd 45 18 bd bd
       0.00034891325 -0.077071495 -0.04079608 -0.09233145
0000e0 f6 c2 10 bd cf 1c 5e bc 6e ca 79 3d 6e 66 c3 bd
       -0.03534218 -0.013556673 0.060984068 -0.09541021
0000f0 9d ee 35 3d aa 66 61 bc 92 75 ac 3d 1e 85 5b 3d
       0.044417012 -0.013757387 0.08420862 0.053593747
000100 3c 80 aa 3d db 5a 45 bd 21 49 9a bd 13 a9 81 3d
       0.0832524 -0.04818235 -0.075334795 0.063310765
000110 49 2c 87 3d 8b 48 6a bd 62 1a 30 3c 2a 84 b9 bd
       0.066002436 -0.05719809 0.010748478 -0.090584114
000120 84 be 54 bd 0b 64 fe 3b 20 47 52 bd 65 65 7a 3d
       -0.051939502 0.007763391 -0.05133736 0.061131854
000130 4e 0b c2 3d 71 76 b0 3d 10 fa 65 bd c5 81 b9 bd
       0.094748124 0.08616341 -0.05614668 -0.09057955
000140 d4 67 b2 bc 3c 3d 98 bd 33 5e 48 3d d4 22 51 3d
       -0.021778025 -0.074335545 0.04891796 0.051058605
000150 4e 3b c5 bc 61 5a b0 3b e1 db f2 bc 13 32 7b bd
       -0.02407613 0.0053818678 -0.029645862 -0.06132705
000160 fa 28 9e 3d 7e 76 21 bd 7d fc e2 bb 91 da e8 bc
       0.077226594 -0.039419644 -0.0069270716 -0.028424533
000170 e2 b0 95 3d 7b c3 c5 bd e4 f7 34 3d 14 b3 8e 3d
       0.07309128 -0.096564256 0.04418172 0.0696775
000180 60 28 4c 3d 48 08 38 3d 7a 46 eb bc ca d6 82 3d
       0.049843192 0.044929773 -0.02872013 0.06388624
000190 20 4b 58 bd 0b d6 84 3c fc 88 ae bd 26 78 ce bc
       -0.05280602 0.016215345 -0.085222214 -0.025203776
0001a0 50 8c b5 bd d1 3d 85 3d c2 a1 ca bc 12 bc 0c 3c
       -0.08864653 0.06505931 -0.024735335 0.008589761

conv7.weight f4 [1, 2, 6, 6]
000000 9d df 90 bc 76 a2 92 3c b8 6e 2b bd 66 6f ca bc
       -0.017684752 0.017899733 -0.041853637 -0.024711322
000010 75 f6 32 3d ab c5 7a bd fe 19 75 3d c9 6d f4 3c
       0.04369207 -0.061223667 0.05983924 0.029837506
000020 51 a0 81 3d f1 a7 a2 3d af 09 d1 3d 94 cc 1e bd
       0.06329406 0.079421885 0.10206925 -0.03876932
000030 83 a1 c8 bc 42 6d 52 3c a6 a9 88 3d 63 23 5e 3d
       -0.024491077 0.012843432 0.06672983 0.054232966
000040 2e 42 2a bd b4 18 cb bd cd 25 2d bd 1d af d3 3d
       -0.04156702 -0.09916821 -0.042272378 0.103361346
000050 43 27 e2 bd ab c9 bb bc 1a ce b9 3b b7 60 04 bd
       -0.11042645 -0.022923311 0.005670321 -0.032318797
000060 df fa 88 3d c7 79 62 ba f6 ce c2 3d e7 d5 50 bd
       0.06688475 -0.0008639362 0.09512131 -0.050985243
000070 2d 39 cc 3d ac 6d dc bc 08 bf 9c 3c aa a3 86 3d
       0.09971843 -0.026907764 0.01913406 0.06574185
000080 bc e1 a3 3c e2 c4 d9 3d f5 a7 1e bd b3 44 30 3d
       0.0200051 0.106332555 -0.038734395 0.043034267
000090 f6 46 4a 3d 82 2d 59 3d 19 7b e5 3d e0 9c 2a 3d
       0.04938408 0.053021915 0.1120512 0.041653514
0000a0 0a 2d 8b bd 91 3c 81 ba 18 b0 e6 bd 99 3c b1 bd
       -0.067957 -0.0009859969 -0.11264056 -0.08654136
0000b0 af 8c 72 bd 56 65 14 3d 58 3f 42 3d 6f 88 2c 3d
       -0.059216198 0.036229454 0.04742369 0.0421223
0000c0 0f 87 a1 bd 5b fa b9 3d 78 1d 55 3d 04 3c a6 3a
       -0.078870885 0.09080955 0.052030057 0.0012682681
0000d0 32 ed 0a 3d da d3 9a bb 43 57 b7 bd 73 6e 8b bd
       0.033917613 -0.0047249617 -0.08952191 -0.06808176
0000e0 9a aa 03 3d 24 7d f0 bd 1e b9 a6 bd 6f cf b9 3d
       0.03214512 -0.11742619 -0.08140777 0.09072768
0000f0 46 71 d7 3d 75 bb ec bd b7 fc c6 bd 05 4d 72 bc
       0.10519652 -0.11559192 -0.0971617 -0.014788871
000100 d2 0f 52 3d 95 26 b4 bc 39 cd 5c 3d 3c ee e5 bd
       0.05128462 -0.021991054 0.053906653 -0.1122708
000110 82 65 46 3d 84 0a 95 bc a4 1c df 3d 2b e7 9c bd
       0.04843665 -0.01819349 0.10894135 -0.07661279
