siamese-models/siam_v2_41.pth (torch, 102187 bytes, 11 tensors)

conv1.weight f4 [14, 31, 6, 6]
000000 51 be d9 bc c1 15 a8 3c bd ac 92 3c c4 b8 88 bb
       -0.026580008 0.020518186 0.017904634 -0.0041724164
000010 d5 d0 c1 bb 1e 7e d1 3c c2 b8 ac 3c ec fa 46 3b
       -0.0059147873 0.025572833 0.021084193 0.0030361963
000020 f0 7f 87 bc d9 ea 83 3a d7 61 b6 3c 08 e3 8f bc
       -0.016540498 0.0010064497 0.02226345 -0.017564312
000030 2a 1e c7 3c 04 07 d0 bc 0b 89 66 bc a0 cf d1 3c
       0.024306376 -0.02539397 -0.0140707595 0.025611699
000040 65 6a 5e bc 09 cc a0 3b c8 66 61 ba fa 35 b8 3b
       -0.013575171 0.0049071354 -0.00085983844 0.005621669
000050 ea e4 da bc 73 6f c9 3c 0f 03 e7 3c d3 d1 1b 3b
       -0.026720483 0.024589276 0.0281997 0.0023776188
000060 b9 13 a0 3c ba 31 85 bc 7a 60 83 3c 2a b8 20 bc
       0.019540654 -0.016259063 0.016037215 -0.009809533
000070 95 bd c3 3b f0 ae 1a 3c b8 72 f4 3a 06 c7 b5 bb
       0.0059735277 0.009441122 0.0018649912 -0.005547407
000080 10 c4 b9 bc 92 df a3 3c 9a 0d d7 3c d5 aa c3 bc
       -0.022676498 0.020004068 0.026251603 -0.02388517
000090 4b 89 23 bc 13 e4 a8 3c 3b 80 49 ba 16 b7 39 3c
       -0.009981464 0.020616567 -0.00076866493 0.011335155
0000a0 e7 46 0d bc 62 dd e9 3c 4f 92 1a 3c bf 00 d5 bc
       -0.0086228615 0.028547946 0.009434297 -0.026001332
0000b0 6c e7 a5 3c 7a 5f bd bc 14 ed 98 3c 3f e3 28 3c
       0.020251952 -0.023116816 0.018667735 0.010308086
0000c0 b3 bd bb 3c 55 83 cb 3c a5 cd 2f bc fa cb e0 3b
       0.022917604 0.024842897 -0.010730182 0.0068602534
0000d0 f7 88 00 bc 32 73 e9 bc 62 47 cb 3b 61 e4 d9 bc
       -0.007845155 -0.028497312 0.006203578 -0.026598157
0000e0 84 f1 44 bc 3b d2 da 3c aa 51 d0 3c ae 35 00 3c
       -0.012020472 0.026711574 0.025429565 0.007825298
0000f0 13 67 36 bc 47 fc 66 bc 34 32 f1 3c 6e 5e b9 3c
       -0.011132973 -0.014098234 0.029442884 0.022628035
000100 11 1b 9f 3c 11 c4 7c bb 5a 18 cc bc f1 7f 04 bb
       0.019422086 -0.0038569013 -0.024913955 -0.002021786
000110 55 8d 9f bc 3a aa a2 3c 1f 47 ea 3c 36 e7 ce bc
       -0.019476572 0.019856561 0.028598366 -0.025256734
000120 bd 02 ef 3c 72 3f ec bc d3 8a 67 3b fb 35 f3 3c
       0.02917611 -0.028838847 0.0035330548 0.029688826
000130 68 59 cd bc a7 d4 9e bc ca 63 2a bc 2a 04 99 3c
       -0.025067046 -0.01938851 -0.010399768 0.018678743
000140 2d 0d a7 bb 73 4c ad bb 21 b7 99 3c ec f8 bd ba
       -0.005098006 -0.0052886545 0.01876408 -0.001449374
000150 e9 e6 e1 3c 7a 2e 5f bb 93 f7 0d bb cd 3d 5f bc
       0.027575927 -0.0034054802 -0.0021662458 -0.013625574
000160 02 b5 fb 3b 8a 1d 29 bc 68 87 48 bc 05 ca 86 3b
       0.00768149 -0.010321984 -0.012239315 0.004113438
000170 97 9f bb 3c 43 08 e4 bc 64 cd 49 bc 7d 48 b4 bc
       0.022903247 -0.02783597 -0.012317035 -0.022007221
000180 0f eb 72 bc 8f 81 23 3c 29 7c 17 3c 0e 94 ce 3c
       -0.01482655 0.00997962 0.009245911 0.025217082
000190 df cb c3 bc 51 7c d5 bc 27 37 c8 3c ca bc d8 bc
       -0.023900924 -0.026060255 0.024440361 -0.02645721
0001a0 3a 96 4e 3c df d2 4f 3c 9d 95 ce bc 48 6e 84 bc
       0.012609059 0.012684553 -0.025217826 -0.016165867
0001b0 1c f1 f0 3c d6 1f de ba f5 f2 ae 3c 85 3d dd ba
       0.029411845 -0.0016946744 0.021356085 -0.0016879296
0001c0 51 b8 9d bc a3 2a d1 bc 7d 2a 44 bb fb 97 b6 bc
       -0.019252928 -0.025533026 -0.0029932552 -0.022289267
0001d0 70 fc 50 3c dc e4 61 bb 5b 16 ab 37 3e f1 f7 bb
       0.012755498 -0.0034468686 2.0395199e-05 -0.0075666
0001e0 d9 25 a1 bc 58 3b ab 3a 94 8d 65 bc 4f 4a 6f bb
       -0.019671367 0.001306395 -0.014010806 -0.0036512797
0001f0 fe 68 b3 bc 1a 81 9f 3c b8 d2 23 bb 76 ca c1 bc
       -0.02190065 0.01947074 -0.0024997424 -0.023656111
000200 91 9b 97 bb 7b b8 ca bc 1f 38 b0 bc dc f1 a4 ba
       -0.0046266993 -0.02474617 -0.021511136 -0.0012584287
000210 cb de c0 bc b3 8a ee bc 2b 80 c8 3b 84 c0 56 bc
       -0.023543736 -0.029118871 0.0061187944 -0.013107423
000220 d1 69 a6 bc 96 80 6a 3b a0 21 84 3c 0e 92 cc bb
       -0.02031413 0.003578221 0.016129315 -0.006242997
000230 19 f7 7e bc b7 c5 28 3b 71 5d aa 3b 36 9b ec bc
       -0.015561842 0.0025752613 0.0051991274 -0.028882604
000240 77 89 a0 bc de 9d b7 3c a2 00 5f bc e7 41 dc 3c
       -0.019596798 0.022414144 -0.013610991 0.026886893
000250 b4 b2 f0 3b 2c 25 54 3b de 8b 8d 3c 2a 4e d5 bc
       0.007345522 0.003237079 0.017278608 -0.026038248
000260 a0 5e 0d bc 67 44 25 3c ca 05 4b 3a 03 52 8d 3c
       -0.008628517 0.010087109 0.0007744698 0.01725102
000270 d9 40 bd 3c d8 f0 87 bc 1a 8d c0 3c 19 18 44 bc
       0.02310221 -0.016594335 0.023504782 -0.011968636
000280 4b 02 c5 bc af 74 a5 bc ab f0 54 3c f2 db 9f 3c
       -0.024048945 -0.02019724 0.012996833 0.019514058
000290 bc b4 aa bc 98 5a e3 bc f0 01 c3 bc c1 88 c1 3c
       -0.020838134 -0.02775316 -0.023804635 0.02362478
0002a0 d3 6b 69 bb b7 31 e9 bc 3c 5f ca bc 49 3f 68 3c
       -0.0035617247 -0.028466089 -0.024703614 0.014175245
0002b0 11 47 df bc de 22 de 3c e2 20 b9 3c 3e c7 a1 3c
       -0.027255567 0.027116235 0.022598688 0.019748326
0002c0 e2 e5 68 bc 10 c5 c1 bc 24 2d 00 bc 8c c5 da 3c
       -0.014214965 -0.023653537 -0.007823262 0.026705526
0002d0 bd a8 b5 bc 27 59 df bc ed 87 7a 3c b5 5b c5 bc
       -0.022175187 -0.02726419 0.015291196 -0.02409158
0002e0 5a 2e 98 3c da fd e9 3a 14 b9 6c 3c 75 22 3f bc
       0.01857679 0.0017852143 0.014448423 -0.01166593
0002f0 8e ba 20 bc 6e e1 15 bc 78 2c 4f bc ae 95 8e bc
       -0.009810103 -0.009147985 -0.0126448795 -0.017405357
000300 00 d7 e1 3b 1d dd 8a 3b 98 ff 07 3c b5 60 84 3c
       0.006892085 0.0042377845 0.008300684 0.016159395
000310 25 f4 8c bc 18 a1 ed 3b 84 04 aa bc 37 90 9d bc
       -0.017206261 0.00725187 -0.020754106 -0.019233806
000320 3a 9e 12 3c 31 d6 30 bc 29 81 d6 3c b9 04 3d bc
       0.008948857 -0.010793255 0.026184635 -0.0115367705
000330 93 18 c9 3c c3 a6 bb 3c ea 8d 8c 3c bc 72 62 3c
       0.02454785 0.022906667 0.017157514 0.0138213
000340 82 f3 a1 bc e6 1f 85 bc 47 fc ae bb d1 e4 46 bc
       -0.019769434 -0.016250562 -0.0053401324 -0.012139515
000350 20 e3 77 3c df 24 a9 3b a4 43 76 3c 37 74 d5 3b
       0.015129834 0.005161866 0.015030775 0.006514098
000360 3a 5d d1 bc 2a 42 18 bb 8d d5 e1 3c 17 3b ad bc
       -0.02555715 -0.0023232796 0.02756765 -0.02114634
000370 1a f2 6a 3c 61 26 f0 bc e0 31 bc 3c 3e 12 0a 3c
       0.014339948 -0.029315175 0.022973001 0.008427201
000380 05 10 9f 3c 49 5d 60 3c 0d 32 0c b9 6c 6e a1 3c
       0.019416818 0.013694116 -0.00013370086 0.019705974
000390 00 be 0e bc d0 14 21 3c df 36 4e bb 16 ca 24 3c
       -0.008712292 0.009831622 -0.0031465811 0.010057947
0003a0 8e c9 aa bc ad 17 cb bc 65 31 88 bb 30 96 aa bc
       -0.020848062 -0.024791563 -0.004156279 -0.020823568
0003b0 3c 1d 95 bc 3a b1 ea bc f6 d4 df 3c a6 55 bf bc
       -0.018202417 -0.028648961 0.027323227 -0.02335627
0003c0 2a b1 e6 3c a6 d2 52 3c df 37 45 3c b8 db b7 3c
       0.02816065 0.012867605 0.0120372465 0.022443637
0003d0 e5 7c 3a bc c0 e7 23 3c 72 d3 ef 3c 2a f8 6e 3c
       -0.011382316 0.010003984 0.02927563 0.014585534
0003e0 2d eb ec 3c 1d 24 9d ba 83 c0 99 bc 4d 74 79 bc
       0.028920734 -0.0011988912 -0.018768555 -0.015225482
0003f0 6f 9e 10 3c 5b 11 cc bc 0a a8 1e 3c 43 a5 ca 3c
       0.008826836 -0.02491062 0.009683618 0.024737006

conv1.bias f4 [14]
000000 3a 4f 6c bc 90 78 54 bc 29 83 b8 bc 20 04 9e bc
       -0.014423186 -0.012968197 -0.02252348 -0.019289076
000010 f4 5d 7b 3c 79 96 85 bc c5 bf 81 bc 84 1b 36 bc
       0.015342224 -0.016307103 -0.015838513 -0.011114959
000020 fe ed 67 bc fc 6b 9e bb 88 f7 37 bc 18 9d 64 3c
       -0.014155863 -0.00483465 -0.01122845 0.01395347
000030 a8 74 8d bc 18 da d8 3b
       -0.01726754 0.0066177957

conv2.weight f4 [7, 14, 6, 6]
000000 67 4a 31 3c 19 da 17 bd 78 19 27 bd a1 1e 88 bc
       0.010820962 -0.03707323 -0.040795773 -0.016616168
000010 26 66 26 3d da 4c cf bc a6 2f 65 3c d5 da f5 bc
       0.04062476 -0.0253052 0.013988411 -0.030011574
000020 8f 08 17 3d a4 e1 15 3d 52 38 ab 3c 31 56 9b bc
       0.036873396 0.03659214 0.020900879 -0.018961998
000030 ce 04 12 bd e7 15 4d 3c 0c b0 13 3d 4a 44 4e bc
       -0.035649113 0.012517429 0.036056563 -0.012589524
000040 2b 14 9f bc 78 68 2f 3d 2b 38 30 3d fc 8a 03 bc
       -0.019418797 0.04282424 0.043022316 -0.008028742
000050 45 6e 08 3d d6 c2 17 bc 5c df 26 3d c8 3a 0d bd
       0.033308286 -0.009262761 0.040740356 -0.034479886
000060 46 9f d9 3c 97 18 8d 3b 50 70 f3 3c ce be 21 3c
       0.026565205 0.00430591 0.02971664 0.009872152
000070 80 60 96 3c fd bf 1d bc c5 d4 d6 3c 53 2a 35 bd
       0.018356562 -0.009628293 0.026224503 -0.044229817
000080 30 a2 52 bb 81 6f 7b bc e2 c2 80 bb e2 39 19 bd
       -0.0032140128 -0.015346409 -0.003929482 -0.037408717
000090 2f 19 76 bc e0 91 e9 3c 0b 7f 17 3d ed 30 45 bb
       -0.015020653 0.028511941 0.036986392 -0.0030088976
0000a0 6c cb 70 bc c0 89 f5 bc 44 cf 57 3c 63 86 13 3d
       -0.014696937 -0.02997291 0.013171975 0.036016833
0000b0 14 9f c7 3c b2 9c 11 3d 03 06 6c 3b 62 7d a9 3c
       0.024367847 0.035549827 0.0036014325 0.02068967
0000c0 b8 cb 52 3c e1 d6 fb bc 31 37 1d 3c 5b ad e3 bc
       0.012865953 -0.03074211 0.009595678 -0.027792623
0000d0 ca 08 be 3c 8c 8b 97 bc 67 4e ff bc 6a 98 36 bb
       0.02319755 -0.018499158 -0.031165315 -0.0027861842
0000e0 9f 17 6d 3a ac 91 cf bc fa 06 26 bd 07 24 18 bd
       0.00090443523 -0.025338016 -0.040533997 -0.037143733
0000f0 af cb 1c 3d f8 2a fb 3c 07 67 e0 3c 15 83 b5 3b
       0.038280185 0.030660138 0.027392877 0.005539308
000100 97 a7 90 bc 5f 60 88 3b 93 6b b6 3c cc 68 c6 bc
       -0.017658038 0.004161879 0.022268092 -0.024219893
000110 68 2a 5b 3c 38 d8 23 3b 24 ba 09 3a d6 50 5d 3c
       0.01337681 0.0025000703 0.00052538724 0.013508042
000120 0d 04 1a bc 68 a1 20 bc 4b bc 86 3c 41 6f 20 3d
       -0.00940038 -0.009804107 0.016447207 0.0391686
000130 36 be 52 bc c2 26 16 bb 87 d4 4a 3c 4a 69 e3 3c
       -0.012862733 -0.0022911285 0.012379772 0.027760167
000140 40 ea 30 bd 1f 19 86 3c 92 7d 0b bd c1 a0 cd 3b
       -0.04319215 0.0163694 -0.0340553 0.006275267
000150 0f a2 aa 3c db a4 f2 3b 0e a9 5e 3c ca 4b 6b bc
       0.020829229 0.007404906 0.0135901105 -0.014361331
000160 be b7 8a bc a7 23 61 3c 14 74 1f bd 65 df c9 bc
       -0.016933318 0.01374141 -0.03892906 -0.024642656
000170 ea e5 0f 3c d0 30 84 bc 92 7c d8 bc 2a c7 07 3d
       0.008782843 -0.016136557 -0.026426587 0.033148922
000180 ea 03 5a 3c b1 0d 99 3c b6 ed 23 3b a3 b3 a6 3c
       0.013306597 0.018683286 0.0025013513 0.02034933
000190 71 ef 5d bc 4d 95 8c ba cf d6 ca bc 67 7a 13 3d
       -0.013545857 -0.0010725647 -0.024760632 0.036005404
0001a0 57 80 fc bc e8 e5 de bc 0c 3c 9a bb 67 ec 8e bc
       -0.030822916 -0.027209237 -0.004706865 -0.01744671
0001b0 23 ac 31 3d 8c 2b 12 3d 4d 47 d6 bc 1c 19 d1 bc
       0.043377053 0.03568606 -0.026157046 -0.025524668
0001c0 aa 4f f5 bc 69 5b e6 bc 2c b7 05 bd e1 21 75 bb
       -0.029945213 -0.02811976 -0.03264539 -0.0037404227
0001d0 ae c1 3c bc ec cd c8 3b d9 f2 8a 3c 4c 39 0c 3d
       -0.011520786 0.0061280634 0.016961502 0.03423433
0001e0 6d ff 1c 3c a3 f4 2f bd 1a 67 da 3c 06 77 93 3b
       0.009582383 -0.042957913 0.02666049 0.0045002727
0001f0 4f 9d c1 bc 0c 79 15 bd 16 3a c1 bc d3 21 08 bd
       -0.02363458 -0.036492392 -0.023587268 -0.033235382
000200 dc f9 14 3c 9e 88 bc bb b6 54 86 3c e1 62 0f 3d
       0.009092774 -0.0057535907 0.016397815 0.035006408
000210 3f 28 26 bd 29 44 17 bd 30 89 30 bd 7b d3 e8 3a
       -0.040565725 -0.036930237 -0.043099582 0.0017763221
000220 3c e5 02 3d 76 09 59 3c c3 2e 0e bd 5e c3 0b bd
       0.031956896 0.013246885 -0.034712564 -0.034121864
000230 c9 71 33 3d 6a d3 bf bc 35 a0 ce 3c 38 1f ff bb
       0.043809686 -0.02341624 0.025222877 -0.007785704
000240 73 99 12 bd dd 65 29 bd 50 77 09 bc b8 76 03 bd
       -0.03579087 -0.04135691 -0.008390263 -0.03209564
000250 49 aa 1e 3d 3d 03 1c bd 0a eb 1d bd e5 e4 0c 3d
       0.038736615 -0.038089026 -0.03855423 0.03439798
000260 b9 84 bf bc d4 7a 18 bd 16 da c7 3a 13 65 cb 3c
       -0.023378717 -0.037226513 0.001524749 0.02482847
000270 37 f5 30 3d d1 4e 11 3d a9 79 87 3c 91 55 81 bc
       0.043202605 0.035475556 0.016537504 -0.015787872
000280 36 83 14 3d a2 b3 95 bc 24 01 d1 3c f6 13 9b bc
       0.036257945 -0.018274132 0.02551324 -0.018930417
000290 48 5e d8 bc aa 7d ee 3c be 8d 05 bd 2f 4f 94 bc
       -0.026412144 0.029112656 -0.03260588 -0.018104164
0002a0 17 07 a3 bc 0e ef 2b bd 51 68 ba ba 68 58 5c 3b
       -0.019900842 -0.041976027 -0.0014221763 0.003362203
0002b0 bf a9 f5 bc 83 f9 c7 3c 8a bc ee 3c fd 37 2d bc
       -0.029988168 0.024410969 0.029142637 -0.010572431
0002c0 2b c5 29 bd c4 ae 9e 3b be 2b 35 bd 3f 7f bd 3c
       -0.0414478 0.004842611 -0.04423117 0.023131965
0002d0 8e b3 92 bc f4 83 10 bc 6a eb fd 3c 0c 6c 03 3c
       -0.017907884 -0.008820523 0.030996043 0.008021366
0002e0 02 04 9a 3c a2 d2 9f bc 43 ee a8 bc 46 91 ef 3c
       0.01880074 -0.019509617 -0.020621425 0.029244076
0002f0 a2 51 16 bd 5c 51 9b 3c 68 6f 01 3d 5a b3 dd 3b
       -0.036698945 0.018959694 0.031600386 0.006765765
000300 f3 81 1c 3d 0c e6 1b 3d 1d f3 e6 bb 7e 9b 12 bd
       0.038209867 0.038061187 -0.0070480243 -0.03579282
000310 08 fd 89 3a fb d4 1e 3d ed 9e 2d bd e6 58 34 3c
       0.001052768 0.038777333 -0.04238789 0.011007523
000320 4b 27 31 bd ff 87 4b 3c 32 b4 0a bd f9 93 09 3c
       -0.043250363 0.012422561 -0.033863254 0.008397096
000330 b2 e3 b5 bc 02 b5 2b bc 1b b7 73 bc 30 bc e3 bc
       -0.0222033 -0.010480167 -0.014875199 -0.027799696
000340 13 13 56 3c 2e d3 06 bd 57 4e 50 3b 02 5a d8 bc
       0.013066071 -0.03291624 0.0031784975 -0.026410107
000350 85 9c 09 bd 0f 37 d0 bc fa 55 08 bd 83 ff fc bb
       -0.033596534 -0.025416879 -0.03328512 -0.007720889
000360 f3 bd 2e bd 19 07 2b bc 8c 47 d1 bb 5a 72 cc 3c
       -0.04266162 -0.010438704 -0.006386703 0.02495687
000370 0a 87 bf bc 5a 53 32 3b 75 8a 9e 3c 2c 1e 20 bd
       -0.023379821 0.0027210326 0.01935313 -0.039091274
000380 92 9e 1d bd 1e ee c3 bc f3 bc 00 bd 81 c9 23 3d
       -0.038481303 -0.023917254 -0.031430196 0.03998709
000390 7b 8b 7f bb 97 dd c8 3c 4a 3a e4 3c a1 38 0e bd
       -0.003899305 0.024519725 0.027859826 -0.034721974
0003a0 af f0 b5 bc e3 07 1b bb a7 37 90 bc d3 b1 d4 bc
       -0.022209493 -0.0023655824 -0.017604662 -0.0259637
0003b0 72 5f 28 bd e6 14 8d bc d9 11 94 bc 54 36 21 3d
       -0.04110665 -0.01722188 -0.018074917 0.039358452
0003c0 bb 7f 9f 3c 30 c1 6b 3c 55 f4 22 bc f7 0a 8e bb
       0.019470086 0.014389321 -0.009945949 -0.004334803
0003d0 5b 6a f8 bc ec 8b d6 3c fc 7c cf bc a1 0c 8e 3c
       -0.030324152 0.026189767 -0.025328152 0.017340006
0003e0 02 f1 a5 3a 4b 85 6c bc ca 09 26 bb 6d 32 82 bb
       0.0012660327 -0.014436076 -0.0025335425 -0.0039732964
0003f0 5f d7 11 3d 80 6f 74 bc c3 aa 87 bc 37 88 34 3d
       0.035605785 -0.014919162 -0.016560918 0.044075217

conv2.bias f4 [7]
000000 48 72 db bc b0 23 c8 bc 90 bf b2 3c bc 87 61 3c
       -0.026787892 -0.02443108 0.02181986 0.013765272
000010 da f2 6a bc 49 db 9a bc 50 28 19 3b
       -0.014340127 -0.018903391 0.0023369975

conv3.weight f4 [7, 14, 6, 6]
000000 e9 57 d7 bc 6d f8 06 bc cd c0 21 3d e7 77 f2 bc
       -0.026287036 -0.00823794 0.03949051 -0.02959819
000010 ec 21 1f bc 6c 7f 6e bb 29 5b 0e 3d f5 c1 8a bb
       -0.009712677 -0.0036391867 0.034754906 -0.0042345473
000020 de 14 4a 3c 15 39 14 3d 11 0c 30 bb 57 e7 8c bc
       0.012334077 0.03618725 -0.002686266 -0.017200155
000030 b6 fe 9f 3c f6 f4 78 ba 79 1e 05 3d a9 7a d6 bc
       0.019530635 -0.0009496951 0.032499764 -0.026181536
000040 82 d3 30 3c 41 50 46 3c f7 65 ab 3c b4 77 d7 bc
       0.010792615 0.012104095 0.020922644 -0.026302196
000050 b1 a1 ea 3c 27 79 2e bd e5 38 13 bc 80 7c 2d 3d
       0.028641554 -0.04259601 -0.008985733 0.04235506
000060 ff 8a 6d 3c 70 c4 06 3d 0f b7 23 3c 68 82 74 bc
       0.014498471 0.03290218 0.009992375 -0.014923669
000070 5d 17 18 3d 83 7a 2c 3d db bb a2 bc 2e ec 7f bb
       0.037131656 0.042109024 -0.019864967 -0.0039050686
000080 0d 04 e4 bc 45 e4 53 bc c8 da 20 3d ec fb e5 3c
       -0.027833963 -0.012932842 0.039271146 0.028074227
000090 be ea 0a 3c 8a a6 f9 bc 0f ec 5c 3c 25 a9 1a bd
       0.008478818 -0.03047492 0.013484015 -0.037758965
0000a0 a2 df a1 3c 1b ce c3 bc c2 25 d8 3b 2f d4 ba bc
       0.019759957 -0.02390199 0.006596298 -0.022806255
0000b0 19 69 1b bc b6 88 8a 3c 70 8b 2c bd 91 98 d5 3c
       -0.009485506 0.016910892 -0.042125165 0.026073726
0000c0 19 b0 c8 3c 9d 1a df 3c 24 5b 2b 3d 5a d2 4a bc
       0.024498032 0.02723437 0.041834965 -0.012379253
0000d0 39 2b 2f bd ce cf b9 bc 27 c8 94 3c 5d e4 af bc
       -0.04276583 -0.022682097 0.018161846 -0.021471197
0000e0 09 49 24 3d 45 b8 07 3d e3 a5 1b 3d 10 fc dd bb
       0.040108714 0.033134717 0.038 -0.006774433
0000f0 53 84 cf bc 31 a2 9f 3c fb aa 0a 3c c2 fc 04 bd
       -0.025331652 0.019486519 0.0084636165 -0.03246761
000100 d4 5e 2a 3c 90 61 d1 3b f8 68 38 3b f9 96 1e bd
       0.010398585 0.006389804 0.0028138738 -0.038718197
000110 29 90 2e 3d 64 8b 20 bc 57 b3 ab bc 0c 82 33 bd
       0.04261795 -0.009798858 -0.02095954 -0.043825194
000120 6b 62 ee 3c 64 f1 6f 3c 04 ca 1e 3d 91 c8 02 bd
       0.029099664 0.014644954 0.038766876 -0.031929556
000130 bc dd ef bc a6 29 69 ba 6a c6 e3 3c d0 9c ad bc
       -0.029280536 -0.0008894451 0.027804572 -0.021192938
000140 c4 e8 13 3d b5 be 21 bd 76 52 eb 3b fe 0f 0f 3d
       0.036110654 -0.039488513 0.007181461 0.03492736
000150 57 17 17 bd 0e 6f d8 3c 25 ad a7 bc 1e b9 18 bd
       -0.036887493 0.026420143 -0.020468304 -0.037285917
000160 fa 20 48 3c f5 41 6e 38 0a 78 b7 3c 6b c7 1a 3d
       0.0122148935 5.680505e-05 0.022396106 0.037787836
000170 95 22 82 3c ba 60 bb 3c b3 1c d2 3c 65 28 b1 bc
       0.01588563 0.022873271 0.02564845 -0.021625707
000180 f2 3f 76 3c d1 b0 81 3c 9f c9 c7 ba 03 73 f8 3c
       0.015029894 0.015831383 -0.0015242583 0.03032828
000190 6c 99 16 bc 3c ca 9f 3c cc 89 7b 3c dd 70 b0 bc
       -0.009191852 0.019505613 0.015352678 -0.021538192
0001a0 18 8d 20 bd ee be 2e bd 8e 19 92 bc 0a 4f d7 3c
       -0.039197057 -0.042662553 -0.017834451 0.026282806
0001b0 59 0f 22 bd 84 73 d3 bc e6 5d 18 3d 79 33 6f 3c
       -0.039565418 -0.025811918 0.037198924 0.014599674
0001c0 c5 bd 0e bd b3 9e 43 3b a2 ba 08 3d f5 a7 b7 3c
       -0.034848947 0.002984923 0.033381112 0.022418955
0001d0 e9 76 2c bc e0 d4 00 bd f0 9b a3 3c 80 38 36 3c
       -0.010526397 -0.031453013 0.019971818 0.011121869
0001e0 4c 3f ba 3c 58 7a 36 3c 83 4f d4 3c 84 b6 64 bb
       0.02273526 0.011137567 0.02591682 -0.0034898827
0001f0 64 e5 07 bd 0e 9f e1 3c fc 36 ab bb 35 70 0c bd
       -0.03317775 0.027541663 -0.0052250605 -0.034286696
000200 dc 9c ec 3c 08 88 15 bd a9 e0 e9 3c d3 96 22 bd
       0.02888339 -0.036506683 0.02854951 -0.03969462
000210 bf 21 be bc d8 06 10 3d 98 8b 0b 3c 03 a6 f0 bc
       -0.02320945 0.035162777 0.008517168 -0.029376036
000220 27 80 71 3c a3 0c 68 3c c9 16 12 3c b8 46 10 bd
       0.014740027 0.014163169 0.008916565 -0.035223693
000230 d0 fe db bc 47 b3 09 3d 07 74 11 bd 3f 33 31 bd
       -0.026854903 0.033618238 -0.035511043 -0.043261763
000240 89 35 c3 bc 27 e6 a6 bc d2 ee 0d bd 27 bb 46 bc
       -0.023829238 -0.020373417 -0.034651585 -0.0121295815
000250 06 c7 cd bc b1 64 6a 3c 98 34 fe bc a5 86 84 3c
       -0.025119316 0.014306233 -0.031030938 0.016177485
000260 c9 d8 e1 3c 7c f7 fc bc e4 83 0e 3c c6 81 85 3c
       0.027569192 -0.030879728 0.008698437 0.016297232
000270 a9 84 fe 3c 50 e0 15 bd cc 89 61 3b 6a 12 e7 bc
       0.031069117 -0.036590874 0.0034414409 -0.028207023
000280 46 7c 63 bc 7e 57 90 bc 93 41 0d 3d e9 8f db 3c
       -0.01388461 -0.017619845 0.034486365 0.02680202
000290 ea 53 34 bd e2 c6 d9 3c b1 5c b7 bc 2c 7c 5a 3c
       -0.04402534 0.026584093 -0.022383066 0.013335269
0002a0 87 50 d6 3c 41 f5 32 3d b8 1f ae bb 37 f1 43 3a
       0.026161445 0.043690924 -0.0053138398 0.00074746035
0002b0 51 95 af bb 85 da 56 3c f2 7b 01 3d 47 a0 82 bb
       -0.005358376 0.013113623 0.031612344 -0.0039863917
0002c0 b0 7e 13 bc aa 3d 1a 3c 48 ce 13 bd 48 5c c3 3c
       -0.009002373 0.009414116 -0.036085397 0.023847714
0002d0 71 67 e7 3b 11 84 01 bd 52 ae e7 bb d9 68 2d 3d
       0.0070618917 -0.03162009 -0.007070341 0.04233632
0002e0 ec 7c 10 bd 8d 18 21 bc 4f dc 08 3d 5d 25 f3 ba
       -0.035275385 -0.0098325135 0.033413228 -0.0018550564
0002f0 15 7f e3 bc 7f f1 a1 bc c1 39 85 bc 3f 4e 1a 3c
       -0.027770558 -0.019768475 -0.01626289 0.009418069
000300 8e 0e ea bc a1 07 a6 bc 39 65 aa bc 76 a7 1d 3d
       -0.028571393 -0.02026731 -0.02080022 0.03848978
000310 1a d1 92 bc b9 d1 78 3c 84 77 46 3c fa 27 bf bc
       -0.017921973 0.0151867205 0.012113456 -0.023334492
000320 43 11 ba 3c 98 6c c3 bc a2 3f 89 bb 66 3d 42 3c
       0.02271331 -0.023855492 -0.004188494 0.011855459
000330 1d 99 05 3d 05 c0 a5 3c 58 e6 b2 bc 9e 96 09 bd
       0.032616723 0.020233164 -0.021838352 -0.033590905
000340 41 a3 da bc 78 37 3a 3c 91 aa e1 3c f8 82 44 bc
       -0.026689174 0.011365764 0.027547153 -0.011994116
000350 68 6d f9 3c 8c 8d 2b bc 5d bf 95 3c 2d ae 18 3d
       0.030447677 -0.010470759 0.018279726 0.037275482
000360 b0 24 10 bd 44 89 28 3d 4e 34 21 3d bd fb 9f 3c
       -0.035191238 0.04114653 0.039356522 0.019529218
000370 c8 ff e3 bc ba 6b 86 3c f5 bb 07 3d 6c 50 cc bc
       -0.027831927 0.01640879 0.033138234 -0.024940692
000380 69 0a 83 bc 11 ff 95 3c bf 03 79 3c 11 6c 99 bc
       -0.015996175 0.018310102 0.015198647 -0.018728288
000390 4b 15 79 bc 7b ea 03 bd a7 b9 3d bc ae df ba bb
       -0.015202831 -0.03220604 -0.0115799075 -0.005702934
0003a0 9b 2f 5d bc d8 26 91 bb 93 44 23 3d 28 3d 3c 3c
       -0.01350012 -0.0044296794 0.03986032 0.01148919
0003b0 47 60 db bb 0a d6 5d bc 36 89 50 3c 6b 89 bc ba
       -0.0066948268 -0.0135398 0.012728026 -0.0014384215
0003c0 ae 56 08 bd df 46 aa bc 21 48 9d 3c b9 3b a9 3c
       -0.03328579 -0.020785747 0.019199433 0.02065836
0003d0 6a cf c9 3c 51 ed 1a 3d 83 b7 45 bb 5c 6c 0c bd
       0.024635036 0.03782398 -0.0030169196 -0.034283027
0003e0 95 0d 2d 3d 90 b9 c3 bb e3 88 2c bd 8c 0b c3 bb
       0.04224928 -0.0059730485 -0.042122733 -0.005952304
0003f0 a2 c4 c5 bc 6d 94 00 3d 76 48 96 3b 6f f8 1a bd
       -0.024141613 0.03139155 0.0045862747 -0.03783458

conv3.bias f4 [7]
000000 f4 6f 23 bd e0 82 c1 3b 28 1a 20 bc 2c c1 0a 3d
       -0.03990169 0.005905494 -0.009771861 0.03387563
000010 35 f0 14 bd b1 bc 8e bc 50 19 43 bc
       -0.03636189 -0.01742396 -0.01190789

conv4.weight f4 [3, 14, 6, 6]
000000 63 60 93 bc 3c c0 9c bc 24 af 13 3d 3f be 36 3b
       -0.017990297 -0.019134633 0.0360557 0.0027884392
000010 e2 b5 84 3b 9d 83 1e bd dd a6 b3 3c ee 5f 27 3d
       0.0040500024 -0.038699735 0.021930153 0.04086297
000020 8b 0a d8 3c 7d 9e 2e 3d 87 49 0e 3c b7 ee 02 3d
       0.026372215 0.042631615 0.0086845225 0.031965937
000030 c9 81 3d 3c bb a1 48 bc 9c 85 3f 3c 5c 48 2d bd
       0.011566588 -0.012245591 0.01168957 -0.042305335
000040 4a bb 2b 3d 52 63 d4 bc 2a 03 bb 3b 73 9a e5 3b
       0.04192666 -0.025926266 0.0057071643 0.007006937
000050 57 0f a5 bb 3d 3d 2b bc 60 b7 91 bc d9 d6 f7 3c
       -0.005037229 -0.010451612 -0.017787635 0.030253815
000060 82 8d 1c 3d 15 33 b8 bc 89 6d 1e bd c1 7f 0d bd
       0.03822089 -0.022485295 -0.03867868 -0.034545664
000070 14 ed 4a bc c8 54 21 3d 6f ee 20 bd 06 ee 28 3d
       -0.012385625 0.039387494 -0.039289888 0.04124262
000080 24 18 0c 3c 6d 7e 38 3d a8 67 98 3c 6f d4 1f bd
       0.008550677 0.045042444 0.018604115 -0.03902095
000090 ee 8c 8f bc b9 70 a1 bc 8b 23 a1 bc 26 86 2a 3d
       -0.017523255 -0.01970707 -0.019670269 0.04163184
0000a0 48 9e 55 3c 74 86 32 bd c4 30 bc bc 6f 35 cf bc
       0.0130382255 -0.043585256 -0.022972472 -0.025294034
0000b0 e6 1b 21 bd ce fd 17 bd b8 66 28 3d 6a 90 09 3d
       -0.039333247 -0.03710728 0.041113585 0.03358499
0000c0 b7 69 33 3d c0 ea 01 3d 5e eb 19 bd 4f db 16 3d
       0.04380199 0.031718016 -0.03757798 0.036830243
0000d0 e1 71 8c 3c 90 10 31 bd c6 31 17 3d 4d 36 9d 3c
       0.017144145 -0.043228686 0.036912702 0.019190932
0000e0 27 1b dd bc d5 88 13 bc 1a 18 d4 bc b8 00 57 bc
       -0.026990486 -0.009004791 -0.025890399 -0.01312273
0000f0 eb a8 24 3d c8 22 d7 bc 14 f0 33 bd 08 51 d7 bb
       0.040200155 -0.026261702 -0.04393013 -0.006570939
000100 b9 91 9a bc fa ce 82 bb 2e 8c 22 bc 5e 8e b0 3c
       -0.018868314 -0.0039919587 -0.009921117 0.021552261
000110 3a 6f 1f 3d 46 f6 e8 3c 91 84 1e bd 60 20 0f bb
       0.038924433 0.028437745 -0.038700644 -0.0021839365
000120 47 18 0c 3d 72 ac b2 3b ba ef fa bc 77 44 88 bc
       0.03420284 0.005452686 -0.030631889 -0.01663421
000130 09 82 7c 3b 0b db aa bc 42 6e 13 3c b0 2f 16 3d
       0.0038529655 -0.020856401 0.0089984555 0.036666572
000140 bc 74 b3 3b 9d b5 fd bc 4a 58 d4 3c 0e 9c f9 3c
       0.0054765623 -0.030970389 0.025921006 0.03046992
000150 bd a0 1f bd 0d fb 24 bd 0e 24 1c bd 83 59 2f bc
       -0.03897165 -0.040278483 -0.038120322 -0.010702494
000160 91 86 e8 bb 1e 86 e9 3c 08 79 00 3d 75 bd 29 3d
       -0.0070961197 0.028506335 0.031365424 0.041440446
000170 16 96 17 3c 5d e7 b0 bc 36 94 01 bd 7c 55 bb 3c
       0.009252092 -0.021594698 -0.031635486 0.02286791
000180 6f 15 d4 3c 60 9f a2 bb bc e9 2a bd 72 4c 8f 3a
       0.025889127 -0.0049628466 -0.041726813 0.0010932817
000190 83 1f 9c 3c 0f f2 8e bc 39 b6 ee bc 68 9a 80 3c
       0.019057995 -0.017449407 -0.029139625 0.015698627
0001a0 f7 d8 cd 3c 4c 5e f1 3c 8a 87 72 bb c9 e2 84 bc
       0.025127871 0.02946391 -0.0037007057 -0.01622142
0001b0 8b 51 07 3d 70 be 0e 3d bf 41 59 bb e1 d0 e7 ba
       0.03303675 0.034849584 -0.003315076 -0.0017686152
0001c0 41 0d 1b 3b 8e 30 20 bd 20 ec 10 3d 3c 87 f5 bc
       0.0023659023 -0.039108805 0.035381436 -0.029971711
0001d0 3a 04 c0 3c a8 48 05 bd f5 62 b2 3c 31 5b 22 3c
       0.023439515 -0.032539994 0.021775702 0.009909437
0001e0 79 20 1b 3d dc 93 f0 bc 8b 1c 00 bd 6c f6 1c bd
       0.037872765 -0.02936738 -0.03127722 -0.038320944
0001f0 b0 8b 2a 3d a6 92 31 bd 26 df de bc a8 ec 5e bc
       0.041637123 -0.043352745 -0.027206015 -0.013606228
000200 88 e6 ca bc 36 06 ed 3b 83 16 3a bc 5c de a9 bc
       -0.024768129 0.0072334064 -0.011357906 -0.020735912
000210 00 a8 d0 bc 11 36 dc bc 14 7d 9b bc 77 22 31 3c
       -0.025470734 -0.02688125 -0.01898054 0.01081144
000220 4c 1d 79 bb 77 b5 43 bc 37 67 14 3d 65 ef 93 3c
       -0.0038011847 -0.01194512 0.036231246 0.018058488
000230 ef a9 09 3d 2e 8c 84 3c 7d 34 95 3c e8 0a 04 bc
       0.033609327 0.016180124 0.018213505 -0.008059241
000240 00 df 46 3c 45 0c 24 3d a0 89 5a 3a 95 11 49 bc
       0.012138128 0.040050764 0.0008336548 -0.012272258
000250 ae 2a 70 3c 2c 91 07 bb 0f f6 6f bc d8 62 a8 3c
       0.014658613 -0.0020685894 -0.014646067 0.020554945
000260 6a 62 08 bd ac 13 20 3c 3e bc ed 3c b5 2f a3 bc
       -0.03329698 0.009770315 0.029020425 -0.01992021
000270 29 01 a4 bb d8 55 a1 bc f9 23 0b 3d 08 39 1f 3d
       -0.005005021 -0.019694254 0.033969853 0.03887275
000280 e2 31 24 3d 64 d3 f6 3c 96 a4 27 3a b1 c7 28 3c
       0.040086634 0.030130096 0.00063950696 0.010301516
000290 1a f6 0e 3c ab 11 03 bd b5 95 79 bb ea 68 b6 3c
       0.008725667 -0.03199927 -0.0038083617 0.022266824
0002a0 c2 8b b8 bc 50 1f de bc e6 25 0f bd ec 53 84 3c
       -0.02252758 -0.02711454 -0.034948252 0.016153298
0002b0 e6 79 95 bb 8b 3e 29 bd e5 51 03 bd 9c e1 1e bd
       -0.0045616506 -0.04131941 -0.032060523 -0.038789377
0002c0 8e 3a 12 3d eb 97 e7 bc 56 7e c2 3c 01 a1 10 bd
       0.035700373 -0.028270682 0.023741882 -0.035309795
0002d0 31 4b 8c bc 96 7d 02 3c bf 36 e7 bc fd 40 91 bc
       -0.017125698 0.007964512 -0.028224347 -0.017731184
0002e0 07 6a f9 3b 30 ee c4 3c db 44 25 3d 15 34 bd 3c
       0.0076115164 0.024039358 0.04034887 0.023096124
0002f0 7d 7c b1 bc 5d cc 2f 3d ff ba 5c bc 2a 4a cc 3b
       -0.021665806 0.042919505 -0.013472318 0.006234427
000300 93 fc 52 bc 8f f0 9b 3b 66 53 80 bc c5 0b 1e bc
       -0.012877601 0.0047589014 -0.015664767 -0.009646361
000310 71 ba b2 3b 67 1f a6 3c fa e3 e7 bb c2 41 32 3d
       0.0054543545 0.020278646 -0.0070767375 0.043519743
000320 61 c6 ab bb f2 10 51 bc ab 61 1e bd 47 d7 1b bd
       -0.0052421545 -0.012760388 -0.038667362 -0.0380471
000330 4f 10 0f 3d c2 d6 c9 bc 89 88 28 3c 22 d0 f9 3b
       0.034927662 -0.024638537 0.010286459 0.0076236883
000340 df 10 0d 3d f4 dc 29 3d 10 34 06 3d f8 09 00 3d
       0.034439918 0.041470483 0.032764494 0.031259507
000350 30 50 ff bc 04 42 22 3d 29 17 de 3c 2c ab af bb
       -0.031166166 0.03961374 0.027110653 -0.0053609814
000360 d5 1e a2 3c 0d e4 df 3c a1 39 09 bd 91 09 c1 3c
       0.019790092 0.027330423 -0.033502225 0.023564132
000370 92 c2 b1 bc bd f3 81 bb 59 7c e1 3b 5f d5 99 3b
       -0.021699224 -0.0039658234 0.0068812785 0.0046946253
000380 87 5e dc 3a 22 a0 ba bb 53 9d d5 bc b9 ea 7f 3c
       0.0016812839 -0.005695359 -0.026075995 0.015619927
000390 07 29 10 bd 59 e4 0b 3d 9c 6b 30 bd 1d 35 f1 bb
       -0.035195377 0.034153316 -0.043071374 -0.007361068
0003a0 e7 5d 19 bd 18 d9 13 bd 42 cd 10 bc 29 ac fa bc
       -0.037443068 -0.03609571 -0.008838 -0.03059967
0003b0 d9 4e e2 3c 6e c7 64 bc a5 33 8e bc 56 62 ca 3c
       0.027625488 -0.013963563 -0.01735861 0.024705093
0003c0 a3 48 2b 3d 3f 91 ee 3c d9 f4 04 bd 21 71 90 bc
       0.04181732 0.029121993 -0.032460067 -0.017632069
0003d0 01 a7 05 3d 89 4c 1d 3c 1a 35 e4 bc 37 3b 21 bd
       0.03262997 0.009600767 -0.027857352 -0.039363112
0003e0 ff 8b c7 bc 83 81 af bb 76 bb 76 bc da 7b 12 bc
       -0.024358748 -0.005356015 -0.015059343 -0.008940661
0003f0 b0 af 36 3d 29 a3 e5 3c 82 d5 ce 3c 65 90 10 3d
       0.044601142 0.028031902 0.025248293 0.035293955

conv4.bias f4 [3]
000000 eb 3c c9 3a 6e 4e 1f 3d a7 0d 8c bc
       0.0015353238 0.038893156 -0.017096354

conv5.weight f4 [1, 3, 6, 6]
000000 7d 05 64 3a 79 77 98 3c bc 45 3d 3d 78 70 a0 bd
       0.00086983276 0.018611657 0.046209082 -0.07833952
000010 56 d5 a8 bd a3 8c ba bc 14 3d 29 bd aa f6 61 bd
       -0.082438156 -0.022772139 -0.041318014 -0.055166878
000020 e1 be 5a 3d 24 23 40 39 a9 bd 4a 3d 19 df 06 bb
       0.053404693 0.00018323638 0.04949728 -0.0020579754
000030 e6 80 bf 3d 67 a7 09 bd 01 92 61 bc 51 14 9c 3d
       0.09350757 -0.033606913 -0.01376772 0.076210625
000040 f3 61 4b 3d e8 2e 11 bd 68 c1 ab 3d 10 7e 14 3d
       0.04965396 -0.035445124 0.08386499 0.036253035
000050 61 a3 63 bd 22 0e 65 3d 78 78 4d 3d 96 4b 8c 3d
       -0.055575732 0.05592168 0.050163716 0.068503544
000060 75 8d 33 3d ac 97 c8 bc 7d 17 5b bd 5e 9f 85 bb
       0.043836076 -0.024486385 -0.053489197 -0.004077836
000070 2a 98 ed 3c 7e 73 ab 3c 13 02 89 bd 14 f7 0e 3d
       0.029003222 0.020929094 -0.06689849 0.0349036
000080 c5 5a 39 bd 20 25 59 3d 51 a6 b5 3c 56 f8 3a bd
       -0.04525258 0.05301392 0.022174032 -0.045646988
000090 0b db ab 3d a5 4d 86 bc 49 1d 48 bd c5 6a 9a 3d
       0.083913885 -0.016394446 -0.048856054 0.07539896
0000a0 5a 6e 81 3d 2f 2e 96 bd d8 74 9b bd 58 c7 9f 3d
       0.06319876 -0.073330276 -0.075906456 0.07801694
0000b0 1f c9 2a bd 0c 19 a1 3d e0 06 a7 3d b2 06 b0 3d
       -0.04169571 0.078661054 0.08155608 0.08595027
0000c0 8b e5 96 bd 0f 81 98 3d 24 32 82 3d a8 2a e6 3c
       -0.073680006 0.07446491 0.0635722 0.028096512
0000d0 7e e9 39 bd 18 23 2d 3d ff f8 ac bd c6 ef 2a bd
       -0.04538869 0.042269796 -0.0844593 -0.041732572
0000e0 b9 89 82 3d d5 0b 43 3d f7 d7 63 bd d8 41 99 bc
       0.06373925 0.047618706 -0.055625882 -0.018708155
0000f0 3d 2c 9e bc ee ed bd bd 8b fe 0f bc bf 0b bb bc
       -0.019308204 -0.09273897 -0.008788715 -0.02283275
000100 0c 82 a8 bd 31 24 a3 3d 67 17 73 bd 3c 7a 19 3d
       -0.082279295 0.07965887 -0.05934849 0.037470087
000110 67 b5 37 bd d1 7c 71 bd e5 b3 a8 bd bd 6e 0e bd
       -0.044850733 -0.058956925 -0.08237437 -0.034773577
000120 a0 1a d0 3c ac fe 84 3c b5 f2 e9 bc 4f bc 17 3d
       0.02540332 0.016234718 -0.028558115 0.03704482
000130 74 1f 62 bc 40 00 77 bd 87 4b 93 bd a4 87 26 3d
       -0.013801444 -0.060302973 -0.0719214 0.0406567
000140 f5 72 eb 3c 17 cf a0 3c 12 05 21 3d 78 50 8b bd
       0.02874134 0.019629998 0.039311476 -0.068024576
000150 c9 86 37 3d 16 b9 8a 3d 72 94 ba 3d a1 d2 8e bd
       0.044806276 0.067735836 0.09110345 -0.06973768
000160 17 a7 e0 3c 8c 21 14 3d cb 50 ec 3c 95 7e 93 3d
       0.027423425 0.036164805 0.028847119 0.07201878
000170 8f ce b1 3d e8 a0 a1 3d 1b 51 66 3d bf fa 1a bd
       0.08681976 0.078920186 0.056229692 -0.037836786
000180 ee 90 ed 3c cb f5 17 3d 9a cb 8b 3d c8 24 7e bd
       0.028999772 0.03709964 0.06825943 -0.062046796
000190 65 6c c6 3c 20 5b 9e bd 0a 6a 9e bd 6d c3 12 3d
       0.024221608 -0.077322245 -0.07735069 0.035830904
0001a0 3e c7 48 bd b8 53 b0 3d 0a 8e ab 3d 1b 66 8f bd
       -0.049018137 0.08609718 0.08376701 -0.07001897

conv6.weight f4 [1, 3, 6, 6]
000000 3d 21 7e bd b1 e2 19 bd 38 c1 b8 3d c0 38 b1 bd
       -0.062043417 -0.037569705 0.090212286 -0.08653402
000010 9f 8c 6a 3d d1 e9 51 bd 87 a8 d8 ba fd a6 b0 bd
       0.057263013 -0.051248375 -0.0016529717 -0.086256005
000020 54 c4 02 3b c8 d0 23 3d 01 58 96 3d f2 78 4b 3c
       0.0019953446 0.03999403 0.07341004 0.012418972
000030 6a 63 b7 bd 17 7d ab bd ee 33 38 bc 5e 3d fa 3b
       -0.089545086 -0.08373468 -0.01124285 0.00763671
000040 f4 0e c8 bc fc 82 08 3d 23 93 3f 3d a8 11 24 bb
       -0.024421193 0.03332804 0.04677118 -0.0025034938
000050 1e e8 2b 3d 2c 78 3f bd c1 a0 04 3c 21 5a 1a 3d
       0.04196941 -0.046745464 0.008094967 0.03768361
000060 93 e7 0b bd 31 d1 1f bd 29 60 a3 bd 14 3d 91 bd
       -0.034156393 -0.03901786 -0.079773255 -0.07091728
000070 13 ff a7 3c 24 b9 08 3d 57 dc 3c bd b4 fa b0 3d
       0.020507371 0.03337969 -0.04610857 0.08641568
000080 04 f5 69 3d c1 7a 49 3c e1 d8 b0 bd ed 00 1c bd
       0.05711843 0.012297333 -0.08635116 -0.03808682
000090 b2 a2 5e bd 53 ab 52 bd 43 69 8f 3d 1f aa 00 3d
       -0.054354377 -0.05143292 0.07002499 0.03141224
0000a0 e2 f1 20 bd 5a 08 b7 bd e5 94 94 3d dc c1 61 bd
       -0.039293177 -0.0893714 0.07254962 -0.05511652
0000b0 d7 3b 76 3d 9d 49 99 3d af 09 4d bd d3 6b ba 3d
       0.06011566 0.07484744 -0.050058063 0.09102597
0000c0 5f cd 73 bd 39 1f 99 3d d7 1d bb bd 04 15 01 3d
       -0.05952203 0.074766584 -0.09136551 0.031514183
0000d0 1a 96 c8 39 ab d8 9d bd 14 d1 27 bd bb c7 bc bd
       0.00038258807 -0.07707342 -0.040970877 -0.09217783
0000e0 28 7c 0f bd d5 3c 59 bc 3f bc 79 3d 98 3d c3 bd
       -0.035030514 -0.013259132 0.06097054 -0.095332325
0000f0 0e c8 36 3d 9e 06 5d bc 35 69 ad 3d 07 7c 5c 3d
       0.04462438 -0.013490347 0.08467332 0.05382922
000100 c2 10 ab 3d 49 be 44 bd 82 24 9a bd 5f 0a 82 3d
       0.08352806 -0.048033033 -0.075264946 0.063496344
000110 45 8a 87 3d 25 36 69 bd 48 b0 35 3c e5 45 b9 bd
       0.0661817 -0.056936402 0.011089392 -0.090465344
000120 46 12 55 bd 3a 0c 00 3c 42 a9 51 bd 09 ee 79 3d
       -0.05201938 0.007815415 -0.051186807 0.061018024
000130 0d 93 c2 3d 85 d2 b0 3d a8 75 66 bd da 51 b9 bd
       0.09500704 0.086339034 -0.05626455 -0.09048815
000140 6a 37 b2 bc 97 45 98 bd ce 11 49 3d 17 1a 52 3d
       -0.02175494 -0.07435148 0.049089245 0.051294412
000150 de 4e c8 bc 12 71 a5 3b 2a 7e f5 bc 61 6a 7c bd
       -0.02445167 0.0050488794 -0.029967386 -0.06162489
000160 a6 fb 9d 3d 23 7a 21 bd 7a c4 e3 bb 96 2d e8 bc
       0.07714014 -0.03942312 -0.006950912 -0.02834205
000170 d9 c2 95 3d 11 9a c5 bd 42 91 36 3d 3d 1d 8f 3d
       0.07312555 -0.096485265 0.044572122 0.06987999
000180 4d 2a 4c 3d 2a 72 38 3d 44 f6 e9 bc 35 14 83 3d
       0.04984503 0.04503075 -0.028559811 0.064003386
000190 63 ab 55 bd fe 38 88 3c 17 c3 ae bd e0 91 ce bc
       -0.0521654 0.016628738 -0.08533304 -0.025216043
0001a0 8d 25 b5 bd e2 f5 84 3d e7 72 c6 bc bd 9a 10 3c
       -0.08845053 0.06492211 -0.024224712 0.008825955

conv7.weight f4 [1, 2, 6, 6]
000000 a1 c0 91 bc 29 58 92 3c 86 f5 2a bd 7a a1 c9 bc
       -0.017792048 0.017864304 -0.041738056 -0.02461313
000010 ba 7e 33 3d 23 e8 79 bd f9 e2 74 3d c5 5a f6 3c
       0.043822028 -0.0610124 0.05978677 0.03007258
000020 8f 67 81 3d 6b 91 a2 3d b1 1c d1 3d 23 e4 1d bd
       0.0631858 0.079378925 0.102105506 -0.038547646
000030 d2 af c8 bc 04 a7 4e 3c d6 0c 88 3d 7b a3 5c 3d
       -0.0244979 0.012613062 0.06643073 0.053866845
000040 ed 33 28 bd 69 4c ca bd 9f 28 2c bd 68 8f d2 3d
       -0.041065145 -0.09877855 -0.042030927 0.10281259
000050 7c 67 e1 bd 7d fd b8 bc 8f 74 ba 3b 95 d7 03 bd
       -0.11006066 -0.02258181 0.0056901644 -0.032188017
000060 22 cd 88 3d 6b 91 5c ba 9d d3 c1 3d 81 48 4f bd
       0.06679751 -0.0008414003 0.0946419 -0.050606254
000070 37 97 cb 3d c4 5f de bc b0 b6 9c 3c 8d b7 86 3d
       0.09940951 -0.027145274 0.019130081 0.06577978
000080 ac 98 a3 3c 7f 6c d9 3d ce 03 1d bd e3 93 2f 3d
       0.01997026 0.10616397 -0.038333707 0.042865645
000090 00 b9 49 3d 2c 01 58 3d e6 5e e4 3d 5b 68 28 3d
       0.049248695 0.052735493 0.11150913 0.041115146
0000a0 d9 df 8b bd 43 2e 9e ba 30 5a e6 bd 7b 54 b1 bd
       -0.06829805 -0.001206823 -0.11247671 -0.086586915
0000b0 fd 40 74 bd fe f6 11 3d 5a 0d 40 3d 09 f6 2a 3d
       -0.05963229 0.03563594 0.046887733 0.041738544
0000c0 fb 7b a1 bd 10 79 b9 3d 97 49 53 3d 7b 37 56 3a
       -0.078849755 0.09056294 0.051583853 0.00081717194
0000d0 a0 1c 09 3d 40 38 a7 bb 57 35 b7 bd a0 8f 8b bd
       0.033474565 -0.005103141 -0.08945721 -0.06814504
0000e0 16 03 03 3d 7b b8 f0 bd 7d 1b a7 bd f7 1c b9 3d
       0.031985365 -0.11753937 -0.0815954 0.09038728
0000f0 73 a1 d7 3d 6c 43 ec bd e7 a9 c6 bd 67 ff 71 bc
       0.10528841 -0.11536297 -0.09700375 -0.014770365
000100 52 de 51 3d ab d9 b4 bc 54 c7 5c 3d 16 b4 e5 bd
       0.05123741 -0.022076448 0.05390103 -0.11215989
000110 9b 90 46 3d 0d 9b 95 bc 7a 18 df 3d 5c 8b 9c bd
       0.04847775 -0.01826241 0.108933404 -0.07643768
