siamese-models/siam_v2_17.pth (torch, 102187 bytes, 11 tensors)

conv1.weight f4 [14, 31, 6, 6]
0	0xbcd95831	-0.02653131
1	0x3ca8f0ab	0.020622572
2	0x3c930790	0.017947942
3	0xbb8624db	-0.004093749
4	0xbbbdc26f	-0.0057910006
5	0x3cd1f681	0.025630238
6	0x3cad625c	0.021165065
7	0x3b4ba104	0.0031071315
8	0xbc86ef06	-0.016471397
9	0x3a934dea	0.001123843
10	0x3cb78d4f	0.022406248
11	0xbc8f4bf2	-0.017492268
12	0x3cc7aa02	0.024373058
13	0xbccf62c9	-0.02531566
14	0xbc64ef0f	-0.013973012
15	0x3cd2a05c	0.025711231
16	0xbc5c7a63	-0.013456914
17	0x3ba356fa	0.0049847336
18	0xba511f63	-0.0007977394
19	0x3bba238e	0.005680508
20	0xbcda468a	-0.026644964
21	0x3cca86b9	0.024722444
22	0x3ce81bab	0.028333506
23	0x3b21d988	0.002469631
24	0x3ca076bb	0.019587865
25	0xbc844402	-0.01614571
26	0x3c8419f6	0.01612566
27	0xbc1f0485	-0.009705667
28	0x3bc783aa	0.0060886936
29	0x3c1bed81	0.009517075
30	0x3b0108bd	0.0019689046
31	0xbbb2d025	-0.0054569417
32	0xbcb8ffd3	-0.022582924
33	0x3ca4ba54	0.02010838
34	0x3cd82653	0.026385462
35	0xbcc33b1c	-0.023831896
36	0xbc244e83	-0.010028484
37	0x3ca908a7	0.020634009
38	0xba59815a	-0.0008297168
39	0x3c38422b	0.011246244
40	0xbc0cb654	-0.008588392
41	0x3ce9dd84	0.02854801
42	0x3c1a862e	0.009431405
43	0xbcd52fb8	-0.02602373
44	0x3ca5bd93	0.020231998
45	0xbcbd5119	-0.02310996
46	0x3c995143	0.018715506
47	0x3c28fb78	0.010313861
48	0x3cbb1f3e	0.022842046
49	0x3ccb3992	0.024807725
50	0xbc2ff230	-0.010738894
51	0x3bdebfbc	0.006797759
52	0xbc015232	-0.007893132
53	0xbce9dfe7	-0.028549148
54	0x3bcc1d30	0.0062290654
55	0xbcda23b2	-0.026628349
56	0xbc456fca	-0.012050578
57	0x3cdab625	0.026698181
58	0x3cd0c33c	0.02548372
59	0x3c0055e2	0.007832976
60	0xbc378a0f	-0.011202349
61	0xbc66d5d3	-0.014089066
62	0x3cf1160e	0.029429462
63	0x3cb8e74a	0.022571225
64	0x3c9f1d8b	0.019423267
65	0xbb7f2e2c	-0.0038937433
66	0xbccbc1e0	-0.02487272
67	0xbb04fb08	-0.0020291228
68	0xbc9f7dfa	-0.01946925
69	0x3ca2c2cb	0.019868275
70	0x3ceac319	0.028657483
71	0xbcceb9b3	-0.025235033
72	0x3cee80f8	0.029114231
73	0xbceb353f	-0.028711913
74	0x3b662a40	0.0035120398
75	0x3cf3531f	0.029702721
76	0xbcccc887	-0.024997963
77	0xbc9eaa34	-0.019368269
78	0xbc2902ee	-0.01031564
79	0x3c9904f5	0.018679122
80	0xbba492d6	-0.005022387
81	0xbbaa28bc	-0.005192844
82	0x3c9abbb4	0.018888332
83	0xbaba2399	-0.0014201283
84	0x3ce199f5	0.027539233
85	0xbb5b5c46	-0.0033471747
86	0xbb0734a9	-0.0020630753
87	0xbc5ef6a8	-0.013608612
88	0x3bfbc413	0.007683286
89	0xbc29222b	-0.010323088
90	0xbc47cb4e	-0.012194468
91	0x3b86b078	0.004110392
92	0x3cbc3c7f	0.022978066
93	0xbce38035	-0.027771095
94	0xbc48e1bc	-0.0122608505
95	0xbcb3da4e	-0.021954682
96	0xbc733ff9	-0.014846795
97	0x3c259c3a	0.010108048
98	0x3c17d4ef	0.009267076
99	0x3ccefc90	0.025266916
100	0xbcc378bf	-0.023861287
101	0xbcd552ca	-0.026040453
102	0x3cc8f480	0.02453065
103	0xbcd89ad5	-0.026441017
104	0x3c50447e	0.012711642
105	0x3c510910	0.012758508
106	0xbccdedf2	-0.025137875
107	0xbc841fba	-0.01612841
108	0x3cf0058e	0.029299524
109	0xbac4fec6	-0.0015029542
110	0x3caf0c02	0.02136803
111	0xbad3a5d1	-0.001614744
112	0xbc9e3bf7	-0.019315703
113	0xbcd17f5f	-0.02557343
114	0xbb43a287	-0.0029851513
115	0xbcb5ac49	-0.022176879
116	0x3c530112	0.012878673
117	0xbb5b62b9	-0.0033475591
118	0xb715b09d	-8.922213e-06
119	0xbbf7a885	-0.007557931
120	0xbca16bc0	-0.0197047
121	0x3abce99c	0.0014412883
122	0xbc636e06	-0.013881212
123	0xbb6cbd31	-0.003612351
124	0xbcb4478b	-0.02200677
125	0x3c9fb86e	0.019497123
126	0xbb284f2a	-0.002568195
127	0xbcc12c52	-0.023580704
128	0xbb956be0	-0.004559979
129	0xbcc9da99	-0.024640368
130	0xbcb1520d	-0.02164557
131	0xbaa3c406	-0.0012494333
132	0xbcc14a05	-0.023594866
133	0xbceccb23	-0.028905457
134	0x3bc993f5	0.006151671
135	0xbc55aa45	-0.013041084
136	0xbca71696	-0.020396512
137	0x3b6ccb90	0.0036132075
138	0x3c847b19	0.016171979
139	0xbbc8ce11	-0.0061280807
140	0xbc7cd126	-0.015430724
141	0x3b2d2401	0.0026419165
142	0x3ba8f08f	0.00515563
143	0xbced000f	-0.028930692
144	0xbca1504e	-0.019691613
145	0x3cb91d26	0.022596907
146	0xbc5ec2e2	-0.013596268
147	0x3cdc9d99	0.026930617
148	0x3beef986	0.007292929
149	0x3b506618	0.0031799134
150	0x3c8d69c9	0.017262356
151	0xbcd45297	-0.025918288
152	0xbc0bb1c4	-0.008526269
153	0x3c26e466	0.01018629
154	0x3a412312	0.00073675916
155	0x3c8d7913	0.017269647
156	0x3cbd2939	0.023090946
157	0xbc86f56c	-0.016474448
158	0x3cc198f4	0.023632504
159	0xbc4361f8	-0.011925213
160	0xbcc5fddd	-0.024168903
161	0xbca52040	-0.02015698
162	0x3c53ccd6	0.012927255
163	0x3ca0846b	0.019594392
164	0xbcaa4698	-0.020785615
165	0xbce26444	-0.027635701
166	0xbcc4029d	-0.023927027
167	0x3cc17e8e	0.023619916
168	0xbb6d576b	-0.0036215435
169	0xbce789d6	-0.028263967
170	0xbcc9eb70	-0.024648398
171	0x3c6910ae	0.014225168
172	0xbcdfe34f	-0.027330069
173	0x3cde6556	0.02714793
174	0x3cb96bdd	0.022634441
175	0x3ca2db3e	0.019879933
176	0xbc66e4de	-0.014092652
177	0xbcc15c63	-0.023603624
178	0xbc00c0cc	-0.007858466
179	0x3cda686f	0.026661126
180	0xbcb5a89a	-0.022175122
181	0xbcde8cc1	-0.027166726
182	0x3c7a8e23	0.015292677
183	0xbcc5dca9	-0.02415307
184	0x3c99004b	0.018676898
185	0x3ae9c871	0.0017836225
186	0x3c6d3787	0.014478571
187	0xbc3e2c18	-0.011607192
188	0xbc203733	-0.0097787855
189	0xbc149bde	-0.009070365
190	0xbc4ded21	-0.012568743
191	0xbc8e03dc	-0.017335825
192	0x3be1d361	0.0068916534
193	0x3b8bee10	0.0042703226
194	0x3c092f7c	0.008373138
195	0x3c8462cb	0.01616039
196	0xbc8d0469	-0.017214017
197	0x3beed6fb	0.0072888113
198	0xbca9cfbc	-0.020728938
199	0xbc9d74f4	-0.019220807
200	0x3c12cba8	0.008959688
201	0xbc2f87eb	-0.010713558
202	0x3cd750a5	0.026283571
203	0xbc3c912e	-0.011509223
204	0x3cc8ab71	0.024495812
205	0x3cbc9c01	0.023023607
206	0x3c8d4d71	0.017248841
207	0x3c6272bb	0.013821299
208	0xbca15816	-0.019695323
209	0xbc84e2f7	-0.016221507
210	0xbbac64fe	-0.0052610626
211	0xbc45f024	-0.01208118
212	0x3c791b53	0.0152042685
213	0x3baa58cf	0.005198575
214	0x3c781248	0.015141077
215	0x3bd600e6	0.006530869
216	0xbcd20c5e	-0.025640663
217	0xbb1ce209	-0.0023938438
218	0x3ce1377e	0.027492281
219	0xbcadac00	-0.02120018
220	0x3c694fe6	0.014240241
221	0xbcf0c1b3	-0.029389238
222	0x3cbb9a7a	0.022900809
223	0x3c08c964	0.0083487965
224	0x3c9e8d09	0.01935436
225	0x3c5fa06c	0.013649087
226	0xb934c34a	-0.00017238889
227	0x3ca12b4d	0.019673968
228	0xbc105ad0	-0.008810714
229	0x3c1f7af3	0.009733903
230	0xbb52aacf	-0.0032145267
231	0x3c233df9	0.009963506
232	0xbcab6ff1	-0.020927401
233	0xbccbe01b	-0.024887135
234	0xbb8a38aa	-0.0042181807
235	0xbcab1a8a	-0.020886678
236	0xbc95a3df	-0.018266616
237	0xbceade26	-0.028670382
238	0x3cdfadc1	0.027304532
239	0xbcbf8bee	-0.023382153
240	0x3ce5991f	0.028027115
241	0x3c5150d6	0.01277562
242	0x3c44b47e	0.012005923
243	0x3cb751c8	0.022377864
244	0xbc3c06d6	-0.011476239
245	0x3c222d75	0.009898533
246	0x3cefb3a3	0.029260462
247	0x3c6efc9f	0.014586597
248	0x3ceceac5	0.02892054
249	0xba994dab	-0.001169612
250	0xbc99a750	-0.018756539
251	0xbc7a2a31	-0.015268848
252	0x3c0e944c	0.008702349
253	0xbccc5293	-0.024941718
254	0x3c1e4a94	0.0096613355
255	0x3ccaca7f	0.02475476

conv1.bias f4 [14]
0	0xbc6c4f3a	-0.014423186
1	0xbc547890	-0.012968197
2	0xbcb88329	-0.02252348
3	0xbc9e0420	-0.019289076
4	0x3c7b5df4	0.015342224
5	0xbc859679	-0.016307103
6	0xbc81bfc5	-0.015838513
7	0xbc361b84	-0.011114959
8	0xbc67edfe	-0.014155863
9	0xbb9e6bfc	-0.00483465
10	0xbc37f788	-0.01122845
11	0x3c649d18	0.01395347
12	0xbc8d74a8	-0.01726754
13	0x3bd8da18	0.0066177957

conv2.weight f4 [7, 14, 6, 6]
0	0x3c32706a	0.010891059
1	0xbd175331	-0.036944572
2	0xbd2685fb	-0.040655117
3	0xbc87a161	-0.016556444
4	0x3d26c8f8	0.040719002
5	0xbccea5ae	-0.025225487
6	0x3c63ce5d	0.013904181
7	0xbcf6180e	-0.030040767
8	0x3d171eb6	0.036894523
9	0x3d164909	0.036690746
10	0x3cab9e24	0.02094943
11	0xbc9b41c0	-0.01895225
12	0xbd124c13	-0.03571708
13	0x3c4cab8f	0.012492075
14	0x3d13e5ae	0.03610771
15	0xbc4ee78f	-0.01262845
16	0xbc9f7d95	-0.019469062
17	0x3d2f76ca	0.042837895
18	0x3d2fac72	0.042889066
19	0xbc04f543	-0.008115116
20	0x3d0855dc	0.033285007
21	0xbc19b3d4	-0.009381253
22	0x3d26cddb	0.040723663
23	0xbd0d75f0	-0.034536302
24	0x3cd98b78	0.026555762
25	0x3b8e15b5	0.004336084
26	0x3cf3eff6	0.029777508
27	0x3c2040dc	0.009781089
28	0x3c966d69	0.018362718
29	0xbc1ee530	-0.009698197
30	0x3cd68f91	0.026191505
31	0xbd351be5	-0.044216055
32	0xbb4a8e79	-0.0030907674
33	0xbc7c6915	-0.015405913
34	0xbb7ff02e	-0.003905307
35	0xbd19314c	-0.03740053
36	0xbc74cba0	-0.014941126
37	0x3ce9c79b	0.028537562
38	0x3d178045	0.03698756
39	0xbb4554a8	-0.0030110274
40	0xbc6f9300	-0.01462245
41	0xbcf4b62a	-0.029872019
42	0x3c58f705	0.013242488
43	0x3d138f3b	0.036025267
44	0x3cc7131b	0.024301102
45	0x3d11d607	0.035604503
46	0x3b6c592d	0.0036063895
47	0x3ca95bec	0.020673715
48	0x3c549afc	0.012976404
49	0xbcfb63bd	-0.030687207
50	0x3c1d20bb	0.009590323
51	0xbce3d078	-0.027809367
52	0x3cbec543	0.023287421
53	0xbc97418f	-0.018463878
54	0xbcfdbe19	-0.030974435
55	0xbb2ee891	-0.0026688913
56	0x3a5af478	0.0008352469
57	0xbcce810e	-0.025208022
58	0xbd25b1ad	-0.040452648
59	0xbd17a32f	-0.03702086
60	0x3d1d8eb5	0.038466174
61	0x3cfc331e	0.030786093
62	0x3ce063fa	0.027391423
63	0x3bbbfe34	0.0057370905
64	0xbc8fb36d	-0.017541612
65	0x3b8e33d9	0.004339677
66	0x3cb6c2ec	0.022309743
67	0xbcc58043	-0.024109012
68	0x3c5b50be	0.01338595
69	0x3b275a46	0.0025535985
70	0x3a1ff566	0.0006101936
71	0x3c5f375a	0.013624037
72	0xbc1aac47	-0.009440488
73	0xbc21b72f	-0.0098703345
74	0x3c86c8fc	0.016453259
75	0x3d2047be	0.03913092
76	0xbc5271d9	-0.012844526
77	0xbb18c334	-0.002330971
78	0x3c4ad38a	0.012379536
79	0x3ce34cdf	0.027746616
80	0xbd307c37	-0.04308721
81	0x3c86f44a	0.016473908
82	0xbd0b222b	-0.033968132
83	0x3bd021d8	0.0063516907
84	0x3caa8b41	0.020818355
85	0x3bf46ed6	0.0074595017
86	0x3c603917	0.013685486
87	0xbc6a786f	-0.01431094
88	0xbc8a66b5	-0.016894678
89	0x3c612910	0.0137427
90	0xbd1f1380	-0.038836956
91	0xbcc8a85a	-0.024494339
92	0x3c1222d3	0.008919436
93	0xbc82c268	-0.01596184
94	0xbcd758da	-0.026287485
95	0x3d088852	0.03333313
96	0x3c5b9c77	0.013404003
97	0x3c9a80a4	0.018860169
98	0x3b29b8d4	0.002589752
99	0x3ca7a96b	0.020466527
100	0xbc5c2184	-0.013435725
101	0xba86fb87	-0.001029835
102	0xbccaeed5	-0.024772087
103	0x3d13d6b4	0.03609343
104	0xbcfb0b57	-0.030645056
105	0xbcde1224	-0.02710826
106	0xbb9509b4	-0.004548276
107	0xbc8f2ccf	-0.017477421
108	0x3d3192e7	0.043352988
109	0x3d1235ca	0.03569583
110	0xbcd6ccf4	-0.026220776
111	0xbcd0ada1	-0.025473418
112	0xbcf55c9a	-0.029951382
113	0xbce764e5	-0.028246352
114	0xbd05d3c1	-0.032672647
115	0xbb79d59d	-0.0038121708
116	0xbc3dfba0	-0.011595637
117	0x3bc4763e	0.005995541
118	0x3c89a978	0.016804442
119	0x3d0bb0c8	0.03410414
120	0x3c1cf3e8	0.009579636
121	0xbd303d5f	-0.043027278
122	0x3cd9944f	0.026559977
123	0x3b9205a8	0.0044562407
124	0xbcc1f912	-0.023678336
125	0xbd15bf74	-0.036559537
126	0xbcc12102	-0.02357531
127	0xbd089ce9	-0.033352766
128	0x3c13439c	0.008988287
129	0xbbc0d17d	-0.005884348
130	0x3c84cfc7	0.016212357
131	0x3d0ec79b	0.034858327
132	0xbd2668e6	-0.040627383
133	0xbd179822	-0.03701032
134	0xbd30d359	-0.043170307
135	0x3ae4d335	0.0017457964
136	0x3d0302ec	0.03198521
137	0x3c582a56	0.013193687
138	0xbd0e22a8	-0.03470102
139	0xbd0ba35a	-0.03409133
140	0x3d333324	0.043749943
141	0xbcc07059	-0.023491072
142	0x3cceae9b	0.025229743
143	0xbc008d65	-0.007846211
144	0xbd1286c5	-0.035773057
145	0xbd2a2aa1	-0.04154456
146	0xbc0b5878	-0.008504979
147	0xbd04296f	-0.032266077
148	0x3d1ddc3a	0.038540103
149	0xbd1ca584	-0.038243786
150	0xbd1dda00	-0.03853798
151	0x3d0ccf00	0.034377098
152	0xbcbfaec9	-0.023398774
153	0xbd18f3a2	-0.03734172
154	0x3ac4a829	0.0015003729
155	0x3ccb01a0	0.024781048
156	0x3d30c755	0.043158848
157	0x3d10f1bf	0.035386797
158	0x3c86a5ca	0.016436476
159	0xbc81bfbf	-0.015838502
160	0x3d13e7cf	0.03610974
161	0xbc97626f	-0.018479554
162	0x3cd08f5b	0.025458982
163	0xbc9b3163	-0.018944448
164	0xbcd8661d	-0.026415879
165	0x3cedfc33	0.029050922
166	0xbd060ce3	-0.032727133
167	0xbc953d47	-0.018217696
168	0xbca38c5f	-0.019964395
169	0xbd2c4dc4	-0.04206635
170	0xbad19801	-0.0015990735
171	0x3b580c35	0.003296626
172	0xbcf6eb76	-0.030141573
173	0x3cc67299	0.024224566
174	0x3ced4348	0.028962746
175	0xbc2ee81c	-0.010675456
176	0xbd2a3f15	-0.041564066
177	0x3b9dadff	0.0048120017
178	0xbd35eab4	-0.044413283
179	0x3cbcedd2	0.02306262
180	0xbc91b4c1	-0.017786385
181	0xbc0fb352	-0.008770781
182	0x3cfdb81e	0.030971583
183	0x3c049c2d	0.008093876
184	0x3c9ac358	0.018891975
185	0xbc9f740f	-0.01946452
186	0xbca8d17b	-0.0206077
187	0x3ceefdb0	0.029173702
188	0xbd16b685	-0.036795158
189	0x3c9bbb16	0.019010108
190	0x3d01b2c6	0.031664632
191	0x3bdb7f2e	0.0066985106
192	0x3d1cc978	0.038278073
193	0x3d1bfa74	0.038080648
194	0xbbe55119	-0.006998193
195	0xbd12b754	-0.035819367
196	0x3a8b6918	0.0010636179
197	0x3d1ef747	0.03881004
198	0xbd2cf25b	-0.042223316
199	0x3c343d3e	0.011000929
200	0xbd3178c5	-0.043328065
201	0x3c4a6f77	0.012355677
202	0xbd0acc3a	-0.033886172
203	0x3c073573	0.008252489
204	0xbcb5dbc5	-0.02219952
205	0xbc2cd427	-0.010548628
206	0xbc74440d	-0.014908803
207	0xbce30e6d	-0.02771684
208	0x3c55395e	0.013014166
209	0xbd06f9ad	-0.032952953
210	0x3b56edc7	0.0032795535
211	0xbcd8677c	-0.026416533
212	0xbd0a0c6f	-0.033703264
213	0xbcd075ce	-0.025446799
214	0xbd07fbef	-0.033199247
215	0xbbfc14eb	-0.0076929233
216	0xbd2e967c	-0.04262398
217	0xbc2adb92	-0.010428326
218	0xbbd1acc8	-0.006398771
219	0x3ccd78b7	0.025081975
220	0xbcbe9ec4	-0.023269065
221	0x3b2da7a6	0.0026497631
222	0x3c9e7c9b	0.019346526
223	0xbd2051db	-0.039140563
224	0xbd1dfde9	-0.038572226
225	0xbcc3bd9b	-0.023894122
226	0xbd0066c5	-0.03134801
227	0x3d2326f1	0.03983206
228	0xbb7d948c	-0.0038693277
229	0x3cc8a225	0.024491379
230	0x3ce4323e	0.027855989
231	0xbd0e1a1a	-0.03469286
232	0xbcb4ca9c	-0.022069268
233	0xbb2073d3	-0.00244831
234	0xbc903a0e	-0.017605808
235	0xbcd5dc80	-0.02610612
236	0xbd28fe60	-0.041258216
237	0xbc8d0d31	-0.017218204
238	0xbc946bb1	-0.018117758
239	0x3d205917	0.039147463
240	0x3c9fd41f	0.019510327
241	0x3c6a95b6	0.01431792
242	0xbc24d849	-0.010061332
243	0xbb8aa1e2	-0.0042307237
244	0xbcf73d38	-0.030180559
245	0x3cd5fb48	0.026120797
246	0xbccf8dd0	-0.025336176
247	0x3c8d9821	0.017284455
248	0x3a96fedf	0.0011520049
249	0xbc6bf067	-0.014400578
250	0xbb1cf8c7	-0.0023951994
251	0xbb85af98	-0.0040797703
252	0x3d11ddb6	0.03561183
253	0xbc718a4c	-0.014742445
254	0xbc87eb47	-0.016591681
255	0x3d343955	0.04399999

conv2.bias f4 [7]
0	0xbcdb7248	-0.026787892
1	0xbcc823b0	-0.02443108
2	0x3cb2bf90	0.02181986
3	0x3c6187bc	0.013765272
4	0xbc6af2da	-0.014340127
5	0xbc9adb49	-0.018903391
6	0x3b192850	0.0023369975

conv3.weight f4 [7, 14, 6, 6]
0	0xbcd637a1	-0.026149573
1	0xbc084454	-0.008317072
2	0x3d21253c	0.03934215
3	0xbcf0ba1d	-0.02938562
4	0xbc1f03bc	-0.00970548
5	0xbb693b01	-0.0035588148
6	0x3d0dd1ff	0.034624096
7	0xbb8bc63b	-0.0042655743
8	0x3c4887dc	0.012239423
9	0x3d13e433	0.0361063
10	0xbb30b17e	-0.0026961262
11	0xbc8da5cb	-0.01729097
12	0x3ca07e32	0.019591425
13	0xba6e2cc9	-0.0009085653
14	0x3d05696f	0.032571252
15	0xbcd6ed3c	-0.026236169
16	0x3c2f10ee	0.010685189
17	0x3c461304	0.012089495
18	0x3caa6065	0.020797918
19	0xbcd8d804	-0.026470192
20	0x3ce8ba55	0.028409163
21	0xbd2e38a5	-0.04253449
22	0xbc155e22	-0.009116681
23	0x3d2db203	0.042406093
24	0x3c706b36	0.014673999
25	0x3d06ef5d	0.03294312
26	0x3c230106	0.0099489745
27	0xbc726294	-0.014794011
28	0x3d17de4b	0.03707723
29	0x3d2c45a9	0.04205862
30	0xbca34626	-0.01993091
31	0xbb87b50b	-0.004141455
32	0xbce754f3	-0.02823875
33	0xbc5650ae	-0.013080759
34	0x3d2031c1	0.03910995
35	0x3ce5e97a	0.028065432
36	0x3c07d1ad	0.008289737
37	0xbcfb2fc1	-0.03066242
38	0x3c5cccff	0.013476609
39	0xbd1ac325	-0.03778376
40	0x3ca0e5b0	0.019640774
41	0xbcc69c3e	-0.024244424
42	0x3bd142dc	0.006386144
43	0xbcbb2b21	-0.022847714
44	0xbc1c9127	-0.009556091
45	0x3c8996b3	0.016795492
46	0xbd2dd896	-0.04244288
47	0x3cd39bbf	0.025831101
48	0x3cc8ae56	0.024497192
49	0x3cdf5a6d	0.027264798
50	0x3d2b205c	0.041778907
51	0xbc49e336	-0.012322238
52	0xbd2ff1f2	-0.042955346
53	0xbcb9cf4e	-0.022681858
54	0x3c931da2	0.017958466
55	0xbcb13262	-0.02163047
56	0x3d240a48	0.040048867
57	0x3d07d0e3	0.033158194
58	0x3d1aeaca	0.03782157
59	0xbbe67e73	-0.007034117
60	0xbcd09d6c	-0.02546569
61	0x3c9d5762	0.019206706
62	0x3c075c1a	0.008261705
63	0xbd0553cf	-0.03255063
64	0x3c2aad1e	0.010417251
65	0x3bd0f88f	0.0063772867
66	0x3b36492a	0.0027814605
67	0xbd1fef46	-0.03904655
68	0x3d2e4bb3	0.04255266
69	0xbc22595a	-0.009908998
70	0xbcaef8aa	-0.021358807
71	0xbd347e9d	-0.04406606
72	0x3ced870d	0.028995061
73	0x3c6c9f96	0.014442345
74	0x3d1ddb86	0.038539432
75	0xbd03cc89	-0.03217748
76	0xbcf17947	-0.029476775
77	0xba8020dd	-0.0009775419
78	0x3ce27eb6	0.027648311
79	0xbcad6bab	-0.021169504
80	0x3d1358a6	0.035973214
81	0xbd222022	-0.039581425
82	0x3be6ade3	0.007039772
83	0x3d0f36b9	0.034964297
84	0xbd17064f	-0.03687125
85	0x3cd8458e	0.026400354
86	0xbca9cc93	-0.020727431
87	0xbd19bd72	-0.037534185
88	0x3c4626ee	0.0120942425
89	0xb711e518	-8.6960135e-06
90	0x3cb6c3f1	0.022310229
91	0x3d1a8d8b	0.037732642
92	0x3c7e81fb	0.015533919
93	0x3cb9e3e8	0.022691682
94	0x3cd27df6	0.025694828
95	0xbcb1a30a	-0.021684188
96	0x3c760318	0.015015386
97	0x3c81cf40	0.015845895
98	0xbae8a4a7	-0.0017749266
99	0x3cf783bf	0.030214189
100	0xbc19b44f	-0.009381368
101	0x3c9ef06e	0.019401755
102	0x3c7cc162	0.015426965
103	0xbcafad14	-0.021444835
104	0xbd210824	-0.039314404
105	0xbd2e94f9	-0.04262254
106	0xbc92e7e1	-0.017932834
107	0x3cd77c81	0.026304485
108	0xbd216388	-0.03940156
109	0xbcd20b0a	-0.02564003
110	0x3d19a1e6	0.037507914
111	0x3c7251d8	0.014790021
112	0xbd0e4b4d	-0.03473978
113	0x3b58209f	0.0032978428
114	0x3d09ac92	0.03361184
115	0x3cb92e9b	0.022605231
116	0xbc2a0e3a	-0.010379368
117	0xbd0003bf	-0.031253573
118	0x3ca5e0b5	0.02024875
119	0x3c3af958	0.011411987
120	0x3cbc2623	0.022967404
121	0x3c38cd22	0.011279376
122	0x3cd7b531	0.026331516
123	0xbb599788	-0.0033201892
124	0xbd064bc5	-0.032787103
125	0x3ce432dd	0.027856285
126	0xbba287d4	-0.0049600396
127	0xbd0b802a	-0.034057774
128	0x3ceef675	0.029170254
129	0xbd1526ee	-0.03641408
130	0x3cebbc28	0.028776243
131	0xbd21bb50	-0.039485276
132	0xbcbdac0e	-0.023153331
133	0x3d11261d	0.03543674
134	0x3c0ff4c2	0.008786382
135	0xbceec707	-0.029147638
136	0x3c76d61b	0.015065695
137	0x3c6e44c7	0.014542765
138	0x3c16ecf0	0.009211764
139	0xbd0eedac	-0.03489463
140	0xbcd9a51f	-0.026567994
141	0x3d0abff0	0.033874452
142	0xbd10a3e1	-0.035312537
143	0xbd30ae43	-0.04313494
144	0xbcc4e295	-0.024033824
145	0xbca92220	-0.020646155
146	0xbd0ed56b	-0.0348715
147	0xbc486180	-0.012230277
148	0xbcce35c6	-0.025172126
149	0x3c6925ce	0.014230205
150	0xbcfd98fd	-0.03095674
151	0x3c8368e8	0.016041234
152	0x3ce13178	0.027489409
153	0xbcfde836	-0.030994516
154	0x3c1027d0	0.008798555
155	0x3c86042c	0.016359411
156	0x3cfbd88a	0.030742902
157	0xbd16d61c	-0.036825284
158	0x3b54bd17	0.003246134
159	0xbce8673c	-0.028369538
160	0xbc655132	-0.013996409
161	0xbc912e71	-0.01772234
162	0x3d0c3858	0.03423342
163	0x3cda0273	0.026612496
164	0xbd3501d3	-0.044191193
165	0x3cd7d8fe	0.026348587
166	0xbcb80d8b	-0.022467395
167	0x3c597bba	0.013274128
168	0x3cd52bd2	0.026021872
169	0x3d31f934	0.04345055
170	0xbbb21b73	-0.005435401
171	0x3a088435	0.00052076887
172	0xbbaeb511	-0.0053316434
173	0x3c54b0b0	0.012981579
174	0x3d017266	0.03160324
175	0xbb86cb12	-0.0041135633
176	0xbc144982	-0.009050729
177	0x3c17ab05	0.009257083
178	0xbd133c17	-0.035945978
179	0x3cc27e90	0.02374199
180	0x3bec3b4b	0.0072092167
181	0xbd011457	-0.03151354
182	0xbbe1962f	-0.0068843584
183	0x3d2e1ead	0.042509723
184	0xbd0f3765	-0.034964938
185	0xbc1e1468	-0.00964842
186	0x3d094fa6	0.033523224
187	0xbae752eb	-0.0017648613
188	0xbce1863f	-0.027529834
189	0xbca06148	-0.019577637
190	0xbc8450d4	-0.016151823
191	0x3c1baf25	0.009502207
192	0xbce8fed9	-0.028441833
193	0xbca57355	-0.020196596
194	0xbca955d9	-0.020670818
195	0x3d1ed40e	0.03877645
196	0xbc905ee0	-0.017623365
197	0x3c7d8167	0.015472746
198	0x3c49c1b5	0.01231425
199	0xbcbf32c0	-0.02333963
200	0x3cba9dc8	0.022780314
201	0xbcc21006	-0.023689281
202	0xbb7a523b	-0.0038195986
203	0x3c4583b9	0.012055331
204	0x3d062925	0.032754082
205	0x3ca7b11d	0.020470196
206	0xbcb16357	-0.021653814
207	0xbd08e1b2	-0.033418365
208	0xbcd8da62	-0.02647132
209	0x3c3cba79	0.011519068
210	0x3ce20981	0.027592422
211	0xbc45792f	-0.012052818
212	0x3cfa1040	0.030525327
213	0xbc2b54fb	-0.010457273
214	0x3c97ac67	0.018514825
215	0x3d192fb8	0.037399024
216	0xbd10486f	-0.035225328
217	0x3d29455f	0.041325923
218	0x3d21077a	0.03931377
219	0x3c9f996a	0.019482333
220	0xbce3a9a9	-0.027790861
221	0x3c8784af	0.01654276
222	0x3d073f5e	0.033019416
223	0xbccb7304	-0.024835117
224	0xbc83bc22	-0.01608092
225	0x3c96fd59	0.018431352
226	0x3c777987	0.015104658
227	0xbc989e49	-0.018630164
228	0xbc72eff9	-0.014827722
229	0xbd0386ac	-0.032110855
230	0xbc3d4adf	-0.011553495
231	0xbbb75940	-0.005595356
232	0xbc5b307d	-0.01337826
233	0xbb905f56	-0.004405896
234	0x3d238b44	0.039927736
235	0x3c3b5ce0	0.011435717
236	0xbbdd9d17	-0.0067631113
237	0xbc5ecfea	-0.013599375
238	0x3c51a5f9	0.012795919
239	0xbaaab340	-0.0013023391
240	0xbd081f5e	-0.03323304
241	0xbca97287	-0.020684494
242	0x3c9e3489	0.01931216
243	0x3caaddd3	0.020857727
244	0x3ccbc947	0.02487625
245	0x3d1c226f	0.038118776
246	0xbb3531b1	-0.0027648027
247	0xbd0c6386	-0.0342746
248	0x3d2dafd1	0.042404
249	0xbbc5bd9a	-0.006034565
250	0xbd2c9388	-0.042132884
251	0xbbc05847	-0.0058698985
252	0xbcc4c271	-0.024018498
253	0x3d019af9	0.031641934
254	0x3b9ec7bb	0.004845587
255	0xbd19389a	-0.037407495

conv3.bias f4 [7]
0	0xbd236ff4	-0.03990169
1	0x3bc182e0	0.005905494
2	0xbc201a28	-0.009771861
3	0x3d0ac12c	0.03387563
4	0xbd14f035	-0.03636189
5	0xbc8ebcb1	-0.01742396
6	0xbc431950	-0.01190789

conv4.weight f4 [3, 14, 6, 6]
0	0xbc914949	-0.01773514
1	0xbc97bd07	-0.018522752
2	0x3d153ba2	0.036433823
3	0x3b5100d6	0.0031891367
4	0x3b8a84f3	0.0042272746
5	0xbd1e8d16	-0.03870877
6	0x3cb40411	0.021974595
7	0x3d2920a7	0.041290905
8	0x3cdcdb64	0.026960082
9	0x3d3134c9	0.04326323
10	0x3c10938a	0.008824239
11	0x3d030faf	0.03199738
12	0x3c441f71	0.011970387
13	0xbc4d5a2d	-0.012533707
14	0x3c3e12d8	0.011601172
15	0xbd2b7e3b	-0.04186843
16	0x3d2cfaeb	0.04223148
17	0xbcd737c3	-0.026271706
18	0x3bc41d96	0.005984972
19	0x3be21f19	0.00690068
20	0xbbba17a1	-0.0056790863
21	0xbc25f883	-0.010130051
22	0xbc8dbc6f	-0.017301766
23	0x3cf6b606	0.030116092
24	0x3d1dbacc	0.03850822
25	0xbcb82f37	-0.022483451
26	0xbd20e8d8	-0.039284557
27	0xbd0f5da2	-0.035001405
28	0xbc4c2fb1	-0.012462542
29	0x3d1fba89	0.038996253
30	0xbd21134c	-0.039325044
31	0x3d28d82b	0.04122178
32	0x3c0ed910	0.008718744
33	0x3d360151	0.04443485
34	0x3c954272	0.01822016
35	0xbd22584f	-0.039635
36	0xbc8ea426	-0.017412256
37	0xbc9df000	-0.01927948
38	0xbc9e0961	-0.019291582
39	0x3d2c7085	0.042099494
40	0x3c58a0ad	0.013221902
41	0xbd2f4e89	-0.042799506
42	0xbcbcddc6	-0.023054969
43	0xbccec3f5	-0.025239924
44	0xbd203e13	-0.0391217
45	0xbd17cd39	-0.03706095
46	0x3d28e31d	0.041232217
47	0x3d0d0bd6	0.034435116
48	0x3d33856d	0.043828417
49	0x3d019a27	0.03164115
50	0xbd17a585	-0.037023086
51	0x3d16f402	0.036853798
52	0x3c8e1ea0	0.017348588
53	0xbd2cb8bc	-0.042168364
54	0x3d17cc2c	0.037059948
55	0x3c9b8bad	0.018987501
56	0xbcdc72b4	-0.026910163
57	0xbc16720d	-0.009182465
58	0xbcd4c882	-0.025974516
59	0xbc4963cb	-0.012291859
60	0x3d262038	0.04055807
61	0xbcd66f7e	-0.02617621
62	0xbd323989	-0.0435119
63	0xbbd71c81	-0.006564677
64	0xbc9af256	-0.018914383
65	0xbb5ecf38	-0.0033998024
66	0xbc20dc51	-0.0098181525
67	0x3cada193	0.021195209
68	0x3d1fed47	0.039044645
69	0x3ce8c1b4	0.028412677
70	0xbd1fb0ae	-0.038986854
71	0xbaf75967	-0.0018871248
72	0x3d0b74c4	0.034046903
73	0x3ba8a3b5	0.0051464685
74	0xbcfb94a8	-0.030710533
75	0xbc8c7c2f	-0.01714906
76	0x3b7faf31	0.0039014334
77	0xbcae0aba	-0.02124535
78	0x3c11958a	0.008885751
79	0x3d16413a	0.0366833
80	0x3ba7b031	0.005117439
81	0xbd009227	-0.03138938
82	0x3cd510d9	0.02600901
83	0x3cf7f88e	0.030269887
84	0xbd219c5c	-0.039455757
85	0xbd27c8d8	-0.040963024
86	0xbd1d8f1f	-0.03846657
87	0xbc35a063	-0.011085602
88	0xbbec53f8	-0.0072121583
89	0x3ce6bccd	0.0281662
90	0x3d00a231	0.031404678
91	0x3d287bd5	0.04113372
92	0x3c15d9ad	0.009146136
93	0xbcb0ce01	-0.021582605
94	0xbd02c3df	-0.03192508
95	0x3cb9097f	0.022587536
96	0x3cd0e99d	0.02550202
97	0xbbb44979	-0.0055019227
98	0xbd2daee7	-0.042403128
99	0x3a3e5169	0.0007260056
100	0x3c981d4a	0.018568654
101	0xbc91615e	-0.017746624
102	0xbcef96ab	-0.029246649
103	0x3c7c50d5	0.015400131
104	0x3ccad9ce	0.02476206
105	0x3cf30d16	0.029669326
106	0xbb77b256	-0.0037795505
107	0xbc86cfeb	-0.016456565
108	0x3d07410c	0.033021018
109	0x3d0e1b46	0.03469398
110	0xbb5eea83	-0.0034014292
111	0xbaaf87eb	-0.0013391947
112	0x3b06677b	0.0020508457
113	0xbd2172c4	-0.03941609
114	0x3d11a1d5	0.035554726
115	0xbcf638f9	-0.030056464
116	0x3cbf7c72	0.02337477
117	0xbd045fdf	-0.032317992
118	0x3caf5bc0	0.021406054
119	0x3c1c6ff2	0.009548174
120	0x3d1c28c6	0.038124822
121	0xbcf1a4ad	-0.029497469
122	0xbd001636	-0.031271182
123	0xbd1be06b	-0.03805582
124	0x3d2acbdf	0.041698333
125	0xbd32cc8e	-0.04365211
126	0xbcde178a	-0.027110834
127	0xbc5fc0f5	-0.013656844
128	0xbcc9c340	-0.024629235
129	0x3bec523e	0.0072119525
130	0xbc3d1916	-0.0115416255
131	0xbcac7929	-0.021053867
132	0xbccd9c68	-0.025098994
133	0xbcdd50da	-0.027016092
134	0xbc988776	-0.01861928
135	0x3c358b78	0.011080615
136	0xbb80f566	-0.003935504
137	0xbc440181	-0.011963249
138	0x3d157761	0.0364908
139	0x3c9159fc	0.017743103
140	0x3d097c6f	0.033565935
141	0x3c87639a	0.016526986
142	0x3c94629c	0.018113427
143	0xbc07d8e4	-0.008291457
144	0x3c47d1eb	0.012196044
145	0x3d251026	0.040298603
146	0x3a3b523f	0.00071457395
147	0xbc4a2263	-0.0123373
148	0x3c6ee07d	0.014579889
149	0xbb0cf87e	-0.0021510418
150	0xbc6e8bba	-0.014559681
151	0x3cab99a5	0.020947287
152	0xbd088100	-0.03332615
153	0x3c200237	0.009766153
154	0x3ced238f	0.02894762
155	0xbca3fa80	-0.020016909
156	0xbba20047	-0.0049438807
157	0xbc9ff5a2	-0.019526307
158	0x3d0b6376	0.0340304
159	0x3d1fd7f8	0.039024323
160	0x3d24674c	0.040137574
161	0x3cf64428	0.030061796
162	0x3a64d095	0.0008728591
163	0x3c2e2bdf	0.010630577
164	0x3c106718	0.008813642
165	0xbd036005	-0.032073993
166	0xbb797524	-0.0038064206
167	0x3cb75fe8	0.022384599
168	0xbcb7de80	-0.022444963
169	0xbcdc6a81	-0.026906254
170	0xbd0e45a2	-0.034734376
171	0x3c85ac84	0.016317613
172	0xbb974658	-0.00461654
173	0xbd28de58	-0.04122767
174	0xbd02df04	-0.031950966
175	0xbd1e518b	-0.038651984
176	0x3d142295	0.036165792
177	0xbce5b02a	-0.028038103
178	0x3cc2b94f	0.023770003
179	0xbd104ce5	-0.035229582
180	0xbc8cbba5	-0.01717932
181	0x3bf7aedc	0.0075586867
182	0xbce89bf0	-0.02839467
183	0xbc955d08	-0.018232837
184	0x3bfda3ae	0.0077404594
185	0x3cc2a4d0	0.02376023
186	0x3d243ef1	0.040099088
187	0x3cbba0d7	0.022903843
188	0xbcb363b1	-0.021898123
189	0x3d2e92c8	0.04262045
190	0xbc5f6605	-0.013635163
191	0x3bca9227	0.0061819735
192	0xbc594b11	-0.013262526
193	0x3b95ceee	0.004571787
194	0xbc825c95	-0.015913287
195	0xbc2409fd	-0.010012147
196	0x3ba8835c	0.0051426124
197	0x3ca4e5cc	0.020129107
198	0xbbfb2463	-0.0076642497
199	0x3d30d6c7	0.043173578
200	0xbbb5cf01	-0.0055483584
201	0xbc55ecc4	-0.013056938
202	0xbd1f5044	-0.038894907
203	0xbd1d130f	-0.038348254
204	0x3d0d1066	0.034439467
205	0xbcce1ce0	-0.025160253
206	0x3c20cb15	0.0098140435
207	0x3bec5059	0.0072117266
208	0x3d0c2b2b	0.034220856
209	0x3d27c3e6	0.040958308
210	0x3d04a394	0.032382563
211	0x3cfd5823	0.030925816
212	0xbd016419	-0.0315896
213	0x3d20ba66	0.039240263
214	0x3cdc804c	0.026916645
215	0xbbbbfb9b	-0.005736781
216	0x3c9faa74	0.019490458
217	0x3cdfda2b	0.02732571
218	0xbd080463	-0.03320731
219	0x3cbfc549	0.023409503
220	0xbcb5149d	-0.022104556
221	0xbb76c379	-0.0037653132
222	0x3bda093c	0.006653933
223	0x3b992718	0.00467385
224	0x3b0a4d46	0.0021103187
225	0xbbbb7735	-0.0057209977
226	0xbcd7358c	-0.02627065
227	0x3c7ff252	0.0156217385
228	0xbd11feb3	-0.03564329
229	0x3d0a839b	0.033816915
230	0xbd313ac0	-0.04326892
231	0xbbeb3aac	-0.007178625
232	0xbd19949f	-0.03749525
233	0xbd1573f3	-0.03648753
234	0xbc111995	-0.008856197
235	0xbcfc5bb0	-0.030805439
236	0x3cdf6830	0.02727136
237	0xbc65a6af	-0.014016791
238	0xbc8cfd35	-0.017210582
239	0x3cc83e9a	0.024443913
240	0x3d2b0378	0.041751355
241	0x3ced2096	0.028946202
242	0xbd0571c9	-0.032579217
243	0xbc9449d5	-0.018101612
244	0x3d050ee3	0.0324849
245	0x3c1740c7	0.009231753
246	0xbce78aa2	-0.028264347
247	0xbd22ae7f	-0.039717194
248	0xbcc82ec7	-0.024436368
249	0xbbb8e155	-0.005642096
250	0xbc76c22c	-0.015060943
251	0xbc18cef5	-0.009326686
252	0x3d36793c	0.04454921
253	0x3ce555e8	0.027995065
254	0x3ccfab44	0.02535022
255	0x3d1094f2	0.035298295

conv4.bias f4 [3]
0	0x3ac93ce6	0.0015353232
1	0x3d1f4e6e	0.038893156
2	0xbc8c0da7	-0.017096354

conv5.weight f4 [1, 3, 6, 6]
0	0x39f1d595	0.00046126233
1	0x3c950944	0.018192895
2	0x3d3b9042	0.04579187
3	0xbda155c5	-0.07877687
4	0xbdaa100b	-0.08303841
5	0xbcbeb1c8	-0.023278132
6	0xbd2b1057	-0.04176363
7	0xbd6339a7	-0.055474903
8	0x3d5a1998	0.053247064
9	0xb9476621	-0.00019016165
10	0x3d47fbbd	0.04882406
11	0xbb26ab9b	-0.0025431875
12	0x3dbf0078	0.09326261
13	0xbd0aa41a	-0.033847906
14	0xbc62d837	-0.013845495
15	0x3d9bb79e	0.076033816
16	0x3d4aa54b	0.049474042
17	0xbd13c816	-0.03607949
18	0x3dab0298	0.08350104
19	0x3d139a9a	0.03603611
20	0xbd64b69a	-0.055838205
21	0x3d64aaa7	0.05582681
22	0x3d4cf0cd	0.050034333
23	0x3d8ba99b	0.06819459
24	0x3d33d1ad	0.043901134
25	0xbccb8ffc	-0.02484893
26	0xbd5c8712	-0.05383975
27	0xbb921c84	-0.0044589657
28	0x3ceb33d0	0.02871123
29	0x3ca9c3a3	0.02072317
30	0xbd89a52f	-0.067209594
31	0x3d0c92dc	0.034319744
32	0xbd3ae308	-0.04562667
33	0x3d578d74	0.052625135
34	0x3caf0ff4	0.021369912
35	0xbd3d3c20	-0.046199918
36	0x3dabd079	0.083893724
37	0xbc840072	-0.016113494
38	0xbd484817	-0.048896875
39	0x3d9b3535	0.07578508
40	0x3d81d427	0.06339293
41	0xbd960d97	-0.07326811
42	0xbd9ade5b	-0.07561942
43	0x3da05a8e	0.07829772
44	0xbd2a0efe	-0.041518204
45	0x3da1a3ee	0.07892595
46	0x3da77d34	0.081781775
47	0x3db05818	0.086105525
48	0xbd9611a4	-0.073275834
49	0x3d9903b5	0.0747141
50	0x3d82875d	0.06373475
51	0x3ce7b63d	0.02828514
52	0xbd3869d1	-0.04502279
53	0x3d2dfab8	0.042475432
54	0xbdacf05f	-0.08444285
55	0xbd2912f9	-0.04127786
56	0x3d8391f2	0.06424321
57	0x3d44229d	0.047884572
58	0xbd62dc5e	-0.05538594
59	0xbc97e271	-0.018540593
60	0xbc9c6463	-0.019090837
61	0xbdbd2d18	-0.092371166
62	0xbc0d4fb7	-0.0086249625
63	0xbcb88b44	-0.022527345
64	0xbda7a28e	-0.08185302
65	0x3da43e1c	0.08019659
66	0xbd72325f	-0.05913007
67	0x3d1a8e10	0.037733138
68	0xbd368236	-0.044557773
69	0xbd710a66	-0.058847807
70	0xbda8c230	-0.08240163
71	0xbd0d5ddc	-0.03451334
72	0x3ccc3085	0.02492548
73	0x3c81b376	0.015832644
74	0xbceb3380	-0.02871108
75	0x3d1719dc	0.036889896
76	0xbc6473ef	-0.013943656
77	0xbd7739c5	-0.060357828
78	0xbd936c3d	-0.07198379
79	0x3d270977	0.04078051
80	0x3cea8f37	0.028632743
81	0x3ca1521c	0.019692473
82	0x3d219da3	0.039456975
83	0xbd8b2e62	-0.06795956
84	0x3d369e08	0.044584304
85	0x3d8aeb41	0.06783152
86	0x3dbae636	0.091259405
87	0xbd8f4592	-0.06995691
88	0x3cdeedc8	0.027212992
89	0x3d126781	0.03574324
90	0x3cead8b8	0.028667793
91	0x3d934eda	0.07192774
92	0x3db1a6f4	0.08674422
93	0x3da16e7c	0.07882401
94	0x3d65f613	0.056142878
95	0xbd1a7a77	-0.037714448
96	0x3ced1538	0.028940782
97	0x3d173dcc	0.03692417
98	0x3d8bf25f	0.06833338
99	0xbd7e11d0	-0.062028706
100	0x3cc635fa	0.02419566
101	0xbd9de58d	-0.07709799
102	0xbd9eb1c2	-0.07748748
103	0x3d13185e	0.03591191
104	0xbd48a397	-0.048984136
105	0x3db0118f	0.08597099
106	0x3dac672b	0.08418115
107	0xbd8f03b9	-0.06983132

conv6.weight f4 [1, 3, 6, 6]
0	0xbd7f6e26	-0.062360905
1	0xbd174984	-0.036935344
2	0x3db8e92f	0.09028851
3	0xbdb07dfc	-0.086177796
4	0x3d6a1e67	0.0571579
5	0xbd511138	-0.05104181
6	0xbac7a693	-0.0015232138
7	0xbdb05d9a	-0.08611603
8	0x3b144e10	0.0022629537
9	0x3d2558a6	0.040367745
10	0x3d974c79	0.07387633
11	0x3c4e320d	0.012585175
12	0xbdb8427a	-0.089970544
13	0xbdab1710	-0.08354008
14	0xbc39d908	-0.011343248
15	0x3c0baf51	0.008525685
16	0xbcc648f3	-0.024204707
17	0x3d091298	0.033464998
18	0x3d423268	0.047411352
19	0xbaf54665	-0.0018712996
20	0x3d2ef574	0.04271455
21	0xbd3dc6e8	-0.04633227
22	0x3c11371f	0.00886324
23	0x3d1c9b6f	0.03823417
24	0xbd0b3c41	-0.03399301
25	0xbd1bd4e4	-0.038044825
26	0xbda33bf2	-0.07970418
27	0xbd8fa2ee	-0.07013498
28	0x3cab4696	0.020907681
29	0x3d0b8223	0.034059655
30	0xbd3abcb1	-0.045590106
31	0x3db2bd76	0.08727543
32	0x3d6d848c	0.057987735
33	0x3c5738e3	0.013136121
34	0xbdb07914	-0.08616844
35	0xbd19e7a7	-0.037574437
36	0xbd5dcb19	-0.054148767
37	0xbd519062	-0.051163085
38	0x3d8fac88	0.070153296
39	0x3d021e8a	0.031767406
40	0xbd20d328	-0.039263874
41	0xbdb60c65	-0.08889083
42	0x3d953ffa	0.07287593
43	0xbd626542	-0.05527235
44	0x3d75c7fb	0.06000517
45	0x3d9930fe	0.07480048
46	0xbd4d5527	-0.050130036
47	0x3dbae2f9	0.09125323
48	0xbd732ca4	-0.059368744
49	0x3d997977	0.07493871
50	0xbdbc2935	-0.09187547
51	0x3d02a11f	0.03189194
52	0x3a05a949	0.0005098773
53	0xbd9d61ed	-0.076846935
54	0xbd25dec1	-0.040495638
55	0xbdbcdc79	-0.09221739
56	0xbd108470	-0.035282552
57	0xbc5c33e4	-0.013440106
58	0x3d7a81f5	0.061159093
59	0xbdc32866	-0.0952919
60	0x3d367d53	0.044553112
61	0xbc5e346e	-0.013562305
62	0x3dac7dae	0.08422409
63	0x3d5c29a2	0.05375064
64	0x3daaaa62	0.08333279
65	0xbd444ad1	-0.047922913
66	0xbd9a0d7b	-0.075221024
67	0x3d81c549	0.06336457
68	0x3d8761b3	0.066104315
69	0xbd6a3726	-0.0571815
70	0x3c2f7f60	0.010711521
71	0xbdb93f8f	-0.09045326
72	0xbd53f2ee	-0.051745348
73	0x3c0075c0	0.007840574
74	0xbd51cfdb	-0.051223617
75	0x3d7afd3f	0.06127667
76	0x3dc21199	0.09476013
77	0x3db07161	0.08615375
78	0xbd654b40	-0.055979967
79	0xbdb99191	-0.09060968
80	0xbcb0561c	-0.021525435
81	0xbd97ebe5	-0.0741804
82	0x3d48445b	0.048893314
83	0x3d5083c5	0.050906915
84	0xbcc45df2	-0.023970578
85	0x3bb1dff8	0.0054283105
86	0xbcf27065	-0.02959461
87	0xbd7b5669	-0.061361704
88	0x3d9e05ef	0.077159755
89	0xbd221123	-0.039567124
90	0xbbdd66a3	-0.00675662
91	0xbce89991	-0.028393539
92	0x3d95f008	0.07321173
93	0xbdc5c420	-0.096565485
94	0x3d34bd99	0.044126127
95	0x3d8e87d4	0.06959501
96	0x3d4ce469	0.050022516
97	0x3d38770d	0.04503541
98	0xbceab934	-0.028652765
99	0x3d831005	0.0639954
100	0xbd5921fc	-0.053010926
101	0x3c83d1a5	0.016091177
102	0xbdae443d	-0.08509109
103	0xbcce5880	-0.025188684
104	0xbdb582ea	-0.088628605
105	0x3d85709b	0.065156184
106	0xbccc0173	-0.024903035
107	0x3c09a67b	0.008401508

conv7.weight f4 [1, 2, 6, 6]
0	0xbc90cb6e	-0.017675128
1	0x3c91b194	0.017784871
2	0xbd2c17aa	-0.042014755
3	0xbccbfba1	-0.02490026
4	0x3d325eef	0.043547567
5	0xbd7a9b17	-0.06118306
6	0x3d75c9d7	0.060006943
7	0x3cf4f7ac	0.029903255
8	0x3d81ed97	0.06344145
9	0x3da32349	0.079657145
10	0x3dd1141e	0.10208915
11	0xbd1e2e88	-0.038618594
12	0xbcc858ae	-0.024456348
13	0x3c559043	0.013034883
14	0x3d891174	0.06692782
15	0x3d5e7780	0.054313183
16	0xbd2b4a68	-0.041819006
17	0xbdcb61d8	-0.099307716
18	0xbd2d50da	-0.042313434
19	0x3dd4662f	0.103710525
20	0xbde261ae	-0.11053787
21	0xbcbd7805	-0.023128519
22	0x3bb75fa3	0.0055961176
23	0xbd04256f	-0.032262262
24	0x3d894037	0.06701701
25	0xba3c6f0b	-0.00071881776
26	0x3dc36246	0.095402285
27	0xbd5108b2	-0.051033683
28	0x3dcca1be	0.099917874
29	0xbcda65d0	-0.026659876
30	0x3c9d980d	0.019237543
31	0x3d86a7d7	0.06574982
32	0x3ca3d0a9	0.019996958
33	0x3dd9f35d	0.10642121
34	0xbd1f04c0	-0.03882289
35	0x3d30b869	0.043144617
36	0x3d49e05d	0.049286235
37	0x3d58cee3	0.052931678
38	0x3de59678	0.1121034
39	0x3d2aa2c4	0.04165913
40	0xbd8b6fc5	-0.06808428
41	0xba9e5ddd	-0.0012082417
42	0xbde73fb6	-0.11291449
43	0xbdb1899a	-0.086688235
44	0xbd726dd6	-0.05918678
45	0x3d144fe9	0.03620902
46	0x3d418463	0.047245394
47	0x3d2bafd8	0.041915745
48	0xbda1ed87	-0.07906633
49	0x3db9ed35	0.09078447
50	0x3d554a4b	0.052072804
51	0x3a9bd453	0.0011888839
52	0x3d0a505e	0.03376805
53	0xbb9ee3c1	-0.0048489277
54	0xbdb79d28	-0.08965522
55	0xbd8b8c7e	-0.06813906
56	0x3d03ac41	0.032146696
57	0xbdf0b75a	-0.117537215
58	0xbda6f3bd	-0.08151958
59	0x3db9b0c9	0.09066922
60	0x3dd7417e	0.105105385
61	0xbdecfd6e	-0.115717754
62	0xbdc72fed	-0.09725938
63	0xbc737aa1	-0.01486078
64	0x3d51a112	0.051179
65	0xbcb4a7ae	-0.022052612
66	0x3d5c9b25	0.053858895
67	0xbde60871	-0.11232079
68	0x3d465bbd	0.048427332
69	0xbc94dbbb	-0.018171182
70	0x3ddf1b88	0.10893923
71	0xbd9d1197	-0.076693706
