siamese-classifier/siam_v3_29.pth (torch, 104363 bytes, 12 tensors)

siam_layer.conv1.weight f4 [14, 31, 6, 6]
-0.0012510736 -0.014571974 0.005019197 -0.002321036 0.026785811 0.0011555367 0.005347603 -0.012988982
-0.019196887 -0.029491995 -0.024787635 0.026036344 -0.02665831 -0.0055560074 0.0027923936 0.0075965645
-0.0010032735 -0.018162547 -0.023880938 0.0049654893 0.0045402744 0.0012979215 0.01825907 0.02517292
-0.01476924 -0.016268464 -0.024293682 -0.0022522835 0.024851214 0.025700543 0.027802214 0.019691011
-0.01904119 0.01803325 0.012779224 -0.009877998 -0.002327445 0.02040753 -0.016951915 0.0025118503
0.014175902 -0.003361102 0.023841612 0.002435478 -0.005374018 -0.0019420657 0.019059874 -0.024201442
0.0034926797 0.025221981 -0.015016345 0.010338202 0.020234495 -0.01219765 -0.021601198 -0.025864849
-0.0023168665 0.021002943 -0.009771314 0.018398736 0.012870723 0.0109057985 -0.006428323 0.016768005
-0.028907696 -0.025501661 0.028349139 -0.021923486 -0.028757453 0.021270676 -0.015528148 -0.026610617
-0.022754952 0.012248601 -0.02214201 0.027748007 -0.0039934535 -0.024548804 -0.027303496 0.019587066
0.018891126 -0.010164165 -0.001333465 -0.00829452 0.007930704 0.015625106 0.021518359 0.015321418
0.006569866 -0.01893744 -0.028503643 0.024282422 0.014647348 0.012113452 -0.027824726 -0.0027371882
-0.00532095 -0.019097885 -0.024509022 -0.025219742 0.019410828 -0.023567412 -0.0125339255 0.0064292154
-0.026877852 -0.020402761 -0.007983547 -0.017342959 -0.015183688 0.00083176396 0.028650152 0.004045646
-0.02699407 -0.017122332 0.022513246 0.016231718 -0.018439239 0.0013437622 -0.029825846 -0.026205786
-0.017493296 -0.012181458 -0.029609505 0.0021245817 -0.026728276 0.0021262905 -0.0076981634 -0.026665613
-0.016573934 0.009609411 0.0074619604 0.007891099 -0.029720103 0.008355274 -0.026043352 -0.020615598
-0.009908154 -0.0012465204 0.013951646 0.023845881 0.018126529 0.012232548 -0.013524357 -0.013920454
-0.007946233 -0.004067624 -0.015450361 -0.025152292 -0.015879065 0.011039816 0.015528043 0.017841471
-0.028139926 -0.02584317 0.017467942 0.0156728 -0.012822857 0.017439423 -0.017929088 0.0024974141
0.014337224 0.009936733 0.024464661 0.021591911 -0.026833022 0.02111686 -0.02513471 0.009453738
-0.022072842 -0.015104593 0.028394384 0.015443088 -0.0051490925 0.02603665 -0.00012370622 0.0021955324
0.010243368 -0.0034421063 0.0081283 -0.024898522 -0.0008088069 0.021933645 -0.008402053 -0.011059583
0.0082645295 0.0056794244 -0.017226217 0.011903462 -0.023251474 0.019051395 -0.02335482 -0.022022828
-0.017882407 0.017055532 0.016214235 -0.018148918 0.00412191 -0.024609426 -0.00036373656 -0.018841969
-0.008395978 0.017915262 -0.028308744 0.024845412 0.0017211272 -0.0052220514 0.018458208 0.028099345
-0.027784998 0.0067290924 0.027177924 0.015034595 0.0017006533 0.014624042 -0.024287557 0.0100003285
0.023761151 -0.013770655 0.018366922 -0.0021537715 0.022289416 -0.011679923 0.02496214 -0.008357185
-0.019448299 0.0061463607 0.010529584 0.007885231 -0.029520767 0.029189985 -0.015574306 -0.006822381
-0.012733235 0.0026230726 -0.016000802 0.004730759 -0.029111775 -0.0067992136 -0.027436227 0.0057766056
-0.0016785288 0.014087465 -0.022890765 0.013119025 0.026598886 0.0044461894 -0.014838889 -0.007203449
0.00027339105 -0.01051523 -0.010135597 -0.02811108 0.020519856 0.009978945 0.008655005 -0.0028443087
00000000: 10fb a3ba 4abf 6ebc 1378 a43b 861c 18bb
00000010: eb6d db3c 6175 973a f23a af3b bdcf 54bc
00000020: ca42 9dbc 3299 f1bc 700f cbbc 2c4a d53c
00000030: 8762 dabc 2b0f b6bb 9700 373b 9aec f83b
00000040: 4680 83ba 9fc9 94bc f5a1 c3bc 8bb5 a23b
00000050: 95c6 943b 051f aa3a 0c94 953c 7137 ce3c
00000060: affa 71bc 7145 85bc 8b03 c7bc 0c9b 13bb
00000070: c694 cb3c f289 d23c 78c1 e33c 0b4f a13c
00000080: 45fc 9bbc 77ba 933c f35f 513c 54d7 21bc
00000090: 0c88 18bb b12d a73c bede 8abc db9d 243b
000000a0: 0b42 683c ef45 5cbb 7c4f c33c 8a9c 1f3b
000000b0: 8818 b0bb e98c feba 7423 9c3c 1a42 c6bc
000000c0: 71e5 643b 549e ce3c 1e07 76bc 9061 293c
000000d0: d0c2 a53c a7d8 47bc fff4 b0bc 85e2 d3bc
000000e0: 92d6 17bb 5d0e ac3c dd17 20bc f2b8 963c
000000f0: badf 523c 3cae 323c afa4 d2bb 0e5d 893c
00000100: d5cf ecbc dce8 d0bc 743c e83c e298 b3bc
00000110: c094 ebbc d73f ae3c c669 7ebc 82fe d9bc
00000120: 9868 babc 5bae 483c 2963 b5bc ca4f e33c
00000130: 84db 82bb 931a c9bc 95ab dfbc 0e75 a03c
00000140: 90c1 9a3c 9987 26bc a9c7 aeba bde5 07bc
00000150: c9ef 013c 3900 803c 4547 b03c af06 7b3c
00000160: 0848 d73b b122 9bbc 7980 e9bc eeeb c63c
00000170: 6efb 6f3c 8077 463c aef0 e3bc 6662 33bb
00000180: 5d5b aebb 2b73 9cbc 25c7 c8bc a299 cebc
00000190: 7503 9f3c 7210 c1bc 185b 4dbc 2bac d23b
000001a0: f12e dcbc b123 a7bc 6ccd 02bc d212 8ebc
000001b0: 01c5 78bc bc0a 5a3a b9b3 ea3c 5791 843b
000001c0: ab22 ddbc 2244 8cbc b36d b83c 61f8 843c
000001d0: e30d 97bc 2d21 b03a 5555 f4bc 84ad d6bc
000001e0: 1a4e 8fbc bd94 47bc a28f f2bc 913c 0b3b
000001f0: 42f5 dabc 3c59 0b3b e040 fcbb d871 dabc
00000200: 0fc6 87bc ca70 1d3c 7683 f43b ab49 013c
00000210: 9377 f3bc 8fe4 083c de58 d5bc 0be2 a8bc
00000220: cf55 22bc 4962 a3ba 7295 643c 7058 c33c
00000230: 167e 943c 066b 483c 4495 5dbc 9e12 64bc
00000240: eb30 02bc b449 85bb 8323 7dbc 2e0c cebc
00000250: d014 82bc 58e0 343c 5569 7e3c 4728 923c
00000260: b485 e6bc 0eb5 d3bc ee18 8f3c 3e64 803c
00000270: f616 52bc 1fdd 8e3c 06e0 92bc a8ab 233b
00000280: ade6 6a3c aecd 223c 1d6a c83c 85e1 b03c
00000290: edd0 dbbc 44fd ac3c 4fe7 cdbc dae3 1a3c
000002a0: 1bd2 b4bc 4179 77bc 579b e83c 0105 7d3c
000002b0: b8b9 a8bb d04a d53c 23b7 01b9 ece2 0f3b
000002c0: cdd3 273c f694 61bb 902c 053c fcf7 cbbc
000002d0: 1d06 54ba 30ae b33c c4a8 09bc 4133 35bc
000002e0: f367 073c 771a ba3b ff1d 8dbc bd06 433c
000002f0: e079 bebc ac11 9c3c 9c52 bfbc 3869 b4bc
00000300: 207e 92bc 0bb8 8b3c b7d3 843c 0aad 94bc
00000310: 1611 873b b599 c9bc e5b3 beb9 795a 9abc
00000320: 498f 09bc 07c3 923c bde7 e7bc 9b88 cb3c
00000330: 7297 e13a be1d abbb ab35 973c 9930 e63c
00000340: 5d9d e3bc b87f dc3b 3da4 de3c a953 763c
00000350: 75e8 de3a ae99 6f3c b3f6 c6bc 6bd8 233c
00000360: bfa6 c23c 509e 61bc 3a76 963c 4a26 0dbb
00000370: 4b98 b63c 265d 3fbc 677d cc3c 93ec 08bc
00000380: 0a52 9fbc 6967 c93b 4784 2c3c 0e31 013c
00000390: 89d5 f1bc d61f ef3c 602b 7fbc 488e dfbb
000003a0: 0f9f 50bc dbe7 2b3b 1d14 83bc 7c04 9b3b
000003b0: d17b eebc f0cb debb f0c1 e0bc ae49 bd3b
000003c0: 1502 dcba 1ccf 663c 6a85 bbbc 2ef1 563c
000003d0: e8e5 d93c 57b1 913b d01e 73bc e90a ecbb
000003e0: ed55 8f39 1248 2cbc c60f 26bc 3549 e6bc
000003f0: 4219 a83c bb7e 233c b9cd 0d3c 9567 3abb

siam_layer.conv1.bias f4 [14]
0.013243269 0.029896725 0.007830504 -0.02579119 0.023425046 0.029426802 -0.021587111 0.00545327
-0.01438779 0.00821913 0.015507054 0.026560917 0.018008836 0.009157915
00000000: 4cfa 583c fae9 f43c 844b 003c 0c48 d3bc
00000010: e2e5 bf3c 7a10 f13c 74d7 b0bc 58b1 b23b
00000020: c4ba 6bbc 88a9 063c 4c11 7e3c 4896 d93c
00000030: 4487 933c 140b 163c

siam_layer.conv2.weight f4 [7, 14, 6, 6]
-0.013434643 -0.042799607 0.007897467 -0.014543967 -0.006167499 0.009099077 -0.034314692 0.0231506
0.006571383 -0.039163668 -0.01703536 0.02545914 0.0140801435 -0.04375175 0.0058799475 0.044004925
0.011573065 0.020022195 -0.017560648 -0.01243888 0.022678377 0.03974154 0.033642408 0.009161232
-0.009345441 -0.018203631 -0.044244926 0.009697189 0.03204245 0.0012596907 0.039715596 -0.023040283
0.0232353 0.028991735 0.01287635 -0.009337095 -0.040483676 0.03273201 -0.019539095 -0.041294113
0.03921345 0.0105326325 -0.019753646 0.0332899 0.021857154 0.033557996 0.029350571 -0.024196919
0.030136846 -0.025587564 -0.03422501 0.016144728 -0.034348715 -0.026849283 0.008403074 0.01099438
-0.033207152 -0.024645317 -0.0202609 -0.0057740137 0.036276612 -0.025819682 -0.024231397 -0.015827792
0.01815132 -0.021973547 -0.044500194 0.007873092 -0.031559434 -0.02647745 0.039553132 0.038195062
-0.03407288 -0.008193395 -0.010568006 0.013588769 0.026043694 -0.004828554 0.014875032 0.0013182331
-0.011988336 0.0009922566 -0.04056569 0.011606324 0.0179982 -0.011745382 0.008747734 -0.043993726
-0.007698876 -0.015116827 -0.04150773 -0.01619026 -0.013820107 0.017292308 0.010496123 -0.034292772
-0.0041261143 0.038133156 0.018919293 -0.013950848 0.04054763 0.015782956 0.036130384 0.033999253
-0.0018921702 0.02444882 0.019414196 -0.041758154 0.03820795 -0.011353338 -0.00957194 -0.022338249
0.015785694 -0.043470573 -0.036969382 0.033559322 0.041189373 0.024492482 -0.012986474 0.018734436
-0.024225878 -0.036399063 0.03344426 -0.008167851 -0.006104091 0.007279129 0.023914456 0.015048679
-0.010303774 0.010855457 -0.014999949 -0.0038703587 0.025152722 -0.032332163 -0.024233436 -0.0071880613
-0.019955192 -0.006190329 0.03247227 -0.030810405 -0.02548085 0.015115096 -0.04063706 -0.016243916
-0.025115237 -0.0016934808 -0.02429195 -0.0001612697 0.015515138 -0.0033974692 -0.024313204 -0.018493239
-0.037845295 0.019101141 0.016027994 -0.016258512 -0.004222311 -0.004976069 0.03400262 -0.0026527247
-0.019318322 0.00734939 0.039658252 0.025252378 0.029841995 -0.018285168 -0.021472119 0.023668025
-0.014775474 -0.013557863 0.014636397 0.041692674 -0.021652706 -0.040272657 0.0054445737 -0.021128584
-0.024745729 0.02255327 0.0034981836 -0.03101914 0.04399539 0.021840135 0.028719926 -0.014472898
-0.04323792 0.030876907 -0.031781744 -0.038964186 0.03678729 -0.005147105 0.012966425 -0.030791229
0.02395866 0.008635033 0.018297028 0.03160145 -0.006315143 -0.037477676 -0.009217681 -0.029306978
-0.016590262 -0.03410897 0.006540033 -0.033697866 0.007367726 0.024668364 0.02678558 -0.027316537
0.0088345 0.008955794 0.032158807 0.028858945 0.008634443 -0.024918417 0.028547019 0.017669037
0.030828096 0.042701412 -0.043461893 -0.0024834194 0.02571043 0.022339232 0.012770678 -0.0057091415
0.044554774 0.028225392 0.02875262 0.017823039 -0.02576903 -0.010051164 0.009133343 0.0025170268
-0.013045298 0.041835997 -0.014403264 0.036064263 -0.00061701366 -0.01772857 -0.019685531 0.027399534
0.020607896 0.0056863837 0.02734302 0.031304125 -0.036347065 0.033826448 0.0064101215 -0.011645997
-0.027600251 0.020601463 0.041736025 0.026153134 -0.037813284 0.014976267 0.038692065 -0.037929345
00000000: fa1c 5cbc a44e 2fbd 6164 013c d249 6ebc
00000010: bb18 cabb 4c14 153c 908d 0cbd 54a6 bd3c
00000020: c254 d73b 156a 20bd bd8d 8bbc b08f d03c
00000030: 67b0 663c 0935 33bd 93ac c03b 823e 343d
00000040: f49c 3d3c 9605 a43c 59db 8fbc 72cc 4bbc
00000050: 01c8 b93c 06c8 223d 9fcc 093d fe18 163c
00000060: 9f1d 19bc c81f 95bc 2b3a 35bd f5e0 1e3c
00000070: f23e 033d 351c a53a d2ac 223d fabe bcbc
00000080: f557 be3c 1380 ed3c 54f7 523c 9dfa 18bc
00000090: 36d2 25bd 0012 063d 7410 a0bc 0424 29bd
000000a0: 489e 203d 1091 2c3c 66d2 a1bc fd5a 083d
000000b0: c60d b33c 1c74 093d 9c70 f03c 9e38 c6bc
000000c0: 8ce1 f63c 039d d1bc 862f 0cbd f341 843c
000000d0: 3db1 0cbd 07f3 dbbc 0cad 093c c621 343c
000000e0: 3904 08bd fae4 c9bc 30fa a5bc f033 bdbb
000000f0: c996 143d cc83 d3bc ec80 c6bc 49a9 81bc
00000100: 14b2 943c de01 b4bc d645 36bd 24fe 003c
00000110: 7744 01bd 3de7 d8bc 7702 223d 6d72 1c3d
00000120: 0190 0bbd 973d 06bc 6e25 2dbc 6ea3 5e3c
00000130: 9659 d53c d938 9ebb 68b6 733c 90c8 ac3a
00000140: ba6a 44bc 9b0e 823a 3528 26bd 7428 3e3c
00000150: f670 933c b46f 40bc a852 0f3c c432 34bd
00000160: da46 fcbb 91ac 77bc 0204 2abd 70a1 84bc
00000170: bb6d 62bc 99a8 8d3c eef7 2b3c 9476 0cbd
00000180: 5b34 87bb 8331 1c3d a2fc 9a3c 1992 64bc
00000190: 4615 263d 424b 813c 74fd 133d cd42 0b3d
000001a0: b202 f8ba e448 c83c 850a 9f3c 990a 2bbd
000001b0: f07f 1c3d 5a03 3abc a0d3 1cbc b4fe b6bc
000001c0: 0051 813c 330e 32bd 356d 17bd 8075 093d
000001d0: 30b6 283d 75a4 c83c 38c5 54bc f678 993c
000001e0: 5975 c6bc 2f17 15bd d9fc 083d 73d2 05bc
000001f0: d404 c8bb c285 ee3b 40e8 c33c bc8e 763c
00000200: 29d1 28bc 16db 313c 59c2 75bc d8a5 7dbb
00000210: 150d ce3c bb6e 04bd 3385 c6bc d489 ebbb
00000220: 1279 a3bc 3ed8 cabb a501 053d 1a66 fcbc
00000230: 37bd d0bc 4fa5 773c 0c73 26bd f611 85bc
00000240: 78be cdbc c9f7 ddba e9ff c6bc 811a 29b9
00000250: 3533 7e3c 13a8 5ebb 7c2c c7bc 227f 97bc
00000260: ab03 1bbd ff79 9c3c 244d 833c 9230 85bc
00000270: 505b 8abb 4b0e a3bb 5546 0b3d 56d9 2dbb
00000280: 7541 9ebc 27d3 f03b b170 223d 13de ce3c
00000290: 3377 f43c c7ca 95bc 4ce6 afbc 72e3 c13c
000002a0: d414 72bc cd21 5ebc 80cd 6f3c f0c5 2a3d
000002b0: 0461 b1bc f1f4 24bd 6568 b23b da15 adbc
000002c0: 8eb7 cabc a3c1 b83c c841 653b da1b febc
000002d0: 8334 343d 15ea b23c 0d46 eb3c bc1f 6dbc
000002e0: 3f1a 31bd 91f1 fc3c 932d 02bd e998 1fbd
000002f0: 45ae 163d 0ca9 a8bb 2171 543c e33d fcbc
00000300: f444 c43c f479 0d3c a6e3 953c 8670 013d
00000310: 42ef cebb 3182 19bd c205 17bc 3015 f0bc
00000320: 4de8 87bc d9b5 0bbd c64d d63b c606 0abd
00000330: f76c f13b 4f15 ca3c 6f6d db3c eec6 dfbc
00000340: 94be 103c 53bb 123c f4b8 033d 9869 ec3c
00000350: 7b77 0d3c b521 ccbc 70db e93c a8be 903c
00000360: 348b fc3c ade7 2e3d 1905 32bd ddc0 22bb
00000370: ae9e d23c c400 b73c 1b3c 513c c013 bbbb
00000380: 117f 363d f038 e73c 9d8a eb3c 9f01 923c
00000390: 9319 d3bc a3ad 24bc 04a4 153c b4f4 243b
000003a0: f2bb 55bc 395c 2b3d abfb 6bbc 1fb8 133d
000003b0: 16bf 21ba 823b 91bc 8d43 a1bc fd74 e03c
000003c0: e4d1 a83c d854 ba3b 78fe df3c c138 003d
000003d0: a9e0 14bd 9a8d 0a3d ff0b d23b dace 3ebc
000003e0: ec19 e2bc 66c4 a83c 65f3 2a3d 193f d63c
000003f0: 1ae2 1abd 045f 753c 927b 1e3d cd5b 1bbd

siam_layer.conv2.bias f4 [7]
0.03018704 0.019988477 -0.017950283 -0.014132177 -0.03968897 0.033790126 -0.021836435
00000000: d04a f73c e0be a33c 790c 93bc a68a 67bc
00000010: e790 22bd 8467 0a3d 53e2 b2bc

siam_layer.conv3.weight f4 [7, 14, 6, 6]
0.009849594 0.024794083 -0.028362509 -0.02983759 0.006395008 0.018680114 0.021974241 0.042005826
-0.029125832 0.020369194 0.012598979 -0.042235456 0.041290555 -0.028025847 -0.0031012904 -0.020363264
-0.040477633 -0.04286214 -0.0039288504 -0.012887955 -0.013584548 0.01592099 -0.028213488 0.035088666
-0.029510282 0.003822181 -0.036548838 -0.018697523 0.012778611 0.029705811 -0.00986689 0.004125143
0.011654042 -0.026403984 -0.042008698 -0.027334293 -0.014152758 0.032375768 0.0064847423 0.003464407
0.02276942 -0.00020985515 0.018903505 0.037335586 0.030059282 0.01600004 -0.021820124 0.0010335963
-0.0047557293 0.011010646 -0.010570219 -0.032151714 0.029166257 0.005689549 -0.023398465 -0.0272055
0.024597278 0.02384541 -0.010613682 -0.02402485 0.0056079742 0.029429195 0.037041515 -0.038712632
0.033044927 -0.001913626 0.023935921 -0.03766352 -0.0012796624 -0.02760718 0.03687102 -0.0035212936
-0.01782827 0.010675516 0.041341323 -0.04198625 -0.02482451 -0.041716635 0.026661333 -0.029999685
-0.019445641 -0.03533834 0.01960915 -0.013865748 -0.042428046 0.022715822 -0.036969427 -0.0007220178
0.038711138 -0.036182784 0.013284406 -0.005939439 0.02063963 -0.039324503 0.010835691 -0.013211314
-0.0066117006 -0.035233818 0.023840608 -0.020956788 0.025238868 -0.0042304667 -0.011597595 -0.040586602
-0.041419093 -0.03350797 0.0010872406 -0.04113581 0.04094712 -0.037499465 -0.013188068 0.011583777
-0.038285267 0.008379515 -0.027308166 -0.011682594 0.0152287455 0.040300496 0.028145662 0.024299819
-0.038049232 0.013779408 0.022120038 -0.043256458 -0.0064754807 -0.043169655 0.035340432 -0.006756106
-0.003085709 -0.005087032 -0.030575162 0.038101647 0.022353863 -0.039860163 -0.024415247 0.036371127
0.025488088 -0.010418134 -0.015084481 -0.031741995 -0.016218156 -0.006728684 0.022371905 -0.00020607331
0.0115375705 -0.024423977 0.00090935186 0.036601078 -0.008152867 0.030607743 0.03860759 -0.027932249
0.018860428 -0.035499994 0.039067615 -0.03392679 -0.0150468005 -0.0037947323 -0.040836874 0.037958935
-0.029210137 0.03326929 0.022739137 0.008918814 -0.005689419 -0.04068016 -0.020240206 -0.031217888
-0.039321154 -0.008121587 0.0068363724 0.014110755 -0.027694328 0.00891887 -0.008094428 -0.016014311
-0.04251901 -0.004006723 -0.038165275 -0.029545669 0.044107277 0.0042888015 -0.01480991 0.022804305
-0.029646304 0.011871047 -0.0145967845 0.028881084 -0.029230164 0.012422723 0.02748571 0.026458427
0.020810537 -0.0052451286 -0.0020299035 -0.043184336 0.03380709 -0.008677374 0.022995032 -0.015335664
-0.035817854 0.010866527 -0.03095319 -0.0033979716 -0.037240416 0.008430289 -0.004845238 0.0030078709
-0.021950606 0.00627154 -0.015918845 -0.044418566 -0.03770957 -0.026101906 0.018929353 -0.021116482
0.042085953 -0.016043514 -0.039200246 0.006168833 0.0011317524 -0.0073752915 -0.03584715 -0.022845445
-0.018975424 -0.006331301 -0.016956601 0.013799453 -0.0372837 -0.03217099 -0.00583832 0.02375148
0.008233278 0.036066666 -0.040080957 -0.019819984 0.016922122 -0.014423588 -0.019404287 0.024341352
-0.006574014 0.013044677 0.021294868 -0.024902796 -0.035443354 0.024387296 0.033443283 0.023548612
0.013092211 0.04226534 -0.0108323665 -0.0045824284 0.011412991 -0.018423935 -0.030565772 0.04101982
00000000: 3160 213c f61c cb3c 7e58 e8bc f66d f4bc
00000010: 378d d13b 0a07 993c 5303 b43c 4d0e 2c3d
00000020: 4c99 eebc 4cdd a63c f36b 4e3c 16ff 2cbd
00000030: 4920 293d 7696 e5bc 053f 4bbb dcd0 a6bc
00000040: e0cb 25bd 3690 2fbd 96bd 80bb 0028 53bc
00000050: b991 5ebc bc6c 823c f91f e7bc 22b9 0f3d
00000060: 8cbf f1bc 8e7d 7a3b 3cb4 15bd 8c2b 99bc
00000070: 615d 513c 9a59 f33c bca8 21bc 352c 873b
00000080: 98f0 3e3c 2b4d d8bc 5011 2cbd 2bec dfbc
00000090: f8e0 67bc 749c 043d f67d d43b 1b0b 633b
000000a0: ef86 ba3c 900c 5cb9 86db 9a3c 33ed 183d
000000b0: e23e f63c 8412 833c 1ec0 b2bc bd79 873a
000000c0: f3d5 9bbb ff65 343c b62e 2dbc 84b1 03bd
000000d0: 13ee ee3c 656f ba3b 23ae bfbc 12de debc
000000e0: 3b80 c93c 7357 c33c 02e5 2dbc c3cf c4bc
000000f0: 19c3 b73b 7f15 f13c d8b8 173d 2391 1ebd
00000100: 1e5a 073d a2d2 faba 4415 c43c 1045 1abd
00000110: 58ba a7ba 7428 e2bc 1106 173d 81c5 66bb
00000120: 980c 92bc 5ce8 2e3c 8555 293d c6f9 2bbd
00000130: c55c cbbc 10df 2abd de68 da3c e6c1 f5bc
00000140: 774c 9fbc efbe 10bd 5ea3 a03c 2a2d 63bc
00000150: 08c9 2dbd 8816 ba3c 416d 17bd cb45 3dba
00000160: 928f 1e3d 6634 14bd d6a6 593c a09f c2bb
00000170: 7114 a93c bb12 21bd 2f88 313c 4474 58bc
00000180: f7a6 d8bb 5651 10bd 614d c33c 92ad abbc
00000190: bec1 ce3c ba9f 8abb d703 3ebc 233e 26bd
000001a0: 11a7 29bd a73f 09bd be81 8e3a 067e 28bd
000001b0: 2bb8 273d 0a99 19bd c412 58bc e2c9 3d3c
000001c0: 03d1 1cbd 3c4a 093c 60b5 dfbc 5a68 3fbc
000001d0: fd81 793c 2212 253d bb91 e63c 6a10 c73c
000001e0: 83d9 1bbd 07c3 613c 1535 b53c af2d 31bd
000001f0: 4530 d4bb aad2 30bd 21c1 103d 5362 ddbb
00000200: 9b39 4abb 1eb1 a6bb c378 fabc 7910 1c3d
00000210: 731f b73c 6944 23bd 7c02 c8bc e4f9 143d
00000220: 65cc d03c d2b0 2abc e624 77bc e503 02bd
00000230: f0db 84bc 4b7c dcbb 4945 b73c 6215 58b9
00000240: 1408 3d3c cb14 c8bc 9261 6e3a 03eb 153d
00000250: 9a93 05bc 17bd fa3c fe22 1e3d 2cd2 e4bc
00000260: 2f81 9a3c 7168 11bd 5d05 203d d1f6 0abd
00000270: db86 76bc 0bb1 78bb 9144 27bd d47a 1b3d
00000280: 194a efbc 6145 083d 6d47 ba3c 3820 123c
00000290: 4e6e babb 3da0 26bd cace a5bc a8bc ffbc
000002a0: 380f 21bd 6810 05bc a603 e03b cc30 673c
000002b0: 37df e2bc 7420 123c 7e9e 04bc 7230 83bc
000002c0: 6a28 2ebd d44a 83bb 3153 1cbd c209 f2bc
000002d0: d5a9 343d 1389 8c3b 44a5 72bc 18d0 ba3c
000002e0: cedc f2bc c87e 423c 5a27 6fbc 0698 ec3c
000002f0: 1974 efbc ad88 4b3c b629 e13c 58bf d83c
00000300: dc7a aa3c 54df abbb 2108 05bb 0fe2 30bd
00000310: 4e79 0a3d 8b2b 0ebc 1460 bc3c 7042 7bbc
00000320: beb5 12bd 8509 323c 8b91 fdbc 81b0 5ebb
00000330: 6889 18bd 321f 0a3c cdc4 9ebb b31f 453b
00000340: c2d1 b3bc 7e81 cd3b 3d68 82bc 3ef0 35bd
00000350: 5a75 1abd aad3 d5bc bb11 9b3c 79fc acbc
00000360: 5262 2c3d b06d 83bc 7090 20bd ec23 ca3b
00000370: 4f57 943a 6eac f1bb 76d4 12bd 5f26 bbbc
00000380: 5972 9bbc cd76 cfbb 92e8 8abc 1a17 623c
00000390: cbb6 18bd bac5 03bd 614f bfbb 7792 c23c
000003a0: dfe4 063c a4ba 133d ee2b 24bd 855d a2bc
000003b0: 43a0 8a3c ea50 6cbc bdf5 9ebc 8467 c73c
000003c0: d46a d7bb 57b9 553c 9372 ae3c f300 ccbc
000003d0: 0d2d 11bd dec7 c73c d3fb 083d 05e9 c03c
000003e0: b780 563c 6c1e 2d3d 3d7a 31bc 3228 96bb
000003f0: 8efd 3a3c cbed 96bc 1265 fabc 6604 283d

siam_layer.conv3.bias f4 [7]
0.031832978 0.021045066 0.023771197 -0.0014984198 0.0019340292 0.036293864 0.012830891
00000000: 4c63 023d b466 ac3c d0bb c23c a066 c4ba
00000010: 407f fd3a e0a8 143d a838 523c

siam_layer.conv4.weight f4 [3, 14, 6, 6]
-0.005612231 -0.0010061864 0.035535052 -0.021611348 0.03175636 0.0004991183 -0.0067242878 -0.0026542833
-0.0019658324 -0.02674523 0.027218636 -0.028096514 -0.022427056 0.023347953 0.027573107 0.008503528
-0.026766395 -0.016702509 0.003311124 0.019581012 0.034969848 -0.021304518 -0.03626684 0.006643702
0.013261627 0.031591047 0.030215625 0.008910381 0.0029697742 0.002993964 0.012591914 -0.023721008
-0.021196298 0.03049983 0.0036455526 -0.014660267 -0.023645377 0.032016583 -0.00647671 -0.04172468
0.018165158 0.03665736 -0.031160215 0.010937096 0.01292796 0.024927076 0.02526201 -0.018899089
-0.02918523 0.02122391 0.044366844 -0.026298642 0.034725454 0.044629283 -0.021080758 -0.005863048
0.0016860195 -0.03076075 0.0051600756 0.03247855 0.0005039295 0.01812903 0.0025406193 -0.005690816
0.010659852 -0.042255275 -0.014054575 0.02889288 -0.0033604982 -0.020479685 0.015035695 0.00440383
-0.009091785 -0.023651864 -0.016184384 0.009987201 0.0051369183 -0.009891722 0.040126022 -0.018444102
-0.032018717 -0.041577935 -0.022547172 -0.007943551 0.018683515 -0.040063426 -0.03748187 -0.024411423
0.022175442 -0.024767522 0.016928233 0.016168732 -0.013851549 -0.024862275 0.013071151 -0.03474993
-0.041585084 -0.042062405 0.041381795 -0.0140049225 -0.021071535 -0.012551567 -0.03587828 -0.039661203
-0.012355759 0.02572607 -0.011153625 0.038008247 -0.0052636676 -0.012129506 -0.03716676 0.04405166
0.012886211 0.044346053 0.0141333975 0.03425797 -0.0017641129 0.03547577 0.0010380856 0.033877105
0.026632132 0.021652183 0.00032159255 0.025500108 -0.02435204 -0.009481359 0.025504053 0.015153352
0.018982558 -0.02468335 -0.002114542 0.004978163 -0.008532459 -0.02233004 0.0027627281 -0.023090655
-0.027129019 0.03947649 0.02646424 -0.014974279 0.031095209 -0.00089124654 0.033547834 -0.013060816
0.001512793 -0.027232282 0.04326975 -0.0141065065 0.018734781 -0.027838536 -0.034181423 -0.0067596165
-0.029165303 0.0033149857 0.01841311 0.025978299 0.009499706 0.026482943 0.03956845 0.028994104
0.037298016 0.0037346869 -0.0027036525 0.021506885 -0.014615608 -0.04167247 0.015761329 0.005240929
-0.026209084 0.028589686 0.012266496 0.010493967 -0.043708302 0.026405826 0.008996111 -0.01494483
-0.030773709 -0.014386871 -0.029318484 -0.0054530767 0.015881578 -0.013242182 0.030586954 0.011571716
0.036962442 0.018625783 -0.00260608 0.031323053 0.036994074 -0.0044251364 -0.03654161 -0.003647509
0.013011567 -0.025363844 -0.0367623 -0.012893275 0.015332301 0.037139658 0.023402907 -0.0064918376
0.0429459 -0.0052291555 -0.01508464 -0.011343799 -0.010194226 0.043556113 -0.015821205 -0.01888422
0.021136792 0.034701835 0.03578511 -0.040990796 -0.020054094 0.0051708855 0.019437408 -0.031914238
-0.015404771 0.043318957 0.005015313 -0.018839477 -0.0025385243 -0.013403522 -0.009337358 0.03485165
0.010422125 0.02299103 -0.016257681 0.016724078 0.01914068 0.025826609 0.035256155 -0.01026973
0.02546636 -0.004389155 0.021090234 -0.035049684 0.009106988 0.010781124 0.041439176 0.01708711
0.007901888 0.023217456 -0.034478 -0.013253183 0.02913291 -0.041477595 0.02474474 0.009360352
-0.03581741 0.020634359 0.028135598 0.035155952 0.011445209 -0.039803836 -0.0065710125 0.036423106
00000000: cee6 b7bb 03e2 83ba 348d 113d 480a b1bc
00000010: f512 023d 43d7 023a 6a57 dcbb 7cf3 2dbb
00000020: 32d5 00bb d018 dbbc 9ef9 de3c a92a e6bc
00000030: f2b8 b7bc 3544 bf3c ffe0 e13c 6252 0b3c
00000040: 3345 dbbc b3d3 88bc 71ff 583b 5c68 a03c
00000050: 8b3c 0f3d d086 aebc 8a8c 14bd 69b3 d93b
00000060: 4c47 593c 9d65 013d c286 f73c d9fc 113c
00000070: 8ba0 423b 6136 443b 514e 4e3c 8f52 c2bc
00000080: dca3 adbc c8da f93c 39ea 6e3b 9e31 70bc
00000090: f3b3 c1bc d223 033d 953a d4bb 80e7 2abd
000000a0: 19cf 943c 0726 163d b543 ffbc 8131 333c
000000b0: cbcf 533c de33 cc3c 46f2 ce3c 43d2 9abc
000000c0: dd15 efbc c4dd ad3c 02ba 353d 4070 d7bc
000000d0: 473c 0e3d 32cd 363d 8eb1 acbc d01e c0bb
000000e0: 6dfd dc3a f8fd fbbc da15 a93b 3a08 053d
000000f0: 231a 043a 5583 943c 8580 263b 067a babb
00000100: a9a6 2e3c de13 2dbd 2945 66bc c3b0 ec3c
00000110: ce3b 5cbb 03c5 a7bc 4758 763c 014e 903b
00000120: b6f5 14bc 8ec1 c1bc 1d95 84bc 5ba1 233c
00000130: 9853 a83b e410 22bc 2f5b 243d 1618 97bc
00000140: 0f26 03bd a04d 2abd d9b4 b8bc ab25 02bc
00000150: 2c0e 993c 8c19 24bd 9786 19bd 77fa c7bc
00000160: 46a9 b53c 42e5 cabc 14ad 8a3c 4a74 843c
00000170: 9bf1 62bc f8ab cbbc 6228 563c f155 0ebd
00000180: 1f55 2abd a149 2cbd f57f 293d e774 65bc
00000190: 369e acbc 16a5 4dbc 1af5 12bd c973 22bd
000001a0: cf6f 4abc 7bbf d23c b2bd 36bc 89ae 1b3d
000001b0: d87a acbb d6ba 46bc 2c3c 18bd 836f 343d
000001c0: b020 533c 35a4 353d c48f 673c 1652 0c3d
000001d0: ce39 e7ba 0a4f 113d 5f10 883a b8c2 0a3d
000001e0: a12b da3c eb5f b13c 6c9b a839 9ae5 d03c
000001f0: ee7d c7bc b457 1bbc e0ed d03c c445 783c
00000200: 4f81 9b3c bd34 cabc 2194 0abb dc1f a33b
00000210: bacb 0bbc 7ded b6bc e30e 353b 9d28 bdbc
00000220: ad3d debc 1ab2 213d 89cb d83c ae56 75bc
00000230: 61bb fe3c 8ba2 69ba 7469 093d 08fd 55bc
00000240: e948 c63a 3c16 dfbc 9f3b 313d fa1e 67bc
00000250: af79 993c a40d e4bc d201 0cbd c67f ddbb
00000260: 13ec eebc 3b40 593b 17d7 963c 71d0 d43c
00000270: a8a4 1b3c c2f2 d83c 8712 223d 0b85 ed3c
00000280: cec5 183d a6c1 743b c32f 31bb 352f b03c
00000290: 4e76 6fbc c0b0 2abd e71d 813c 19bc ab3b
000002a0: 6fb4 d6bc eb34 ea3c 6af9 483c e3ee 2b3c
000002b0: 7a07 33bd 0851 d83c 6d64 133c 29db 74bc
000002c0: 2519 fcbc e9b6 6bbc 512d f0bc b9af b2bb
000002d0: 151a 823c bdf5 58bc 7e91 fa3c 4b97 3d3c
000002e0: ee65 173d 1995 983c c4ca 2abb 9a4c 003d
000002f0: 1987 173d bc00 91bb a8ac 15bd 0c0b 6fbb
00000300: 782e 553c d6c7 cfbc 1194 16bd 513e 53bc
00000310: 5534 7b3c c11f 183d 74b7 bf3c 7bb9 d4bb
00000320: 0ae8 2f3d 5659 abbb 9125 77bc 57db 39bc
00000330: af05 27bc e567 323d 799b 81bc 14b3 9abc
00000340: 1127 ad3c 8323 0e3d 6893 123d f7e5 27bd
00000350: 7c48 a4bc 8870 a93b 333b 9f3c 81b8 02bd
00000360: 4b64 7cbc 386f 313d 7f57 a43b 3f55 9abc
00000370: 5f5d 26bb 729a 5bbc b8fb 18bc 9bc0 0e3d
00000380: 90c1 2a3c af57 bc3c d42e 85bc ef00 893c
00000390: eacc 9c3c 5392 d33c c268 103d 5f42 28bc
000003a0: d49e d03c e7d2 8fbb 6dc5 ac3c 4290 0fbd
000003b0: 7a35 153c 50a3 303c 20bc 293d 44fa 8b3c
000003c0: ec76 013c 8932 be3c ce38 0dbd e123 59bc
000003d0: 24a8 ee3c 69e4 29bd 7bb5 ca3c 295c 193c
000003e0: 47b5 12bd 6309 a93c a07c e63c b0ff 0f3d
000003f0: b084 3b3c 5909 23bd a651 d7bb 6530 153d

siam_layer.conv4.bias f4 [3]
-0.018079225 0.023523219 -0.035318844
00000000: e21a 94bc c4b3 c03c 7eaa 10bd

siam_layer.conv5.weight f4 [1, 3, 6, 6]
-0.08763664 -0.0446904 0.009306363 0.079023585 -0.0099859135 0.05761428 0.06271766 0.024666006
-0.05925272 -0.035686083 -0.08980665 0.07527739 -0.090078816 0.016914885 -0.06879167 0.05131336
0.0728448 -0.02433009 -0.014522921 -0.03265497 -0.018903276 -0.09529302 -0.058720727 -0.041898865
0.018678503 0.055480737 0.03645206 0.011120247 -0.07972796 -0.024075089 -0.048294906 -0.03058231
0.027482627 -0.066052765 0.0675229 0.051206395 0.04903196 -0.065578945 -0.024106828 -0.034498233
0.027866678 -0.005446748 -0.019017564 -0.002140007 -2.2776521e-05 0.02830586 -0.020266077 -0.024250753
0.07319456 0.08661577 0.018881889 0.08549602 -0.07950998 0.09346747 -0.078524776 -0.06237717
-0.007870798 -0.073296614 -0.038665634 -0.051698018 -0.08092956 0.06139352 0.077879034 0.004203961
0.025483532 -0.021248622 -0.040063035 -0.01232865 0.06782204 0.09202549 0.013881234 -0.006392857
0.09078243 0.007429095 -0.09616025 -0.05813371 -0.011028318 -0.02301512 0.08948929 -0.053561293
0.020349031 -0.010568548 0.06275362 0.049265888 0.0150821805 -0.022516236 -0.053364486 -0.09144878
0.049388967 0.03651776 0.039332464 0.025892602 0.08027216 0.029922964 0.009549675 -0.04054557
0.06429248 -0.062109068 0.02188386 0.02917222 -0.005290973 0.07708963 0.04917156 -0.08464746
-0.034965377 -0.038902428 0.043041576 0.008281156
00000000: d77a b3bd 480d 37bd b779 183c 1ed7 a13d
00000010: f59b 23bc f4fc 6b3d 1e72 803d 5d10 ca3c
00000020: fbb2 72bd 922b 12bd 8dec b7bd 082b 9a3d
00000030: 3e7b b8bd 1691 8a3c a6e2 8cbd f52d 523d
00000040: a82f 953d e64f c7bc 8cf1 6dbc 38c1 05bd
00000050: 0bdb 9abc fd28 c3bd 2585 70bd 259e 2bbd
00000060: a903 993c c53f 633d c14e 153d b231 363c
00000070: 6a48 a3bd 1f39 c5bc e1d0 45bd c187 fabc
00000080: 3f23 e13c ac46 87bd 7249 8a3d ccbd 513d
00000090: bdd5 483d 414e 86bd af7b c5bc 054e 0dbd
000000a0: a948 e43c a27a b2bb b9ca 9bbc 5c3f 0cbb
000000b0: 3510 bfb7 b1e1 e73c 0b05 a6bc 84a9 c6bc
000000c0: 08e7 953d 9c63 b13d 31ae 9a3c 8a18 af3d
000000d0: 21d6 a2bd df6b bf3d 99d1 a0bd 347f 7fbd
000000e0: 85f4 00bc 891c 96bd db5f 1ebd 4dc1 53bd
000000f0: 66be a5bd c677 7b3d 0b7f 9f3d 62c1 893b
00000100: d7c2 d03c 9711 aebc 2319 24bd 1bfe 49bc
00000110: 48e6 8a3d dc77 bc3d 1e6e 633c 2c7b d1bb
00000120: 23ec b93d c46f f33b aaef c4bd 9d1d 6ebd
00000130: 1eb0 34bc 348a bcbc 2946 b73d 1663 5bbd
00000140: 03b3 a63c b427 2dbc f884 803d 07cb 493d
00000150: 401b 773c f873 b8bc b894 5abd 7f49 bbbd
00000160: 164c 4a3d a693 153d 141b 213d b91c d43c
00000170: bb65 a43d 0121 f53c 3d76 1c3c 1d13 26bd
00000180: c7ab 833d 1466 7ebd c845 b33c 94fa ee3c
00000190: e65f adbb 2be1 9d3d 1e68 493d a65b adbd
000001a0: db37 0fbd 2758 1fbd 5d4c 303d b0ad 073c

siam_layer.conv6.weight f4 [1, 3, 6, 6]
-0.010772426 -0.009280947 0.05891689 -0.021969134 0.06883276 -0.081559785 0.07838258 0.029550437
0.041097607 -0.06176331 -0.09187422 -0.09563388 -0.010834862 0.0933055 0.09420199 0.007596235
0.091403335 -0.08957653 -0.0037054361 0.07213857 0.031342886 0.0907398 0.025836673 -0.095308356
-0.08666348 0.012458952 -0.05182775 0.016129296 0.031215005 0.091742426 0.022509893 0.0041449936
-0.080645055 0.08984344 0.055414077 -0.04785626 -0.073758975 -0.056435794 0.0019800274 -0.030716948
-0.03336671 -0.08438799 -0.043205414 -0.039704476 0.057098728 0.04841182 0.04352467 -0.0062482697
-0.0768657 -0.0002630132 0.056885526 0.031976696 0.04021142 0.06609307 -0.01880658 -0.019617531
-0.012262733 -0.017265871 -0.04924523 -0.05840465 0.076670185 0.055547073 -0.06744087 0.011283543
-0.048327327 -0.007065174 -0.07742832 -0.077330835 0.08471773 0.050277244 0.06280686 0.0345416
-0.07346186 -0.0387859 0.051374268 -0.012269028 -0.07391799 -0.09516549 -0.09582278 -0.04414105
0.045086592 0.0867263 0.049579553 -0.055718776 -0.043193642 0.016959328 -0.09441192 -0.08589318
-0.07373678 0.02784418 -0.0313548 -0.038134996 0.075939834 0.057721097 0.02974602 -0.053988993
-0.030203631 0.00313576 -0.05049297 -0.051004305 -0.09548975 -0.060607575 -0.09013925 0.05993551
0.011717149 -0.025956636 0.07960073 -0.039512537
00000000: d47e 30bc 1d0f 18bc d652 713d 9df8 b3bc
00000010: 31f8 8c3d d108 a7bd 0c87 a03d c213 f23c
00000020: f755 283d 86fb 7cbd 8d28 bcbd b2db c3bd
00000030: b484 31bc f416 bf3d f9ec c03d d6e9 f83b
00000040: ac31 bb3d e673 b7bd e7d6 72bb 63bd 933d
00000050: 6661 003d cad5 b93d 6ea7 d33c 0731 c3bd
00000060: 9f7c b1bd a220 4c3c 5649 54bd 9621 843c
00000070: 9cb6 ff3c 74e3 bb3d ab66 b83c bad2 873b
00000080: 3c29 a5bd d6ff b73d dff9 623d ed04 44bd
00000090: f20e 97bd 3829 67bd 59c3 013b 1ca2 fbbc
000000a0: 88ab 08bd 9cd3 acbd 29f8 30bd 29a1 22bd
000000b0: 5be0 693d 794b 463d ed46 323d 49be ccbb
000000c0: c46b 9dbd 09e5 89b9 cc00 693d fff9 023d
000000d0: bbb4 243d ce5b 873d 4210 9abc f2b4 a0bc
000000e0: a1e9 48bc 2871 8dbc 5eb5 49bd b739 6fbd
000000f0: 4205 9d3d 5485 633d 701e 8abd 9cde 383c
00000100: e0f2 45bd fa82 e7bb bd92 9ebd a15f 9ebd
00000110: 7d80 ad3d 83ef 4d3d e2a0 803d 7e7b 0d3d
00000120: 2c73 96bd f7dd 1ebd d36d 523d 0904 49bc
00000130: 5162 97bd 20e6 c2bd bc3e c4bd 3fcd 34bd
00000140: b8ac 383d 8f9d b13d ee13 4b3d 5f39 64bd
00000150: d1eb 30bd 4aee 8a3c 095b c1bd c3e8 afbd
00000160: 4f03 97bd 7a19 e43c e46d 00bd 7133 1cbd
00000170: 5886 9b3d f56c 6c3d edad f33c 9023 5dbd
00000180: 9b6d f7bc 5381 4d3b b7d1 4ebd e4e9 50bd
00000190: 2190 c3bd a63f 78bd ed9a b8bd f07e 753d
000001a0: 49f9 3f3c 03a3 d4bc b505 a33d e6d7 21bd

siam_layer.conv7.weight f4 [1, 2, 6, 6]
0.028835744 0.06376888 -0.08384668 0.109882124 0.012624588 0.08014741 0.03436558 -0.10106837
-0.07993135 -0.07218485 0.094564095 -0.0010383688 -0.05487286 0.0020288117 -0.1114119 0.091019616
-0.11179342 -0.009413051 -0.041855447 -0.02088737 -0.11135501 0.017397055 0.11184492 -0.024191437
0.023325572 0.015954925 0.084517464 -0.01564689 0.107756115 1.8051249e-05 -0.09035592 0.029358827
0.0061167395 -0.02382842 -0.09566381 0.04706991 0.09088992 -0.03562044 -0.10731834 -0.06555324
0.040224276 0.089356184 0.056702282 0.06549445 -0.06466163 -0.06919731 0.10993569 -0.098691516
-0.10698294 0.00860372 -0.09516551 -0.0075678416 0.0352707 -0.09011703 -0.05043706 0.11484687
-0.11257982 -0.0938688 -0.09219489 -0.0185073 0.028051151 0.027714156 0.099890195 0.033191208
-0.098712295 0.035211664 -0.11417137 -0.075515434 -0.015413412 0.069128394 0.024922753 0.10675777
00000000: f038 ec3c 4299 823d cfb7 abbd e109 e13d
00000010: 5cd7 4e3c 5324 a43d ecc2 0c3d effc cebd
00000020: 0cb3 a3bd a7d5 93bd d2aa c13d e019 88ba
00000030: 5dc2 60bd d0f5 043b ec2b e4bd 7e68 ba3d
00000040: f3f3 e4bd 3339 1abc 9e70 2bbd fd1b abbc
00000050: 180e e4bd 4584 8e3c f30e e53d 1f2d c6bc
00000060: 4515 bf3c e7b3 823c 7e17 ad3d e82d 80bc
00000070: 3daf dc3d c36c 9737 860c b9bd ec81 f03c
00000080: ee6e c83b d233 c3bc 63eb c3bd 61cc 403d
00000090: 7f24 ba3d bde6 11bd b8c9 dbbd c740 86bd
000000a0: 36c2 243d 6000 b73d a740 683d f421 863d
000000b0: 516d 84bd 52b7 8dbd f725 e13d c71e cabd
000000c0: df19 dbbd 9ef6 0c3c 23e6 c2bd a8fb f7bb
000000d0: 0278 103d 478f b8bd 1797 4ebd d634 eb3d
000000e0: 4090 e6bd 493e c0bd add0 bcbd 9f9c 97bc
000000f0: 87cb e53c cc08 e33c 3b93 cc3d 81f3 073d
00000100: ac29 cabd 1b3a 103d aed2 e9bd d6a7 9abd
00000110: 8988 7cbc 3093 8d3d cd2a cc3c d1a3 da3d

dense.weight f4 [1, 308]
-0.033274442 0.04009248 -0.035757452 0.049412344 -0.015600106 0.018330436 0.01242932 -0.0061900434
0.0027615337 -0.0025637567 -0.0463517 -0.022876592 -0.005402551 0.02276294 -0.039910987 -0.034268286
-0.03157606 -1.3690275e-05 0.020109056 0.010743584 -0.039310854 0.032873556 0.015982505 0.039193165
-0.038214043 -8.446764e-06 -0.0031289493 0.027222276 -0.022374775 0.039782528 0.025115328 0.018932018
-0.026656186 -0.010429709 -0.01600899 -0.034375414 -0.03317931 0.0024843577 0.022047577 0.010305759
-0.011413391 0.0026436336 0.019708171 -0.01894419 -0.047657 -0.050457895 0.0006432245 0.0038503918
0.002772238 0.03143215 0.047749195 -0.051350977 -0.017215805 -0.0024106025 -0.04107505 0.0057661026
-0.050488904 -0.04710181 0.029281862 0.055205215 0.050425872 -0.044620052 0.007800394 0.04352288
0.008702513 0.04052661 0.051119007 0.037367262 -0.038524736 -0.010791724 0.025196295 0.00814014
-0.020491995 -0.007413793 -0.013075945 0.054858197 -0.033886265 0.04274181 -0.047739707 0.040377665
-0.027360018 0.0014645124 -0.014254782 0.0059002414 -0.009185692 0.018184206 -0.042768683 -0.013754728
-0.016884498 -0.05316025 0.0082269395 0.033511817 -0.0094466545 -0.033737898 -0.05133447 0.029427137
-0.054618586 0.006260609 -0.03207369 0.053456195 0.018810395 0.039165236 0.043790802 -0.025557682
-0.03238248 -0.0015752072 -0.0057718647 -0.04994268 0.022089241 -0.046452 0.019927645 -0.017909745
0.007952966 -0.03348703 0.013540983 0.0047486355 -0.017792616 0.036105923 0.031695314 0.00044129108
-0.040080946 -0.04801884 0.0042724498 0.03944819 -0.024494126 -0.02520614 -0.052759267 -0.050988283
-0.011806158 0.006399331 0.0031318776 -0.013161858 -0.025784405 -0.051233243 0.04532291 -0.044396043
0.03306284 0.026783189 0.009752307 -0.041224472 -0.033443302 0.026209239 -0.05073627 0.021861866
0.0002554817 -0.038288593 -0.008813624 0.030735465 -0.051300164 0.016186614 0.002071572 -0.047534846
-0.026504435 0.024239775 0.01694287 0.004986766 0.0036392296 0.05580101 0.027872432 0.045399413
0.041487187 0.052112 -0.054370508 -0.010377907 0.039278686 0.03547335 -0.008483535 0.053631105
0.041830946 -0.018787144 -0.050115306 0.022220928 0.033380013 0.00014142334 0.055365305 -0.013556136
-0.018796995 0.049239542 0.030635916 0.04348418 -0.05223614 0.041369025 -0.012941956 -0.04451673
0.043147847 0.031391185 0.038214993 0.00612803 0.007366755 0.036102988 -0.025178941 -0.020898035
0.004998934 -0.0045079296 0.01832815 0.002247084 0.039927993 -0.010753275 0.051777467 0.05589751
-0.0058150156 0.024285747 0.014232979 0.03488761 -0.029873751 0.03782732 0.044809468 -0.01729124
0.030939186 -0.015020014 -0.03801788 0.039104927 -0.02189079 0.03575342 -0.036287762 0.026836928
-0.024584567 0.053315967 -0.038982973 -0.025375225 0.04779526 0.019487472 0.029568164 0.022622185
-0.031037308 0.014295732 0.046264254 0.017520905 0.0029499254 -0.035226345 0.054186 0.02811941
-0.007918001 -0.022308616 0.054904632 -0.023106957 -0.020539865 0.034602247 -0.054803465 -0.010043559
0.03955501 -0.03201231 0.026133263 -0.027768875 0.029375201 -0.047141083 0.017220791 0.039357286
-0.007700452 0.016576879 0.021741947 0.023788497 0.033390976 -0.043759838 -0.04865748 -0.012677969
00000000: c84a 08bd 0338 243d 6876 12bd 9964 4a3d
00000010: 9697 7fbc b629 963c 59a4 4b3c d9d5 cabb
00000020: d9fa 343b b304 28bb 48db 3dbd b167 bbbc
00000030: e207 b1bb 5879 ba3c b479 23bd e75c 0cbd
00000040: e655 01bd 49af 65b7 bfbb a43c db05 303c
00000050: 6b04 21bd 6ca6 063d beed 823c 0389 203d
00000060: 5486 1cbd 93b6 0db7 0f0f 4dbb 4001 df3c
00000070: 4e4b b7bc 01f3 223d a9be cd3c 5217 9b3c
00000080: 135e dabc 5fe1 2abc 4925 83bc 3ccd 0cbd
00000090: 07e7 07bd 9bd0 223b 1f9d b43c 7cd9 283c
000000a0: 3bff 3abc d040 2d3b 0873 a13c d930 9bbc
000000b0: fd33 43bd f0ac 4ebd 119e 283a db56 7c3b
000000c0: 70ae 353b 00bf 003d a994 433d 6755 52bd
000000d0: 2908 8dbc 33fb 1dbb 503e 28bd 93f1 bc3b
000000e0: 74cd 4ebd d4ed 40bd 84e0 ef3c dd1e 623d
000000f0: 5c8b 4e3d 84c3 36bd 739a ff3b 0c45 323d
00000100: fc94 0e3c 3bff 253d 2a62 513d 6a0e 193d
00000110: 1dcc 1dbd c5cf 30bc 7668 ce3c 395e 053c
00000120: d4de a7bc 67ef f2bb 7d3c 56bc fdb2 603d
00000130: 53cc 0abd 0912 2f3d b68a 43bd 0d63 253d
00000140: 1e22 e0bc e2f4 bf3a e48c 69bc d056 c13b
00000150: 967f 16bc 0bf7 943c 372e 2fbd 835b 61bc
00000160: 5c51 8abc 90be 59bd 49ca 063c b043 093d
00000170: 24c6 1abc c030 0abd 1844 52bd 2e11 f13c
00000180: bdb7 5fbd cb25 cd3b b45f 03bd e2f4 5a3d
00000190: 4218 9a3c ba6b 203d fc5d 333d 585e d1bc
000001a0: 7ea3 04bd 2f77 ceba e921 bdbb b290 4cbd
000001b0: 7ff4 b43c 7444 3ebd 4d3f a33c 75b7 92bc
000001c0: 284d 023c b229 09bd 00db 5d3c 719a 9b3b
000001d0: d2c1 91bc cee3 133d f2d2 013d 165d e739
000001e0: eb2b 24bd 67af 44bd e8ff 8b3b 6d94 213d
000001f0: e8a7 c8bc 1b7d cebc 1a1a 58bd 17d9 50bd
00000200: 9e6e 41bc 7bb1 d13b 3040 4d3b d5a4 57bc
00000210: d139 d3bc f3d9 51bd 84a4 393d a0d8 35bd
00000220: e76c 073d 6b68 db3c 24c8 1f3c feda 28bd
00000230: d8fb 08bd c2b4 d63c d6d0 4fbd a817 b33c
00000240: 2cf2 8539 80d4 1cbd 0567 10bc f1c8 fb3c
00000250: 1f20 52bd ca99 843c 36c3 073b e6b3 42bd
00000260: d41f d9bc 7e92 c63c c6cb 8a3c 0668 a33b
00000270: 2480 6e3b 9a8f 643d ba54 e43c bcf4 393d
00000280: 78ee 293d 6473 553d 9cb3 5ebd 1908 2abc
00000290: b0e2 203d 814c 113d 86fe 0abc 4aac 5b3d
000002a0: ed56 2b3d 7fe7 99bc b545 4dbd aa08 b63c
000002b0: 7bb9 083d 0a4b 1439 bbc6 623d 8e1a 5ebc
000002c0: 28fc 99bc 67af 493d 2cf8 fa3c 781c 323d
000002d0: 90f5 55bd 9172 293d 7f0a 54bc 2d57 36bd
000002e0: ccbb 303d 0b94 003d 5387 1c3d a4cd c83b
000002f0: d264 f13b bae0 133d 1144 cebc 5b32 abbc
00000300: 19ce a33b 41b7 93bb eb24 963c d043 133b
00000310: 898b 233d 812e 30bc 9c14 543d caf4 643d
00000320: e38b bebb e7f2 c63c 7131 693c 4fe6 0e3d
00000330: ccb9 f4bc d2f0 1a3d 228a 373d 5ca6 8dbc
00000340: 2d74 fd3c 8116 76bc a3b8 1bbd 7d2c 203d
00000350: 5054 b3bc 2e72 123d 7aa2 14bd 1ed9 db3c
00000360: 9365 c9bc d861 5a3d 9cac 1fbd b4df cfbc
00000370: f6c4 433d 31a4 9f3c ef38 f23c 2952 b93c
00000380: f441 febc a538 6a3c 967f 3d3d 0088 8f3c
00000390: 8953 413b 8049 10bd 24f2 5d3d ad5a e63c
000003a0: 81ba 01bc 8fc0 b6bc aee3 603d cd4a bdbc
000003b0: 3843 a8bc 16bb 0d3d 9979 60bd bd8d 24bc
000003c0: 6f04 223d 571f 03bd 6d15 d63c 8d7b e3bc
000003d0: 43a4 f03c 0217 41bd 9e12 8d3c 1b35 213d
000003e0: 1354 fcbb 3ccc 873c 2b1c b23c 18e0 c23c
000003f0: fac4 083d 843d 33bd 114d 47bd 42b7 4fbc
