siamese-classifier/siam_v3_84.pth (torch, 104363 bytes, 12 tensors)

siam_layer.conv1.weight f4 [14, 31, 6, 6]
-0.0012834251 -0.014599417 0.0050065033 -0.0023532559 0.02675372 0.0011381187 0.005300006 -0.013038134
-0.01922406 -0.029512625 -0.024818748 0.02603687 -0.026690815 -0.0055774297 0.002767618 0.007581164
-0.0010190413 -0.018200217 -0.02391758 0.0049464353 0.004521505 0.0012729752 0.018227793 0.025177114
-0.014780568 -0.016264578 -0.024302406 -0.0022653684 0.024833828 0.02569045 0.027799152 0.019683471
-0.019050248 0.018040521 0.012789373 -0.009865069 -0.0023533455 0.020390995 -0.016947186 0.0024858152
0.014144147 -0.0033880319 0.023816526 0.002400656 -0.0053645656 -0.0019262447 0.019067446 -0.02416901
0.0034660315 0.025199939 -0.01504271 0.010331042 0.020214649 -0.012274181 -0.02162527 -0.02589084
-0.0023420567 0.020981986 -0.009793637 0.018415522 0.012883282 0.010923022 -0.0064155716 0.016775582
-0.028908767 -0.02550584 0.028368914 -0.02191821 -0.028750949 0.021302445 -0.015498482 -0.02657159
-0.022783829 0.0122412285 -0.022134451 0.02769427 -0.0040276092 -0.024568744 -0.027355144 0.019521173
0.018876387 -0.010145627 -0.0013610921 -0.008287058 0.007895645 0.015609395 0.02148873 0.0152834235
0.0065672756 -0.019010276 -0.028532745 0.024239121 0.014612526 0.012093084 -0.027870286 -0.0027297307
-0.0053347065 -0.019080203 -0.024505144 -0.025226219 0.01940648 -0.023580609 -0.012519389 0.0064251022
-0.02687074 -0.020383054 -0.007954017 -0.017319884 -0.0152268475 0.00082623423 0.028641611 0.0040120557
-0.027035335 -0.017158512 0.022439111 0.016190112 -0.018473338 0.0013363127 -0.029879788 -0.02620353
-0.01754406 -0.012195055 -0.02965864 0.0020948125 -0.026722612 0.002075774 -0.0077576367 -0.026655167
-0.016607998 0.009579486 0.0074151615 0.007890648 -0.029757177 0.008388645 -0.026068946 -0.020626439
-0.009909439 -0.001268298 0.013935702 0.023861896 0.018097311 0.012240544 -0.013507323 -0.0139366705
-0.007991054 -0.0040857503 -0.015456891 -0.02517086 -0.01592275 0.010992053 0.015449082 0.017806444
-0.02816826 -0.02586941 0.017422257 0.015690207 -0.0128735285 0.017422356 -0.01798721 0.0024864683
0.014341946 0.00987207 0.024402238 0.02161585 -0.026861772 0.02107954 -0.025181513 0.009457575
-0.02210033 -0.015073527 0.028371561 0.015429408 -0.0051546013 0.026009865 -0.00014155348 0.0022115698
0.01020713 -0.0034283656 0.008145059 -0.024905786 -0.0008485945 0.021900333 -0.00838572 -0.011068619
0.008207638 0.0056343577 -0.017286452 0.011852979 -0.023251772 0.019021168 -0.02337355 -0.021963846
-0.017908145 0.01702537 0.01616246 -0.01813158 0.004117368 -0.024720246 -0.00041715355 -0.018846726
-0.008425037 0.017877398 -0.028356863 0.02487978 0.0017334479 -0.0051992745 0.01845985 0.028093578
-0.027804786 0.0067036455 0.0271832 0.015032896 0.0016787518 0.014666687 -0.02426391 0.010049179
0.023733553 -0.0137989735 0.01835002 -0.0021648733 0.022273405 -0.011696629 0.02497159 -0.008343901
-0.019425372 0.006159735 0.010548911 0.007907559 -0.029552974 0.029167533 -0.015585179 -0.0068540005
-0.012760693 0.0025914463 -0.016004277 0.004721278 -0.02911734 -0.006798132 -0.027442768 0.005766211
-0.0016737994 0.014112024 -0.02288086 0.013132935 0.026624108 0.004460754 -0.014822227 -0.007170811
0.00028592633 -0.0105105005 -0.010127475 -0.028102694 0.020492295 0.009951744 0.008607989 -0.0028412233
00000000: 9a38 a8ba 6532 6fbc 980d a43b 1539 1abb
00000010: 9e2a db3c ed2c 953a acab ad3b e69d 55bc
00000020: c77b 9dbc 76c4 f1bc b050 cbbc 464b d53c
00000030: b2a6 dabc dfc2 b6bb ed60 353b 6a6b f83b
00000040: 5a91 85ba 9f18 95bc cdee c3bc b515 a23b
00000050: 2229 943b f6d9 a63a 7452 953c 3c40 ce3c
00000060: 322a 72bc 4b3d 85bc d715 c7bc 9376 14bb
00000070: 5070 cb3c c774 d23c 0cbb e33c 3b3f a13c
00000080: 440f 9cbc b7c9 933c 858a 513c 19a1 21bc
00000090: 963a 1abb 040b a73c d3d4 8abc 0fe9 223b
000000a0: dabc 673c be09 5ebb e01a c33c 5354 1d3b
000000b0: 3dc9 afbb 0c7a fcba 5533 9c3c 16fe c5bc
000000c0: 5c26 633b 1a70 ce3c b375 76bc 8843 293c
000000d0: 3199 a53c a519 49bc 7a27 b1bc 0719 d4bc
000000e0: 317d 19bb 6ae2 ab3c 7e75 20bc 26dc 963c
000000f0: 6714 533c 7af6 323c b739 d2bb f26c 893c
00000100: 14d2 ecbc a0f1 d0bc ed65 e83c d18d b3bc
00000110: 1c87 ebbc 7782 ae3c 58ed 7dbc aaac d9bc
00000120: 27a5 babc 6f8f 483c 4f53 b5bc 18df e23c
00000130: 09fa 83bb 6444 c9bc e517 e0bc deea 9f3c
00000140: a7a2 9a3c d839 26bc ac66 b2ba 71c6 07bc
00000150: bc5c 013c 8cbe 7f3c 2209 b03c 5367 7a3c
00000160: 4d32 d73b 70bb 9bbc 81bd e9bc 1f91 c63c
00000170: 6069 6f3c 1222 463c 3a50 e4bc 48e5 32bb
00000180: c3ce aebb 164e 9cbc 03bf c8bc 37a7 cebc
00000190: 57fa 9e3c 1f2c c1bc 201e 4dbc aa89 d23b
000001a0: 0720 dcbc 5dfa a6bc 9151 02bc 6ee2 8dbc
000001b0: 077a 79bc a497 583a d0a1 ea3c 9077 833b
000001c0: 3579 ddbc 0290 8cbc 3ad2 b73c 20a1 843c
000001d0: 6655 97bc 3727 af3a 75c6 f4bc c9a8 d6bc
000001e0: 8fb8 8fbc c5cd 47bc adf6 f2bc 1f49 093b
000001f0: 61e9 dabc b509 083b c633 febb f05b dabc
00000200: 7f0d 88bc 47f3 1c3c e2fa f23b c747 013c
00000210: 53c5 f3bc 8770 093c 8b8e d5bc c7f8 a8bc
00000220: 335b 22bc 053d a6ba 9252 643c 067a c33c
00000230: d040 943c 908c 483c d24d 5dbc a256 64bc
00000240: e9ec 02bc c2e1 85bb e63e 7dbc 1f33 cebc
00000250: 6d70 82bc 0318 343c 251e 7d3c d2de 913c
00000260: 1fc1 e6bc 16ec d3bc 1fb9 8e3c c088 803c
00000270: 7eeb 52bc 54b9 8e3c ea59 93bc 04f4 223b
00000280: 7bfa 6a3c 76be 213c 34e7 c73c b913 b13c
00000290: 380d dcbc 00af ac3c 7649 cebc f2f3 1a3c
000002a0: c00b b5bc f4f6 76bc 7a6b e83c a1cb 7c3c
000002b0: eee7 a8bb a412 d53c f96d 14b9 fcef 103b
000002c0: ce3b 273c 6eae 60bb db72 053c 3807 ccbc
000002d0: 3774 5eba 5468 b33c 4264 09bc 2759 35bc
000002e0: 5479 063c 6ba0 b83b 519c 8dbc ff32 423c
000002f0: 807a bebc 48d2 9b3c e379 bfbc 86ed b3bc
00000300: 1ab4 92bc ca78 8b3c 2367 843c ae88 94bc
00000310: fcea 863b 1d82 cabc 67b5 dab9 7364 9abc
00000320: 2b09 0abc 9f73 923c a74c e8bc aed0 cb3c
00000330: dc34 e33a ad5e aabb 1d39 973c 8124 e63c
00000340: ddc6 e3bc 41aa db3b 4daf de3c 894c 763c
00000350: 9009 dc3a 8b4c 703c 1bc5 c6bc 50a5 243c
00000360: de6c c23c 1715 62bc c852 963c 8ce0 0dbb
00000370: b776 b63c 38a3 3fbc 3891 cc3c dbb4 08bc
00000380: f521 9fbc 9ad7 c93b 57d5 2c3c b58e 013c
00000390: 1419 f2bc c0f0 ee3c fb58 7fbc 8697 e0bb
000003a0: 3a12 51bc 41d5 293b 671b 83bc f3b4 9a3b
000003b0: 7d87 eebc ddc2 debb a8cf e0bc 7cf2 bc3b
000003c0: 6363 dbba 1e36 673c a470 bbbc 862b 573c
000003d0: cd1a da3c 842b 923b edd8 72bc 1ff9 eabb
000003e0: 62e8 9539 3c34 2cbc b5ed 25bc 9f37 e6bc
000003f0: 75df a73c a40c 233c 8608 0d3c d133 3abb

siam_layer.conv1.bias f4 [14]
0.013243269 0.029896725 0.007830504 -0.02579119 0.023425046 0.029426802 -0.021587111 0.00545327
-0.01438779 0.00821913 0.015507054 0.026560917 0.018008836 0.009157915
00000000: 4cfa 583c fae9 f43c 844b 003c 0c48 d3bc
00000010: e2e5 bf3c 7a10 f13c 74d7 b0bc 58b1 b23b
00000020: c4ba 6bbc 88a9 063c 4c11 7e3c 4896 d93c
00000030: 4487 933c 140b 163c

siam_layer.conv2.weight f4 [7, 14, 6, 6]
-0.013374758 -0.042690963 0.007926081 -0.014488475 -0.006138267 0.009131953 -0.03429246 0.02316203
0.006532927 -0.03918617 -0.017091885 0.025457205 0.014038727 -0.04383606 0.0057809763 0.0439677
0.01149646 0.01996665 -0.01755577 -0.012417373 0.022666425 0.03975606 0.03357926 0.009110377
-0.0093206735 -0.018202867 -0.044265393 0.009703008 0.03201735 0.0012266255 0.039737992 -0.02302319
0.023255624 0.028981674 0.0128552215 -0.009340421 -0.04057283 0.03262675 -0.019629136 -0.04130481
0.03918168 0.010416272 -0.019754725 0.03325151 0.02186486 0.03354934 0.02927416 -0.024224317
0.030232767 -0.025633734 -0.03414403 0.016221996 -0.034294337 -0.026835296 0.008443741 0.010978512
-0.03317677 -0.024639199 -0.020271273 -0.0057562036 0.036277078 -0.025863636 -0.024227802 -0.015811745
0.018165082 -0.02201434 -0.044522732 0.00787867 -0.031561673 -0.026430633 0.039559193 0.038166877
-0.03394389 -0.008086004 -0.0105235325 0.013627007 0.026103936 -0.0047792443 0.015035983 0.0014403244
-0.011831945 0.0010280721 -0.040563148 0.0116914995 0.018009415 -0.011681367 0.008856807 -0.04400837
-0.007709881 -0.015118923 -0.041512 -0.016137403 -0.013713564 0.017325703 0.010508243 -0.034206007
-0.0041488353 0.038123794 0.018980205 -0.013934255 0.040541478 0.01575157 0.036170546 0.03398149
-0.0018885427 0.024485935 0.019414375 -0.04172285 0.038333863 -0.011235848 -0.009461471 -0.022321962
0.015804758 -0.043410443 -0.037012104 0.033536997 0.04120419 0.024481948 -0.013002033 0.018704763
-0.02419741 -0.036343604 0.033495083 -0.008083257 -0.006088108 0.007346802 0.023899179 0.015074356
-0.01033331 0.01086316 -0.015041863 -0.0038228314 0.025187965 -0.032305 -0.024235586 -0.007177856
-0.01993095 -0.00615209 0.03242969 -0.030837465 -0.025504332 0.015066194 -0.04068997 -0.016292902
-0.025251666 -0.0018007152 -0.02435967 -0.0001803509 0.015410002 -0.0034603023 -0.024331316 -0.01845099
-0.03785937 0.019179242 0.01605364 -0.01624384 -0.0042275772 -0.0049718837 0.033998888 -0.0025603913
-0.019299708 0.0073810155 0.03969944 0.025287453 0.029854473 -0.01820787 -0.021437459 0.023718443
-0.014819942 -0.013596916 0.014586065 0.041700717 -0.021653038 -0.040241156 0.0054353825 -0.021170346
-0.02476787 0.022569634 0.0035040574 -0.03101676 0.04409339 0.021904944 0.02877671 -0.014370529
-0.043148503 0.030921433 -0.03181243 -0.0389692 0.036805954 -0.0051178215 0.012960912 -0.030834125
0.023964234 0.0085947225 0.018333025 0.03165211 -0.006261758 -0.03752418 -0.009318922 -0.029421771
-0.01670917 -0.034183916 0.0065039997 -0.03376726 0.0074275597 0.02466735 0.026799832 -0.027277166
0.008821862 0.008911373 0.032180093 0.028772714 0.0085998 -0.02493358 0.028541617 0.017677346
0.030923175 0.04273184 -0.04351103 -0.0024714277 0.02570861 0.022324646 0.012877744 -0.0055719605
0.044596944 0.028282812 0.02882754 0.017841982 -0.025688527 -0.009966193 0.009141809 0.0025319248
-0.013018827 0.041829504 -0.014330457 0.03610616 -0.0005868107 -0.017725406 -0.019627549 0.027389914
0.020656712 0.0057242587 0.027319103 0.03131689 -0.036374252 0.033832967 0.0064708716 -0.011641354
-0.02754328 0.020678537 0.041742582 0.026197836 -0.037828714 0.01493328 0.038661245 -0.03797234
00000000: cd21 5bbc b8dc 2ebd 65dc 013c 1261 6dbc
00000010: 8423 c9bb 309e 153c 4076 0cbd 4cbe bd3c
00000020: 2a12 d63b ad81 20bd 4804 8cbc a18b d03c
00000030: b002 663c 718d 33bd 586e bd3b 7a17 343d
00000040: a65b 3c3c 1a91 a33c 1ed1 8fbc 3d72 4bbc
00000050: f0ae b93c 40d7 223d 688a 093d b143 153c
00000060: bdb5 18bc 2e1e 95bc a14f 35bd 5ef9 1e3c
00000070: a024 033d b9c6 a03a 4ec4 223d 219b bcbc
00000080: 9482 be3c fa6a ed3c b59e 523c 9108 19bc
00000090: b22f 26bd a1a3 053d 48cd a0bc 3c2f 29bd
000000a0: f87c 203d 03a9 2a3c a9d4 a1bc bc32 083d
000000b0: ef1d b33c 086b 093d 5dd0 ef3c 1372 c6bc
000000c0: b5aa f73c d6fd d1bc 9cda 0bbd fee3 843c
000000d0: 3878 0cbd b2d5 dbbc 9e57 0a3c 37df 333c
000000e0: 5de4 07bd 25d8 c9bc f10f a6bc 899e bcbb
000000f0: 4697 143d fadf d3bc 6279 c6bc a287 81bc
00000100: f0ce 943c 6b57 b4bc 785d 36bd 8915 013c
00000110: d046 01bd 0e85 d8bc d208 223d df54 1c3d
00000120: c008 0bbd 297b 04bc e56a 2cbc cf43 5f3c
00000130: ecd7 d53c 359b 9cbb 7c59 763c 44c9 bc3a
00000140: c6da 41bc 60c0 863a 8b25 26bd b48d 3f3c
00000150: 7b88 933c 3463 3fbc 241c 113c 1f42 34bd
00000160: 2ba3 fcbb 5cb5 77bc 7d08 2abd 9632 84bc
00000170: dbae 60bc a2ee 8d3c c42a 2c3c 991b 0cbd
00000180: f4f2 87bb b227 1c3d 607c 9b3c 804c 64bc
00000190: d20e 263d 7009 813c 9127 143d 2d30 0b3d
000001a0: fa88 f7ba ba96 c83c e50a 9f3c 94e5 2abd
000001b0: f803 1d3d 9016 38bc 4904 1bbc 8cdc b6bc
000001c0: fb78 813c 26cf 31bd 019a 17bd 175e 093d
000001d0: bac5 283d 5e8e c83c 7b06 55bc bb3a 993c
000001e0: a639 c6bc 08dd 14bd 2432 093d a36f 04bc
000001f0: c07e c7bb 71bd f03b 36c8 c33c 6ffa 763c
00000200: 0b4d 29bc 65fb 313c 2572 76bc 7888 7abb
00000210: fe56 ce3c 3f52 04bd b589 c6bc 3834 ebbb
00000220: 3b46 a3bc 7997 c9bb ffd4 043d da9e fcbc
00000230: 76ee d0bc 33d8 763c 87aa 26bd b178 85bc
00000240: 95dc cebc fa05 ecba ee8d c7bc 931c 3db9
00000250: 3c7a 7c3c 3dc6 62bb 7852 c7bc 8826 97bc
00000260: 6d12 1bbd c91d 9d3c ec82 833c cd11 85bc
00000270: 7d87 8abb 2feb a2bb 6b42 0b3d 3dcc 27bb
00000280: 6c1a 9ebc 72dc f13b e19b 223d a227 cf3c
00000290: 5e91 f43c ac28 95bc 9c9d afbc 2e4d c23c
000002a0: 58cf 72bc 99c5 5ebc 64fa 6e3c 5fce 2a3d
000002b0: b661 b1bc e9d3 24bd 4b1b b23b 6f6d adbc
000002c0: fde5 cabc f4e3 b83c 54a4 653b dc16 febc
000002d0: 459b 343d ff71 b33c 23bd eb3c 5e72 6bbc
000002e0: 7cbc 30bd f24e fd3c c04d 02bd 2b9e 1fbd
000002f0: d7c1 163d 66b3 a7bb 015a 543c d997 fcbc
00000300: a450 c43c e1d0 0c3c 242f 963c a5a5 013d
00000310: 6f2f cdbb f4b2 19bd 64ae 18bc ed05 f1bc
00000320: abe1 88bc 6f04 0cbd 811f d53b 8a4f 0abd
00000330: e362 f33b 2f13 ca3c 528b db3c 5d74 dfbc
00000340: 9289 103c 0201 123c 46cf 033d c1b4 eb3c
00000350: 2de6 0c3c 8241 ccbc 1cd0 e93c 15d0 903c
00000360: 9952 fd3c 9507 2f3d 9f38 32bd adf7 21bb
00000370: dd9a d23c 2de2 b63c 2cfd 523c fe94 b6bb
00000380: 49ab 363d 5bb1 e73c bc27 ec3c 5929 923c
00000390: bf70 d2bc 3e49 23bc 87c7 153c a6ee 253b
000003a0: eb4c 55bc 6a55 2b3d 4bca 6abc 0ee4 133d
000003b0: 33d4 19ba df34 91bc f4c9 a0bc d060 e03c
000003c0: 4438 a93c 9092 bb3b 50cc df3c 2446 003d
000003d0: 2bfd 14bd 7094 0a3d 9b09 d43b 61bb 3ebc
000003e0: 72a2 e1bc 0966 a93c 45fa 2a3d d89c d63c
000003f0: 48f2 1abd b7aa 743c 415b 1e3d e288 1bbd

siam_layer.conv2.bias f4 [7]
0.03018704 0.019988477 -0.017950283 -0.014132177 -0.03968897 0.033790126 -0.021836435
00000000: d04a f73c e0be a33c 790c 93bc a68a 67bc
00000010: e790 22bd 8467 0a3d 53e2 b2bc

siam_layer.conv3.weight f4 [7, 14, 6, 6]
0.009872116 0.024770249 -0.028378598 -0.029854685 0.0062854677 0.01859219 0.021947844 0.041935075
-0.02916374 0.020280926 0.012526816 -0.042264614 0.041291483 -0.02807297 -0.003126043 -0.020373534
-0.04050283 -0.042902816 -0.0038800873 -0.012882633 -0.0135795465 0.015910687 -0.028190807 0.03510734
-0.029496122 0.0038029784 -0.03652334 -0.018695388 0.012766943 0.029661858 -0.009840771 0.0041104383
0.011617185 -0.026406733 -0.042083073 -0.027432818 -0.014179793 0.03237066 0.006554659 0.0034693033
0.022771027 -0.00019254138 0.018858284 0.037415106 0.030203132 0.016059496 -0.02182126 0.0009503152
-0.0047911378 0.011044297 -0.010476121 -0.03212267 0.029202107 0.0056859823 -0.023379464 -0.02715548
0.024574907 0.023814367 -0.010588683 -0.02401114 0.005628621 0.029491529 0.037033223 -0.038719326
0.033032063 -0.0020011414 0.023923984 -0.03759481 -0.0012187962 -0.027543224 0.036919735 -0.0034671037
-0.017759679 0.010670433 0.041350123 -0.04205932 -0.024949675 -0.04179959 0.026690468 -0.029988969
-0.019468205 -0.035409372 0.019577751 -0.013959383 -0.042380642 0.022738516 -0.036966886 -0.0007597602
0.03870526 -0.036136154 0.013333559 -0.0059323995 0.020683475 -0.039349385 0.010876309 -0.013221601
-0.0065253335 -0.035190873 0.023942912 -0.02096469 0.025185946 -0.00421707 -0.011536565 -0.040536918
-0.041238178 -0.033471216 0.0010336683 -0.041104604 0.04100557 -0.03746113 -0.013171685 0.011568502
-0.038360152 0.008287889 -0.02732095 -0.011667268 0.015246739 0.04028434 0.028174162 0.024308262
-0.037897274 0.013876367 0.022121856 -0.043228246 -0.006416423 -0.043112636 0.03541806 -0.006693041
-0.0030690627 -0.005049199 -0.030577831 0.038077418 0.022357415 -0.039798167 -0.024370033 0.03642073
0.025540931 -0.010394989 -0.015101002 -0.031706 -0.016185436 -0.0066863806 0.02239831 -0.00016840867
0.011446346 -0.024451382 0.000911019 0.036602426 -0.008122947 0.03063964 0.03858305 -0.02793575
0.01894809 -0.035415333 0.039061807 -0.03389423 -0.01510116 -0.003796002 -0.04077601 0.037997484
-0.029238407 0.033260413 0.02264776 0.008932019 -0.005664811 -0.040643528 -0.020282207 -0.031263188
-0.039429408 -0.008182258 0.006823538 0.014072796 -0.02774071 0.008913818 -0.008186265 -0.016033003
-0.04253438 -0.004025109 -0.038137905 -0.029542888 0.044060633 0.004269618 -0.014800965 0.022834722
-0.029581996 0.011740776 -0.014647164 0.02889947 -0.029185433 0.012375259 0.027439578 0.02635242
0.02079826 -0.0051763286 -0.0019801853 -0.04315798 0.033850137 -0.008738 0.023003502 -0.015306528
-0.035740945 0.010907429 -0.030893933 -0.0033770087 -0.03714604 0.008537673 -0.004775492 0.003005159
-0.021887789 0.0062853354 -0.015988857 -0.044477794 -0.03771086 -0.026056616 0.01901216 -0.021163447
0.042110205 -0.016032083 -0.039224487 0.0061216773 0.0010817848 -0.007396462 -0.03577741 -0.022889307
-0.018957876 -0.006335601 -0.01700087 0.013826911 -0.037232965 -0.032230183 -0.005888988 0.02372159
0.0082243 0.036032423 -0.039991185 -0.019822437 0.016957454 -0.01442955 -0.019439025 0.02429717
-0.006471219 0.013055869 0.021332065 -0.02489777 -0.035460524 0.024391994 0.033526808 0.023559565
0.013175714 0.0423122 -0.010792796 -0.0045609013 0.011434041 -0.018348072 -0.030522326 0.041096948
00000000: a8be 213c faea ca3c 3c7a e8bc d091 f4bc
00000010: 53f6 cd3b a64e 983c f7cb b33c 1dc4 2b3d
00000020: cce8 eebc 2f24 a63c 463d 4d3c a91d 2dbd
00000030: 4221 293d 49f9 e5bc 4cde 4cbb 66e6 a6bc
00000040: 4ce6 25bd ddba 2fbd 1049 7ebb ae11 53bc
00000050: bf7c 5ebc 2157 823c 68f0 e6bc b7cc 0f3d
00000060: daa1 f1bc 643b 793b 7f99 15bd 1227 99bc
00000070: 712c 513c 6dfd f23c 2f3b 21bc dbb0 863b
00000080: 0156 3e3c ef52 d8bc 4d5f 2cbd caba e0bc
00000090: 5d52 68bc 1997 043d 77c8 d63b 405d 633b
000000a0: 4e8a ba3c efe4 49b9 b07c 9a3c 9540 193d
000000b0: 8f6c f73c 348f 833c 80c2 b2bc 931e 793a
000000c0: fafe 9cbb 24f3 343c 09a4 2bbc 1093 03bd
000000d0: 4239 ef3c 7a51 ba3b 4a86 bfbc 2b75 debc
000000e0: 5151 c93c 5916 c33c 287c 2dbc 03b3 c4bc
000000f0: 4c70 b83b 3898 f13c 26b0 173d 2898 1ebd
00000100: a14c 073d 9525 03bb 3bfc c33c 04fd 19bd
00000110: 04c0 9fba 54a2 e1bc 2639 173d 5938 63bb
00000120: bf7c 91bc 0ad3 2e3c bf5e 293d 6546 2cbd
00000130: 4363 ccbc 0c36 2bbd f8a5 da3c 6dab f5bc
00000140: c97b 9fbc 6b09 11bd 8561 a03c e5b5 64bc
00000150: 5397 2dbd 2046 ba3c 976a 17bd a52a 47ba
00000160: 6889 1e3d 8103 14bd 0075 5a3c 9364 c2bb
00000170: 6470 a93c d22c 21bd 8c32 323c 6a9f 58bc
00000180: 77d2 d5bb 4e24 10bd ed23 c43c 24be abbc
00000190: c252 ce3c 592f 8abb dc03 3dbc 0a0a 26bd
000001a0: 5de9 28bd 1d19 09bd 277c 873a 4d5d 28bd
000001b0: 75f5 273d d870 19bd 0dce 57bc d089 3d3c
000001c0: 891f 1dbd edc9 073c 2fd0 dfbc 1228 3fbc
000001d0: 75cd 793c 3101 253d 80cd e63c 1f22 c73c
000001e0: 2c3a 1bbd b459 633c e538 b53c 1a10 31bd
000001f0: db40 d2bb e096 30bd 8712 113d 4c51 dbbb
00000200: 5422 49bb c073 a5bb 5c7e fabc 11f7 1b3d
00000210: e626 b73c 6703 23bd aaa3 c7bc e72d 153d
00000220: 373b d13c be4f 2abc 316a 77bc 27de 01bd
00000230: 5297 84bc 6d19 dbbb a97c b73c dc96 30b9
00000240: 7489 3b3c 444e c8bc 73d1 6e3a 6dec 153d
00000250: 1c16 05bc fbff fa3c 4309 1e3d 84d9 e4bc
00000260: 0639 9b3c ab0f 11bd 46ff 1f3d add4 0abd
00000270: db6a 77bc 58c6 78bb bf04 27bd 40a3 1b3d
00000280: 6285 efbc 123c 083d cc87 b93c 9a57 123c
00000290: e19f b9bb d479 26bd df26 a6bc d40d 00bd
000002a0: bb80 21bd e10e 06bc fc97 df3b 9691 663c
000002b0: 7c40 e3bc 430b 123c af1f 06bc a557 83bc
000002c0: 8838 2ebd 10e5 83bb 7e36 1cbd ed03 f2bc
000002d0: ec78 343d 27e8 8b3b bf7f 72bc e20f bb3c
000002e0: f155 f2bc 625c 403c a9fa 6fbc 95be ec3c
000002f0: 4a16 efbc 99c1 4a3c f7c8 e03c 08e1 d73c
00000300: 1d61 aa3c 319e a9bb ffc5 01bb 6cc6 30bd
00000310: 71a6 0a3d d429 0fbc d771 bc3c 3bc8 7abc
00000320: 1965 12bd 13b5 323c 4615 fdbc ce50 5dbb
00000330: 7226 18bd 99e1 0b3c bb7b 9cbb 34f2 443b
00000340: 054e b3bc 37f5 cd3b 10fb 82bc 592e 36bd
00000350: b476 1abd af74 d5bc 64bf 9b3c f75e adbc
00000360: c07b 2c3d b755 83bc dba9 20bd 5a98 c83b
00000370: adca 8d3a 055e f2bb 558b 12bd 5b82 bbbc
00000380: 8c4d 9bbc e09a cfbb 6945 8bbc 458a 623c
00000390: 9881 18bd cc03 04bd 69f8 c0bb c853 c23c
000003a0: 37bf 063c bc96 133d cccd 23bd aa62 a2bc
000003b0: 5cea 8a3c eb69 6cbc 973e 9fbc dc0a c73c
000003c0: 850c d4bb 49e8 553c 95c0 ae3c 68f6 cbbc
000003d0: 0e3f 11bd b8d1 c73c 6853 093d fdff c03c
000003e0: f3de 573c 8f4f 2d3d 44d4 30bc 9d73 95bb
000003f0: d855 3b3c b24e 96bc f509 fabc 4655 283d

siam_layer.conv3.bias f4 [7]
0.031832978 0.021045066 0.023771197 -0.0014984198 0.0019340292 0.036293864 0.012830891
00000000: 4c63 023d b466 ac3c d0bb c23c a066 c4ba
00000010: 407f fd3a e0a8 143d a838 523c

siam_layer.conv4.weight f4 [3, 14, 6, 6]
-0.0054504494 -0.00079235324 0.03517148 -0.021436607 0.0314133 0.00040002173 -0.006692585 -0.002524678
-0.0021989108 -0.026941923 0.026748527 -0.028487122 -0.022273293 0.02351399 0.027306039 0.008459231
-0.027003849 -0.017046813 0.003144772 0.019414248 0.034648623 -0.021480454 -0.036773916 0.006175712
0.013328703 0.03185279 0.030177353 0.008864523 0.0023753715 0.002896703 0.012779615 -0.023195693
-0.021167008 0.030884972 0.0033055067 -0.014682398 -0.023593435 0.03202234 -0.006202957 -0.041515715
0.018366406 0.036902234 -0.030976394 0.010975887 0.013319268 0.025093624 0.025589023 -0.018474447
-0.029180821 0.021151546 0.04459875 -0.026168555 0.03489401 0.044889275 -0.02109221 -0.0058555896
0.0020977305 -0.030523848 0.0054601007 0.03257618 0.00044442964 0.018005533 0.0028248567 -0.005831724
0.010916756 -0.042010248 -0.014036838 0.028645629 -0.0030940177 -0.020320194 0.015463683 0.004675816
-0.009307937 -0.023393786 -0.016458815 0.009765744 0.004741152 -0.010477213 0.039650172 -0.018439548
-0.03232402 -0.04163969 -0.02278462 -0.008681709 0.018564202 -0.040033642 -0.03754335 -0.024244783
0.022140048 -0.025085283 0.016943041 0.016353818 -0.0140350005 -0.024801712 0.012933382 -0.034719586
-0.041486807 -0.041786768 0.041012295 -0.01399595 -0.021478793 -0.012997411 -0.036006078 -0.03938825
-0.01246945 0.025913784 -0.011418225 0.037751336 -0.0052211187 -0.012232234 -0.03707201 0.044117507
0.012956256 0.044574734 0.013944199 0.034133755 -0.001834623 0.03523076 0.00091966393 0.03378026
0.026543071 0.021576652 0.00030172305 0.025197474 -0.024433324 -0.009554247 0.025344478 0.0149230175
0.018941637 -0.02489485 -0.0023233562 0.0045643044 -0.008443147 -0.02227407 0.0029706361 -0.023134127
-0.026979966 0.039482374 0.026402038 -0.015037598 0.031211477 -0.0010213845 0.033571914 -0.013144038
0.0014297738 -0.027442671 0.043284036 -0.014132383 0.01843795 -0.027863288 -0.033979334 -0.006463452
-0.029006308 0.0035633412 0.018345283 0.026100952 0.009587849 0.026742546 0.03977577 0.029187778
0.03758914 0.003974589 -0.0026167773 0.021326497 -0.01476658 -0.04169256 0.015598338 0.005424203
-0.026339669 0.028577324 0.012067588 0.010427547 -0.043837033 0.026520655 0.00889325 -0.015115298
-0.030923296 -0.014487214 -0.029496262 -0.005338397 0.015863515 -0.0132335685 0.03070551 0.011779485
0.03706502 0.018538691 -0.0027208033 0.031467423 0.03703329 -0.004229661 -0.03646754 -0.0034295076
0.012938816 -0.025228254 -0.036834005 -0.012827819 0.0155917555 0.037206236 0.023591861 -0.0062334947
0.043109413 -0.004886005 -0.014560591 -0.01086569 -0.010398659 0.043502532 -0.015923712 -0.018700875
0.021145985 0.034682367 0.035524983 -0.04112234 -0.020111676 0.005291881 0.01954893 -0.031774063
-0.01520343 0.043250695 0.0051668664 -0.018819539 -0.0023641435 -0.013222928 -0.009534691 0.03446131
0.01006464 0.022801084 -0.016707748 0.016476933 0.019106213 0.02562646 0.034929466 -0.0105859535
0.0252251 -0.0042801565 0.021147288 -0.035230055 0.008808655 0.010383451 0.041153952 0.017253125
0.007898196 0.023196585 -0.03468885 -0.013315169 0.028967049 -0.04138148 0.024795162 0.009329882
-0.035875045 0.020321913 0.027900506 0.035312053 0.011446952 -0.039675687 -0.0063572032 0.036484767
00000000: af99 b2bb edb5 4fba f80f 103d d39b afbc
00000010: 3cab 003d 02ba d139 794d dbbb 1175 25bb
00000020: 9a1b 10bb 4fb5 dcbc ba1f db3c d35d e9bc
00000030: 7b76 b6bc 69a0 c03c eab0 df3c 9698 0a3c
00000040: 2d37 ddbc c2a5 8bbc 8518 4e3b a10a 9f3c
00000050: b7eb 0d3d c7f7 afbc 3fa0 16bd a15d ca3b
00000060: a260 5a3c 1278 023d 7f36 f73c 813c 113c
00000070: 1fac 1b3b 9dd6 3d3b 9761 513c e504 bebc
00000080: 6f66 adbc 7b02 fd3c 33a1 583b 718e 70bc
00000090: 0547 c1bc db29 033d 2d42 cbbb 620c 2abd
000000a0: 2575 963c cc26 173d 35c2 fdbc 35d4 333c
000000b0: 0f39 5a3c 2591 cd3c 12a0 d13c b957 97bc
000000c0: 9e0c efbc 0246 ad3c 2ead 363d 705f d6bc
000000d0: 05ed 0e3d d1dd 373d 92c9 acbc 3fe0 bfbb
000000e0: 147a 093b 260d fabc a5ea b23b 9a6e 053d
000000f0: 5602 e939 5780 933c 3b21 393b 0c18 bfbb
00000100: 31dc 323c f012 2cbd c4fa 65bc 3daa ea3c
00000110: 01c5 4abb 8976 a6bc 635b 7d3c 9637 993b
00000120: 5180 18bc 53a4 bfbc a3d4 86bc 8000 203c
00000130: aa5b 9b3b 9ea8 2bbc 3868 223d 890e 97bc
00000140: 3166 04bd 618e 2abd d0a6 babc ba3d 0ebc
00000150: f413 983c 51fa 23bd 0ec7 19bd ff9c c6bc
00000160: 0c5f b53c a77f cdbc 22cc 8a3c 71f8 853c
00000170: 0ff3 65bc f62c cbbc 89e6 533c 2036 0ebd
00000180: 12ee 29bd 9a28 2bbd 82fc 273d 454f 65bc
00000190: 4bf4 afbc 18f3 54bc 1c7b 13bd 9355 21bd
000001a0: aa4c 4cbc 2549 d43c 8213 3bbc 25a1 1a3d
000001b0: eb15 abbb b569 48bc d2d8 17bd 8fb4 343d
000001c0: 7a46 543c ff93 363d 3676 643c d6cf 0b3d
000001d0: bc77 f0ba 214e 103d 9a15 713a 2b5d 0a3d
000001e0: db70 d93c 85c1 b03c 9530 9e39 ef6a ce3c
000001f0: 6528 c8bc 6b89 1cbc 399f cf3c ac7f 743c
00000200: 7e2b 9b3c 49f0 cbbc 7343 18bb 2990 953b
00000210: 2055 0abc 1c78 b6bc 01af 423b c883 bdbc
00000220: 1705 ddbc 45b8 213d 1649 d83c 4260 76bc
00000230: 36af ff3c fadf 85ba b482 093d 175a 57bc
00000240: 3f67 bb3a 74cf e0bc 9a4a 313d 838b 67bc
00000250: 2f0b 973c 8d41 e4bc ea2d 0bbd 5dcb d3bb
00000260: a39e edbc f286 693b d948 963c aad1 d53c
00000270: 5a16 1d3c 2f13 db3c ebeb 223d 351b ef3c
00000280: 12f7 193d 453d 823b 3d7e 2bbb e8b4 ae3c
00000290: 87ef 71bc d1c5 2abd 2c90 7f3c 83bd b13b
000002a0: 4ac6 d7bc fe1a ea3c 22b7 453c 4dd8 2a3c
000002b0: 768e 33bd d841 d93c feb4 113c 28a6 77bc
000002c0: da52 fdbc c85b 6dbc 25a2 f1bc b8ed aebb
000002d0: 34f4 813c 9cd1 58bc 1f8a fb3c befe 403c
000002e0: 7ed1 173d 74de 973c 814f 32bb fce3 003d
000002f0: 38b0 173d f898 8abb fd5e 15bd 97c1 60bb
00000300: 54fd 533c 7cab cebc 41df 16bd c62b 52bc
00000310: 9074 7f3c 9165 183d b843 c13c 5842 ccbb
00000320: 7f93 303d c81a a0bb 8c8f 6ebc 0206 32bc
00000330: 235f 2abc b62f 323d 7272 82bc 9432 99bc
00000340: 583a ad3c 190f 0e3d a582 113d e66f 28bd
00000350: 3ec1 a4bc 8467 ad3b 1425 a03c 8525 02bd
00000360: cf17 79bc a427 313d d14e a93b 6f2b 9abc
00000370: bfef 1abb fba4 58bc 6537 1cbc 4d27 0d3d
00000380: 29e6 243c 57c9 ba3c b0de 88bc a2fa 863c
00000390: a284 9c3c 95ee d13c 3312 0f3d b570 2dbc
000003a0: dea4 ce3c 8e40 8cbb 143d ad3c 644d 10bd
000003b0: 2d52 103c 5a1f 2a3c 0c91 283d 6d56 8d3c
000003c0: 6f67 013c c406 be3c e515 0ebd de27 5abc
000003d0: 4e4c ed3c a07f 29bd 391f cb3c 5ddc 183c
000003e0: b6f1 12bd 247a a63c 9a8f e43c 5fa3 103d
000003f0: ff8b 3b3c f982 22bd 1650 d0bb 0d71 153d

siam_layer.conv4.bias f4 [3]
-0.018079225 0.023523219 -0.035318844
00000000: e21a 94bc c4b3 c03c 7eaa 10bd

siam_layer.conv5.weight f4 [1, 3, 6, 6]
-0.087598994 -0.044851493 0.00941947 0.078979455 -0.00996562 0.05769815 0.062603496 0.024106406
-0.05922098 -0.036060307 -0.0898423 0.07494147 -0.09021816 0.016658539 -0.068932146 0.05101864
0.072778426 -0.024369283 -0.014439271 -0.032772176 -0.018985577 -0.09565807 -0.058491677 -0.04172596
0.01887039 0.05577803 0.036721285 0.011113388 -0.07948484 -0.024008619 -0.048153747 -0.030551797
0.027614765 -0.06649836 0.06761729 0.05088422 0.049102 -0.065555185 -0.023905471 -0.03417155
0.028045356 -0.0053250105 -0.01897032 -0.0021959294 0.00022738456 0.028585827 -0.020056084 -0.024073087
0.073331065 0.08666539 0.01912661 0.08597064 -0.07894983 0.09362907 -0.07869034 -0.06266517
-0.007765024 -0.07322568 -0.038587276 -0.051649045 -0.08090026 0.06152025 0.07808249 0.0044544237
0.02560909 -0.021116467 -0.04027008 -0.012788107 0.0675478 0.09196791 0.013874293 -0.0063775955
0.09036723 0.007169128 -0.09648252 -0.05837408 -0.011291626 -0.023098908 0.08902834 -0.053927425
0.020004394 -0.010914968 0.06233974 0.04912344 0.014772127 -0.022778727 -0.053575117 -0.091706775
0.048945256 0.036399115 0.03921028 0.025917778 0.08031074 0.030021505 0.009587441 -0.04020838
0.0641577 -0.062080495 0.021926675 0.029216401 -0.0051224474 0.0773109 0.049111232 -0.08449703
-0.034793448 -0.03872934 0.043045573 0.008388471
00000000: 1a67 b3bd 33b6 37bd 1f54 1a3c fbbf a13d
00000010: d746 23bc e554 6c3d 4336 803d cc7a c53c
00000020: b391 72bd f9b3 13bd 3dff b7bd ea7a 993d
00000030: 4cc4 b8bd 7d77 883c 4c2c 8dbd ecf8 503d
00000040: db0c 953d 17a2 c7bc b192 6cbc 1e3c 06bd
00000050: a487 9bbc 61e8 c3bd f894 6fbd d7e8 2abd
00000060: 1396 9a3c 8177 643d 0f69 163d ee14 363c
00000070: f3c8 a2bd b9ad c4bc dd3c 45bd c347 fabc
00000080: 5c38 e23c 4b30 88bd ef7a 8a3d f96b 503d
00000090: 2e1f 493d cc41 86bd 68d5 c3bc 78f7 0bbd
000000a0: 60bf e53c 6d7d aebb a567 9bbc 95e9 0fbb
000000b0: 146e 6e39 d32c ea3c a84c a4bc ec34 c5bc
000000c0: 992e 963d a07d b13d 69af 9c3c 6011 b03d
000000d0: 73b0 a1bd 99c0 bf3d 6728 a1bd 9956 80bd
000000e0: be71 febb 58f7 95bd b10d 1ebd f38d 53bd
000000f0: 09af a5bd a8fc 7b3d b6e9 9f3d 6af6 913b
00000100: 28ca d13c 71fc acbc 3df2 24bd 3585 51bc
00000110: 8056 8a3d ac59 bc3d 0151 633c 26fb d0bb
00000120: 7412 b93d 01eb ea3b a198 c5bd a919 6fbd
00000130: 8300 39bc ec39 bdbc 7e54 b63d 01e3 5cbd
00000140: 41e0 a33c b2d4 32bc f557 7f3d a935 493d
00000150: cb06 723c 749a babc 9571 5bbd c3d0 bbbd
00000160: d27a 483d 3d17 153d f59a 203d 8551 d43c
00000170: f579 a43d a9ef f53c a414 1d3c 8bb1 24bd
00000180: 1d65 833d 1e48 7ebd 929f b33c 3c57 ef3c
00000190: 34da a7bb 2d55 9e3d dc28 493d c70c adbd
000001a0: 9383 0ebd a8a2 1ebd 8e50 303d cc6f 093c

siam_layer.conv6.weight f4 [1, 3, 6, 6]
-0.010813682 -0.009210798 0.058967892 -0.022143709 0.06885964 -0.08155799 0.07825172 0.02977837
0.04102059 -0.061910428 -0.09183688 -0.09577063 -0.010834383 0.09350488 0.0941508 0.0074295662
0.091325775 -0.08950697 -0.003684472 0.072157785 0.031347487 0.09062206 0.025862066 -0.0953231
-0.0867609 0.012437966 -0.051784933 0.016055753 0.031015059 0.09171079 0.02222562 0.004323193
-0.08050126 0.08957077 0.055325482 -0.047615062 -0.07360679 -0.05650725 0.0018503484 -0.030677391
-0.033136107 -0.0842745 -0.043060865 -0.039776836 0.056879036 0.048414055 0.043662854 -0.006134002
-0.076756515 -0.00036402102 0.056622528 0.031923465 0.040091444 0.06606317 -0.01876035 -0.019590028
-0.012239205 -0.017261347 -0.049230825 -0.058183003 0.07654709 0.055576995 -0.06750773 0.011236853
-0.048447378 -0.006983665 -0.077418 -0.07743747 0.08462198 0.050314993 0.06271061 0.034515608
-0.07366081 -0.039020285 0.05108581 -0.012484256 -0.07409379 -0.095399246 -0.09610843 -0.044320334
0.04482183 0.08648408 0.04942181 -0.05596241 -0.043362048 0.016763639 -0.09469488 -0.08595798
-0.073799476 0.027730592 -0.031606663 -0.03844842 0.07571315 0.0576351 0.029643059 -0.054110248
-0.030486342 0.002869776 -0.050706945 -0.051111378 -0.09557916 -0.06070265 -0.090352386 0.059733365
0.0116518615 -0.026019827 0.07954323 -0.039555017
00000000: df2b 31bc e3e8 16bc 5188 713d b966 b5bc
00000010: 4806 8d3d e007 a7bd 7042 a03d c5f1 f33c
00000020: 3505 283d ca95 7dbd f914 bcbd 6423 c4bd
00000030: b282 31bc 7d7f bf3d 22d2 c03d b873 f33b
00000040: 0209 bb3d 6e4f b7bd 2f77 71bb 76c7 933d
00000050: 3966 003d 0f98 b93d afdc d33c c238 c3bd
00000060: b3af b1bd 9cc8 4b3c 701c 54bd 5b87 833c
00000070: 4b13 fe3c ded2 bb3d 8112 b63c 92a9 8d3b
00000080: d8dd a4bd e170 b73d f99c 623d 0308 43bd
00000090: 28bf 96bd 2574 67bd 6487 f23a 274f fbbc
000000a0: bab9 07bd 1c98 acbd 9760 30bd 09ed 22bd
000000b0: fef9 683d d14d 463d d2d7 323d bdff c8bb
000000c0: 8532 9dbd 13da beb9 06ed 673d 2ec2 023d
000000d0: ed36 243d 214c 873d 4eaf 99bc 447b a0bc
000000e0: f286 48bc ab67 8dbc 43a6 49bd 4d51 6ebd
000000f0: b9c4 9c3d b4a4 633d 7e41 8abd c71a 383c
00000100: c270 46bd 3ad7 e4bb 548d 9ebd 8997 9ebd
00000110: 4a4e ad3d 1817 4e3d 6c6e 803d 3d60 0d3d
00000120: 7bdb 96bd bcd3 1fbd 5b3f 513d c48a 4cbc
00000130: 7cbe 97bd ae60 c3bd 7fd4 c4bd 3d89 35bd
00000140: 1897 373d 911e b13d 866e 4a3d d738 65bd
00000150: 679c 31bd e653 893c 64ef c1bd bd0a b0bd
00000160: 2e24 97bd 442b e33c fd75 01bd 177c 1dbd
00000170: 7f0f 9b3d c812 6c3d 00d6 f23c b5a2 5dbd
00000180: 7ebe f9bc da12 3c3b 16b2 4fbd 2a5a 51bd
00000190: 02bf c3bd 58a3 78bd ac0a b9bd f9aa 743d
000001a0: 73e7 3e3c 8827 d5bc 90e7 a23d 7104 22bd

siam_layer.conv7.weight f4 [1, 2, 6, 6]
0.028967185 0.063613914 -0.083686344 0.11001915 0.01283486 0.08035687 0.034316335 -0.101223364
-0.080165975 -0.07221713 0.094343506 -0.0011514853 -0.055096813 0.0016476327 -0.11151959 0.09088181
-0.11179821 -0.009439189 -0.041849572 -0.021082062 -0.111547045 0.01743721 0.111772336 -0.0244326
0.023288319 0.01598858 0.08430698 -0.015761696 0.107768565 6.264571e-05 -0.09004607 0.029318132
0.006394085 -0.023785334 -0.09557735 0.046783805 0.091051355 -0.035341695 -0.10711374 -0.06520724
0.04051175 0.08954053 0.056806073 0.065862104 -0.064164706 -0.06870434 0.110261075 -0.09845617
-0.10703881 0.008736937 -0.094955005 -0.007280231 0.035360124 -0.09007918 -0.050742418 0.11473361
-0.11267616 -0.09367356 -0.092090555 -0.018457834 0.028013121 0.02763992 0.100009464 0.0333668
-0.098588444 0.03528744 -0.11412016 -0.075626366 -0.0154413935 0.06923828 0.024869746 0.10657951
00000000: 974c ed3c 0348 823d bf63 abbd b851 e13d
00000010: 4e49 523c 2592 a43d 498f 0c3d 324e cfbd
00000020: 0f2e a4bd 93e6 93bd 2b37 c13d 6fed 96ba
00000030: 32ad 61bd 61f5 d73a 6264 e4bd 3e20 ba3d
00000040: 76f6 e4bd d4a6 1abc 756a 2bbd 4ab4 acbc
00000050: c772 e4bd 7bd8 8e3c e5e8 e43d e026 c8bc
00000060: 25c7 be3c 7cfa 823c 23a9 ac3d ac1e 81bc
00000070: c4b5 dc3d a960 8338 136a b8bd 942c f03c
00000080: 7985 d13b 76d9 c2bc 0fbe c3bd 60a0 3f3d
00000090: 2279 ba3d 74c2 10bd 735e dbbd 608b 85bd
000000a0: a6ef 253d 0761 b73d 7cad 683d b6e2 863d
000000b0: c968 83bd dcb4 8cbd 8fd0 e13d 63a3 c9bd
000000c0: 2a37 dbbd 5f25 0f3c c577 c2bd 018f eebb
000000d0: c7d5 103d 6f7b b8bd 48d7 4fbd 74f9 ea3d
000000e0: c2c2 e6bd ecd7 bfbd f999 bcbd e234 97bc
000000f0: c67b e53c 1d6d e23c c3d1 cc3d a0ab 083d
00000100: bde8 c9bd 9089 103d d5b7 e9bd ffe1 9abd
00000110: e6fd 7cbc cdcc 8d3d a3bb cb3c 5c46 da3d

dense.weight f4 [1, 308]
-0.033447187 0.039955776 -0.036189973 0.04872771 -0.016184544 0.017785212 0.0119830435 -0.00655656
0.002296876 -0.0029551531 -0.04667525 -0.023220582 -0.0056760195 0.022459568 -0.040179852 -0.034465846
-0.03183602 -0.00037113923 0.01972697 0.010543585 -0.03968393 0.032672033 0.01546732 0.038862247
-0.038737807 -0.0007607854 -0.0038072823 0.026441876 -0.023107003 0.039101753 0.024460288 0.018375423
-0.027196009 -0.010915629 -0.016303811 -0.0347323 -0.033462144 0.0022320258 0.021827709 0.0098514985
-0.012075372 0.0021745688 0.019131908 -0.019372027 -0.04791864 -0.05111007 0.00025420744 0.0033723451
0.002470084 0.031054718 0.04743625 -0.051581945 -0.017544556 -0.00276128 -0.0413194 0.0055514206
-0.050648373 -0.04728105 0.029025242 0.05498206 0.05018226 -0.04499973 0.006994249 0.04305447
0.007914442 0.040091377 0.051102918 0.037153717 -0.03859319 -0.010897098 0.02509681 0.007963679
-0.020744355 -0.0076514482 -0.013338661 0.054480862 -0.03425054 0.04237464 -0.048049897 0.03997036
-0.027753957 0.001103638 -0.014590489 0.005513948 -0.010069365 0.017637154 -0.043624 -0.014300385
-0.017020768 -0.053467583 0.008030613 0.03333762 -0.0095544765 -0.033876337 -0.051566433 0.029109364
-0.05495032 0.006016553 -0.032484304 0.05303077 0.018309345 0.038723063 0.043243207 -0.026061451
-0.03284014 -0.0019711207 -0.0065621594 -0.050516244 0.021132056 -0.046909846 0.019786064 -0.01833545
0.0077666696 -0.033806823 0.013370306 0.0044648126 -0.018214174 0.035763517 0.03129448 -4.698627e-06
-0.04051181 -0.048533 0.003729147 0.03905754 -0.024953716 -0.025799906 -0.053341165 -0.051258564
-0.012482532 0.005579025 0.002301359 -0.013694095 -0.025936091 -0.05155831 0.045146745 -0.044642955
0.032733213 0.026470155 0.009501795 -0.041599195 -0.03365995 0.025781436 -0.0511381 0.02117087
-0.00038677672 -0.038932938 -0.009482064 0.030069362 -0.051890887 0.015617078 0.0013095844 -0.048224173
-0.02721761 0.023761027 0.016825847 0.004565411 0.0035175777 0.055489313 0.027530199 0.04509222
0.04118464 0.051716708 -0.054823473 -0.01094044 0.038645938 0.03478479 -0.009275441 0.05292353
0.041135844 -0.019272916 -0.05063553 0.02165099 0.03260914 -0.00041738054 0.05457177 -0.013952133
-0.018969806 0.048663598 0.030375522 0.04314782 -0.052430253 0.040972974 -0.013285655 -0.04492813
0.04244004 0.030881338 0.037661497 0.0054847975 0.006469271 0.03518686 -0.02584805 -0.021433378
0.00425416 -0.0052920207 0.017473547 0.0015877548 0.039236657 -0.011076947 0.051742576 0.0555351
-0.0061004427 0.02415728 0.014028961 0.034603328 -0.030239776 0.037305836 0.044349533 -0.017679762
0.030588405 -0.01568183 -0.038528707 0.038553584 -0.02228357 0.035114143 -0.036941867 0.02622177
-0.02549056 0.0528178 -0.039712537 -0.025748624 0.04768318 0.019135062 0.029388221 0.02241831
-0.031326134 0.01398578 0.045845494 0.017112818 0.002572925 -0.03581004 0.053696908 0.027476147
-0.008524421 -0.02277585 0.054389626 -0.023409342 -0.021242695 0.034075443 -0.05589178 -0.010829444
0.03890042 -0.032451473 0.025943901 -0.02827897 0.029269202 -0.047263846 0.017045697 0.039026882
-0.007861194 0.01615043 0.021425674 0.023429343 0.033007015 -0.044052005 -0.04896699 -0.013033255
00000000: ebff 08bd aba8 233d f03b 14bd b596 473d
00000010: 7395 84bc 4bb2 913c 8754 443c 69d8 d6bb
00000020: 2f87 163b 3eab 41bb 8c2e 3fbd 1739 bebc
00000030: e7fd b9bb 21fd b73c a193 24bd 0f2c 0dbd
00000040: 7d66 02bd 7795 c2b9 749a a13c 00bf 2c3c
00000050: 9e8b 22bd 1cd3 053d a46a 7d3c 052e 1f3d
00000060: 89ab 1ebd 726f 47ba 9983 79bb a29c d83c
00000070: e64a bdbc 2929 203d f160 c83c 0e88 963c
00000080: 2aca debc 77d7 32bc 928f 85bc 7543 0ebd
00000090: 9a0f 09bd 2e47 123b 06d0 b23c 2e68 213c
000000a0: c8d7 45bc 3683 0e3b 85ba 9c3c 16b2 9ebc
000000b0: 5646 44bd cb58 51bd 2547 8539 9002 5d3b
000000c0: 22e1 213b 7766 fe3c 834c 423d 9747 53bd
000000d0: 9ab9 8fbc 97f6 34bb 883e 29bd b1e8 b53b
000000e0: ab74 4fbd c6a9 41bd 58c6 ed3c de34 613d
000000f0: ea8b 4d3d a351 38bd 0330 e53b e259 303d
00000100: 93ab 013c db36 243d 4b51 513d 7f2e 183d
00000110: e513 1ebd be89 32bc d397 cd3c 177a 023c
00000120: 11f0 a9bc 00b9 fabb 668a 5abc 5327 5f3d
00000130: 4b4a 0cbd 0891 2d3d f8cf 44bd f6b7 233d
00000140: 445c e3bc f2a7 903a f20c 6fbc 59ae b43b
00000150: faf9 24bc cb7b 903c 14af 32bd 294c 6abc
00000160: 236f 8bbc d300 5bbd d592 033c 078d 083d
00000170: 618a 1cbc eac1 0abd 5337 53bd c376 ee3c
00000180: 9613 61bd 8126 c53b 430e 05bd cb36 593d
00000190: 7bfd 953c 139c 1e3d ca1f 313d d37e d5bc
000001a0: 6283 06bd eb2d 01bb 6207 d7bb 1fea 4ebd
000001b0: 221d ad3c 8a24 40bd 6216 a23c 3a34 96bc
000001c0: 8c7f fe3b 0679 0abd 210f 5b3c 904d 923b
000001d0: e435 95bc c47c 123d a42e 003d e6a8 9db6
000001e0: b6ef 25bd 8aca 46bd b464 743b cdfa 1f3d
000001f0: bc6b ccbc 535a d3bc 447c 5abd 80f4 51bd
00000200: 8983 4cbc 41d0 b63b 66d2 163b 335d 60bc
00000210: ed77 d4bc ce2e 53bd cbeb 383d 88db 36bd
00000220: 4313 063d f0d7 d83c 6bad 1b3c eb63 2abd
00000230: 04df 09bd 9733 d33c 2f76 51bd 886e ad3c
00000240: 4bc8 cab9 2578 1fbd a95a 1bbc 0654 f63c
00000250: 8a8b 54bd c6de 7f3c 5ca6 ab3a b686 45bd
00000260: 77f7 debc 7ca6 c23c 5cd6 893c 7199 953b
00000270: 2987 663b c348 633d 0387 e13c 9fb2 383d
00000280: 3ab1 283d e6d4 533d 948e 60bd 883f 33bc
00000290: 344b 1e3d 7f7a 0e3d 05f8 17bc 58c6 583d
000002a0: 0f7e 283d 3ce2 9dbc 3467 4fbd 6b5d b13c
000002b0: 2991 053d ded3 dab9 a686 5f3d 7d97 64bc
000002c0: 9166 9bbc 7b53 473d 16d6 f83c c5bb 303d
000002d0: 1bc1 56bd 47d3 273d 13ac 59bc 8f06 38bd
000002e0: 9bd5 2d3d dcfa fc3c f142 1a3d d1b9 b33b
000002f0: 2efc d33b 1920 103d 4abf d3bc 0d95 afbc
00000300: 7b66 8b3b b068 adbb af24 8f3c 361c d03a
00000310: 9eb6 203d 157c 35bc 06f0 533d c678 633d
00000320: 39e6 c7bb 7de5 c53c bad9 653c 38bc 0d3d
00000330: 68b9 f7bc 01ce 183d dba7 353d 26d5 90bc
00000340: 8994 fa3c 2e77 80bc 47d0 1dbd 5dea 1d3d
00000350: 098c b6bc d9d3 0f3d 5b50 17bd 0acf d63c
00000360: 94d1 d0bc 7a57 583d 9da9 22bd c7ee d2bc
00000370: 704f 433d 22c1 9c3c 91bf f03c 9ba6 b73c
00000380: d54f 00bd 9d24 653c 7cc8 3b3d 2e30 8c3c
00000390: 859e 283b 8cad 12bd 4af1 5b3d a815 e13c
000003a0: 03aa 0bbc 6b94 babc a8c7 5e3d f3c4 bfbc
000003b0: 2905 aebc b192 0b3d c7ee 64bd fb6d 31bc
000003c0: 0c56 1f3d d6eb 04bd 4e88 d43c 4ca9 e7bc
000003d0: f7c5 ef3c bc97 41bd 6ba3 8b3c a7da 1f3d
000003e0: 3dcc 00bc e84d 843c e584 af3c e5ee bf3c
000003f0: 5d32 073d e06f 34bd 9c91 48bd 6f89 55bc
