siamese-classifier/siam_v3_90.pth (torch, 104363 bytes, 12 tensors)

siam_layer.conv1.weight f4 [14, 31, 6, 6]
0	0xbaa90dc3	-0.0012897778
1	0xbc6f4d98	-0.014605902
2	0x3ba3ed08	0.0050026216
3	0xbb1a9b74	-0.0023591192
4	0x3cdb1e81	0.026747944
5	0x3a943561	0.0011307412
6	0x3bad7ad6	0.005294184
7	0xbc55ba99	-0.013044977
8	0xbc9d88c9	-0.019230263
9	0xbcf1cf82	-0.029517893
10	0xbccb5a83	-0.024823433
11	0x3cd5426f	0.026032655
12	0xbcdab14f	-0.026695875
13	0xbbb6e7df	-0.0055818404
14	0x3b350718	0.0027622636
15	0x3bf84426	0.0075764833
16	0xba8612f6	-0.001022904
17	0xbc9528f5	-0.018208006
18	0xbcc3fd93	-0.023924625
19	0x3ba1fb0f	0.0049432586
20	0x3b93fa75	0.004515941
21	0x3aa670dc	0.001269843
22	0x3c9549cc	0.018223666
23	0x3cce39b4	0.025174
24	0xbc722b9d	-0.014780906
25	0xbc854012	-0.016265903
26	0xbcc7185d	-0.02430361
27	0xbb147a06	-0.002265574
28	0x3ccb67bd	0.02482974
29	0x3cd26b84	0.025686033
30	0x3ce3bb5f	0.027799306
31	0x3ca13aae	0.019681301
32	0xbc9c0f88	-0.019050375
33	0x3c93cab1	0.018040987
34	0x3c518ed9	0.012790405
35	0xbc21a4a7	-0.009865916
36	0xbb1a9f3a	-0.0023593442
37	0x3ca70105	0.020386228
38	0xbc8ada9a	-0.01694994
39	0x3b22a71e	0.0024818848
40	0x3c67a480	0.014138341
41	0xbb5e9244	-0.0033961693
42	0x3cc317f8	0.02381514
43	0x3b1d3bad	0.0023991868
44	0xbbafcd4b	-0.005365049
45	0xbafcae40	-0.0019278005
46	0x3c9c351e	0.019068297
47	0xbcc5f5ff	-0.024165152
48	0x3b631585	0.0034650278
49	0x3cce6cd4	0.025198378
50	0xbc7680e6	-0.01504538
51	0x3c29355d	0.010327664
52	0x3ca59736	0.020213705
53	0xbc49404a	-0.012283394
54	0xbcb12d21	-0.021627964
55	0xbcd4187e	-0.025890585
56	0xbb19b8d4	-0.0023456113
57	0x3cabe318	0.02098231
58	0xbc2071f8	-0.009792797
59	0x3c96df9b	0.01841717
60	0x3c5325d6	0.012887439
61	0x3c32fb5d	0.0109241875
62	0xbbd227da	-0.006413442
63	0x3c8972bc	0.016778342
64	0xbcecd967	-0.02891226
65	0xbcd0f511	-0.025507482
66	0x3ce86b01	0.028371336
67	0xbcb38eb0	-0.021918625
68	0xbceb8571	-0.028750153
69	0x3cae8a79	0.021306263
70	0xbc7dd699	-0.015493059
71	0xbcd9a849	-0.026569502
72	0xbcbab498	-0.022791192
73	0x3c487b41	0.012236417
74	0xbcb5588b	-0.022136947
75	0x3ce2cda6	0.027685951
76	0xbb843a31	-0.0040352573
77	0xbcc95426	-0.024576258
78	0xbce024a2	-0.027361218
79	0x3c9fdf96	0.019515794
80	0x3c9a95a1	0.018870177
81	0xbc263dad	-0.010146541
82	0xbab2fab8	-0.0013655042
83	0xbc07cbaf	-0.008288308
84	0x3c01582a	0.007894555
85	0x3c7faf45	0.015605752
86	0x3cb002a8	0.021485642
87	0x3c7a488e	0.015276087
88	0x3bd72883	0.0065661087
89	0xbc9bcf36	-0.019019704
90	0xbce9cddc	-0.028540544
91	0x3cc68d08	0.02423717
92	0x3c6f4a9e	0.0146051925
93	0x3c462274	0.012093175
94	0xbce45680	-0.027873278
95	0xbb331ac5	-0.0027329188
96	0xbbaec8ae	-0.0053339815
97	0xbc9c4c17	-0.019079251
98	0xbcc8bee4	-0.024505086
99	0xbccea303	-0.025224214
100	0x3c9eed24	0.019400187
101	0xbcc1316d	-0.023583138
102	0xbc4d0e3d	-0.012515602
103	0x3bd26fc6	0.006422016
104	0xbcdc1cb8	-0.026869163
105	0xbca6f4a0	-0.020380318
106	0xbc0231bd	-0.007946429
107	0xbc8deb42	-0.017324094
108	0xbc79a5d0	-0.015237287
109	0x3a574d4a	0.0008213116
110	0x3cea9cbf	0.028639195
111	0x3b832d05	0.0040031695
112	0xbcdd89fd	-0.027043337
113	0xbc8c9f6d	-0.017165864
114	0x3cb7be13	0.022429502
115	0x3c8492d8	0.016183302
116	0xbc9765e3	-0.0184812
117	0x3aaec18a	0.0013332826
118	0xbcf4d83f	-0.02988827
119	0xbcd6af67	-0.026206685
120	0xbc8fcbd3	-0.017553246
121	0xbc47df1c	-0.0121991895
122	0xbcf302c8	-0.029664412
123	0x3b09005a	0.002090475
124	0xbcdaf599	-0.026728438
125	0x3b07a96e	0.0020700353
126	0xbbfeb5b1	-0.007773124
127	0xbcda5f02	-0.026656631
128	0xbc881e43	-0.016615992
129	0x3c1ced12	0.009578006
130	0x3bf2bdaf	0.007407866
131	0x3c013acf	0.007887556
132	0xbcf3cf35	-0.02976189
133	0x3c0974a8	0.008389629
134	0xbcd594ef	-0.026071994
135	0xbca8f4aa	-0.020624477
136	0xbc226671	-0.009912119
137	0xbaa683f1	-0.0012704117
138	0x3c644f6b	0.01393495
139	0x3cc374e0	0.023859441
140	0x3c944402	0.018098835
141	0x3c48942e	0.01224236
142	0xbc5d4869	-0.013506033
143	0xbc64623a	-0.013939435
144	0xbc031c64	-0.008002374
145	0xbb8611ec	-0.004091492
146	0xbc7d4c36	-0.015460065
147	0xbcce40ef	-0.025177447
148	0xbc8280c6	-0.015930545
149	0x3c33efc3	0.010982457
150	0x3c7cfb90	0.015440837
151	0x3c91d089	0.017799633
152	0xbce6cd93	-0.028174197
153	0xbcd3fa5c	-0.025876217
154	0x3c8eaa08	0.017415062
155	0x3c8086c7	0.015689267
156	0xbc5319c9	-0.012884566
157	0x3c8eb13f	0.017418502
158	0xbc936838	-0.017994031
159	0x3b22c9fd	0.0024839633
160	0x3c6ae20d	0.014336121
161	0x3c219f10	0.009864584
162	0x3cc7c743	0.024387008
163	0x3cb112b9	0.021615373
164	0xbcdc1db6	-0.026869636
165	0x3cacac4a	0.021078248
166	0xbcce58a9	-0.02518876
167	0x3c1ae6f7	0.00945448
168	0xbcb512d3	-0.022103703
169	0xbc76f885	-0.0150739
170	0x3ce864ab	0.028368315
171	0x3c7cd503	0.015431645
172	0xbba905a8	-0.005158145
173	0x3cd50cfe	0.026007172
174	0xb917131f	-0.00014407605
175	0x3b10d401	0.002209902
176	0x3c273ff5	0.01020812
177	0xbb608bcd	-0.0034263015
178	0x3c05701a	0.008144403
179	0xbccc05e6	-0.024905156
180	0xba611e89	-0.0008587619
181	0x3cb359c2	0.021893386
182	0xbc0975ae	-0.008389873
183	0xbc35635a	-0.011071051
184	0x3c0658f0	0.008199915
185	0x3bb826cf	0.0056198607
186	0xbc8da379	-0.017289864
187	0x3c421ac9	0.011847206
188	0xbcbe7f8b	-0.023254177
189	0x3c9bbe1f	0.019011555
190	0xbcbf7e0a	-0.02337553
191	0xbcb3e431	-0.021959396
192	0xbc92be7f	-0.017913101
193	0x3c8b7237	0.017022235
194	0x3c845935	0.016155818
195	0xbc948b5d	-0.01813286
196	0x3b86d771	0.004115038
197	0xbcca9fe0	-0.024734437
198	0xb9df7c19	-0.00042626334
199	0xbc9a62e6	-0.018845987
200	0xbc0a28cd	-0.008432579
201	0x3c927198	0.017876431
202	0xbce85374	-0.028360106
203	0x3ccbd3fd	0.024881357
204	0x3ae3cde4	0.0017380086
205	0xbbaa6ca4	-0.0052009393
206	0x3c973960	0.018459976
207	0x3ce62a9a	0.028096486
208	0xbce3d665	-0.027812192
209	0x3bdb803d	0.006698637
210	0x3cdead70	0.02718231
211	0x3c76444c	0.015030932
212	0x3adc2abf	0.0016797407
213	0x3c705c24	0.014670406
214	0xbcc6c10d	-0.024261976
215	0x3c24bce0	0.010054797
216	0x3cc263f9	0.023729311
217	0xbc621ecc	-0.013801288
218	0x3c964eda	0.018348146
219	0xbb0de49a	-0.002165115
220	0x3cb67256	0.022271316
221	0xbc3fa978	-0.011698119
222	0x3ccc9645	0.024973998
223	0xbc08a73f	-0.008340656
224	0xbc9f1af9	-0.019422041
225	0x3bc9e9d2	0.0061619068
226	0x3c2cea42	0.010553898
227	0x3c0193ce	0.007908775
228	0xbcf21a5a	-0.029553581
229	0x3ceef08f	0.029167442
230	0xbc7f5941	-0.015585245
231	0xbbe0b36b	-0.006857326
232	0xbc51158a	-0.012761483
233	0x3b299a73	0.0025879412
234	0xbc83150e	-0.01600125
235	0x3b9ac6a7	0.0047233882
236	0xbcee8797	-0.029117389
237	0xbbdeace8	-0.0067955144
238	0xbce0cd27	-0.027441574
239	0x3bbcfb94	0.005767295
240	0xbadb76d4	-0.0016743788
241	0x3c67451b	0.014115597
242	0xbcbb6f45	-0.022880206
243	0x3c573193	0.013134378
244	0x3cda1df9	0.02662562
245	0x3b923ae4	0.0044625867
246	0xbc72ce78	-0.014819734
247	0xbbeadd23	-0.007167475
248	0x39972715	0.00028830083
249	0xbc2c29ec	-0.010508042
250	0xbc25e87e	-0.010126231
251	0xbce6325b	-0.028100183
252	0x3ca7daa8	0.020490006
253	0x3c2308d9	0.00995084
254	0x3c0cf43b	0.008603151
255	0xbb3a4a4d	-0.0028425634

siam_layer.conv1.bias f4 [14]
0	0x3c58fa4c	0.013243269
1	0x3cf4e9fa	0.029896725
2	0x3c004b84	0.007830504
3	0xbcd3480c	-0.02579119
4	0x3cbfe5e2	0.023425046
5	0x3cf1107a	0.029426802
6	0xbcb0d774	-0.021587111
7	0x3bb2b158	0.00545327
8	0xbc6bbac4	-0.01438779
9	0x3c06a988	0.00821913
10	0x3c7e114c	0.015507054
11	0x3cd99648	0.026560917
12	0x3c938744	0.018008836
13	0x3c160b14	0.009157915

siam_layer.conv2.weight f4 [7, 14, 6, 6]
0	0xbc5b1235	-0.01337104
1	0xbd2edb33	-0.042689513
2	0x3c01ed65	0.007930134
3	0xbc6d435d	-0.014481393
4	0xbbc8ec29	-0.006131668
5	0x3c15d1bb	0.009144242
6	0xbd0c75c3	-0.034291994
7	0x3cbdc02f	0.02316293
8	0x3bd5f59d	0.0065295235
9	0xbd207fd7	-0.039184418
10	0xbc8c0204	-0.017090805
11	0x3cd09259	0.025460409
12	0x3c65db0a	0.014029274
13	0xbd3393c7	-0.043842103
14	0x3bbd360e	0.005774266
15	0x3d3414f3	0.04396529
16	0x3c3c53a6	0.011494553
17	0x3ca3887c	0.019962542
18	0xbc8fcbcb	-0.01755323
19	0xbc4b5afe	-0.012411831
20	0x3cb9a99f	0.02266389
21	0x3d22db6b	0.039760035
22	0x3d0989b6	0.033578597
23	0x3c153ae4	0.009108279
24	0xbc18995d	-0.009313908
25	0xbc951db7	-0.018202646
26	0xbd355006	-0.04426577
27	0x3c1f0821	0.009706528
28	0x3d0324bb	0.03201745
29	0x3aa09bc6	0.0012253455
30	0x3d22c002	0.039733894
31	0xbcbc9f4d	-0.02302518
32	0x3cbe839f	0.023256121
33	0x3ced6fe9	0.028984027
34	0x3c528e34	0.012851287
35	0xbc18f334	-0.009335328
36	0xbd264013	-0.04058845
37	0x3d059849	0.032615934
38	0xbca0db83	-0.019635921
39	0xbd2933f4	-0.041309312
40	0x3d2078ac	0.03917758
41	0x3c2a8eab	0.010409991
42	0xbca1de08	-0.019759193
43	0x3d082bed	0.033245016
44	0x3cb31196	0.021858972
45	0x3d096cc6	0.033551
46	0x3cefbd55	0.029265085
47	0xbcc673ae	-0.024225082
48	0x3cf7ab17	0.03023295
49	0xbcd203ee	-0.02563664
50	0xbd0bd157	-0.03413519
51	0x3c84f3b1	0.016229482
52	0xbd0c6edc	-0.03428541
53	0xbcdbcbb1	-0.026830526
54	0x3c0a5409	0.008442887
55	0x3c33dd10	0.010977998
56	0xbd07e0c8	-0.033173352
57	0xbcc9daad	-0.024640406
58	0xbca6076c	-0.02026721
59	0xbbbc9ec0	-0.005756229
60	0x3d149105	0.036271114
61	0xbcd3ef3c	-0.025870912
62	0xbcc67aa5	-0.024228403
63	0xbc817bcb	-0.0158061
64	0x3c94dbd7	0.018171234
65	0xbcb45cd6	-0.022016924
66	0xbd3659e0	-0.044519305
67	0x3c011424	0.007878337
68	0xbd014065	-0.031555552
69	0xbcd87858	-0.026424572
70	0x3d220b4a	0.039561547
71	0x3d1c5ce7	0.038174536
72	0xbd0aff6c	-0.033934996
73	0xbc046503	-0.008080724
74	0xbc2c49b6	-0.010515621
75	0x3c5f6898	0.013635777
76	0x3cd5e8b0	0.02611193
77	0xbb9c6491	-0.0047727306
78	0x3c76a309	0.015053519
79	0x3abf3a8e	0.0014589594
80	0xbc41a1fb	-0.011818404
81	0x3a87de33	0.0010365903
82	0xbd2620d0	-0.040558636
83	0x3c3f9440	0.01169306
84	0x3c938517	0.018007798
85	0xbc3f3810	-0.011671081
86	0x3c112615	0.008859177
87	0xbd34466d	-0.044012476
88	0xbbfc668a	-0.0077026533
89	0xbc77c445	-0.015122478
90	0xbd2a0b70	-0.041514814
91	0xbc841d03	-0.016127115
92	0xbc608aae	-0.013704939
93	0x3c8e02bb	0.017335286
94	0x3c2c45dd	0.010514704
95	0xbd0c13c5	-0.03419854
96	0xbb87fdb8	-0.0041501187
97	0x3d1c2acc	0.03812675
98	0x3c9b8c61	0.018987836
99	0xbc642f61	-0.013927312
100	0x3d260a2f	0.040537056
101	0x3c80f68a	0.015742559
102	0x3d142f40	0.036177874
103	0x3d0b2e74	0.033979848
104	0xbaf72d47	-0.0018858098
105	0x3cc8a258	0.024491474
106	0x3c9f1064	0.019416995
107	0xbd2ae7ca	-0.041724958
108	0x3d1d09b3	0.038339328
109	0xbc37e4d3	-0.01122399
110	0xbc1abda2	-0.009444626
111	0xbcb6d3b8	-0.022317752
112	0x3c818445	0.015810141
113	0xbd31c7cb	-0.043403428
114	0xbd17a756	-0.03702482
115	0x3d0959aa	0.033532776
116	0x3d28c47f	0.04120302
117	0x3cc8818d	0.024475837
118	0xbc55107a	-0.013004417
119	0x3c99365f	0.018702684
120	0xbcc63b49	-0.024198191
121	0xbd14d621	-0.03633702
122	0x3d093559	0.033498142
123	0xbc043d52	-0.0080712605
124	0xbbc732f5	-0.0060790726
125	0x3bf0ea17	0.0073521244
126	0x3cc3c709	0.023898618
127	0x3c76e7ce	0.015069915
128	0xbc295d03	-0.010337117
129	0x3c320d2b	0.010867397
130	0xbc768668	-0.015046693
131	0xbb7a4965	-0.003819072
132	0x3cce5946	0.025189053
133	0xbd045256	-0.032305084
134	0xbcc685fa	-0.024233807
135	0xbbeafb0a	-0.0071710395
136	0xbca339b3	-0.019924974
137	0xbbc9865c	-0.00615005
138	0x3d04cab0	0.03241986
139	0xbcfcc342	-0.030854825
140	0xbcd10303	-0.025514131
141	0x3c76bb17	0.015059254
142	0xbd26ac8b	-0.040691894
143	0xbc858d41	-0.016302707
144	0xbccef437	-0.025262935
145	0xbaede956	-0.0018151205
146	0xbcc7b0ef	-0.02437636
147	0xb944fe0b	-0.00018786655
148	0x3c7c45bd	0.015397486
149	0xbb634675	-0.0034679447
150	0xbcc75dd9	-0.024336742
151	0xbc972150	-0.018448502
152	0xbd1b1997	-0.0378662
153	0x3c9d1c7e	0.019178625
154	0x3c8381f8	0.016053185
155	0xbc850c10	-0.016241103
156	0xbb8a9905	-0.004229667
157	0xbba30132	-0.0049745077
158	0x3d0b4128	0.033997685
159	0xbb27774b	-0.0025553282
160	0xbc9e1d37	-0.01930104
161	0x3bf1c713	0.007378468
162	0x3d229dcf	0.03970128
163	0x3ccf3233	0.025292492
164	0x3cf49015	0.02985386
165	0xbc9517f9	-0.018199908
166	0xbcaf9d2c	-0.02143725
167	0x3cc25979	0.023724305
168	0xbc72d2c4	-0.014820758
169	0xbc5ecc35	-0.013598491
170	0x3c6ee77d	0.014581558
171	0x3d2acb2a	0.04169766
172	0xbcb1752e	-0.021662321
173	0xbd24ce8e	-0.04023605
174	0x3bb1da3d	0.0054276274
175	0xbcad6fcf	-0.021171479
176	0xbccaed71	-0.024771424
177	0x3cb8e52a	0.022570211
178	0x3b65b9ba	0.0035053329
179	0xbcfe1742	-0.03101695
180	0x3d349f60	0.044097304
181	0x3cb368f4	0.021900631
182	0x3cebc7d6	0.028781813
183	0xbc6b1cce	-0.014350129
184	0xbd30acf8	-0.043133706
185	0x3cfd7798	0.030940816
186	0xbd024b64	-0.03181018
187	0xbd1f9e9d	-0.038969625
188	0x3d16c008	0.03680423
189	0xbba77d9a	-0.0051114084
190	0x3c5436fb	0.0129525615
191	0xbcfca0ab	-0.030838331
192	0x3cc44ab7	0.023961408
193	0x3c0cb6f3	0.00858854
194	0x3c962b45	0.01833118
195	0x3d01add5	0.03165992
196	0xbbcce154	-0.006252447
197	0xbd19b30d	-0.03752427
198	0xbc18d837	-0.009328893
199	0xbcf11b8b	-0.029432079
200	0xbc88f809	-0.016719835
201	0xbd0c1363	-0.034198176
202	0x3bd4d9aa	0.006495674
203	0xbd0a5100	-0.033768654
204	0x3bf3aada	0.0074361386
205	0x3cca1cdd	0.024671966
206	0x3cdb8df8	0.026801094
207	0xbcdf63ec	-0.027269326
208	0x3c107a2e	0.008818192
209	0x3c1216c8	0.008916564
210	0x3d03ccfb	0.032177906
211	0x3ceb992a	0.028759558
212	0x3c0cc777	0.008592478
213	0xbccc43df	-0.024934707
214	0x3ce9cb96	0.02853946
215	0x3c90d420	0.017679274
216	0x3cfd669a	0.030932713
217	0x3d2f1011	0.04273993
218	0xbd3238bb	-0.043511134
219	0xbb21a36e	-0.0024664062
220	0x3cd2a605	0.02571393
221	0x3cb6dfbb	0.02232348
222	0x3c533634	0.012891341
223	0xbbb61482	-0.005556644
224	0x3d36b9e6	0.04461088
225	0x3ce7bd54	0.02828852
226	0x3cec35e3	0.028834289
227	0x3c923e96	0.017852109
228	0xbcd25f62	-0.025680248
229	0xbc233983	-0.009962442
230	0x3c15c3f4	0.009140957
231	0x3b266eb9	0.0025395586
232	0xbc5535de	-0.013013331
233	0x3d2b5996	0.041833483
234	0xbc6aafdb	-0.014324154
235	0x3d13eaa7	0.036112454
236	0xba18283e	-0.00058043364
237	0xbc9126dd	-0.017718727
238	0xbca0b51d	-0.019617612
239	0x3ce05df0	0.027388543
240	0x3ca94944	0.020664819
241	0x3bbbd09e	0.005731656
242	0x3cdfca72	0.027318213
243	0x3d005047	0.03132656
244	0xbd14f9cd	-0.03637104
245	0x3d0a95bd	0.033834208
246	0x3bd463c2	0.0064816186
247	0xbc3eb7f7	-0.01164054
248	0xbce18f7f	-0.027534245
249	0x3ca97d1e	0.020689543
250	0x3d2b0448	0.04175213
251	0x3cd6aaa9	0.026204424
252	0xbd1af5c4	-0.037832037
253	0x3c74a415	0.014931698
254	0x3d1e50ca	0.038651265
255	0xbd1b92e2	-0.037981875

siam_layer.conv2.bias f4 [7]
0	0x3cf74ad0	0.03018704
1	0x3ca3bee0	0.019988477
2	0xbc930c79	-0.017950283
3	0xbc678aa6	-0.014132177
4	0xbd2290e7	-0.03968897
5	0x3d0a6784	0.033790126
6	0xbcb2e253	-0.021836435

siam_layer.conv3.weight f4 [7, 14, 6, 6]
0	0x3c21ba74	0.009871114
1	0x3ccad7ff	0.024761198
2	0xbce886fe	-0.028384682
3	0xbcf4a4c6	-0.029863726
4	0x3bcd92f4	0.0062736217
5	0x3c982f0b	0.01857712
6	0x3cb3c393	0.021943843
7	0x3d2bbe78	0.041929692
8	0xbceee93a	-0.029163945
9	0x3ca61526	0.020273756
10	0x3c4d34e4	0.012524817
11	0xbd2d2386	-0.042270206
12	0x3d291bdb	0.04128633
13	0xbce5f841	-0.028072478
14	0xbb4d0122	-0.0031281193
15	0xbca6df37	-0.020370109
16	0xbd25e491	-0.04050118
17	0xbd2fbd94	-0.042905405
18	0xbb7e01e8	-0.003875846
19	0xbc530ec9	-0.012881943
20	0xbc5e7b1f	-0.013579159
21	0x3c8250da	0.015907694
22	0xbce6ebdb	-0.028188637
23	0x3d0fd269	0.035112772
24	0xbcf1a931	-0.029499622
25	0x3b791800	0.003800869
26	0xbd159cde	-0.036526553
27	0xbc9921a7	-0.018692805
28	0x3c511ce5	0.012763237
29	0x3cf2eeaf	0.029654829
30	0xbc2122ad	-0.0098349275
31	0x3b86ace3	0.004109965
32	0x3c3e48f1	0.01161407
33	0xbcd845cb	-0.026400467
34	0xbd2c6eb8	-0.042097777
35	0xbce0d15d	-0.027443582
36	0xbc684bd1	-0.014178232
37	0x3d049324	0.032366887
38	0x3bd6f663	0.0065601333
39	0x3b638a26	0.0034719794
40	0x3cbaa98b	0.022785923
41	0xb93c9055	-0.00017982845
42	0x3c9a7306	0.018853676
43	0x3d194dd9	0.037427757
44	0x3cf78178	0.030213103
45	0x3c838e56	0.016059082
46	0xbcb2caf0	-0.021825284
47	0x3a755908	0.0009359275
48	0xbb9d413c	-0.0047990363
49	0x3c34f4ff	0.01104474
50	0xbc2b8bfb	-0.010470386
51	0xbd039474	-0.032123998
52	0x3cef3d19	0.029203938
53	0x3bb9ea09	0.005673651
54	0xbcbf94d9	-0.023386406
55	0xbcde6825	-0.02714927
56	0x3cc949ee	0.024571385
57	0x3cc30e6b	0.023810586
58	0xbc2d6687	-0.010583526
59	0xbcc4bc0a	-0.024015445
60	0x3bb8492f	0.0056239585
61	0x3cf1a4e2	0.029497568
62	0x3d17ad1b	0.03703032
63	0xbd1e90e8	-0.038712412
64	0x3d074dee	0.033033304
65	0xbb038049	-0.0020065478
66	0x3cc3f528	0.02392061
67	0xbd19fc94	-0.037594393
68	0xba9f1edf	-0.0012139938
69	0xbce181c0	-0.02752769
70	0x3d173d2e	0.03692358
71	0xbb62e34e	-0.0034620347
72	0xbc917261	-0.017754735
73	0x3c2ebe5d	0.010665503
74	0x3d295ac6	0.041346334
75	0xbd2c5aaf	-0.04207867
76	0xbccc89b5	-0.024968008
77	0xbd2b47ce	-0.041816525
78	0x3cda9d28	0.026686266
79	0xbcf5acde	-0.029989656
80	0xbc9f8221	-0.01947123
81	0xbd111dcd	-0.03542881
82	0x3ca05fd4	0.019576944
83	0xbc64e271	-0.013970003
84	0xbd2d8f37	-0.04237291
85	0x3cba4c00	0.022741318
86	0xbd1766c3	-0.036963236
87	0xba47558a	-0.0007603994
88	0x3d1e899e	0.03870546
89	0xbd13fb7a	-0.0361285
90	0x3c5a820c	0.01333667
91	0xbbc2b58a	-0.0059420513
92	0x3ca97cc2	0.020689372
93	0xbd212554	-0.03934224
94	0x3c325154	0.010883648
95	0xbc58b330	-0.013226315
96	0xbbd5ae18	-0.0065209977
97	0xbd102665	-0.035192866
98	0x3cc43332	0.023950193
99	0xbcabbe99	-0.020964907
100	0x3cce50ad	0.025184954
101	0xbb8a0f63	-0.00421326
102	0xbc3d070b	-0.011537324
103	0xbd26077a	-0.040534474
104	0xbd28d6b5	-0.041220386
105	0xbd091b92	-0.03347356
106	0x3a86ad92	0.0010275117
107	0xbd285e72	-0.041105695
108	0x3d27fcb6	0.04101249
109	0xbd1969a4	-0.037454262
110	0xbc57ca02	-0.013170721
111	0x3c3d8032	0.011566209
112	0xbd1d254d	-0.03836565
113	0x3c07b7cb	0.008283566
114	0xbcdfdbb4	-0.027326442
115	0xbc3f0bb7	-0.011660508
116	0x3c79ccd3	0.015246588
117	0x3d24f98f	0.04027706
118	0x3ce6d266	0.028176498
119	0x3cc71c61	0.024305524
120	0xbd1b364e	-0.037893586
121	0x3c637f7b	0.013885374
122	0x3cb534c9	0.022119896
123	0xbd310c61	-0.043224696
124	0xbbd20276	-0.006408985
125	0xbd30909b	-0.043106657
126	0x3d11157f	0.03542089
127	0xbbdb2b75	-0.00668853
128	0xbb492569	-0.0030692464
129	0xbba564f6	-0.005047436
130	0xbcfa7dce	-0.030577566
131	0x3d1bf204	0.0380726
132	0x3cb71dee	0.022353139
133	0xbd22fd92	-0.039792605
134	0xbcc79eea	-0.024367768
135	0x3d1531cd	0.036424447
136	0x3cd146d9	0.025546478
137	0xbc2a4317	-0.010391972
138	0xbc777ca6	-0.015105402
139	0xbd01da39	-0.031702254
140	0xbc8492f9	-0.016183363
141	0xbbdad5de	-0.006678327
142	0x3cb78477	0.022402031
143	0xb9329d54	-0.00017034012
144	0x3c3b7a1c	0.011442687
145	0xbcc84998	-0.024449155
146	0x3a6dfefc	0.0009078828
147	0x3d15ef2c	0.036605045
148	0xbc050091	-0.008117811
149	0x3cfafd02	0.030638222
150	0x3d1e075e	0.038581245
151	0xbce4d885	-0.027935276
152	0x3c9b4776	0.018954974
153	0xbd110817	-0.035408106
154	0x3d1ffe1e	0.039060704
155	0xbd0ad115	-0.033890802
156	0xbc777cfb	-0.015105481
157	0xbb793b6d	-0.0038029805
158	0xbd2700e5	-0.040772337
159	0x3d1ba219	0.037996385
160	0xbcef8404	-0.029237755
161	0x3d083b50	0.03325969
162	0x3cb97ccc	0.022642516
163	0x3c125776	0.008931985
164	0xbbb98f64	-0.0056628454
165	0xbd26766f	-0.04064029
166	0xbca633aa	-0.020288307
167	0xbd000ff6	-0.03126522
168	0xbd218ac8	-0.039438993
169	0xbc0640e7	-0.008194185
170	0x3bdf942d	0.006823084
171	0x3c667c2a	0.014067689
172	0xbce3446c	-0.027742587
173	0x3c120b98	0.008913897
174	0xbc06357f	-0.008191465
175	0xbc8362df	-0.016038356
176	0xbd2e39c1	-0.042535547
177	0xbb840d2e	-0.0040298915
178	0xbd1c33f6	-0.03813549
179	0xbcf1ff98	-0.029540822
180	0x3d347425	0.044056077
181	0x3b8bcf4d	0.0042666555
182	0xbc7276d8	-0.014798842
183	0x3cbb1fa7	0.022842241
184	0xbcf24f8e	-0.02957895
185	0x3c4013df	0.011723488
186	0xbc700b3b	-0.014651115
187	0x3cecb94d	0.028896952
188	0xbcef160c	-0.029185317
189	0x3c4aaad8	0.012369834
190	0x3ce0b741	0.027431132
191	0x3cd7bca4	0.026335068
192	0x3caa577c	0.020793669
193	0xbba99b63	-0.0051759942
194	0xbb01ccac	-0.0019805832
195	0xbd30c2cd	-0.043154527
196	0x3d0aaaed	0.033854414
197	0xbc0f6685	-0.00875247
198	0x3cbc68b7	0.02299915
199	0xbc7acfdc	-0.015308347
200	0xbd125f6c	-0.035735533
201	0x3c32b62a	0.010907689
202	0xbcfd1637	-0.030894382
203	0xbb5c6782	-0.0033631031
204	0xbd181860	-0.03713262
205	0x3c0bddb5	0.008536746
206	0xbb9c7115	-0.0047742226
207	0x3b449930	0.0029998533
208	0xbcb34b60	-0.021886528
209	0x3bce1946	0.006289634
210	0xbc830dc5	-0.015997777
211	0xbd36370b	-0.044486087
212	0xbd1a7893	-0.037712645
213	0xbcd57b87	-0.026059879
214	0x3c9bd3d4	0.019021906
215	0xbcad691a	-0.02116828
216	0x3d2c864a	0.042120256
217	0xbc833edf	-0.01602119
218	0xbd20ac63	-0.0392269
219	0x3bc857ac	0.006113967
220	0x3a8ca5ab	0.0010730525
221	0xbbf28a0d	-0.007401711
222	0xbd127d69	-0.03576413
223	0xbcbb8924	-0.022892542
224	0xbc9b54ac	-0.018961273
225	0xbbcf9c96	-0.006335805
226	0xbc8b56a2	-0.017009083
227	0x3c627e6f	0.013824089
228	0xbd187b31	-0.03722686
229	0xbd04091d	-0.032235254
230	0xbbc10c7f	-0.005891382
231	0x3cc2483b	0.023716083
232	0x3c06bac2	0.0082232375
233	0x3d138b60	0.03602159
234	0xbd23cdce	-0.039991193
235	0xbca26990	-0.019825727
236	0x3c8ae907	0.01695682
237	0xbc6c6e81	-0.014430643
238	0xbc9f46ed	-0.019443
239	0x3cc6f5ee	0.02428719
240	0xbbd3d4e2	-0.0064645866
241	0x3c55cee5	0.013049816
242	0x3caed407	0.021341337
243	0xbccbfd98	-0.024901196
244	0xbd114053	-0.035461735
245	0x3cc7c431	0.024385544
246	0x3d095980	0.03353262
247	0x3cc0f760	0.023555458
248	0x3c581943	0.013189617
249	0x3d2d50e6	0.04231348
250	0xbc30b7cf	-0.010786011
251	0xbb9595a6	-0.0045649586
252	0x3c3b6d3b	0.011439617
253	0xbc963623	-0.018336361
254	0xbcf9ef14	-0.03050951
255	0x3d285d70	0.041104734

siam_layer.conv3.bias f4 [7]
0	0x3d02634c	0.031832978
1	0x3cac66b4	0.021045066
2	0x3cc2bbd0	0.023771197
3	0xbac466a0	-0.0014984198
4	0x3afd7f40	0.0019340292
5	0x3d14a8e0	0.036293864
6	0x3c5238a8	0.012830891

siam_layer.conv4.weight f4 [3, 14, 6, 6]
0	0xbbb2c2b4	-0.0054553393
1	0xba44f41c	-0.0007513182
2	0x3d0fece7	0.035138037
3	0xbcaf3b4e	-0.021390583
4	0x3d009043	0.03138758
5	0x39cc762b	0.00038997954
6	0xbbdb533a	-0.006693271
7	0xbb23b482	-0.0024979417
8	0xbb10c3b1	-0.0022089297
9	0xbcdce4aa	-0.026964504
10	0x3cdad5fc	0.026713364
11	0xbce9784d	-0.028499747
12	0xbcb66b69	-0.022268014
13	0x3cc0d534	0.023539163
14	0x3cdf4c9c	0.02725821
15	0x3c0b0b76	0.008486619
16	0xbcdd6d7b	-0.027029743
17	0xbc8badeb	-0.017050704
18	0x3b4d3c48	0.0031316448
19	0x3c9f1977	0.019421322
20	0x3d0dbdd3	0.03460486
21	0xbcb01e59	-0.021498846
22	0xbd16ca37	-0.03681394
23	0x3bc88324	0.006119149
24	0x3c5ac9ee	0.013353808
25	0x3d028be2	0.031871684
26	0x3cf72f48	0.030173913
27	0x3c10e33e	0.008843241
28	0x3b1730be	0.0023069824
29	0x3b3e9792	0.0029082042
30	0x3c520c5f	0.012820332
31	0xbcbd7f06	-0.023131859
32	0xbcad26fe	-0.021136757
33	0x3cfd603c	0.030929677
34	0x3b56cdfd	0.0032776587
35	0xbc70751f	-0.014676361
36	0xbcc10b9b	-0.023565104
37	0x3d033eb6	0.032042228
38	0xbbca205a	-0.0061684074
39	0xbd29f723	-0.041495454
40	0x3c969c8a	0.01838519
41	0x3d174759	0.036933277
42	0xbcfda225	-0.030961106
43	0x3c3410a8	0.010990299
44	0x3c5b18dc	0.013372626
45	0x3ccdd18b	0.025124332
46	0x3cd22017	0.025650067
47	0xbc96ec86	-0.01842333
48	0xbceeebc2	-0.029165152
49	0x3cad61ba	0.021164764
50	0x3d36bccd	0.04461365
51	0xbcd6384a	-0.026149888
52	0x3d0f0167	0.034913447
53	0x3d37f9bf	0.04491591
54	0xbcacbe04	-0.0210867
55	0xbbbf8a9e	-0.005845382
56	0x3b0c0338	0.0021364223
57	0xbcf9ec7e	-0.030508276
58	0x3bb3fa86	0.005492511
59	0x3d057006	0.032577537
60	0x39e2615b	0.00043178615
61	0x3c937a31	0.018002601
62	0x3b3b45b5	0.0028575484
63	0xbbbfd0e0	-0.0058537573
64	0x3c33382c	0.010938685
65	0xbd2c0750	-0.04199916
66	0xbc65fa52	-0.014036732
67	0x3cea7f4d	0.028625155
68	0xbb499086	-0.0030756309
69	0xbca6459a	-0.02029686
70	0x3c7e4c86	0.015521174
71	0x3b99b9ca	0.0046913372
72	0xbc18b79b	-0.009321119
73	0xbcbf856a	-0.023379046
74	0xbc871673	-0.016490197
75	0x3c1faa3a	0.009745175
76	0x3b99c265	0.004692363
77	0xbc2c815d	-0.0105288895
78	0x3d224384	0.03961517
79	0xbc96e595	-0.01842002
80	0xbd046ebf	-0.03233218
81	0xbd2a925b	-0.04164348
82	0xbcbaea69	-0.022816854
83	0xbc0f73b5	-0.008755614
84	0x3c98044d	0.018556738
85	0xbd240eff	-0.040053364
86	0xbd19dca5	-0.03756394
87	0xbcc69631	-0.024241539
88	0x3cb53308	0.02211906
89	0xbccdee15	-0.02513794
90	0x3c8ac30d	0.01693871
91	0x3c862bfa	0.016378392
92	0xbc65e418	-0.014031433
93	0xbccad7b5	-0.02476106
94	0x3c53a80d	0.012918484
95	0xbd0e2dab	-0.03471152
96	0xbd29f32d	-0.041491676
97	0xbd2b1593	-0.04176862
98	0x3d27eb62	0.040995963
99	0xbc651b97	-0.013983629
100	0xbcb07b1e	-0.021543082
101	0xbc552156	-0.013008436
102	0xbd138130	-0.036011875
103	0xbd210e18	-0.03932008
104	0xbc4c6303	-0.012474778
105	0x3cd4ae8b	0.025962135
106	0xbc3b80e0	-0.0114443
107	0x3d1a8f81	0.037734512
108	0xbbabc57f	-0.005242049
109	0xbc48eb9c	-0.012263205
110	0xbd17f548	-0.037099153
111	0x3d34a0e2	0.044098742
112	0x3c543f7e	0.012954591
113	0x3d369fae	0.044585876
114	0x3c63c54e	0.013902022
115	0x3d0bac29	0.03409973
116	0xbaf5174d	-0.0018698961
117	0x3d101bda	0.03518281
118	0x3a695c86	0.00089020317
119	0x3d0a3eeb	0.03375141
120	0x3cd94780	0.026523352
121	0x3cb0bdb2	0.021574829
122	0x399a9e01	0.0002949089
123	0x3cce0812	0.025150333
124	0xbcc85cce	-0.024458315
125	0xbc1d0c05	-0.009585385
126	0x3ccf5cb3	0.025312757
127	0x3c73a97d	0.014871952
128	0x3c9ae7b1	0.018909307
129	0xbccc4ff5	-0.02494047
130	0xbb1ad967	-0.0023628117
131	0x3b93ae88	0.0045068897
132	0xbc0a4362	-0.008438917
133	0xbcb668d8	-0.02226679
134	0x3b43d2dc	0.002988032
135	0xbcbd9254	-0.023141064
136	0xbcdcf2a7	-0.026971174
137	0x3d21a319	0.039462183
138	0x3cd84a6e	0.026402678
139	0xbc76d6a4	-0.015065823
140	0x3cff969b	0.031199744
141	0xba8a7e7d	-0.0010566261
142	0x3d098e0a	0.033582725
143	0xbc579af7	-0.013159505
144	0x3abd3c5b	0.0014437543
145	0xbce08eb4	-0.027411796
146	0x3d3161fc	0.043306336
147	0xbc6767e2	-0.014123889
148	0x3c96fa68	0.01842995
149	0xbce43b93	-0.027860438
150	0xbd0b1aaf	-0.033960994
151	0xbbd339f0	-0.0064461157
152	0xbced5239	-0.02896987
153	0x3b6cef95	0.0036153544
154	0x3c96a6cf	0.018390087
155	0x3cd5f8d2	0.026119623
156	0x3c1ddb24	0.009634767
157	0x3cdb8c1c	0.026800208
158	0x3d2307f7	0.039802518
159	0x3cef568c	0.029216073
160	0x3d1a260c	0.03763394
161	0x3b836ec2	0.004011006
162	0xbb2ab06f	-0.0026045104
163	0x3caeb791	0.021327766
164	0xbc71b2d5	-0.01475211
165	0xbd2ad2cc	-0.041704938
166	0x3c7f7dfc	0.015594002
167	0x3bb2342d	0.0054383487
168	0xbcd7ee3a	-0.026358712
169	0x3cea351a	0.028589774
170	0x3c4546e0	0.012040824
171	0x3c2ae4b6	0.0104305055
172	0xbd3390fd	-0.043839443
173	0x3cd948e7	0.02652402
174	0x3c11c519	0.008897089
175	0xbc776825	-0.015100514
176	0xbcfd34d0	-0.030908972
177	0xbc6e03f3	-0.014527309
178	0xbcf1e26b	-0.02952691
179	0xbbaee89d	-0.0053377883
180	0x3c81f35b	0.015863111
181	0xbc58921a	-0.013218427
182	0x3cfbcf22	0.030738417
183	0x3c418bc7	0.011813111
184	0x3d17d96a	0.037072577
185	0x3c97d4c0	0.018534064
186	0xbb3095b3	-0.0026944696
187	0x3d011adc	0.031519756
188	0x3d17c2e3	0.037051093
189	0xbb89ee25	-0.0042092972
190	0xbd1549ab	-0.03644721
191	0xbb5e3a60	-0.0033909306
192	0x3c53cecb	0.012927721
193	0xbcce83dd	-0.025209362
194	0xbd16d823	-0.036827218
195	0xbc51bad8	-0.012800895
196	0x3c800ed4	0.01563207
197	0x3d186dd1	0.037214104
198	0x3cc184fb	0.02362298
199	0xbbcb1b10	-0.0061982945
200	0x3d30b15c	0.043137893
201	0xbb9e2502	-0.004826189
202	0xbc6d6853	-0.014490205
203	0xbc30f76a	-0.010801176
204	0xbc2b0a09	-0.010439404
205	0x3d322e00	0.0435009
206	0xbc826b48	-0.015920296
207	0xbc99188a	-0.018688459
208	0x3cad4155	0.021149317
209	0x3d0e1068	0.034683615
210	0x3d1179b1	0.035516445
211	0xbd2882fe	-0.04114055
212	0xbca4d584	-0.020121343
213	0x3bad8b07	0.0052961144
214	0x3ca0404b	0.019561907
215	0xbd02147e	-0.031757824
216	0xbc789c76	-0.015174022
217	0x3d30edf8	0.043195695
218	0x3baa118e	0.005190081
219	0xbc9a6bfb	-0.018850317
220	0xbb1b4af7	-0.0023695806
221	0xbc5847f2	-0.013200747
222	0xbc1bda72	-0.009512531
223	0x3d0d20a9	0.034454975
224	0x3c249f3f	0.010047733
225	0x3cba891c	0.022770457
226	0xbc898c2a	-0.016790468
227	0x3c86b5a8	0.016444042
228	0x3c9c7c23	0.019102162
229	0x3cd1cbaa	0.02560981
230	0x3d0edfc4	0.03488137
231	0xbc2e751e	-0.01064804
232	0x3cce6752	0.025195751
233	0xbb8bb529	-0.0042635393
234	0x3cad444b	0.021150729
235	0xbd1061c9	-0.035249505
236	0x3c1027cb	0.00879855
237	0x3c2a1ee1	0.010383339
238	0x3d287a57	0.041132297
239	0x3c8d8775	0.017276505
240	0x3c0146d9	0.007890427
241	0x3cbe249c	0.023210816
242	0xbd0e2500	-0.034703255
243	0xbc5a1bed	-0.013312322
244	0x3ced39dc	0.028958254
245	0xbd2959e1	-0.04134548
246	0x3ccaf6d0	0.024775892
247	0x3c18a828	0.009317435
248	0xbd12ee59	-0.035871837
249	0x3ca62d64	0.020285316
250	0x3ce4486d	0.027866567
251	0x3d10a302	0.035311706
252	0x3c3b9f59	0.011451566
253	0xbd2270b2	-0.039658256
254	0xbbcf95f1	-0.006335013
255	0x3d156946	0.03647735

siam_layer.conv4.bias f4 [3]
0	0xbc941ae2	-0.018079225
1	0x3cc0b3c4	0.023523219
2	0xbd10aa7e	-0.035318844

siam_layer.conv5.weight f4 [1, 3, 6, 6]
0	0xbdb371c2	-0.08761932
1	0xbd37cad2	-0.04487116
2	0x3c1acf3f	0.009448825
3	0x3da1be8c	0.07897672
4	0xbc2336d2	-0.009961801
5	0x3d6c5bad	0.057704616
6	0x3d802f04	0.062589675
7	0x3cc4ee1e	0.024039324
8	0xbd7296c1	-0.0592258
9	0xbd13d902	-0.036095627
10	0xbdb800b0	-0.08984506
11	0x3d996c5a	0.074913695
12	0xbdb8ca1d	-0.09022925
13	0x3c881663	0.016612237
14	0xbd8d319d	-0.068942286
15	0x3d50be4b	0.050962728
16	0x3d950cbe	0.07277821
17	0xbcc7c0e0	-0.024383962
18	0xbc6c4454	-0.014420588
19	0xbd06477b	-0.032783013
20	0xbc9b6531	-0.01896915
21	0xbdc3f624	-0.09568432
22	0xbd6f9354	-0.058490112
23	0xbd2aefa9	-0.041732464
24	0x3c9b0671	0.01892397
25	0x3d648419	0.05579004
26	0x3d167e82	0.03674174
27	0x3c3652ad	0.01112811
28	0xbda2b7d6	-0.0794522
29	0xbcc4ad3c	-0.024008386
30	0xbd450758	-0.048102707
31	0xbcfa0ff9	-0.030525194
32	0x3ce27713	0.02764467
33	0xbd883de1	-0.066524275
34	0x3d8a81da	0.067630485
35	0x3d505ad6	0.050867878
36	0x3d494616	0.049139105
37	0xbd862e27	-0.065517716
38	0xbcc3ad12	-0.023886237
39	0xbd0bd4f8	-0.03413865
40	0x3ce5e887	0.02806498
41	0xbbae6b59	-0.0053228554
42	0xbc9b1fe5	-0.018936107
43	0xbb0ec670	-0.0021785758
44	0x39818316	0.00024702464
45	0x3cea6dcc	0.028616808
46	0xbca4400f	-0.020050077
47	0xbcc5291e	-0.024067458
48	0x3d964706	0.073377654
49	0x3db19b33	0.0867218
50	0x3c9d15db	0.01917546
51	0x3db03433	0.08603706
52	0xbda193de	-0.078895316
53	0x3dbfcf54	0.093657166
54	0xbda121c3	-0.07867768
55	0xbd8052b9	-0.06265778
56	0xbbfd4dd0	-0.0077302232
57	0xbd95efef	-0.07321154
58	0xbd1e17e8	-0.038597018
59	0xbd53a2e4	-0.051669016
60	0xbda59e94	-0.08086887
61	0x3d7c2487	0.061558273
62	0x3d9ff52a	0.07810433
63	0x3b933d42	0.0044933865
64	0x3cd1e51c	0.025621943
65	0xbcacfe70	-0.021117419
66	0xbd250a70	-0.040293157
67	0xbc5245a6	-0.012833988
68	0x3d8a4678	0.06751722
69	0x3dbc4e7b	0.091946565
70	0x3c630ed8	0.0138585195
71	0xbbd1adff	-0.006398916
72	0x3db8f36a	0.090308025
73	0x3be94bfe	0.0071196547
74	0xbdc5b2fe	-0.09653281
75	0xbd6f4057	-0.05841097
76	0xbc39a541	-0.0113309035
77	0xbcbd5fa9	-0.023116903
78	0x3db629f6	0.08894722
79	0xbd5d243a	-0.053989626
80	0x3ca3568d	0.019938732
81	0xbc33b91d	-0.010969427
82	0x3d7f1f5e	0.062285773
83	0x3d491740	0.04909444
84	0x3c70cf11	0.014697806
85	0xbcbb09b0	-0.022831768
86	0xbd5ba82b	-0.053627174
87	0xbdbbeec2	-0.09176399
88	0x3d4833b5	0.048877437
89	0x3d14f882	0.036369808
90	0x3d207767	0.03917637
91	0x3cd4324c	0.02590289
92	0x3da476ff	0.08030509
93	0x3cf600b4	0.030029632
94	0x3c1ce0c5	0.009575074
95	0xbd24a189	-0.040193114
96	0x3d83619a	0.064151004
97	0xbd7e44e8	-0.062077433
98	0x3cb3a226	0.021927904
99	0x3cef45a7	0.029208018
100	0xbba778e8	-0.0051108487
101	0x3d9e56a2	0.07731368
102	0x3d492b43	0.049113523
103	0xbdad0117	-0.084474735
104	0xbd0e608a	-0.034760036
105	0xbd1e87bf	-0.038703676
106	0x3d305b17	0.04305562
107	0x3c09a66e	0.008401496

siam_layer.conv6.weight f4 [1, 3, 6, 6]
0	0xbc310e59	-0.010806643
1	0xbc169262	-0.009190174
2	0x3d718b6e	0.05897086
3	0xbcb5708e	-0.022148397
4	0x3d8d0ee0	0.06887603
5	0xbda70d8e	-0.08156882
6	0x3da038e3	0.0782335
7	0x3cf42430	0.029802412
8	0x3d280149	0.04101685
9	0xbd7da60e	-0.06192594
10	0xbdbc1919	-0.091844745
11	0xbdc428d3	-0.09578099
12	0xbc31641f	-0.010827093
13	0x3dbf8c8d	0.0935298
14	0x3dc0cddf	0.09414267
15	0x3bf28688	0.0074012913
16	0x3dbb001b	0.091308795
17	0xbdb74d2d	-0.08950267
18	0xbb71209e	-0.0036793123
19	0x3d93c329	0.07214958
20	0x3d0057fc	0.03133391
21	0x3db98e5d	0.09060357
22	0x3cd3eafa	0.025868881
23	0xbdc33cbb	-0.09533068
24	0xbdb1ae36	-0.08675806
25	0x3c4bad57	0.012431464
26	0xbd5418cd	-0.051781464
27	0x3c8398f2	0.016064141
28	0x3cfdd7b3	0.030986642
29	0x3dbbca75	0.09169475
30	0x3cb5e739	0.022204982
31	0x3b8dc2b2	0.004326188
32	0xbda4dbf8	-0.08049768
33	0x3db7653a	0.08954854
34	0x3d62964b	0.05531911
35	0xbd42ef36	-0.04759141
36	0xbd96b9df	-0.07359671
37	0xbd67774f	-0.056510266
38	0x3af284d3	0.001850272
39	0xbcfb3b5f	-0.030667959
40	0xbd079e3b	-0.033109885
41	0xbdac8f25	-0.0842574
42	0xbd304b3d	-0.043040503
43	0xbd22eebb	-0.039778452
44	0x3d68e563	0.056859385
45	0x3d465266	0.048418425
46	0x3d32f205	0.04368784
47	0xbbc8317f	-0.006109416
48	0xbd9d2a52	-0.076740876
49	0xb9c59834	-0.00037688168
50	0x3d67cb0f	0.056590136
51	0x3d02bb1e	0.03191673
52	0x3d243fa4	0.040099755
53	0x3d874d73	0.06606569
54	0xbc99af32	-0.018760297
55	0xbca078a3	-0.019588774
56	0xbc485fe5	-0.012229894
57	0xbc8d60d0	-0.017258078
58	0xbd499d5f	-0.049222346
59	0xbd6e35fe	-0.05815696
60	0x3d9cb932	0.07652511
61	0x3d639b41	0.055567984
62	0xbd8a39af	-0.067492835
63	0x3c384a90	0.011248246
64	0xbd467d3c	-0.048459277
65	0xbbe46ea3	-0.0069711967
66	0xbd9e86ec	-0.07740578
67	0xbd9e9744	-0.077436954
68	0x3dad4d56	0.08462016
69	0x3d4e2152	0.050324745
70	0x3d806b75	0.06270496
71	0x3d0d5f07	0.034514453
72	0xbd96e735	-0.07368318
73	0xbd1ff358	-0.03905043
74	0x3d511f84	0.051055446
75	0xbc4ced9a	-0.0125078205
76	0xbd97ccf8	-0.074121416
77	0xbdc374f6	-0.09543793
78	0xbdc4e817	-0.0961458
79	0xbd35a31c	-0.044345006
80	0x3d378012	0.04479987
81	0x3db1117a	0.086459115
82	0x3d4a46d8	0.049383968
83	0xbd656046	-0.056000017
84	0xbd31b1c3	-0.043382417
85	0x3c8922f8	0.016740307
86	0xbdc1fdbb	-0.09472223
87	0xbdb012c6	-0.08597331
88	0xbd973098	-0.073823154
89	0x3ce2f906	0.027706634
90	0xbd0198e5	-0.031639952
91	0xbd1da373	-0.038485955
92	0x3d9afc64	0.07567671
93	0x3d6bf9eb	0.057611387
94	0x3cf2a8c4	0.02962149
95	0xbd5dbcf0	-0.054135263
96	0xbcf9e031	-0.03050241
97	0x3b3aa580	0.0028479993
98	0xbd4fcdf1	-0.05073351
99	0xbd5167b3	-0.051124286
100	0xbdc3c53b	-0.09559103
101	0xbd78b090	-0.060715258
102	0xbdb91225	-0.09036664
103	0x3d749a66	0.05971756
104	0x3c3ed8e4	0.01164839
105	0xbcd53a88	-0.026028886
106	0x3da2e0f8	0.07953066
107	0xbd2210a6	-0.03956666

siam_layer.conv7.weight f4 [1, 2, 6, 6]
0	0x3ced3b8a	0.028959054
1	0x3d8230d5	0.0635697
2	0xbdab6352	-0.08368553
3	0x3de15083	0.110016845
4	0x3c52aaa1	0.012858064
5	0x3da49d15	0.080377735
6	0x3d0c7bad	0.034297634
7	0xbdcf5ed9	-0.10125513
8	0xbda447a0	-0.08021474
9	0xbd93f302	-0.072240844
10	0x3dc121bc	0.094302624
11	0xba975418	-0.0011545448
12	0xbd61e7d3	-0.055152725
13	0x3ad01d95	0.0015877957
14	0xbde4752c	-0.11155161
15	0x3dba0f32	0.090849295
16	0xbde50529	-0.11182625
17	0xbc1ad0c8	-0.009449191
18	0xbd2b81c4	-0.0418718
19	0xbcad30d2	-0.021141443
20	0xbde48195	-0.11157528
21	0x3c8e9153	0.01740328
22	0x3de4dc71	0.11174858
23	0xbcc85dd2	-0.0244588
24	0x3cbe8b62	0.023259822
25	0x3c82cebd	0.015967721
26	0x3dac9ea2	0.08428694
27	0xbc814bef	-0.015783278
28	0x3ddca8b3	0.10774364
29	0x386a9787	5.593107e-05
30	0xbdb85625	-0.09000806
31	0x3cf01207	0.029305471
32	0x3bd2561e	0.0064189574
33	0xbcc2e38b	-0.023790142
34	0xbdc3bb47	-0.09557205
35	0x3d3f7346	0.046740793
36	0x3dba80f1	0.09106625
37	0xbd109fa2	-0.035308488
38	0xbddb517f	-0.107089035
39	0xbd857e46	-0.06518225
40	0x3d25f854	0.040520027
41	0x3db75f30	0.089537024
42	0x3d68ae27	0.05680671
43	0x3d86f428	0.06589538
44	0xbd8354a3	-0.064126275
45	0xbd8ca7f9	-0.06867976
46	0x3de1db39	0.110281415
47	0xbdc99e54	-0.09844652
48	0xbddb3fe4	-0.107055455
49	0x3c0f15c3	0.008733216
50	0xbdc2760f	-0.09495174
51	0xbbee7653	-0.007277289
52	0x3d10d8a5	0.03536286
53	0xbdb87f95	-0.09008709
54	0xbd4ff6a7	-0.050772335
55	0x3deaf2e0	0.11472106
56	0xbde6cadb	-0.1126916
57	0xbdbfdca8	-0.09368259
58	0xbdbc96f7	-0.09208482
59	0xbc974489	-0.018465297
60	0x3ce58e19	0.028021859
61	0x3ce25a25	0.027630875
62	0x3dccd610	0.10001767
63	0x3d08d27d	0.033403862
64	0xbdc9d966	-0.098559186
65	0x3d10962f	0.035299476
66	0xbde9bb5a	-0.114126876
67	0xbd9aecd4	-0.07564703
68	0xbc7d1bcd	-0.015448523
69	0x3d8dde43	0.06927159
70	0x3ccbe432	0.024889085
71	0x3dda4123	0.10656955

dense.weight f4 [1, 308]
0	0xbd090ef9	-0.033461545
1	0x3d239dd0	0.039945424
2	0xbd146b1f	-0.03623497
3	0x3d474eb6	0.04865905
4	0xbc851ada	-0.016248155
5	0x3c913251	0.017724188
6	0x3c438e92	0.011935847
7	0xbbd82670	-0.006596379
8	0x3b131cdf	0.0022447628
9	0xbb4426bf	-0.002993032
10	0xbd3f4de5	-0.046705145
11	0xbcbe7f31	-0.023254009
12	0xbbbaacc3	-0.0056968643
13	0x3cb7d2a0	0.022439301
14	0xbd24ab6e	-0.04020255
15	0xbd0d435f	-0.03448808
16	0xbd0285ea	-0.03186599
17	0xb9ce913c	-0.0003939959
18	0x3ca1697a	0.019703615
19	0x3c2c74ee	0.010525925
20	0xbd22ae14	-0.039716795
21	0x3d05c312	0.032656737
22	0x3c7c8007	0.0154113835
23	0x3d1f16d2	0.038840123
24	0xbd1ede66	-0.038786314
25	0xba5afbc5	-0.00083535566
26	0xbb7de9ae	-0.003874402
27	0x3cd7f52c	0.026362024
28	0xbcbdd598	-0.023173138
29	0x3d1fed99	0.03904495
30	0x3cc7e812	0.024402652
31	0x3c961a59	0.01832311
32	0xbcdf1498	-0.0272315
33	0xbc3352d6	-0.010945043
34	0xbc85bc39	-0.016325103
35	0xbd0e5b94	-0.034755304
36	0xbd091a4d	-0.033472348
37	0x3b10cdf4	0.0022095414
38	0x3cb2ab16	0.021810096
39	0x3c20ba35	0.00981002
40	0xbc4675ce	-0.012113048
41	0x3b0c2572	0.0021384624
42	0x3c9c5751	0.019084604
43	0xbc9efc5c	-0.019407444
44	0xbd446a4c	-0.047952935
45	0xbd51a383	-0.051181328
46	0x395f14b3	0.00021274648
47	0x3b5a54cc	0.0033314703
48	0x3b1fdc0c	0.0024392633
49	0x3cfe2534	0.0310236
50	0x3d423023	0.047409188
51	0xbd535b9f	-0.05160105
52	0xbc8fe3f3	-0.01756475
53	0xbb36d25c	-0.002789638
54	0xbd294f7a	-0.04133556
55	0x3bb524e1	0.005528078
56	0xbd4f7ca2	-0.05065597
57	0xbd41b7f2	-0.047294565
58	0x3cedaae1	0.029012145
59	0x3d613088	0.054977924
60	0x3d4d7bf3	0.050167035
61	0xbd387486	-0.045033
62	0x3be28e0c	0.006913906
63	0x3d303356	0.043017708
64	0x3c00999e	0.007849125
65	0x3d2411cd	0.04005604
66	0x3d5147c6	0.05109384
67	0x3d181131	0.03712577
68	0xbd1e17d3	-0.03859694
69	0xbc32a2f6	-0.010903111
70	0x3ccd8aa9	0.025090532
71	0x3c021950	0.007940605
72	0xbcaa083c	-0.02075588
73	0xbbfb37ed	-0.007666579
74	0xbc5ad6a4	-0.013356838
75	0x3d5f0aca	0.05445365
76	0xbd0c6621	-0.034277085
77	0x3d2d6ce3	0.04234017
78	0xbd44e1ff	-0.04806709
79	0x3d2393e4	0.03993596
80	0xbce38709	-0.02777435
81	0x3a8e5a8a	0.0010860723
82	0xbc6f76bc	-0.014615711
83	0x3bb34c01	0.005471707
84	0xbc262809	-0.010141381
85	0x3c9018dc	0.017589979
86	0xbd32ffc1	-0.043700937
87	0xbc6b1ddc	-0.014350381
88	0xbc8ba13f	-0.017044662
89	0xbd5b2058	-0.053497642
90	0x3c03518a	0.008015046
91	0x3d087ded	0.033323217
92	0xbc1cd9a7	-0.009573377
93	0xbd0acd2d	-0.033887077
94	0xbd534661	-0.05158079
95	0x3cee5fdb	0.029098442
96	0xbd6129c6	-0.05497148
97	0x3bc47857	0.005995791
98	0xbd053743	-0.032523405
99	0x3d591bea	0.053005137
100	0x3c95949f	0.018259345
101	0x3d1e86df	0.03870284
102	0x3d30f86e	0.04320567
103	0xbcd5d146	-0.026100766
104	0xbd06b161	-0.032884005
105	0xbb028a04	-0.001991869
106	0xbbd99020	-0.0066394955
107	0xbd4f1811	-0.05056006
108	0x3cac67ec	0.021045648
109	0xbd4048d1	-0.046944443
110	0x3ca1effb	0.019767752
111	0xbc968e89	-0.018378513
112	0x3bfdf936	0.0077506555
113	0xbd0aa165	-0.033845324
114	0x3c5ae670	0.013360605
115	0x3b91e0ca	0.004451846
116	0xbc95977e	-0.018260714
117	0x3d125ec0	0.035734892
118	0x3d00086d	0.031258035
119	0xb8011f2f	-3.078504e-05
120	0xbd26163a	-0.04054854
121	0xbd46f89b	-0.048576932
122	0x3b7183bf	0.0036852208
123	0x3d1fd900	0.039025307
124	0xbccca668	-0.024981692
125	0xbcd38fe8	-0.025825456
126	0xbd5a9b87	-0.05337098
127	0xbd5212a9	-0.051287327
128	0xbc4dcd38	-0.012561135
129	0x3bb4d07c	0.0055180173
130	0x3b12af89	0.002238246
131	0xbc60fd91	-0.01373233
132	0xbcd4999a	-0.02595215
133	0xbd534ec2	-0.05158878
134	0x3d38e605	0.04514124
135	0xbd36ef64	-0.044661894
136	0x3d05f6d7	0.032706108
137	0x3cd8a557	0.026446028
138	0x3c1b3c01	0.009474755
139	0xbd2a8038	-0.041626185
140	0xbd09f250	-0.033678353
141	0x3cd2e278	0.025742754
142	0xbd51979e	-0.051169984
143	0x3cacdea5	0.021102259
144	0xb9ebdf1d	-0.00044988925
145	0xbd1fb7dc	-0.0389937
146	0xbc1c444f	-0.00953777
147	0x3cf5ea41	0.030018928
148	0xbd54a6aa	-0.051916756
149	0x3c7f3330	0.015576169
150	0x3aa46e45	0.001254507
151	0xbd45bfc7	-0.048278596
152	0xbcdf77a9	-0.027278738
153	0x3cc2596c	0.02372428
154	0x3c89ad0e	0.016806152
155	0x3b942a57	0.004521649
156	0x3b65d219	0.0035067855
157	0x3d6335fe	0.055471413
158	0x3ce15a03	0.027508741
159	0x3d38950b	0.045064013
160	0x3d289305	0.041155834
161	0x3d53b496	0.051685892
162	0xbd60b584	-0.054860607
163	0xbc34259f	-0.010995298
164	0x3d1e1e9e	0.038603418
165	0x3d0e489e	0.034737222
166	0xbc18e196	-0.009331128
167	0x3d5891aa	0.05287329
168	0x3d28324b	0.041063588
169	0xbc9e1dff	-0.019301413
170	0xbd4f8d33	-0.050671767
171	0x3cb0e4bb	0.021593442
172	0x3d055fc6	0.03256204
173	0xb9f10098	-0.00045967544
174	0x3d5f3254	0.054491356
175	0xbc6535fa	-0.01398992
176	0xbc9b8b03	-0.018987184
177	0x3d471111	0.04860026
178	0x3cf8a7d9	0.030353473
179	0x3d309b90	0.043117106
180	0xbd56d0ce	-0.052445225
181	0x3d27b5c7	0.04094484
182	0xbc5a3202	-0.013317587
183	0xbd3834bc	-0.044972166
184	0x3d2d855c	0.04236351
185	0x3cfcaf48	0.0308453
186	0x3d1a0ca5	0.037609715
187	0x3bb19e4a	0.005420481
188	0x3bd12d77	0.0063835937
189	0x3d0fe743	0.035132658
190	0xbcd428f7	-0.02589844
191	0xbcaff794	-0.02148036
192	0x3b89501e	0.004190459
193	0xbbafb031	-0.00536158
194	0x3c8e6816	0.017383616
195	0x3ac900aa	0.0015335281
196	0x3d207980	0.03917837
197	0xbc35d110	-0.011097208
198	0x3d53f3fe	0.05174636
199	0x3d634b46	0.05549171
200	0xbbc8d1b9	-0.0061285165
201	0x3cc5d0cc	0.024147414
202	0x3c65a366	0.014016008
203	0x3d0daba4	0.034587517
204	0xbcf7e969	-0.030262666
205	0x3d18a765	0.037269015
206	0x3d357bb8	0.04430744
207	0xbc911885	-0.017711887
208	0x3cfa64b6	0.0305656
209	0xbc80da9f	-0.015729247
210	0xbd1df4be	-0.038563482
211	0x3d1dba79	0.038507912
212	0xbcb6b5e6	-0.022303533
213	0x3d0fa3fd	0.0350685
214	0xbd1792ca	-0.037005223
215	0x3cd653b9	0.026162969
216	0xbcd1bda1	-0.025603117
217	0x3d583a2f	0.052789863
218	0xbd22f7e2	-0.03978718
219	0xbcd34a99	-0.025792407
220	0x3d434951	0.04767734
221	0x3c9c7e74	0.019103266
222	0x3cf0ac1b	0.029378941
223	0x3cb78661	0.022402944
224	0xbd006be9	-0.03135291
225	0x3c64cbe0	0.013964623
226	0x3d3ba3dd	0.04581057
227	0x3c8c0ae8	0.017095044
228	0x3b26caf5	0.0025450562
229	0xbd12d2ca	-0.035845555
230	0x3d5bcf2f	0.053664383
231	0x3ce0b6bb	0.027430883
232	0xbc0bec50	-0.008540228
233	0xbcbacba1	-0.022802176
234	0x3d5ea175	0.054353196
235	0xbcbff436	-0.023431879
236	0xbcae86ca	-0.021304507
237	0x3d0b5705	0.034018535
238	0xbd6572d6	-0.05601772
239	0xbc32aad9	-0.010904991
240	0x3d1f2a0f	0.03885847
241	0xbd0520c0	-0.032501936
242	0x3cd43f09	0.025908964
243	0xbce82669	-0.028338628
244	0x3cefa530	0.029253572
245	0xbd41a74c	-0.047278687
246	0x3c8b8748	0.01703228
247	0x3d1fc58b	0.03900675
248	0xbc00f2c3	-0.007870379
249	0x3c8411b5	0.016121725
250	0x3caf5fec	0.021408044
251	0x3cbfd4ec	0.023416959
252	0x3d07174a	0.032981195
253	0xbd34708d	-0.04405265
254	0xbd48a68d	-0.04898696
255	0xbc5614ac	-0.013066452
