siamese-classifier/siam_v3_61.pth (torch, 104363 bytes, 12 tensors)

siam_layer.conv1.weight f4 [14, 31, 6, 6]
-0.0012762138 -0.014591792 0.005007061 -0.0023453324 0.026761094 0.0011390194 0.0053129215 -0.013023976
-0.019220717 -0.029511636 -0.024813915 0.026033984 -0.026680294 -0.0055750185 0.0027723722 0.0075834473
-0.0010175988 -0.0181899 -0.023909882 0.00494858 0.004524563 0.0012764932 0.018232744 0.025170345
-0.014782226 -0.016273303 -0.024304565 -0.0022640254 0.0248344 0.025689194 0.027793365 0.01968008
-0.01905339 0.018033018 0.01277761 -0.009875598 -0.0023462884 0.020397147 -0.016948996 0.0024952688
0.014153713 -0.0033802858 0.023823977 0.002411524 -0.0053720227 -0.0019375372 0.01906255 -0.024178749
0.003484589 0.025212374 -0.015029564 0.010335467 0.020226879 -0.012242248 -0.021618718 -0.025878808
-0.0023308834 0.020984516 -0.009788119 0.018409131 0.012880527 0.010917729 -0.006414826 0.016777422
-0.02890459 -0.025501514 0.028343525 -0.02193414 -0.028770754 0.021273531 -0.015527303 -0.026601015
-0.022779603 0.012247624 -0.022141444 0.027709104 -0.0040180758 -0.024563659 -0.027340462 0.01954252
0.018875688 -0.010161174 -0.0013579999 -0.008287128 0.007913543 0.015614031 0.021500912 0.0152966045
0.006567772 -0.018982947 -0.028527439 0.024254382 0.014622349 0.012094579 -0.027858466 -0.0027361715
-0.0053306282 -0.019091288 -0.024504382 -0.02522444 0.019407444 -0.023578105 -0.0125404075 0.00641635
-0.026889699 -0.020402463 -0.007981859 -0.017341033 -0.0152139 0.00083255523 0.028635597 0.004016958
-0.027021682 -0.017145151 0.022465324 0.01620517 -0.018473161 0.0013308959 -0.029866034 -0.026203707
-0.017526446 -0.012195801 -0.029647097 0.0021032637 -0.026728394 0.0020946038 -0.0077423723 -0.026663039
-0.016600588 0.0095867375 0.007427714 0.007885642 -0.029750085 0.008371029 -0.02606701 -0.020624565
-0.009915031 -0.0012614464 0.013933566 0.023852263 0.018101243 0.012237812 -0.013522775 -0.013933184
-0.007977358 -0.0040768106 -0.015463024 -0.025170421 -0.015909037 0.011009002 0.015477015 0.017819952
-0.028170493 -0.025868285 0.017433517 0.015683237 -0.012855799 0.017422454 -0.017973337 0.0024874036
0.014337294 0.0098966295 0.024418995 0.021602685 -0.026854243 0.021088993 -0.025169248 0.009451044
-0.022098469 -0.015089007 0.028370455 0.015433639 -0.005158672 0.026020389 -0.00014335498 0.0022021763
0.01021458 -0.0034331765 0.008130148 -0.024906527 -0.0008377028 0.021909405 -0.008394096 -0.011066183
0.008223813 0.005644934 -0.017267443 0.011869591 -0.023260016 0.019023042 -0.023370383 -0.021986865
-0.017893737 0.017034315 0.016179178 -0.018139815 0.00412146 -0.024678336 -0.00040354583 -0.018846054
-0.008411388 0.017882042 -0.028343745 0.02486281 0.001724178 -0.005209998 0.018457614 0.028098967
-0.027797416 0.0067158174 0.027164297 0.015023119 0.0016728356 0.014639009 -0.024288492 0.010016785
0.023746734 -0.013784813 0.018359935 -0.0021574777 0.022279501 -0.011688624 0.024969293 -0.00834777
-0.019431781 0.0061547216 0.010541365 0.00789878 -0.029535092 0.029181978 -0.015575423 -0.006838202
-0.012744055 0.0026111524 -0.016001264 0.004728929 -0.029114567 -0.006798635 -0.027437575 0.0057734847
-0.0016719196 0.014106874 -0.022882596 0.013132923 0.026618367 0.0044611 -0.014842019 -0.0071972087
0.00026847215 -0.010523304 -0.010141926 -0.028117804 0.020509616 0.009968078 0.00863005 -0.002837947
00000000: a146 a7ba 6912 6fbc 4612 a43b 26b4 19bb
00000010: 153a db3c 264b 953a 0418 ae3b 8462 55bc
00000020: c474 9dbc 63c2 f1bc 8d46 cbbc 3945 d53c
00000030: a290 dabc a5ae b6bb b0b0 353b 917e f83b
00000040: f360 85ba fc02 95bc a8de c3bc b327 a23b
00000050: c942 943b 0150 a73a d65c 953c 0a32 ce3c
00000060: 2631 72bc 974f 85bc 5e1a c7bc 0b60 14bb
00000070: 8371 cb3c 2572 d23c e9ae e33c 1e38 a13c
00000080: db15 9cbc fbb9 933c 2e59 513c 43cd 21bc
00000090: 30c4 19bb eb17 a73c 9fd8 8abc aa87 233b
000000a0: fae4 673c c987 5dbb 802a c33c a90a 1e3b
000000b0: cb07 b0bb f6f4 fdba 1129 9c3c 8312 c6bc
000000c0: b45d 643b 2e8a ce3c 8f3e 76bc 1756 293c
000000d0: d7b2 a53c b693 48bc bd19 b1bc cbff d3bc
000000e0: bcc1 18bb b8e7 ab3c 595e 20bc bfce 963c
000000f0: d908 533c 46e0 323c 7633 d2bb ce70 893c
00000100: 52c9 ecbc 8de8 d0bc ae30 e83c 3aaf b3bc
00000110: a5b0 ebbc d445 ae3c 3b66 7ebc 5fea d9bc
00000120: 4a9c babc 42aa 483c f961 b5bc 34fe e23c
00000130: 10aa 83bb ba39 c9bc 1bf9 dfbc a317 a03c
00000140: 30a1 9a3c 0e7b 26bc eafe b1ba bcc6 07bc
00000150: cea7 013c fed1 7f3c ae22 b03c 9c9e 7a3c
00000160: 7736 d73b 2082 9bbc 60b2 e9bc 20b1 c63c
00000170: 9492 6f3c 5728 463c 7037 e4bc 5751 33bb
00000180: 8dac aebb 5565 9cbc 6abd c8bc 7ca3 cebc
00000190: 5cfc 9e3c df26 c1bc 4876 4dbc 3f40 d23b
000001a0: c947 dcbc 1123 a7bc 58c6 02bc c80e 8ebc
000001b0: b943 79bc d63f 5a3a 3395 ea3c b0a0 833b
000001c0: 935c ddbc fd73 8cbc 3309 b83c b4c0 843c
000001d0: 0755 97bc 7571 ae3a 9da9 f4bc 28a9 d6bc
000001e0: 9f93 8fbc e6d0 47bc 78de f2bc e9d6 093b
000001f0: 81f5 dabc 9f45 093b bab3 fdbb 726c dabc
00000200: f5fd 87bc b111 1d3c 2e64 f33b c832 013c
00000210: 73b6 f3bc a426 093c 7b8a d5bc d9f4 a8bc
00000220: a772 22bc 1e57 a5ba 9d49 643c d265 c33c
00000230: 0f49 943c 1b81 483c a18e 5dbc 0248 64bc
00000240: 77b3 02bc c496 85bb a058 7dbc 3332 cebc
00000250: ab53 82bc 1a5f 343c 4e93 7d3c 26fb 913c
00000260: cec5 e6bc bae9 d3bc bcd0 8e3c 227a 803c
00000270: 21a1 52bc 89b9 8e3c d23c 93bc b503 233b
00000280: f8e6 6a3c 7925 223c 580a c83c 1df8 b03c
00000290: 6efd dbbc d3c2 ac3c bd2f cebc 8dd8 1a3c
000002a0: d907 b5bc e237 77bc 2869 e83c 60dd 7c3c
000002b0: 140a a9bb b628 d53c 8f51 16b9 6352 103b
000002c0: 0e5b 273c 25ff 60bb 5034 053c c608 ccbc
000002d0: 4999 5bba 5a7b b33c 6487 09bc f04e 35bc
000002e0: 2cbd 063c 23f9 b83b 7474 8dbc ac78 423c
000002f0: ca8b bebc 36d6 9b3c 3f73 bfbc cc1d b4bc
00000300: e395 92bc 8c8b 8b3c 328a 843c f399 94bc
00000310: 500d 873b 392a cabc 0193 d3b9 0a63 9abc
00000320: ebcf 09bc 5c7d 923c 2431 e8bc 17ad cb3c
00000330: d0fd e13a a2b8 aabb 6c34 973c ce2f e63c
00000340: 68b7 e3bc 5c10 dc3b a987 de3c 8723 763c
00000350: 0c43 db3a 74d8 6f3c a9f8 c6bc 711d 243c
00000360: 8388 c23c b2d9 61bc 9367 963c 7864 0dbb
00000370: 8083 b63c a481 3fbc 678c cc3c 16c5 08bc
00000380: 662f 9fbc 8cad c93b b0b5 2c3c e269 013c
00000390: 94f3 f1bc 0b0f ef3c 0f30 7fbc ff12 e0bb
000003a0: 71cc 50bc de1f 2b3b 1515 83bc 22f5 9a3b
000003b0: ac81 eebc 15c7 debb c4c4 e0bc 802f bd3b
000003c0: 5024 dbba 8520 673c 4874 bbbc 792b 573c
000003d0: c30e da3c 6b2e 923b f12b 73bc 90d6 ebbb
000003e0: b9c1 8c39 f069 2cbc 522a 26bc 4f57 e6bc
000003f0: c803 a83c 2651 233c 0e65 0d3c dafc 39bb

siam_layer.conv1.bias f4 [14]
0.013243269 0.029896725 0.007830504 -0.02579119 0.023425046 0.029426802 -0.021587111 0.00545327
-0.01438779 0.00821913 0.015507054 0.026560917 0.018008836 0.009157915
00000000: 4cfa 583c fae9 f43c 844b 003c 0c48 d3bc
00000010: e2e5 bf3c 7a10 f13c 74d7 b0bc 58b1 b23b
00000020: c4ba 6bbc 88a9 063c 4c11 7e3c 4896 d93c
00000030: 4487 933c 140b 163c

siam_layer.conv2.weight f4 [7, 14, 6, 6]
-0.0133928675 -0.042742703 0.007911702 -0.014513657 -0.006146961 0.009118243 -0.0342989 0.023155745
0.0065487544 -0.039179426 -0.0170687 0.025454564 0.014055995 -0.043793224 0.0058204085 0.04398073
0.011532825 0.019992143 -0.017556038 -0.012434264 0.022659741 0.039743003 0.033602666 0.009125242
-0.009332489 -0.018208345 -0.044261497 0.009698505 0.032032277 0.0012417994 0.03973354 -0.02303015
0.0232479 0.028989727 0.012865786 -0.009335465 -0.040536407 0.03266412 -0.019592458 -0.041303843
0.03919528 0.010474931 -0.019757714 0.033262152 0.021866592 0.03354816 0.029309386 -0.024212552
0.030190231 -0.025620366 -0.034181297 0.016188694 -0.034317862 -0.026843995 0.008429187 0.010987956
-0.033191487 -0.024652263 -0.020265283 -0.0057621985 0.036277592 -0.02583901 -0.0242311 -0.015820703
0.018157309 -0.021997608 -0.044518776 0.007877042 -0.031554725 -0.026448416 0.03955516 0.038184334
-0.033997115 -0.00813643 -0.0105390195 0.013602476 0.026077421 -0.0048145168 0.014954351 0.001397155
-0.011903685 0.0010009378 -0.040559977 0.011654225 0.017999873 -0.011707829 0.008807992 -0.044006772
-0.0077027357 -0.015125776 -0.041513756 -0.016160768 -0.0137666315 0.017308721 0.010498208 -0.034243748
-0.004136367 0.03811805 0.018957838 -0.013939297 0.040534895 0.015752578 0.036160067 0.033987638
-0.0018890442 0.024470706 0.019417776 -0.041736275 0.038280204 -0.011284931 -0.009506117 -0.02233519
0.015796239 -0.043444708 -0.036982596 0.033560324 0.041196845 0.02448482 -0.012995258 0.018720215
-0.024207573 -0.036363453 0.033468593 -0.008109882 -0.0060878335 0.0073116547 0.023915261 0.015062131
-0.01031834 0.010857858 -0.015032249 -0.0038450335 0.025174169 -0.032311376 -0.024234993 -0.0071750027
-0.019935481 -0.0061675087 0.032450687 -0.030829182 -0.025502931 0.015076843 -0.0406697 -0.016277766
-0.025181936 -0.0017531184 -0.02431734 -0.00015790471 0.01546174 -0.0034218032 -0.024309982 -0.018464003
-0.037846934 0.019151483 0.016040472 -0.016241377 -0.0042206137 -0.0049677216 0.034007285 -0.0025935972
-0.019302271 0.0073798117 0.039685678 0.025277684 0.02985701 -0.018238563 -0.021452907 0.023696717
-0.014797515 -0.013579818 0.0146126645 0.0416974 -0.021647835 -0.040253475 0.005436784 -0.021146039
-0.024749463 0.022568252 0.0035068921 -0.031017926 0.0440416 0.021878665 0.028747225 -0.014425289
-0.043183424 0.030895652 -0.03178955 -0.038965955 0.03680344 -0.0051284377 0.0129543925 -0.03081772
0.023956161 0.008616798 0.018312732 0.031637985 -0.0062798806 -0.03750108 -0.009271529 -0.02936776
-0.016653286 -0.03415623 0.006516599 -0.033733334 0.0074138865 0.024665255 0.026793128 -0.027299657
0.008832666 0.008925225 0.03217582 0.028806902 0.008613168 -0.024939114 0.028539274 0.017679503
0.03087327 0.042723205 -0.043499384 -0.002483356 0.025703348 0.022325693 0.012825709 -0.005639857
0.044567913 0.028249353 0.02879499 0.017829938 -0.02572797 -0.010009167 0.009132289 0.0025225137
-0.0130357 0.04183611 -0.014356526 0.03608682 -0.00060328934 -0.017731601 -0.01965046 0.02739145
0.020638434 0.0057020015 0.027331507 0.031307388 -0.03636457 0.03382639 0.0064558284 -0.011642351
-0.027563458 0.020640742 0.04174613 0.026175302 -0.03780864 0.014959255 0.038684756 -0.0379563
00000000: c26d 5bbc f912 2fbd 15a0 013c b1ca 6dbc
00000010: 726c c9bb af64 153c 017d 0cbd 1eb1 bd3c
00000020: ef96 d63b 9b7a 20bd a9d3 8bbc 1786 d03c
00000030: 1e4b 663c 8660 33bd 20b9 be3b 2325 343d
00000040: 2df4 3c3c 90c6 a33c aed1 8fbc 15b9 4bbc
00000050: eca0 b93c 8fc9 223d f3a2 093d 0a82 153c
00000060: 4ce7 18bc ab29 95bc 8b4b 35bd 7ae6 1e3c
00000070: 4734 033d e0c3 a23a a3bf 223d baa9 bcbc
00000080: 6172 be3c dd7b ed3c 05cb 523c c7f3 18bc
00000090: 8109 26bd d0ca 053d 5d80 a0bc 382e 29bd
000000a0: 3b8b 203d 0c9f 2b3c eeda a1bc e53d 083d
000000b0: 9121 b33c cc69 093d 3d1a f03c 6759 c6bc
000000c0: 8151 f73c cde1 d1bc b001 0cbd 279e 843c
000000d0: e390 0cbd f0e7 dbbc 931a 0a3c d406 343c
000000e0: ccf3 07bd 8bf3 c9bc 6103 a6bc d3d0 bcbb
000000f0: d097 143d 55ac d3bc 4d80 c6bc 6b9a 81bc
00000100: a3be 943c 5434 b4bc 5259 36bd b50e 013c
00000110: 873f 01bd 59aa d8bc 9704 223d 2d67 1c3d
00000120: 8f40 0bbd a94e 05bc daab 2cbc ebdc 5e3c
00000130: 51a0 d53c 18c3 9dbb 1803 753c be20 b73a
00000140: ac07 43bc e631 833a 3822 26bd 5df1 3e3c
00000150: 7874 933c 32d2 3fbc 654f 103c 7240 34bd
00000160: 3b67 fcbb 1ad2 77bc 540a 2abd 9663 84bc
00000170: 708d 61bc 05cb 8d3c ad00 2c3c 2c43 0cbd
00000180: 5c8a 87bb ac21 1c3d 784d 9b3c a661 64bc
00000190: eb07 263d 8d0b 813c 941c 143d 9f36 0b3d
000001a0: ce99 f7ba ca76 c83c 0712 9f3c a8f3 2abd
000001b0: b4cb 1c3d 6ee4 38bc 8bbf 1bbc 4af8 b6bc
000001c0: 1d67 813c 14f3 31bd 107b 17bd 8d76 093d
000001d0: 06be 283d 6494 c83c 10ea 54bc 235b 993c
000001e0: f64e c6bc d8f1 14bd 5d16 093d 4fdf 04bc
000001f0: 737c c7bb 9b96 ef3b f0e9 c33c 28c7 763c
00000200: 410e 29bc 28e5 313c d249 76bc f5fc 7bbb
00000210: 0f3a ce3c ef58 04bd 7788 c6bc 491c ebbb
00000220: bc4f a3bc d018 cabb 03eb 043d 7b8d fcbc
00000230: 86eb d0bc dd04 773c 4595 26bd f358 85bc
00000240: 594a cebc e4c8 e5ba 2935 c7bc 3993 25b9
00000250: 3d53 7d3c 5540 60bb ba25 c7bc d241 97bc
00000260: 6305 1bbd 92e3 9c3c 4f67 833c a30c 85bc
00000270: 134d 8abb 45c8 a2bb 394b 0b3d 57f9 29bb
00000280: cc1f 9ebc 59d2 f13b 738d 223d 2513 cf3c
00000290: b096 f43c 0a69 95bc 02be afbc 9e1f c23c
000002a0: 4771 72bc e37d 5ebc f569 6f3c e5ca 2a3d
000002b0: cd56 b1bc d4e0 24bd 0d27 b23b 753a adbc
000002c0: 63bf cabc 0ee1 b83c e3d3 653b 4e19 febc
000002d0: f764 343d e33a b33c 4d7f eb3c 0c58 6cbc
000002e0: 1ae1 30bd e118 fd3c c235 02bd c49a 1fbd
000002f0: 34bf 163d 740c a8bb a93e 543c 7175 fcbc
00000300: b63f c43c 782d 0d3c 9504 963c d596 013d
00000310: 75c7 cdbb bc9a 19bd 9ce7 17bc a894 f0bc
00000320: 796c 88bc 67e7 0bbd 3289 d53b f72b 0abd
00000330: 30f0 f23b ca0e ca3c 437d db3c 88a3 dfbc
00000340: e3b6 103c 1b3b 123c cbca 033d 74fc eb3c
00000350: 3f1e 0d3c 1d4d ccbc 32cb e93c 9bd4 903c
00000360: f1e9 fc3c 87fe 2e3d 692c 32bd cdbf 22bb
00000370: d48f d23c 5fe4 b63c ec22 523c 8dce b8bb
00000380: d88c 363d 306b e73c 79e3 eb3c 1710 923c
00000390: 77c3 d2bc 7dfd 23bc 999f 153c c250 253b
000003a0: b093 55bc 575c 2b3d a237 6bbc c6cf 133d
000003b0: 1026 1eba dd41 91bc 00fa a0bc 0964 e03c
000003c0: ef11 a93c dbd7 ba3b 53e6 df3c 2d3c 003d
000003d0: 04f3 14bd 8a8d 0a3d 6a8b d33b 8fbf 3ebc
000003e0: c3cc e1bc c616 a93c fdfd 2a3d 966d d63c
000003f0: 3cdd 1abd aa17 753c e873 1e3d 1178 1bbd

siam_layer.conv2.bias f4 [7]
0.03018704 0.019988477 -0.017950283 -0.014132177 -0.03968897 0.033790126 -0.021836435
00000000: d04a f73c e0be a33c 790c 93bc a68a 67bc
00000010: e790 22bd 8467 0a3d 53e2 b2bc

siam_layer.conv3.weight f4 [7, 14, 6, 6]
0.009871227 0.024793498 -0.02836232 -0.029848501 0.006344336 0.018638158 0.021965848 0.041968267
-0.029143818 0.020327574 0.012570811 -0.04224917 0.041301847 -0.02804416 -0.003111015 -0.020363083
-0.04047651 -0.04287688 -0.0038904012 -0.012879261 -0.013581086 0.015923196 -0.0281945 0.03510577
-0.029496863 0.0038094989 -0.036531523 -0.018694032 0.012775109 0.02968468 -0.009844107 0.0041144225
0.011630396 -0.026398407 -0.042043008 -0.027383173 -0.014173356 0.032363795 0.006527692 0.003464217
0.022772357 -0.0002028262 0.018876353 0.03738155 0.030154541 0.01602762 -0.021823125 0.0009836975
-0.004767439 0.011029494 -0.010517522 -0.032127712 0.029191837 0.005695189 -0.023390893 -0.027172899
0.024585854 0.023825798 -0.010595526 -0.024015084 0.005617347 0.029468542 0.037040077 -0.03870681
0.033041958 -0.0019613265 0.023928888 -0.037620284 -0.0012542917 -0.027567945 0.036903188 -0.0034976501
-0.017774193 0.01067239 0.041337434 -0.042018432 -0.024889357 -0.04175718 0.02669061 -0.029978411
-0.019453725 -0.035367705 0.019608032 -0.013902758 -0.04238778 0.02273877 -0.03695132 -0.0007383811
0.038720727 -0.036149457 0.013319616 -0.0059300074 0.020679263 -0.039335 0.01087113 -0.013193659
-0.00655764 -0.035204258 0.023913153 -0.020953476 0.025211813 -0.004209053 -0.011557086 -0.040561315
-0.041304298 -0.033473574 0.0010512661 -0.041102886 0.040994335 -0.03748187 -0.013183791 0.011580152
-0.03830911 0.008325109 -0.027304254 -0.011670899 0.015239373 0.04029608 0.028174609 0.024317835
-0.037954178 0.013838273 0.022117618 -0.043221384 -0.006429594 -0.043140054 0.035391115 -0.006716893
-0.0030665717 -0.0050440105 -0.030567624 0.038092252 0.022353128 -0.039822057 -0.024386816 0.03639979
0.025522714 -0.0104067745 -0.015083858 -0.031715248 -0.01619178 -0.006691561 0.022405298 -0.00017840644
0.011473033 -0.024453994 0.0009058444 0.036597103 -0.0081520695 0.030628102 0.03858719 -0.027940663
0.018905709 -0.03545632 0.039058503 -0.03391181 -0.015089728 -0.003811001 -0.040802468 0.037978217
-0.029236421 0.033262588 0.02267067 0.008911498 -0.0056801466 -0.04066624 -0.020267729 -0.03125604
-0.039390564 -0.008166973 0.006826265 0.01409017 -0.027718022 0.008914441 -0.008153577 -0.016036285
-0.042533252 -0.0040239664 -0.038163144 -0.02955812 0.044091642 0.004286858 -0.014794722 0.022829609
-0.029612264 0.0117995525 -0.01462375 0.02889994 -0.029191233 0.012396025 0.027457258 0.026406828
0.020803077 -0.0052134832 -0.001999861 -0.043174777 0.033845264 -0.008701747 0.022998001 -0.015320949
-0.035766702 0.0108916 -0.030914336 -0.0033762646 -0.03718911 0.008492631 -0.0048014624 0.0030098194
-0.021910315 0.0062744496 -0.01595137 -0.044456426 -0.03769787 -0.026065692 0.018989848 -0.021135572
0.042105623 -0.016023858 -0.039215572 0.006151324 0.0011048403 -0.007379515 -0.035796605 -0.02286932
-0.018962476 -0.0063255955 -0.01697394 0.0138260815 -0.037239883 -0.03219835 -0.005854869 0.023738252
0.008235856 0.036065444 -0.04001711 -0.019821879 0.016951445 -0.014427136 -0.019421339 0.02432442
-0.0064908103 0.01305655 0.02132982 -0.024883509 -0.03544917 0.024400031 0.03350332 0.023563733
0.013147292 0.042300306 -0.010805995 -0.0045584776 0.01142313 -0.018381981 -0.030548282 0.041049633
00000000: edba 213c bc1b cb3c 1958 e8bc d884 f4bc
00000010: 26e4 cf3b 0daf 983c b9f1 b33c ebe6 2b3d
00000020: 04bf eebc 0386 a63c cef5 4d3c 770d 2dbd
00000030: 202c 293d debc e5bc 2ce2 4bbb 7bd0 a6bc
00000040: b2ca 25bd ab9f 2fbd 1af6 7ebb 8903 53bc
00000050: 3483 5ebc 5d71 823c 27f8 e6bc 11cb 0f3d
00000060: 68a3 f1bc c9a8 793b 14a2 15bd 3a24 99bc
00000070: b14e 513c 492d f33c 2d49 21bc 47d2 863b
00000080: 6b8d 3e3c 7941 d8bc 4a35 2cbd ad52 e0bc
00000090: 5d37 68bc e68f 043d 40e6 d53b eb07 633b
000000a0: 188d ba3c bead 54b9 95a2 9a3c 651d 193d
000000b0: a806 f73c 5b4c 833c 69c6 b2bc 69ef 803a
000000c0: 2d38 9cbb 0db5 343c af51 2cbc 5998 03bd
000000d0: b823 ef3c b59e ba3b 429e bfbc b399 debc
000000e0: 4668 c93c 522e c33c db98 2dbc 48bb c4bc
000000f0: b911 b83b 0368 f13c 56b7 173d 088b 1ebd
00000100: 0157 073d 9989 00bb 8406 c43c ba17 1abd
00000110: 0c67 a4ba 2cd6 e1bc cc27 173d d538 65bb
00000120: 2f9b 91bc 40db 2e3c 7151 293d 851b 2cbd
00000130: c4e4 cbbc 9409 2bbd 44a6 da3c 4995 f5bc
00000140: 6b5d 9fbc badd 10bd 06a1 a03c 65c8 63bc
00000150: cf9e 2dbd a846 ba3c 445a 17bd eb8f 41ba
00000160: a099 1e3d 7411 14bd 853a 5a3c 8250 c2bb
00000170: 8f67 a93c bd1d 21bd d31c 323c 372a 58bc
00000180: 79e1 d6bb 5732 10bd 84e5 c33c a0a6 abbc
00000190: 0189 ce3c 18ec 89bb ef59 3dbc 9f23 26bd
000001a0: b22e 29bd 961b 09bd a3ca 893a 805b 28bd
000001b0: ade9 273d 9786 19bd d400 58bc aeba 3d3c
000001c0: 03ea 1cbd 0a66 083c 2cad dfbc 4c37 3fbc
000001d0: 90ae 793c 810d 253d 70ce e63c 3236 c73c
000001e0: d775 1bbd ecb9 623c 0230 b53c e808 31bd
000001f0: 58af d2bb a0b3 30bd 46f6 103d 6219 dcbb
00000200: 89f8 48bb 3a48 a5bb f468 fabc 9f06 1c3d
00000210: e81d b73c 741c 23bd dcc6 c7bc f217 153d
00000220: 0315 d13c 2d81 2abc 4922 77bc d9e7 01bd
00000230: a0a4 84bc e244 dbbb 518b b73c 9d12 3bb9
00000240: 63f9 3b3c be53 c8bc 3076 6d3a d8e6 153d
00000250: 4290 05bc c9e7 fa3c 9a0d 1e3d d1e3 e4bc
00000260: 25e0 9a3c a53a 11bd cffb 1f3d 1ce7 0abd
00000270: e83a 77bc fdc1 79bb 7d20 27bd 0c8f 1b3d
00000280: 3881 efbc 5a3e 083d d7b7 b93c 8801 123c
00000290: 8620 babb a591 26bd 8208 a6bc 5506 00bd
000002a0: 0058 21bd c4ce 05bc dcae df3b 75da 663c
000002b0: e810 e3bc e00d 123c 9596 05bc 875e 83bc
000002c0: 5937 2ebd 7adb 83bb f550 1cbd df23 f2bc
000002d0: 7099 343d c578 8c3b 9065 72bc 2905 bb3c
000002e0: 6b95 f2bc e952 413c 7498 6fbc 91bf ec3c
000002f0: 7422 efbc b218 4b3c 0bee e03c 2253 d83c
00000300: 376b aa3c ded5 aabb 1a10 03bb 09d8 30bd
00000310: 55a1 0a3d c691 0ebc 4e66 bc3c b804 7bbc
00000320: 1b80 12bd ae72 323c 1040 fdbc 5244 5dbb
00000330: 9c53 18bd ad24 0b3c 9655 9dbb 6440 453b
00000340: 437d b3bc e699 cd3b 73ac 82bc f117 36bd
00000350: 1569 1abd b887 d5bc 9990 9b3c 8224 adbc
00000360: f276 2c3d 7744 83bc 82a0 20bd 0c91 c93b
00000370: 4ad0 903a dccf f1bb 769f 12bd 7158 bbbc
00000380: 3257 9bbc f146 cfbb ef0c 8bbc ca86 623c
00000390: d988 18bd 6be2 03bd 33da bfbb b976 c23c
000003a0: afef 063c 5cb9 133d fbe8 23bd 7e61 a2bc
000003b0: c2dd 8a3c cb5f 6cbc 8019 9fbc 0244 c73c
000003c0: ddb0 d4bb 24eb 553c e0bb ae3c 80d8 cbbc
000003d0: 2633 11bd 93e2 c73c c73a 093d bb08 c13c
000003e0: bd67 573c 1643 2d3d a10b 31bc 485f 95bb
000003f0: 1428 3b3c cf95 96bc 6440 fabc a923 283d

siam_layer.conv3.bias f4 [7]
0.031832978 0.021045066 0.023771197 -0.0014984198 0.0019340292 0.036293864 0.012830891
00000000: 4c63 023d b466 ac3c d0bb c23c a066 c4ba
00000010: 407f fd3a e0a8 143d a838 523c

siam_layer.conv4.weight f4 [3, 14, 6, 6]
-0.005482548 -0.00085759547 0.03531285 -0.021483254 0.031579226 0.00044589423 -0.0066949804 -0.0025869843
-0.0021003257 -0.02685493 0.026924236 -0.028353836 -0.022317627 0.023467533 0.027414683 0.008490914
-0.026891775 -0.016894823 0.003235394 0.019542597 0.034801185 -0.021375103 -0.036552172 0.006376137
0.013344798 0.031765383 0.030161923 0.00889103 0.0026101626 0.002953795 0.012713551 -0.023397567
-0.021145161 0.030764401 0.0034842852 -0.014675477 -0.023600532 0.03203452 -0.006310366 -0.04158223
0.018287782 0.036821745 -0.031060813 0.01095918 0.013158165 0.0250168 0.025458576 -0.018639492
-0.029196206 0.021185989 0.044521067 -0.02620437 0.03483348 0.044801638 -0.021057595 -0.005864052
0.0019085809 -0.030623546 0.0053495625 0.03257297 0.00046466012 0.018046372 0.0027167215 -0.0057529584
0.010815039 -0.042092774 -0.014034372 0.028755557 -0.0031819243 -0.020362118 0.015287755 0.004568554
-0.0092059495 -0.023507498 -0.016344244 0.009856067 0.0049152696 -0.010264603 0.039881818 -0.018428428
-0.03221247 -0.041611485 -0.022687264 -0.00837775 0.018613813 -0.040056344 -0.037559893 -0.024324391
0.022139542 -0.024975471 0.016924515 0.016249824 -0.013970612 -0.024849627 0.012978588 -0.03475343
-0.04155931 -0.041890074 0.041163195 -0.01401632 -0.02132788 -0.012842513 -0.03595139 -0.039518625
-0.012444708 0.025832199 -0.011317154 0.037861276 -0.0052376185 -0.012172662 -0.037110843 0.04410069
0.012931661 0.044493455 0.014047393 0.034205236 -0.001779746 0.035366245 0.0009656644 0.033827804
0.026577001 0.021632774 0.00032592236 0.02531874 -0.024396347 -0.009531355 0.025423652 0.015027634
0.018970413 -0.024778254 -0.0022123803 0.0047635306 -0.008477225 -0.022282843 0.0028651932 -0.023102894
-0.027025554 0.03947355 0.026398193 -0.015040264 0.031142004 -0.0009635051 0.033554353 -0.013108923
0.0014648319 -0.027395459 0.04328587 -0.01412347 0.018551303 -0.027837308 -0.034085747 -0.0065858946
-0.029107258 0.0034543395 0.018393863 0.026065083 0.009550792 0.026605362 0.03964679 0.029059583
0.037463512 0.0038589984 -0.0026682944 0.021407824 -0.014686719 -0.041697506 0.01563988 0.0053351293
-0.026287967 0.028577989 0.012121591 0.010415406 -0.043776926 0.026503995 0.008983344 -0.015025487
-0.030885302 -0.01443628 -0.02944512 -0.005427384 0.015849395 -0.01324803 0.030657372 0.011683307
0.037019707 0.01856957 -0.002669558 0.031409554 0.03702531 -0.004331217 -0.03650942 -0.0035347405
0.012981404 -0.02525628 -0.03680374 -0.012844063 0.015486809 0.037192494 0.023484634 -0.0063410383
0.043047965 -0.00504061 -0.014785187 -0.0110788075 -0.010301029 0.043544568 -0.01588125 -0.018759105
0.02115052 0.034670893 0.035638582 -0.04107137 -0.020088805 0.0052526887 0.019519841 -0.03179933
-0.015301812 0.043230366 0.005089241 -0.018821914 -0.0024616774 -0.013321786 -0.009449293 0.03466757
0.010236943 0.022863599 -0.016519718 0.016583368 0.019155469 0.02568866 0.035082553 -0.010458225
0.0252983 -0.0042989464 0.021110486 -0.035144955 0.008946959 0.01058548 0.041274346 0.017212898
0.007873216 0.023201773 -0.034600843 -0.013292777 0.029036747 -0.041402902 0.024764989 0.009349316
-0.035872154 0.020440217 0.027974475 0.035243616 0.011463245 -0.039706726 -0.006435474 0.036481332
00000000: f2a6 b3bb 42d0 60ba 35a4 103d a6fd afbc
00000010: 3859 013d e9c6 e939 9161 dbbb 658a 29bb
00000020: 9ea5 09bb dffe dbbc 3790 dc3c 4e46 e8bc
00000030: 75d3 b6bc fc3e c03c c294 e03c 791d 0b3c
00000040: 244c dcbc 0367 8abc e708 543b cc17 a03c
00000050: b08b 0e3d d71a afbc bbb7 15bd eaee d03b
00000060: 24a4 5a3c 6b1c 023d 2316 f73c afab 113c
00000070: 430f 2b3b 7594 413b 7f4c 503c 41ac bfbc
00000080: 9e38 adbc a005 fc3c 9b58 643b 6971 70bc
00000090: e755 c1bc a136 033d 30c7 cebb 2152 2abd
000000a0: 42d0 953c 66d2 163d 3f73 febc 228e 333c
000000b0: 5895 573c 08f0 cc3c 818e d03c d9b1 98bc
000000c0: e22c efbc 3d8e ad3c b95b 363d 8caa d6bc
000000d0: 8dad 0e3d ec81 373d fa80 acbc 3c27 c0bb
000000e0: 5929 fa3a 3bde fabc 624b af3b 3c6b 053d
000000f0: a09d f339 fcd5 933c 060b 323b 5083 bcbb
00000100: 9031 313c 7969 2cbd 6cf0 65bc c690 eb3c
00000110: d587 50bb 75ce a6bc 7e79 7a3c cfb3 953b
00000120: 8dd4 16bc cc92 c0bc 5de4 85bc 577b 213c
00000130: 4510 a13b de2c 28bc 1e5b 233d 37f7 96bc
00000140: 39f1 03bd ce70 2abd a4da b9bc d542 09bc
00000150: ff7b 983c 1f12 24bd 67d8 19bd f243 c7bc
00000160: fc5d b53c 5c99 ccbc 48a5 8a3c 5a1e 853c
00000170: fee4 64bc 7291 cbbc 25a4 543c 9d59 0ebd
00000180: 183a 2abd ed94 2bbd bd9a 283d b5a4 65bc
00000190: ceb7 aebc 6769 52bc c441 13bd 48de 21bd
000001a0: e3e4 4bbc 0c9e d33c 966b 39bc 6d14 1b3d
000001b0: 54a0 abbb d86f 47bc 8a01 18bd eda2 343d
000001c0: 51df 533c c53e 363d 0927 663c ca1a 0c3d
000001d0: 5e46 e9ba 32dc 103d a424 7d3a 068f 0a3d
000001e0: 03b8 d93c 3737 b13c 8fe0 aa39 3f69 cf3c
000001f0: d9da c7bc 6729 1cbc 4345 d03c 7736 763c
00000200: d767 9b3c c4fb cabc 95fd 10bb 6417 9c3b
00000210: 0fe4 0abc 828a b6bc f7c5 3b3b 4842 bdbc
00000220: b264 ddbc 04af 213d 0641 d83c 716b 76bc
00000230: 841d ff3c bc93 7cba 4a70 093d cfc6 56bc
00000240: 9aff bf3a 716c e0bc 864c 313d 2066 67bc
00000250: e7f8 973c 110b e4bc 7f9d 0bbd 7dce d7bb
00000260: 5872 eebc 3362 623b baae 963c 7186 d53c
00000270: ed7a 1c3c 7df3 d93c ac64 223d 5d0e ee3c
00000280: 5773 193d 40e7 7c3b 8dde 2ebb 765f af3c
00000290: 90a0 70bc 01cb 2abd 351f 803c 4fd2 ae3b
000002a0: dd59 d7bc 631c ea3c a399 463c 61a5 2a3c
000002b0: 6f4f 33bd e81e d93c e02e 133c 762d 76bc
000002c0: 2c03 fdbc 2686 6cbc e436 f1bc 32d8 b1bb
000002d0: 97d6 813c 440e 59bc 2b25 fb3c 576b 3f3c
000002e0: faa1 173d 361f 983c c0f3 2ebb 4ea7 003d
000002f0: daa7 173d e2ec 8dbb e78a 15bd 1ba7 67bb
00000300: f4af 543c 42e6 cebc 85bf 16bd e86f 52bc
00000310: 63bc 7d3c 2857 183d d962 c03c 7cc8 cfbb
00000320: 1053 303d b42b a5bb 923d 72bc e383 35bc
00000330: a6c5 28bc ca5b 323d 6519 82bc b2ac 99bc
00000340: db43 ad3c 1103 0e3d c3f9 113d 743a 28bd
00000350: 4791 a4bc bf1e ac3b 13e8 9f3c 0440 02bd
00000360: 74b4 7abc 5312 313d a6c3 a63b 6a30 9abc
00000370: 1854 21bb 9f43 5abc 35d1 1abc 95ff 0d3d
00000380: dab8 273c 714c bb3c 5c54 87bc d8d9 873c
00000390: eeeb 9c3c 0671 d23c b9b2 0f3d fa58 2bbc
000003a0: 613e cf3c 2dde 8cbb e6ef ac3c 28f4 0fbd
000003b0: 4496 123c b96e 2d3c 4a0f 293d 1002 8d3c
000003c0: a9fe 003c a511 be3c 9db9 0dbd f3c9 59bc
000003d0: 79de ed3c 1796 29bd f2df ca3c e02d 193c
000003e0: aeee 12bd 3e72 a73c ba2a e53c 9c5b 103d
000003f0: 56d0 3b3c 85a3 22bd abe0 d2bb 736d 153d

siam_layer.conv4.bias f4 [3]
-0.018079225 0.023523219 -0.035318844
00000000: e21a 94bc c4b3 c03c 7eaa 10bd

siam_layer.conv5.weight f4 [1, 3, 6, 6]
-0.08764326 -0.04479992 0.009396448 0.07899193 -0.010011019 0.057689134 0.06264322 0.024343383
-0.059244975 -0.035867848 -0.089845076 0.07506213 -0.090157375 0.016731955 -0.0688664 0.051154003
0.07278076 -0.024338476 -0.014484919 -0.032726508 -0.018952625 -0.095489666 -0.05856664 -0.041798525
0.018772341 0.05562968 0.036599025 0.011092555 -0.079623744 -0.024060369 -0.048246272 -0.030595878
0.0275599 -0.06633467 0.0675498 0.05103067 0.049077883 -0.0655539 -0.02399104 -0.034297362
0.02798827 -0.0053837695 -0.018992327 -0.0021921883 0.00013045485 0.028469399 -0.02013288 -0.024143135
0.07327476 0.086631365 0.019026997 0.085795395 -0.07916871 0.093573734 -0.07861781 -0.06251459
-0.0078053297 -0.073261894 -0.038626235 -0.05166933 -0.08094135 0.06145676 0.0779776 0.004327658
0.025556844 -0.02119791 -0.040174913 -0.012575225 0.067676425 0.091976635 0.0138835125 -0.006370447
0.0905843 0.0072981734 -0.0963142 -0.058264922 -0.011166471 -0.023054643 0.089242466 -0.053730935
0.02016361 -0.010746938 0.06253778 0.04918991 0.014944021 -0.022625346 -0.053455614 -0.09156794
0.049142245 0.03648144 0.039269347 0.025917156 0.08030269 0.029977899 0.009607551 -0.040311188
0.06420561 -0.062089562 0.021890607 0.029215842 -0.0051697334 0.077214405 0.049140226 -0.08456354
-0.034885343 -0.038815815 0.043055274 0.008353139
00000000: 4f7e b3bd 1f80 37bd 8ff3 193c 85c6 a13d
00000010: 4205 24bc 714b 6c3d 174b 803d c66b c73c
00000020: dcaa 72bd 2aea 12bd b200 b8bd 2dba 993d
00000030: 6ea4 b8bd 7411 893c d409 8dbd dc86 513d
00000040: 140e 953d 7c61 c7bc 2752 6dbc 3b0c 06bd
00000050: 8942 9bbc 1690 c3bd 93e3 6fbd ee34 2bbd
00000060: 74c8 993c f3db 633d dce8 153d 8cbd 353c
00000070: c611 a3bd 401a c5bc e29d 45bd 35a4 fabc
00000080: 4dc5 e13c 79da 87bd 8d57 8a3d 8905 513d
00000090: e405 493d 2041 86bd dc88 c4bc 647b 0cbd
000000a0: a847 e53c 556a b0bb cc95 9bbc d1aa 0fbb
000000b0: b5ca 0839 a838 e93c b6ed a4bc d3c7 c5bc
000000c0: 1411 963d c96b b13d 81de 9b3c 7fb5 af3d
000000d0: 3423 a2bd 96a3 bf3d 6002 a1bd a607 80bd
000000e0: dac3 ffbb 550a 96bd 8b36 1ebd 38a3 53bd
000000f0: 94c4 a5bd 15ba 7b3d b8b2 9f3d 07cf 8d3b
00000100: 965c d13c 3da7 adbc 738e 24bd 5108 4ebc
00000110: f099 8a3d 3f5e bc3d ac77 633c 2fbf d0bb
00000120: 4384 b93d 8425 ef3b 6140 c5bd 33a7 6ebd
00000130: 93f3 36bc 17dd bcbc c1c4 b63d f814 5cbd
00000140: 282e a53c ed13 30bc cf13 803d 5c7b 493d
00000150: c4d7 743c ca58 b9bc 46f4 5abd f987 bbbd
00000160: 6149 493d 906d 153d e5d8 203d 3750 d43c
00000170: bd75 a43d 3694 f53c fd68 1d3c 581d 25bd
00000180: 3b7e 833d a051 7ebd ee53 b33c 1056 ef3c
00000190: de66 a9bb 9622 9e3d 4347 493d a62f adbd
000001a0: efe3 0ebd 55fd 1ebd ba5a 303d 9bdb 083c

siam_layer.conv6.weight f4 [1, 3, 6, 6]
-0.0107791 -0.009206755 0.05895123 -0.022064198 0.06885506 -0.08155368 0.07832661 0.029719625
0.04106797 -0.06185934 -0.0918615 -0.095684774 -0.0108357705 0.09343088 0.09418818 0.0075142193
0.09136573 -0.08951767 -0.0036953092 0.072155915 0.03137557 0.09069978 0.02587057 -0.09531432
-0.08668022 0.012472522 -0.051819615 0.01608034 0.031117965 0.09173712 0.022349725 0.004240328
-0.080579355 0.08969442 0.05538342 -0.04772146 -0.07366374 -0.056466665 0.0019027636 -0.030695159
-0.03323876 -0.08432431 -0.04312279 -0.03974075 0.056966107 0.048407327 0.04359393 -0.006194844
-0.07681119 -0.0003176848 0.056726694 0.031941306 0.040138848 0.066062585 -0.01877372 -0.019621156
-0.012248225 -0.017258516 -0.049249057 -0.058292925 0.076605156 0.05556351 -0.06747295 0.011257383
-0.04841496 -0.00703101 -0.07742346 -0.077391796 0.084656194 0.050293207 0.06273858 0.034518007
-0.07356648 -0.038906127 0.05122356 -0.012386578 -0.07400268 -0.09528152 -0.09598092 -0.044229534
0.044947304 0.08660302 0.049496993 -0.055850554 -0.043274637 0.016862337 -0.09456284 -0.08591993
-0.07376546 0.027783928 -0.031486854 -0.038312055 0.07580883 0.05767609 0.029691346 -0.054042507
-0.030364001 0.0029867932 -0.050624732 -0.051067043 -0.095531724 -0.06064772 -0.09025616 0.059823927
0.011670973 -0.026009329 0.07956655 -0.03954429
00000000: d29a 30bc eed7 16bc d876 713d fabf b4bc
00000010: e203 8d3d 9e05 a7bd b469 a03d 9276 f33c
00000020: e336 283d 3860 7dbd e221 bcbd 61f6 c3bd
00000030: 8488 31bc b058 bf3d bce5 c03d d739 f63b
00000040: f51d bb3d 0a55 b7bd 002d 72bb 7bc6 933d
00000050: ab83 003d cec0 b93d 85ee d33c 2734 c3bd
00000060: 6685 b1bd 8d59 4c3c ce40 54bd ebba 833c
00000070: 1aeb fe3c ace0 bb3d c516 b73c 73f2 8a3b
00000080: ca06 a5bd b5b1 b73d bad9 623d 9477 43bd
00000090: 04dd 96bd 9749 67bd 2766 f93a 6a74 fbbc
000000a0: 5e25 08bd 39b2 acbd 86a1 30bd 32c7 22bd
000000b0: 4b55 693d c346 463d 8c8f 323d 1efe cabb
000000c0: 2f4f 9dbd ef8e a6b9 405a 683d e3d4 023d
000000d0: a268 243d d24b 873d 58cb 99bc 8cbc a0bc
000000e0: c7ac 48bc bb61 8dbc 61b9 49bd 90c4 6ebd
000000f0: 2ae3 9c3d 9096 633d 422f 8abd e370 383c
00000100: c44e 46bd 6364 e6bb 3190 9ebd 977f 9ebd
00000110: 3a60 ad3d 4000 4e3d 167d 803d c162 0d3d
00000120: 06aa 96bd 085c 1fbd cccf 513d 13f1 4abc
00000130: b88e 97bd f522 c3bd a591 c4bd 072a 35bd
00000140: aa1a 383d ed5c b13d 5cbd 4a3d 8dc3 64bd
00000150: bf40 31bd e222 8a3c 2aaa c1bd caf6 afbd
00000160: 5812 97bd 1f9b e33c 5cf8 00bd 1aed 1cbd
00000170: a941 9b3d c43d 6c3d 443b f33c ad5b 5dbd
00000180: edbd f8bc 13be 433b e15b 4fbd ad2b 51bd
00000190: 23a6 c3bd be69 78bd 39d8 b8bd ef09 753d
000001a0: 9c37 3f3c 8411 d5bc caf3 a23d 32f9 21bd

siam_layer.conv7.weight f4 [1, 2, 6, 6]
0.028910875 0.06371519 -0.083710626 0.11001551 0.012795053 0.08031031 0.0344066 -0.101130314
-0.08003528 -0.072169475 0.094481885 -0.001056708 -0.05496623 0.0018712083 -0.11142962 0.090975575
-0.111778885 -0.009392492 -0.041838933 -0.02095183 -0.111437365 0.017428325 0.11182688 -0.024315886
0.023286916 0.015972568 0.08440172 -0.01573375 0.10774439 4.38168e-05 -0.090162486 0.029329821
0.0062747216 -0.023830414 -0.09562425 0.046908267 0.09100256 -0.035441145 -0.10717796 -0.06533677
0.04040176 0.089487046 0.05678345 0.06573473 -0.064341806 -0.06888281 0.11015141 -0.09852633
-0.10697616 0.008737838 -0.09498987 -0.007355353 0.035388045 -0.09004602 -0.050595935 0.11481498
-0.112594925 -0.09372885 -0.09208898 -0.018459601 0.028044324 0.02768542 0.09997092 0.033311535
-0.09861891 0.035260405 -0.1141353 -0.075577326 -0.015431374 0.06920765 0.024917545 0.106667995
00000000: 80d6 ec3c 1c7d 823d 7a70 abbd d04f e13d
00000010: 58a2 513c bb79 a43d efed 0c3d 691d cfbd
00000020: 89e9 a3bd 97cd 93bd b87f c13d 3d81 8aba
00000030: 4524 61bd 5543 f53a 3635 e4bd 6751 ba3d
00000040: 54ec e4bd f7e2 19bc 4d5f 2bbd 2ca3 abbc
00000050: 4639 e4bd d9c5 8e3c 7e05 e53d 1c32 c7bc
00000060: 34c4 be3c e7d8 823c cfda ac3d 11e4 80bc
00000070: 17a9 dc3d eec7 3738 1ca7 b8bd 1845 f03c
00000080: 2e9c cd3b 0038 c3bc a6d6 c3bd e222 403d
00000090: 8d5f ba3d bc2a 11bd 1e80 dbbd 49cf 85bd
000000a0: 517c 253d fc44 b73d c395 683d ee9f 863d
000000b0: a3c5 83bd 6e12 8dbd 1097 e13d 2cc8 c9bd
000000c0: 5116 dbbd 2629 0f3c 0d8a c2bd 2c05 f1bb
000000d0: 0ef3 103d 0c6a b8bd af3d 4fbd 1e24 eb3d
000000e0: 2b98 e6bd e9f4 bfbd 2699 bcbd 9738 97bc
000000f0: 36bd e53c 89cc e23c 8ebd cc3d ad71 083d
00000100: b6f8 c9bd 376d 103d c5bf e9bd 49c8 9abd
00000110: e0d3 7cbc bebc 8d3d e11f cc3c c074 da3d

dense.weight f4 [1, 308]
-0.033367306 0.04000932 -0.03599598 0.049030997 -0.0159378 0.018015416 0.01217978 -0.0063855303
0.002495164 -0.0027892303 -0.04652932 -0.023064218 -0.005546175 0.022601094 -0.040057823 -0.034379803
-0.031721774 -0.00021782958 0.01989773 0.010622149 -0.039542653 0.03275601 0.015694339 0.03899968
-0.038516838 -0.0004325448 -0.003514925 0.026754148 -0.022813244 0.039377395 0.024730172 0.018593956
-0.026975602 -0.010718989 -0.01618811 -0.034574542 -0.03334899 0.0023227127 0.021910898 0.01001902
-0.011808553 0.0023482714 0.019341996 -0.01921152 -0.04779045 -0.050838057 0.0004196602 0.0035747213
0.002602259 0.03120038 0.04755884 -0.051490948 -0.01742385 -0.0026310005 -0.041232005 0.005624804
-0.0505883 -0.047219336 0.029104076 0.055068664 0.050263982 -0.04485478 0.0073163044 0.043246552
0.008208847 0.04026905 0.0511067 0.037254684 -0.038562864 -0.010850994 0.025129596 0.008017598
-0.0206516 -0.007563523 -0.013252187 0.054624256 -0.034117408 0.04250423 -0.047931127 0.040116474
-0.02760803 0.001238434 -0.014478638 0.005641635 -0.009707313 0.017838089 -0.043317597 -0.014087191
-0.0169587 -0.053326163 0.008104719 0.03340767 -0.009525878 -0.03383349 -0.05148019 0.029218838
-0.054831322 0.0061002807 -0.03232996 0.05318548 0.018505977 0.038895622 0.043448817 -0.025867507
-0.032660656 -0.0018173893 -0.006239051 -0.050297957 0.021499218 -0.04673342 0.019849345 -0.018151157
0.007841434 -0.03367559 0.013438566 0.0045774793 -0.018061591 0.03589411 0.031444114 0.0001469184
-0.040348094 -0.04834192 0.0039374237 0.039209817 -0.024806835 -0.0255835 -0.053109076 -0.0511484
-0.0122171715 0.0059045693 0.0026024887 -0.013479651 -0.02585996 -0.051414177 0.045225397 -0.044540577
0.0328644 0.026599392 0.009603897 -0.041473046 -0.03360445 0.025931694 -0.050991304 0.02144186
-0.00014339252 -0.038687788 -0.009225133 0.030319436 -0.051678002 0.015837116 0.0016009188 -0.047944177
-0.026961429 0.023957446 0.016882356 0.0047591366 0.0035577563 0.055621058 0.02766517 0.04520699
0.04130029 0.05184788 -0.054661985 -0.010734002 0.03889255 0.035053376 -0.00896276 0.053200707
0.041401707 -0.019085284 -0.050431754 0.021846995 0.032933652 -0.00021420346 0.054869674 -0.013790366
-0.018896494 0.048907626 0.030494101 0.043267965 -0.05237139 0.041114666 -0.013167673 -0.044767804
0.04270446 0.031074887 0.037875198 0.005723234 0.0068209493 0.0355653 -0.025568748 -0.021240665
0.0045333016 -0.0049799755 0.017822223 0.001837215 0.0394962 -0.010941717 0.05175545 0.055685785
-0.005982834 0.02419765 0.014101014 0.03471326 -0.030108515 0.03750567 0.044524003 -0.017543655
0.030715864 -0.015420942 -0.038315948 0.03877441 -0.022125263 0.0353503 -0.03670645 0.026457114
-0.025122508 0.05301524 -0.039424594 -0.025597487 0.04772519 0.019294154 0.029454647 0.022496087
-0.031234326 0.014096998 0.04599118 0.017260378 0.0027049016 -0.03559091 0.05386935 0.027731284
-0.008277742 -0.022599705 0.054590058 -0.023295794 -0.02099663 0.034264 -0.055447124 -0.010490411
0.039162304 -0.032271244 0.026035877 -0.028051086 0.029313851 -0.047226146 0.017105103 0.039156746
-0.007800237 0.016305966 0.021541031 0.023577748 0.03316488 -0.04392547 -0.048844375 -0.012893386
00000000: 28ac 08bd d0e0 233d 8570 13bd bad4 483d
00000010: fd8f 82bc 1195 933c b38d 473c b63d d1bb
00000020: e885 233b 85cb 36bb 8795 3ebd 2cf1 bcbc
00000030: b0bc b5bb ee25 b93c ac13 24bd d6d1 0cbd
00000040: b1ee 01bd 2f69 64b9 9000 a33c 8608 2e3c
00000050: 7af7 21bd 2a2b 063d 6a91 803c 21be 1f3d
00000060: d5c3 1dbd 2ec7 e2b9 a85a 66bb 842b db3c
00000070: d7e2 babc 314a 213d ee96 ca3c 5a52 983c
00000080: f0fb dcbc b39e 2fbc ed9c 84bc 099e 0dbd
00000090: f398 08bd a738 183b 7c7e b33c d126 243c
000000a0: a978 41bc 75e5 193b 1b73 9e3c 7a61 9dbc
000000b0: ebbf 43bd 913b 50bd d705 dc39 df45 6a3b
000000c0: a98a 2a3b f097 ff3c 0fcd 423d 2ce8 52bd
000000d0: 76bc 8ebc dd6c 2cbb e4e2 28bd 4750 b83b
000000e0: ad35 4fbd 1069 41bd ac6b ee3c ae8f 613d
000000f0: 9be1 4d3d a5b9 37bd 9cbd ef3b 4c23 313d
00000100: 667e 063c 29f1 243d 4255 513d 5e98 183d
00000110: 18f4 1dbd 5ec8 31bc 95dc cd3c 3e5c 033c
00000120: 8b2d a9bc 6ed7 f7bb b31f 59bc afbd 5f3d
00000130: b2be 0bbd ea18 2e3d 6e53 44bd 2c51 243d
00000140: 3c2a e2bc f352 a23a cf37 6dbc 77dd b83b
00000150: 6c0b 1fbc 2f21 923c cb6d 31bd f6cd 66bc
00000160: f9ec 8abc 896c 5abd a8c9 043c 7bd6 083d
00000170: 6e12 1cbc fc94 0abd e4dc 52bd 585c ef3c
00000180: cf96 60bd dde4 c73b 6c6c 04bd 05d9 593d
00000190: d999 973c 0451 1f3d 63f7 313d 18e8 d3bc
000001a0: 2ec7 05bd 7735 eeba f470 ccbb 3b05 4ebd
000001b0: 211f b03c 8b6b 3fbd 189b a23c bcb1 94bc
000001c0: 5c79 003c 6aef 09bd 6e2d 5c3c aefe 953b
000001d0: e7f5 93bc b405 133d 8bcb 003d 1c0e 1a39
000001e0: 0b44 25bd 2d02 46bd 8105 813b 799a 203d
000001f0: b437 cbbc 7d94 d1bc e788 59bd fc80 51bd
00000200: 882a 48bc 1e7b c13b 848e 2a3b c1d9 5cbc
00000210: 44d8 d3bc ac97 52bd 443e 393d 2e70 36bd
00000220: d29c 063d f8e6 d93c aa59 1d3c a4df 29bd
00000230: d2a4 09bd b46e d43c 42dc 50bd d7a6 af3c
00000240: a35b 16b9 1677 1ebd 0325 17bc 7760 f83c
00000250: 50ac 53bd d7bc 813c ecd5 d13a 1d61 44bd
00000260: 37de dcbc 6842 c43c de4c 8a3c 88f2 9b3b
00000270: 3f29 693b e8d2 633d 11a2 e23c f72a 393d
00000280: 7e2a 293d 715e 543d 3fe5 5fbd abdd 2fbc
00000290: cb4d 1f3d 2194 0f3d 8ad8 12bc fce8 593d
000002a0: d694 293d be58 9cbc 8791 4ebd 78f8 b23c
000002b0: 70e5 063d ce9b 60b9 06bf 603d fdf0 61bc
000002c0: d2cc 9abc 5d53 483d c4ce f93c c039 313d
000002d0: 6283 56bd da67 283d 39bd 57bc 725e 37bd
000002e0: dfea 2e3d c390 fe3c 0623 1b3d f789 bb3b
000002f0: 4582 df3b ecac 113d 8d75 d1bc e700 aebc
00000300: 178c 943b 102f a3bb e9ff 913c b5ce f03a
00000310: c4c6 213d e344 33bc 86fd 533d c716 643d
00000320: a60b c4bb 263a c63c f007 673c 7e2f 0e3d
00000330: 22a6 f6bc 8c9f 193d cd5e 363d b6b7 8fbc
00000340: d69f fb3c 1ea8 7cbc 2ff1 1cbd ead1 1e3d
00000350: 0a40 b5bc 7acb 103d 8159 16bd 97bc d83c
00000360: b8cd cdbc 8226 593d af7b 21bd d2b1 d1bc
00000370: 7d7b 433d c60e 9e3c df4a f13c b749 b83c
00000380: 21df ffbc 18f7 663c 3f61 3c3d a365 8d3c
00000390: b844 313b c6c7 11bd 1ca6 5c3d b82c e33c
000003a0: 5e9f 07bc 0423 b9bc d399 5f3d d2d6 bebc
000003b0: 2001 acbc 6858 0c3d 861c 63bd f9df 2bbc
000003c0: a768 203d da2e 04bd 3149 d53c 64cb e5bc
000003d0: 9a23 f03c 3470 41bd 0020 8c3c d362 203d
000003e0: 2199 ffbb 1794 853c d176 b03c 1f26 c13c
000003f0: e6d7 073d 32eb 33bd 0a11 48bd c83e 53bc
