siamese-classifier/siam_v3_79.pth (torch, 104363 bytes, 12 tensors)

siam_layer.conv1.weight f4 [14, 31, 6, 6]
000000 01 0f a8 ba 08 2e 6f bc fb 12 a4 3b 75 0e 1a bb
       -0.0012821854 -0.014598377 0.0050071455 -0.0023507152
000010 5e 2e db 3c 58 de 94 3a ef c1 ad 3b 42 97 55 bc
       0.026755508 0.0011357768 0.0053026597 -0.013036551
000020 20 7b 9d bc 2f c4 f1 bc aa 4f cb bc 23 49 d5 3c
       -0.01922375 -0.029512493 -0.02481826 0.02603585
000030 a8 a5 da bc 71 b8 b6 bb c9 84 35 3b be 65 f8 3b
       -0.02669032 -0.0055761863 0.0027697554 0.007580488
000040 fd 63 85 ba 73 13 95 bc 05 f0 c3 bc 98 16 a2 3b
       -0.0010176894 -0.01819775 -0.023918161 0.004946541
000050 cd 23 94 3b f2 ff a6 3a ef 52 95 3c 89 3d ce 3c
       0.0045208693 0.0012741073 0.018228022 0.025175827
000060 ee 25 72 bc 92 40 85 bc da 17 c7 bc 86 6d 14 bb
       -0.014779551 -0.016266141 -0.024303365 -0.002264829
000070 81 72 cb 3c 07 75 d2 3c e0 b4 e3 3c c7 3c a1 3c
       0.024834873 0.025690569 0.027796209 0.019682301
000080 71 12 9c bc f2 c6 93 3c 04 80 51 3c d9 ab 21 bc
       -0.019051762 0.0180392 0.012786869 -0.009867632
000090 80 12 1a bb 3c 12 a7 3c 62 d1 8a bc 2d 34 23 3b
       -0.0023509562 0.020394437 -0.016945545 0.0024902925
0000a0 14 c8 67 3c 03 25 5e bb 71 1d c3 3c 93 4c 1d 3b
       0.014146823 -0.0033896572 0.02381775 0.002400194
0000b0 9b e8 af bb 36 df fc ba d3 2e 9c 3c 29 03 c6 bc
       -0.005368305 -0.0019292596 0.019065296 -0.024171429
0000c0 00 53 63 3b 80 77 ce 3c 29 65 76 bc ca 3f 29 3c
       0.0034686923 0.025203466 -0.015038767 0.01033015
0000d0 bc 9e a5 3c bc fb 48 bc 6b 27 b1 bc d4 10 d4 bc
       0.020217292 -0.012267049 -0.021625241 -0.02588693
0000e0 ca 53 19 bb ce e7 ab 3c e6 71 20 bc 84 dc 96 3c
       -0.002339589 0.020984557 -0.0097927805 0.018415697
0000f0 74 24 53 3c c3 f8 32 3c ab 3a d2 bb ff 6a 89 3c
       0.012887109 0.010923567 -0.006415685 0.016774653
000100 17 ce ec bc 18 ef d0 bc 56 52 e8 3c e2 98 b3 bc
       -0.028906865 -0.025504634 0.028359573 -0.021923486
000110 bb 94 eb bc 1b 75 ae 3c 6a 07 7e bc 9e bd d9 bc
       -0.028757444 0.021296075 -0.015504697 -0.026579674
000120 fd a1 ba bc 28 95 48 3c 7c 51 b5 bc f5 eb e2 3c
       -0.02278232 0.012242593 -0.022133581 0.027700404
000130 f1 e3 83 bb 95 4d c9 bc 0b 12 e0 bc 09 f0 9f 3c
       -0.0040249755 -0.024573127 -0.027352354 0.019523637
000140 a2 9c 9a 3c f5 41 26 bc 37 a6 b2 ba e5 c8 07 bc
       0.018873516 -0.010147561 -0.0013629858 -0.008287643
000150 2b 65 01 3c 28 ca 7f 3c 5d 13 b0 3c f7 69 7a 3c
       0.0078976555 0.015612163 0.021493608 0.015284053
000160 db 45 d7 3b e7 ae 9b bc 73 bd e9 bc 06 94 c6 3c
       0.0065696067 -0.019004298 -0.02853272 0.024240505
000170 82 76 6f 3c 46 29 46 3c 10 53 e4 bc 09 c5 32 bb
       0.014615657 0.012094801 -0.027871639 -0.0027278087
000180 f8 ac ae bb 98 4c 9c bc 53 c2 c8 bc 42 a7 ce bc
       -0.005330678 -0.019079491 -0.024506724 -0.02522624
000190 c0 ff 9e 3c 99 2a c1 bc 8a 34 4d bc d7 5e d2 3b
       0.01940906 -0.023579882 -0.012524733 0.006419997
0001a0 78 2d dc bc 62 04 a7 bc da 65 02 bc c9 ed 8d bc
       -0.02687715 -0.020387832 -0.007958854 -0.017325299
0001b0 64 6c 79 bc c9 72 58 3a ce a1 ea 3c 43 7b 83 3b
       -0.015223596 0.00082568504 0.028641608 0.0040124967
0001c0 d4 72 dd bc 95 92 8c bc 08 e0 b7 3c 9f a4 84 3c
       -0.027032293 -0.01715974 0.022445694 0.016191779
0001d0 5e 54 97 bc 78 20 af 3a ff c4 f4 bc d7 a8 d6 bc
       -0.018472847 0.0013361117 -0.029879091 -0.026203556
0001e0 6a b2 8f bc e6 c0 47 bc 66 ec f2 bc 59 55 09 3b
       -0.01754113 -0.012191987 -0.02965374 0.0020955412
0001f0 45 ea da bc d8 4d 08 3b 9c 2c fe bb 28 62 da bc
       -0.026723037 0.0020798352 -0.0077567827 -0.026658133
000200 af 0d 88 bc 8e 04 1d 3c 95 f1 f2 3b 43 46 01 3c
       -0.016608087 0.009583605 0.0074140527 0.007890287
000210 1f bd f3 bc 9c 62 09 3c a7 92 d5 bc b1 f3 a8 bc
       -0.029753266 0.008385327 -0.026070906 -0.020624014
000220 d2 57 22 bc f3 d4 a5 ba be 59 64 3c 32 77 c3 3c
       -0.009908633 -0.0012651965 0.013937412 0.023860548
000230 52 3e 94 3c e8 89 48 3c 4c 5c 5d bc f1 51 64 bc
       0.018096123 0.012239911 -0.013510775 -0.013935552
000240 1b df 02 bc d5 da 85 bb 86 41 7d bc af 34 ce bc
       -0.007987763 -0.0040849247 -0.015457517 -0.025171606
000250 87 6a 82 bc 70 17 34 3c ac 3d 7d 3c d3 dd 91 3c
       -0.015919937 0.010991916 0.015456598 0.01780597
000260 1b bf e6 bc 32 eb d3 bc 77 b9 8e 3c 4d 87 80 3c
       -0.028167298 -0.025868986 0.01742242 0.015689516
000270 29 e1 52 bc 09 c1 8e 3c 93 4d 93 bc d3 e1 22 3b
       -0.012871065 0.01742603 -0.017981326 0.002485384
000280 65 f5 6a 3c 5e d8 21 3c d0 e6 c7 3c 84 0e b1 3c
       0.014340733 0.009878246 0.024402052 0.021613367
000290 d4 10 dc bc 8a ba ac 3c 42 4a ce bc 1f e7 1a 3c
       -0.026863493 0.021085043 -0.025181893 0.009454518
0002a0 63 02 b5 bc 99 0a 77 bc f5 66 e8 3c 91 d5 7c 3c
       -0.022095865 -0.01507821 0.028369406 0.015431778
0002b0 64 df a8 bb 33 1b d5 3c c2 ed 14 b9 e7 ff 10 3b
       -0.0051535834 0.026013946 -0.00014202952 0.0022125186
0002c0 3e 37 27 3c 3f b4 60 bb 9d 62 05 3c 45 07 cc bc
       0.010206042 -0.0034287123 0.008141187 -0.02490581
0002d0 01 a2 5d ba d5 70 b3 3c 1b 67 09 bc 99 4f 35 bc
       -0.00084546214 0.021904388 -0.008386399 -0.011066341
0002e0 0c 8b 06 3c c0 87 b8 3b 5a 92 8d bc e9 28 42 3c
       0.008211862 0.005631417 -0.0172817 0.011850574
0002f0 62 7e be bc 23 d1 9b 3c 60 7a bf bc 09 f7 b3 bc
       -0.023253623 0.019020623 -0.023373783 -0.021968381
000300 b5 b2 92 bc 39 82 8b 3c 60 74 84 3c 1e 93 94 bc
       -0.01790748 0.017029868 0.016168773 -0.018136557
000310 c7 ec 86 3b 18 6a ca bc 4d 21 dc b9 67 5e 9a bc
       0.0041175815 -0.024708793 -0.0004198648 -0.018843843
000320 aa 0d 0a bc 7f 7d 92 3c ff 48 e8 bc f6 c5 cb 3c
       -0.008426109 0.017882107 -0.02835512 0.024874669
000330 9a d5 e3 3a ea 7d aa bb d1 39 97 3c 67 23 e6 3c
       0.0017382384 -0.0052029984 0.018460186 0.028093053
000340 90 c0 e3 bc 69 cf db 3b d8 98 de 3c 1b 4d 76 3c
       -0.027801782 0.006708075 0.027172491 0.015033032
000350 ce 68 db 3a 15 39 70 3c a0 d1 c6 bc 0d 7d 24 3c
       0.0016739608 0.014662047 -0.024269879 0.01003958
000360 a9 71 c2 3c 00 02 62 bc 1e 5a 96 3c 63 b0 0d bb
       0.023735838 -0.013794422 0.018353518 -0.0021620027
000370 30 7a b6 3c f5 94 3f bc a6 8d cc 3c 05 bb 08 bc
       0.02227506 -0.011693229 0.024969887 -0.00834537
000380 35 26 9f bc 21 cc c9 3b 10 c8 2c 3c 25 7f 01 3c
       -0.019427398 0.0061583673 0.0105457455 0.007903849
000390 66 11 f2 bc cd f3 ee 3c 4a 54 7f bc fb 82 e0 bb
       -0.029549312 0.029168988 -0.015584061 -0.0068515516
0003a0 b2 00 51 bc 7a 15 2a 3b e4 17 83 bc d6 d9 9a 3b
       -0.012756513 0.0025952742 -0.016002603 0.004725675
0003b0 24 84 ee bc 5f b2 de bb a2 c8 e0 bc cf 0a bd 3b
       -0.029115744 -0.006796166 -0.02743942 0.0057691108
0003c0 36 5a db ba a5 36 67 3c 14 73 bb bc 36 28 57 3c
       -0.0016735259 0.014112149 -0.022882022 0.013132146
0003d0 af 18 da 3c 70 34 92 3b 42 eb 72 bc 3c 3b eb bb
       0.026623098 0.0044618174 -0.014826598 -0.007178692
0003e0 6b 47 93 39 30 3c 2c bc 28 00 26 bc 96 41 e6 bc
       0.00028091235 -0.010512397 -0.010131873 -0.028107446
0003f0 1c ea a7 3c e5 1e 23 3c 77 25 0d 3c 2b 0c 3a bb
       0.020497374 0.009956096 0.008614889 -0.00283886

siam_layer.conv1.bias f4 [14]
000000 4c fa 58 3c fa e9 f4 3c 84 4b 00 3c 0c 48 d3 bc
       0.013243269 0.029896725 0.007830504 -0.02579119
000010 e2 e5 bf 3c 7a 10 f1 3c 74 d7 b0 bc 58 b1 b2 3b
       0.023425046 0.029426802 -0.021587111 0.00545327
000020 c4 ba 6b bc 88 a9 06 3c 4c 11 7e 3c 48 96 d9 3c
       -0.01438779 0.00821913 0.015507054 0.026560917
000030 44 87 93 3c 14 0b 16 3c
       0.018008836 0.009157915

siam_layer.conv2.weight f4 [7, 14, 6, 6]
000000 f5 38 5b bc 4e eb 2e bd f0 cb 01 3c a5 7d 6d bc
       -0.013380279 -0.042704873 0.007922158 -0.014495288
000010 e2 50 c9 bb e0 99 15 3c 77 77 0c bd a0 c3 bd 3c
       -0.006143675 0.009130925 -0.034293618 0.02316457
000020 3f 3d d6 3b 05 83 20 bd b6 fb 8b bc 18 8e d0 3c
       0.006538063 -0.03918745 -0.017087799 0.02545838
000030 5f 18 66 3c b1 85 33 bd e1 af bd 3b 89 13 34 3d
       0.014043896 -0.04382867 0.0057887887 0.043963943
000040 b1 79 3c 3c 12 96 a3 3c 0e d5 8f bc ad 7a 4b bc
       0.011503623 0.01996902 -0.017557647 -0.012419385
000050 7c af b9 3c c8 cd 22 3d 95 8e 09 3d a9 4a 15 3c
       0.022666685 0.03974703 0.033583242 0.009112039
000060 9c ce 18 bc 33 24 95 bc a8 4e 35 bd 13 db 1e 3c
       -0.009326603 -0.018205738 -0.044264466 0.009695786
000070 6d 24 03 3d 4a 7e a0 3a bf be 22 3d 4c a2 bc bc
       0.03201716 0.0012244668 0.03973269 -0.023026608
000080 83 7e be 3c 8a 6c ed 3c 9d a2 52 3c 51 f6 18 bc
       0.023253685 0.02898242 0.012856153 -0.00933607
000090 b5 28 26 bd f4 b0 05 3d 71 b8 a0 bc a0 33 29 bd
       -0.040566165 0.03263946 -0.019619199 -0.041309
0000a0 85 7e 20 3d 55 e5 2a 3c 78 e4 a1 bc 64 36 08 3d
       0.03918316 0.010430654 -0.019762263 0.033254996
0000b0 e4 1b b3 3c a3 68 09 3d 29 df ef 3c 8f 61 c6 bc
       0.021863885 0.033547055 0.029281216 -0.024216441
0000c0 12 86 f7 3c b2 fa d1 bc 72 e8 0b bd 80 c8 84 3c
       0.030215297 -0.025632236 -0.034157224 0.016208887
0000d0 48 81 0c bd f9 e2 db bc 35 43 0a 3c 73 ef 33 3c
       -0.03430298 -0.026841627 0.008438875 0.010982382
0000e0 bb e7 07 bd ee e5 c9 bc 6b 0d a6 bc 65 99 bc bb
       -0.03317998 -0.024645772 -0.02027007 -0.0057555907
0000f0 7a 9b 14 3d bf ce d3 bc ac 76 c6 bc 7e 88 81 bc
       0.036281087 -0.02585542 -0.024226509 -0.015812155
000100 4a c9 94 3c c9 56 b4 bc e4 60 36 bd c7 19 01 3c
       0.018162388 -0.022014039 -0.044525996 0.007879681
000110 89 45 01 bd f3 8e d8 bc 34 02 22 3d 1a 57 1c 3d
       -0.031560455 -0.026435351 0.039552882 0.038169004
000120 48 19 0b bd 6e a1 04 bc 89 72 2c bc 46 1e 5f 3c
       -0.033959657 -0.008095128 -0.010525354 0.013618058
000130 d2 c8 d5 3c 32 14 9d bb 95 fb 75 3c 05 b5 ba 3a
       0.026096735 -0.0047936672 0.015013595 0.0014244622
000140 45 36 42 bc 1e 38 86 3a 6e 24 26 bd a8 43 3f 3c
       -0.011853759 0.0010240113 -0.040562086 0.011673845
000150 4c 7a 93 3c 70 6f 3f bc de da 10 3c 2c 45 34 bd
       0.018002652 -0.011684284 0.0088412445 -0.04401128
000160 f9 8e fc bb 43 d4 77 bc 48 0b 2a bd c6 44 84 bc
       -0.0077074734 -0.015126291 -0.041514665 -0.016146075
000170 b7 ee 60 bc 5d e7 8d 3c 4e 1f 2c 3c 63 33 0c bd
       -0.013728789 0.017322237 0.0105055105 -0.034228694
000180 21 d0 87 bb c3 25 1c 3d e3 70 9b 3c 8f 3a 64 bc
       -0.004144684 0.03812195 0.018974727 -0.013929977
000190 b9 0a 26 3d e8 fd 80 3c f8 20 14 3d a9 32 0b 3d
       0.04053757 0.015746072 0.036164254 0.03398386
0001a0 19 d1 f7 ba 4e 82 c8 3c 0d 0f 9f 3c e8 f0 2a bd
       -0.001890692 0.024476197 0.019416356 -0.041733652
0001b0 dd ee 1c 3d 59 2d 38 bc fe 1b 1b bc 84 d8 b6 bc
       0.038313735 -0.0112412805 -0.009467123 -0.02232004
0001c0 1f 77 81 3c ee d5 31 bd db 97 17 bd 3c 5e 09 3d
       0.015803872 -0.04341691 -0.037010055 0.033537135
0001d0 f8 be 28 3d a9 8a c8 3c 35 0d 55 bc 32 3a 99 3c
       0.041197747 0.02448018 -0.013003637 0.018704507
0001e0 23 39 c6 bc 51 e3 14 bd 1d 2b 09 3d b5 8b 04 bc
       -0.024197167 -0.0363496 0.03348838 -0.008089949
0001f0 01 8e c7 bb aa 68 f0 3b d0 c5 c3 3c 82 e4 76 3c
       -0.006089926 0.0073366957 0.023898035 0.015069129
000200 69 30 29 bc 5f 09 32 3c 48 69 76 bc c5 17 7b bb
       -0.010326483 0.010866492 -0.015039749 -0.0038313728
000210 4e 4c ce 3c dc 5d 04 bd e8 92 c6 bc fb 38 eb bb
       0.02518287 -0.032316074 -0.024239972 -0.0071784235
000220 c8 49 a3 bc 93 ed c9 bb d4 dc 04 3d 28 a0 fc bc
       -0.019932643 -0.0061623543 0.03243716 -0.030838087
000230 7c f0 d0 bc 11 f4 76 3c c8 98 26 bd df 62 85 bc
       -0.025505297 0.015072838 -0.040673047 -0.016282497
000240 12 b8 ce bc 3f 53 ea ba e1 83 c7 bc 3c fd 38 b9
       -0.025234256 -0.0017877592 -0.024354877 -0.00017641945
000250 d6 c5 7c 3c 1c 2c 62 bb 2f 3f c7 bc fa 28 97 bc
       0.015428027 -0.0034511155 -0.02432212 -0.018452156
000260 d5 10 1b bd b2 07 9d 3c 61 87 83 3c 2e 0c 85 bc
       -0.03785785 0.019168708 0.016055765 -0.01624116
000270 94 77 8a bb 6c f2 a2 bb 54 43 0b 3d f0 43 28 bb
       -0.0042256806 -0.0049727466 0.033999756 -0.002567526
000280 ef 1f 9e bc 10 ba f1 3b 62 a0 22 3d c1 2d cf 3c
       -0.019302336 0.0073769167 0.039703734 0.025290372
000290 23 9b f4 3c d2 33 95 bc 37 a4 af bc cc 3d c2 3c
       0.029859131 -0.018213186 -0.021440608 0.023711108
0002a0 b2 ad 72 bc 1d 9a 5e bc bd 3d 6f 3c fc c9 2a 3d
       -0.01481192 -0.013586548 0.014602122 0.041696534
0002b0 f9 5d b1 bc 93 d3 24 bd dc f3 b1 3b b6 5d ad bc
       -0.021651255 -0.040240835 0.0054306816 -0.021162849
0002c0 6f e0 ca bc 4d dc b8 3c 4b 2e 65 3b ee 1e fe bc
       -0.024765221 0.022565985 0.003497022 -0.031020608
0002d0 6e 8b 34 3d b7 5a b3 3c d0 af eb 3c 3c b9 6b bc
       0.044078283 0.021893842 0.028770357 -0.014387425
0002e0 7f c3 30 bd 1c 42 fd 3c af 48 02 bd 1e 9d 1f bd
       -0.04315519 0.030915312 -0.031807598 -0.038968198
0002f0 0e ba 16 3d e0 db a7 bb 2c 5e 54 3c fb 8b fc bc
       0.03679853 -0.0051226467 0.012961905 -0.030828467
000300 df 4a c4 3c d8 d6 0c 3c 5f 22 96 3c c2 a2 01 3d
       0.023961483 0.008596145 0.018326936 0.03164936
000310 70 69 cd bb e7 ab 19 bd 24 61 18 bc bc f2 f0 bc
       -0.0062686726 -0.037517454 -0.009300504 -0.02941262
000320 0c c3 88 bc 2a fe 0b bd f7 23 d5 3b 5c 48 0a bd
       -0.016694568 -0.034177937 0.0065045315 -0.033760414
000330 85 43 f3 3b 08 10 ca 3c 6d 83 db 3c fb 83 df bc
       0.0074238204 0.024665847 0.026796067 -0.027284613
000340 97 71 10 3c b7 fa 11 3c 1d cf 03 3d 18 cd eb 3c
       0.008816144 0.008909873 0.03217994 0.02878432
000350 af f6 0c 3c d8 42 cc bc b7 cb e9 3c 23 db 90 3c
       0.008603736 -0.024934217 0.028539522 0.017682618
000360 b7 35 fd 3c 02 01 2f 3d 0e 35 32 bd ec 7d 22 bb
       0.030909402 0.04272557 -0.04350763 -0.0024794294
000370 ea 99 d2 3c 9a dd b6 3c 61 c7 52 3c 61 1d b7 bb
       0.025708158 0.022322465 0.012864918 -0.005588219
000380 6f a6 36 3d 37 9f e7 3c f7 1d ec 3c 17 1c 92 3c
       0.044592317 0.028274162 0.028822882 0.01783566
000390 a7 87 d2 bc 14 77 23 bc e9 af 15 3c c7 f3 25 3b
       -0.02569945 -0.009977121 0.0091361785 0.0025322305
0003a0 62 73 55 bc 48 52 2b 3d 09 f8 6a bc 88 df 13 3d
       -0.013027998 0.041826516 -0.014341363 0.036101848
0003b0 c7 94 1a ba 9c 33 91 bc 8b e1 a0 bc 7c 57 e0 3c
       -0.00058968033 -0.017724805 -0.019638797 0.027385466
0003c0 43 2b a9 3c 27 3e bb 3b 98 d4 df 3c d3 4a 00 3d
       0.020650512 0.0057141962 0.027323052 0.031321358
0003d0 29 fb 14 bd 12 8a 0a 3d ce ce d3 3b c4 e7 3e bc
       -0.036372337 0.03382308 0.006463862 -0.011651937
0003e0 06 bb e1 bc f2 52 a9 3c 62 fe 2a 3d 09 7e d6 3c
       -0.027555 0.020669434 0.041746505 0.026183145
0003f0 a8 ee 1a bd 76 c3 74 3c 93 5d 1e 3d f0 7e 1b bd
       -0.037825257 0.01493918 0.038663458 -0.037962854

siam_layer.conv2.bias f4 [7]
000000 d0 4a f7 3c e0 be a3 3c 79 0c 93 bc a6 8a 67 bc
       0.03018704 0.019988477 -0.017950283 -0.014132177
000010 e7 90 22 bd 84 67 0a 3d 53 e2 b2 bc
       -0.03968897 0.033790126 -0.021836435

siam_layer.conv3.weight f4 [7, 14, 6, 6]
000000 5b c3 21 3c ee f5 ca 3c 57 75 e8 bc c2 90 f4 bc
       0.0098732365 0.024775472 -0.028376264 -0.029854182
000010 f6 2e ce 3b 78 5b 98 3c ba cd b3 3c b7 ca 2b 3d
       0.0062922193 0.018598303 0.021948684 0.04194137
000020 4e e1 ee bc 9d 3d a6 3c 23 76 4d 3c f5 1e 2d bd
       -0.029160168 0.020293051 0.012540373 -0.04226585
000030 e3 21 29 3d bb e6 e5 bc 3f 31 4d bb 7b e6 a6 bc
       0.041292083 -0.028064122 -0.003130987 -0.020373574
000040 77 e1 25 bd d5 b5 2f bd 41 9b 7e bb 6d 12 53 bc
       -0.040498223 -0.042898018 -0.0038849863 -0.012882811
000050 ff 80 5e bc 14 58 82 3c e7 f0 e6 bc bd d0 0f 3d
       -0.01358056 0.01591114 -0.028191043 0.035111178
000060 87 ab f1 bc bd 41 79 3b 80 9e 15 bd 9a 1e 99 bc
       -0.029500736 0.0038033568 -0.03652811 -0.01869135
000070 d8 36 51 3c e2 12 f3 3c 05 2b 21 bc 55 cb 86 3b
       0.012769423 0.02967209 -0.009836917 0.0041135945
000080 36 5d 3e 3c ab 49 d8 bc c9 56 2c bd 94 96 e0 bc
       0.011618903 -0.026402315 -0.042074952 -0.027415551
000090 bd 42 68 bc 71 91 04 3d 84 96 d6 3b 4e 83 63 3b
       -0.014176068 0.032365266 0.0065487046 0.0034715715
0000a0 aa 99 ba 3c 6c 2b 42 b9 5b 8d 9a 3c 05 3d 19 3d
       0.02277835 -0.00018517458 0.018866232 0.03741171
0000b0 f1 51 f7 3c 29 7c 83 3c 69 c7 b2 bc b9 54 7b 3a
       0.03019044 0.016050415 -0.021823602 0.0009587515
0000c0 7a b0 9c bb 39 f2 34 3c 62 c2 2b bc c0 90 03 bd
       -0.00478178 0.0110440785 -0.010483356 -0.032120466
0000d0 ea 40 ef 3c 2a 6f ba 3b 41 91 bf bc ff 7c de bc
       0.029205758 0.0056895213 -0.023384692 -0.027159212
0000e0 09 53 c9 3c 93 1b c3 3c a7 7a 2d bc e7 ba c4 bc
       0.024575727 0.02381686 -0.010588325 -0.024014903
0000f0 fa 6a b8 3b 05 91 f1 3c 75 ad 17 3d 7b 97 1e bd
       0.005627987 0.029488096 0.037030656 -0.03871868
000100 be 4e 07 3d 82 51 02 bb cb fd c3 3c a7 07 1a bd
       0.03303408 -0.0019885008 0.023924729 -0.037604954
000110 46 ed a0 ba 16 aa e1 bc ca 33 17 3d a5 ab 63 bb
       -0.0012277744 -0.027546924 0.036914624 -0.003473976
000120 81 7b 91 bc 98 c1 2e 3c c0 5c 29 3d 56 3a 2c bd
       -0.017759087 0.0106662735 0.04134822 -0.04204782
000130 66 43 cc bc 6d 2e 2b bd d0 a3 da 3c 00 a0 f5 bc
       -0.024934482 -0.041792322 0.02668944 -0.02998352
000140 60 72 9f bc 87 05 11 bd 07 77 a0 3c 12 80 64 bc
       -0.019463718 -0.035405662 0.019588007 -0.01394655
000150 41 9c 2d bd 00 44 ba 3c ab 67 17 bd df 32 46 ba
       -0.042385343 0.022737503 -0.0369641 -0.0007560681
000160 d5 86 1e 3d da 03 14 bd 58 47 5a 3c c4 8a c2 bb
       0.038702805 -0.036136486 0.013322674 -0.0059369523
000170 d2 68 a9 3c 15 24 21 bd 8d 2e 32 3c 68 78 58 bc
       0.020679865 -0.03934105 0.010875356 -0.013212301
000180 a0 02 d6 bb 05 26 10 bd 0c 16 c4 3c d2 b3 ab bc
       -0.0065310746 -0.03519251 0.023936294 -0.020959768
000190 b4 61 ce 3c bc 1f 8a bb 80 1a 3d bc 94 12 26 bd
       0.025193073 -0.004215209 -0.011541963 -0.04054506
0001a0 6f fa 28 bd 5c 18 09 bd 4d b7 88 3a 1e 60 28 bd
       -0.041254457 -0.033470497 0.0010430604 -0.04110729
0001b0 2e f4 27 3d bd 72 19 bd 13 d3 57 bc 32 9e 3d 3c
       0.041004352 -0.03746294 -0.013172883 0.011573361
0001c0 20 10 1d bd ac fd 07 3c 12 cc df bc 4a 2e 3f bc
       -0.038345456 0.008300226 -0.027318988 -0.011668751
0001d0 ae bc 79 3c 6f 06 25 3d 3f d0 e6 3c 8d 19 c7 3c
       0.015242739 0.04028934 0.028175471 0.024304176
0001e0 62 4a 1b bd 57 3f 63 3c c3 3a b5 3c e0 0e 31 bd
       -0.037912734 0.013870082 0.022122746 -0.043227077
0001f0 3e 88 d2 bb e1 9d 30 bd 64 0e 11 3d 36 80 db bb
       -0.0064249327 -0.043119315 0.035414115 -0.0066986335
000200 e8 44 49 bb c9 68 a5 bb 07 72 fa bc 38 01 1c 3d
       -0.0030711237 -0.0050478918 -0.03057195 0.0380871
000210 27 22 b7 3c 9c 0c 23 bd f4 b8 c7 bc 8f 29 15 3d
       0.022355152 -0.039806947 -0.024380185 0.036416586
000220 b7 32 d1 3c a7 5d 2a bc 13 50 77 bc db de 01 bd
       0.025536878 -0.010398305 -0.015094775 -0.031706672
000230 fe 97 84 bc 97 09 db bb f0 8b b7 3c 11 d8 2e b9
       -0.016185757 -0.006684493 0.022405595 -0.00016674424
000240 4d ab 3b 3c 3f 4c c8 bc d3 99 6e 3a 57 e8 15 3d
       0.0114544155 -0.02445042 0.0009101901 0.03659853
000250 dd 2f 05 bc 86 ee fa 3c 1f 0c 1e 3d 81 e2 e4 bc
       -0.008129087 0.030631315 0.03858578 -0.027940037
000260 8a 1f 9b 3c 36 1c 11 bd 58 fd 1f 3d 9a db 0a bd
       0.018935937 -0.035427295 0.039059967 -0.033900835
000270 02 6e 77 bc bb 20 79 bb 20 06 27 bd 7d 9c 1b 3d
       -0.0151019115 -0.0038013894 -0.040777326 0.037991036
000280 28 86 ef bc 03 36 08 3d 95 94 b9 3c 3e 3f 12 3c
       -0.029238775 0.033254635 0.022653857 0.008926211
000290 3f 9f b9 bb 32 7f 26 bd 18 27 a6 bc 90 10 00 bd
       -0.0056647356 -0.040648647 -0.020282313 -0.031265795
0002a0 64 7a 21 bd 2b 09 06 bc fb 9f df 3b 3f 97 66 3c
       -0.03942336 -0.008180897 0.006824491 0.014074146
0002b0 e9 32 e3 bc 94 08 12 3c 87 0b 06 bc 95 56 83 bc
       -0.027734237 0.008913178 -0.008181459 -0.016032496
0002c0 d6 38 2e bd 90 11 84 bb f7 41 1c bd fb 0c f2 bc
       -0.04253467 -0.004030414 -0.038148846 -0.029547205
0002d0 2c 81 34 3d a6 02 8c 3b c1 81 72 bc 28 15 bb 3c
       0.0440685 0.0042727767 -0.014801444 0.022837237
0002e0 a9 6b f2 bc 40 9a 40 3c 49 c6 6f bc 75 ba ec 3c
       -0.029592352 0.011755526 -0.014634677 0.028897503
0002f0 09 23 ef bc bc de 4a 3c 8a dc e0 3c 55 0c d8 3c
       -0.02919151 0.012382206 0.027448911 0.026373068
000300 c6 5c aa 3c 5c b3 a9 bb a5 fe 01 bb 5f c7 30 bd
       0.020796191 -0.005178852 -0.0019835618 -0.043158885
000310 db a3 0a 3d cc 19 0f bc f7 69 bc 3c a2 db 7a bc
       0.03384767 -0.008734178 0.022999747 -0.015311154
000320 3a 6f 12 bd a0 9d 32 3c 32 25 fd bc 31 58 5d bb
       -0.035750605 0.010901839 -0.030901525 -0.003377449
000330 33 26 18 bd f3 b7 0b 3c e8 ad 9c bb 97 ca 44 3b
       -0.037145805 0.008527744 -0.0047814734 0.003002798
000340 da 5f b3 bc 0b be cd 3b fa e7 82 bc d9 23 36 bd
       -0.021896292 0.0062787584 -0.015979756 -0.04446778
000350 e9 70 1a bd d4 84 d5 bc bf bb 9b 3c 5a 47 ad bc
       -0.037705336 -0.026064314 0.019010423 -0.021152187
000360 0b 7d 2c 3d 98 56 83 bc e6 a5 20 bd 81 e5 c8 3b
       0.042111438 -0.016032502 -0.039220713 0.0061308746
000370 54 5e 8e 3a 9a 5b f2 bb 33 88 12 bd 5d 77 bb bc
       0.0010861852 -0.0073961737 -0.03577442 -0.022884065
000380 21 52 9b bc 0e 77 cf bb 26 38 8b bc f4 90 62 3c
       -0.01896006 -0.006331331 -0.016994547 0.013828505
000390 5c 7e 18 bd 1a fc 03 bd 20 b7 c0 bb 1a 5e c2 3c
       -0.03722988 -0.032222845 -0.005881205 0.023726512
0003a0 6c ce 06 3c fa 9d 13 3d 40 d3 23 bd 1d 66 a2 bc
       0.008227926 0.03603933 -0.039996386 -0.019824082
0003b0 e8 df 8a 3c 2d 6b 6c bc 67 35 9f bc 8c 0e c7 3c
       0.01695247 -0.01442985 -0.019434644 0.024298929
0003c0 1d 48 d4 bb e6 e8 55 3c d6 c1 ae 3c 24 eb cb bc
       -0.006478323 0.013056016 0.021332663 -0.024892397
0003d0 2d 36 11 bd b2 db c7 3c 33 48 09 3d 7f 01 c1 3c
       -0.035452057 0.024396751 0.03351612 0.023560284
0003e0 fd ae 57 3c 8f 4d 2d 3d b4 ce 30 bc e8 a0 95 bb
       0.013164279 0.042310294 -0.010791469 -0.0045663007
0003f0 e9 20 3b 3c 37 66 96 bc 27 17 fa bc 6a 4c 28 3d
       0.011421421 -0.018359287 -0.030528618 0.0410885

siam_layer.conv3.bias f4 [7]
000000 4c 63 02 3d b4 66 ac 3c d0 bb c2 3c a0 66 c4 ba
       0.031832978 0.021045066 0.023771197 -0.0014984198
000010 40 7f fd 3a e0 a8 14 3d a8 38 52 3c
       0.0019340292 0.036293864 0.012830891

siam_layer.conv4.weight f4 [3, 14, 6, 6]
000000 b1 fc b2 bb ff 97 50 ba 3e 43 10 3d 08 a7 af bc
       -0.005462252 -0.00079572195 0.035220377 -0.021441951
000010 9e d6 00 3d 9d a5 d1 39 78 fe db bb 04 c5 26 bb
       0.031454675 0.00039986978 -0.0067136846 -0.002544702
000020 f3 27 0f bb 61 a0 dc bc 4d 64 db 3c 74 fa e8 bc
       -0.002184388 -0.026931943 0.026781226 -0.028439738
000030 4a 8c b6 bc c2 7c c0 3c 68 eb df 3c 3c 87 0a 3c
       -0.022283692 0.02349699 0.02733393 0.008455094
000040 99 16 dd bc 1e 6b 8b bc ab dc 50 3b a5 57 9f 3c
       -0.026988314 -0.01701885 0.003186981 0.019450972
000050 f2 02 0e 3d 40 aa af bc cc 77 16 bd a6 64 cc 3b
       0.034670778 -0.021443486 -0.03673534 0.006237584
000060 33 c8 5a 3c 51 69 02 3d a8 54 f7 3c c8 5c 11 3c
       0.013353395 0.03183872 0.030191734 0.008872218
000070 0e fd 1e 3b 7f b0 3d 3b fb 71 51 3c e7 2f be bc
       0.002425972 0.0028944311 0.012783523 -0.023216201
000080 ff 18 ad bc d8 08 fd 3c 37 60 5a 3b 50 44 70 bc
       -0.021130083 0.030888006 0.0033321509 -0.0146647245
000090 e7 22 c1 bc 7b 39 03 3d 47 10 cc bb 82 23 2a bd
       -0.023576213 0.03203724 -0.0062275263 -0.04153777
0000a0 e1 3d 96 3c 66 1b 17 3d 82 d2 fd bc ff de 33 3c
       0.018340053 0.036891364 -0.030984167 0.010978459
0000b0 94 a2 59 3c d9 71 cd 3c 6a 7f d1 3c 25 b8 97 bc
       0.013283391 0.0250787 0.025573451 -0.018520424
0000c0 85 f9 ee bc 4d 59 ad 3c de ac 36 3d b7 74 d6 bc
       -0.029171715 0.021160746 0.044598453 -0.0261787
0000d0 c8 e9 0e 3d c5 ca 37 3d fe 98 ac bc c5 b6 bf bb
       0.03489092 0.04487111 -0.021069046 -0.0058506452
0000e0 b5 75 07 3b 79 3a fa bc ab 7e b2 3b bd 65 05 3d
       0.0020669524 -0.03054546 0.005447229 0.03256773
0000f0 eb 06 e7 39 11 a3 93 3c 1b 4c 39 3b 60 5f be bb
       0.00044064908 0.018022092 0.0028274122 -0.0058097094
000100 be cd 32 3c 7b 21 2c bd d3 9a 65 bc be f6 ea 3c
       0.010913311 -0.042024117 -0.014013964 0.028682109
000110 07 ce 4c bb 7f 90 a6 bc bf c3 7c 3c ca b0 98 3b
       -0.0031250732 -0.020332573 0.015427529 0.004659747
000120 d4 2e 18 bc 0b d2 bf bc 64 a7 86 bc 64 b4 20 3c
       -0.009288508 -0.023415586 -0.01643724 0.0098086335
000130 44 1e 9c 3b ae 37 2b bc 79 b4 22 3d ad 02 97 bc
       0.00476435 -0.010450287 0.039722893 -0.018433893
000140 87 4e 04 bd 42 7b 2a bd de 6f ba bc 5e c6 0c bc
       -0.032301452 -0.041621454 -0.02275842 -0.008592216
000150 80 30 98 3c 63 fe 23 bd b5 d7 19 bd 08 a8 c6 bc
       0.018577814 -0.040037524 -0.03755923 -0.024250045
000160 72 48 b5 3c e2 57 cd bc 6d a3 8a 3c 1b da 85 3c
       0.022129271 -0.02506632 0.01692363 0.016339352
000170 2f f8 65 bc 42 1a cb bc e7 09 54 3c f0 4b 0e bd
       -0.014036222 -0.024792794 0.012941814 -0.03474039
000180 f8 0e 2a bd 39 3c 2b bd ac 32 28 3d 20 36 65 bc
       -0.04151818 -0.04180548 0.04106395 -0.013989955
000190 57 dc af bc 54 4c 54 bc c1 74 13 bd 6b 6a 21 bd
       -0.02146737 -0.012957651 -0.036000017 -0.03940813
0001a0 a6 5a 4c bc 32 2d d4 3c 74 a5 3a bc 6e c3 1a 3d
       -0.012472784 0.025900457 -0.011391986 0.037784033
0001b0 c7 b3 ab bb 15 3b 48 bc 6a f3 17 bd ea a9 34 3d
       -0.005239937 -0.0122211175 -0.037097372 0.044107355
0001c0 fb 35 54 3c 44 7a 36 3d 0c b9 64 3c b9 e6 0b 3d
       0.012952323 0.044550195 0.013960134 0.03415558
0001d0 8b 60 ef ba 34 5d 10 3d f8 fe 6f 3a 72 57 0a 3d
       -0.0018263025 0.035245135 0.000915512 0.0337748
0001e0 7d 99 d9 3c 7f dd b0 3c 24 ec 9e 39 ac 9e ce 3c
       0.026562447 0.021589993 0.00030312047 0.025222145
0001f0 18 14 c8 bc 3a 6b 1c bc f4 a4 cf 3c 42 d4 74 3c
       -0.024423644 -0.009547049 0.02534721 0.014943184
000200 2a 37 9b 3c 36 b1 cb bc d6 82 16 bb 7f a5 96 3b
       0.018947203 -0.024864774 -0.0022966168 0.0045973654
000210 45 5f 0a bc 18 72 b6 bc 56 dd 40 3b 63 88 bd bc
       -0.008445566 -0.022271201 0.0029428801 -0.023136323
000220 b4 25 dd bc 11 a9 21 3d d1 46 d8 3c 86 8e 76 bc
       -0.026995517 0.039467875 0.026400955 -0.015048629
000230 4a 87 ff 3c c1 6d 85 ba 3b 82 09 3d 88 54 57 bc
       0.03119244 -0.0010179804 0.033571463 -0.013142712
000240 54 17 bd 3a 46 a3 e0 bc f2 55 31 3d 11 63 67 bc
       0.0014426508 -0.027421605 0.043294854 -0.01412274
000250 8e 77 97 3c 2e 1a e4 bc d2 4a 0b bd 4e 2b d5 bb
       0.018489625 -0.027844515 -0.0340069 -0.0065054065
000260 70 a9 ed bc 80 9a 68 3b b2 68 96 3c c0 c5 d5 3c
       -0.029011458 0.003549248 0.01836047 0.026095271
000270 60 41 1d 3c 36 d5 da 3c c9 c1 22 3d 56 c0 ee 3c
       0.009598106 0.026712995 0.03973559 0.029144447
000280 80 d0 19 3d b0 3d 81 3b db 39 2c bb fc e2 ae 3c
       0.037552357 0.0039441213 -0.0026279602 0.021348469
000290 36 77 71 bc 71 d2 2a bd 29 de 7f 3c e4 88 b1 3b
       -0.014737895 -0.0417046 0.015616932 0.00541793
0002a0 37 a6 d7 bc e6 20 ea 3c 8c ea 45 3c 25 e8 2a 3c
       -0.026324375 0.02858014 0.012079846 0.010431324
0002b0 9f 89 33 bd 76 3e d9 3c f3 1a 12 3c aa e7 76 bc
       -0.043832418 0.026519042 0.008917558 -0.015069881
0002c0 fc 15 fd bc 7e fa 6c bc 5c 74 f1 bc 76 c1 af bb
       -0.030894272 -0.014464019 -0.02947443 -0.0053636385
0002d0 fb 07 82 3c c2 cc 58 bc b0 99 fb 3c 60 cf 40 3c
       0.015872946 -0.013232412 0.030712932 0.011768192
0002e0 54 c0 17 3d 15 ed 97 3c fc 9d 30 bb 16 d8 00 3d
       0.037048653 0.018545667 -0.0026949635 0.031456076
0002f0 d3 b6 17 3d 09 2f 8b bb f5 63 15 bd 88 1d 61 bb
       0.03703959 -0.0042475504 -0.03647228 -0.0034349877
000300 56 69 54 3c aa a3 ce bc c5 da 16 bd 88 27 52 bc
       0.012964567 -0.025224525 -0.03682973 -0.012826808
000310 54 39 7f 3c 46 6d 18 3d fd 08 c1 3c fb 94 cd bb
       0.015577633 0.037213586 0.023563856 -0.0062738634
000320 46 8b 30 3d b3 e7 a0 bb 9b 5b 6f bc b5 a1 32 bc
       0.04310157 -0.004910433 -0.014609243 -0.010902812
000330 bf 2f 2a bc f0 32 32 3d 41 5e 82 bc 53 59 99 bc
       -0.01038736 0.04350561 -0.015914084 -0.01871935
000340 65 18 ad 3c ed 0b 0e 3d af a0 11 3d 0e 59 28 bd
       0.021129796 0.034679342 0.03555363 -0.041100554
000350 f6 b3 a4 bc ee 3c ad 3b 2f 2d a0 3c eb 24 02 bd
       -0.020105343 0.0052868044 0.019552795 -0.03177349
000360 dd 74 79 bc 31 32 31 3d 30 37 a9 3b e5 3a 9a bc
       -0.015225616 0.043260757 0.0051640496 -0.018826911
000370 80 63 1d bb ed 0d 59 bc a8 5f 1b bc 8e 5b 0d 3d
       -0.0024015605 -0.013247949 -0.009483255 0.03451114
000380 ca a2 25 3c 4b c2 ba 3c 1c a4 88 bc f8 05 87 3c
       0.010109613 0.022797724 -0.016679816 0.016482338
000390 79 84 9c 3c b8 0c d2 3c e1 4a 0f 3d 1b eb 2c bc
       0.019106137 0.02564083 0.03498352 -0.0105541
0003a0 30 e3 ce 3c f3 df 8c bb 91 3b ad 3c 57 51 10 bd
       0.025254816 -0.0042991578 0.021146568 -0.03523382
0003b0 01 ef 10 3c c4 18 2b 3c b7 ad 28 3d 0e 38 8d 3c
       0.0088460455 0.010442916 0.041181292 0.017238643
0003c0 2b 30 01 3c 8f 15 be 3c b4 f8 0d bd 46 07 5a bc
       0.007885019 0.02320364 -0.03466101 -0.013307398
0003d0 c2 4e ed 3c d4 91 29 bd f7 05 cb 3c 00 e7 18 3c
       0.028968219 -0.04139884 0.024783118 0.009332418
0003e0 f0 d9 12 bd fd bd a6 3c aa a4 e4 3c 1f 79 10 3d
       -0.035852373 0.020354265 0.02791055 0.03527176
0003f0 b4 cf 3b 3c c4 7d 22 bd 8d 88 d0 bb 0e 7d 15 3d
       0.0114630945 -0.03967072 -0.0063639344 0.036496215

siam_layer.conv4.bias f4 [3]
000000 e2 1a 94 bc c4 b3 c0 3c 7e aa 10 bd
       -0.018079225 0.023523219 -0.035318844

siam_layer.conv5.weight f4 [1, 3, 6, 6]
000000 34 68 b3 bd d9 a7 37 bd 14 48 1a 3c ef cf a1 3d
       -0.087601095 -0.044837806 0.009416599 0.07900988
000010 18 68 23 bc 86 4d 6c 3d 2d 47 80 3d 93 15 c6 3c
       -0.009973548 0.05769112 0.06263576 0.02418021
000020 46 8c 72 bd e5 73 13 bd b4 f9 b7 bd 7c 89 99 3d
       -0.059215806 -0.035999198 -0.08983174 0.07496926
000030 dc b3 b8 bd b1 9f 88 3c ac 29 8d bd b0 19 51 3d
       -0.090186805 0.01667771 -0.06892714 0.051049888
000040 a7 16 95 3d 2d a1 c7 bc 54 6d 6c bc 8a 11 06 bd
       0.07279711 -0.024368847 -0.014430363 -0.03273157
000050 c6 5d 9b bc fc d1 c3 bd 35 aa 6f bd 7c f7 2a bd
       -0.018965613 -0.09561536 -0.05851193 -0.041739926
000060 d2 7d 9a 3c 77 56 64 3d 4e 3d 16 3d e1 ef 35 3c
       0.018858824 0.05574652 0.03667956 0.011104555
000070 a2 d7 a2 bd 73 d4 c4 bc b0 4a 45 bd cf 65 fa bc
       -0.07951285 -0.024027085 -0.04816693 -0.030566124
000080 95 2e e2 3c 55 1d 88 bd 9b 78 8a 3d eb 87 50 3d
       0.027610103 -0.0664622 0.06761285 0.05091087
000090 48 2f 49 3d 39 34 86 bd 9d fa c3 bc 7d fd 0b bd
       0.049117357 -0.065529294 -0.023923213 -0.034177292
0000a0 77 de e5 3c f6 3d ae bb e0 45 9b bc ed f9 0d bb
       0.028060181 -0.005317445 -0.018954217 -0.002166386
0000b0 a1 a1 69 39 8f 19 ea 3c 62 58 a4 bc ca 51 c5 bc
       0.00022280823 0.02857664 -0.020061675 -0.024086852
0000c0 c5 32 96 3d 05 85 b1 3d 8a 8e 9c 3c b5 ff af 3d
       0.07333902 0.086679496 0.019110937 0.08593694
0000d0 e5 ca a1 bd 96 bd bf 3d 92 14 a1 bd 7a 33 80 bd
       -0.07900027 0.093623325 -0.078652516 -0.062598184
0000e0 0b 59 fe bb 44 f6 95 bd 11 10 1e bd 8a 93 53 bd
       -0.0077620796 -0.07322362 -0.03858954 -0.051654376
0000f0 23 aa a5 bd c8 fe 7b 3d a6 e5 9f 3d 8a 51 91 3b
       -0.08089092 0.061522275 0.07807474 0.004434769
000100 2b ad d1 3c 06 0c ad bc db c6 24 bd 08 80 50 bc
       0.025595268 -0.021123897 -0.040228706 -0.0127258375
000110 f3 69 8a 3d 6c 55 bc 3d f1 50 63 3c 5c a3 d0 bb
       0.067584895 0.091959804 0.013874278 -0.00636713
000120 74 2b b9 3d c0 ab eb 3b c2 86 c5 bd 64 00 6f bd
       0.09041491 0.007192105 -0.09644844 -0.058349982
000130 e0 93 38 bc e6 46 bd bc f7 6d b6 3d d9 b6 5c bd
       -0.011265725 -0.023105096 0.08907693 -0.053885315
000140 e9 15 a4 3c e5 1e 32 bc a1 84 7f 3d 8c 43 49 3d
       0.020029979 -0.010871624 0.062382344 0.049136683
000150 9e a1 72 3c cc 6a ba bc 33 5c 5b bd e6 c1 bb bd
       0.01480904 -0.022756003 -0.053554725 -0.091678426
000160 45 b1 48 3d e6 2d 15 3d 19 ae 20 3d ae 50 d4 3c
       0.048997182 0.036420725 0.039228532 0.025917377
000170 b0 75 a4 3d 89 d3 f5 3c 64 f7 1c 3c a5 d8 24 bd
       0.080302596 0.030008094 0.009580467 -0.04024567
000180 ad 6c 83 3d c1 4a 7e bd 31 8a b3 3c f2 4e ef 3c
       0.06417213 -0.06208301 0.02191648 0.029212449
000190 9e a5 a8 bb f7 44 9e 3d 2d 2c 49 3d 3c 17 ad bd
       -0.005146696 0.07727998 0.049114395 -0.08451697
0001a0 cd a2 0e bd 75 cc 1e bd 13 54 30 3d 71 26 09 3c
       -0.034823228 -0.038769204 0.04304893 0.008370982

siam_layer.conv6.weight f4 [1, 3, 6, 6]
000000 3b 15 31 bc 68 e4 16 bc ab 8b 71 3d 04 51 b5 bc
       -0.010808284 -0.00920973 0.05897109 -0.022133358
000010 13 03 8d 3d 38 06 a7 bd 56 48 a0 3d 9b f7 f3 3c
       0.06885352 -0.08155483 0.07826297 0.029781153
000020 71 1a 28 3d 83 96 7d bd 99 13 bc bd d5 10 c4 bd
       0.04104084 -0.061911117 -0.091834255 -0.09573523
000030 6b 55 31 bc dd 7e bf 3d 93 d6 c0 3d 79 dc f3 3b
       -0.010823588 0.09350369 0.09415927 0.007442054
000040 78 16 bb 3d e8 48 b7 bd e4 ef 71 bb ca cb 93 3d
       0.09135145 -0.08949453 -0.0036916668 0.07216604
000050 65 75 00 3d 26 aa b9 3d a9 fe d3 3c 1e 34 c3 bd
       0.031361956 0.09065656 0.025878267 -0.09531425
000060 b0 9e b1 bd b9 0f 4c 3c 6c 16 54 bd 7b b4 83 3c
       -0.08672845 0.01245492 -0.051779196 0.01607727
000070 48 40 fe 3c 3f d4 bb 3d 68 5c b6 3c cf 1d 8d 3b
       0.031036511 0.09171342 0.02226086 0.004306532
000080 31 ea a4 bd 5e 80 b7 3d bf ab 62 3d 3c 20 43 bd
       -0.08052481 0.08960031 0.05533957 -0.047638163
000090 57 c2 96 bd 12 66 67 bd ce 62 f4 3a 9b 48 fb bc
       -0.07361286 -0.056493826 0.0018645169 -0.03067427
0000a0 82 d1 07 bd 03 9f ac bd 09 5e 30 bd 4b d2 22 bd
       -0.033158787 -0.084287666 -0.04305843 -0.039751332
0000b0 78 14 69 3d 7b 4a 46 3d 60 d3 32 3d a2 22 c9 bb
       0.056904286 0.048410874 0.043658614 -0.0061381618
0000c0 f4 31 9d bd 15 4f b2 b9 ab 04 68 3d 96 cd 02 3d
       -0.076755434 -0.00034009726 0.056645077 0.031934343
0000d0 79 53 24 3d a8 4e 87 3d dc b7 99 bc 8a 7e a0 bc
       0.04011867 0.06606799 -0.018764429 -0.019591589
0000e0 ab 4b 48 bc b4 58 8d bc 3b a9 49 bd d2 6c 6e bd
       -0.012225072 -0.017254211 -0.049233656 -0.058209248
0000f0 02 cb 9c 3d d3 a1 63 3d 9a 38 8a bd 6f 68 38 3c
       0.07655908 0.05557425 -0.06749077 0.011255368
000100 8f 69 46 bd 16 40 e5 bb ed 8a 9e bd 94 8f 9e bd
       -0.048440512 -0.006996165 -0.07741342 -0.07742229
000110 8b 53 ad 3d 7f 15 4e 3d f7 72 80 3d a2 5c 0d 3d
       0.084632 0.05031347 0.06271928 0.03451217
000120 f5 d1 96 bd ba c3 1f bd a8 62 51 3d 4a 1c 4c bc
       -0.07364265 -0.03900502 0.051119477 -0.0124579165
000130 dc b2 97 bd ed 57 c3 bd 06 c7 c4 bd 10 77 35 bd
       -0.074071616 -0.09538255 -0.09608273 -0.044303
000140 44 b8 37 3d 79 2a b1 3d fd 7a 4a 3d d5 1a 65 bd
       0.044853464 0.08650679 0.049433697 -0.055933792
000150 c2 90 31 bd 89 7a 89 3c 24 dc c1 bd 0c 07 b0 bd
       -0.043350942 0.016782062 -0.094658166 -0.08595094
000160 b4 20 97 bd e7 4a e3 3c f4 61 01 bd f1 5a 1d bd
       -0.073792845 0.027745677 -0.031587556 -0.038416807
000170 ae 1a 9b 3d b9 1c 6c 3d a1 f0 f2 3c 82 93 5d bd
       0.07573448 0.05764458 0.029655756 -0.054095753
000180 4d 79 f9 bc fc af 3d 3b 94 a9 4f bd 4d 4c 51 bd
       -0.030453349 0.0028944006 -0.05069883 -0.051098157
000190 a7 b4 c3 bd 1d 94 78 bd c8 01 b9 bd 41 c1 74 3d
       -0.09555941 -0.060688127 -0.09033543 0.059754614
0001a0 71 ff 3e 3c 8c 1e d5 bc d6 e9 a2 3d 91 05 22 bd
       0.011657582 -0.026015542 0.07954757 -0.03955609

siam_layer.conv7.weight f4 [1, 2, 6, 6]
000000 60 36 ed 3c 00 45 82 3d 53 67 ab bd 3d 4c e1 3d
       0.028956592 0.06360817 -0.08369317 0.110008694
000010 a7 26 52 3c 4c 87 a4 3d 4e a0 0c 3d b0 45 cf bd
       0.012826598 0.08033618 0.034332566 -0.10120714
000020 01 16 a4 bd b3 e1 93 bd 28 3d c1 3d f0 b9 94 ba
       -0.080120094 -0.07220783 0.09435493 -0.0011346918
000030 17 92 61 bd 82 3e dd 3a 58 56 e4 bd 82 2c ba 3d
       -0.055070963 0.0016879591 -0.11149281 0.090905204
000040 e0 fa e4 bd a1 c1 1a bc 07 65 2b bd 88 82 ac bc
       -0.11180663 -0.009445579 -0.041844394 -0.021058336
000050 e0 67 e4 bd 3c c5 8e 3c bd eb e4 3d 67 0d c8 bc
       -0.11152625 0.017428033 0.11177776 -0.024420453
000060 66 d7 be 3c 83 f5 82 3c e2 bb ac 3d e6 0e 81 bc
       0.02329607 0.01598621 0.08434273 -0.015754174
000070 2f b6 dc 3d 5f d4 75 38 84 71 b8 bd c3 3b f0 3c
       0.10776936 5.8610338e-05 -0.090060264 0.029325372
000080 cf ba d0 3b 42 d5 c2 bc 60 c9 c3 bd 72 b8 3f 3d
       0.0063699256 -0.02378333 -0.095598936 0.04680676
000090 bf 6d ba 3d 00 e2 10 bd a8 66 db bd ad 9e 85 bd
       0.09102964 -0.03537178 -0.107129395 -0.06524406
0000a0 5d d1 25 3d 96 55 b7 3d ff a1 68 3d 1d d3 86 3d
       0.040482868 0.08951871 0.056795117 0.065832354
0000b0 6c 85 83 bd be ce 8c bd 8e c6 e1 3d ac ac c9 bd
       -0.064219326 -0.068753704 0.110241994 -0.09847388
0000c0 26 2d db bd b4 4d 0f 3c b8 7c c2 bd 2f 3c ef bb
       -0.10701971 0.008746553 -0.094964445 -0.0073008756
0000d0 95 e2 10 3d 1e 73 b8 bd fa a7 4f bd f8 0c eb 3d
       0.035372335 -0.09006332 -0.050697304 0.11477083
0000e0 f5 b3 e6 bd cd e0 bf bd 19 9c bc bd 6c 26 97 bc
       -0.11264793 -0.09369049 -0.09209461 -0.018450938
0000f0 26 93 e5 3c 86 8e e2 3c b2 c9 cc 3d 0c 99 08 3d
       0.028024267 0.027655851 0.09999408 0.033349082
000100 34 f0 c9 bd 61 86 10 3d 78 bc e9 bd c9 de 9a bd
       -0.09860268 0.035284404 -0.11412901 -0.07562024
000110 8f 08 7d bc 77 ca 8d 3d fa dc cb 3c 0a 50 da 3d
       -0.015443935 0.06923383 0.024885643 0.106597975

dense.weight f4 [1, 308]
000000 64 e5 08 bd 16 ba 23 3d cc 04 14 bd c5 e3 47 3d
       -0.03342189 0.039972387 -0.036137387 0.048801202
000010 2b 04 84 bc 6f 2b 92 3c 33 42 45 3c 8c fe d4 bb
       -0.016115269 0.017842976 0.012039709 -0.006500071
000020 a2 3b 1a 3b 5e fc 3e bb 37 01 3f bd bf e5 bd bc
       0.002353408 -0.0029142122 -0.046632018 -0.02318084
000030 e6 a1 b8 bb ba 40 b8 3c b7 70 24 bd 48 17 0d bd
       -0.005634534 0.022491802 -0.040146556 -0.03444603
000040 c5 4c 02 bd 53 b5 ad b9 e7 00 a2 3c 47 1f 2d 3c
       -0.031811494 -0.00033132228 0.01977582 0.010566539
000050 c2 6c 22 bd a6 eb 05 3d a4 4f 7e 3c e1 58 1f 3d
       -0.0396545 0.032695435 0.0155219175 0.03890312
000060 8f 72 1e bd e1 08 33 ba 62 a0 74 bb 14 3b d9 3c
       -0.03868347 -0.0006829631 -0.003732704 0.026517428
000070 02 bd bc bc 48 72 20 3d 75 ed c8 3c cd ed 96 3c
       -0.023039345 0.039171487 0.02452729 0.01842394
000080 28 5f de bc a2 36 32 bc bc 59 85 bc ae 1d 0e bd
       -0.027144983 -0.010877283 -0.01627814 -0.034696274
000090 69 f1 08 bd 5c 8a 13 3b 96 e8 b2 3c c8 ed 21 3c
       -0.03343335 0.0022512889 0.021839421 0.009883352
0000a0 f4 a2 44 bc f0 0d 11 3b 3f 21 9d 3c 5f 5d 9e bc
       -0.012001742 0.0022133552 0.019180892 -0.019331632
0000b0 e7 22 44 bd 84 15 51 bd 77 f4 9a 39 d7 d3 5f 3b
       -0.047884848 -0.05104591 0.0002955531 0.0034153366
0000c0 22 28 24 3b b2 be fe 3c e1 6b 42 3d cf 2f 53 bd
       0.0025048335 0.03109679 0.047466163 -0.051559266
0000d0 e2 7a 8f bc 47 aa 32 bb d4 30 29 bd 68 97 b6 3b
       -0.01751465 -0.0027262138 -0.04130633 0.0055722483
0000e0 10 66 4f bd 32 a4 41 bd 42 f0 ed 3c c0 51 61 3d
       -0.050634444 -0.04727573 0.029045228 0.055009604
0000f0 62 a1 4d 3d 9b 30 38 bd 8b b7 e7 3b 4c 8d 30 3d
       0.050202735 -0.04496823 0.0070714406 0.0431035
000100 5c c9 02 3c b5 65 24 3d 33 4f 51 3d 71 4a 18 3d
       0.007982578 0.040136058 0.05110092 0.037180368
000110 0a 05 1e bd e7 5f 32 bc c6 aa cd 3c 73 aa 02 3c
       -0.038579024 -0.010887123 0.025105845 0.007975209
000120 cb b6 a9 bc fa f1 f9 bb 53 2f 5a bc fe 49 5f 3d
       -0.020717045 -0.007627723 -0.013316947 0.054513924
000130 29 31 0c bd d2 aa 2d 3d 2c af 44 bd 4d f4 23 3d
       -0.03422657 0.042399235 -0.04801862 0.040027905
000140 7c 0b e3 bc c8 4a 95 3a 38 c0 6e bc 6e c0 b5 3b
       -0.027715437 0.0011390084 -0.014572196 0.005546621
000150 e4 ad 23 bc 14 e7 90 3c 47 65 32 bd 83 72 69 bc
       -0.009990189 0.017688312 -0.043553617 -0.014248493
000160 1a 55 8b bc f7 d8 5a bd 5f f2 03 3c 64 a8 08 3d
       -0.017008353 -0.05342957 0.008053391 0.033363715
000170 37 7a 1c bc ee b2 0a bd ca 1f 53 bd 90 b9 ee 3c
       -0.009550623 -0.033862047 -0.05154399 0.029141217
000180 9a ee 60 bd 84 01 c6 3b f5 e1 04 bd b1 62 59 3d
       -0.05491505 0.006042661 -0.032442052 0.053072635
000190 58 60 96 3c 7e c5 1e 3d 98 59 31 3d e7 19 d5 bc
       0.018356487 0.038762562 0.043298334 -0.026013328
0001a0 80 5a 06 bd 48 c0 fc ba 8d 69 d4 bb 98 af 4e bd
       -0.03280115 -0.0019283378 -0.006482309 -0.050460428
0001b0 14 d0 ad 3c 5f f8 3f bd 34 38 a2 3c a2 e5 95 bc
       0.021217383 -0.046867725 0.01980219 -0.018297974
0001c0 cd 1a ff 3b f0 5c 0a bd 00 5e 5b 3c f6 23 93 3b
       0.0077851773 -0.03378004 0.013389111 0.004490371
0001d0 55 ee 94 bc d2 98 12 3d 82 4a 00 3d 75 62 ea 37
       -0.018180052 0.035790272 0.031321056 2.7940821e-05
0001e0 aa c4 25 bd 88 95 46 bd f0 10 78 3b 2b 1d 20 3d
       -0.040470757 -0.048482448 0.0037851892 0.039090317
0001f0 92 f8 cb bc b7 e3 d2 bc df 44 5a bd de e8 51 bd
       -0.024898801 -0.025743349 -0.053288337 -0.05124747
000200 4e b3 4b bc 83 7c b9 3b 93 e7 1a 3b 53 7d 5f bc
       -0.012432886 0.005660595 0.0023636564 -0.0136407195
000210 e6 4a d4 bc fe 04 53 bd 42 02 39 3d 40 c4 36 bd
       -0.02591462 -0.051518433 0.04516817 -0.044620752
000220 46 34 06 3d b1 21 d9 3c 60 0c 1c 3c 5a 44 2a bd
       0.032764696 0.026505323 0.009524435 -0.04156909
000230 21 d9 09 bd eb 86 d3 3c d5 54 51 bd 5d dc ad 3c
       -0.033654336 0.02582117 -0.051106293 0.021223241
000240 02 df ae b9 6b 37 1f bd db 59 1a bc 3d eb f6 3c
       -0.0003335402 -0.03887121 -0.009420837 0.030141467
000250 5f 4c 54 bd db 66 80 3c 47 e2 b4 3a 2e 47 45 bd
       -0.051830646 0.015674045 0.0013800346 -0.048163585
000260 2d 8c de bc 5a 01 c3 3c fe ec 89 3c 43 2d 97 3b
       -0.02716645 0.023804355 0.01683664 0.00461355
000270 ef 30 67 3b 19 74 63 3d 93 bf e1 3c ac d6 38 3d
       0.003527697 0.05553064 0.02755717 0.045126602
000280 00 cb 28 3d 12 f1 53 3d 29 67 60 bd 9a 65 32 bc
       0.04120922 0.051743574 -0.05478588 -0.0108884815
000290 27 91 1e 3d 9a c0 0e 3d f5 ba 16 bc 7a 0a 59 3d
       0.038712647 0.034851648 -0.0091998475 0.052988507
0002a0 bd c2 28 3d 8d 71 9d bc 7d 28 4f bd e6 cc b1 3c
       0.041201342 -0.019219184 -0.050575722 0.021704149
0002b0 75 f1 05 3d 40 0a be b9 8d ce 5f 3d 88 fc 63 bc
       0.032700974 -0.0003624726 0.05464034 -0.013915189
0002c0 45 40 9b bc d0 95 47 3d b0 10 f9 3c fd e2 30 3d
       -0.018951545 0.048726857 0.030403465 0.043185223
0002d0 8e ab 56 bd 53 f8 27 3d 60 14 59 bc b1 e0 37 bd
       -0.0524097 0.041008305 -0.013249487 -0.044892017
0002e0 22 0e 2e 3d 87 63 fd 3c dc 6d 1a 3d 8f 7b b5 3b
       0.042493947 0.030931247 0.037702426 0.005538411
0002f0 a5 a9 d6 3b 47 82 10 3d ba 15 d3 bc 93 30 af bc
       0.006550985 0.035280492 -0.025767196 -0.021385467
000300 af df 8d 3b 56 1e ab bb 2a dd 8f 3c bf db d8 3a
       0.0043296437 -0.005222122 0.017561514 0.0016544982
000310 f0 f6 20 3d ee ea 34 bc 70 f1 53 3d 89 97 63 3d
       0.039297998 -0.01104234 0.051743925 0.055564437
000320 58 04 c7 bb 04 05 c6 3c 35 16 66 3c 38 de 0d 3d
       -0.006073516 0.024172314 0.0140433805 0.034635752
000330 67 73 f7 bc 01 07 19 3d 12 d1 35 3d de 85 90 bc
       -0.030206395 0.037360195 0.044388838 -0.017641958
000340 30 c8 fa 3c e7 16 80 bc da 98 1d bd 2b 22 1e 3d
       0.030613035 -0.01563592 -0.03847585 0.038606804
000350 a8 43 b6 bc be 12 10 3d f2 1a 17 bd dd 2a d7 3c
       -0.022249058 0.035174124 -0.03689093 0.026265556
000360 95 29 d0 bc 58 88 58 3d 7b 5f 22 bd af b0 d2 bc
       -0.025410453 0.052864403 -0.03964184 -0.025719015
000370 12 5c 43 3d fc 02 9d 3c 28 e6 f0 3c 25 d4 b7 3c
       0.047695227 0.019166462 0.029406622 0.022440026
000380 af 40 00 bd e8 9d 65 3c f6 ee 3b 3d 55 8d 8c 3c
       -0.031311687 0.014014699 0.045882188 0.017157236
000390 ff 0b 2b 3b 30 7f 12 bd 14 13 5c 3d 32 76 e1 3c
       0.002609968 -0.035765827 0.05372913 0.02752218
0003a0 06 b8 0a bc 30 2d ba bc f0 f6 5e 3d 77 97 bf bc
       -0.008466726 -0.022726625 0.054434717 -0.023387654
0003b0 51 8f ad bc 35 b8 0b 3d 4e 86 64 bd d5 25 30 bc
       -0.021186503 0.03411122 -0.055792145 -0.010751207
0003c0 72 9a 1f 3d 23 c3 04 bd 16 b7 d4 3c 2d 34 e7 bc
       0.03896565 -0.03241266 0.025966208 -0.028223122
0003d0 74 dd ef 3c 78 8f 41 bd 1f c0 8b 3c 14 f9 1f 3d
       0.029280402 -0.047255963 0.017059384 0.0390559
0003e0 92 69 00 bc a3 a8 84 3c 00 cd af 3c 12 46 c0 3c
       -0.00783767 0.016193694 0.021460056 0.023470912
0003f0 6b 57 07 3d 11 44 34 bd 0c 6e 48 bd f0 10 55 bc
       0.033042353 -0.044010226 -0.048933074 -0.0130045265
