siamese-classifier/siam_v3_10.pth (torch, 104363 bytes, 12 tensors)

siam_layer.conv1.weight f4 [14, 31, 6, 6]
000000 a1 79 a2 ba de 93 6e bc 1b a5 a4 3b cd 2e 17 bb
       -0.0012395867 -0.0145616215 0.005024565 -0.0023068667
000010 16 8b db 3c f3 7d 98 3a 30 ef af 3b f1 75 54 bc
       0.02679972 0.0011634215 0.0053690895 -0.012967573
000020 39 23 9d bc ff 83 f1 bc a0 f7 ca bc d6 4f d5 3c
       -0.019181835 -0.029481886 -0.02477628 0.026039045
000030 a4 46 da bc a4 d6 b5 bb c7 94 37 3b 0d 31 f9 3b
       -0.026645012 -0.005549269 0.0028012262 0.0076047243
000040 1b 62 82 ba 76 b0 94 bc 00 7c c3 bc 4c 1d a3 3b
       -0.0009947451 -0.01815055 -0.023862839 0.0049778577
000050 b4 16 95 3b e9 aa ab 3a bb b3 95 3c e7 37 ce 3c
       0.0045498256 0.00130972 0.018274179 0.02517314
000060 7b e6 71 bc 57 40 85 bc f8 f1 c6 bc c1 01 13 bb
       -0.0147644235 -0.016266031 -0.024285302 -0.0022431465
000070 4e a6 cb 3c b9 9f d2 3c 19 cb e3 3c e7 60 a1 3c
       0.024859574 0.025710927 0.027806805 0.019699527
000080 ef e6 9b bc 2e c3 93 3c 2e 65 51 3c 2f d9 21 bc
       -0.019031016 0.018037405 0.012780471 -0.009878441
000090 02 0f 18 bb 31 33 a7 3c b6 e0 8a bc 02 93 25 3b
       -0.0023202305 0.020410152 -0.016952854 0.0025264625
0000a0 78 77 68 3c 74 d0 5b bb ca 65 c3 3c ab 7d 20 3b
       0.01418864 -0.0033540996 0.023852248 0.0024488966
0000b0 71 09 b0 bb 1e 57 ff ba 65 18 9c 3c ad 59 c6 bc
       -0.0053722193 -0.0019480919 0.019054601 -0.024212683
0000c0 07 dc 64 3b 7b 90 ce 3c d5 16 76 bc 94 42 29 3c
       0.0034921186 0.025215378 -0.015020092 0.010330815
0000d0 97 be a5 3c af 90 47 bc cb ea b0 bc 8a dc d3 bc
       0.020232482 -0.012180491 -0.021596333 -0.025861997
0000e0 0f e3 17 bb 61 0d ac 3c 51 24 20 bc 7b 96 96 3c
       -0.002317611 0.021002473 -0.0097742835 0.018382302
0000f0 ab b2 52 3c cb 79 32 3c ed cf d2 bb cb 57 89 3c
       0.012859981 0.0108932955 -0.006433478 0.016765496
000100 1f d8 ec bc fb e5 d0 bc 54 4b e8 3c ac 7c b3 bc
       -0.028911648 -0.025500288 0.028356232 -0.021910034
000110 af 6b eb bc a0 4a ae 3c 3e 59 7e bc 2c f4 d9 bc
       -0.028737871 0.021275818 -0.015524207 -0.026605688
000120 95 4f ba bc a3 ae 48 3c 3a 6a b5 bc e1 87 e3 3c
       -0.022743026 0.012248668 -0.02214538 0.027774753
000130 4d 6d 82 bb 9f 0a c9 bc 1e 81 df bc 22 a8 a0 3c
       -0.003980315 -0.024541197 -0.027283248 0.019611422
000140 0d e7 9a 3c 52 a0 26 bc 6a 0a ae ba fe eb 07 bc
       0.018909002 -0.010170059 -0.001327825 -0.008296011
000150 47 fe 01 3c 40 ef 7f 3c a9 45 b0 3c fa 26 7b 3c
       0.00793416 0.0156210065 0.021517592 0.015329117
000160 c6 3b d7 3b 68 f9 9a bc 8c 63 e9 bc 56 0a c7 3c
       0.006568405 -0.018917754 -0.02848985 0.02429692
000170 35 1c 70 3c c3 88 46 3c 1a d3 e3 bc 50 cc 33 bb
       0.014655163 0.0121175675 -0.027810622 -0.0027435012
000180 9d 62 ae bb ea 84 9c bc 3d c1 c8 bc 49 8c ce bc
       -0.005321814 -0.019106347 -0.024506206 -0.025213378
000190 c6 ff 9e 3c 01 f9 c0 bc ac 3e 4d bc 36 0b d3 3b
       0.019409072 -0.023556234 -0.012527149 0.0064405454
0001a0 ad 05 dc bc de 15 a7 bc 97 dd 02 bc c1 06 8e bc
       -0.026858175 -0.02039617 -0.007987401 -0.017337205
0001b0 37 87 78 bc 32 0b 5a 3a b3 c2 ea 3c 97 28 85 3b
       -0.0151689565 0.0008317708 0.028657293 0.0040636766
0001c0 76 08 dd bc 91 24 8c bc 27 ab b8 3c 3f 14 85 3c
       -0.026981574 -0.01710728 0.02254255 0.016245006
0001d0 46 dd 96 bc e3 a8 b0 3a 03 38 f4 bc 87 a3 d6 bc
       -0.018416058 0.0013478067 -0.029811865 -0.026201023
0001e0 0e 27 8f bc fc 95 47 bc b7 65 f2 bc 0c 24 0c 3b
       -0.017474677 -0.012181755 -0.029589517 0.002138379
0001f0 e3 ec da bc 11 85 0c 3b e2 70 fb bb b9 70 da bc
       -0.026724285 0.0021441618 -0.007673369 -0.026665078
000200 a9 9f 87 bc 5f ac 1d 3c 64 51 f5 3b 44 56 01 3c
       -0.016555624 0.009623616 0.007486509 0.0078941025
000210 cf 64 f3 bc 93 b9 08 3c 02 36 d5 bc 97 ca a8 bc
       -0.029711155 0.008345026 -0.02602673 -0.020604415
000220 16 60 22 bc 14 01 a1 ba 66 b7 64 3c 6d 4f c3 3c
       -0.009910604 -0.0012283647 0.013959741 0.023841584
000230 bd a0 94 3c 09 7e 48 3c d4 b3 5d bc 83 f0 63 bc
       0.018143052 0.01223708 -0.013531644 -0.013912323
000240 66 f7 01 bc 26 26 85 bb 42 09 7d bc 90 ee cd bc
       -0.00793252 -0.0040633855 -0.015444102 -0.02513817
000250 3c f4 81 bc 8e 2a 35 3c a9 ee 7e 3c 0c 41 92 3c
       -0.01586353 0.011057509 0.015559831 0.017853282
000260 c7 5d e6 bc c5 9e d3 bc 5e 30 8f 3c 23 64 80 3c
       -0.028120888 -0.025832543 0.017479118 0.015672749
000270 ba be 51 bc 80 dd 8e 3c 41 ab 92 bc f6 22 24 3b
       -0.01280182 0.017439604 -0.017903926 0.0025045252
000280 9b fc 6a 3c 58 2e 23 3c 1b a0 c8 3c 67 d8 b0 3c
       0.014342452 0.00995978 0.024490407 0.021587564
000290 6c ae db bc a4 21 ad 3c 9a b6 cd bc 40 e7 1a 3c
       -0.02681657 0.021134205 -0.025111485 0.009454548
0002a0 a9 c5 b4 bc ac a3 77 bc 50 be e8 3c 14 39 7d 3c
       -0.022066908 -0.015114706 0.02841106 0.015455503
0002b0 1e d3 a8 bb e1 75 d5 3c a9 4c f3 b8 b3 b5 0f 3b
       -0.0051521203 0.026057186 -0.00011601422 0.002192837
0002c0 90 15 28 3c 17 62 61 bb f8 17 05 3c d5 ea cb bc
       0.010259047 -0.0034390741 0.00812339 -0.02489225
0002d0 fa 85 51 ba 8e c2 b3 3c 7f bc 09 bc 2b 00 35 bc
       -0.00079926813 0.021943357 -0.008406757 -0.011047403
0002e0 8f cb 07 3c b9 84 ba 3b 96 e5 8c bc e2 5a 43 3c
       0.008288278 0.0056920913 -0.017199319 0.011923524
0002f0 cf 6d be bc 67 2a 9c 3c 0d 4c bf bc 4e 8a b4 bc
       -0.02324572 0.019063188 -0.023351694 -0.022038605
000300 5d 6d 92 bc 44 b0 8b 3c 8e ef 84 3c 7e c5 94 bc
       -0.017874414 0.017051823 0.01622751 -0.018160578
000310 fd 0e 87 3b 9f 52 c9 bc b4 5f b3 b9 bf 58 9a bc
       0.00412166 -0.02457553 -0.00034212845 -0.018841146
000320 ce 73 09 bc 22 dd 92 3c 14 cd e7 bc ab 61 cb 3c
       -0.008389426 0.01792771 -0.028296031 0.024826845
000330 25 4b e0 3a 57 76 ab bb a3 3d 97 3c 62 3e e6 3c
       0.0017112239 -0.005232613 0.018462008 0.028105918
000340 30 9a e3 bc da 09 dd 3b 21 b6 de 3c 1c 8d 76 3c
       -0.027783483 0.006745559 0.027186455 0.0150482915
000350 85 89 e1 3a 92 9b 6f 3c 90 ee c6 bc c7 d6 23 3c
       0.0017207122 0.014624493 -0.024283677 0.009999937
000360 03 b8 c2 3c e7 81 61 bc ae 81 96 3c 03 c3 0c bb
       0.023769384 -0.013763881 0.018372383 -0.002147854
000370 0c a5 b6 3c 7e 4a 3f bc 72 77 cc 3c 0a 08 09 bc
       0.022295497 -0.011675475 0.0249593 -0.008363733
000380 86 62 9f bc ca 2d c9 3b 17 5d 2c 3c c9 03 01 3c
       -0.01945616 0.0061394917 0.010520241 0.007874438
000390 82 d5 f1 bc 27 18 ef 3c 36 44 7f bc 6e 71 df bb
       -0.029520754 0.029186321 -0.015580228 -0.006818942
0003a0 09 92 50 bc 9b 16 2c 3b 2d 2a 83 bc 3f b9 9a 3b
       -0.01273013 0.002625859 -0.016011322 0.00472179
0003b0 6e 8c ee bc 42 21 df bb cd d2 e0 bc d8 ff bc 3b
       -0.029119696 -0.0068093846 -0.027444268 0.0057678036
0003c0 e6 e3 dc ba 63 9c 66 3c 00 97 bb bc 71 ca 56 3c
       -0.0016852587 0.014075371 -0.02289915 0.013109789
0003d0 fd cb d9 3c f2 52 91 3b 92 f8 72 bc ff f7 eb bb
       0.026586527 0.0044349367 -0.014829772 -0.0072011943
0003e0 fd d3 95 39 21 15 2c bc bf db 25 bc 6b 34 e6 bc
       0.00028577438 -0.010503084 -0.010123192 -0.028101167
0003f0 49 21 a8 3c 7d 86 23 3c 9c 19 0e 3c 25 52 3a bb
       0.020523684 0.009980795 0.008673098 -0.002843031

siam_layer.conv1.bias f4 [14]
000000 4c fa 58 3c fa e9 f4 3c 84 4b 00 3c 0c 48 d3 bc
       0.013243269 0.029896725 0.007830504 -0.02579119
000010 e2 e5 bf 3c 7a 10 f1 3c 74 d7 b0 bc 58 b1 b2 3b
       0.023425046 0.029426802 -0.021587111 0.00545327
000020 c4 ba 6b bc 88 a9 06 3c 4c 11 7e 3c 48 96 d9 3c
       -0.01438779 0.00821913 0.015507054 0.026560917
000030 44 87 93 3c 14 0b 16 3c
       0.018008836 0.009157915

siam_layer.conv2.weight f4 [7, 14, 6, 6]
000000 7c 50 5c bc dc 6b 2f bd 55 3b 01 3c 3d 8b 6e bc
       -0.013446923 -0.042827472 0.007887681 -0.014559564
000010 ac 5e ca bb fa e0 14 3c ad 9c 0c bd 40 9c bd 3c
       -0.0061758365 0.009086842 -0.034329105 0.023145795
000020 21 ee d7 3b 0c 62 20 bd dc 62 8b bc 6b 8f d0 3c
       0.0065896665 -0.039156005 -0.017014913 0.025459012
000030 3f c5 66 3c c6 25 33 bd 81 16 c1 3b 46 43 34 3d
       0.014085113 -0.043737195 0.0058925753 0.04400947
000040 22 04 3e 3c 1d 23 a4 3c 94 f4 8f bc d5 ed 4b bc
       0.011597665 0.020036275 -0.017572679 -0.01244684
000050 ea d3 b9 3c dd bb 22 3d 50 df 09 3d 92 71 16 3c
       0.022684056 0.03972994 0.033660233 0.009182351
000060 fd 54 19 bc 26 21 95 bc 55 36 35 bd 23 d9 1e 3c
       -0.009358642 -0.018204283 -0.04424127 0.009695324
000070 cf 44 03 3d 28 1f a5 3a 6a a2 22 3d be cd bc bc
       0.032048043 0.0012597786 0.03970567 -0.023047324
000080 23 54 be 3c 61 8b ed 3c db 2c 53 3c 5f f3 18 bc
       0.023233479 0.028997125 0.012889112 -0.009335368
000090 93 bc 25 bd d8 33 06 3d 34 f2 9f bc a7 2c 29 bd
       -0.04046304 0.032764286 -0.019524671 -0.04130235
0000a0 ed 98 20 3d df 1a 2d 3c 46 e6 a1 bc 30 6f 08 3d
       0.03920834 0.010565489 -0.019763123 0.03330916
0000b0 51 16 b3 3c d0 76 09 3d 3a a4 f0 3c 61 34 c6 bc
       0.021861227 0.033560574 0.029375184 -0.024194898
0000c0 9b a8 f6 3c 36 82 d1 bc bb 51 0c bd 26 02 84 3c
       0.030109694 -0.025574785 -0.03425763 0.016114306
0000d0 af c5 0c bd 72 05 dc bc 1e a3 09 3c d6 6b 34 3c
       -0.034368213 -0.026858065 0.008400707 0.011012038
0000e0 79 0b 08 bd 1d da c9 bc d6 f0 a5 bc 41 03 bd bb
       -0.033214066 -0.024640137 -0.020256441 -0.00576821
0000f0 8a 9d 14 3d d8 6a d3 bc ef 80 c6 bc 8b a6 81 bc
       0.036283053 -0.025807783 -0.024231402 -0.015826484
000100 91 a0 94 3c e0 c9 b3 bc 18 42 36 bd 3e eb 00 3c
       0.01814297 -0.021946847 -0.044496626 0.007868586
000110 12 46 01 bd a3 0e d9 bc 05 fa 21 3d f5 7a 1c 3d
       -0.031560965 -0.026496237 0.039545078 0.0382032
000120 5c b7 0b bd 2d cc 06 bc 2e 51 2d bc 74 7e 5e 3c
       -0.034110412 -0.00822739 -0.010578437 0.013579953
000130 69 3a d5 3c cf 06 9f bb 6a e8 72 3c cc 4d a7 3a
       0.026028829 -0.0048531066 0.01482592 0.0012764274
000140 bc 54 45 bc f6 df 7f 3a 78 23 26 bd e2 b5 3d 3c
       -0.012044128 0.0009760851 -0.04056117 0.011579009
000150 cf 6d 93 3c a5 ee 40 bc 6d d6 0e 3c af 35 34 bd
       0.017996697 -0.011775647 0.008718115 -0.04399651
000160 10 69 fc bb 56 96 77 bc 8d ff 29 bd be c6 84 bc
       -0.007702954 -0.0151115265 -0.041503478 -0.016208049
000170 d9 0e 63 bc e4 8b 8d 3c 78 d0 2b 3c 8a 95 0c bd
       -0.01385852 0.01727862 0.010486715 -0.0343223
000180 fe f8 86 bb cf 2d 1c 3d 89 da 9a 3c 9d a6 64 bc
       -0.0041190377 0.038129624 0.018903034 -0.013955739
000190 be 18 26 3d 53 59 81 3c d7 ea 13 3d 4d 48 0b 3d
       0.04055094 0.015789663 0.036112633 0.0340045
0001a0 a3 ec f8 ba 5f 37 c8 3c 96 1d 9f 3c cc 1c 2b bd
       -0.0018991422 0.024440465 0.019423287 -0.04177551
0001b0 22 57 1c 3d dd b1 3a bc 8e 3a 1d bc 5d f9 b6 bc
       0.038169034 -0.011394945 -0.00959648 -0.022335703
0001c0 f6 59 81 3c ae 1a 32 bd f8 65 17 bd a6 72 09 3d
       0.015789967 -0.043482475 -0.03696248 0.033556603
0001d0 27 ac 28 3d 55 aa c8 3c 70 b8 54 bc 52 7b 99 3c
       0.041179802 0.024495283 -0.012983426 0.018735562
0001e0 78 8c c6 bc b2 2a 15 bd bc f6 08 3d 30 32 06 bc
       -0.024236903 -0.03641767 0.03343843 -0.008190677
0001f0 b8 57 c8 bb 55 02 ee 3b 46 ee c3 3c 7c 71 76 3c
       -0.0061139725 0.0072634616 0.023917329 0.015041705
000200 6c 81 28 bc d2 db 31 3c c9 87 75 bc 5c 6b 7e bb
       -0.010284763 0.010855632 -0.014985987 -0.0038821315
000210 ed cd cd 3c e4 89 04 bd 0c 80 c6 bc c4 c9 eb bb
       0.025122607 -0.032358065 -0.02423098 -0.007195683
000220 1f a0 a3 bc 34 7b cb bb ec 22 05 3d cf 39 fc bc
       -0.019973813 -0.0062097553 0.032504007 -0.030789284
000230 72 82 d0 bc 57 31 78 3c a7 49 26 bd bc c7 84 bc
       -0.025452826 0.015148482 -0.040597584 -0.016208522
000240 5d 68 cd bc 66 7f d9 ba 41 e4 c6 bc fa 99 2c b9
       -0.025074178 -0.0016593754 -0.024278762 -0.00016460559
000250 9c a6 7e 3c d4 43 5e bb 02 25 c7 bc 04 88 97 bc
       0.015542652 -0.003391494 -0.024309639 -0.018497474
000260 fe fc 1a bd ed 38 9c 3c 9b 2f 83 3c 4c 34 85 bc
       -0.03783893 0.019070113 0.016013911 -0.016260289
000270 8e 68 8a bb 9f cc a2 bb ac 47 0b 3d c8 49 30 bb
       -0.0042238897 -0.0049682404 0.0340039 -0.0026899446
000280 fb 52 9e bc 7e 57 f0 3b 49 71 22 3d fe f4 ce 3c
       -0.019326678 0.0073346486 0.03965882 0.025263306
000290 cb 85 f4 3c 4c fb 95 bc 1a f5 af bc f0 ce c1 3c
       0.029848954 -0.018308304 -0.021479178 0.023658246
0002a0 55 d2 71 bc b1 c2 5d bc 25 18 70 3c 41 c1 2a 3d
       -0.01475962 -0.013535188 0.014654194 0.041688208
0002b0 20 55 b1 bc 36 fa 24 bd f8 67 b2 3b f2 e8 ac bc
       -0.021647036 -0.040277682 0.005444523 -0.02110717
0002c0 18 b4 ca bc 1b ad b8 3c fe 84 64 3b 52 1e fe bc
       -0.024744079 0.02254348 0.0034869309 -0.031020317
0002d0 fc 1b 34 3d 49 e3 b2 3c fd 23 eb 3c 96 aa 6d bc
       0.043972 0.021836894 0.028703684 -0.014506003
0002e0 f6 2c 31 bd 51 ed fc 3c 33 1f 02 bd a3 8d 1f bd
       -0.04325577 0.03087488 -0.031768035 -0.038953435
0002f0 01 a8 16 3d 15 3d a9 bb 7b 6b 54 3c cb 28 fc bc
       0.036781315 -0.0051647522 0.012965078 -0.03078117
000300 8c 3c c4 3c 8d 98 0d 3c 8a b2 95 3c b5 61 01 3d
       0.023954652 0.008642328 0.01827361 0.03158732
000310 d5 66 cf bb 2d 6c 19 bd ae a4 16 bc 63 c8 ef bc
       -0.006329397 -0.03745668 -0.009194536 -0.029270357
000320 aa aa 87 bc b9 a9 0b bd 51 c8 d6 3b d5 f6 09 bd
       -0.016560871 -0.034097407 0.0065546413 -0.033682663
000330 e8 d9 f0 3b 4a 1f ca 3c 5f 63 db 3c 31 ee df bc
       0.007350195 0.024673123 0.026780782 -0.027335258
000340 33 c6 10 3c b0 d8 12 3c a5 be 03 3d fd bb ec 3c
       0.008836317 0.008962795 0.032164235 0.028898234
000350 36 ec 0d 3c 00 0f cc bc 87 06 ea 3c 16 e2 90 3c
       0.008662274 -0.024909496 0.028567566 0.017685931
000360 fb 36 fc 3c c7 d8 2e 3d c1 f4 31 bd dd 20 23 bb
       0.030787935 0.042687204 -0.043446306 -0.0024891414
000370 89 a2 d2 3c 33 f5 b6 3c de a9 50 3c f9 89 bc bb
       0.025712268 0.022333717 0.012735812 -0.0057537523
000380 3d 72 36 3d fb 29 e7 3c ae 71 eb 3c fb ff 91 3c
       0.04454254 0.02821826 0.02874073 0.017822256
000390 c9 5a d3 bc 2f 02 25 bc 5f 7e 15 3c 6f af 24 3b
       -0.025800126 -0.010071321 0.0091243675 0.002512898
0003a0 f3 b9 55 bc a8 58 2b 3d 52 6f 6c bc 50 a8 13 3d
       -0.013044822 0.041832596 -0.014430838 0.036049187
0003b0 3e 56 22 ba 8f 36 91 bc 7e 5d a1 bc 82 6a e0 3c
       -0.00061926607 -0.01772621 -0.0196979 0.027394537
0003c0 af 9d a8 3c 33 a6 b9 3b 2d 16 e0 3c da 32 00 3d
       0.020583002 0.0056655644 0.027354324 0.031298496
0003d0 ca dc 14 bd 5a 85 0a 3d 16 cc d0 3b be 09 3f bc
       -0.036343373 0.03381858 0.006371985 -0.011660038
0003e0 8f 4d e2 bc e0 85 a8 3c e5 ed 2a 3d 74 11 d6 3c
       -0.027624873 0.02057165 0.04173078 0.02613137
0003f0 50 dd 1a bd 18 7c 75 3c 2f 81 1e 3d 59 52 1b bd
       -0.037808716 0.0149832 0.038697418 -0.03792033

siam_layer.conv2.bias f4 [7]
000000 d0 4a f7 3c e0 be a3 3c 79 0c 93 bc a6 8a 67 bc
       0.03018704 0.019988477 -0.017950283 -0.014132177
000010 e7 90 22 bd 84 67 0a 3d 53 e2 b2 bc
       -0.03968897 0.033790126 -0.021836435

siam_layer.conv3.weight f4 [7, 14, 6, 6]
000000 3c 27 21 3c 5a 3b cb 3c 67 5a e8 bc 9a 72 f4 bc
       0.009836014 0.024808574 -0.02836342 -0.029839803
000010 12 8c d2 3b c9 1a 99 3c 0a 06 b4 3c 1c 30 2c 3d
       0.006425389 0.01868953 0.021975536 0.04203807
000020 bd 72 ee bc 1c 03 a7 3c d1 b6 4e 3c 98 fa 2c bd
       -0.029107446 0.020387225 0.012616829 -0.042231172
000030 6c 1b 29 3d 4f 70 e5 bc 4e ae 4a bb 29 d5 a6 bc
       0.041285917 -0.028007654 -0.0030926648 -0.020365315
000040 74 c5 25 bd e7 88 2f bd d0 95 81 bb 49 14 53 bc
       -0.04047151 -0.04285517 -0.0039546266 -0.012883254
000050 f7 89 5e bc 9b 5e 82 3c 64 3d e7 bc 67 aa 0f 3d
       -0.013582698 0.015914252 -0.028227516 0.035074618
000060 b4 c7 f1 bc cd d9 7b 3b c3 ba 15 bd 4c 2a 99 bc
       -0.029514171 0.003842938 -0.036555063 -0.018696927
000070 f1 43 51 3c 05 6d f3 3c c1 06 22 bc 95 eb 86 3b
       0.012772546 0.02971507 -0.009889306 0.004117439
000080 5c f0 3e 3c 12 66 d8 bc 43 fd 2b bd ea c0 df bc
       0.011653986 -0.026415858 -0.041989576 -0.027313668
000090 56 22 68 bc 3f 89 04 3d ad c7 d3 3b 19 e1 61 3b
       -0.014168343 0.03235745 0.006463012 0.0034466444
0000a0 67 75 ba 3c 78 ba 6c b9 46 ed 9a 3c 21 c0 18 3d
       0.02276106 -0.00022576179 0.018911969 0.037292603
0000b0 10 bc f5 3c 14 dc 82 3c c8 dc b2 bc fd b1 8a 3a
       0.029996902 0.015974082 -0.021833792 0.0010581609
0000c0 e1 8a 9b bb 20 d0 33 3c 12 f0 2d bc b6 bc 03 bd
       -0.0047467803 0.010974914 -0.010616319 -0.03216239
0000d0 2a b1 ee 3c a0 a3 ba 3b 0d d7 bf bc 3e 18 df bc
       0.029137213 0.005695775 -0.023417974 -0.02723324
0000e0 63 7a c9 3c 1d 72 c3 3c dd 4a 2e bc 21 01 c5 bc
       0.024594491 0.023858124 -0.010637966 -0.02404839
0000f0 4c 20 b7 3b aa dc f0 3c d3 ac 17 3d c3 92 1e bd
       0.005588567 0.029402096 0.037030052 -0.03871418
000100 c3 50 07 3d b5 a1 f8 ba 85 03 c4 3c 76 68 1a bd
       0.033036005 -0.0018969091 0.02392746 -0.037697278
000110 4c a2 ac ba f8 5c e2 bc 6a fc 16 3d 2a ca 68 bb
       -0.0013170927 -0.027632222 0.036861815 -0.003552089
000120 c1 4e 92 bc dc bc 2e 3c 38 41 29 3d 19 ed 2b bd
       -0.017859818 0.010665145 0.041321963 -0.04197416
000130 69 26 cb bc e0 d4 2a bd d8 45 da 3c 3f e1 f5 bc
       -0.024798589 -0.04170692 0.026644632 -0.030014632
000140 2b 53 9f bc af a9 10 bd 71 a9 a0 3c 0e 1b 63 bc
       -0.019448837 -0.035318073 0.019612046 -0.013861431
000150 29 e5 2d bd c9 e0 b9 3c b0 6f 17 bd 7b 5a 3f ba
       -0.042454872 0.022690194 -0.036971748 -0.00072995544
000160 c8 8c 1e 3d 1a 5d 14 bd c4 4b 59 3c 7e 31 c3 bb
       0.03870848 -0.0362216 0.013262693 -0.0059568277
000170 9b e6 a8 3c 3b 21 21 bd ac 2f 31 3c 01 a5 58 bc
       0.020617774 -0.03933833 0.0108145885 -0.013222934
000180 f2 05 da bb 77 76 10 bd d9 fa c2 3c 67 ba ab bc
       -0.006653541 -0.035269227 0.023801254 -0.020962907
000190 0c dd ce 3c 81 d4 8a bb d6 7f 3e bc 5f 62 26 bd
       0.025251888 -0.004236758 -0.011627158 -0.040621158
0001a0 a5 f8 29 bd b8 53 09 bd b9 88 8f 3a ea 8b 28 bd
       -0.04149689 -0.033527106 0.0010950781 -0.041149057
0001b0 1d 99 27 3d 31 b6 19 bd 9f 3a 58 bc ae b0 3d 3c
       0.040917505 -0.037527267 -0.01319757 0.011577768
0001c0 78 c7 1c bd d3 88 09 3c 59 c3 df bc 30 c8 3f bc
       -0.038276166 0.008394438 -0.027314829 -0.011705443
0001d0 cf 3e 79 3c 01 09 25 3d 8a 64 e6 3c 73 f7 c6 3c
       0.015212729 0.04029179 0.028124113 0.024287915
0001e0 48 0c 1c bd 80 fc 60 3c dd 15 b5 3c 24 45 31 bd
       -0.03809765 0.013732076 0.022105152 -0.04327883
0001f0 7d 4b d5 bb 21 ec 30 bd d9 9d 10 3d df 53 de bb
       -0.006509243 -0.04319394 0.035306785 -0.0067849006
000200 6e 15 4b bb 68 0c a7 bb 27 9c fa bc 19 12 1c 3d
       -0.0030988115 -0.0050979145 -0.030592037 0.038103197
000210 8b 00 b7 3c 87 67 23 bd f2 35 c8 bc ed e1 14 3d
       0.022339126 -0.039893653 -0.024439786 0.036348272
000220 a6 7b d0 3c c0 f9 2a bc 76 39 77 bc ec 1d 02 bd
       0.025449585 -0.010435522 -0.015089383 -0.031766817
000230 e2 18 85 bc 73 b4 dd bb e6 f7 b6 3c 60 a7 81 b9
       -0.016247217 -0.006765896 0.022335004 -0.00024729501
000240 ee bd 3d 3c d7 d4 c7 bc c1 8b 70 3a 15 f6 15 3d
       0.011580927 -0.024393482 0.00091760984 0.036611635
000250 46 53 05 bc 55 f0 fa 3c bb 3a 1e 3d 43 aa e4 bc
       -0.00813753 0.030632177 0.03863023 -0.027913218
000260 e9 4b 9a 3c d9 74 11 bd c1 18 20 3d b5 f2 0a bd
       0.018835025 -0.035511825 0.039086107 -0.03392287
000270 bc 1f 76 bc 7d bd 77 bb ae 57 27 bd f6 79 1b 3d
       -0.0150222145 -0.0037802153 -0.040855102 0.037958108
000280 e9 12 ef bc 64 5d 08 3d a7 82 ba 3c a2 07 12 3c
       -0.029183822 0.03329219 0.022767378 0.008912953
000290 61 e6 ba bb 13 9c 26 bd 06 92 a5 bc 62 7e ff bc
       -0.005703733 -0.040676188 -0.020211231 -0.031188194
0002a0 db f0 20 bd 55 a1 04 bc c6 0f e0 3b a5 79 67 3c
       -0.039292198 -0.008095105 0.006837818 0.014128123
0002b0 90 a0 e2 bc 11 4c 12 3c a2 01 04 bc b9 19 83 bc
       -0.027664453 0.008929268 -0.00805703 -0.016003476
0002c0 90 28 2e bd 19 c3 82 bb 11 54 1c bd 62 f7 f1 bc
       -0.042519152 -0.0039905426 -0.03816611 -0.029536907
0002d0 ae b6 34 3d ce 7e 8c 3b 69 c6 72 bc 49 bc ba 3c
       0.04411953 0.0042875772 -0.0148178125 0.02279486
0002e0 6c 0c f3 bc 93 2f 43 3c d7 17 6f bc 77 71 ec 3c
       -0.02966901 0.011913198 -0.014593086 0.028862698
0002f0 03 9b ef bc 58 b9 4b 3c 17 42 e1 3c 6b f9 d8 3c
       -0.02924872 0.012434326 0.027497334 0.02648612
000300 17 6b aa 3c 12 43 ac bb 0c c4 05 bb 10 e6 30 bd
       0.020803018 -0.005257019 -0.0020411042 -0.043188155
000310 09 66 0a 3d d6 c7 0d bc 53 43 bc 3c 6c 49 7b bc
       0.033788715 -0.008653602 0.022981321 -0.015337329
000320 54 d2 12 bd 0e b4 31 3c 3d a4 fd bc 31 6e 5f bb
       -0.035845116 0.010846151 -0.030962104 -0.0034092779
000330 0e b3 18 bd 03 92 09 3c aa c5 9f bb 66 1e 45 3b
       -0.037280135 0.008396628 -0.0048758583 0.0030077933
000340 b5 01 b4 bc 51 0f cd 3b 5e 53 82 bc ae eb 35 bd
       -0.02197347 0.0062579294 -0.015908893 -0.044414215
000350 06 7f 1a bd ee ee d5 bc 9f ad 9a 3c 94 fd ac bc
       -0.037718795 -0.026114907 0.018881617 -0.02111701
000360 7a 51 2c 3d e5 5c 83 bc 8c 8f 20 bd 62 99 ca 3b
       0.04206989 -0.016035507 -0.039199397 0.0061828354
000370 8d eb 93 3a 08 f3 f1 bb 2b f6 12 bd 26 02 bb bc
       0.001128541 -0.007383708 -0.035879295 -0.022828173
000380 95 8f 9b bc e2 03 d0 bb 6c ec 8a bc cc c6 61 3c
       -0.018989364 -0.006348119 -0.016958438 0.013780307
000390 d6 c2 18 bd 7e a7 03 bd 15 e0 be bb 84 9e c2 3c
       -0.037295185 -0.032142155 -0.0058250525 0.023757227
0003a0 bf da 06 3c c6 b9 13 3d 02 4d 24 bd 2d 4d a2 bc
       0.008230864 0.03606584 -0.040112503 -0.01981219
0003b0 bd 93 8a 3c 6e 86 6c bc 4f dc 9e bc 0a 66 c7 3c
       0.01691615 -0.014436347 -0.01939216 0.024340648
0003c0 2f 8c d8 bb 28 cc 55 3c f7 65 ae 3c 98 09 cc bc
       -0.006608508 0.013049163 0.021288855 -0.024906918
0003d0 71 19 11 bd 98 be c7 3c d3 dc 08 3d 68 f6 c0 3c
       -0.035424653 0.024382874 0.03341372 0.023554996
0003e0 84 04 56 3c 70 02 2d 3d 70 cd 31 bc 40 90 96 bb
       0.0130626 0.042238653 -0.010852203 -0.0045948327
0003f0 bb 17 3b 3c 0e e5 96 bc dd 73 fa bc 55 00 28 3d
       0.011419232 -0.018419769 -0.030572826 0.04101594

siam_layer.conv3.bias f4 [7]
000000 4c 63 02 3d b4 66 ac 3c d0 bb c2 3c a0 66 c4 ba
       0.031832978 0.021045066 0.023771197 -0.0014984198
000010 40 7f fd 3a e0 a8 14 3d a8 38 52 3c
       0.0019340292 0.036293864 0.012830891

siam_layer.conv4.weight f4 [3, 14, 6, 6]
000000 de d3 b9 bb 41 68 8c ba eb 0e 12 3d e0 28 b1 bc
       -0.0056710085 -0.0010712222 0.035658758 -0.021625936
000010 d2 a3 02 3d d9 e6 1a 3a e3 9d dd bb 0d 8c 31 bb
       0.031894512 0.0005909033 -0.0067632063 -0.0027091533
000020 12 bb f6 ba 66 93 da bc c4 66 e0 3c 54 69 e5 bc
       -0.0018824062 -0.026681613 0.027392752 -0.028004326
000030 7d 06 b8 bc a6 14 bf 3c 21 4b e2 3c 98 0d 0b 3c
       -0.022464031 0.023325276 0.027623715 0.008487128
000040 88 9d da bc 33 cd 87 bc 9f 6c 5d 3b 13 c9 a0 3c
       -0.026686445 -0.016577339 0.0033786667 0.01962713
000050 e9 bf 0f 3d 96 3a ae bc 39 c8 13 bd 3b 6e de 3b
       0.03509513 -0.02126817 -0.03607962 0.006788043
000060 32 28 59 3c c9 01 01 3d 9f b8 f7 3c 21 70 12 3c
       0.013254212 0.031495843 0.030239401 0.008937866
000070 57 50 53 3b 84 e8 46 3b ec 0f 4d 3c 03 04 c4 bc
       0.0032243931 0.0030350992 0.012516003 -0.023927694
000080 84 c7 ad bc 40 34 f9 3c 79 12 79 3b e5 f4 6f bc
       -0.0212133 0.030420423 0.0038005395 -0.01464579
000090 33 cc c1 bc 6c 1b 03 3d 95 ef d6 bb 3d 29 2b bd
       -0.02365694 0.032008573 -0.006559322 -0.041787375
0000a0 e0 20 94 3c e9 b2 15 3d 76 8a ff bc ce 48 33 3c
       0.018082082 0.036547575 -0.031193953 0.010942651
0000b0 91 56 52 3c d4 9c cb 3c 65 fe cd 3c 3c 3d 9c bc
       0.012838022 0.024855055 0.025145719 -0.019072168
0000c0 00 36 ef bc 22 cf ad 3c 8b 49 35 3d 76 fc d7 bc
       -0.029200554 0.021216933 0.04425959 -0.0263655
0000d0 f6 e9 0d 3d 3c 6b 36 3d 63 a3 ac bc 9a c7 bf bb
       0.03464695 0.04453586 -0.021074003 -0.005852652
0000e0 20 dc cc 3a 53 ac fc bc b5 49 a5 3b 4a d3 04 3d
       0.0015629567 -0.03084389 0.005044187 0.032428063
0000f0 ac 9e 05 3a 95 d2 94 3c b8 4b 1f 3b a1 55 b9 bb
       0.00050971913 0.01816682 0.0024306607 -0.0056559597
000100 33 c8 2c 3c 13 89 2d bd d5 dc 66 bc 7f 78 ed 3c
       0.010545778 -0.042367052 -0.014090736 0.028988121
000110 27 f4 62 bb 07 69 a8 bc 5e 4b 73 3c 95 c6 8b 3b
       -0.003463039 -0.020557893 0.014849512 0.004265616
000120 1b 64 13 bc 54 4c c2 bc cf 57 83 bc 68 1b 25 3c
       -0.008996035 -0.023718037 -0.016033081 0.010077335
000130 65 41 ac 3b 36 1b 1e bc 0b f1 24 3d 0c 4d 97 bc
       0.005256819 -0.009650042 0.04026894 -0.018469356
000140 db b3 02 bd 8e 49 2a bd 61 fb b7 bc 78 85 fd bb
       -0.031909805 -0.041574053 -0.022458734 -0.007736858
000150 ad 60 99 3c 20 de 23 bd 38 44 19 bd 41 24 c8 bc
       0.018722856 -0.040006757 -0.037418574 -0.02443135
000160 02 d4 b5 3c 45 2e ca bc 56 b8 8a 3c 16 97 83 3c
       0.02219582 -0.024680266 0.016933601 0.016063254
000170 e3 21 61 bc 48 aa cb bc 4e e0 57 3c 54 34 0e bd
       -0.013740989 -0.02486147 0.013176037 -0.034717873
000180 3b 7b 2a bd a2 ad 2c bd 10 13 2a 3d 58 c5 65 bc
       -0.041621428 -0.042157777 0.041522086 -0.014024101
000190 fa 87 ab bc 9c a5 4a bc 49 ca 12 bd 0d f2 22 bd
       -0.020938862 -0.012368586 -0.035837445 -0.03978162
0001a0 36 4b 49 bc 20 12 d2 3c fa be 34 bc 81 33 1c 3d
       -0.012285998 0.025643408 -0.0110318605 0.038135055
0001b0 91 b5 ad bb 0c c6 46 bc 73 6e 18 bd 8d 45 34 3d
       -0.0053011854 -0.012132179 -0.037214708 0.04401164
0001c0 d7 a6 52 3c 2d 52 35 3d f8 8d 68 3c c2 5d 0c 3d
       0.0128571605 0.044267822 0.014194004 0.034269102
0001d0 57 91 e9 ba d7 8c 11 3d ad 41 88 3a b8 d4 0a 3d
       -0.0017819804 0.035534706 0.001039555 0.03389427
0001e0 d7 40 da 3c 89 4f b1 3c f7 dd 88 39 72 59 d1 3c
       0.026642246 0.02164437 0.00026105318 0.025555346
0001f0 65 8a c7 bc d5 44 1b bc 9b 0d d1 3c 7e c5 78 3c
       -0.024357984 -0.00947686 0.025519183 0.015183805
000200 5d 35 9b 3c e8 01 ca bc 13 75 0a bb 1d dc a5 3b
       0.018946344 -0.024659112 -0.002112691 0.00506164
000210 8d 1b 0c bc 7b 42 b7 bc 82 7a 2e 3b d9 36 bd bc
       -0.0085514905 -0.022370568 0.0026623313 -0.023097442
000220 2c df de bc 54 ab 21 3d bb b5 d8 3c 43 4f 75 bc
       -0.027206026 0.03947003 0.026453843 -0.014972511
000230 92 46 fe 3c 76 5b 62 ba 0b 2f 09 3d 6b fa 55 bc
       0.03103951 -0.00086348446 0.03349213 -0.013060193
000240 a3 dc c8 3a db 89 de bc a1 76 31 3d 61 d7 66 bc
       0.0015324544 -0.027165344 0.043326024 -0.014089436
000250 d5 39 9a 3c 60 4d e4 bc 3a 0c 0c bd bf 57 de bb
       0.018826405 -0.027868927 -0.034191348 -0.0067853625
000260 5a fe ee bc ef d4 54 3b 8e 3a 97 3c eb cd d4 3c
       -0.029174019 0.003247555 0.018460538 0.025977096
000270 66 8f 1b 3c de 97 d8 3c b9 34 22 3d 52 66 ed 3c
       0.009494638 0.026439603 0.03960106 0.028979454
000280 be 93 18 3d f6 d8 6f 3b 8c 9a 32 bb 22 f0 b0 3c
       0.037250273 0.0036597825 -0.0027252762 0.02159888
000290 67 28 6e bc 91 62 2a bd 34 e3 81 3c 7b 5b a9 3b
       -0.014536 -0.041597907 0.01585541 0.005168376
0002a0 33 ee d5 bc 37 a5 ea 3c 48 75 4a 3c 54 4c 2d 3c
       -0.026114559 0.028643234 0.012357064 0.01057728
0002b0 f7 c3 32 bd d2 67 d8 3c 94 36 14 3c 91 04 73 bc
       -0.043643918 0.026416693 0.009046216 -0.014832632
0002c0 7f 98 fb bc a1 f0 69 bc a5 19 ef bc 36 53 b2 bb
       -0.030712364 -0.014278562 -0.029187033 -0.0054420484
0002d0 38 8d 82 3c 12 9d 58 bc f2 61 fa 3c 6b ae 3c 3c
       0.015936479 -0.013221042 0.030564282 0.011516194
0002e0 ea 5f 17 3d 13 e8 98 3c 3b 9c 29 bb cd 29 00 3d
       0.036956705 0.01866535 -0.0025880474 0.031289864
0002f0 65 b2 17 3d 2d 2c 91 bb 38 c9 15 bd 61 a3 73 bb
       0.037035365 -0.004430315 -0.03656885 -0.003717624
000300 a5 13 56 3c f5 e6 cf bc a2 72 16 bd 07 94 53 bc
       0.013066207 -0.025378684 -0.036730416 -0.01291371
000310 9a 8d 79 3c 3c 1a 18 3d dc 88 bf 3c 6e 95 d5 bb
       0.015231514 0.037134394 0.02338069 -0.0065180575
000320 50 02 30 3d f6 63 ad bb 15 2a 79 bc 38 ed 3b bc
       0.042970955 -0.0052914573 -0.015207787 -0.011470132
000330 e5 7c 25 bc 81 89 32 3d bf 63 81 bc 80 20 9b bc
       -0.010100578 0.043588165 -0.015794633 -0.018936396
000340 5c 33 ad 3c 3d 27 0e 3d 83 f2 12 3d c0 97 27 bd
       0.021142654 0.03470539 0.03587581 -0.040916204
000350 10 ef a3 bc 99 97 a8 3b 9a db 9e 3c b7 ed 02 bd
       -0.020011455 0.005145025 0.019391824 -0.031964984
000360 7e 08 7d bc 6b af 31 3d 72 b4 a3 3b 8f f5 99 bc
       -0.015443919 0.043380182 0.004995876 -0.01879385
000370 99 56 27 bb c3 cf 5c bc 6c 7f 18 bc 27 15 0f 3d
       -0.0025533794 -0.013477269 -0.0093077235 0.03493228
000380 05 c4 2c 3c 74 72 bc 3c 06 01 84 bc 0d 96 89 3c
       0.010544782 0.023003794 -0.01611377 0.016795183
000390 18 e9 9c 3c fb 4d d4 3c c1 df 10 3d 38 62 26 bc
       0.019154117 0.02591609 0.03536964 -0.010155253
0003a0 e9 33 d1 3c 1e 6f 91 bb 4b 96 ac 3c 46 40 0f bd
       0.025537448 -0.004438295 0.021067759 -0.034973405
0003b0 e2 eb 16 3c 63 22 32 3c 6f 3c 2a 3d ea 5d 8b 3c
       0.009211512 0.010872456 0.04156154 0.017012555
0003c0 f9 0f 02 3c 28 2f be 3c 36 de 0c bd 46 b4 58 bc
       0.0079383785 0.023215845 -0.034391604 -0.013226574
0003d0 8e 58 ef 3c d5 18 2a bd da 56 ca 3c c6 19 1a 3c
       0.02921703 -0.041527588 0.024699617 0.009405559
0003e0 25 7c 12 bd 8c f9 a9 3c 4e 79 e7 3c fc c1 0f 3d
       -0.035762925 0.020748876 0.028256085 0.035097107
0003f0 f9 7a 3b 3c 96 46 23 bd bf 6a da bb 1b 06 15 3d
       0.011442893 -0.039862238 -0.006665557 0.036382776

siam_layer.conv4.bias f4 [3]
000000 e2 1a 94 bc c4 b3 c0 3c 7e aa 10 bd
       -0.018079225 0.023523219 -0.035318844

siam_layer.conv5.weight f4 [1, 3, 6, 6]
000000 4d 66 b3 bd c8 ab 36 bd 89 46 18 3c d9 f6 a1 3d
       -0.08759747 -0.044597417 0.009294161 0.079084106
000010 a6 7a 23 bc 7b d9 6b 3d 11 80 80 3d 6f a2 cb 3c
       -0.009977972 0.057580452 0.06274427 0.024857728
000020 92 ba 72 bd 2b b4 11 bd 0f f3 b7 bd ce 4b 9a 3d
       -0.05925996 -0.035572212 -0.089819066 0.0753399
000030 1d 5f b8 bd 3b 14 8b 3c d8 c3 8c bd 76 81 52 3d
       -0.090025164 0.01697742 -0.06873292 0.051392995
000040 d4 03 95 3d ca cc c7 bc 8b 03 6e bc 2e a2 05 bd
       0.07276121 -0.024389643 -0.014527212 -0.03262537
000050 73 a8 9a bc 55 f3 c2 bd 83 fa 70 bd ae fd 2b bd
       -0.018879151 -0.09519068 -0.058832657 -0.041989975
000060 1b a4 98 3c 3c d3 62 3d 77 05 15 3d 50 5f 36 3c
       0.01863294 0.05537723 0.036382165 0.011131123
000070 00 8a a3 bd ef 85 c5 bc 31 07 46 bd 2e ff fa bc
       -0.07985306 -0.024111716 -0.048346702 -0.030639257
000080 80 7d e0 3c 10 15 87 bd 64 2c 8a 3d c5 03 52 3d
       0.027403593 -0.06595814 0.06746748 0.051273126
000090 41 fc 48 3d b6 55 86 bd cc 23 c6 bc 61 cf 0d bd
       0.049068693 -0.06559317 -0.024186991 -0.0346216
0000a0 56 d1 e3 3c ad f6 b3 bb 53 7d 9b bc 17 60 08 bb
       0.02780978 -0.0054920525 -0.018980658 -0.0020809227
0000b0 08 ba 69 b8 45 ef e6 3c 8a 80 a6 bc 42 02 c7 bc
       -5.5724784e-05 0.028190264 -0.020324964 -0.024293069
0000c0 1b d5 95 3d 23 71 b1 3d 78 e7 99 3c b5 c9 ae 3d
       0.07316037 0.08664157 0.01878713 0.08534566
0000d0 b2 37 a3 bd 57 3a bf 3d 5e c0 a0 bd 0f 33 7f bd
       -0.079696074 0.09337299 -0.07849191 -0.062304553
0000e0 31 b5 01 bc ee 2f 96 bd d8 7e 1e bd 44 ff 53 bd
       -0.007916735 -0.073333606 -0.038695186 -0.051757112
0000f0 7a a9 a5 bd 64 76 7b 3d 49 72 9f 3d 80 d1 87 3b
       -0.08088966 0.061392203 0.0778547 0.0041448474
000100 5a b3 d0 3c 05 4c ae bc 6f a2 23 bd 07 e3 46 bc
       0.025476146 -0.021276483 -0.03994983 -0.0121390885
000110 c1 11 8b 3d 0d 7d bc 3d 33 59 63 3c 0b 2f d2 bb
       0.06790496 0.09203539 0.013876247 -0.0064142994
000120 e5 1c ba 3d d9 62 f5 3b 9a c6 c4 bd 1e cd 6d bd
       0.090875424 0.00748859 -0.09608193 -0.058056943
000130 bb 69 33 bc 52 40 bc bc 01 78 b7 3d f7 0a 5b bd
       -0.010950501 -0.022979889 0.08958436 -0.053477254
000140 1e 5f a7 3c ff eb 2b bc ca cb 80 3d e1 ee 49 3d
       0.020431098 -0.010493278 0.0628887 0.04930008
000150 a6 47 78 3c 0f 05 b8 bc 1f 89 5a bd 5a 2d bb bd
       0.015153801 -0.02246335 -0.053353425 -0.091395095
000160 34 b4 4a 3d ad 93 15 3d dd 18 21 3d 6d dc d3 3c
       0.04948826 0.036517788 0.039330352 0.025861943
000170 79 52 a4 3d a1 97 f4 3c 7d cc 1b 3c 04 a1 26 bd
       0.08023543 0.029857459 0.009509203 -0.0406809
000180 c5 98 83 3d c1 96 7e bd 81 23 b3 3c 84 a1 ee 3c
       0.06425623 -0.06215549 0.021867516 0.029129751
000190 ad 09 b0 bb 9c b6 9d 3d 3b 37 49 3d f7 99 ad bd
       -0.005372247 0.077008456 0.049124938 -0.08476632
0001a0 f1 ad 0f bd ab da 1f bd 87 24 30 3d 19 28 06 3c
       -0.035077993 -0.039026897 0.043003585 0.008188271

siam_layer.conv6.weight f4 [1, 3, 6, 6]
000000 01 8f 30 bc a5 60 18 bc 81 44 71 3d ac 9e b3 bc
       -0.010776282 -0.009300386 0.05890322 -0.021926247
000010 cf ee 8c 3d 21 03 a7 bd 9a 95 a0 3d ee 66 f1 3c
       0.068814866 -0.08154894 0.07841034 0.029468026
000020 ac 6d 28 3d 83 cb 7c bd 9d 39 bc bd cb c6 c3 bd
       0.041120216 -0.06171752 -0.09190676 -0.09559401
000030 09 9e 31 bc e8 f0 be 3d 0d f5 c0 3d 42 3e fa 3b
       -0.010840901 0.09323293 0.0942174 0.0076368162
000040 5b 3c bb 3d 5f 87 b7 bd b4 bb 73 bb 48 ad 93 3d
       0.09142371 -0.08961367 -0.0037190737 0.07210785
000050 dc 5f 00 3d b3 e4 b9 3d 2e 96 d3 3c 13 3c c3 bd
       0.03134142 0.09076824 0.025828447 -0.095329426
000060 3f 70 b1 bd 07 dc 4b 3c 11 6a 54 bd 16 62 84 3c
       -0.08663987 0.012442595 -0.051858965 0.016160052
000070 67 1b 00 3d 77 df bb 3d 71 14 b9 3c 89 b3 85 3b
       0.031276133 0.09173482 0.022592755 0.00408024
000080 69 39 a5 bd 3e 30 b8 3d b6 17 63 3d 41 5a 44 bd
       -0.08067591 0.089935765 0.055442534 -0.047937635
000090 40 28 97 bd 22 02 67 bd c4 37 05 3b ec ac fb bc
       -0.07380724 -0.05639852 0.0020327428 -0.030722104
0000a0 8a ff 08 bd 04 ef ac bd 2e 22 31 bd 26 81 22 bd
       -0.033446826 -0.08444026 -0.043245487 -0.039673947
0000b0 ab 2a 6a 3d b7 4a 46 3d 6a 26 32 3d 71 b5 cd bb
       0.057169598 0.048411097 0.043493666 -0.006277733
0000c0 58 7e 9d bd b3 f4 87 b9 ea 5f 69 3d 48 1c 03 3d
       -0.07690114 -0.00025931522 0.056976236 0.032009393
0000d0 e4 ec 24 3d c8 5a 87 3d a7 33 9a bc 00 d1 a0 bc
       0.04026498 0.06609112 -0.018823458 -0.019630909
0000e0 a4 02 49 bc 3c 62 8d bc 0e af 49 bd 8a 8b 6f bd
       -0.012268696 -0.017258756 -0.04923921 -0.058482684
0000f0 60 1a 9d 3d ce 81 63 3d f5 0c 8a bd d8 eb 38 3c
       0.07671046 0.055543713 -0.067407526 0.011286698
000100 39 b9 45 bd c0 cd e7 bb eb 9d 9e bd 03 46 9e bd
       -0.048272345 -0.007074088 -0.07744964 -0.077281974
000110 c7 93 ad 3d 95 e0 4d 3d c9 b7 80 3d b6 9a 0d 3d
       0.08475452 0.050263006 0.06285054 0.034571372
000120 11 54 96 bd b3 90 1e bd 6a ce 52 3d 21 ce 47 bc
       -0.07340253 -0.038712215 0.051466383 -0.012195141
000130 ca 4d 97 bd 3c be c2 bd cb 05 c4 bd 0f 8d 34 bd
       -0.07387884 -0.095089406 -0.095714174 -0.044079836
000140 0d 17 39 3d 77 cf b1 3d cc 54 4b 3d 58 d7 63 bd
       0.045188 0.08682149 0.049641415 -0.05562529
000150 3d b8 30 bd f3 73 8b 3c d3 29 c1 bd 25 dd af bd
       -0.043144453 0.017023062 -0.094318055 -0.08587102
000160 d3 f6 96 bd 4a 52 e4 3c 59 1b 00 bd 34 ca 1b bd
       -0.07371297 0.02787127 -0.03127608 -0.038034633
000170 32 b5 9b 3d f9 95 6c 3d ac e0 f3 3c 72 ea 5c bd
       0.0760292 0.057760213 0.029770218 -0.053934522
000180 57 ad f6 bc 59 40 53 3b 84 74 4e bd 0b b8 50 bd
       -0.030111952 0.00322344 -0.050404087 -0.050956767
000190 d5 7b c3 bd 7f 1a 78 bd c4 77 b8 bd 9d ba 75 3d
       -0.095451035 -0.060572144 -0.090072185 0.05999242
0001a0 aa 8f 40 3c 83 54 d4 bc 6f 15 a3 3d 90 c6 21 bd
       0.011753002 -0.025919205 0.079630725 -0.039496005

siam_layer.conv7.weight f4 [1, 2, 6, 6]
000000 a5 86 eb 3c 04 a8 82 3d 09 de ab bd 6a f5 e0 3d
       0.028750727 0.06379703 -0.08391959 0.10984309
000010 ca 06 4d 3c 44 e9 a3 3d 76 a3 0c 3d b5 01 cf bd
       0.012513826 0.08003476 0.034335576 -0.101077475
000020 17 b1 a3 bd d9 e0 93 bd 41 d5 c1 3d 16 58 85 ba
       -0.079927616 -0.07220621 0.09464503 -0.0010173346
000030 f5 bb 60 bd b0 ab 09 3b 88 3d e4 bd 91 6a ba 3d
       -0.05486675 0.0021006875 -0.11144549 0.09102357
000040 8e 00 e5 bd a5 56 1a bc 91 bf 2b bd cd ac aa bc
       -0.111817464 -0.009420072 -0.04193074 -0.020834351
000050 67 0d e4 bd 4e 0c 8e 3c d2 12 e5 3d 15 a7 c5 bc
       -0.11135369 0.017339852 0.1118523 -0.024127522
000060 cc af be 3c 1c 4e 82 3c a3 2a ad 3d cd f2 7f bc
       0.023277186 0.015906386 0.08455398 -0.015621853
000070 9f a5 dc 3d a6 dd 0b 37 0f 59 b9 bd 84 46 f0 3c
       0.10773777 8.336652e-06 -0.0905019 0.0293305
000080 f6 9c c4 3b a1 7f c3 bc 5a 06 c4 bd 6a 24 41 3d
       0.0060001565 -0.02386457 -0.09571524 0.047153868
000090 50 f9 b9 3d 9d 83 12 bd 91 00 dc bd 93 91 86 bd
       0.09080756 -0.035770047 -0.107422955 -0.06570735
0000a0 27 15 24 3d 5b bd b6 3d 45 f4 67 3d 77 c3 85 3d
       0.040059235 0.089228354 0.056629438 0.065314226
0000b0 8a e0 84 bd 31 2a 8e bd 75 c8 e0 3d c8 63 ca bd
       -0.0648814 -0.06941641 0.10975734 -0.09882313
0000c0 cb 34 db bd 08 02 0b 3c 61 2e c3 bd bc 32 fd bb
       -0.10703429 0.008484371 -0.095303304 -0.0077269953
0000d0 73 01 10 3d 0b c0 b8 bd 59 5e 4e bd 97 28 eb 3d
       0.035157632 -0.09021004 -0.050382946 0.11482351
0000e0 90 a8 e6 bd 9e 8b c0 bd a2 1b bd bd 3b 84 98 bc
       -0.112626195 -0.0940163 -0.09233786 -0.01861774
0000f0 65 b3 e5 3c 5a 2a e3 3c f0 6b cc 3d 03 88 07 3d
       0.028039644 0.027730156 0.09981525 0.033088695
000100 c6 5d ca bd 21 eb 0f 3d 00 de e9 bd b0 9b 9a bd
       -0.09881167 0.035136346 -0.11419296 -0.07549226
000110 21 c0 7c bc f6 6d 8d 3d a6 f7 cb 3c 0c b2 da 3d
       -0.0154266665 0.06905739 0.024898361 0.10678491

dense.weight f4 [1, 308]
000000 17 18 08 bd 81 69 24 3d af ed 11 bd e1 51 4b 3d
       -0.0332261 0.04013968 -0.035627063 0.049638633
000010 83 a1 7c bc b2 81 97 3c e4 d7 4d 3c 0b 2d c7 bb
       -0.015419367 0.01849446 0.012563679 -0.0060783676
000020 3c 09 3e 3b 1f 35 20 bb 36 6c 3d bd 2e 8a ba bc
       0.0028997203 -0.0024445725 -0.046245776 -0.022770967
000030 ce 44 ae bb af 45 bb 3c b9 22 23 bd cb 18 0c bd
       -0.0053182608 0.022860376 -0.039828036 -0.034203332
000040 8e ff 00 bd d3 0e d3 38 9b c8 a5 3c ee 3d 31 3c
       -0.031493716 0.00010064025 0.020237258 0.010817988
000050 d1 6f 20 bd f1 ee 06 3d 48 36 84 3c 1b 09 21 3d
       -0.039169136 0.032942716 0.016139165 0.039315324
000060 0d e1 1b bd 5f a9 82 39 4f 47 3e bb a9 22 e1 3c
       -0.038056422 0.00024921724 -0.0029034202 0.027482348
000070 4f 44 b5 bc f9 ec 23 3d 4d 99 cf 3c 3f cb 9c 3c
       -0.022127299 0.040020917 0.025341654 0.019139884
000080 2f d3 d8 bc eb 01 28 bc 40 35 82 bc aa 35 0c bd
       -0.026467888 -0.0102543635 -0.015894532 -0.034230866
000090 ed 7b 07 bd 0d 88 29 3b 4a 5c b5 3c 43 dd 2b 3c
       -0.03307717 0.0025868446 0.022138733 0.010489765
0000a0 20 1f 37 bc b1 13 39 3b 2d 5f a3 3c 05 e5 99 bc
       -0.011176854 0.0028240497 0.019942844 -0.018785963
0000b0 c3 ef 42 bd e9 be 4d bd ac 2a 4a 3a b5 eb 83 3b
       -0.047591936 -0.050230894 0.0007712047 0.004025901
0000c0 15 1b 3d 3b d4 4a 01 3d d3 07 44 3d f8 ed 51 bd
       0.0028855253 0.031565502 0.047859024 -0.051252335
0000d0 73 0b 8c bc 0d d9 14 bb c4 d1 27 bd be 18 c0 3b
       -0.017095303 -0.002271238 -0.040971532 0.0058623245
0000e0 88 68 4e bd 57 a7 40 bd cc ba f0 3c 30 8c 62 3d
       -0.050392658 -0.047034588 0.029385947 0.055309474
0000f0 44 f0 4e 3d 54 1e 36 bd 7c 7d 04 3c d3 1b 33 3d
       0.050522104 -0.044462517 0.008086558 0.043727707
000100 07 bc 13 3c 49 ae 26 3d 83 6c 51 3d 72 69 19 3d
       0.009016997 0.040693555 0.051128875 0.037454076
000110 12 a9 1d bd b3 05 30 bc 1b d6 ce 3c 8a c8 06 3c
       -0.038491316 -0.010743546 0.025248578 0.008226523
000120 a9 e5 a6 bc db e1 ee bb d4 18 54 bc f1 62 61 3d
       -0.020373182 -0.0072901077 -0.012945373 0.055026
000130 40 21 0a bd ad c2 2f 3d 4f fb 42 bd de 11 26 3d
       -0.033723116 0.042910267 -0.047602948 0.040544383
000140 c3 d6 de bc 6e 84 d3 3a 97 3b 67 bc 05 51 c6 3b
       -0.027202016 0.001613749 -0.014113328 0.0060521387
000150 b1 57 11 bc ad 9c 96 3c 5a cd 2d bd af 2b 5e bc
       -0.008871005 0.018385256 -0.042432167 -0.01356022
000160 4c f9 89 bc 84 51 59 bd 3c 17 08 3c d4 99 09 3d
       -0.016842507 -0.053056255 0.008306321 0.033593968
000170 e3 be 19 bc c3 e4 09 bd 6d da 51 bd be 27 f2 3c
       -0.00938389 -0.03366543 -0.051233698 0.029559966
000180 3f 2e 5f bd 5b e0 d0 3b bc 9a 02 bd 3f ca 5b 3d
       -0.054487463 0.0063744015 -0.031885847 0.053659674
000190 c6 03 9c 3c 8a 3a 21 3d 10 51 34 3d c6 7b cf bc
       0.019044768 0.039362468 0.04402262 -0.025327574
0001a0 45 ca 03 bd 9a 31 b9 ba 75 69 b3 bb 38 af 4b bd
       -0.03217532 -0.0014129162 -0.005475218 -0.04972765
0001b0 15 f2 b7 3c 08 92 3d bd a4 9b a3 3c ec 96 91 bc
       0.0224543 -0.046281844 0.019971676 -0.01777216
0001c0 4d a2 03 3c bd a1 08 bd e1 26 5f 3c 10 9f 9f 3b
       0.008034301 -0.03335737 0.013620109 0.0048712566
0001d0 87 6d 90 bc f4 90 14 3d 44 94 02 3d 8a ce 25 3a
       -0.017630352 0.03627105 0.03187968 0.0006325027
0001e0 68 4c 23 bd 40 d2 43 bd af fe 93 3b 4f 5e 22 3d
       -0.03986779 -0.047807932 0.0045164446 0.03964072
0001f0 bc 22 c7 bc 53 75 cc bc 91 3f 57 bd d7 43 50 bd
       -0.024308555 -0.024958288 -0.052550856 -0.050845947
000200 1e 4b 3d bc ed ba db 3b f7 49 61 3b a8 97 54 bc
       -0.011553554 0.006705633 0.0034376362 -0.012975611
000210 55 e1 d2 bc f5 6d 51 bd 18 f1 39 3d ef 6f 35 bd
       -0.025742212 -0.051130254 0.04539594 -0.0442962
000220 06 f9 07 3d 79 81 dc 3c 64 f7 21 3c 23 37 28 bd
       0.03319647 0.026917206 0.009885643 -0.041068207
000230 b7 87 08 bd f3 75 d8 3c fa fe 4e bd 08 98 b5 3c
       -0.033332553 0.02642343 -0.050536133 0.02216722
000240 4f aa 09 3a 3f b8 1b bd c9 93 0b bc de e6 fd 3c
       0.0005251513 -0.038017508 -0.008519121 0.030993875
000250 4d 1f 51 bd 53 68 86 3c 9a de 1a 3b df a0 41 bd
       -0.05105524 0.016407168 0.0023631216 -0.04727256
000260 c0 e6 d6 bc 89 d8 c7 3c 1e 14 8b 3c 46 ad a7 3b
       -0.026233077 0.024395244 0.016977366 0.0051170914
000270 9b 07 72 3b 3a 09 65 3d 2b 7c e5 3c 00 8c 3a 3d
       0.0036930803 0.055917002 0.02801331 0.04554367
000280 04 8b 2a 3d 9a 3e 56 3d db de 5d bd b6 b8 25 bc
       0.041636482 0.052305795 -0.05416761 -0.010114839
000290 02 16 22 3d ca 91 12 3d 6f ab 05 bc 50 dd 5c 3d
       0.03957177 0.035783567 -0.008158549 0.053921998
0002a0 74 87 2c 3d de 3f 98 bc b6 64 4c bd 54 22 b8 3c
       0.042121366 -0.018585142 -0.049900733 0.022477306
0002b0 9a ff 09 3d c4 2f bf 39 e2 07 64 3d 8a cb 5b bc
       0.033691026 0.00036465947 0.05567158 -0.013415227
0002c0 6d 9b 99 bc 72 73 4a 3d 5a d7 fb 3c da aa 32 3d
       -0.01875087 0.049426503 0.030742336 0.043619968
0002d0 17 9a 55 bd b7 1e 2a 3d a9 9c 51 bc 9a 8c 35 bd
       -0.052148905 0.0415332 -0.012793698 -0.04432354
0002e0 5e 08 32 3d 2b 82 01 3d 76 8c 1d 3d 56 0a d2 3b
       0.04346501 0.03161828 0.038464032 0.0064099235
0002f0 8f f3 fd 3b 10 82 15 3d fb fe cb bc 51 63 a9 bc
       0.0077499817 0.03650099 -0.024901858 -0.02067724
000300 9e 6b ae 3b 40 10 89 bb e9 18 99 3c 67 44 24 3b
       0.0053228876 -0.0041828454 0.018688636 0.0025065185
000310 e6 9d 24 3d 69 49 2e bc 89 34 54 3d b1 7a 65 3d
       0.040189646 -0.0106376195 0.051807914 0.05602521
000320 8c 0a bb bb d7 80 c7 3c ad db 6a 3c 20 6f 0f 3d
       -0.0057080444 0.024353428 0.014334601 0.035018086
000330 54 74 f3 bc e0 de 1b 3d 04 6b 38 3d cb 1c 8c bc
       -0.029718556 0.038054347 0.045023933 -0.017103573
000340 5c dd fe 3c c7 72 71 bc 0e b2 1a bd 37 2c 21 3d
       0.031111412 -0.014736838 -0.037767462 0.039348807
000350 c3 d1 b1 bc 87 87 13 3d 5b 91 13 bd bc fe dd 3c
       -0.021706467 0.03601792 -0.036027294 0.027099006
000360 fa 88 c6 bc 2f 27 5b 3d 56 79 1e bd d7 f7 ce bc
       -0.024235237 0.053504165 -0.038689934 -0.025264664
000370 36 07 44 3d a0 c4 a0 3c 58 d3 f2 3c 23 1a ba 3c
       0.04785844 0.019625008 0.029641792 0.022717541
000380 31 40 fd bc 24 57 6c 3c 97 43 3e 3d de 12 91 3c
       -0.030914398 0.014425073 0.046451177 0.017709192
000390 f3 4a 4d 3b 78 4b 0f bd 8c f2 5e 3d 5c 9b e8 3c
       0.003132519 -0.034984082 0.05443053 0.028394394
0003a0 33 4c fb bb b9 14 b5 bc 97 ba 61 3d 5b 19 bc bc
       -0.0076689958 -0.022104608 0.055109587 -0.02296131
0003b0 38 0e a6 bc 75 a2 0e 3d e8 cc 5e bd 92 8a 1f bc
       -0.020270452 0.0348229 -0.054394633 -0.009737628
0003c0 77 2f 23 3d 86 86 02 bd 06 7b d6 3c 9e 32 e2 bc
       0.039840188 -0.031866573 0.026181709 -0.027612027
0003d0 fa 15 f1 3c ff d8 40 bd 6b bb 8d 3c 5b bc 21 3d
       0.029429425 -0.047081944 0.017301282 0.03948627
0003e0 1e 84 f9 bb 08 65 89 3c 91 55 b3 3c 70 50 c4 3c
       -0.0076146265 0.016771808 0.021891387 0.023964137
0003f0 f6 96 09 3d 7f a1 32 bd 6e a9 46 bd aa 3f 4d bc
       0.033591233 -0.043611046 -0.048501424 -0.012527386
