siamese-classifier/siam_v3_77.pth (torch, 104363 bytes, 12 tensors)

siam_layer.conv1.weight f4 [14, 31, 6, 6]
-0.00128087 -0.01459861 0.0050067916 -0.0023499262 0.02675607 0.0011365851 0.0053032897 -0.013035311
-0.019223856 -0.02951267 -0.02481765 0.02603542 -0.026688838 -0.005577378 0.002768491 0.0075816587
-0.0010183385 -0.018196188 -0.023916775 0.0049464838 0.0045212563 0.00127381 0.018228864 0.025174906
-0.014781177 -0.016268685 -0.02430406 -0.0022651474 0.02483372 0.02568936 0.027794363 0.019679595
-0.019052155 0.01803668 0.0127831455 -0.009870577 -0.0023513364 0.020392207 -0.016948141 0.0024894802
0.01414685 -0.0033892072 0.02381804 0.0024031505 -0.005368435 -0.001928767 0.019065842 -0.024172444
0.003472454 0.025204292 -0.015038859 0.010332445 0.020219127 -0.012262592 -0.021623466 -0.025886212
-0.0023387833 0.020982224 -0.009791298 0.018413574 0.012884191 0.010920483 -0.0064168195 0.016774947
-0.028907554 -0.02550541 0.028357463 -0.021926073 -0.028759042 0.021292644 -0.015508794 -0.026583161
-0.022780601 0.012240206 -0.022136359 0.027700027 -0.0040233657 -0.024570525 -0.027351381 0.0195272
0.0188734 -0.010147822 -0.0013615255 -0.008289226 0.007900488 0.015610872 0.021493182 0.015287602
0.006567191 -0.018997598 -0.028531542 0.024242656 0.014616189 0.012092294 -0.027866283 -0.0027327465
-0.005332371 -0.019084215 -0.02450714 -0.02522744 0.019407228 -0.023580113 -0.01252787 0.0064178463
-0.026878227 -0.020390535 -0.007965503 -0.01732876 -0.015220154 0.0008241355 0.028640991 0.0040132175
-0.027030786 -0.017156014 0.022448635 0.016192414 -0.018473372 0.0013354666 -0.029877555 -0.026204562
-0.017539367 -0.012194866 -0.029654684 0.0020978842 -0.026726864 0.002085099 -0.0077550914 -0.026659394
-0.016606603 0.009583156 0.0074174795 0.00788887 -0.029754668 0.008380944 -0.026069969 -0.020625718
-0.009911355 -0.0012646692 0.01393376 0.023856478 0.018099546 0.012238282 -0.013515267 -0.013936735
-0.00798494 -0.0040864665 -0.015457615 -0.025170779 -0.015919015 0.010995224 0.015459852 0.017806938
-0.028168133 -0.025869302 0.017423932 0.015688322 -0.012868611 0.017423172 -0.017982563 0.002487236
0.014337925 0.009882679 0.024404282 0.021610986 -0.026861142 0.02108444 -0.025179826 0.00945479
-0.02209825 -0.015081524 0.028369352 0.015431183 -0.0051559014 0.026014749 -0.00014483425 0.0022074871
0.010210563 -0.0034310056 0.008137386 -0.02490764 -0.00084478693 0.021902362 -0.008387914 -0.01106599
0.008211442 0.0056326156 -0.017280234 0.011854664 -0.023254832 0.019021485 -0.02337264 -0.021970537
-0.017903434 0.017029218 0.01616673 -0.018134037 0.004118511 -0.024705436 -0.00041651676 -0.018844953
-0.008422526 0.017879026 -0.028353574 0.024873437 0.0017340755 -0.005205843 0.01845743 0.028094374
-0.02780255 0.0067076623 0.027171211 0.015028151 0.0016758114 0.01465742 -0.024274088 0.010035368
0.023735456 -0.013795439 0.018352455 -0.002163469 0.022273796 -0.011695186 0.024970297 -0.008343956
-0.019426731 0.0061583095 0.010546636 0.007903722 -0.029545411 0.029172327 -0.0155824935 -0.0068493905
-0.012753512 0.0025983732 -0.016003888 0.0047244793 -0.02911604 -0.0067976504 -0.027441574 0.0057681445
-0.0016731016 0.014109301 -0.022882588 0.013131072 0.02662166 0.004460718 -0.014829648 -0.0071806414
0.0002807681 -0.010513497 -0.010132629 -0.028108971 0.020498658 0.009955646 0.008615404 -0.0028418093
00000000: dee2 a7ba 022f 6fbc 0310 a43b 3801 1abb
00000010: 8c2f db3c 78f9 943a 38c7 ad3b 0f92 55bc
00000020: 597b 9dbc 8ec4 f1bc 624e cbbc 3c48 d53c
00000030: 8da2 dabc 70c2 b6bb 926f 353b 906f f83b
00000040: c579 85ba 2c10 95bc 1ded c3bc 1d16 a23b
00000050: 0c27 943b f9f5 a63a b354 953c 9b3b ce3c
00000060: c02c 72bc e845 85bc 4f19 c7bc de72 14bb
00000070: 1670 cb3c 7e72 d23c 01b1 e33c 1a37 a13c
00000080: 4413 9cbc a9c1 933c 6670 513c 33b8 21bc
00000090: e118 1abb 8f0d a73c d4d6 8abc 8c26 233b
000000a0: 31c8 673c 761d 5ebb 0d1e c33c 2d7e 1d3b
000000b0: b2e9 afbb aece fcba f82f 9c3c 4a05 c6bc
000000c0: 1c92 633b 3b79 ce3c 8c65 76bc 6a49 293c
000000d0: 95a2 a53c 0ae9 48bc b223 b1bc 520f d4bc
000000e0: 4646 19bb eae2 ab3c ae6b 20bc 10d8 963c
000000f0: 3718 533c d3eb 323c 2f44 d2bb 9d6b 893c
00000100: 89cf ecbc b9f0 d0bc e94d e83c 4f9e b3bc
00000110: 1598 ebbc e96d ae3c 9918 7ebc eec4 d9bc
00000120: 629e babc 258b 483c 4f57 b5bc 2beb e23c
00000130: 70d6 83bb 2048 c9bc 0110 e0bc 82f7 9f3c
00000140: 639c 9a3c 0d43 26bc 3775 b2ba 89cf 07bc
00000150: 0c71 013c bec4 7f3c 7812 b03c da78 7a3c
00000160: 9731 d73b daa0 9bbc fbba e9bc 8998 c63c
00000170: bd78 6f3c c21e 463c d547 e4bc e117 33bb
00000180: 2cbb aebb 8056 9cbc 33c3 c8bc c7a9 cebc
00000190: e8fb 9e3c 152b c1bc b241 4dbc cc4c d23b
000001a0: ba2f dcbc 0d0a a7bc be81 02bc 0bf5 8dbc
000001b0: f45d 79bc cc0a 583a 83a0 ea3c 4f81 833b
000001c0: ab6f ddbc c58a 8cbc 33e6 b73c f4a5 843c
000001d0: 7855 97bc d30a af3a c6c1 f4bc f3aa d6bc
000001e0: b8ae 8fbc facc 47bc 61ee f2bc a87c 093b
000001f0: 4cf2 dabc 28a6 083b 6c1e febb cd64 dabc
00000200: 920a 88bc ab02 1d3c 540e f33b 5240 013c
00000210: 10c0 f3bc 3a50 093c b090 d5bc 44f7 a8bc
00000220: 3c63 22bc 42c3 a5ba 6d4a 643c a96e c33c
00000230: 8045 943c 1383 483c 236f 5dbc e756 64bc
00000240: 44d3 02bc c4e7 85bb f041 7dbc f332 cebc
00000250: 9868 82bc 5025 343c 524b 7d3c dbdf 913c
00000260: dbc0 e6bc dceb d3bc a2bc 8e3c cc84 803c
00000270: ded6 52bc 0abb 8e3c 2b50 93bc e500 233b
00000280: 9ee9 6a3c f6ea 213c 7deb c73c 8609 b13c
00000290: e60b dcbc 47b9 ac3c ec45 cebc 43e8 1a3c
000002a0: 6407 b5bc 7f18 77bc d866 e83c 13d3 7c3c
000002b0: d6f2 a8bb e21c d53c a6de 17b9 7dab 103b
000002c0: 354a 273c b9da 60bb ac52 053c 1b0b ccbc
000002d0: b174 5dba 956c b33c 766d 09bc 204e 35bc
000002e0: 4989 063c ce91 b83b 478f 8dbc 113a 423c
000002f0: eb80 bebc f2d2 9b3c fb77 bfbc 8efb b3bc
00000300: 39aa 92bc dc80 8b3c 1770 843c d58d 94bc
00000310: 93f4 863b 0e63 cabc ef5f dab9 bb60 9abc
00000320: a2fe 09bc 0977 923c c145 e8bc 61c3 cb3c
00000330: eb49 e33a c795 aabb 0934 973c 2c26 e63c
00000340: 2cc2 e3bc f3cb db3b 2996 de3c a238 763c
00000350: e6a6 db3a ad25 703c 74da c6bc 626b 243c
00000360: dc70 c23c 4406 62bc e357 963c fdc8 0dbb
00000370: 8977 b63c 2a9d 3fbc 828e cc3c 17b5 08bc
00000380: cf24 9fbc a5cb c93b cccb 2c3c 9d7e 013c
00000390: 3809 f2bc cefa ee3c b74d 7fbc da70 e0bb
000003a0: 1bf4 50bc 7849 2a3b 961a 83bc cecf 9a3b
000003b0: c384 eebc d3be debb 27cd e0bc b402 bd3b
000003c0: f94b dbba b32a 673c 4474 bbbc b523 573c
000003d0: ab15 da3c 372b 923b 0df8 72bc 964b ebbb
000003e0: 0e34 9339 cd40 2cbc 5403 26bc c944 e6bc
000003f0: cdec a73c 011d 233c a027 0d3c a63d 3abb

siam_layer.conv1.bias f4 [14]
0.013243269 0.029896725 0.007830504 -0.02579119 0.023425046 0.029426802 -0.021587111 0.00545327
-0.01438779 0.00821913 0.015507054 0.026560917 0.018008836 0.009157915
00000000: 4cfa 583c fae9 f43c 844b 003c 0c48 d3bc
00000010: e2e5 bf3c 7a10 f13c 74d7 b0bc 58b1 b23b
00000020: c4ba 6bbc 88a9 063c 4c11 7e3c 4896 d93c
00000030: 4487 933c 140b 163c

siam_layer.conv2.weight f4 [7, 14, 6, 6]
-0.013381217 -0.042711414 0.007923069 -0.014495822 -0.0061423676 0.009132477 -0.034294818 0.02316103
0.0065391753 -0.03918672 -0.017081922 0.025458755 0.014044262 -0.043826617 0.0057931663 0.043964405
0.011507274 0.019972954 -0.017555509 -0.012418079 0.022665983 0.03974985 0.03359002 0.009118146
-0.009324033 -0.018206213 -0.04426138 0.009697641 0.03201882 0.0012304855 0.03973159 -0.023027124
0.023253575 0.028982636 0.012859122 -0.0093359435 -0.040562786 0.03264009 -0.0196163 -0.04130703
0.039186575 0.010439573 -0.019759046 0.033251174 0.021865454 0.033548705 0.029286744 -0.024219437
0.030214192 -0.025630526 -0.034155138 0.016204087 -0.034300584 -0.02683833 0.008436466 0.010978608
-0.03318232 -0.024647156 -0.020265378 -0.005761151 0.036277756 -0.025858404 -0.02422818 -0.015815707
0.018163847 -0.022010563 -0.044524916 0.007876898 -0.03155803 -0.026436562 0.03955518 0.038173113
-0.033968203 -0.008099815 -0.010528849 0.013616554 0.026095413 -0.0047964347 0.015006128 0.0014231302
-0.011857517 0.0010161364 -0.04056215 0.011672907 0.01799781 -0.011684822 0.008834285 -0.04401367
-0.007705881 -0.015127578 -0.04151681 -0.016142309 -0.013737105 0.017324178 0.010504417 -0.03422598
-0.004145199 0.038128193 0.018970724 -0.013931292 0.040536538 0.01574918 0.036166463 0.03398402
-0.0018908603 0.024479149 0.01941542 -0.041732654 0.038313307 -0.011251043 -0.009473161 -0.022327717
0.015804227 -0.043422606 -0.03700628 0.033537257 0.041199755 0.024479596 -0.013001201 0.018703837
-0.024202988 -0.03635109 0.033486098 -0.008093664 -0.0060904655 0.0073318747 0.023899227 0.015066555
-0.0103243245 0.010863291 -0.015039224 -0.0038315912 0.025182914 -0.032312583 -0.024237476 -0.007177814
-0.019930948 -0.0061626155 0.032437965 -0.030837622 -0.02550572 0.015071421 -0.040675417 -0.016289158
-0.025224607 -0.0017798997 -0.024352832 -0.00017180212 0.015430454 -0.0034475038 -0.024321355 -0.018454762
-0.037860055 0.01916799 0.016051807 -0.016238604 -0.0042217253 -0.0049686735 0.034000963 -0.0025708014
-0.01930167 0.0073830807 0.03969945 0.025286166 0.029859094 -0.01821575 -0.021443207 0.023712024
-0.01480694 -0.013585777 0.014600348 0.041698396 -0.02165307 -0.04024207 0.0054335846 -0.021160295
-0.02476009 0.022570558 0.0035020225 -0.031015499 0.04407175 0.0218918 0.028768625 -0.014389356
-0.04316165 0.030921016 -0.031802885 -0.038970105 0.03679537 -0.005118032 0.012957351 -0.030825878
0.023957709 0.008599089 0.018321928 0.03164564 -0.0062711737 -0.037514687 -0.009297424 -0.029407904
-0.016692922 -0.03417473 0.00650238 -0.03375562 0.007422182 0.024662292 0.026795177 -0.027290003
0.008815565 0.008918373 0.032175932 0.028781863 0.008609634 -0.024934767 0.028541405 0.017679805
0.030904422 0.042729095 -0.043505695 -0.0024790836 0.0257092 0.022322655 0.012859153 -0.0055930982
0.044590566 0.028269744 0.02881659 0.017836655 -0.025704002 -0.009979312 0.009137334 0.0025346605
-0.013026374 0.041830257 -0.01434224 0.036100797 -0.0005901505 -0.017726647 -0.019640187 0.027385915
0.020645484 0.0057158154 0.027322771 0.031319324 -0.036373496 0.03382577 0.006462743 -0.011646249
-0.027555639 0.020665327 0.041745864 0.02618544 -0.037818164 0.014941658 0.038668666 -0.037962276
00000000: e43c 5bbc 2af2 2ebd c3cf 013c e27f 6dbc
00000010: ea45 c9bb 63a0 153c b978 0cbd 33bc bd3c
00000020: 9446 d63b 4182 20bd 63ef 8bbc e18e d03c
00000030: e719 663c 8a83 33bd 9ad4 bd3b 0514 343d
00000040: 0189 3c3c 529e a33c 92d0 8fbc 3375 4bbc
00000050: 03ae b93c bdd0 223d b095 093d 4764 153c
00000060: d4c3 18bc 3225 95bc 6c4b 35bd dbe2 1e3c
00000070: 2b26 033d 3e48 a13a 97bd 223d 61a3 bcbc
00000080: 487e be3c fe6c ed3c 11af 523c c9f5 18bc
00000090: 2a25 26bd 9db1 053d 5db2 a0bc 8f31 29bd
000000a0: 1a82 203d be0a 2b3c b9dd a1bc 6232 083d
000000b0: 2e1f b33c 5e6a 093d c1ea ef3c d767 c6bc
000000c0: c183 f73c 1cf7 d1bc 42e6 0bbd 6fbe 843c
000000d0: c57e 0cbd 0fdc dbbc 1a39 0a3c 9fdf 333c
000000e0: 2fea 07bd d5e8 c9bc 9403 a6bc 0ac8 bcbb
000000f0: fc97 143d 01d5 d3bc 2d7a c6bc f18f 81bc
00000100: 59cc 943c 7f4f b4bc c25f 36bd 1b0e 013c
00000110: fe42 01bd 7d91 d8bc 9d04 223d 695b 1c3d
00000120: 3e22 0bbd 16b5 04bc 3281 2cbc f817 5f3c
00000130: 0cc6 d53c 692b 9dbb 43dc 753c 5388 ba3a
00000140: 0846 42bc e12f 853a 7f24 26bd b83f 3f3c
00000150: 2570 933c b271 3fbc adbd 103c ae47 34bd
00000160: 9d81 fcbb a9d9 77bc 880d 2abd e03c 84bc
00000170: 9811 61bc 6feb 8d3c b81a 2c3c 8b30 0cbd
00000180: 73d4 87bb 4f2c 1c3d 7e68 9b3c 1340 64bc
00000190: a409 263d 6d04 813c 4923 143d d432 0b3d
000001a0: bed6 f7ba 7f88 c83c 160d 9f3c dcef 2abd
000001b0: 6aee 1c3d 4b56 38bc 5135 1bbc 9ee8 b6bc
000001c0: de77 813c e7db 31bd e693 17bd 5d5e 093d
000001d0: 13c1 283d 6f89 c83c fd02 55bc ca38 993c
000001e0: 5845 c6bc e1e4 14bd b828 093d 4a9b 04bc
000001f0: 8792 c7bb 3940 f03b 50c8 c33c b6d9 763c
00000200: 5b27 29bc f2fb 313c 1467 76bc 6f1b 7bbb
00000210: 664c ce3c 335a 04bd ac8d c6bc de33 ebbb
00000220: 3a46 a3bc c4ef c9bb acdd 043d 2e9f fcbc
00000230: 5ff1 d0bc 1fee 763c 449b 26bd d770 85bc
00000240: d6a3 cebc 864b e9ba 977f c7bc c825 34b9
00000250: 04d0 7c3c 84ef 61bb 943d c7bc 712e 97bc
00000260: 2513 1bbd 3006 9d3c 147f 833c d206 85bc
00000270: 6656 8abb 41d0 a2bb 9844 0b3d e47a 28bb
00000280: 891e 9ebc c5ed f13b e49b 223d ef24 cf3c
00000290: 0f9b f43c 3239 95bc aaa9 afbc b83f c23c
000002a0: cf98 72bc e196 5ebc 4c36 6f3c f0cb 2a3d
000002b0: c761 b1bc ded4 24bd 360c b23b 5b58 adbc
000002c0: acd5 cabc e4e5 b83c 3082 653b 3714 febc
000002d0: 9484 343d 6f56 b33c 2eac eb3c 55c1 6bbc
000002e0: 45ca 30bd 124e fd3c be43 02bd 1e9f 1fbd
000002f0: beb6 163d 2ab5 a7bb 124b 543c 8d86 fcbc
00000300: f542 c43c 32e3 0c3c de17 963c dc9e 013d
00000310: 6b7e cdbb 00a9 19bd 3954 18bc d8e8 f0bc
00000320: 98bf 88bc cdfa 0bbd eb11 d53b 5543 0abd
00000330: c635 f33b 9308 ca3c 8f81 db3c 498f dfbc
00000340: 296f 103c 5e1e 123c e9ca 033d f1c7 eb3c
00000350: 6c0f 0d3c ff43 ccbc aacf e93c 3dd5 903c
00000360: 452b fd3c b404 2f3d 0733 32bd 1f78 22bb
00000370: 1a9c d23c 00de b63c 32af 523c 4f46 b7bb
00000380: 99a4 363d f395 e73c c510 ec3c 2d1e 923c
00000390: 3391 d2bc 4580 23bc c2b4 153c 8c1c 263b
000003a0: 936c 55bc 3456 2b3d b7fb 6abc 6ede 133d
000003b0: 54b4 1aba 7937 91bc 75e4 a0bc 6d58 e03c
000003c0: b820 a93c bc4b bb3b 01d4 df3c b148 003d
000003d0: 60fc 14bd e48c 0a3d 6bc5 d33b e9cf 3ebc
000003e0: 5dbc e1bc 554a a93c b6fd 2a3d d982 d63c
000003f0: 38e7 1abd dbcd 743c 0963 1e3d 557e 1bbd

siam_layer.conv2.bias f4 [7]
0.03018704 0.019988477 -0.017950283 -0.014132177 -0.03968897 0.033790126 -0.021836435
00000000: d04a f73c e0be a33c 790c 93bc a68a 67bc
00000010: e790 22bd 8467 0a3d 53e2 b2bc

siam_layer.conv3.weight f4 [7, 14, 6, 6]
0.009874325 0.024776606 -0.028372694 -0.029851565 0.006301883 0.018605715 0.021952648 0.041945174
-0.029156562 0.020300016 0.012547237 -0.04226035 0.041292768 -0.028064659 -0.0031224454 -0.02036871
-0.040494066 -0.042891197 -0.003883381 -0.012879306 -0.013579104 0.015917148 -0.02819095 0.035109837
-0.029496739 0.0038068614 -0.036526605 -0.018688105 0.012773033 0.029673785 -0.009834468 0.0041158437
0.01162528 -0.02639875 -0.04207062 -0.027409356 -0.014175785 0.032368425 0.0065483456 0.0034686334
0.02277355 -0.00018939782 0.01886939 0.03741139 0.030185828 0.016048636 -0.0218239 0.0009570516
-0.0047802795 0.011042526 -0.010483379 -0.032120187 0.029203922 0.005689317 -0.023382027 -0.027157813
0.024576675 0.023815703 -0.010588525 -0.024013273 0.005627236 0.029482795 0.037032448 -0.038716324
0.03303676 -0.0019844654 0.023926321 -0.037603952 -0.0012280697 -0.027547207 0.03691913 -0.003475669
-0.017762387 0.010671789 0.041350894 -0.04204555 -0.0249292 -0.04178742 0.02669627 -0.02998737
-0.019461019 -0.03540038 0.019588722 -0.013938397 -0.042383738 0.022736404 -0.036964543 -0.00075339404
0.038712338 -0.036132954 0.013327166 -0.0059326473 0.020681938 -0.039336707 0.010881535 -0.013207485
-0.006532755 -0.035193145 0.023936277 -0.020959454 0.025197614 -0.004211792 -0.011542856 -0.040544316
-0.041255467 -0.03346854 0.0010423679 -0.041102577 0.041001394 -0.03746293 -0.013172053 0.011571332
-0.038344402 0.008303599 -0.02731675 -0.011666316 0.015244576 0.040291175 0.028173828 0.024311455
-0.037917465 0.013865733 0.022125592 -0.043228295 -0.006422544 -0.04311802 0.035411127 -0.006698072
-0.0030698047 -0.00504702 -0.030571388 0.038084738 0.022355879 -0.03980773 -0.024376394 0.036417034
0.025539111 -0.010397954 -0.015091017 -0.031702038 -0.01618624 -0.006683761 0.022407353 -0.0001697431
0.011457943 -0.02445181 0.0009049935 0.036594573 -0.008133813 0.030627955 0.038586468 -0.027940974
0.018934645 -0.03543029 0.039056893 -0.033902947 -0.01509667 -0.0038014613 -0.04078396 0.03798653
-0.029239042 0.03325273 0.022657517 0.008922064 -0.0056670317 -0.040657464 -0.020284886 -0.031269725
-0.039416797 -0.008180406 0.006823061 0.014072194 -0.027737703 0.008913617 -0.008174142 -0.01603584
-0.042534404 -0.004031314 -0.03815184 -0.029550271 0.04407323 0.0042744284 -0.014796493 0.022836093
-0.029590277 0.01176526 -0.0146275535 0.028900202 -0.029186817 0.012385556 0.027446507 0.026373008
0.02080092 -0.005187946 -0.0019881562 -0.043160614 0.033847976 -0.008730917 0.023002679 -0.015310917
-0.03575389 0.010905162 -0.030902913 -0.0033782744 -0.037154563 0.008521538 -0.004782333 0.0030039686
-0.02189787 0.00627923 -0.015970139 -0.044464726 -0.037702575 -0.026064308 0.019010471 -0.021150138
0.042113602 -0.016029717 -0.039215896 0.006133877 0.0010907366 -0.007393743 -0.035776295 -0.022879904
-0.018957237 -0.006329316 -0.016990094 0.013829938 -0.037229728 -0.032220703 -0.0058745123 0.023728613
0.008230122 0.03604631 -0.039995518 -0.019825269 0.016950801 -0.01443036 -0.019432502 0.024307948
-0.006478587 0.0130542265 0.021331105 -0.02489247 -0.03545134 0.024401685 0.03351612 0.023558134
0.0131661035 0.042309698 -0.0107913455 -0.004561638 0.011426927 -0.018360047 -0.03053096 0.041082162
00000000: ecc7 213c 4ff8 ca3c da6d e8bc 458b f4bc
00000010: 0780 ce3b 036b 983c 0ad6 b33c b4ce 2b3d
00000020: bed9 eebc 384c a63c ed92 4d3c 3019 2dbd
00000030: 9b22 293d dbe7 e5bc f1a1 4cbb 48dc a6bc
00000040: 1bdd 25bd aeae 2fbd 5280 7ebb ba03 53bc
00000050: e47a 5ebc ae64 823c b5f0 e6bc 55cf 0f3d
00000060: 25a3 f1bc 897c 793b ec9c 15bd cc17 99bc
00000070: fc45 513c 7016 f33c c020 21bc 33de 863b
00000080: f577 3e3c 3142 d8bc 3e52 2cbd 9689 e0bc
00000090: 8d41 68bc c194 043d 8193 d63b 0352 633b
000000a0: 998f ba3c 1799 46b9 fb93 9a3c b03c 193d
000000b0: 4548 f73c 6e78 833c 09c8 b2bc a5e2 7a3a
000000c0: e4a3 9cbb b6eb 343c 7ac2 2bbc 7590 03bd
000000d0: 103d ef3c 736d ba3b aa8b bfbc 107a debc
000000e0: 0655 c93c 2619 c33c 7e7b 2dbc 7cb7 c4bc
000000f0: ad64 b83b e785 f13c 56af 173d 0295 1ebd
00000100: 8e51 073d ce0d 02bb 2201 c43c 9a06 1abd
00000110: 2ef7 a0ba aeaa e1bc 8338 173d 0dc8 63bb
00000120: 6d82 91bc bad8 2e3c 8e5f 293d f437 2cbd
00000130: 5238 ccbc 4929 2bbd 23b2 da3c 13a8 f5bc
00000140: b76c 9fbc fdff 10bd 8778 a03c e05d 64bc
00000150: 929a 2dbd b241 ba3c 2268 17bd 6b7f 45ba
00000160: d490 1e3d 2600 14bd 305a 5a3c a766 c2bb
00000170: 2b6d a93c 871f 21bd 7748 323c 3564 58bc
00000180: b910 d6bb b026 10bd 0316 c43c 29b3 abbc
00000190: 3a6b ce3c 1203 8abb 3f1e 3dbc cc11 26bd
000001a0: 7efb 28bd 4f16 09bd 10a0 883a 2d5b 28bd
000001b0: 14f1 273d bb72 19bd 98cf 57bc af95 3d3c
000001c0: 050f 1dbd d20b 083c 60c7 dfbc 1324 3fbc
000001d0: 63c4 793c 5c08 253d cdcc e63c d128 c73c
000001e0: 584f 1bbd 192d 633c bb40 b53c 2710 31bd
000001f0: 3474 d2bb 859c 30bd 420b 113d 807b dbbb
00000200: c72e 49bb 7961 a5bb d970 fabc befe 1b3d
00000210: ad23 b73c 6e0d 23bd 01b1 c7bc 072a 153d
00000220: 6637 d13c 2e5c 2abc 5040 77bc ffd9 01bd
00000230: 0199 84bc 7303 dbbb a08f b73c 11fd 31b9
00000240: 19ba 3b3c 2a4f c8bc 163d 6d3a 31e4 153d
00000250: af43 05bc 7ae7 fa3c d80c 1e3d 78e4 e4bc
00000260: d41c 9b3c 5a1f 11bd 1ffa 1f3d d1dd 0abd
00000270: 0658 77bc f021 79bb 150d 27bd c497 1b3d
00000280: b786 efbc 0434 083d 429c b93c d92d 123c
00000290: 82b2 b9bb 7188 26bd 7d2c a6bc af14 00bd
000002a0: 8273 21bd 1c07 06bc fc93 df3b 0f8f 663c
000002b0: 2e3a e3bc 6b0a 123c d6ec 05bc 985d 83bc
000002c0: 8e38 2ebd 1d19 84bb 1b45 1cbd 6913 f2bc
000002d0: 2286 343d 8110 8c3b fd6c 72bc c212 bb3c
000002e0: 4f67 f2bc 14c3 403c 68a8 6fbc 1ec0 ec3c
000002f0: 3119 efbc c9ec 4a3c 7fd7 e03c 350c d83c
00000300: b166 aa3c a5ff a9bb ba4b 02bb 2fc9 30bd
00000310: 2da4 0a3d 1f0c 0fbc 1d70 bc3c a4da 7abc
00000320: ac72 12bd 91ab 323c 1b28 fdbc 0a66 5dbb
00000330: 622f 18bd ec9d 0b3c 1eb5 9cbb 3bde 443b
00000340: 2963 b3bc 00c2 cd3b cfd3 82bc a520 36bd
00000350: 046e 1abd d184 d5bc d9bb 9b3c 0e43 adbc
00000360: 507f 2c3d c150 83bc d9a0 20bd b1fe c83b
00000370: 0cf7 8e3a 3647 f2bb 2a8a 12bd a36e bbbc
00000380: 354c 9bbc 2766 cfbb cf2e 8bbc f796 623c
00000390: 337e 18bd dbf9 03bd fb7e c0bb 8262 c23c
000003a0: a2d7 063c 4ca5 133d 57d2 23bd 9a68 a2bc
000003b0: 68dc 8a3c 516d 6cbc e930 9fbc 7621 c73c
000003c0: 544a d4bb 65e1 553c 92be ae3c 4beb cbbc
000003d0: 6d35 11bd 0be6 c73c 3348 093d fdfc c03c
000003e0: a4b6 573c ef4c 2d3d 2fce 30bc cb79 95bb
000003f0: 0138 3b3c cf67 96bc 101c fabc c545 283d

siam_layer.conv3.bias f4 [7]
0.031832978 0.021045066 0.023771197 -0.0014984198 0.0019340292 0.036293864 0.012830891
00000000: 4c63 023d b466 ac3c d0bb c23c a066 c4ba
00000010: 407f fd3a e0a8 143d a838 523c

siam_layer.conv4.weight f4 [3, 14, 6, 6]
-0.0054643303 -0.00080996094 0.03524368 -0.021433238 0.031469673 0.00039875924 -0.0067199413 -0.0025501645
-0.0021659166 -0.02691895 0.026805302 -0.028445644 -0.022283776 0.023476178 0.027344042 0.008451118
-0.026970685 -0.016999634 0.003180891 0.019465847 0.034688506 -0.021433474 -0.036696073 0.006256038
0.013354031 0.031839866 0.030180367 0.008864208 0.0024348258 0.002911123 0.012770414 -0.023250308
-0.021145867 0.030871887 0.0033350943 -0.014671265 -0.023582557 0.032034628 -0.0062350794 -0.04154129
0.018340794 0.036890473 -0.031010436 0.010972928 0.013259201 0.025065092 0.02555955 -0.018531438
-0.029170195 0.021157328 0.044580862 -0.02619064 0.034878884 0.04485999 -0.021074038 -0.005855883
0.0020332611 -0.030566843 0.0054360195 0.03257317 0.0004579405 0.01801208 0.0028233181 -0.0058138277
0.010908917 -0.042032164 -0.014021737 0.02868892 -0.0031294061 -0.020349406 0.015415314 0.0046465998
-0.009268249 -0.023432508 -0.016431933 0.009809353 0.0047977134 -0.0104130795 0.039745953 -0.01842458
-0.03229244 -0.041628316 -0.022764856 -0.008563171 0.018584222 -0.040040713 -0.03754936 -0.024251558
0.022150371 -0.025059361 0.016927432 0.016323578 -0.014032557 -0.024802916 0.012933186 -0.03474249
-0.04150801 -0.041826032 0.04107061 -0.01398666 -0.021454917 -0.012953967 -0.035993755 -0.039421804
-0.012458365 0.025906814 -0.011394044 0.037801255 -0.005232365 -0.012217486 -0.037092898 0.044107962
0.012952053 0.044546045 0.01397547 0.034162655 -0.0018149382 0.03525946 0.0009292835 0.03378526
0.026566507 0.021595037 0.0003168491 0.025237419 -0.024416644 -0.009541414 0.025369555 0.0149562545
0.018960422 -0.024848329 -0.002275196 0.0046265298 -0.008445055 -0.022267558 0.0029421495 -0.023124676
-0.026989218 0.03947905 0.02639182 -0.015050853 0.031185234 -0.0010036873 0.03358143 -0.013127101
0.001440424 -0.027433751 0.04327268 -0.014135089 0.018488169 -0.027861845 -0.034022372 -0.006514612
-0.029021733 0.0035339752 0.018373959 0.026081929 0.00958145 0.02668969 0.03972416 0.02913533
0.037538256 0.0039400985 -0.002626411 0.02135659 -0.014743289 -0.041720834 0.015609847 0.0053883386
-0.026322626 0.028572593 0.012084916 0.01042358 -0.043830402 0.026510676 0.008930812 -0.015072125
-0.03090176 -0.014478469 -0.029494086 -0.005381144 0.01585672 -0.0132280355 0.030704483 0.011756037
0.03704876 0.018543707 -0.002693153 0.031441446 0.037020124 -0.004270242 -0.03648061 -0.0034492826
0.012959892 -0.025230581 -0.036819138 -0.012827033 0.015576871 0.037202593 0.023549827 -0.006294207
0.043087788 -0.004932086 -0.0146260625 -0.010929916 -0.010375377 0.043511413 -0.015918696 -0.01872862
0.02112117 0.034677 0.035550483 -0.041099504 -0.020104079 0.0052892254 0.019550417 -0.031778343
-0.0152313 0.043244805 0.0051538325 -0.018829063 -0.0024129297 -0.013255246 -0.009486022 0.034555722
0.010135383 0.022816438 -0.016658526 0.016493784 0.01911666 0.025652504 0.034998707 -0.010528851
0.025269337 -0.0042684153 0.02113172 -0.035214595 0.0088450415 0.010456033 0.041194312 0.017240116
0.007879511 0.023192314 -0.034643568 -0.013297703 0.028968653 -0.041393477 0.024767736 0.009332784
-0.035870258 0.020367688 0.027921597 0.035276905 0.0114623085 -0.03967846 -0.00637267 0.036495037
00000000: 200e b3bb 8f53 54ba ad5b 103d c294 afbc
00000010: 58e6 003d 8f10 d139 f432 dcbb a920 27bb
00000020: 0df2 0dbb 2185 dcbc cb96 db3c d706 e9bc
00000030: 778c b6bc 1d51 c03c 9d00 e03c 8f76 0a3c
00000040: a0f1 dcbc d142 8bbc 7f76 503b d776 9f3c
00000050: 8915 0e3d 4195 afbc 9f4e 16bd 73ff cc3b
00000060: deca 5a3c 856a 023d d13c f73c 2f3b 113c
00000070: 9991 1f3b 8ac8 3e3b 003b 513c 6e77 bebc
00000080: 193a adbc 0ae7 fc3c 9991 5a3b bf5f 70bc
00000090: 3530 c1bc be36 033d a34f ccbb 3327 2abd
000000a0: 6f3f 963c 771a 173d 9909 febc ccc7 333c
000000b0: 1f3d 593c 4f55 cd3c 4362 d13c 3ecf 97bc
000000c0: 55f6 eebc 2252 ad3c 6c9a 363d c18d d6bc
000000d0: 29dd 0e3d 1cbf 373d 76a3 acbc b5e2 bfbb
000000e0: 7640 053b 5167 fabc a320 b23b 726b 053d
000000f0: bc17 f039 128e 933c 6b07 393b ec81 bebb
00000100: 50bb 323c eb29 2cbd 6dbb 65bc 0705 eb3c
00000110: b916 4dbb ccb3 a6bc 8390 7c3c 8142 983b
00000120: dbd9 17bc 88f5 bfbc 439c 86bc 69b7 203c
00000130: 2336 9d3b 9f9b 2abc a7cc 223d 25ef 96bc
00000140: 1445 04bd 7482 2abd 5d7d babc 8b4c 0cbc
00000150: f03d 983c bb01 24bd 5ccd 19bd 34ab c6bc
00000160: b274 b53c 4a49 cdbc 66ab 8a3c 06b9 853c
00000170: cfe8 65bc 7c2f cbbc b7e5 533c 244e 0ebd
00000180: 4e04 2abd c651 2bbd a839 283d 4e28 65bc
00000190: 39c2 afbc e03c 54bc 306e 13bd c278 21bd
000001a0: 2c1e 4cbc 873a d43c 16ae 3abc 7dd5 1a3d
000001b0: 4274 abbb da2b 48bc b9ee 17bd 8daa 343d
000001c0: d934 543c ea75 363d 5ff9 643c 24ee 0b3d
000001d0: 38e3 edba 396c 103d 299b 733a 6a62 0a3d
000001e0: 01a2 d93c 13e8 b03c c41e a639 b4be ce3c
000001f0: 6a05 c8bc 9753 1cbc d0d3 cf3c 140b 753c
00000200: e352 9b3c b98e cbbc 741b 15bb 259a 973b
00000210: 215d 0abc 746a b6bc 14d1 403b f66f bdbc
00000220: 7e18 ddbc c9b4 213d a833 d83c da97 76bc
00000230: 2d78 ff3c 288e 83ba ae8c 093d 0d13 57bc
00000240: 9ccc bc3a bfbc e0bc b23e 313d dc96 67bc
00000250: 8074 973c 863e e4bc 0b5b 0bbd 8778 d5bb
00000260: fcbe edbc 449a 673b fc84 963c c5a9 d53c
00000270: 84fb 1c3c 56a4 da3c cdb5 223d 37ad ee3c
00000280: b7c1 193d f11b 813b dd1f 2cbb 04f4 ae3c
00000290: d68d 71bc 77e3 2abd 72c0 7f3c a990 b03b
000002a0: 8ca2 d7bc 1211 ea3c d0ff 453c aac7 2a3c
000002b0: 8287 33bd eb2c d93c 8a52 123c 13f1 76bc
000002c0: b025 fdbc 1a37 6dbc 959d f1bc 4f54 b0bb
000002d0: f4e5 813c 67ba 58bc f887 fb3c 659c 403c
000002e0: 71c0 173d f9e8 973c 9c7f 30bb bfc8 003d
000002f0: 6aa2 173d 63ed 8bbb b16c 15bd 5c0d 62bb
00000300: ba55 543c 5db0 cebc aacf 16bd 7a28 52bc
00000310: 2236 7f3c bf61 183d 91eb c03c a33f cebb
00000320: d27c 303d 569d a1bb 27a2 6fbc 6413 33bc
00000330: 7cfd 29bc 0639 323d ed67 82bc c36c 99bc
00000340: 4e06 ad3c 7809 0e3d 629d 113d f457 28bd
00000350: 4fb1 a4bc 3d51 ad3b 3228 a03c 022a 02bd
00000360: b48c 79bc 7721 313d 7be1 a83b 683f 9abc
00000370: 3e22 1ebb 882c 59bc 436b 1bbc 4d8a 0d3d
00000380: e10e 263c 8ae9 ba3c 7677 88bc f91d 873c
00000390: 8b9a 9c3c 3325 d23c ce5a 0f3d 3481 2cbc
000003a0: a401 cf3c 10de 8bbb 6e1c ad3c 2e3d 10bd
000003b0: cbea 103c c84f 2b3c 5ebb 283d 253b 8d3c
000003c0: 1119 013c cffd bd3c 6ae6 0dbd 9cde 59bc
000003d0: ab4f ed3c 358c 29bd b5e5 ca3c 89e8 183c
000003e0: b1ec 12bd 23da a63c d5bb e43c 847e 103d
000003f0: 68cc 3b3c e285 22bd d5d1 d0bb d27b 153d

siam_layer.conv4.bias f4 [3]
-0.018079225 0.023523219 -0.035318844
00000000: e21a 94bc c4b3 c03c 7eaa 10bd

siam_layer.conv5.weight f4 [1, 3, 6, 6]
-0.087617956 -0.044857763 0.009414104 0.07899646 -0.0099700885 0.05769642 0.06262838 0.024192628
-0.05922626 -0.03599536 -0.08982766 0.07498563 -0.09018178 0.016675685 -0.068921395 0.051052343
0.07280153 -0.024344666 -0.014442984 -0.032724533 -0.018951314 -0.09560954 -0.05851491 -0.04173842
0.018837692 0.055724785 0.03666083 0.011099545 -0.07951879 -0.024021465 -0.048184622 -0.030568972
0.027609587 -0.066440284 0.06761617 0.05093409 0.049102332 -0.0655264 -0.023923289 -0.034191288
0.028037736 -0.0053349095 -0.018961173 -0.0021792515 0.00021415231 0.028557127 -0.020074395 -0.024102496
0.07332676 0.08666735 0.019099366 0.085915625 -0.07903051 0.09360759 -0.07865499 -0.062585816
-0.007758061 -0.073231295 -0.03860998 -0.05167555 -0.08090154 0.061506376 0.07805243 0.0044185324
0.0255782 -0.021155223 -0.040245444 -0.012720856 0.06757917 0.09195634 0.013858167 -0.006395202
0.090436436 0.0071980376 -0.096434295 -0.05834613 -0.011257005 -0.023085268 0.08909527 -0.05386955
0.020043341 -0.010859555 0.06241033 0.049160082 0.014831965 -0.02272793 -0.0535439 -0.09166112
0.04901491 0.036435284 0.039240897 0.025914501 0.080296606 0.030014537 0.009581186 -0.040239736
0.064178936 -0.062086314 0.021906685 0.029215926 -0.0051457835 0.07727727 0.049116425 -0.0845265
-0.034828853 -0.03877124 0.043048616 0.008379139
00000000: 0b71 b3bd c6bc 37bd 9d3d 1a3c e5c8 a13d
00000010: 9559 23bc 1553 6c3d 4f43 803d 9e2f c63c
00000020: 3c97 72bd df6f 13bd 90f7 b7bd 1192 993d
00000030: 3ab1 b8bd 729b 883c a926 8dbd 431c 513d
00000040: f818 953d 776e c7bc 44a2 6cbc 290a 06bd
00000050: c93f 9bbc efce c3bd 55ad 6fbd e8f5 2abd
00000060: 8151 9a3c ac3f 643d ab29 163d deda 353c
00000070: bfda a2bd aac8 c4bc 3d5d 45bd c86b fabc
00000080: 802d e23c d811 88bd 597a 8a3d 44a0 503d
00000090: 871f 493d b532 86bd c6fa c3bc 2a0c 0cbd
000000a0: 65af e53c 77d0 aebb 7654 9bbc c6d1 0ebb
000000b0: 138e 6039 a3f0 e93c 0f73 a4bc 9972 c5bc
000000c0: 572c 963d a77e b13d 4676 9c3c 88f4 af3d
000000d0: bfda a1bd 56b5 bf3d de15 a1bd fe2c 80bd
000000e0: 5537 febb 4afa 95bd 8025 1ebd bea9 53bd
000000f0: b5af a5bd 1cee 7b3d f4d9 9f3d 56c9 903b
00000100: 6089 d13c b84d adbc 68d8 24bd 236b 50bc
00000110: f366 8a3d 9b53 bc3d 5e0d 633c d88e d1bb
00000120: bd36 b93d 84dd eb3b 587f c5bd 5afc 6ebd
00000130: 4d6f 38bc 511d bdbc 9577 b63d 51a6 5cbd
00000140: ef31 a43c 46ec 31bc f9a1 7f3d 155c 493d
00000150: c501 733c ed2f babc d950 5bbd d3b8 bbbd
00000160: dcc3 483d 2a3d 153d 10bb 203d a64a d43c
00000170: 8c72 a43d 0ce1 f53c 68fa 1c3c 6cd2 24bd
00000180: 3f70 833d 384e 7ebd a675 b33c 3d56 ef3c
00000190: f69d a8bb 8c43 9e3d 4e2e 493d 3b1c adbd
000001a0: b3a8 0ebd 97ce 1ebd bf53 303d a848 093c

siam_layer.conv6.weight f4 [1, 3, 6, 6]
-0.01080707 -0.009215858 0.05896605 -0.022115074 0.068857916 -0.081565015 0.07827031 0.029759731
0.041044496 -0.061893355 -0.09183821 -0.09573845 -0.010820873 0.093494266 0.0941662 0.007443675
0.09135023 -0.08949828 -0.0036870383 0.07216661 0.03136078 0.090646535 0.025880974 -0.09531063
-0.08673784 0.012455341 -0.051776074 0.016071826 0.031047463 0.091718435 0.022260493 0.004297645
-0.08052486 0.0896129 0.055341363 -0.047652423 -0.073624514 -0.056497075 0.0018788002 -0.030676283
-0.033175137 -0.08429256 -0.043076653 -0.03975604 0.056905415 0.048409577 0.0436397 -0.006149728
-0.07676803 -0.0003438247 0.056652732 0.031931255 0.04011784 0.066068895 -0.01876397 -0.01959562
-0.012232873 -0.017258214 -0.049234252 -0.058218002 0.07656438 0.055569742 -0.06749767 0.011250121
-0.04843486 -0.0069999555 -0.07741221 -0.077416115 0.08463712 0.050308954 0.06271654 0.03451226
-0.073626384 -0.038990036 0.051130332 -0.012451503 -0.074064985 -0.09537081 -0.096068636 -0.04429241
0.044857528 0.08652156 0.04943933 -0.055930536 -0.0433381 0.016793413 -0.094651416 -0.08594983
-0.07379641 0.027753443 -0.03157466 -0.03840572 0.07573902 0.05764512 0.029663341 -0.054086644
-0.030444402 0.0029060578 -0.050687447 -0.051097296 -0.09555755 -0.060685243 -0.090326056 0.05975702
0.011652794 -0.026022328 0.07954842 -0.03955412
00000000: 2310 31bc 1cfe 16bc 6386 713d ac2a b5bc
00000010: 6105 8d3d 8f0b a7bd 2f4c a03d aeca f33c
00000020: 461e 283d e383 7dbd ac15 bcbd 8512 c4bd
00000030: 084a 31bc ec79 bf3d 35da c03d 12ea f33b
00000040: d415 bb3d e04a b7bd 3da2 71bb 16cc 933d
00000050: 2974 003d e4a4 b93d 5604 d43c 3832 c3bd
00000060: 9ca3 b1bd 7d11 4c3c 2613 54bd 10a9 833c
00000070: 4057 fe3c e0d6 bb3d a35b b63c 42d3 8c3b
00000080: 38ea a4bd f886 b73d a0ad 623d 302f 43bd
00000090: 73c8 96bd 7a69 67bd 1342 f63a d44c fbbc
000000a0: a7e2 07bd 94a1 acbd 2571 30bd 3bd7 22bd
000000b0: a715 693d 1f49 463d 8bbf 323d a883 c9bb
000000c0: 8f38 9dbd 5f43 b4b9 b20c 683d 59ca 023d
000000d0: 9b52 243d 214f 873d e6b6 99bc fe86 a0bc
000000e0: 636c 48bc 1961 8dbc dba9 49bd 0076 6ebd
000000f0: c9cd 9c3d 199d 633d 383c 8abd 6d52 383c
00000100: a263 46bd e25f e5bb 4b8a 9ebd 578c 9ebd
00000110: 3a56 ad3d c310 4e3d 8871 803d ba5c 0d3d
00000120: 6ec9 96bd 04b4 1fbd 0a6e 513d 6401 4cbc
00000130: 62af 97bd c551 c3bd a2bf c4bd f56b 35bd
00000140: 87bc 373d 3732 b13d e580 4a3d 6b17 65bd
00000150: 4b83 31bd 5792 893c 9ad8 c1bd 7706 b0bd
00000160: 9222 97bd 305b e33c 6e54 01bd 514f 1dbd
00000170: 0f1d 9b3d 4a1d 6c3d 8900 f33c f589 5dbd
00000180: 8a66 f9bc 8f73 3e3b a49d 4fbd 664b 51bd
00000190: adb3 c3bd 1791 78bd defc b8bd c7c3 743d
000001a0: 5ceb 3e3c c72c d5bc 48ea a23d 8003 22bd

siam_layer.conv7.weight f4 [1, 2, 6, 6]
0.02897134 0.06363037 -0.083690315 0.11002147 0.012833684 0.08034614 0.034343783 -0.10118517
-0.08009724 -0.07218805 0.094386555 -0.0011122676 -0.055057283 0.0017073716 -0.111479186 0.090927824
-0.11178883 -0.009418108 -0.0418332 -0.021054184 -0.11150887 0.01743693 0.11178965 -0.024384202
0.023288958 0.015982604 0.08434558 -0.015746292 0.10777803 6.794963e-05 -0.090085655 0.029323414
0.0063559487 -0.023789013 -0.09558847 0.04683289 0.09102745 -0.035377186 -0.10713528 -0.06525792
0.040481143 0.08951986 0.056801517 0.0658229 -0.064224735 -0.068768345 0.110235035 -0.09847394
-0.10700825 0.008749445 -0.094960526 -0.00730264 0.035383217 -0.09006057 -0.050690237 0.11477234
-0.11263764 -0.09368894 -0.0920846 -0.018453823 0.028028041 0.027658323 0.1000011 0.033354547
-0.09859666 0.035280984 -0.114133775 -0.07561301 -0.015442356 0.06923123 0.024889164 0.10660722
00000000: 4e55 ed3c a450 823d d465 abbd f052 e13d
00000010: 5f44 523c 848c a43d 11ac 0c3d 2c3a cfbd
00000020: 060a a4bd 54d7 93bd bd4d c13d 82c9 91ba
00000030: bf83 61bd e2c9 df3a 334f e4bd 5e38 ba3d
00000040: 8bf1 e4bd 684e 1abc 4a59 2bbd d379 acbc
00000050: c35e e4bd e5d7 8e3c f9f1 e43d 61c1 c7bc
00000060: 7cc8 be3c f3ed 823c 60bd ac3d 5efe 80bc
00000070: baba dc3d 2e80 8e38 d47e b8bd a837 f03c
00000080: 9045 d03b 2de1 c2bc e3c3 c3bd d8d3 3f3d
00000090: 9a6c ba3d abe7 10bd be69 dbbd f2a5 85bd
000000a0: 8ecf 253d 3056 b73d b5a8 683d 28ce 863d
000000b0: 4288 83bd 6bd6 8cbd e8c2 e13d b4ac c9bd
000000c0: 2427 dbbd d559 0f3c aa7a c2bd fc4a efbb
000000d0: feed 103d ad71 b8bd 91a0 4fbd c30d eb3d
000000e0: 90ae e6bd fddf bfbd da96 bcbd 792c 97bc
000000f0: 109b e53c b593 e23c 60cd cc3d c79e 083d
00000100: 0ced c9bd cb82 103d f8be e9bd feda 9abd
00000110: ef01 7dbc 1ac9 8d3d 5ce4 cb3c e354 da3d

dense.weight f4 [1, 308]
-0.03341653 0.039976656 -0.036119908 0.04883318 -0.01609639 0.017865678 0.012055888 -0.006492644
0.0023652588 -0.0028973483 -0.046620645 -0.02316712 -0.0056257895 0.022507377 -0.040133968 -0.034439176
-0.031799443 -0.00031230948 0.019792061 0.010573513 -0.039638203 0.032705247 0.015540088 0.038913596
-0.038658507 -0.00064979924 -0.003704669 0.026547056 -0.023004571 0.039197456 0.02454993 0.018445782
-0.02711951 -0.010851816 -0.016262688 -0.034679383 -0.033422727 0.0022597022 0.021847686 0.009907218
-0.0119739855 0.0022367195 0.019201512 -0.01931697 -0.047872156 -0.05102215 0.00031310384 0.0034344855
0.002517084 0.03110875 0.047477342 -0.05154805 -0.017500961 -0.0027168288 -0.04129216 0.0055739703
-0.05063218 -0.047263075 0.029053569 0.05501441 0.050214123 -0.04495773 0.007100692 0.04312048
0.008012081 0.040151615 0.051103342 0.03718591 -0.03858197 -0.010880651 0.025106069 0.007977234
-0.020709027 -0.0076231034 -0.013313008 0.054527223 -0.034207933 0.04241296 -0.04800661 0.04001651
-0.027699921 0.0011509184 -0.014553296 0.005557997 -0.009947504 0.017708974 -0.043520987 -0.014226898
-0.017001608 -0.053415827 0.008056949 0.03336855 -0.009548713 -0.033863254 -0.05153689 0.02915279
-0.05491102 0.0060423566 -0.032433044 0.053080123 0.018374661 0.038772613 0.043310996 -0.025993433
-0.032775775 -0.0019176471 -0.006451296 -0.050447468 0.021252984 -0.046851173 0.019807657 -0.018277068
0.0077946587 -0.033767134 0.013395789 0.0044994284 -0.018171282 0.035809547 0.03134016 4.2695006e-05
-0.040463213 -0.048468344 0.0037962368 0.039107785 -0.024898848 -0.02571663 -0.053259794 -0.051237382
-0.012400814 0.0056903 0.0023900243 -0.013615443 -0.02590967 -0.051507447 0.045174092 -0.044609874
0.03277078 0.026510682 0.009526103 -0.041563578 -0.033643708 0.025831548 -0.0510997 0.021250764
-0.00031954603 -0.038848486 -0.009392075 0.030156096 -0.051815342 0.015690204 0.0014099724 -0.04812865
-0.027145306 0.02382123 0.016840803 0.004632316 0.0035290555 0.055536192 0.027574139 0.045130115
0.04121388 0.051760502 -0.054775182 -0.010880562 0.038727958 0.03486514 -0.009165839 0.053010404
0.04122117 -0.019208001 -0.05056866 0.02171756 0.03272966 -0.00034584603 0.05466672 -0.013905154
-0.01894493 0.04874516 0.030413441 0.043196626 -0.05240814 0.041021734 -0.013246621 -0.04488061
0.042518932 0.030950695 0.037720665 0.005553178 0.006576895 0.03532302 -0.025753025 -0.021374967
0.0043412927 -0.0051927892 0.017590802 0.0016700801 0.0393124 -0.0110358335 0.051747024 0.05557757
-0.0060636364 0.02417482 0.014057183 0.0346397 -0.03019752 0.03737272 0.044395234 -0.017636353
0.03063175 -0.01560635 -0.03845997 0.038622223 -0.022235164 0.035202693 -0.036861762 0.026291536
-0.025373556 0.052885767 -0.039621264 -0.025704592 0.047698 0.019188311 0.029411105 0.022444118
-0.03130076 0.014028661 0.04588966 0.017165968 0.0026149265 -0.035744973 0.053745892 0.027550537
-0.008435145 -0.022711614 0.0544576 -0.023377443 -0.021154886 0.034126736 -0.05575277 -0.010726242
0.03898759 -0.03239842 0.025970144 -0.02820153 0.029284839 -0.047255576 0.017061822 0.039075095
-0.007838456 0.016204474 0.021469222 0.02347777 0.03305658 -0.0440008 -0.048931498 -0.012988967
00000000: c5df 08bd 90be 233d 78f2 13bd 4d05 483d
00000010: 94dc 83bc 0b5b 923c 0f86 453c 3fc0 d4bb
00000020: 7502 1b3b 70e1 3dbb 4af5 3ebd f9c8 bdbc
00000030: 8b58 b8bb 6461 b83c 8463 24bd 1810 0dbd
00000040: 2240 02bd 78bd a3b9 f622 a23c 873c 2d3c
00000050: ab5b 22bd f0f5 053d da9b 7e3c dd63 1f3d
00000060: 6258 1ebd 4a57 2aba 08ca 72bb 3679 d93c
00000070: 1574 bcbc 838d 203d ef1c c93c 9c1b 973c
00000080: bc29 debc d1cb 31bc 5439 85bc f80b 0ebd
00000090: 45e6 08bd 8317 143b ebf9 b23c e251 223c
000000a0: 892e 44bc ed95 123b 7d4c 9d3c 9f3e 9ebc
000000b0: 9815 44bd 9afc 50bd 1628 a439 1b15 613b
000000c0: a9f5 243b c7d7 fe3c 9a77 423d 0c24 53bd
000000d0: 2d5e 8fbc d30c 32bb f821 29bd daa5 b63b
000000e0: b063 4fbd ed96 41bd c001 ee3c ca56 613d
000000f0: 53ad 4d3d 9925 38bd ecac e83b 1a9f 303d
00000100: 1a45 033c 0576 243d bd51 513d 4150 183d
00000110: 2108 1ebd c244 32bc 3eab cd3c f2b2 023c
00000120: faa5 a9bc 3acb f9bb cd1e 5abc f057 5f3d
00000130: 9e1d 0cbd 36b9 2d3d 94a2 44bd 5ae8 233d
00000140: f2ea e2bc 6ada 963a f370 6ebc dc1f b63b
00000150: dbfa 22bc 6912 913c 1043 32bd ef17 69bc
00000160: f546 8bbc 8eca 5abd 4b01 043c 76ad 083d
00000170: 3572 1cbc 32b4 0abd 5918 53bd d5d1 ee3c
00000180: 61ea 60bd f6fe c53b 83d8 04bd 8b6a 593d
00000190: 7586 963c 08d0 1e3d df66 313d 2ef0 d4bc
000001a0: e43f 06bd 8f59 fbba 6565 d3bb 01a2 4ebd
000001b0: bd1a ae3c 04e7 3fbd ab43 a23c cab9 95bc
000001c0: 566a ff3b 684f 0abd 037a 5b3c f16f 933b
000001d0: f1db 94bc 08ad 123d 8a5e 003d 6a13 3338
000001e0: c1bc 25bd be86 46bd 49ca 783b 7c2f 203d
000001f0: abf8 cbbc afab d2bc f126 5abd 4ade 51bd
00000200: c92c 4bbc b275 ba3b f4a1 1c3b 4f13 5fbc
00000210: 8440 d4bc 79f9 52bd 7808 393d d8b8 36bd
00000220: a73a 063d ee2c d93c 5f13 1c3c 923e 2abd
00000230: fccd 09bd af9c d33c eb4d 51bd 1516 ae3c
00000240: be88 a7b9 971f 1fbd 38e1 19bc eb09 f73c
00000250: 533c 54bd be88 803c d3ce b83a 8c22 45bd
00000260: d55f debc bd24 c33c b9f5 893c afca 973b
00000270: ba47 673b eb79 633d 29e3 e13c 5bda 383d
00000280: e3cf 283d d202 543d f15b 60bd 6244 32bc
00000290: 35a1 1e3d c0ce 0e3d 512c 16bc 7021 593d
000002a0: 88d7 283d 195a 9dbc 1521 4fbd 06e9 b13c
000002b0: 890f 063d ab52 b5b9 36ea 5f3d 71d2 63bc
000002c0: 6632 9bbc 01a9 473d 9c25 f93c f2ee 303d
000002d0: eba9 56bd 6806 283d 5b08 59bc bbd4 37bd
000002e0: 5528 2e3d 508c fd3c fc80 1a3d 6ff7 b53b
000002f0: fe82 d73b dfae 103d 02f8 d2bc 8e1a afbc
00000300: 6741 8e3b 4628 aabb 961a 903c 97e6 da3a
00000310: 0a06 213d a4cf 34bc b0f4 533d 4ea5 633d
00000320: 78b1 c6bb 460a c63c 1950 663c 5ce2 0d3d
00000330: ca60 f7bc 2314 193d c7d7 353d 1d7a 90bc
00000340: 70ef fa3c c7b1 7fbc 3488 1dbd 5632 1e3d
00000350: 8526 b6bc b330 103d 5cfc 16bd 5961 d73c
00000360: 34dc cfbc bf9e 583d e849 22bd 7092 d2bc
00000370: fa5e 433d ce30 9d3c 8fef f03c badc b73c
00000380: 3a35 00bd 78d8 653c ccf6 3b3d a59f 8c3c
00000390: 305f 2b3b 5269 12bd a724 5c3d aab1 e13c
000003a0: 9033 0abc b50d babc ef0e 5f3d 0d82 bfbc
000003b0: 034d adbc 7ac8 0b3d 045d 64bd 1fbd 2fbc
000003c0: 73b1 1f3d 35b4 04bd 57bf d43c e506 e7bc
000003d0: c2e6 ef3c 108f 41bd 3cc5 8b3c 350d 203d
000003e0: de6c 00bc 3fbf 843c 39e0 af3c 7454 c03c
000003f0: 5666 073d 2f3a 34bd 656c 48bd adcf 54bc
