siamese-classifier/siam_v3_39.pth (torch, 104363 bytes, 12 tensors)

siam_layer.conv1.weight f4 [14, 31, 6, 6]
0	0xbaa557d7	-0.0012614679
1	0xbc6ee522	-0.014580997
2	0x3ba4451f	0.0050131227
3	0xbb18cbda	-0.0023314864
4	0x3cdb5867	0.026775552
5	0x3a967e82	0.0011481794
6	0x3baeba89	0.0053322953
7	0xbc5507ff	-0.013002395
8	0xbc9d590b	-0.019207498
9	0xbcf1aea3	-0.029502219
10	0xbccb23d5	-0.02479736
11	0x3cd53e52	0.026030693
12	0xbcda7be6	-0.026670408
13	0xbbb6695f	-0.0055667604
14	0x3b367c9d	0.0027845271
15	0x3bf8a254	0.0075877104
16	0xba84bec8	-0.0010127658
17	0xbc94e201	-0.018174173
18	0xbcc3b9fb	-0.023892393
19	0x3ba27503	0.0049577965
20	0x3b948bb0	0.0045332536
21	0x3aa8a924	0.0012867791
22	0x3c958012	0.018249545
23	0x3cce2e67	0.02516861
24	0xbc72215a	-0.014778459
25	0xbc855381	-0.01627517
26	0xbcc71392	-0.024301324
27	0xbb1407f9	-0.002258776
28	0x3ccb832b	0.02484282
29	0x3cd27ae1	0.025693359
30	0x3ce3b400	0.027795792
31	0x3ca13ea2	0.019683186
32	0xbc9c0955	-0.019047419
33	0x3c93b5fe	0.018031117
34	0x3c514d87	0.012774832
35	0xbc21e0af	-0.009880229
36	0xbb190b9d	-0.002335287
37	0x3ca72467	0.0204031
38	0xbc8adf01	-0.01695204
39	0x3b242a0b	0.0025049474
40	0x3c681ea9	0.014167466
41	0xbb5ca703	-0.0033668883
42	0x3cc33fd5	0.023834148
43	0x3b1f3848	0.002429502
44	0xbbb01201	-0.00537324
45	0xbafe739e	-0.0019413119
46	0x3c9c2619	0.019061135
47	0xbcc63857	-0.024196787
48	0x3b64c2e3	0.00349062
49	0x3cce95e7	0.025217963
50	0xbc760f8c	-0.015018355
51	0x3c2959e6	0.010336375
52	0x3ca5b5f7	0.02022837
53	0xbc480eeb	-0.012210588
54	0xbcb10204	-0.021607406
55	0xbcd3f1ea	-0.02587219
56	0xbb184092	-0.0023231846
57	0x3cabfa04	0.02099324
58	0xbc20315e	-0.009777395
59	0x3c96b71c	0.01839786
60	0x3c52dd41	0.012870134
61	0x3c32aa21	0.01090482
62	0xbbd29df8	-0.0064275227
63	0x3c896389	0.016771095
64	0xbceccf9e	-0.028907593
65	0xbcd0ec3b	-0.025503268
66	0x3ce82fa1	0.028343024
67	0xbcb3aced	-0.021933043
68	0xbceba3b3	-0.028764581
69	0x3cae36af	0.02126631
70	0xbc7e86b0	-0.015535042
71	0xbcda03f0	-0.026613206
72	0xbcba821c	-0.02276712
73	0x3c48a714	0.012246866
74	0xbcb569c9	-0.022145169
75	0x3ce330f6	0.027733307
76	0xbb833397	-0.0040039527
77	0xbcc925bd	-0.024554128
78	0xbcdfce38	-0.027320012
79	0x3ca05ada	0.019574571
80	0x3c9ab6bc	0.018885963
81	0xbc268ad4	-0.010164935
82	0xbaafe433	-0.0013419449
83	0xbc07f5db	-0.008298363
84	0x3c01cc8b	0.007922302
85	0x3c7fda27	0.015615976
86	0x3cb03bf5	0.021512965
87	0x3c7ad032	0.015308427
88	0x3bd70f66	0.006563115
89	0xbc9b3ce8	-0.01894994
90	0xbce98be1	-0.028509082
91	0x3cc6ca55	0.024266401
92	0x3c6fd7b5	0.014638831
93	0x3c464577	0.012101523
94	0xbce40517	-0.027834458
95	0xbb33ac79	-0.0027416034
96	0xbbaeb187	-0.0053312215
97	0xbc9c79ef	-0.019101111
98	0xbcc8cb2d	-0.024510944
99	0xbccea338	-0.025224313
100	0x3c9efb2d	0.01940688
101	0xbcc11cd6	-0.02357332
102	0xbc4d6cd1	-0.012538151
103	0x3bd2439b	0.0064167506
104	0xbcdc3f67	-0.026885701
105	0xbca72703	-0.020404344
106	0xbc02e6f2	-0.007989632
107	0xbc8e1d83	-0.017348057
108	0xbc78f997	-0.015196226
109	0x3a59adb7	0.00083037786
110	0x3ceaa43f	0.028642772
111	0x3b842ef9	0.00403392
112	0xbcdd3e45	-0.027007231
113	0xbc8c5b24	-0.017133303
114	0x3cb84268	0.022492602
115	0x3c84e95e	0.01622456
116	0xbc9728bd	-0.018452043
117	0x3aaf0b2b	0.0013354769
118	0xbcf4710b	-0.02983906
119	0xbcd6bd5c	-0.02621334
120	0xbc8f701d	-0.017509514
121	0xbc47bee0	-0.012191504
122	0xbcf2ad20	-0.029623568
123	0x3b0a5a41	0.0021110924
124	0xbcdafd23	-0.026732033
125	0x3b0a9768	0.0021147374
126	0xbbfcb3a4	-0.0077118445
127	0xbcda76b7	-0.026667936
128	0xbc87db00	-0.01658392
129	0x3c1d3d7c	0.009597179
130	0x3bf44172	0.0074540908
131	0x3c01275d	0.00788292
132	0xbcf39688	-0.029734865
133	0x3c08e49d	0.008355287
134	0xbcd5719a	-0.026055146
135	0xbca8ee50	-0.020621449
136	0xbc226ce0	-0.009913653
137	0xbaa4f029	-0.001258378
138	0x3c647704	0.013944391
139	0x3cc35366	0.023843478
140	0x3c9465db	0.018114975
141	0x3c4872e8	0.012234427
142	0xbc5da4ff	-0.013528108
143	0xbc64331a	-0.013928199
144	0xbc02619d	-0.007957843
145	0xbb8575c1	-0.0040728753
146	0xbc7d3b74	-0.015456069
147	0xbcce1cff	-0.02516031
148	0xbc8231d2	-0.015892897
149	0x3c34aa85	0.011026983
150	0x3c7e0e83	0.01550639
151	0x3c921a5b	0.017834833
152	0xbce6a03c	-0.028152578
153	0xbcd3d0a0	-0.025856316
154	0x3c8f03cd	0.017457867
155	0x3c8059b7	0.01566778
156	0xbc525ac9	-0.012839028
157	0x3c8ec6bf	0.017428754
158	0xbc9300fb	-0.017944803
159	0x3b231037	0.002488149
160	0x3c6ad694	0.014333386
161	0x3c228a86	0.009920722
162	0x3cc84aa8	0.024449661
163	0x3cb0e77a	0.021594752
164	0xbcdbe391	-0.02684191
165	0x3cacdf45	0.021102557
166	0xbccdf803	-0.025142675
167	0x3c1ac400	0.009446144
168	0xbcb4ebf4	-0.022085167
169	0xbc777fc5	-0.015106146
170	0x3ce8813d	0.028381938
171	0x3c7cf1fa	0.015438551
172	0xbba8e8cf	-0.005154706
173	0x3cd53025	0.026023934
174	0xb90af1cb	-0.0001325078
175	0x3b0fd74e	0.00219484
176	0x3c27a2ba	0.010231668
177	0xbb617c9d	-0.003440655
178	0x3c051a05	0.008123879
179	0xbccc0316	-0.024903815
180	0xba56cfbb	-0.00081944064
181	0x3cb3976b	0.021922788
182	0xbc09a0c3	-0.008400145
183	0xbc354831	-0.011064575
184	0x3c0723d4	0.008248288
185	0x3bb9c348	0.0056690313
186	0xbc8d425b	-0.017243555
187	0x3c42dbbc	0.011893209
188	0xbcbe8547	-0.023256911
189	0x3c9bf40b	0.019037267
190	0xbcbf5797	-0.023357196
191	0xbcb45c46	-0.022016656
192	0xbc928d20	-0.01788956
193	0x3c8ba022	0.01704413
194	0x3c84bd7b	0.016203633
195	0xbc94af12	-0.018149886
196	0x3b86d9fb	0.0041153408
197	0xbcc9cc0f	-0.024633436
198	0xb9c5f376	-0.0003775616
199	0xbc9a5c0d	-0.018842721
200	0xbc09ada6	-0.008403217
201	0x3c92a11a	0.017899085
202	0xbce7fc95	-0.028318683
203	0x3ccb860f	0.024844198
204	0x3ae12ce6	0.0017179518
205	0xbbab468c	-0.0052269157
206	0x3c9729c6	0.018452536
207	0x3ce63220	0.028100073
208	0xbce3aa98	-0.027791306
209	0x3bdc318e	0.0067197746
210	0x3cde9266	0.027169418
211	0x3c763018	0.015026115
212	0x3add9a8d	0.0016907022
213	0x3c6f930b	0.01462246
214	0xbcc70802	-0.02429581
215	0x3c23de08	0.010001667
216	0x3cc297f1	0.023754092
217	0xbc61b805	-0.013776784
218	0x3c9672f5	0.018365363
219	0xbb0d2f55	-0.0021543105
220	0x3cb6954b	0.022287985
221	0xbc3f6526	-0.0116818305
222	0x3ccc816e	0.02496406
223	0xbc08d905	-0.008352523
224	0xbc9f43a4	-0.019441433
225	0x3bc98227	0.0061495486
226	0x3c2c99d1	0.01053472
227	0x3c014336	0.0078895595
228	0xbcf1ddcb	-0.029524704
229	0x3cef1e4b	0.02918925
230	0xbc7f1c46	-0.015570706
231	0xbbdfad02	-0.006826044
232	0xbc509d47	-0.01273281
233	0x3b2be9d6	0.0026231906
234	0xbc831912	-0.016003165
235	0x3b9af868	0.0047293194
236	0xbcee7ef2	-0.029113267
237	0xbbdedae3	-0.0068009957
238	0xbce0c68d	-0.027438426
239	0x3bbd3052	0.0057735825
240	0xbadba68c	-0.0016758009
241	0x3c66ea89	0.0140940035
242	0xbcbb7fd2	-0.022888098
243	0x3c5707d8	0.013124429
244	0x3cd9f5ab	0.026606401
245	0x3b91cd86	0.004449549
246	0xbc733864	-0.014844988
247	0xbbec27ea	-0.0072069066
248	0x398bce94	0.0002666606
249	0xbc2c6841	-0.010522903
250	0xbc2630f4	-0.010143507
251	0xbce65a91	-0.028119357
252	0x3ca80b05	0.020513067
253	0x3c236773	0.009973395
254	0x3c0daecb	0.008647631
255	0xbb3a6cae	-0.0028446126

siam_layer.conv1.bias f4 [14]
0	0x3c58fa4c	0.013243269
1	0x3cf4e9fa	0.029896725
2	0x3c004b84	0.007830504
3	0xbcd3480c	-0.02579119
4	0x3cbfe5e2	0.023425046
5	0x3cf1107a	0.029426802
6	0xbcb0d774	-0.021587111
7	0x3bb2b158	0.00545327
8	0xbc6bbac4	-0.01438779
9	0x3c06a988	0.00821913
10	0x3c7e114c	0.015507054
11	0x3cd99648	0.026560917
12	0x3c938744	0.018008836
13	0x3c160b14	0.009157915

siam_layer.conv2.weight f4 [7, 14, 6, 6]
0	0xbc5bec52	-0.013423042
1	0xbd2f3d88	-0.04278329
2	0x3c01754e	0.007901503
3	0xbc6e25c6	-0.014535373
4	0xbbc9d4af	-0.006159387
5	0x3c151266	0.009098625
6	0xbd0c8e33	-0.0343153
7	0x3cbda141	0.02314818
8	0x3bd6c403	0.006554128
9	0xbd207be2	-0.039180644
10	0xbc8bb9c8	-0.01705636
11	0x3cd082ce	0.025452998
12	0x3c667bd0	0.014067605
13	0xbd334800	-0.043769836
14	0x3bbfb19f	0.0058500315
15	0x3d342d89	0.04398874
16	0x3c3d3c91	0.011550085
17	0x3ca3de66	0.020003509
18	0xbc8feb63	-0.017568296
19	0xbc4be4be	-0.012444673
20	0x3cb9b259	0.02266805
21	0x3d22c327	0.039736893
22	0x3d09b462	0.033619292
23	0x3c15de3b	0.009147222
24	0xbc19238e	-0.009346856
25	0xbc9520eb	-0.018204173
26	0xbd353d04	-0.044247642
27	0x3c1ef2fb	0.009701486
28	0x3d03310f	0.032029208
29	0x3aa2ee41	0.0012430624
30	0x3d22b287	0.03972104
31	0xbcbcc6d7	-0.023044033
32	0x3cbe519f	0.02323228
33	0x3ced7533	0.028986549
34	0x3c52c310	0.012863889
35	0xbc192040	-0.009346068
36	0xbd25e5fb	-0.04050253
37	0x3d05ef61	0.032698993
38	0xbca0305a	-0.019554306
39	0xbd2924b7	-0.04129478
40	0x3d208fc6	0.039199613
41	0x3c2c52f4	0.010517824
42	0xbca1dcdd	-0.019758636
43	0x3d084cbc	0.033276305
44	0x3cb30dda	0.02185719
45	0x3d09711e	0.033555143
46	0x3cf0673f	0.029346107
47	0xbcc640d4	-0.024200834
48	0x3cf712a0	0.030160248
49	0xbcd1b50b	-0.025599023
50	0xbd0c1aaa	-0.034205116
51	0x3c846781	0.016162636
52	0xbd0cab77	-0.03434321
53	0xbcdbf131	-0.026848407
54	0x3c09d506	0.008412605
55	0x3c34126c	0.01099072
56	0xbd07fd1a	-0.03320036
57	0xbcc9ec26	-0.024648737
58	0xbca5fc98	-0.020262048
59	0xbbbcd0d4	-0.005762199
60	0x3d1495f3	0.036275815
61	0xbcd39ab2	-0.0258306
62	0xbcc67d1b	-0.024229577
63	0xbc81a871	-0.01582739
64	0x3c94b47e	0.018152472
65	0xbcb41167	-0.021980954
66	0xbd364bea	-0.04450599
67	0x3c00fa5b	0.007872189
68	0xbd013d56	-0.031552635
69	0xbcd8c9a2	-0.026463334
70	0x3d2207c3	0.039558183
71	0x3d1c7518	0.038197607
72	0xbd0b837a	-0.034060933
73	0xbc05e728	-0.008172788
74	0xbc2cef39	-0.010555082
75	0x3c5eaca1	0.013590963
76	0x3cd57da6	0.02606089
77	0xbb9e2993	-0.0048267334
78	0x3c7400e9	0.014892795
79	0x3aafdf30	0.0013417955
80	0xbc4409e2	-0.011965247
81	0x3a8118f8	0.000984936
82	0xbd2629b5	-0.04056712
83	0x3c3e492f	0.011614128
84	0x3c936af7	0.01799534
85	0xbc40554e	-0.011739088
86	0x3c0f8582	0.008759858
87	0xbd343e72	-0.044004865
88	0xbbfc96ca	-0.007708405
89	0xbc77cc1e	-0.015124349
90	0xbd2a0eda	-0.04151807
91	0xbc849455	-0.016184011
92	0xbc6226d9	-0.013803207
93	0x3c8db10f	0.017296342
94	0x3c2bdf7f	0.010490297
95	0xbd0c733d	-0.034289587
96	0xbb87877d	-0.0041360245
97	0x3d1c242d	0.038120437
98	0x3c9b1926	0.01893289
99	0xbc648fc9	-0.013950297
100	0x3d2616bb	0.04054902
101	0x3c812fd3	0.015769875
102	0x3d14043c	0.03613685
103	0x3d0b3bfb	0.03399275
104	0xbaf82729	-0.0018932569
105	0x3cc852aa	0.02445348
106	0x3c9f1cff	0.019423006
107	0xbd2b0536	-0.041753016
108	0x3d1c9527	0.03822818
109	0xbc39ba67	-0.011335946
110	0xbc1c6f9c	-0.009548094
111	0xbcb70012	-0.0223389
112	0x3c814f3b	0.01578485
113	0xbd320fad	-0.04347198
114	0xbd177341	-0.03697515
115	0x3d097d8c	0.033566996
116	0x3d28b9e3	0.0411929
117	0x3cc8a039	0.024490463
118	0xbc54b8c2	-0.012983503
119	0x3c997796	0.01873378
120	0xbcc66ac5	-0.024220834
121	0xbd150c9e	-0.036388986
122	0x3d09042e	0.03345125
123	0xbc0582ac	-0.00814883
124	0xbbc808fa	-0.0061045857
125	0x3beec9fd	0.0072872625
126	0x3cc3e2ee	0.02391192
127	0x3c76893d	0.015047369
128	0xbc28d7c2	-0.010305347
129	0x3c31ec14	0.010859508
130	0xbc75dd58	-0.015006386
131	0xbb7c7b58	-0.0038525667
132	0x3cce2185	0.025162468
133	0xbd046615	-0.032323916
134	0xbcc6829e	-0.024232205
135	0xbbeb3724	-0.007178204
136	0xbca355c1	-0.019938352
137	0xbbca4b79	-0.006173548
138	0x3d04f493	0.032459807
139	0xbcfc80d1	-0.030823143
140	0xbcd0d840	-0.025493741
141	0x3c774cca	0.0150939915
142	0xbd2682e5	-0.040652175
143	0xbc852adb	-0.016255787
144	0xbccde06d	-0.025131429
145	0xbae00b84	-0.0017093276
146	0xbcc712a7	-0.024300886
147	0xb92894f4	-0.00016077218
148	0x3c7de66f	0.015496834
149	0xbb5f5b3e	-0.0034081484
150	0xbcc724e3	-0.024309581
151	0xbc97668c	-0.018481515
152	0xbd1b0595	-0.03784712
153	0x3c9c93f5	0.01911352
154	0x3c835118	0.01602988
155	0xbc852581	-0.016253235
156	0xbb8a1b4e	-0.0042146808
157	0xbba2c3d6	-0.004967193
158	0x3d0b4c4e	0.034008317
159	0xbb2c964f	-0.0026334708
160	0xbc9e4082	-0.01931787
161	0x3bf13d6f	0.00736206
162	0x3d228180	0.039674282
163	0x3cceec3b	0.025259128
164	0x3cf47030	0.029838651
165	0xbc959a54	-0.018262066
166	0xbcafc879	-0.021457897
167	0x3cc1fa53	0.023678934
168	0xbc722ac3	-0.014780703
169	0xbc5e4748	-0.013566799
170	0x3c6fad4c	0.01462872
171	0x3d2ac997	0.041696157
172	0xbcb15dd3	-0.021651184
173	0xbd24ed0f	-0.04026514
174	0x3bb24a4c	0.005440986
175	0xbcad2e31	-0.02114019
176	0xbccac20e	-0.024750736
177	0x3cb8dbb4	0.0225657
178	0x3b654a24	0.0034986818
179	0xbcfe126f	-0.03101465
180	0x3d343987	0.044000175
181	0x3cb2fa96	0.021848004
182	0x3ceb553a	0.028727163
183	0xbc6d0690	-0.014466897
184	0xbd310555	-0.043217976
185	0x3cfcf7a7	0.030879809
186	0xbd02268a	-0.031775035
187	0xbd1f93bf	-0.03895926
188	0x3d16b0e0	0.036789775
189	0xbba8c8e3	-0.0051509007
190	0x3c545f9b	0.012962247
191	0xbcfc48b8	-0.030796394
192	0x3cc44f83	0.023963695
193	0x3c0d4dd0	0.008624509
194	0x3c95f0a7	0.018303229
195	0x3d017bda	0.031612255
196	0xbbceaf53	-0.0063075214
197	0xbd19851d	-0.037480462
198	0xbc173cd7	-0.009230814
199	0xbcf033ff	-0.029321669
200	0xbc881289	-0.0166104
201	0xbd0bc109	-0.03411964
202	0x3bd63008	0.0065364875
203	0xbd0a1692	-0.03371293
204	0x3bf2052f	0.007385872
205	0x3cca1c05	0.024671564
206	0x3cdb6c75	0.026785115
207	0xbcdfb0e6	-0.027306031
208	0x3c10c596	0.008836171
209	0x3c12ac3d	0.008952198
210	0x3d03b63c	0.032156214
211	0x3cec2ba5	0.028829405
212	0x3c0d4df5	0.008624543
213	0xbccc22e1	-0.024918975
214	0x3ce9d749	0.028545039
215	0x3c90c1e1	0.017670574
216	0x3cfca71c	0.030841403
217	0x3d2ee749	0.04270104
218	0xbd3214a1	-0.043476705
219	0xbb23266d	-0.002489473
220	0x3cd290ee	0.025703873
221	0x3cb6ec90	0.022329599
222	0x3c518069	0.012786963
223	0xbbba9142	-0.0056935856
224	0x3d367cb7	0.04455253
225	0x3ce749dc	0.028233461
226	0x3ceb9055	0.028755346
227	0x3c91f6eb	0.017817935
228	0xbcd30b26	-0.025762152
229	0xbc2469d7	-0.010035
230	0x3c158495	0.009125848
231	0x3b24ffd5	0.0025176902
232	0xbc55be2a	-0.013045827
233	0x3d2b585b	0.04183231
234	0xbc6bdde7	-0.014396167
235	0x3d13c070	0.036072195
236	0xba220e18	-0.00061819097
237	0xbc913e90	-0.017730027
238	0xbca1320d	-0.019677186
239	0x3ce05c4c	0.02738776
240	0x3ca8d045	0.020607123
241	0x3bba36ff	0.0056828256
242	0x3cdfeaff	0.027333735
243	0x3d003e68	0.031309515
244	0xbd14e644	-0.03635241
245	0x3d0a8925	0.033822197
246	0x3bd29635	0.0064265975
247	0xbc3ed335	-0.011647035
248	0xbce21298	-0.027596757
249	0x3ca8e017	0.020614667
250	0x3d2afd9e	0.041745774
251	0x3cd64ed0	0.026160628
252	0xbd1ad45f	-0.03780019
253	0x3c7568de	0.014978616
254	0x3d1e7cbe	0.038693182
255	0xbd1b5eba	-0.037932135

siam_layer.conv2.bias f4 [7]
0	0x3cf74ad0	0.03018704
1	0x3ca3bee0	0.019988477
2	0xbc930c79	-0.017950283
3	0xbc678aa6	-0.014132177
4	0xbd2290e7	-0.03968897
5	0x3d0a6784	0.033790126
6	0xbcb2e253	-0.021836435

siam_layer.conv3.weight f4 [7, 14, 6, 6]
0	0x3c218f21	0.009860785
1	0x3ccb1949	0.02479233
2	0xbce85aa9	-0.028363543
3	0xbcf4689c	-0.029835038
4	0x3bd0ea81	0.0063756113
5	0x3c98d7bf	0.018657563
6	0x3cb3fe04	0.02197171
7	0x3d2c0379	0.0419955
8	0xbceea272	-0.029130194
9	0x3ca6c2c4	0.020356543
10	0x3c4e603f	0.012596189
11	0xbd2cfde7	-0.042234328
12	0x3d292745	0.041297216
13	0xbce5919f	-0.02802354
14	0xbb4b912e	-0.0031061876
15	0xbca6ba2d	-0.020352447
16	0xbd25c824	-0.040474072
17	0xbd2f91bd	-0.042863596
18	0xbb8034f6	-0.0039125634
19	0xbc5317b9	-0.012884074
20	0xbc5e827f	-0.013580917
21	0x3c827b97	0.015928073
22	0xbce7072d	-0.028201664
23	0x3d0fc204	0.035097137
24	0xbcf1a0ea	-0.029495675
25	0x3b7a8988	0.0038228948
26	0xbd15ae9c	-0.036543474
27	0xbc99131f	-0.018685875
28	0x3c515b11	0.01277806
29	0x3cf35081	0.029701473
30	0xbc215de0	-0.009849042
31	0x3b86f7e6	0.0041189073
32	0x3c3ed630	0.011647746
33	0xbcd839bf	-0.026394723
34	0xbd2c1cef	-0.04201978
35	0xbce00729	-0.027347164
36	0xbc67eac9	-0.014155098
37	0x3d04990f	0.03237253
38	0x3bd55c75	0.006511266
39	0x3b636813	0.0034699484
40	0x3cba8d3d	0.022772426
41	0xb958ab27	-0.00020663124
42	0x3c9ac9c1	0.018895032
43	0x3d1905fd	0.037359226
44	0x3cf67fbd	0.030090207
45	0x3c832a27	0.01601131
46	0xbcb2c812	-0.021823917
47	0x3a84af70	0.0010123085
48	0xbb9c6f8a	-0.0047740387
49	0x3c346021	0.011009247
50	0xbc2ce97b	-0.010553713
51	0xbd03a1c7	-0.032136705
52	0x3ceeeeb6	0.02916656
53	0x3bba6c91	0.0056892117
54	0xbcbfba34	-0.023404218
55	0xbcdecd0f	-0.027197389
56	0x3cc97914	0.024593867
57	0x3cc338a7	0.023830725
58	0xbc2db4a2	-0.010602148
59	0xbcc4be38	-0.024016485
60	0x3bb811dc	0.0056173634
61	0x3cf144df	0.029451786
62	0x3d17ba52	0.037042923
63	0xbd1e8b1a	-0.038706876
64	0x3d075734	0.033042148
65	0xbafce1da	-0.0019293383
66	0x3cc41317	0.023934884
67	0xbd1a3664	-0.037649527
68	0xbaa550e3	-0.0012612607
69	0xbce207d6	-0.027591627
70	0x3d1715ab	0.0368859
71	0xbb65e434	-0.0035078647
72	0xbc91de2d	-0.017806137
73	0x3c2f13fa	0.010685915
74	0x3d2957fb	0.04134367
75	0xbd2c0ad9	-0.042002533
76	0xbccb8a87	-0.024846328
77	0xbd2addd0	-0.041715443
78	0x3cda86a5	0.026675532
79	0xbcf5c21e	-0.029999789
80	0xbc9f3452	-0.019434128
81	0xbd10c890	-0.03534752
82	0x3ca0a113	0.019608056
83	0xbc632db7	-0.01386588
84	0xbd2db7f7	-0.04241177
85	0x3cba2d11	0.022726567
86	0xbd175fb3	-0.0369565
87	0xba3f9b20	-0.0007309187
88	0x3d1e9c76	0.03872343
89	0xbd141c24	-0.03615965
90	0x3c5a0117	0.013305924
91	0xbbc25d04	-0.0059314985
92	0x3ca92a4f	0.020650057
93	0xbd2110f2	-0.0393228
94	0x3c31c87b	0.010851021
95	0xbc5840fb	-0.013199086
96	0xbbd7ddaa	-0.0065877037
97	0xbd10433c	-0.03522037
98	0x3cc39295	0.023873607
99	0xbcabbb62	-0.020963375
100	0x3ccea5b6	0.025225502
101	0xbb8a5524	-0.0042215753
102	0xbc3dc9fd	-0.011583802
103	0xbd26230b	-0.040560763
104	0xbd297cd5	-0.041378815
105	0xbd092d75	-0.033490617
106	0x3a8d9a95	0.0010803515
107	0xbd286b28	-0.041117817
108	0x3d27c64e	0.040960602
109	0xbd198f3a	-0.037490107
110	0xbc57fae4	-0.013182376
111	0x3c3dcce8	0.011584498
112	0xbd1cd7bb	-0.038291674
113	0x3c08f155	0.008358319
114	0xbcdfb513	-0.027308023
115	0xbc3f3af2	-0.0116717685
116	0x3c79a32c	0.015236657
117	0x3d251809	0.040306125
118	0x3ce6b4bb	0.02816235
119	0x3cc72d3e	0.024313565
120	0xbd1bb92f	-0.0380184
121	0x3c621240	0.013798296
122	0x3cb52c71	0.022115918
123	0xbd312135	-0.04324456
124	0xbbd38fa6	-0.006456333
125	0xbd30c175	-0.043153245
126	0x3d10d1cd	0.03535633
127	0xbbdd1041	-0.0067463224
128	0xbb49f57d	-0.0030816488
129	0xbba63ccb	-0.005073165
130	0xbcfa752d	-0.030573452
131	0x3d1c1152	0.038102455
132	0x3cb724ad	0.022356356
133	0xbd233595	-0.03984602
134	0xbcc7e948	-0.02440323
135	0x3d150700	0.03638363
136	0x3cd0e369	0.025499063
137	0xbc2a78f8	-0.010404818
138	0xbc772bf8	-0.015086167
139	0xbd01f6a3	-0.03172935
140	0xbc84c06a	-0.016205031
141	0xbbdc14fc	-0.0067163687
142	0x3cb75895	0.022381106
143	0xb94365a8	-0.00018634519
144	0x3c3cb5b4	0.011517931
145	0xbcc8298b	-0.024433872
146	0x3a6f4111	0.0009126822
147	0x3d15e9da	0.03659997
148	0xbc059321	-0.008152754
149	0x3cfacd78	0.030615553
150	0x3d1e1f9c	0.038604364
151	0xbce4dbf4	-0.027936913
152	0x3c9a9239	0.018868553
153	0xbd115fff	-0.03549194
154	0x3d2002b8	0.039065093
155	0xbd0afb2f	-0.033930954
156	0xbc76d32b	-0.015064995
157	0xbb795eb9	-0.0038050844
158	0xbd2737aa	-0.04082457
159	0x3d1b74b8	0.03795311
160	0xbcef6eaf	-0.029227583
161	0x3d08395b	0.033257823
162	0x3cba1bc5	0.02271832
163	0x3c120ae5	0.00891373
164	0xbbba35c6	-0.00568268
165	0xbd26a0b6	-0.04068061
166	0xbca5e9be	-0.020253059
167	0xbcffdaab	-0.031232199
168	0xbd212763	-0.039344203
169	0xbc0551ba	-0.008137161
170	0x3be020af	0.0068398337
171	0x3c671221	0.014103443
172	0xbce2f5d2	-0.027705107
173	0x3c1222be	0.008919416
174	0xbc04edcc	-0.008113336
175	0xbc834bbf	-0.01602733
176	0xbd2e27d9	-0.04251847
177	0xbb836539	-0.0040098694
178	0xbd1c56d4	-0.038168743
179	0xbcf21626	-0.029551577
180	0x3d34a216	0.04409989
181	0x3b8c5a7c	0.0042832475
182	0xbc728e0c	-0.014804374
183	0x3cbaf105	0.022820005
184	0xbcf2c56a	-0.02963515
185	0x3c420a57	0.0118432855
186	0xbc6f3fda	-0.014602626
187	0x3cec9259	0.028878378
188	0xbcef54f3	-0.029215312
189	0x3c4b6a3e	0.012415467
190	0x3ce121e4	0.02748198
191	0x3cd89f63	0.026443189
192	0x3caa70af	0.020805685
193	0xbbab6647	-0.0052306983
194	0xbb03ce77	-0.0020112076
195	0xbd30e002	-0.04318238
196	0x3d0a840f	0.033817347
197	0xbc0e5f03	-0.008689645
198	0x3cbc6cc5	0.023001084
199	0xbc7b1f3a	-0.015327269
200	0xbd12ad7e	-0.035809986
201	0x3c325548	0.01088459
202	0xbcfd5cbc	-0.030928008
203	0xbb5e38b3	-0.0033908307
204	0xbd187257	-0.037218418
205	0x3c0a6738	0.008447461
206	0xbb9e5527	-0.0048319283
207	0x3b457d07	0.0030134337
208	0xbcb3bb46	-0.021939885
209	0x3bcd9c31	0.006274723
210	0xbc827655	-0.015925566
211	0xbd3602ed	-0.044436384
212	0xbd1a77c1	-0.037711862
213	0xbcd5b0b6	-0.026085239
214	0x3c9b40bf	0.018951772
215	0xbcad1f75	-0.021133164
216	0x3d2c731a	0.042101957
217	0xbc8357ee	-0.01603314
218	0xbd208f94	-0.039199427
219	0x3bca3c4f	0.00617174
220	0x3a93ea06	0.0011284954
221	0xbbf1c3a6	-0.0073780594
222	0xbd12b4c7	-0.035816934
223	0xbcbb43c5	-0.022859463
224	0xbc9b6426	-0.018968653
225	0xbbcf1004	-0.006319048
226	0xbc8afe0f	-0.016966848
227	0x3c62452b	0.013810436
228	0xbd189b03	-0.037257206
229	0xbd03d332	-0.032183833
230	0xbbbf53e7	-0.0058388594
231	0x3cc2a594	0.023760594
232	0x3c070bd8	0.00824257
233	0x3d13bc64	0.036068335
234	0xbd24070c	-0.040045783
235	0xbca250ae	-0.019813862
236	0x3c8ab852	0.016933594
237	0xbc6c2e54	-0.014415342
238	0xbc9ef20c	-0.019402526
239	0x3cc75c86	0.02433611
240	0xbbd63f90	-0.006538339
241	0x3c55d4c6	0.013051217
242	0x3cae9076	0.021309119
243	0xbccbd185	-0.02488018
244	0xbd1123b0	-0.035434425
245	0x3cc7dc53	0.024397051
246	0x3d091603	0.033468258
247	0x3cc10f89	0.023566978
248	0x3c56ecb6	0.01311796
249	0x3d2d2b78	0.042277783
250	0xbc3137c4	-0.010816518
251	0xbb95dc02	-0.004573346
252	0x3c3af82c	0.011411708
253	0xbc96e168	-0.018418029
254	0xbcfa73a4	-0.03057272
255	0x3d2813a6	0.041034363

siam_layer.conv3.bias f4 [7]
0	0x3d02634c	0.031832978
1	0x3cac66b4	0.021045066
2	0x3cc2bbd0	0.023771197
3	0xbac466a0	-0.0014984198
4	0x3afd7f40	0.0019340292
5	0x3d14a8e0	0.036293864
6	0x3c5238a8	0.012830891

siam_layer.conv4.weight f4 [3, 14, 6, 6]
0	0xbbb6f876	-0.005583818
1	0xba81ab44	-0.000989296
2	0x3d112c3d	0.03544258
3	0xbcb0d8fa	-0.021587837
4	0x3d01faae	0.031733207
5	0x3a07ec80	0.00051850826
6	0xbbdcadf2	-0.006734603
7	0xbb2d2482	-0.0026419465
8	0xbb029a6a	-0.0019928464
9	0xbcdb49a7	-0.026768519
10	0x3cde1ca5	0.027113268
11	0xbce6fea1	-0.028197588
12	0xbcb7ad3e	-0.022421475
13	0x3cbf85d9	0.023379253
14	0x3ce16582	0.027514223
15	0x3c0a6ff9	0.008449548
16	0xbcdba908	-0.026813999
17	0xbc8939c0	-0.01675117
18	0x3b58d9e0	0.0033088848
19	0x3ca058cc	0.019573592
20	0x3d0edd04	0.034878746
21	0xbcaeda65	-0.021344373
22	0xbd14e595	-0.03635176
23	0x3bd77511	0.0065752347
24	0x3c59c89b	0.013292457
25	0x3d01a862	0.031654723
26	0x3cf7a50e	0.030230071
27	0x3c11d6c3	0.008901301
28	0x3b3ad31c	0.0028507179
29	0x3b40effb	0.0029439915
30	0x3c4f1775	0.01263987
31	0xbcc16e04	-0.02361203
32	0xbcad5fd9	-0.021163868
33	0x3cfa898c	0.030583166
34	0x3b6bf0b7	0.0036001632
35	0xbc70384c	-0.01466186
36	0xbcc18e55	-0.02362744
37	0x3d032884	0.03202106
38	0xbbd251d4	-0.006418446
39	0xbd2aa912	-0.041665144
40	0x3c951339	0.018197643
41	0x3d166d01	0.036725048
42	0xbcfed745	-0.031108508
43	0x3c33b488	0.010968335
44	0x3c5569ef	0.013025745
45	0x3ccc7fa3	0.024963206
46	0x3ccf8e0f	0.025336294
47	0xbc99ea67	-0.01878853
48	0xbcef1df8	-0.029189095
49	0x3cadfb05	0.02123786
50	0x3d35f22f	0.044420417
51	0xbcd6f994	-0.026242055
52	0x3d0e8815	0.034797747
53	0x3d370b1a	0.04468832
54	0xbcac8cc0	-0.021063209
55	0xbbbfc7f8	-0.0058526956
56	0x3ae7d3b7	0.0017686997
57	0xbcfb9d5f	-0.030714689
58	0x3bab5014	0.005228052
59	0x3d0534a2	0.032520898
60	0x39fd2541	0.00048283677
61	0x3c944ba4	0.018102475
62	0x3b2af1ff	0.0026084182
63	0xbbbad472	-0.005701595
64	0x3c2fd897	0.010732791
65	0xbd2cd0f5	-0.042191464
66	0xbc661fbc	-0.014045652
67	0x3cec811c	0.028870158
68	0xbb5877d9	-0.003303042
69	0xbca7787d	-0.020443195
70	0x3c77b91a	0.015119815
71	0x3b926af6	0.004468317
72	0xbc15c7da	-0.009141887
73	0xbcc1920a	-0.023629207
74	0xbc8506ce	-0.016238596
75	0x3c22cebb	0.009936984
76	0x3ba5cdf8	0.005059954
77	0xbc24666b	-0.010034184
78	0x3d23e2dc	0.04001127
79	0xbc9748fb	-0.018467417
80	0xbd0377d9	-0.032096718
81	0xbd2a79d5	-0.041620094
82	0xbcb969e7	-0.022633506
83	0xbc048519	-0.008088374
84	0x3c98d10c	0.018654369
85	0xbd24226a	-0.040071882
86	0xbd19b776	-0.037528478
87	0xbcc7c499	-0.024385737
88	0x3cb55250	0.022133976
89	0xbccb986c	-0.024852954
90	0x3c8ae698	0.016955659
91	0x3c84cc9f	0.016210852
92	0xbc63227f	-0.013863205
93	0xbccb9ead	-0.024855936
94	0x3c558207	0.013031489
95	0xbd0e5181	-0.034745697
96	0xbd2a4281	-0.04156733
97	0xbd2c193b	-0.04201625
98	0x3d293f81	0.041320328
99	0xbc65751d	-0.014004973
100	0xbcad42b4	-0.02114997
101	0xbc4f4107	-0.012649781
102	0xbd13231a	-0.035922147
103	0xbd2257af	-0.039634403
104	0xbc4aa37d	-0.01236808
105	0x3cd31e5a	0.025771309
106	0xbc37987a	-0.011205787
107	0x3d1b792b	0.03795735
108	0xbbac44f1	-0.005257242
109	0xbc46e5c4	-0.012139741
110	0xbd181f96	-0.037139498
111	0x3d347a6a	0.044062056
112	0x3c539276	0.012913337
113	0x3d35e24d	0.04440527
114	0x3c677810	0.014127746
115	0x3d0c5b35	0.03426667
116	0xbae5b149	-0.0017524149
117	0x3d113bff	0.035457607
118	0x3a8642cf	0.0010243299
119	0x3d0aab04	0.0338545
120	0x3cda11e7	0.026619865
121	0x3cb174dc	0.021662168
122	0x39ab38e8	0.0003265806
123	0x3cd06cd2	0.025442515
124	0xbcc76f25	-0.02434499
125	0xbc1b959e	-0.009496121
126	0x3cd0c22c	0.025483213
127	0x3c77c496	0.015122553
128	0x3c9ba843	0.019001132
129	0xbcca3d9e	-0.024687584
130	0xbb0b959d	-0.0021298893
131	0x3ba174c3	0.004927249
132	0xbc0b4332	-0.008499907
133	0xbcb6881c	-0.022281699
134	0x3b38112e	0.0028086412
135	0xbcbd2e14	-0.02309326
136	0xbcddd924	-0.02708108
137	0x3d21b00a	0.039474525
138	0x3cd8942f	0.026437847
139	0xbc75dc30	-0.01500611
140	0x3cfeaf5b	0.031089475
141	0xba70aafa	-0.0009180751
142	0x3d0973d3	0.033557724
143	0xbc55df8b	-0.013053785
144	0x3ac3f47e	0.0014950184
145	0xbcdfad52	-0.027304325
146	0x3d313abb	0.0432689
147	0xbc6785a2	-0.014130982
148	0x3c991685	0.018687496
149	0xbce41ab1	-0.027844759
150	0xbd0bed23	-0.034161698
151	0xbbdba7a4	-0.006703334
152	0xbcef17f1	-0.02918622
153	0x3b5a5cc5	0.0033319455
154	0x3c96dd79	0.018416153
155	0x3cd4fbc5	0.02599896
156	0x3c1b7cc9	0.0094902
157	0x3cd91b57	0.026502294
158	0x3d222f6a	0.039596
159	0x3ced80a8	0.028992012
160	0x3d18ed81	0.037335876
161	0x3b76cec9	0.0037659875
162	0xbb300c9c	-0.0026862985
163	0x3cafc9a8	0.021458462
164	0xbc705c17	-0.014670393
165	0xbd2abb4d	-0.04168253
166	0x3c80a5ff	0.015704153
167	0x3bac0c7e	0.0052505126
168	0xbcd73cad	-0.02627405
169	0x3cea357b	0.028589955
170	0x3c483ff2	0.012222277
171	0x3c2b51e5	0.010456537
172	0xbd333677	-0.043753114
173	0x3cd864f1	0.02641532
174	0x3c134eb2	0.00899093
175	0xbc757b55	-0.014983018
176	0xbcfc980f	-0.030834226
177	0xbc6c120f	-0.014408602
178	0xbcf06028	-0.029342726
179	0xbbb284e0	-0.005447969
180	0x3c81f386	0.015863191
181	0xbc5911ab	-0.013248841
182	0x3cfae2d6	0.030625742
183	0x3c3e0a3f	0.011599123
184	0x3d177b73	0.036982965
185	0x3c984fc4	0.018592723
186	0xbb2f3760	-0.0026735887
187	0x3d006008	0.031341583
188	0x3d178e36	0.037000857
189	0xbb905b9b	-0.0044054515
190	0xbd15972f	-0.036521133
191	0xbb6bc908	-0.0035977978
192	0x3c555957	0.013021789
193	0xbccf80d0	-0.025329977
194	0xbd16b4c2	-0.036793478
195	0xbc530811	-0.012880341
196	0x3c7c3725	0.015394007
197	0x3d1832fc	0.037157997
198	0x3cbfacf2	0.023397896
199	0xbbd435be	-0.006476133
200	0x3d300f53	0.042983364
201	0xbba906b8	-0.0051582716
202	0xbc7580af	-0.014984294
203	0xbc38676b	-0.0112551255
204	0xbc2785f1	-0.010224805
205	0x3d326764	0.043555632
206	0xbc81da87	-0.015851272
207	0xbc9a8074	-0.01886008
208	0x3cace15b	0.021103552
209	0x3d0e1ec0	0.034697294
210	0x3d126136	0.03573724
211	0xbd280b38	-0.041026324
212	0xbca47408	-0.02007486
213	0x3baa2744	0.005192669
214	0x3c9f9519	0.019480275
215	0xbd02826c	-0.03186266
216	0xbc7c2c0b	-0.01539136
217	0x3d313f7e	0.04327344
218	0x3ba49f71	0.0050238897
219	0xbc9a3e22	-0.018828455
220	0xbb23357d	-0.0024903708
221	0xbc5ac501	-0.013352633
222	0xbc19c414	-0.009385128
223	0x3d0e63df	0.034763213
224	0x3c2978f7	0.010343782
225	0x3cbbefcf	0.022941498
226	0xbc85e57b	-0.016344776
227	0x3c88c8da	0.016697336
228	0x3c9cd5b0	0.019144863
229	0x3cd313f6	0.025766354
230	0x3d1029d8	0.035196155
231	0xbc294d79	-0.010333412
232	0x3ccffb5d	0.025388414
233	0xbb8eb9f3	-0.004355663
234	0x3cacacbd	0.021078462
235	0xbd0fbd67	-0.035092738
236	0x3c144562	0.009049745
237	0x3c2f51e3	0.010700676
238	0x3d297697	0.04137286
239	0x3c8c7534	0.01714573
240	0x3c00f620	0.007871181
241	0x3cbdc89f	0.023166953
242	0xbd0d6a1c	-0.034525022
243	0xbc590e40	-0.013248026
244	0x3cee4f29	0.02909048
245	0xbd29e09f	-0.04147398
246	0x3cca8514	0.02472166
247	0x3c19544a	0.009358475
248	0xbd12cc88	-0.035839587
249	0x3ca86661	0.02055663
250	0x3ce60cdd	0.028082306
251	0x3d100e8b	0.03517012
252	0x3c3bb67b	0.011457081
253	0xbd22e68a	-0.03977064
254	0xbbd5adbe	-0.006520956
255	0x3d155d94	0.036466196

siam_layer.conv4.bias f4 [3]
0	0xbc941ae2	-0.018079225
1	0x3cc0b3c4	0.023523219
2	0xbd10aa7e	-0.035318844

siam_layer.conv5.weight f4 [1, 3, 6, 6]
0	0xbdb37e06	-0.087642714
1	0xbd37365f	-0.044729587
2	0x3c18e776	0.009332528
3	0x3da1c8ea	0.078996494
4	0xbc23b121	-0.009990961
5	0x3d6c1e28	0.057645947
6	0x3d806b2e	0.06270443
7	0x3cc93366	0.024560641
8	0xbd7298cd	-0.059227753
9	0xbd1262f0	-0.035738885
10	0xbdb7fad2	-0.08983387
11	0x3d9a1031	0.075226195
12	0xbdb88475	-0.09009639
13	0x3c89cef6	0.01682232
14	0xbd8ce639	-0.06879849
15	0x3d51e0b6	0.05123969
16	0x3d951a6f	0.072804324
17	0xbcc6eb28	-0.024282053
18	0xbc6dcf42	-0.014514746
19	0xbd05cb6c	-0.0326647
20	0xbc9ace49	-0.018897193
21	0xbdc34d24	-0.09536198
22	0xbd705f91	-0.05868489
23	0xbd2b4d63	-0.04182185
24	0x3c993812	0.018703494
25	0x3d636674	0.05551763
26	0x3d1577c2	0.036491163
27	0x3c359a95	0.0110842185
28	0xbda33a05	-0.07970051
29	0xbcc50622	-0.024050776
30	0xbd45bfcd	-0.04827862
31	0xbcfaca78	-0.030614123
32	0x3ce132b7	0.027490003
33	0xbd878511	-0.06617177
34	0x3d8a46c0	0.06751776
35	0x3d517b3f	0.051142927
36	0x3d48e19f	0.049043294
37	0xbd864d9c	-0.065577716
38	0xbcc53058	-0.024070904
39	0xbd0cffa2	-0.034423478
40	0x3ce4abf9	0.027914034
41	0xbbb10dfb	-0.005403278
42	0xbc9ba0bf	-0.018997548
43	0xbb0dafc3	-0.0021619655
44	0x38488ba2	4.781376e-05
45	0x3ce842c0	0.028352141
46	0xbca5825b	-0.02020376
47	0xbcc66013	-0.024215734
48	0x3d95eb7c	0.07320306
49	0x3db15aee	0.086599216
50	0x3c9b0e6f	0.01892778
51	0x3daf4ff0	0.08560169
52	0xbda29361	-0.079382665
53	0x3dbf876a	0.09352
54	0xbda0fe9e	-0.078610644
55	0xbd7fb2e5	-0.062426466
56	0xbc003efd	-0.007827518
57	0xbd96113f	-0.07327508
58	0xbd1e3ee8	-0.03863421
59	0xbd53af43	-0.051680814
60	0xbda5c8cd	-0.0809494
61	0x3d7b834b	0.061404508
62	0x3d9f8c47	0.07790428
63	0x3b8b7330	0.004255675
64	0x3cd0fd6f	0.025511472
65	0xbcae0373	-0.02124188
66	0xbd2459fa	-0.04012487
67	0xbc4b835d	-0.012421456
68	0x3d8acd1f	0.06777405
69	0x3dbc6b9a	0.09200211
70	0x3c635f53	0.0138777075
71	0xbbd12d20	-0.006383553
72	0x3db9cf84	0.090727836
73	0x3bf2ad12	0.0074058855
74	0xbdc5031c	-0.09619734
75	0xbd6e5f79	-0.05819652
76	0xbc3591f1	-0.011082158
77	0xbcbc95b7	-0.023020608
78	0x3db72996	0.08943479
79	0xbd5b9d6b	-0.053616922
80	0x3ca6277b	0.020282498
81	0xbc2e1f83	-0.01062763
82	0x3d80630c	0.06268892
83	0x3d49b209	0.049242053
84	0x3c7695b2	0.015050339
85	0xbcb8b087	-0.022545112
86	0xbd5aa59b	-0.05338059
87	0xbdbb51af	-0.09146439
88	0x3d4a0a60	0.0493263
89	0x3d1594d7	0.036518898
90	0x3d211513	0.03932674
91	0x3cd467a2	0.025928322
92	0x3da47515	0.08030144
93	0x3cf56aa0	0.02995807
94	0x3c1cff35	0.0095823305
95	0xbd25aeb7	-0.040449824
96	0x3d83a35c	0.06427643
97	0xbd7e5869	-0.062096033
98	0x3cb363b4	0.021898128
99	0x3cef4c82	0.029211286
100	0xbbab97fa	-0.005236623
101	0x3d9e009b	0.07714959
102	0x3d496a3a	0.04917357
103	0xbdad4521	-0.08460451
104	0xbd0ef900	-0.034905434
105	0xbd1f3a8b	-0.03887419
106	0x3d305e18	0.043058485
107	0x3c07fb7c	0.008299705

siam_layer.conv6.weight f4 [1, 3, 6, 6]
0	0xbc3075cc	-0.010770272
1	0xbc177a10	-0.009245411
2	0x3d715e11	0.0589276
3	0xbcb45c85	-0.022016773
4	0x3d8d0199	0.0688507
5	0xbda70368	-0.081549466
6	0x3da081d3	0.07837262
7	0x3cf2a5e9	0.029620128
8	0x3d283a64	0.04107131
9	0xbd7d2357	-0.06180128
10	0xbdbc2198	-0.09186095
11	0xbdc3de5e	-0.095638976
12	0xbc312391	-0.010811702
13	0x3dbf37a7	0.09336787
14	0x3dc0ec44	0.09420064
15	0x3bf81ffc	0.007572172
16	0x3dbb2e8c	0.091397375
17	0xbdb771e0	-0.08957267
18	0xbb729b77	-0.0037018934
19	0x3d93c309	0.072149344
20	0x3d0074a1	0.031361226
21	0x3db9d179	0.09073157
22	0x3cd3d3d0	0.025857836
23	0xbdc337ae	-0.095321044
24	0xbdb17e3f	-0.08666658
25	0x3c4c4a13	0.012468833
26	0xbd544e2f	-0.051832374
27	0x3c83fa99	0.016110705
28	0x3cff6a49	0.03117861
29	0x3dbbe580	0.09174633
30	0x3cb80671	0.022464009
31	0x3b88a460	0.0041699857
32	0xbda520fd	-0.08062933
33	0x3db7e152	0.08978523
34	0x3d62fe08	0.055418044
35	0xbd43d34e	-0.047808938
36	0xbd96f8b6	-0.073716566
37	0xbd673aca	-0.05645255
38	0x3afe3928	0.0019395696
39	0xbcfb99dc	-0.030713014
40	0xbd08812f	-0.033326324
41	0xbdaccada	-0.08437128
42	0xbd30db49	-0.043177877
43	0xbd22b621	-0.039724473
44	0x3d69a060	0.05703771
45	0x3d465548	0.048421174
46	0x3d3266fb	0.04355524
47	0xbbcc3a8c	-0.0062325653
48	0xbd9d62ab	-0.07684835
49	0xb9970615	-0.00028805496
50	0x3d68d4a5	0.05684342
51	0x3d02fc63	0.031978976
52	0x3d24a1ae	0.040193252
53	0x3d87532a	0.06607659
54	0xbc9a0a4d	-0.01880374
55	0xbca0af0d	-0.01961472
56	0xbc48d4b5	-0.012257745
57	0xbc8d5b03	-0.017255312
58	0xbd49b18d	-0.04924159
59	0xbd6f06a0	-0.058355927
60	0x3d9cf5f4	0.07664099
61	0x3d638cb2	0.0555541
62	0xbd8a228f	-0.06744873
63	0x3c38b2df	0.011273115
64	0xbd460a7e	-0.04834985
65	0xbbe6c8ba	-0.0070429714
66	0xbd9e8eb1	-0.0774206
67	0xbd9e6762	-0.077345625
68	0x3dad71ea	0.08468993
69	0x3d4df81c	0.050285444
70	0x3d809cc1	0.062798984
71	0x3d0d6eb0	0.034529388
72	0xbd96845b	-0.073494636
73	0xbd1efed7	-0.038817253
74	0x3d5230f1	0.051316205
75	0xbc49c98a	-0.012316117
76	0xbd977305	-0.07394985
77	0xbdc2f3d4	-0.09519163
78	0xbdc458a3	-0.095872186
79	0xbd34eb9b	-0.044170003
80	0x3d387a89	0.045038734
81	0x3db18699	0.086682506
82	0x3d4af9e2	0.049554713
83	0xbd645cdc	-0.05575262
84	0xbd3104a3	-0.043217313
85	0x3c8aa457	0.016924066
86	0xbdc178e2	-0.09446885
87	0xbdafe8bd	-0.08589313
88	0xbd97066c	-0.07374272
89	0x3ce3e00d	0.027816797
90	0xbd009545	-0.031392355
91	0xbd1c6fcc	-0.038192555
92	0x3d9b6e65	0.075894155
93	0x3d6c680c	0.057716414
94	0x3cf39423	0.029733723
95	0xbd5d32ae	-0.05400341
96	0xbcf7e14d	-0.030258799
97	0x3b4a7567	0.003089273
98	0xbd4ef1f7	-0.050523724
99	0xbd50ffd8	-0.05102524
100	0xbdc39488	-0.095498145
101	0xbd7843c1	-0.06061149
102	0xbdb8ab22	-0.09017016
103	0x3d7568e8	0.0599145
104	0x3c3fd329	0.011708059
105	0xbcd4c9cc	-0.02597513
106	0x3da2fdc2	0.07958557
107	0xbd21e52a	-0.03952519

siam_layer.conv7.weight f4 [1, 2, 6, 6]
0	0x3cec781e	0.02886587
1	0x3d8288ba	0.06373735
2	0xbdab9b26	-0.083792016
3	0x3de12a59	0.10994405
4	0x3c4fbb1f	0.0126788905
5	0x3da4414f	0.08020269
6	0x3d0cedb5	0.034406383
7	0xbdcf00bf	-0.10107564
8	0xbda3c3c4	-0.07996324
9	0xbd93cc79	-0.072167344
10	0x3dc1a916	0.09456079
11	0xba8747c0	-0.0010321066
12	0xbd60d98f	-0.05489498
13	0x3b027a3b	0.001990928
14	0xbde420fc	-0.11139104
15	0x3dba61b0	0.09100664
16	0xbde4eebe	-0.11178349
17	0xbc19e8dd	-0.009393898
18	0xbd2b7b29	-0.0418655
19	0xbcab2316	-0.020890754
20	0xbde414c6	-0.11136775
21	0x3c8ec2a9	0.017426806
22	0x3de50f58	0.11184567
23	0xbcc65b1e	-0.02421337
24	0x3cbf2be1	0.023336353
25	0x3c82d918	0.015972659
26	0x3dad0f24	0.084501535
27	0xbc80433b	-0.015657058
28	0x3ddcb224	0.10776165
29	0x384db4fa	4.9044356e-05
30	0xbdb8dd92	-0.09026636
31	0x3cf07853	0.02935425
32	0x3bc9fd30	0.0061642155
33	0xbcc324c8	-0.02382125
34	0xbdc3e4a0	-0.09565091
35	0x3d40a479	0.047031853
36	0x3dba3a85	0.09093193
37	0xbd11a1d0	-0.035554707
38	0xbddbb110	-0.10727131
39	0xbd861c15	-0.06548325
40	0x3d24ffe9	0.040283117
41	0x3db71396	0.089392826
42	0x3d686945	0.056741018
43	0x3d865209	0.06558616
44	0xbd842b4f	-0.06453573
45	0xbd8d7c42	-0.06908466
46	0x3de15121	0.11001802
47	0xbdca00f5	-0.09863464
48	0xbddb1602	-0.10697557
49	0x3c0de149	0.008659669
50	0xbdc2c262	-0.09509732
51	0xbbf55356	-0.007486741
52	0x3d10bc72	0.035335965
53	0xbdb87952	-0.09007515
54	0xbd4ec52d	-0.05048101
55	0x3deb36b6	0.11485045
56	0xbde68ddc	-0.11257526
57	0xbdc020cb	-0.09381255
58	0xbdbcb9a2	-0.09215094
59	0xbc9752c4	-0.018472083
60	0x3ce5c601	0.028048517
61	0x3ce2fda4	0.027708836
62	0x3dcca7ec	0.09992966
63	0x3d081d89	0.033231292
64	0xbdca20f6	-0.09869568
65	0x3d105463	0.035236727
66	0xbde9ce29	-0.11416275
67	0xbd9ab23c	-0.07553527
68	0xbc7caeb1	-0.015422509
69	0x3d8d9a27	0.06914168
70	0x3ccbff92	0.024902139
71	0x3dda9903	0.10673716

dense.weight f4 [1, 308]
0	0xbd086fa8	-0.03330961
1	0x3d2419a1	0.040063504
2	0xbd12c4ce	-0.03583222
3	0x3d49e151	0.049287144
4	0xbc80bd3a	-0.01571523
5	0x3c954db6	0.018225532
6	0x3c4a6a5c	0.01235446
7	0xbbcce6f3	-0.006253117
8	0x3b2f3c98	0.0026738998
9	0xbb2d1eff	-0.002641618
10	0xbd3e1704	-0.04640867
11	0xbcbbf526	-0.022944044
12	0xbbb2e1fe	-0.0054590693
13	0x3cba1463	0.0227148
14	0xbd23a83d	-0.039955366
15	0xbd0c8b1f	-0.034312364
16	0xbd018e15	-0.03162964
17	0xb8b0c3b2	-8.428785e-05
18	0x3ca40c18	0.020025298
19	0x3c2f66ce	0.010705663
20	0xbd215542	-0.03938795
21	0x3d068143	0.032838117
22	0x3c822204	0.01588536
23	0x3d204004	0.03912355
24	0xbd1cf343	-0.03831793
25	0xb928196c	-0.00016031199
26	0xbb55c397	-0.0032617801
27	0x3cdda581	0.027056457
28	0xbcb880ff	-0.022522448
29	0x3d226708	0.03964904
30	0x3ccc9857	0.024974985
31	0x3c9a21e3	0.018814987
32	0xbcdb428e	-0.026765134
33	0xbc2c981e	-0.010534314
34	0xbc83d0b8	-0.016090736
35	0xbd0d2129	-0.034455452
36	0xbd08262d	-0.033239532
37	0x3b1e4c9f	0.0024154556
38	0x3cb42815	0.021991769
39	0x3c273204	0.010204796
40	0xbc3d428a	-0.011551509
41	0x3b269ed1	0.0025424252
42	0x3ca0725d	0.019585783
43	0xbc9be85c	-0.019031696
44	0xbd436124	-0.047700062
45	0xbd4f39b0	-0.050592124
46	0x3a149036	0.0005667241
47	0x3b762ba2	0.0037562628
48	0x3b324c4b	0.0027206119
49	0x3d0068f1	0.03135008
50	0x3d434999	0.04767761
51	0xbd52873e	-0.05139851
52	0xbc8d8faf	-0.017280428
53	0xbb230c32	-0.0024879095
54	0xbd287934	-0.041131213
55	0x3bbb5b83	0.005717696
56	0xbd4efba0	-0.050532937
57	0xbd411637	-0.047140326
58	0x3cef5f75	0.029220322
59	0x3d61ed70	0.05515808
60	0x3d4e552a	0.050374188
61	0xbd371e4f	-0.04470664
62	0x3bfa10b0	0.007631384
63	0x3d31dcbc	0.0434234
64	0x3c0bb7ad	0.008527678
65	0x3d25a74a	0.040442742
66	0x3d515adb	0.051112037
67	0x3d18e91f	0.037331697
68	0xbd1dd9b1	-0.038537685
69	0xbc310fb7	-0.010806969
70	0x3cce257c	0.025164358
71	0x3c04ba86	0.008101111
72	0xbca859a5	-0.020550558
73	0xbbf49ef6	-0.0074652387
74	0xbc570c96	-0.013125559
75	0x3d605f69	0.05477849
76	0xbd0b279a	-0.033973314
77	0x3d2ebb37	0.04265901
78	0xbd43d4dd	-0.047810424
79	0x3d24f484	0.04027225
80	0xbce0e17a	-0.027451266
81	0x3ab6abb8	0.0013936674
82	0xbc6ad54d	-0.014333081
83	0x3bbeb4ed	0.005819908
84	0xbc19313c	-0.009350117
85	0x3c93e270	0.01805231
86	0xbd2ff721	-0.04296029
87	0xbc632e01	-0.013865949
88	0xbc8a7fec	-0.016906701
89	0xbd59f4b0	-0.053211868
90	0x3c062025	0.008186375
91	0x3d092185	0.033479232
92	0xbc1b2dc1	-0.009471358
93	0xbd0a5114	-0.03376873
94	0xbd527de4	-0.05138959
95	0x3cf06797	0.02934627
96	0xbd6014bb	-0.05470727
97	0x3bcad777	0.006190236
98	0xbd03cd07	-0.03217795
99	0x3d5a975d	0.053367008
100	0x3c99605c	0.018722706
101	0x3d200065	0.039062876
102	0x3d32e1f2	0.04367251
103	0xbcd238fb	-0.025661936
104	0xbd0504bb	-0.032475214
105	0xbadb830e	-0.0016747431
106	0xbbc1ec22	-0.005918042
107	0xbd4d0faa	-0.050063767
108	0x3cb35747	0.021892203
109	0xbd3ea33f	-0.046542402
110	0x3ca30d40	0.019903779
111	0xbc936c68	-0.017996028
112	0x3c01b2bf	0.007916152
113	0xbd097320	-0.033557057
114	0x3c5d3a97	0.013502738
115	0x3b99bb08	0.0046914853
116	0xbc929d8c	-0.01789739
117	0x3d13a149	0.036042485
118	0x3d017a03	0.0316105
119	0x39ad1131	0.0003300994
120	0xbd248535	-0.0401661
121	0xbd45239b	-0.04812966
122	0x3b87fe39	0.0041501787
123	0x3d21355c	0.039357528
124	0xbcc9c239	-0.024628745
125	0xbccfa737	-0.025348289
126	0xbd58a2d9	-0.05288968
127	0xbd512a82	-0.05106593
128	0xbc43e250	-0.011955813
129	0x3bcbfd02	0.0062252292
130	0x3b41ec32	0.0029590246
131	0xbc5946fa	-0.013261551
132	0xbcd3623e	-0.025803681
133	0xbd521fec	-0.051299974
134	0x3d397785	0.04528
135	0xbd3600f1	-0.04443449
136	0x3d0714c9	0.032978807
137	0x3cdad8c0	0.026714683
138	0x3c1edfd5	0.00969692
139	0xbd2940c8	-0.041321546
140	0xbd093f94	-0.0335079
141	0x3cd5fae6	0.026120614
142	0xbd502d9a	-0.05082474
143	0x3cb1e07b	0.021713486
144	0x38fec23b	0.00012147842
145	0xbd1d67bb	-0.038429003
146	0xbc12ccd6	-0.0089599695
147	0x3cfa67e2	0.030567113
148	0xbd52b1ab	-0.05143897
149	0x3c83b377	0.016076786
150	0x3af97c2e	0.0019034201
151	0xbd434739	-0.047675345
152	0xbcda618d	-0.026657844
153	0x3cc5be3d	0.024138564
154	0x3c8aa7fc	0.016925804
155	0x3ba0da8a	0.0049088644
156	0x3b6cd8db	0.0036139998
157	0x3d645a42	0.05575014
158	0x3ce3aa27	0.027791096
159	0x3d39a926	0.04532733
160	0x3d29a64d	0.041418362
161	0x3d5519dd	0.05202662
162	0xbd5f24fe	-0.054478638
163	0xbc2c22d3	-0.01050635
164	0x3d205e8a	0.03915266
165	0x3d10a8d8	0.035317272
166	0xbc0dadbb	-0.008647378
167	0x3d5b0499	0.05347118
168	0x3d2aaddb	0.041669708
169	0xbc9ae514	-0.018908061
170	0xbd4dc4a5	-0.050236363
171	0x3cb51b32	0.022107694
172	0x3d0820c9	0.03323439
173	0x377a078f	1.4902921e-05
174	0x3d6216b2	0.055197425
175	0xbc5f5b55	-0.013632615
176	0xbc9a36f2	-0.018825028
177	0x3d4943b4	0.049136832
178	0x3cfaa00c	0.030593894
179	0x3d31d13a	0.043412425
180	0xbd5632a7	-0.0522944
181	0x3d291214	0.041277006
182	0xbc555947	-0.013021774
183	0xbd36aed2	-0.044600315
184	0x3d301a9f	0.042994138
185	0x3d00101d	0.031265367
186	0x3d1c0310	0.038088858
187	0x3bc38722	0.005967037
188	0x3beb594b	0.0071822754
189	0x3d1310c7	0.035904672
190	0xbccf897a	-0.025334109
191	0xbcac5135	-0.021034816
192	0x3b9e5840	0.0048322976
193	0xbb99464e	-0.0046775704
194	0x3c94d471	0.018167706
195	0x3b0a85db	0.0021136913
196	0x3d22e875	0.03977247
197	0xbc3136bd	-0.010816273
198	0x3d5411e3	0.05177487
199	0x3d64a465	0.05582084
200	0xbbc062d3	-0.0058711558
201	0x3cc6bb9b	0.02425938
202	0x3c687ffb	0.014190669
203	0x3d0ea83e	0.034828417
204	0xbcf57151	-0.02996126
205	0x3d1a822c	0.037721798
206	0x3d371ba2	0.044704087
207	0xbc8e5906	-0.017376434
208	0x3cfcd64c	0.030863903
209	0xbc7843df	-0.0151529005
210	0xbd1c2177	-0.038117852
211	0x3d1fa7d3	0.03897841
212	0xbcb415ae	-0.021982994
213	0x3d11eb67	0.035624888
214	0xbd153054	-0.036423042
215	0x3cdab8a3	0.02669937
216	0xbccac09a	-0.024750043
217	0x3d59f378	0.053210706
218	0xbd20447f	-0.039127823
219	0xbcd08817	-0.025455518
220	0x3d43aa21	0.04776967
221	0x3c9f1aae	0.019421902
222	0x3cf1e18e	0.029526498
223	0x3cb8fe2c	0.022582136
224	0xbcfed45e	-0.031107124
225	0x3c68e8db	0.014215673
226	0x3d3d1bcf	0.0461691
227	0x3c8edf4e	0.017440464
228	0x3b3bcda4	0.0028656507
229	0xbd10c93a	-0.035348155
230	0x3d5d83f1	0.054080907
231	0x3ce55648	0.027995244
232	0xbc038d9b	-0.008029367
233	0xbcb7bb66	-0.022428226
234	0x3d606021	0.054779176
235	0xbcbdd006	-0.023170482
236	0xbca9a7cb	-0.020709893
237	0x3d0d3368	0.034472853
238	0xbd614c70	-0.055004537
239	0xbc26ca03	-0.010179999
240	0x3d217cbd	0.0394256
241	0xbd037af9	-0.032099698
242	0x3cd5d167	0.026100827
243	0xbce431ea	-0.027855832
244	0x3cf076a2	0.029353444
245	0xbd413a72	-0.04717488
246	0x3c8cbb0d	0.017179037
247	0x3d20e6c3	0.03928257
248	0xbbfd2edd	-0.007726534
249	0x3c870f1e	0.0164867
250	0x3cb19655	0.02167813
251	0x3cc25093	0.023720061
252	0x3d087422	0.033313878
253	0xbd337f31	-0.04382247
254	0xbd47833c	-0.04870914
255	0xbc51122f	-0.012760683
