siamese-classifier/siam_v3_71.pth (torch, 104363 bytes, 12 tensors)

siam_layer.conv1.weight f4 [14, 31, 6, 6]
0	0xbaa7f0e0	-0.0012812875
1	0xbc6f24fb	-0.014596219
2	0x3ba4004e	0.005004919
3	0xbb19f6f5	-0.0023493145
4	0x3cdb30eb	0.026756724
5	0x3a950fd4	0.0011372515
6	0x3badd394	0.005304763
7	0xbc5585c4	-0.0130323805
8	0xbc9d7da0	-0.019224942
9	0xbcf1c458	-0.02951257
10	0xbccb4d6e	-0.024817195
11	0x3cd54382	0.026033167
12	0xbcda9b9f	-0.026685534
13	0xbbb6c637	-0.0055778283
14	0x3b357403	0.0027687557
15	0x3bf86fe5	0.0075816982
16	0xba85ce82	-0.0010208639
17	0xbc950c16	-0.01819424
18	0xbcc3eb32	-0.02391586
19	0x3ba2051c	0.0049444567
20	0x3b942866	0.0045214174
21	0x3aa70471	0.0012742413
22	0x3c9550eb	0.018227061
23	0x3cce35ef	0.025172202
24	0xbc7230cc	-0.014782142
25	0xbc854eaf	-0.01627287
26	0xbcc71f35	-0.024306873
27	0xbb148efd	-0.0022668235
28	0x3ccb6dac	0.024832569
29	0x3cd26e84	0.025687464
30	0x3ce3abb6	0.02779184
31	0x3ca13165	0.019676873
32	0xbc9c18ad	-0.019054735
33	0x3c93bb83	0.018033748
34	0x3c515e5f	0.0127788475
35	0xbc21ccc1	-0.009875477
36	0xbb1a29e4	-0.0023523504
37	0x3ca71059	0.020393537
38	0xbc8adef9	-0.016952025
39	0x3b231acc	0.0024887798
40	0x3c67cffb	0.0141487075
41	0xbb5df6c0	-0.0033868998
42	0x3cc31c36	0.023817163
43	0x3b1d9bad	0.0024049089
44	0xbbb00b4f	-0.005372442
45	0xbafd27a3	-0.0019314181
46	0x3c9c2c70	0.019064158
47	0xbcc61435	-0.024179557
48	0x3b63ea74	0.0034777196
49	0x3cce7d72	0.025206301
50	0xbc765a83	-0.015036228
51	0x3c294b24	0.010332856
52	0x3ca5a2d5	0.020219246
53	0xbc48cc60	-0.012255758
54	0xbcb12867	-0.02162571
55	0xbcd414ac	-0.025888763
56	0xbb194437	-0.0023386606
57	0x3cabe130	0.020981401
58	0xbc207d54	-0.009795506
59	0x3c96cd45	0.018408427
60	0x3c5306e5	0.012880062
61	0x3c32cea6	0.010913527
62	0xbbd277bf	-0.0064229663
63	0x3c896184	0.016770132
64	0xbcecd8f7	-0.02891205
65	0xbcd0f8a3	-0.025509184
66	0x3ce8497a	0.028355349
67	0xbcb39b69	-0.021924691
68	0xbceb946c	-0.028757297
69	0x3cae6ac1	0.021291139
70	0xbc7e23f1	-0.015511499
71	0xbcd9c8bd	-0.026584977
72	0xbcbaa450	-0.022783428
73	0x3c489505	0.01224256
74	0xbcb562ff	-0.022141932
75	0x3ce2e9ce	0.027699377
76	0xbb83cb66	-0.0040220497
77	0xbcc9426e	-0.024567809
78	0xbce00eca	-0.027350802
79	0x3ca001e0	0.019532144
80	0x3c9a96e1	0.018870773
81	0xbc26525e	-0.010151474
82	0xbab22bf1	-0.0013593418
83	0xbc07e634	-0.008294631
84	0x3c018de0	0.007907361
85	0x3c7fc170	0.015610084
86	0x3cb019ae	0.02149662
87	0x3c7a7ec7	0.015289015
88	0x3bd70486	0.0065618185
89	0xbc9b9666	-0.018992614
90	0xbce9bd24	-0.028532572
91	0x3cc694a2	0.024240796
92	0x3c6f7871	0.014616118
93	0x3c46205e	0.012092678
94	0xbce44f7c	-0.027869932
95	0xbb33393f	-0.0027347354
96	0xbbaec185	-0.005333128
97	0xbc9c661d	-0.01909166
98	0xbcc8cd80	-0.024512053
99	0xbcceb454	-0.025232472
100	0x3c9ef2aa	0.01940282
101	0xbcc1343e	-0.023584481
102	0xbc4d574b	-0.012533019
103	0x3bd24d4d	0.0064179064
104	0xbcdc2f9e	-0.026878174
105	0xbca70ea7	-0.020392729
106	0xbc029124	-0.0079691745
107	0xbc8dfd54	-0.01733271
108	0xbc795cf1	-0.015219913
109	0x3a59231f	0.00082831265
110	0x3cea995c	0.02863758
111	0x3b837d6d	0.0040127547
112	0xbcdd72e2	-0.02703232
113	0xbc8c83f2	-0.01715276
114	0x3cb7eed7	0.022452755
115	0x3c84b2e6	0.016198587
116	0xbc97589a	-0.018474866
117	0x3aaed2bf	0.0013337954
118	0xbcf4bbf3	-0.029874777
119	0xbcd6b070	-0.026207179
120	0xbc8f9d26	-0.017530989
121	0xbc47d257	-0.012196145
122	0xbcf2ea41	-0.029652717
123	0x3b098c1f	0.002098806
124	0xbcdb0128	-0.02673395
125	0x3b08d181	0.0020876827
126	0xbbfdf240	-0.0077498257
127	0xbcda7103	-0.026665216
128	0xbc880656	-0.016604584
129	0x3c1d0a53	0.009584981
130	0x3bf2f1f9	0.0074140993
131	0x3c0141bf	0.00788921
132	0xbcf3b5f1	-0.029749842
133	0x3c0939d9	0.008375608
134	0xbcd591fb	-0.026070585
135	0xbca8fef4	-0.020629384
136	0xbc227531	-0.009915636
137	0xbaa5f21a	-0.0012660653
138	0x3c644bfb	0.013934131
139	0x3cc3642e	0.02385148
140	0x3c9442ee	0.01809832
141	0x3c487b84	0.01223648
142	0xbc5d848c	-0.013520371
143	0xbc64661f	-0.013940363
144	0xbc02d047	-0.0079842275
145	0xbb85b8a7	-0.00408085
146	0xbc7d50bc	-0.015461143
147	0xbcce3525	-0.025171826
148	0xbc826bde	-0.015920576
149	0x3c3437bc	0.010999616
150	0x3c7d5e64	0.015464399
151	0x3c91eb8d	0.017812515
152	0xbce6c56c	-0.02817031
153	0xbcd3eb00	-0.025868893
154	0x3c8ebefd	0.017425055
155	0x3c807c6c	0.015684329
156	0xbc52b2d6	-0.012860021
157	0x3c8eb984	0.017422445
158	0xbc934c53	-0.01798073
159	0x3b22f41f	0.0024864746
160	0x3c6acfa9	0.014331737
161	0x3c21fd6a	0.009887079
162	0x3cc7f5c8	0.02440919
163	0x3cb0f9bd	0.02160346
164	0xbcdc061c	-0.026858382
165	0x3cacbd2f	0.021086304
166	0xbcce4bf3	-0.0251827
167	0x3c1ae565	0.009454106
168	0xbcb4ff11	-0.022094281
169	0xbc772b7a	-0.015086049
170	0x3ce864f2	0.028368447
171	0x3c7cc80c	0.015428554
172	0xbba9150d	-0.00515998
173	0x3cd51cb0	0.026014656
174	0xb915a96c	-0.00014272862
175	0x3b104d5a	0.0022018761
176	0x3c2742ca	0.010208795
177	0xbb60f917	-0.0034328157
178	0x3c0539e9	0.008131483
179	0xbccc14fb	-0.024912348
180	0xba5daf7a	-0.0008456629
181	0x3cb375d6	0.021906774
182	0xbc098899	-0.008394384
183	0xbc3554ba	-0.011067564
184	0x3c0691c3	0.008213463
185	0x3bb8b800	0.005637169
186	0xbc8d8e1f	-0.017279683
187	0x3c424e55	0.011859496
188	0xbcbe8bcf	-0.023260025
189	0x3c9bd55b	0.019022634
190	0xbcbf79c6	-0.023373496
191	0xbcb40dfe	-0.021979328
192	0xbc929f5f	-0.01789826
193	0x3c8b8403	0.017030722
194	0x3c8474bd	0.016168946
195	0xbc9491f2	-0.018135998
196	0x3b86dcfc	0.004115699
197	0xbcca4dec	-0.02469536
198	0xb9daa984	-0.000417065
199	0xbc9a6d78	-0.018851027
200	0xbc09f2fe	-0.00841975
201	0x3c927946	0.017880093
202	0xbce84e28	-0.02835758
203	0x3ccbb5ca	0.024866957
204	0x3ae2fc33	0.0017317593
205	0xbbaad099	-0.005212855
206	0x3c9727aa	0.01845153
207	0x3ce62142	0.02809203
208	0xbce3c8f5	-0.027805785
209	0x3bdbc4d4	0.0067068134
210	0x3cde97b0	0.02717194
211	0x3c76338e	0.01502694
212	0x3adb8f35	0.0016751053
213	0x3c701da0	0.014655501
214	0xbcc6e785	-0.024280319
215	0x3c245298	0.0100294575
216	0x3cc274e1	0.023737373
217	0xbc61f993	-0.013792413
218	0x3c965c19	0.018354462
219	0xbb0dc3c2	-0.0021631573
220	0x3cb677d8	0.022273943
221	0xbc3f989a	-0.011694098
222	0x3ccc8b25	0.024968693
223	0xbc08ba6e	-0.00834523
224	0xbc9f2d6c	-0.019430839
225	0x3bc9b6fd	0.006155847
226	0x3c2cc223	0.010544333
227	0x3c01765e	0.007901756
228	0xbcf201cf	-0.029541878
229	0x3cef00b5	0.029175142
230	0xbc7f4d2f	-0.015582367
231	0xbbe04c18	-0.0068450086
232	0xbc50e829	-0.012750664
233	0x3b2a8f88	0.0026025493
234	0xbc831f6f	-0.0160062
235	0x3b9ad589	0.0047251624
236	0xbcee889b	-0.029117873
237	0xbbdecd42	-0.006799371
238	0xbce0d0a6	-0.027443241
239	0x3bbcf9fc	0.005767105
240	0xbadbcf10	-0.0016770083
241	0x3c6719e3	0.014105293
242	0xbcbb7e46	-0.02288736
243	0x3c5709bc	0.013124879
244	0x3cda06e5	0.026614616
245	0x3b91f67f	0.0044544335
246	0xbc72f288	-0.014828332
247	0xbbeb4bf9	-0.0071806875
248	0x3993b25b	0.0002817091
249	0xbc2c3b82	-0.010512235
250	0xbc25f4c7	-0.01012916
251	0xbce64518	-0.028109118
252	0x3ca7efc5	0.020500073
253	0x3c2326b7	0.009957961
254	0x3c0d2e0b	0.0086169345
255	0xbb3a5a17	-0.0028435045

siam_layer.conv1.bias f4 [14]
0	0x3c58fa4c	0.013243269
1	0x3cf4e9fa	0.029896725
2	0x3c004b84	0.007830504
3	0xbcd3480c	-0.02579119
4	0x3cbfe5e2	0.023425046
5	0x3cf1107a	0.029426802
6	0xbcb0d774	-0.021587111
7	0x3bb2b158	0.00545327
8	0xbc6bbac4	-0.01438779
9	0x3c06a988	0.00821913
10	0x3c7e114c	0.015507054
11	0x3cd99648	0.026560917
12	0x3c938744	0.018008836
13	0x3c160b14	0.009157915

siam_layer.conv2.weight f4 [7, 14, 6, 6]
0	0xbc5b5a9b	-0.013388301
1	0xbd2f0068	-0.042724997
2	0x3c01afba	0.007915432
3	0xbc6da2fe	-0.014504192
4	0xbbc946dd	-0.0061424808
5	0x3c156f2a	0.009120742
6	0xbd0c72f7	-0.034289327
7	0x3cbdbc11	0.023160966
8	0x3bd628da	0.0065356316
9	0xbd207f71	-0.039184038
10	0xbc8bd8ee	-0.017071214
11	0x3cd091c2	0.025460128
12	0x3c662f7f	0.01404941
13	0xbd337a1a	-0.043817617
14	0x3bbe144d	0.00580076
15	0x3d341701	0.04396725
16	0x3c3cc3a3	0.011521253
17	0x3ca3a1e7	0.019974662
18	0xbc8fd440	-0.017557263
19	0xbc4b8f3b	-0.0124242855
20	0x3cb9a91c	0.022663645
21	0x3d22ccc3	0.039746057
22	0x3d099c3f	0.033596274
23	0x3c156589	0.009118446
24	0xbc18dcab	-0.009329955
25	0xbc953207	-0.018212331
26	0xbd3551d9	-0.04426751
27	0x3c1ec204	0.009689812
28	0x3d032892	0.032021113
29	0x3aa09aa1	0.0012253114
30	0x3d22bbcb	0.039729875
31	0xbcbcad54	-0.023031868
32	0x3cbe79ef	0.023251502
33	0x3ced689d	0.028980548
34	0x3c52bab5	0.012861897
35	0xbc190250	-0.00933893
36	0xbd26173e	-0.04054951
37	0x3d05bff3	0.03265376
38	0xbca096aa	-0.019603092
39	0xbd292cb4	-0.041302398
40	0x3d20843f	0.03918862
41	0x3c2b3c8b	0.010451446
42	0xbca1dc03	-0.01975823
43	0x3d0838ec	0.03325741
44	0x3cb32059	0.02186601
45	0x3d096747	0.03354576
46	0x3ceff66e	0.029292312
47	0xbcc6640c	-0.024217628
48	0x3cf76d41	0.030203464
49	0xbcd1f193	-0.025627887
50	0xbd0becc1	-0.034161333
51	0x3c84b242	0.016198281
52	0xbd0c8aa5	-0.03431191
53	0xbcdbe295	-0.026841441
54	0x3c0a4f16	0.008441707
55	0x3c33f4e8	0.010983683
56	0xbd07e890	-0.033180773
57	0xbcc9e8d8	-0.024647161
58	0xbca60872	-0.020267699
59	0xbbbcdf77	-0.005763944
60	0x3d149f47	0.03628471
61	0xbcd3c920	-0.02585274
62	0xbcc672f2	-0.024224732
63	0xbc819067	-0.015815927
64	0x3c94c9b2	0.018162582
65	0xbcb44740	-0.02200663
66	0xbd365e1c	-0.044523343
67	0x3c00ec85	0.007868891
68	0xbd01465a	-0.031561233
69	0xbcd89fac	-0.026443325
70	0x3d21fa81	0.03954554
71	0x3d1c5982	0.0381713
72	0xbd0b2cd0	-0.033978283
73	0xbc04e76d	-0.008111817
74	0xbc2cbecb	-0.010543535
75	0x3c5f14c5	0.013615792
76	0x3cd5b1b4	0.026085712
77	0xbb9d6728	-0.004803557
78	0x3c7584b4	0.014985252
79	0x3ab8eab3	0.0014108032
80	0xbc42a290	-0.011879578
81	0x3a855019	0.0010170966
82	0xbd262c53	-0.040569615
83	0x3c3f1281	0.0116621265
84	0x3c936351	0.017991694
85	0xbc3f8040	-0.011688292
86	0x3c107a4f	0.008818223
87	0xbd34495c	-0.044015273
88	0xbbfc5162	-0.0077001313
89	0xbc77dd01	-0.015128375
90	0xbd2a10ee	-0.04152005
91	0xbc8453b2	-0.01615319
92	0xbc613268	-0.013744928
93	0x3c8ddb84	0.017316587
94	0x3c2c0d23	0.010501179
95	0xbd0c3c8f	-0.03423744
96	0xbb87cc8f	-0.0041442583
97	0x3d1c2671	0.038122598
98	0x3c9b5c97	0.018965049
99	0xbc645de7	-0.013938404
100	0x3d25ff4f	0.040526684
101	0x3c8108ea	0.01575132
102	0x3d14201e	0.03616344
103	0x3d0b2f8c	0.03398089
104	0xbaf7c8bf	-0.0018904431
105	0x3cc88067	0.02447529
106	0x3c9f0957	0.019413633
107	0xbd2af24a	-0.04173497
108	0x3d1ce672	0.038305707
109	0xbc387e2c	-0.0112605505
110	0xbc1b74fd	-0.009488341
111	0xbcb6eddf	-0.022330223
112	0x3c8173bc	0.015802257
113	0xbd31e401	-0.043430332
114	0xbd1784c3	-0.036991846
115	0x3d09664b	0.03354482
116	0x3d28be8e	0.041197352
117	0x3cc88729	0.024478512
118	0xbc54f6b7	-0.0129982745
119	0x3c994460	0.018709362
120	0xbcc64e85	-0.024207363
121	0xbd14e8fb	-0.036355
122	0x3d0921a4	0.033479348
123	0xbc04c1f5	-0.008102884
124	0xbbc7b1fd	-0.006094216
125	0x3befd929	0.0073195887
126	0x3cc3d06d	0.023903096
127	0x3c76dead	0.0150677385
128	0xbc2935aa	-0.010327736
129	0x3c31f12b	0.010860722
130	0xbc766677	-0.015039078
131	0xbb7ba332	-0.0038396833
132	0x3cce3ee6	0.025176477
133	0xbd045db5	-0.03231593
134	0xbcc696fd	-0.024241919
135	0xbbeb4f1d	-0.007181062
136	0xbca359d5	-0.019940296
137	0xbbca6b22	-0.006177322
138	0x3d04eb08	0.032450706
139	0xbcfc86bd	-0.030825967
140	0xbcd0da08	-0.02549459
141	0x3c771d9f	0.015082746
142	0xbd26939d	-0.04066812
143	0xbc8559ed	-0.016278232
144	0xbcce894a	-0.025211949
145	0xbae81440	-0.001770623
146	0xbcc763e5	-0.024339626
147	0xb92a76f7	-0.00016256781
148	0x3c7ce4e3	0.01543543
149	0xbb61838b	-0.003441068
150	0xbcc73fac	-0.024322353
151	0xbc973615	-0.018458406
152	0xbd1b0c44	-0.037853494
153	0x3c9cfd34	0.019163705
154	0x3c8376d1	0.016047867
155	0xbc850882	-0.016239408
156	0xbb8a5c29	-0.004222412
157	0xbba2d650	-0.0049693957
158	0x3d0b4853	0.03400452
159	0xbb28dbe5	-0.0025765833
160	0xbc9e21d3	-0.019303238
161	0x3bf1b692	0.0073765004
162	0x3d229891	0.03969628
163	0x3ccf1b3c	0.025281541
164	0x3cf48dcc	0.02985277
165	0xbc954f1e	-0.018226203
166	0xbcafb1d2	-0.021447096
167	0x3cc22e05	0.023703584
168	0xbc72798a	-0.014799485
169	0xbc5e9a63	-0.013586613
170	0x3c6f4470	0.014603719
171	0x3d2acc3d	0.041698683
172	0xbcb15abe	-0.021649715
173	0xbd24dd2c	-0.04024999
174	0x3bb207d8	0.005433064
175	0xbcad5490	-0.021158487
176	0xbccad767	-0.024760915
177	0x3cb8daab	0.022565207
178	0x3b652909	0.0034967086
179	0xbcfe2dcd	-0.031027699
180	0x3d347965	0.044061083
181	0x3cb352cf	0.021890072
182	0x3ceba581	0.028765442
183	0xbc6bd973	-0.014395106
184	0xbd30cdf2	-0.043165155
185	0x3cfd4ad4	0.03091947
186	0xbd023e2b	-0.03179757
187	0xbd1f9c62	-0.038967498
188	0x3d16b627	0.036794808
189	0xbba7c213	-0.005119571
190	0x3c543fbc	0.012954649
191	0xbcfc84b0	-0.03082499
192	0x3cc4476c	0.023959838
193	0x3c0cff16	0.008605739
194	0x3c9612ba	0.018319476
195	0x3d0198e6	0.031639956
196	0xbbcd8f4c	-0.006273186
197	0xbd19a681	-0.037512306
198	0xbc182755	-0.009286721
199	0xbcf0bfab	-0.02938827
200	0xbc889dca	-0.016676802
201	0xbd0bf062	-0.034164794
202	0x3bd57a1d	0.006514801
203	0xbd0a3bbd	-0.033748377
204	0x3bf2e39c	0.007412387
205	0x3cc9fcb5	0.024656633
206	0x3cdb7495	0.02678899
207	0xbcdfab04	-0.027303226
208	0x3c105c6a	0.008811096
209	0x3c122039	0.008918815
210	0x3d03d0af	0.032181438
211	0x3cebe35c	0.028794937
212	0x3c0d2421	0.008614571
213	0xbccc3f20	-0.024932444
214	0x3ce9e633	0.02855215
215	0x3c90e7bb	0.017688623
216	0x3cfd138e	0.030893113
217	0x3d2f01ed	0.042726446
218	0xbd323516	-0.043507658
219	0xbb228cff	-0.0024803279
220	0x3cd297bc	0.025707118
221	0x3cb6dc78	0.022321925
222	0x3c5273d6	0.012845
223	0xbbb7a41d	-0.0056042806
224	0x3d369bf3	0.04458232
225	0x3ce78192	0.028260026
226	0x3cebf57e	0.028803583
227	0x3c921ed2	0.017836962
228	0xbcd29f7a	-0.02571081
229	0xbc23a445	-0.009987895
230	0x3c15b01f	0.009136229
231	0x3b260a96	0.00253359
232	0xbc557413	-0.0130281625
233	0x3d2b591e	0.041833036
234	0xbc6b0d7f	-0.014346479
235	0x3d13d8c5	0.0360954
236	0xba1d4353	-0.0005999107
237	0xbc913696	-0.017726224
238	0xbca0f4ff	-0.019648073
239	0x3ce05212	0.027382884
240	0x3ca9192b	0.020641884
241	0x3bbb5d1a	0.0057178857
242	0x3cdfd1ac	0.027321659
243	0x3d004439	0.031315062
244	0xbd14f997	-0.03637084
245	0x3d0a8b7a	0.03382442
246	0x3bd377f1	0.006453507
247	0xbc3ed6f6	-0.01164793
248	0xbce1cec8	-0.027564421
249	0x3ca92a5c	0.020650081
250	0x3d2af5fd	0.0417385
251	0x3cd6670b	0.026172182
252	0xbd1ae884	-0.0378194
253	0x3c74d51e	0.014943389
254	0x3d1e6d43	0.03867842
255	0xbd1b7988	-0.037957698

siam_layer.conv2.bias f4 [7]
0	0x3cf74ad0	0.03018704
1	0x3ca3bee0	0.019988477
2	0xbc930c79	-0.017950283
3	0xbc678aa6	-0.014132177
4	0xbd2290e7	-0.03968897
5	0x3d0a6784	0.033790126
6	0xbcb2e253	-0.021836435

siam_layer.conv3.weight f4 [7, 14, 6, 6]
0	0x3c21c190	0.009872809
1	0x3ccb01a9	0.024781065
2	0xbce86d44	-0.028372414
3	0xbcf48a82	-0.029851202
4	0x3bcf2287	0.0063212547
5	0x3c988695	0.018618861
6	0x3cb3ed38	0.0219637
7	0x3d2bd5b6	0.041951858
8	0xbceec5ec	-0.02914711
9	0x3ca6687d	0.020313496
10	0x3c4dd18b	0.012562166
11	0xbd2d159f	-0.042256948
12	0x3d292bd5	0.041301567
13	0xbce5cfe0	-0.028053224
14	0xbb4c8109	-0.003120484
15	0xbca6c711	-0.020358594
16	0xbd25d501	-0.04048634
17	0xbd2fa699	-0.04288349
18	0xbb7e7b7c	-0.0038830927
19	0xbc52fdd2	-0.012877898
20	0xbc5e789e	-0.013578562
21	0x3c827400	0.015924454
22	0xbce6f133	-0.028191185
23	0x3d0fc855	0.03510316
24	0xbcf1a383	-0.029496914
25	0x3b7968c4	0.003805683
26	0xbd15a477	-0.0365338
27	0xbc9919c7	-0.01868905
28	0x3c514f59	0.012775266
29	0x3cf31bc1	0.02967632
30	0xbc212f74	-0.009837974
31	0x3b86ea5e	0.004117294
32	0x3c3e7812	0.011625307
33	0xbcd83aec	-0.026395284
34	0xbd2c471f	-0.042060014
35	0xbce07832	-0.027401064
36	0xbc682afa	-0.014170403
37	0x3d049acc	0.03237419
38	0x3bd68c82	0.0065475116
39	0x3b639d83	0.0034731335
40	0x3cba9f81	0.022781136
41	0xb947b4d7	-0.00019045487
42	0x3c9a9fb8	0.018874988
43	0x3d193713	0.03740604
44	0x3cf73049	0.030174391
45	0x3c836ef9	0.016044127
46	0xbcb2bb52	-0.021817837
47	0x3a7e0f9a	0.0009691656
48	0xbb9c89d9	-0.004777175
49	0x3c34ea66	0.011042213
50	0xbc2be037	-0.010490469
51	0xbd03910c	-0.03212075
52	0x3cef338d	0.029199386
53	0x3bba651b	0.0056883222
54	0xbcbf881d	-0.023380334
55	0xbcde7410	-0.027154952
56	0x3cc969a2	0.024586502
57	0x3cc32b12	0.023824248
58	0xbc2d5d68	-0.010581352
59	0xbcc4bf5f	-0.024017034
60	0x3bb84e61	0.005624578
61	0x3cf18956	0.029484432
62	0x3d17b73d	0.037039984
63	0xbd1e8d50	-0.038708985
64	0x3d07555f	0.0330404
65	0xbb01ad80	-0.0019787252
66	0x3cc40c46	0.023931634
67	0xbd1a0bc8	-0.03760889
68	0xbaa04211	-0.001222672
69	0xbce1ad87	-0.027548565
70	0x3d1737fc	0.036918625
71	0xbb63fe51	-0.0034789036
72	0xbc918c91	-0.017767223
73	0x3c2ee030	0.010673568
74	0x3d295646	0.041342042
75	0xbd2c2c78	-0.042034596
76	0xbccc176e	-0.024913516
77	0xbd2b1890	-0.04177147
78	0x3cdaadc3	0.026694184
79	0xbcf59332	-0.029977415
80	0xbc9f5675	-0.019450406
81	0xbd10f1d1	-0.035386864
82	0x3ca084a5	0.0195945
83	0xbc641d1f	-0.013922959
84	0xbd2d9927	-0.042382386
85	0x3cba4ab0	0.022740692
86	0xbd175aec	-0.036951944
87	0xba42bde6	-0.000742881
88	0x3d1e9614	0.038717344
89	0xbd13fc49	-0.03612927
90	0x3c5a6558	0.013329826
91	0xbbc21ec3	-0.0059240772
92	0x3ca96d66	0.020682048
93	0xbd211b8f	-0.039332923
94	0x3c323e27	0.010879076
95	0xbc586553	-0.013207751
96	0xbbd65d13	-0.006541857
97	0xbd102813	-0.035194468
98	0x3cc4137c	0.023935072
99	0xbcaba312	-0.020951781
100	0x3cce7eee	0.02520701
101	0xbb89e34b	-0.0042080036
102	0xbc3d1b12	-0.011542099
103	0xbd261342	-0.04054571
104	0xbd290cb6	-0.041271888
105	0xbd09180b	-0.033470195
106	0x3a89f808	0.001052619
107	0xbd2853a8	-0.041095406
108	0x3d27eca6	0.04099717
109	0xbd1978d4	-0.037468746
110	0xbc57d409	-0.013173112
111	0x3c3dc5cd	0.011582804
112	0xbd1d0310	-0.038333
113	0x3c08228c	0.008309018
114	0xbcdfb3ac	-0.027307354
115	0xbc3f1112	-0.011661785
116	0x3c79befc	0.015243288
117	0x3d250f48	0.040297776
118	0x3ce6c5e2	0.02817053
119	0x3cc7236b	0.02430888
120	0xbd1b561b	-0.037923913
121	0x3c631a1a	0.013861204
122	0x3cb54212	0.022126231
123	0xbd3104e5	-0.04321756
124	0xbbd27339	-0.006422427
125	0xbd30a1df	-0.043123122
126	0x3d110134	0.035401538
127	0xbbdbb8b5	-0.0067053684
128	0xbb494088	-0.003070863
129	0xbba55d2b	-0.005046507
130	0xbcfa6542	-0.030565862
131	0x3d1c00eb	0.038086813
132	0x3cb72eee	0.022361245
133	0xbd23157d	-0.039815415
134	0xbcc7bc0d	-0.024381662
135	0x3d152ab8	0.036417693
136	0x3cd13588	0.025538221
137	0xbc2a6cfd	-0.010401961
138	0xbc774991	-0.015093223
139	0xbd01defc	-0.031706795
140	0xbc84905c	-0.016182117
141	0xbbdb06a0	-0.0066841394
142	0x3cb78e5e	0.022406753
143	0xb93160ca	-0.00016916092
144	0x3c3bb489	0.011456617
145	0xbcc85826	-0.024456095
146	0x3a6e4635	0.0009089441
147	0x3d15e140	0.03659177
148	0xbc0583bf	-0.0081490865
149	0x3cfadb06	0.030622017
150	0x3d1e0a85	0.03858425
151	0xbce4e815	-0.027942697
152	0x3c9b0a16	0.018925708
153	0xbd112fea	-0.035446085
154	0x3d1ff071	0.039047662
155	0xbd0ae80a	-0.033912696
156	0xbc7757db	-0.01509663
157	0xbb798ad0	-0.0038077123
158	0xbd270f01	-0.040785793
159	0x3d1b902e	0.037979297
160	0xbcef908a	-0.029243726
161	0x3d082f5e	0.033248298
162	0x3cb99e52	0.0226585
163	0x3c122d6f	0.008921965
164	0xbbb9ce4b	-0.005670344
165	0xbd268ca9	-0.040661488
166	0xbca62ac3	-0.020284062
167	0xbd001132	-0.0312664
168	0xbd217024	-0.039413586
169	0xbc05f541	-0.008176149
170	0x3bdfaa00	0.0068256855
171	0x3c66929d	0.014073041
172	0xbce33d32	-0.027739141
173	0x3c1204a9	0.008912244
174	0xbc05e4bc	-0.00817221
175	0xbc835621	-0.01603228
176	0xbd2e2e58	-0.042524666
177	0xbb83e1e3	-0.0040247305
178	0xbd1c4a61	-0.03815687
179	0xbcf21400	-0.029550552
180	0x3d348fb9	0.044082377
181	0x3b8c32db	0.0042785234
182	0xbc726487	-0.014794475
183	0x3cbb104c	0.02283492
184	0xbcf278d5	-0.029598633
185	0x3c40eade	0.011774747
186	0xbc6fb6c6	-0.014630979
187	0x3cecc37d	0.02890181
188	0xbcef1a27	-0.029187275
189	0x3c4af4b8	0.012387447
190	0x3ce0db24	0.027448244
191	0x3cd81e5f	0.02638167
192	0x3caa6945	0.02080215
193	0xbbaa2fa6	-0.0051936684
194	0xbb0237bc	-0.0019869646
195	0xbd30ca5f	-0.043161746
196	0x3d0aaae7	0.03385439
197	0xbc0ee41f	-0.0087213805
198	0x3cbc6e77	0.023001892
199	0xbc7ae203	-0.015312674
200	0xbd12784f	-0.035759266
201	0x3c329846	0.010900563
202	0xbcfd3314	-0.030908145
203	0xbb5dbebc	-0.003383561
204	0xbd1839a6	-0.037164353
205	0x3c0b7d11	0.008513705
206	0xbb9cc782	-0.0047845254
207	0x3b451b24	0.0030075992
208	0xbcb36a6f	-0.021901337
209	0x3bcdcc8b	0.006280487
210	0xbc82c09b	-0.015960982
211	0xbd361da3	-0.044461858
212	0xbd1a7443	-0.037708532
213	0xbcd58d06	-0.026068222
214	0x3c9ba9db	0.019001892
215	0xbcad3b43	-0.021146422
216	0x3d2c7fdc	0.042114124
217	0xbc834f0f	-0.016028909
218	0xbd209f4a	-0.03921441
219	0x3bc9545a	0.0061440887
220	0x3a90f937	0.00110606
221	0xbbf1f832	-0.0073843235
222	0xbd128b09	-0.035777126
223	0xbcbb68ab	-0.022877058
224	0xbc9b46c9	-0.018954651
225	0xbbcf0648	-0.0063178875
226	0xbc8b1ef4	-0.016982533
227	0x3c62b6b5	0.013837506
228	0xbd1879c4	-0.0372255
229	0xbd03ef6c	-0.032210752
230	0xbbc043f4	-0.0058674756
231	0x3cc270f5	0.023735503
232	0x3c06e5c4	0.008233491
233	0x3d13a9ed	0.036050726
234	0xbd23da05	-0.04000284
235	0xbca26b07	-0.019826425
236	0x3c8ada8b	0.016949913
237	0xbc6c4ddb	-0.014422859
238	0xbc9f1f07	-0.019423975
239	0x3cc728c0	0.024311423
240	0xbbd478a1	-0.0064841066
241	0x3c55c323	0.0130470125
242	0x3caeaf1b	0.021323731
243	0xbccbdd47	-0.024885787
244	0xbd1133e9	-0.035449896
245	0x3cc7e022	0.024398867
246	0x3d094685	0.03351452
247	0x3cc0f854	0.023555912
248	0x3c579671	0.013158427
249	0x3d2d4a8a	0.042307414
250	0xbc30e22c	-0.010796111
251	0xbb957f79	-0.004562315
252	0x3c3b2773	0.01142298
253	0xbc967f3a	-0.018371213
254	0xbcfa42f6	-0.030549508
255	0x3d283517	0.041066255

siam_layer.conv3.bias f4 [7]
0	0x3d02634c	0.031832978
1	0x3cac66b4	0.021045066
2	0x3cc2bbd0	0.023771197
3	0xbac466a0	-0.0014984198
4	0x3afd7f40	0.0019340292
5	0x3d14a8e0	0.036293864
6	0x3c5238a8	0.012830891

siam_layer.conv4.weight f4 [3, 14, 6, 6]
0	0xbbb47c9a	-0.0055080177
1	0xba5bb8f7	-0.0008381749
2	0x3d105337	0.03523561
3	0xbcaff518	-0.021479174
4	0x3d0105cf	0.03149968
5	0x39d0e797	0.000398454
6	0xbbdbacfa	-0.00670397
7	0xbb29923c	-0.0025874516
8	0xbb0c5762	-0.002141439
9	0xbcdc849f	-0.026918707
10	0x3cdbe9ef	0.026844947
11	0xbce8f221	-0.028435769
12	0xbcb6da30	-0.022320837
13	0x3cc04761	0.023471536
14	0x3ce04160	0.027374923
15	0x3c0a7d1f	0.008452683
16	0xbcdcbd6d	-0.026945794
17	0xbc8ad5cd	-0.016947651
18	0x3b52ee30	0.0032185428
19	0x3c9f8568	0.019472793
20	0x3d0e316a	0.034715094
21	0xbcaf7adc	-0.021420889
22	0xbd161571	-0.036641542
23	0x3bcebc8f	0.006309099
24	0x3c5a80aa	0.01333634
25	0x3d02581b	0.031822305
26	0x3cf7346f	0.03017637
27	0x3c113aeb	0.008864145
28	0x3b241e71	0.0025042559
29	0x3b3ef811	0.0029139558
30	0x3c50a9fc	0.01273584
31	0xbcbf06bb	-0.023318639
32	0xbcad7af2	-0.021176789
33	0x3cfc3259	0.030785726
34	0x3b5ba16d	0.0033512965
35	0xbc70a232	-0.014687108
36	0xbcc1269b	-0.023577979
37	0x3d03342a	0.03203217
38	0xbbcd35c7	-0.0062625143
39	0xbd2a339d	-0.04155313
40	0x3c963a35	0.018338302
41	0x3d16fd70	0.03686279
42	0xbcfe2139	-0.031021701
43	0x3c336256	0.010948738
44	0x3c58b59b	0.013226892
45	0x3ccd5bbb	0.025068155
46	0x3cd1146e	0.025522437
47	0xbc980bbe	-0.018560287
48	0xbceeee74	-0.029166438
49	0x3cad79b4	0.021176197
50	0x3d368fdf	0.0445708
51	0xbcd6643e	-0.026170846
52	0x3d0ed9b2	0.03487558
53	0x3d37b6ab	0.04485194
54	0xbcac9b62	-0.021070186
55	0xbbc006d6	-0.00586019
56	0x3b01c87e	0.001980334
57	0xbcfa9558	-0.03058879
58	0x3bb12a9b	0.0054066903
59	0x3d057841	0.032585386
60	0x39ff28ff	0.00048667935
61	0x3c93c048	0.018036023
62	0x3b36c213	0.0027886673
63	0xbbbd1a62	-0.0057709673
64	0x3c324e94	0.010882992
65	0xbd2c323e	-0.042040102
66	0xbc65a653	-0.014016706
67	0x3ceb3e36	0.028716188
68	0xbb4f3835	-0.0031619195
69	0xbca69611	-0.02033523
70	0x3c7bfb15	0.015379687
71	0x3b97a414	0.004627714
72	0xbc17e51c	-0.0092709325
73	0xbcc030e2	-0.02346081
74	0xbc86700c	-0.01641085
75	0x3c20e632	0.009820508
76	0x3b9f18e1	0.0048552607
77	0xbc2984f6	-0.010346642
78	0x3d22f6c6	0.039786123
79	0xbc970497	-0.018434806
80	0xbd042c29	-0.032268677
81	0xbd2a901d	-0.041641343
82	0xbcba6556	-0.022753399
83	0xbc0b0f70	-0.008487567
84	0x3c985d31	0.018599125
85	0xbd23f2b7	-0.040026393
86	0xbd19d16e	-0.037553243
87	0xbcc7004c	-0.024292134
88	0x3cb57cb2	0.022154186
89	0xbccd4c53	-0.025060808
90	0x3c8ac175	0.01693795
91	0x3c859d90	0.016310483
92	0xbc659a37	-0.014013818
93	0xbccb56bb	-0.02482163
94	0x3c547cb6	0.0129691865
95	0xbd0e537e	-0.034747593
96	0xbd2a1129	-0.04152027
97	0xbd2b6904	-0.041848198
98	0x3d287361	0.04112566
99	0xbc656f57	-0.014003596
100	0xbcaf5c5c	-0.021406345
101	0xbc53f410	-0.012936607
102	0xbd1352e6	-0.03596773
103	0xbd21832f	-0.039431747
104	0xbc4bf011	-0.012447373
105	0x3cd3f89d	0.025875384
106	0xbc3a1e0d	-0.011359704
107	0x3d1ae529	0.0378162
108	0xbbab67f6	-0.005230899
109	0xbc47f19c	-0.0122036
110	0xbd17f1fc	-0.03709601
111	0x3d34a549	0.04410294
112	0x3c5408d4	0.012941558
113	0x3d365997	0.044519033
114	0x3c65af8e	0.014018906
115	0x3d0c0247	0.03418186
116	0xbaeca6ca	-0.0018055078
117	0x3d10a0e8	0.035309702
118	0x3a788f3c	0.0009481793
119	0x3d0a72fd	0.033801068
120	0x3cd99bce	0.026563551
121	0x3cb11319	0.021615552
122	0x39adf53b	0.00033179842
123	0x3ccefee8	0.025268033
124	0xbcc7f23f	-0.024407504
125	0xbc1c625e	-0.009544937
126	0x3cd01627	0.025401188
127	0x3c7580fc	0.014984366
128	0x3c9b6073	0.018966889
129	0xbccb4686	-0.024813902
130	0xbb139f97	-0.0022525543
131	0x3b994a41	0.004678041
132	0xbc0ab211	-0.008465306
133	0xbcb676fc	-0.022273533
134	0x3b3f1d58	0.0029161777
135	0xbcbd784a	-0.023128647
136	0xbcdd3f4a	-0.027007718
137	0x3d21bed9	0.039488647
138	0x3cd85769	0.026408868
139	0xbc765c36	-0.015036633
140	0x3cff7d40	0.031187654
141	0xba7d25d5	-0.00096568215
142	0x3d099518	0.033589453
143	0xbc56c5a0	-0.013108641
144	0x3abe5516	0.0014521207
145	0xbce07e38	-0.027403936
146	0x3d314cb2	0.043286033
147	0xbc6740c3	-0.0141145615
148	0x3c97bb3d	0.0185219
149	0xbce431fd	-0.027855868
150	0xbd0b8326	-0.03406062
151	0xbbd7351c	-0.0065676104
152	0xbcee1ddb	-0.02906697
153	0x3b65b03e	0.0035047675
154	0x3c969df9	0.018385874
155	0x3cd58d42	0.026068334
156	0x3c1c99e6	0.009558177
157	0x3cda64ef	0.026659457
158	0x3d229278	0.039690465
159	0x3cee912a	0.029121954
160	0x3d199aef	0.03750127
161	0x3b805040	0.0039158165
162	0xbb2d5fc4	-0.0026454786
163	0x3caf0064	0.021362491
164	0xbc712f61	-0.014720769
165	0xbd2ae037	-0.041717734
166	0x3c7fe69a	0.015618945
167	0x3bb0233c	0.005375294
168	0xbcd7833a	-0.02630769
169	0x3cea083c	0.02856838
170	0x3c457be7	0.012053466
171	0x3c2acc1a	0.010424638
172	0xbd338182	-0.04382468
173	0x3cd91bab	0.02650245
174	0x3c125ac9	0.008932778
175	0xbc76f5a9	-0.015073218
176	0xbcfd2707	-0.030902399
177	0xbc6d2ea9	-0.014476457
178	0xbcf168a6	-0.029468846
179	0xbbb140b5	-0.005409325
180	0x3c81f18c	0.015862249
181	0xbc5906af	-0.013246222
182	0x3cfb66d0	0.030688673
183	0x3c4048b3	0.011736083
184	0x3d17b0dc	0.0370339
185	0x3c97f40f	0.018548993
186	0xbb300fb5	-0.002686483
187	0x3d00b1aa	0.031419434
188	0x3d17abbb	0.03702901
189	0xbb8ca14e	-0.00429169
190	0xbd1573af	-0.036487278
191	0xbb63a0b6	-0.0034733242
192	0x3c5493c3	0.012974682
193	0xbccecffb	-0.025245657
194	0xbd16cc8a	-0.036816157
195	0xbc520c74	-0.012820352
196	0x3c7eb850	0.015546873
197	0x3d185e91	0.03719956
198	0x3cc0bac1	0.023526551
199	0xbbced273	-0.0063117086
200	0x3d306984	0.043069378
201	0xbba2caa7	-0.0049680057
202	0xbc709cc1	-0.014685811
203	0xbc33e45b	-0.010979737
204	0xbc29d3fa	-0.010365481
205	0x3d324168	0.043519408
206	0xbc8250ae	-0.015907612
207	0xbc997002	-0.018730167
208	0x3cad128a	0.021127004
209	0x3d0e0dba	0.03468106
210	0x3d11b615	0.035574038
211	0xbd2853e4	-0.04109563
212	0xbca4d34a	-0.020120282
213	0x3bac4a21	0.0052578603
214	0x3c9ffa3f	0.019528506
215	0xbd0240cc	-0.031800076
216	0xbc7a13e0	-0.015263528
217	0x3d31023f	0.043215033
218	0x3ba7cec4	0.005121084
219	0xbc9a3c4b	-0.018827578
220	0xbb200cb3	-0.0024421632
221	0xbc594e76	-0.013263335
222	0xbc1b0f58	-0.009464107
223	0x3d0dc2ca	0.034609593
224	0x3c268c10	0.010165229
225	0x3cbb0ada	0.022832323
226	0xbc87dad7	-0.016583843
227	0x3c874e8e	0.01651695
228	0x3c9cbbe9	0.019132571
229	0x3cd23983	0.02566219
230	0x3d0f6055	0.03500398
231	0xbc2c9633	-0.010533857
232	0x3ccf20dc	0.025284223
233	0xbb8c209e	-0.004276349
234	0x3cacfe87	0.021117462
235	0xbd10175b	-0.035178524
236	0x3c116b1c	0.0088756345
237	0x3c2bf357	0.010495028
238	0x3d28d47d	0.04121827
239	0x3c8d0633	0.01721487
240	0x3c0119b1	0.00787966
241	0x3cbdef6f	0.02318546
242	0xbd0dd19b	-0.034623723
243	0xbc5a0f16	-0.013309261
244	0x3ced5e72	0.0289757
245	0xbd298fdf	-0.04139697
246	0x3ccadd12	0.024763618
247	0x3c1903e0	0.009339303
248	0xbd12e8a8	-0.03586641
249	0x3ca6fa9b	0.02038317
250	0x3ce4e03b	0.027938953
251	0x3d1060be	0.03524851
252	0x3c3bc968	0.011461593
253	0xbd228e44	-0.039686456
254	0xbbd1610e	-0.0063897436
255	0x3d158797	0.03650626

siam_layer.conv4.bias f4 [3]
0	0xbc941ae2	-0.018079225
1	0x3cc0b3c4	0.023523219
2	0xbd10aa7e	-0.035318844

siam_layer.conv5.weight f4 [1, 3, 6, 6]
0	0xbdb377df	-0.08763098
1	0xbd37c14e	-0.044862084
2	0x3c19b164	0.009380672
3	0x3da1c492	0.07898821
4	0xbc237839	-0.009977394
5	0x3d6c6df3	0.057722043
6	0x3d8043b7	0.062629156
7	0x3cc6bd95	0.024260322
8	0xbd72b0f2	-0.05925078
9	0xbd1353e6	-0.035968684
10	0xbdb7fd23	-0.08983829
11	0x3d99afe2	0.0750425
12	0xbdb8a53c	-0.09015891
13	0x3c88a666	0.016680907
14	0xbd8d237b	-0.06891533
15	0x3d5129cc	0.05106525
16	0x3d9517ae	0.07279907
17	0xbcc75873	-0.024334168
18	0xbc6cae1d	-0.014445809
19	0xbd0624f4	-0.032750085
20	0xbc9b6fed	-0.018974269
21	0xbdc3b307	-0.09555631
22	0xbd6fc1a5	-0.058534283
23	0xbd2af72e	-0.041739635
24	0x3c9a1b94	0.018811978
25	0x3d641d37	0.055691924
26	0x3d16092a	0.036629833
27	0x3c35f8a4	0.011106644
28	0xbda2f15c	-0.07956192
29	0xbcc4d03b	-0.024025073
30	0xbd4567d2	-0.048194714
31	0xbcfa6d1f	-0.030569611
32	0x3ce1efc4	0.02758015
33	0xbd87f597	-0.066386394
34	0x3d8a7881	0.067612655
35	0x3d50f4ed	0.05101483
36	0x3d491d4d	0.04910021
37	0xbd863ac6	-0.06554179
38	0xbcc43b1f	-0.023953972
39	0xbd0c3699	-0.034231756
40	0x3ce58efb	0.02802228
41	0xbbaf3715	-0.0053471425
42	0xbc9b9064	-0.01898975
43	0xbb0eb86c	-0.0021777404
44	0x394e33c9	0.00019664982
45	0x3ce987d5	0.028507153
46	0xbca4a168	-0.020096496
47	0xbcc5ac3d	-0.024129981
48	0x3d961ad6	0.07329337
49	0x3db1654a	0.086618975
50	0x3c9c34e4	0.019068189
51	0x3dafd99f	0.0858643
52	0xbda1f103	-0.079072975
53	0x3dbfadb1	0.09359301
54	0xbda11b5b	-0.07866546
55	0xbd802438	-0.06256908
56	0xbbfe3e36	-0.007758881
57	0xbd95fc06	-0.0732346
58	0xbd1e1c5c	-0.038601264
59	0xbd5398ed	-0.051659513
60	0xbda5b94f	-0.080919854
61	0x3d7bd23a	0.061479785
62	0x3d9fcdb4	0.07802907
63	0x3b8fe9a0	0.004391864
64	0x3cd1b20e	0.025597598
65	0xbcad2551	-0.021135958
66	0xbd24afd7	-0.040206756
67	0xbc4fb74a	-0.012677977
68	0x3d8a7cca	0.06762083
69	0x3dbc5577	0.091959886
70	0x3c637fed	0.01388548
71	0xbbd0d620	-0.006373182
72	0x3db94b38	0.0904755
73	0x3bec5484	0.0072122235
74	0xbdc5717b	-0.09640785
75	0xbd6ee891	-0.05832726
76	0xbc382858	-0.011240087
77	0xbcbd2c95	-0.023092547
78	0x3db68d64	0.08913687
79	0xbd5c7f7b	-0.053832512
80	0x3ca46d8e	0.020071771
81	0xbc3170a9	-0.010830083
82	0x3d7fad7d	0.06242131
83	0x3d495b88	0.049159557
84	0x3c73bc02	0.0148763675
85	0xbcb9f4cb	-0.022699734
86	0xbd5b4183	-0.053529274
87	0xbdbbb4d3	-0.09165349
88	0x3d48e401	0.049045566
89	0x3d153218	0.036424726
90	0x3d20c505	0.039250392
91	0x3cd441d7	0.025910301
92	0x3da46c04	0.08028415
93	0x3cf58ae6	0.029973458
94	0x3c1ccde0	0.009570569
95	0xbd250795	-0.040290434
96	0x3d837b90	0.06420052
97	0xbd7e53f3	-0.06209178
98	0x3cb36b46	0.021901738
99	0x3cef4cb4	0.02921138
100	0xbba8ef36	-0.0051554693
101	0x3d9e37c7	0.077254824
102	0x3d493342	0.04912115
103	0xbdad22ed	-0.08453927
104	0xbd0eb6ab	-0.034842175
105	0xbd1eda6f	-0.038782533
106	0x3d304e50	0.043043435
107	0x3c092402	0.008370401

siam_layer.conv6.weight f4 [1, 3, 6, 6]
0	0xbc30e252	-0.0107961465
1	0xbc170a27	-0.009218729
2	0x3d717007	0.05894473
3	0xbcb4f653	-0.022090113
4	0x3d8cff0a	0.06884582
5	0xbda7118c	-0.08157644
6	0x3da050c7	0.07827907
7	0x3cf3b636	0.02974997
8	0x3d2824f9	0.041050885
9	0xbd7d7c0f	-0.06188589
10	0xbdbc15e5	-0.091838636
11	0xbdc40ecb	-0.09573134
12	0xbc3187fa	-0.010835642
13	0x3dbf74c4	0.09348443
14	0x3dc0e260	0.094181776
15	0x3bf4272b	0.0074509582
16	0x3dbb1644	0.09135106
17	0xbdb74b4d	-0.08949909
18	0xbb71b928	-0.0036884043
19	0x3d93d144	0.072176486
20	0x3d007492	0.03136117
21	0x3db99ffa	0.09063716
22	0x3cd40051	0.025879057
23	0xbdc32ed0	-0.09530413
24	0xbdb19b37	-0.08672183
25	0x3c4c3c44	0.01246554
26	0xbd541be2	-0.051784404
27	0x3c83c2d2	0.016084109
28	0x3cfe9604	0.031077392
29	0x3dbbd782	0.09171964
30	0x3cb697df	0.022289215
31	0x3b8bd9ad	0.0042678923
32	0xbda4f406	-0.08054356
33	0x3db79f47	0.089659266
34	0x3d62bbdf	0.05535495
35	0xbd435d9e	-0.047696702
36	0xbd96d2b8	-0.0736441
37	0xbd676670	-0.056494176
38	0x3af5cc98	0.001875299
39	0xbcfb601a	-0.030685473
40	0xbd08003a	-0.03320334
41	0xbdacac35	-0.084312834
42	0xbd307f3c	-0.04309009
43	0xbd22cbc9	-0.039745126
44	0x3d692527	0.056920197
45	0x3d463a76	0.048395596
46	0x3d32b22d	0.043626953
47	0xbbc95f91	-0.0061454256
48	0xbd9d3bd2	-0.076774254
49	0xb9aa230c	-0.0003245104
50	0x3d68207a	0.056671597
51	0x3d02c1c7	0.03192308
52	0x3d246193	0.040132117
53	0x3d87506c	0.06607136
54	0xbc99b119	-0.018761205
55	0xbca0827f	-0.019593475
56	0xbc48aa2a	-0.0122476015
57	0xbc8d6bb7	-0.017263277
58	0xbd49a5a0	-0.049230218
59	0xbd6e8d2b	-0.058240097
60	0x3d9cd19c	0.07657167
61	0x3d638de6	0.055555247
62	0xbd8a36e2	-0.06748749
63	0x3c389b11	0.011267439
64	0xbd465bd8	-0.048427433
65	0xbbe5bdab	-0.0070111356
66	0xbd9e8afe	-0.077413544
67	0xbd9e88cc	-0.07740936
68	0x3dad5dce	0.084651574
69	0x3d4e14a0	0.05031264
70	0x3d807599	0.0627243
71	0x3d0d512b	0.034501236
72	0xbd96be92	-0.07360567
73	0xbd1f9d44	-0.03896834
74	0x3d51847f	0.05115175
75	0xbc4ba059	-0.012428367
76	0xbd97a670	-0.07404792
77	0xbdc3473b	-0.095350705
78	0xbdc4b2ee	-0.09604441
79	0xbd3551df	-0.04426753
80	0x3d37d638	0.04488203
81	0x3db13afd	0.08653829
82	0x3d4a8884	0.049446598
83	0xbd650172	-0.05590958
84	0xbd3173c8	-0.04332331
85	0x3c89b723	0.01681096
86	0xbdc1ca13	-0.09462371
87	0xbdb007a3	-0.085952066
88	0xbd972204	-0.07379535
89	0x3ce36e97	0.027762694
90	0xbd013806	-0.03154757
91	0xbd1d2c82	-0.038372524
92	0x3d9b2673	0.07575693
93	0x3d6c1e53	0.057646107
94	0x3cf30879	0.029667126
95	0xbd5d7847	-0.054069784
96	0xbcf92737	-0.030414207
97	0x3b407013	0.0029363676
98	0xbd4f889d	-0.050667394
99	0xbd513fcd	-0.051086236
100	0xbdc3ad46	-0.09554534
101	0xbd7884cb	-0.060673516
102	0xbdb8f36b	-0.09030803
103	0x3d74d869	0.059776697
104	0x3c3f03c7	0.011658615
105	0xbcd51d74	-0.02601502
106	0x3da2ef04	0.07955745
107	0xbd220606	-0.039556526

siam_layer.conv7.weight f4 [1, 2, 6, 6]
0	0x3ced5e3d	0.0289756
1	0x3d82662a	0.063671425
2	0xbdab69c2	-0.08369781
3	0x3de14cd1	0.1100098
4	0x3c520f84	0.012821082
5	0x3da47f38	0.080320776
6	0x3d0ccbc5	0.034374017
7	0xbdcf309c	-0.101166934
8	0xbda3f99e	-0.08006595
9	0xbd93d70f	-0.072187535
10	0x3dc15e40	0.09441805
11	0xba8f83f4	-0.0010949359
12	0xbd6151c4	-0.05500962
13	0x3ae6eae7	0.0017617614
14	0xbde446cb	-0.11146315
15	0x3dba3b49	0.09093339
16	0xbde4f64d	-0.11179791
17	0xbc1a46d8	-0.0094163045
18	0xbd2b62fe	-0.041842453
19	0xbcac36cb	-0.021022221
20	0xbde44e4c	-0.111477464
21	0x3c8ee581	0.01744342
22	0x3de4f2c6	0.11179118
23	0xbcc7869e	-0.024356183
24	0x3cbed824	0.023296423
25	0x3c82e785	0.015979538
26	0x3dacc86a	0.084366634
27	0xbc80e394	-0.015733518
28	0x3ddcbb40	0.107779026
29	0x388b630a	6.646484e-05
30	0xbdb88acc	-0.090108484
31	0x3cf05151	0.02933565
32	0x3bcf5545	0.0063273036
33	0xbcc2ed40	-0.02379477
34	0xbdc3bf18	-0.095579326
35	0x3d3ff4c2	0.04686428
36	0x3dba72e2	0.091039434
37	0xbd10fbbd	-0.035396326
38	0xbddb70d8	-0.107148826
39	0xbd85b7c9	-0.06529195
40	0x3d25b6bb	0.04045747
41	0x3db75367	0.089514546
42	0x3d68b42f	0.05681246
43	0x3d86c19c	0.06579897
44	0xbd839e5d	-0.0642669
45	0xbd8cefc9	-0.06881673
46	0x3de1b4bd	0.11020801
47	0xbdc9b561	-0.098490484
48	0xbddb1d7c	-0.10698983
49	0x3c0f451c	0.008744504
50	0xbdc280d7	-0.094972305
51	0xbbefc405	-0.0073170685
52	0x3d10fa35	0.035394866
53	0xbdb87013	-0.090057515
54	0xbd4f7510	-0.05064875
55	0x3deb163a	0.11478849
56	0xbde69faa	-0.11260922
57	0xbdbfdaf3	-0.09367933
58	0xbdbc9643	-0.09208348
59	0xbc971bbd	-0.018445844
60	0x3ce5c054	0.02804581
61	0x3ce2c75b	0.02768295
62	0x3dcccde6	0.100002095
63	0x3d0896d0	0.03334695
64	0xbdc9f475	-0.098610796
65	0x3d10802a	0.035278477
66	0xbde9b2b5	-0.11411039
67	0xbd9acc00	-0.07558441
68	0xbc7cc6ef	-0.015428289
69	0x3d8dc3ab	0.06922086
70	0x3ccbe8e5	0.024891326
71	0x3dda5eeb	0.106626354

dense.weight f4 [1, 308]
0	0xbd08cfe4	-0.033401385
1	0x3d23c586	0.039983295
2	0xbd13c4d7	-0.036076393
3	0x3d48493d	0.04889797
4	0xbc836819	-0.016040849
5	0x3c92d205	0.01792241
6	0x3c464338	0.012100987
7	0xbbd3ecbe	-0.006467431
8	0x3b1d8e97	0.002404129
9	0xbb3b9224	-0.0028621042
10	0xbd3ed97d	-0.04659413
11	0xbcbd88df	-0.023136554
12	0xbbb78f26	-0.0056017814
13	0x3cb8aace	0.022542384
14	0xbd24473b	-0.040106993
15	0xbd0cfb62	-0.034419425
16	0xbd02231b	-0.03177176
17	0xb99291a8	-0.00027955812
18	0x3ca27282	0.019829992
19	0x3c2d8a54	0.010592062
20	0xbd223850	-0.039604485
21	0x3d0608b6	0.03272315
22	0x3c7f73d2	0.015591579
23	0x3d1f82a3	0.038942944
24	0xbd1e21b2	-0.038606353
25	0xba178682	-0.0005780236
26	0xbb6e612b	-0.0036373835
27	0x3cda076c	0.026614867
28	0xbcbbd9f6	-0.02293108
29	0x3d20cbdc	0.039256915
30	0x3cc9942c	0.024606787
31	0x3c977b50	0.018491417
32	0xbcddb824	-0.027065344
33	0xbc3108db	-0.010805334
34	0xbc850cd4	-0.016241468
35	0xbd0debf7	-0.03464886
36	0xbd08cee4	-0.03340043
37	0x3b15777a	0.002280681
38	0x3cb31a92	0.021863256
39	0x3c22e076	0.009941211
40	0xbc433764	-0.011915062
41	0x3b15ae8d	0.0022839636
42	0x3c9db275	0.019250134
43	0xbc9df220	-0.019280493
44	0xbd43f959	-0.04784522
45	0xbd50bd74	-0.050961927
46	0x39ba8345	0.00035574488
47	0x3b642e70	0.0034817718
48	0x3b270028	0.002548227
49	0x3cff1929	0.031139927
50	0x3d429a93	0.047510695
51	0xbd530bee	-0.05152505
52	0xbc8f1a8a	-0.01746871
53	0xbb2fc7a8	-0.0026821885
54	0xbd291499	-0.04127941
55	0x3bb71b7a	0.0055879923
56	0xbd4f52d5	-0.050616104
57	0xbd418ede	-0.04725539
58	0x3cee2c62	0.029073898
59	0x3d615fb4	0.05502291
60	0x3d4db35b	0.050219875
61	0xbd37f732	-0.04491348
62	0x3beb441e	0.007179751
63	0x3d30cdaa	0.043164887
64	0x3c045ed2	0.008079248
65	0x3d249db8	0.040189475
66	0x3d5156ea	0.05110828
67	0x3d186037	0.037201133
68	0xbd1dfb48	-0.03856972
69	0xbc320baa	-0.010867039
70	0x3ccdc149	0.02511658
71	0x3c02ed80	0.007991195
72	0xbca990c1	-0.020698907
73	0xbbf936e3	-0.00760542
74	0xbc59acf8	-0.013285868
75	0x3d5f747d	0.05455445
76	0xbd0c071f	-0.03418648
77	0x3d2dcbd2	0.042430706
78	0xbd448be6	-0.04798498
79	0x3d240b1d	0.04004966
80	0xbce2847e	-0.027651068
81	0x3a9a70c4	0.0011782874
82	0xbc6e04c9	-0.014527508
83	0x3bb70f8b	0.0055865697
84	0xbc21ad4a	-0.0098679755
85	0x3c917415	0.017755548
86	0xbd31fc59	-0.043453548
87	0xbc6847ac	-0.014177244
88	0xbc8b1a23	-0.016980236
89	0xbd5aa7e5	-0.053382773
90	0x3c044aab	0.008074443
91	0x3d08c7a1	0.033393506
92	0xbc1c5e4e	-0.009543968
93	0xbd0aa0af	-0.033844646
94	0xbd530a68	-0.051523596
95	0x3ceef454	0.02916924
96	0xbd60cc5c	-0.054882392
97	0x3bc69855	0.00606064
98	0xbd04b48a	-0.032398738
99	0x3d598bb1	0.053111736
100	0x3c96dff1	0.01841733
101	0x3d1ef229	0.03880516
102	0x3d319765	0.04335727
103	0xbcd488c3	-0.02594412
104	0xbd061519	-0.032734964
105	0xbaf6e8f8	-0.0018837741
106	0xbbd0d768	-0.0063733347
107	0xbd4e6728	-0.050391346
108	0x3caed4bd	0.021341676
109	0xbd3fb786	-0.04680588
110	0x3ca26d84	0.019827612
111	0xbc955ef0	-0.018233746
112	0x3bffd3f8	0.007807251
113	0xbd0a28f8	-0.033730477
114	0x3c5bb959	0.01341089
115	0x3b9436bb	0.004523126
116	0xbc948ec4	-0.018134482
117	0x3d12c76e	0.035834722
118	0x3d0078fb	0.031365376
119	0x38a881a1	8.0350095e-05
120	0xbd258ba9	-0.040416393
121	0xbd4666a0	-0.048437715
122	0x3b7cdc71	0.0038583542
123	0x3d204c7d	0.039135445
124	0xbccbc39c	-0.024873547
125	0xbcd251f7	-0.02567385
126	0xbd59e747	-0.05319908
127	0xbd51c3c5	-0.05121209
128	0xbc49ea5d	-0.012323943
129	0x3bbd1f16	0.005771528
130	0x3b2191c3	0.002465353
131	0xbc5e3374	-0.013562072
132	0xbcd413a8	-0.02588828
133	0xbd52d6a1	-0.051474217
134	0x3d3919c2	0.04519058
135	0xbd369a5f	-0.044580813
136	0x3d065c24	0.032802716
137	0x3cd95f29	0.026534634
138	0x3c1c70bc	0.009548362
139	0xbd2a10b9	-0.041519854
140	0xbd09c47d	-0.03363465
141	0x3cd3e714	0.025867023
142	0xbd5126b6	-0.05106231
143	0x3caeaa5a	0.021321464
144	0xb98d30d7	-0.00026930004
145	0xbd1eea6f	-0.038797792
146	0xbc18c922	-0.009325298
147	0x3cf78b82	0.03021789
148	0xbd54062c	-0.0517637
149	0x3c8111c9	0.015755551
150	0x3ac0fa84	0.0014723097
151	0xbd44e881	-0.048073296
152	0xbcddcf95	-0.027076522
153	0x3cc38121	0.023865284
154	0x3c8a11d6	0.016854208
155	0x3b9957b7	0.004679646
156	0x3b67e535	0.003538442
157	0x3d639bf0	0.055568635
158	0x3ce2314c	0.027611397
159	0x3d38f949	0.04515961
160	0x3d28ec41	0.041240934
161	0x3d5425ae	0.051793747
162	0xbd603288	-0.05473569
163	0xbc31809b	-0.010833885
164	0x3d1ee5b9	0.0387933
165	0x3d0f1832	0.034935184
166	0xbc14cc0f	-0.0090818545
167	0x3d59593d	0.05306362
168	0x3d29199c	0.04128419
169	0xbc9d023f	-0.01916611
170	0xbd4ef821	-0.050529603
171	0x3cb25a78	0.021771654
172	0x3d064d9e	0.032788865
173	0xb9a284b7	-0.00030997928
174	0x3d6033a1	0.054736737
175	0xbc632618	-0.013864063
176	0xbc9b08e9	-0.018925147
177	0x3d47e9b6	0.04880687
178	0x3cf96358	0.030442879
179	0x3d3108d7	0.04322132
180	0xbd569b07	-0.05239394
181	0x3d283423	0.041065346
182	0xbc58a0b3	-0.013221907
183	0xbd37adeb	-0.044843595
184	0x3d2e69da	0.042581417
185	0x3cfdd2e8	0.030984357
186	0x3d1ac850	0.03778869
187	0x3bb80273	0.0056155263
188	0x3bda32dc	0.006658895
189	0x3d10fa65	0.035395045
190	0xbcd268aa	-0.025684673
191	0xbcaebad7	-0.021329327
192	0x3b912522	0.0044294754
193	0xbba8361f	-0.005133405
194	0x3c90ae9f	0.01766139
195	0x3ae331ac	0.0017333529
196	0x3d21444c	0.039371774
197	0xbc34462e	-0.01100306
198	0x3d53f7a3	0.051749837
199	0x3d63cfd0	0.055618107
200	0xbbc5936f	-0.0060295383
201	0x3cc627b7	0.02418886
202	0x3c667e9c	0.014068272
203	0x3d0dfffc	0.034667954
204	0xbcf7155f	-0.030161558
205	0x3d1943bc	0.037418112
206	0x3d36096a	0.04444257
207	0xbc9018f4	-0.017590024
208	0x3cfb35c5	0.030665288
209	0xbc7e5d2d	-0.0155251445
210	0xbd1d6757	-0.03842863
211	0x3d1e6a7b	0.038675766
212	0xbcb5e943	-0.022205954
213	0x3d1067e5	0.03525533
214	0xbd16af95	-0.03678854
215	0x3cd7ebaf	0.0263575
216	0xbccf3665	-0.025294492
217	0x3d58d041	0.05293298
218	0xbd22038d	-0.039554168
219	0xbcd259f5	-0.02567766
220	0x3d4368ff	0.047707554
221	0x3c9d9b60	0.019239128
222	0x3cf11485	0.02942873
223	0x3cb7f99e	0.022457894
224	0xbd0018f2	-0.03127379
225	0x3c661931	0.014044092
226	0x3d3c19e2	0.04592312
227	0x3c8cedef	0.0172033
228	0x3b2d929a	0.0026485086
229	0xbd122946	-0.035683893
230	0x3d5c4e41	0.053785566
231	0x3ce244af	0.027620642
232	0xbc093870	-0.008375272
233	0xbcb9be09	-0.022673624
234	0x3d5f358f	0.054494437
235	0xbcbf36c4	-0.023341544
236	0xbcac9f10	-0.02107194
237	0x3d0bfc41	0.034176115
238	0xbd63f37c	-0.055652127
239	0xbc2e70b1	-0.010646985
240	0x3d1fe17d	0.0390334
241	0xbd048959	-0.032357547
242	0x3cd4f554	0.025995888
243	0xbce69279	-0.028146015
244	0x3cefffce	0.029296782
245	0xbd418729	-0.04724804
246	0x3c8bdc62	0.01707286
247	0x3d202b82	0.039103992
248	0xbc003cfc	-0.00782704
249	0x3c85183a	0.016246904
250	0x3cb01c33	0.021497821
251	0x3cc09f7c	0.023513548
252	0x3d079abc	0.03310655
253	0xbd342790	-0.043983042
254	0xbd4847ac	-0.048896477
255	0xbc5446c5	-0.012956326
