siamese-classifier/siam_v3_89.pth (torch, 104363 bytes, 12 tensors)

siam_layer.conv1.weight f4 [14, 31, 6, 6]
00000000: 61d7 a8ba 4343 6fbc 79f9 a33b 1687 1abb
00000010: 8823 db3c dc4e 943a b087 ad3b aaaf 55bc
00000020: f583 9dbc fccb f1bc 6e56 cbbc ae43 d53c
00000030: 11ae dabc 91d4 b6bb e11d 353b b853 f83b
00000040: 18d7 85ba e425 95bc 0dfa c3bc 6a0a a23b
00000050: 7803 943b 90ad a63a 7a4a 953c 0c3c ce3c
00000060: 2223 72bc 923c 85bc 1518 c7bc 1563 14bb
00000070: 2d6b cb3c 486e d23c 53bc e33c 5d3b a13c
00000080: 7d0d 9cbc 72cd 933c 058b 513c 2c9f 21bc
00000090: 938c 1abb 9506 a73c fad7 8abc 7daa 223b
000000a0: 72ac 673c 0881 5ebb 4916 c33c d035 1d3b
000000b0: e2c9 afbb 24b5 fcba 5035 9c3c b2f8 c5bc
000000c0: 193a 633b 3e71 ce3c 8d79 76bc bd3f 293c
000000d0: 039c a53c 8336 49bc 082b b1bc 0115 d4bc
000000e0: 1f96 19bb dee5 ab3c c971 20bc 95e2 963c
000000f0: d02a 533c 5302 333c 9c2a d2bb b272 893c
00000100: 21d4 ecbc 8af1 d0bc 826a e83c 218d b3bc
00000110: d882 ebbc f68c ae3c 46df 7dbc c4a4 d9bc
00000120: 1db1 babc 7486 483c bd53 b5bc 32ce e23c
00000130: d01e 84bb 0454 c9bc 6b22 e0bc cee3 9f3c
00000140: c298 9a3c 4d3c 26bc 01bc b2ba 4bcf 07bc
00000150: 225b 013c 92b7 7f3c d008 b03c 8754 7a3c
00000160: b93c d73b e7ca 9bbc b3c9 e9bc 6f90 c63c
00000170: bd51 6f3c b82b 463c fd56 e4bc 7b01 33bb
00000180: b9b4 aebb fa48 9cbc 51be c8bc 3da2 cebc
00000190: 7bf3 9e3c 102e c1bc 1e13 4dbc ee7a d23b
000001a0: 061b dcbc 28f0 a6bc c63f 02bc 64e3 8dbc
000001b0: 979e 79bc b9de 573a 83a1 ea3c e52f 833b
000001c0: 3e82 ddbc 72a0 8cbc e1c1 b73c fa99 843c
000001d0: 3261 97bc 7cda ae3a 2fd1 f4bc 49b1 d6bc
000001e0: 76c9 8fbc 2dd1 47bc 62ff f2bc fd14 093b
000001f0: f2f0 dabc c5ae 073b 359d febb 7559 dabc
00000200: c61e 88bc 24f7 1c3c b3bd f23b 483b 013c
00000210: 3aca f3bc 037c 093c 0b94 d5bc d5f0 a8bc
00000220: 2764 22bc f575 a6ba 1a4e 643c 3175 c33c
00000230: 2646 943c b69b 483c d051 5dbc cb55 64bc
00000240: 5015 03bc d7fc 85bb 0643 7dbc 4440 cebc
00000250: f579 82bc c6f1 333c 6201 7d3c 89d6 913c
00000260: 72c8 e6bc bff7 d3bc 3ab1 8e3c da83 803c
00000270: 4d12 53bc 05b9 8e3c 8366 93bc 9bdb 223b
00000280: 8eeb 6a3c f2a0 213c 8ccc c73c df18 b13c
00000290: 371e dcbc d5b0 ac3c ed58 cebc d7e7 1a3c
000002a0: 510e b5bc ccee 76bc ff64 e83c b0dd 7c3c
000002b0: 2aff a8bb 340e d53c db00 17b9 65cd 103b
000002c0: 8146 273c 5e6d 60bb f467 053c 1f01 ccbc
000002d0: 8194 60ba e261 b33c fe6e 09bc da61 35bc
000002e0: db63 063c 3e3b b83b e4a4 8dbc 8e1e 423c
000002f0: 3c7a bebc d0c0 9b3c 837a bfbc 90e7 b3bc
00000300: 17b8 92bc c579 8b3c db5a 843c 8187 94bc
00000310: ffee 863b 8e9a cabc a1d2 deb9 235d 9abc
00000320: 2422 0abc 5075 923c a353 e8bc e3d6 cb3c
00000330: d80c e43a c651 aabb 1f37 973c 332c e63c
00000340: 95cf e3bc 6490 db3b bbad de3c 3145 763c
00000350: ab66 dc3a e366 703c f9c6 c6bc 6bc4 243c
00000360: f363 c23c 271a 62bc 6550 963c baeb 0dbb
00000370: f170 b63c f8aa 3fbc e994 cc3c bfab 08bc
00000380: 1e1c 9fbc efde c93b b0e1 2c3c e78d 013c
00000390: 8017 f2bc 77f1 ee3c 3256 7fbc 25a8 e0bb
000003a0: fa11 51bc c0b4 293b 4014 83bc 2fce 9a3b
000003b0: e986 eebc 61a8 debb 45ce e0bc 2402 bd3b
000003c0: a153 dbba cd46 673c 6f6e bbbc 7c31 573c
000003d0: 901e da3c fd41 923b 3ece 72bc 9ee1 eabb
000003e0: 1588 9739 e425 2cbc 01e7 25bc 1e31 e6bc
000003f0: 05d9 a73c a00a 233c 75f8 0c3c 5c58 3abb
-0.0012881571 -0.014603439 0.0050041047 -0.0023579053 0.026750341 0.0011315006 0.005295716 -0.01304237
-0.019227961 -0.029516213 -0.024821486 0.026033249 -0.02669433 -0.005579539 0.0027636217 0.0075783394
-0.0010211198 -0.018206544 -0.023922944 0.004945089 0.004517015 0.001271652 0.01822399 0.025175117
-0.014778884 -0.016264234 -0.024303475 -0.0022642065 0.024831379 0.025687352 0.02779976 0.019681627
-0.0190494 0.0180423 0.0127894925 -0.00986461 -0.0023582324 0.02038888 -0.016948689 0.0024820857
0.014140235 -0.003395142 0.023814337 0.0023988374 -0.0053646425 -0.0019280058 0.01906839 -0.024166439
0.003467208 0.025200482 -0.015043628 0.010330138 0.020215994 -0.012281063 -0.021626964 -0.025888922
-0.0023435426 0.020983633 -0.0097927535 0.01841859 0.012888625 0.010925847 -0.006413771 0.016778324
-0.028909745 -0.0255058 0.0283711 -0.021917881 -0.028748915 0.02130745 -0.015495127 -0.026567824
-0.022789532 0.012239087 -0.022134656 0.027686212 -0.0040319934 -0.024576195 -0.027360162 0.019517805
0.018871669 -0.010146213 -0.0013636352 -0.008289169 0.007895263 0.015607731 0.021488577 0.015278942
0.006568518 -0.01901765 -0.02853856 0.024238793 0.01460689 0.012095384 -0.02787351 -0.0027314115
-0.0053316024 -0.019077767 -0.024504812 -0.025223846 0.01940321 -0.023581535 -0.012516765 0.0064233458
-0.026868355 -0.020378187 -0.007949775 -0.017320342 -0.015235565 0.00082347874 0.028641468 0.004003512
-0.027039643 -0.01716635 0.022431316 0.016186703 -0.018478964 0.001334026 -0.029884903 -0.026207583
-0.017552119 -0.0121958675 -0.029662792 0.002091705 -0.02672622 0.0020703536 -0.0077702054 -0.026653985
-0.016616236 0.009580407 0.007407868 0.007887669 -0.029759515 0.008391383 -0.026071569 -0.02062265
-0.0099115735 -0.0012699949 0.0139346365 0.023859592 0.018099856 0.012244156 -0.013508275 -0.01393647
-0.008000687 -0.0040889787 -0.015457874 -0.025177129 -0.015927294 0.010982936 0.015442224 0.017802494
-0.028171752 -0.02587497 0.017418493 0.015687872 -0.012882781 0.017422209 -0.017993217 0.0024850133
0.014338387 0.0098650325 0.024389528 0.021618305 -0.026869876 0.021080414 -0.025188887 0.009454689
-0.022101553 -0.015071582 0.028368471 0.015433714 -0.005157371 0.02600775 -0.00014400801 0.002209508
0.010209681 -0.0034244875 0.00814246 -0.024902878 -0.00085670507 0.02189726 -0.008388279 -0.011070693
0.008202518 0.0056222966 -0.01729054 0.011848105 -0.023251645 0.019012839 -0.023373848 -0.021961004
-0.017910047 0.017025838 0.016156605 -0.01813102 0.004117846 -0.0247319 -0.0004250007 -0.01884324
-0.008430991 0.017878205 -0.028360194 0.02488274 0.0017398847 -0.0051977364 0.018458901 0.028097248
-0.027808944 0.0067005623 0.02718245 0.015031145 0.0016815265 0.014672968 -0.0242648 0.010056595
0.0237293 -0.0138001805 0.018348882 -0.0021655397 0.022270652 -0.011698477 0.02497335 -0.008341729
-0.019422587 0.006160609 0.010551855 0.007907367 -0.029552221 0.029167874 -0.015584515 -0.006855982
-0.012760634 0.002589509 -0.016000867 0.004724286 -0.029117065 -0.0067949747 -0.027442107 0.0057680774
-0.0016733297 0.014116001 -0.022879807 0.013134357 0.026625901 0.004463433 -0.01481968 -0.007168009
0.00028902353 -0.010507081 -0.010125876 -0.028099593 0.020489225 0.009951264 0.008604159 -0.0028434014

siam_layer.conv1.bias f4 [14]
00000000: 4cfa 583c fae9 f43c 844b 003c 0c48 d3bc
00000010: e2e5 bf3c 7a10 f13c 74d7 b0bc 58b1 b23b
00000020: c4ba 6bbc 88a9 063c 4c11 7e3c 4896 d93c
00000030: 4487 933c 140b 163c
0.013243269 0.029896725 0.007830504 -0.02579119 0.023425046 0.029426802 -0.021587111 0.00545327
-0.01438779 0.00821913 0.015507054 0.026560917 0.018008836 0.009157915

siam_layer.conv2.weight f4 [7, 14, 6, 6]
00000000: 0c0e 5bbc c0dc 2ebd 4bed 013c 8a44 6dbc
00000010: b8e2 c8bb b7cc 153c cf74 0cbd b6c0 bd3c
00000020: a001 d63b cb80 20bd 8b01 8cbc 328e d03c
00000030: 65d4 653c c393 33bd 483e bd3b 3a12 343d
00000040: 8460 3c3c e68c a33c a5d5 8fbc 0768 4bbc
00000050: 0faa b93c e7d7 223d 3f8a 093d 463e 153c
00000060: 7fb2 18bc 0523 95bc 7350 35bd 30f7 1e3c
00000070: 1d24 033d ec4a a03a 69bc 223d d99e bcbc
00000080: ec85 be3c 456a ed3c 9595 523c 07fd 18bc
00000090: fb3c 26bd ab98 053d 25dc a0bc e130 29bd
000000a0: 0f7e 203d 088f 2a3c f2e1 a1bc 412e 083d
000000b0: e416 b33c 3f6e 093d b6c1 ef3c b075 c6bc
000000c0: c9a7 f73c 1704 d2bc 85d3 0bbd 0eef 843c
000000d0: 7b72 0cbd 51ce dbbc ed4a 0a3c 6bdd 333c
000000e0: e2e0 07bd 28db c9bc a30a a6bc 6299 bcbb
000000f0: 1e92 143d 0ff0 d3bc ce75 c6bc 4f76 81bc
00000100: 43d8 943c 9656 b4bc 295e 36bd 910d 013c
00000110: 8c40 01bd 2779 d8bc a808 223d 015a 1c3d
00000120: 6b03 0bbd 1e64 04bc cc55 2cbc 1260 5f3c
00000130: 37e4 d53c 487a 9cbb 0388 763c 4ca9 be3a
00000140: b6b0 41bc e76e 873a 0e23 26bd ef98 3f3c
00000150: d77e 933c 8c47 3fbc 5017 113c 5043 34bd
00000160: b47e fcbb 80d1 77bc e90c 2abd ed21 84bc
00000170: b99f 60bc 80ff 8d3c 5e37 2c3c a019 0cbd
00000180: 9a1d 88bb 152d 1c3d e182 9b3c f333 64bc
00000190: 750a 263d 0cf4 803c cc2d 143d 202d 0b3d
000001a0: e3a3 f7ba 9c9a c83c 1e11 9f3c 5ee9 2abd
000001b0: 2a09 1d3d bce5 37bc a0d0 1abc 53d8 b6bc
000001c0: 787f 813c b8c6 31bd 06a5 17bd 7859 093d
000001d0: 00c2 283d a17e c83c 4315 55bc 6b2d 993c
000001e0: f43c c6bc 34d9 14bd 2e34 093d f946 04bc
000001f0: c835 c7bb 32dd f03b 73c0 c33c 26e7 763c
00000200: 815d 29bc a9fe 313c 018d 76bc ec57 7abb
00000210: c452 ce3c 5254 04bd 1f89 c6bc f70a ebbb
00000220: 433e a3bc 3c97 c9bb 61d0 043d 69b8 fcbc
00000230: 38fd d0bc 2ccf 763c 98a7 26bd 5689 85bc
00000240: 80ed cebc 25a2 edba 33ac c7bc eb8a 45b9
00000250: 754f 7c3c f718 63bb af54 c7bc 7120 97bc
00000260: 7616 1bbd 5c1d 9d3c c182 833c 5209 85bc
00000270: 298e 8abb 7811 a3bb 6040 0b3d e67e 27bb
00000280: 5721 9ebc e8d3 f13b ad9f 223d 9a34 cf3c
00000290: 8b94 f43c 4319 95bc 119e afbc f757 c23c
000002a0: 5bc9 72bc f2c2 5ebc 16fb 6e3c 4cce 2a3d
000002b0: f66f b1bc a7cd 24bd d0ed b13b dd71 adbc
000002c0: 1fe9 cabc c5e6 b83c f6c4 653b 4114 febc
000002d0: 679e 343d c367 b33c 70c3 eb3c 7131 6bbc
000002e0: a5b1 30bd ac73 fd3c a04b 02bd e99d 1fbd
000002f0: 59bf 163d 248d a7bb ad3a 543c 82a0 fcbc
00000300: 444f c43c b3b6 0c3c 7d2c 963c e0aa 013d
00000310: 6303 cdbb e9af 19bd 6acc 18bc 901f f1bc
00000320: 36f5 88bc b512 0cbd 2ad6 d43b 634f 0abd
00000330: ed76 f33b b115 ca3c b189 db3c d06b dfbc
00000340: 117c 103c 3411 123c 46cd 033d 76a6 eb3c
00000350: 86d8 0c3c 1340 ccbc 86cf e93c 56d7 903c
00000360: 815f fd3c 680d 2f3d 6f3c 32bd 3bae 21bb
00000370: 889d d23c 11e2 b63c 2624 533c 0428 b6bb
00000380: 01b6 363d cfbc e73c c133 ec3c 6f38 923c
00000390: 8c6a d2bc 9e40 23bc e9c2 153c 5a49 263b
000003a0: 4242 55bc 3a58 2b3d 2bb9 6abc cce7 133d
000003b0: 709c 18ba 4e2a 91bc b4bb a0bc 185c e03c
000003c0: 8749 a93c 90a5 bb3b 27c8 df3c 1b4d 003d
000003d0: 1eff 14bd c390 0a3d a736 d43b 71c8 3ebc
000003e0: 579a e1bc 7377 a93c 60fe 2a3d 41a2 d63c
000003f0: e8f1 1abd 23a6 743c 2055 1e3d 5191 1bbd
-0.013370048 -0.042690992 0.00793011 -0.014481673 -0.0061305426 0.009143046 -0.034291085 0.02316318
0.0065309554 -0.039185327 -0.01709058 0.025458429 0.01402769 -0.04384209 0.005775247 0.043962695
0.0114976205 0.019964647 -0.017557928 -0.012414939 0.022664098 0.03975668 0.033579107 0.009109085
-0.009319901 -0.018205175 -0.044266175 0.009702489 0.032016862 0.001222936 0.039730463 -0.023024963
0.023257218 0.028981337 0.012853046 -0.00933767 -0.0405855 0.0326163 -0.019636223 -0.04130638
0.03918272 0.010410078 -0.01976106 0.033247236 0.021861501 0.033552404 0.029267173 -0.02422604
0.030231373 -0.025636716 -0.034137268 0.016227271 -0.034288865 -0.026831778 0.008440715 0.010978083
-0.03317345 -0.024640635 -0.020268744 -0.0057555893 0.03627216 -0.025871305 -0.024226096 -0.015803484
0.018169528 -0.022013944 -0.044523392 0.00787677 -0.031555697 -0.026424957 0.039559036 0.038171772
-0.033938807 -0.00808051 -0.010518502 0.013633745 0.026109798 -0.0047753192 0.015047076 0.0014546304
-0.011821916 0.0010332734 -0.040560775 0.011694177 0.018004818 -0.011674773 0.008855656 -0.044009507
-0.007705534 -0.015125632 -0.04151622 -0.016129458 -0.013709956 0.017333746 0.010511247 -0.034204125
-0.0041539194 0.03812893 0.018983306 -0.013928401 0.040537316 0.01574137 0.036176488 0.03397858
-0.0018893447 0.024487786 0.019417342 -0.041726463 0.038338818 -0.011224207 -0.009449154 -0.022319948
0.015807852 -0.043402404 -0.037022613 0.03353259 0.041200638 0.024474444 -0.0130055575 0.018698415
-0.024198987 -0.036339954 0.033497028 -0.008073562 -0.0060794093 0.0073505873 0.023895478 0.0150697585
-0.0103372345 0.010863938 -0.015048266 -0.0038199378 0.02518595 -0.032306977 -0.024235306 -0.007172938
-0.01992715 -0.0061520617 0.032425288 -0.030849652 -0.02551137 0.015064042 -0.040687174 -0.016300838
-0.025259733 -0.0018129988 -0.024374103 -0.00018839135 0.015399803 -0.0034652331 -0.024332372 -0.018448086
-0.037863217 0.019179039 0.01605356 -0.016239796 -0.0042283726 -0.0049764477 0.03399694 -0.0025557815
-0.019303007 0.0073799975 0.03970306 0.025293637 0.029855987 -0.018200522 -0.021437677 0.023723586
-0.014818515 -0.013596283 0.014586231 0.041700646 -0.021659832 -0.040235188 0.005429961 -0.021172458
-0.024769364 0.022570977 0.0035060025 -0.031015517 0.044096377 0.021900063 0.028779715 -0.0143550495
-0.043138165 0.030938946 -0.031810403 -0.038968954 0.036803577 -0.005113261 0.0129534425 -0.030838255
0.023963578 0.008588481 0.01833176 0.0316571 -0.0062565072 -0.037521277 -0.00932608 -0.029433995
-0.016718488 -0.034197528 0.006495257 -0.033767115 0.0074299485 0.024668546 0.026799055 -0.027273089
0.008818642 0.008915234 0.032178186 0.028765898 0.008596545 -0.024932897 0.028541338 0.017680805
0.030929329 0.042737395 -0.043514665 -0.00246705 0.025709882 0.022324594 0.012887036 -0.0055589695
0.044607166 0.028288273 0.028833272 0.017849175 -0.025685571 -0.009964136 0.0091407085 0.002537331
-0.013016285 0.041832186 -0.014326374 0.03610973 -0.0005821651 -0.017720368 -0.019620754 0.027387664
0.020664943 0.0057265237 0.02731712 0.031323534 -0.03637611 0.03382946 0.0064762416 -0.011644469
-0.027539415 0.02068684 0.041746497 0.026200416 -0.037828356 0.014932188 0.0386554 -0.03798038

siam_layer.conv2.bias f4 [7]
00000000: d04a f73c e0be a33c 790c 93bc a68a 67bc
00000010: e790 22bd 8467 0a3d 53e2 b2bc
0.03018704 0.019988477 -0.017950283 -0.014132177 -0.03968897 0.033790126 -0.021836435

siam_layer.conv3.weight f4 [7, 14, 6, 6]
00000000: a7b3 213c f1d8 ca3c 7883 e8bc 03a6 f4bc
00000010: 70a9 cd3b 3531 983c 32c0 b33c 0cbe 2b3d
00000020: 1eea eebc 7317 a63c 0e3c 4d3c 8f23 2dbd
00000030: c11b 293d 8df4 e5bc e913 4dbb 5fdd a6bc
00000040: 36e1 25bd 0abe 2fbd be1b 7ebb 740b 53bc
00000050: cb78 5ebc 2757 823c 1cf0 e6bc 8dcf 0f3d
00000060: 70b0 f1bc 4dfa 783b ca9d 15bd 6c27 99bc
00000070: 9014 513c 7bec f23c 8f11 21bc edb5 863b
00000080: 2446 3e3c 904d d8bc a56f 2cbd 6ad4 e0bc
00000090: a045 68bc 4595 043d c9fa d63b 0ab4 633b
000000a0: b0ab ba3c bd16 3cb9 6976 9a3c 9f4b 193d
000000b0: 9579 f73c 438f 833c 99cc b2bc 9343 763a
000000c0: c13e 9dbb 64f1 343c 7498 2bbc 8692 03bd
000000d0: e937 ef3c 94d4 b93b 1792 bfbc 5b6b debc
000000e0: f547 c93c d015 c33c 7c62 2dbc e4b6 c4bc
000000f0: a761 b83b 08a4 f13c 7faf 173d ae8d 1ebd
00000100: 7b51 073d d446 03bb b3f7 c33c 7afb 19bd
00000110: 9a08 9fba dc84 e1bc 5440 173d 1add 62bb
00000120: d771 91bc 6bc5 2e3c fc5b 293d 2257 2cbd
00000130: 7e7f ccbc 1447 2bbd c49f da3c a2ad f5bc
00000140: b986 9fbc 0c1c 11bd f162 a03c 92d7 64bc
00000150: bc91 2dbd 3448 ba3c 8b65 17bd f25d 47ba
00000160: 8986 1e3d 7df9 13bd 7183 5a3c c1b9 c2bb
00000170: c47f a93c 3a26 21bd cc3e 323c 31a9 58bc
00000180: fc8e d5bb 9428 10bd 1339 c43c bbbc abbc
00000190: 364b ce3c c513 8abb 7bf6 3cbc b70a 26bd
000001a0: 0ad7 28bd e31b 09bd af5f 863a 4f60 28bd
000001b0: 8aff 273d 0f68 19bd 2fb8 57bc dc90 3d3c
000001c0: 6b22 1dbd 57c2 073c e9d8 dfbc 370c 3fbc
000001d0: 1cd8 793c 09fe 243d 72ce e63c 8c1e c73c
000001e0: c433 1bbd ac79 633c 6235 b53c 2109 31bd
000001f0: 3819 d2bb bb90 30bd e514 113d 5e37 dbbb
00000200: 750b 49bb dc59 a5bb f579 fabc 7af8 1b3d
00000210: a521 b73c e0fb 22bd 2593 c7bc 7b34 153d
00000220: 7248 d13c 1a45 2abc ce6f 77bc ddda 01bd
00000230: 398b 84bc 01bc dabb d38b b73c 57be 2fb9
00000240: e783 3b3c c64d c8bc 8e5e 6d3a f7ef 153d
00000250: 2d05 05bc d6f7 fa3c 1108 1e3d e6d7 e4bc
00000260: 793e 9b3c 500b 11bd 85fc 1f3d 7ad5 0abd
00000270: 6b77 77bc 6c3b 79bb 7605 27bd 2b9f 1b3d
00000280: 0384 efbc e737 083d 1580 b93c 8660 123c
00000290: cba2 b9bb da77 26bd b32b a6bc c611 00bd
000002a0: 3e88 21bd fb36 06bc 4996 df3b de80 663c
000002b0: 6340 e3bc c90a 123c 582d 06bc 715e 83bc
000002c0: ba38 2ebd 9f0b 84bb 6536 1cbd e2fd f1bc
000002d0: a374 343d fcc7 8b3b b679 72bc 671c bb3c
000002e0: d24a f2bc 351f 403c c309 70bc a2b9 ec3c
000002f0: 7b1d efbc 66a3 4a3c 58bf e03c bbc0 d73c
00000300: 0c5f aa3c e893 a9bb 729b 01bb 2cc3 30bd
00000310: 76ac 0a3d 445d 0fbc dd68 bc3c 0dd4 7abc
00000320: b75e 12bd 92b4 323c 1e0f fdbc 8873 5cbb
00000330: ce1d 18bd 7ce2 0b3c 5e86 9cbb fec9 443b
00000340: 4542 b3bc da08 ce3b 2709 83bc 0333 36bd
00000350: 9378 1abd 2776 d5bc 57d3 9b3c 2b64 adbc
00000360: 2b83 2c3d 913f 83bc 47aa 20bd 6355 c83b
00000370: d5bc 8c3a 637e f2bb 3c7d 12bd 6485 bbbc
00000380: 134f 9bbc 527e cfbb 3851 8bbc a373 623c
00000390: f97a 18bd 1109 04bd 50ff c0bb 7f44 c23c
000003a0: 76b3 063c 3a8d 133d 3ecc 23bd f969 a2bc
000003b0: 2eec 8a3c e76b 6cbc 3f43 9fbc daf7 c63c
000003c0: f7d2 d3bb f1dc 553c facc ae3c cdfc cbbc
000003d0: 833f 11bd 0ec6 c73c d558 093d 17fe c03c
000003e0: ac11 583c 0a53 2d3d 33b6 30bc 6394 95bb
000003f0: be63 3b3c e539 96bc d2f8 f9bc 7a5c 283d
0.009869493 0.024761649 -0.028383002 -0.029864317 0.006276302 0.018578151 0.021942232 0.04192929
-0.02916437 0.020274853 0.012526525 -0.04227024 0.041286234 -0.028070712 -0.0031292385 -0.02036923
-0.04049798 -0.042905845 -0.003877386 -0.012881149 -0.013578604 0.015910698 -0.028190665 0.035110045
-0.029503077 0.0037990988 -0.036527433 -0.018695556 0.01276125 0.029653778 -0.009830846 0.0041110427
0.0116134025 -0.026404172 -0.04209866 -0.027445037 -0.014176756 0.032368917 0.0065606576 0.0034744763
0.022786945 -0.00017937548 0.01885529 0.037425634 0.030209342 0.016059523 -0.021826075 0.00093942246
-0.0047987406 0.01104388 -0.010473359 -0.032122158 0.029201465 0.0056710932 -0.02338509 -0.0271508
0.024570445 0.023814112 -0.010582563 -0.02401299 0.0056268754 0.029497162 0.0370326 -0.038709335
0.03303669 -0.002003123 0.023921823 -0.037593342 -0.0012133301 -0.027529173 0.036926582 -0.003461665
-0.017754478 0.010667185 0.04134749 -0.042075284 -0.024963137 -0.041815832 0.02668751 -0.029990021
-0.01947342 -0.03542714 0.019578429 -0.013967412 -0.04237531 0.022739507 -0.036962073 -0.00076052465
0.03870252 -0.036126602 0.013337002 -0.0059425537 0.020690806 -0.039343096 0.01087923 -0.013223932
-0.006517289 -0.03519495 0.023952996 -0.020964017 0.025182348 -0.0042137825 -0.011533375 -0.040537562
-0.041220702 -0.03347386 0.0010251905 -0.041107472 0.041015185 -0.037452754 -0.013166471 0.011570182
-0.0383629 0.00828608 -0.02732511 -0.011660627 0.015249278 0.04028133 0.028174613 0.024306558
-0.037891164 0.013883989 0.022120181 -0.043221597 -0.0064116977 -0.043106776 0.035420317 -0.00668995
-0.0030676995 -0.0050461125 -0.030575732 0.038078763 0.02235491 -0.039790988 -0.024362156 0.036427002
0.02554724 -0.010392452 -0.01510234 -0.031702865 -0.016179668 -0.006675244 0.02240554 -0.00016760208
0.011445022 -0.024451148 0.0009054922 0.0366058 -0.00811891 0.030635756 0.03858191 -0.02793498
0.018950688 -0.03541118 0.03905918 -0.033894993 -0.015104155 -0.0038029803 -0.040776692 0.03799359
-0.029237753 0.033256438 0.022644082 0.008934146 -0.0056651584 -0.040641643 -0.02028451 -0.03126695
-0.03943657 -0.008191819 0.0068233353 0.01406881 -0.027740663 0.008913704 -0.008189522 -0.016036244
-0.042534567 -0.0040297057 -0.038137812 -0.029540006 0.044056546 0.0042657834 -0.014799526 0.022840692
-0.029576693 0.01172619 -0.014650765 0.02889711 -0.029188862 0.012368059 0.02743499 0.026337018
0.020797275 -0.0051751025 -0.001977649 -0.04315488 0.033855878 -0.008750264 0.022999221 -0.015309346
-0.03573486 0.010907309 -0.030890997 -0.0033638198 -0.0371378 0.008537885 -0.00477676 0.0030027623
-0.021882186 0.0062876763 -0.015995575 -0.044482242 -0.037712645 -0.026057316 0.019021673 -0.021165928
0.04211728 -0.016021522 -0.03922489 0.0061136945 0.0010737429 -0.0074003204 -0.035763964 -0.022890754
-0.018958604 -0.006332197 -0.017006502 0.013821515 -0.03722665 -0.03223521 -0.0058898106 0.023714302
0.008221498 0.036023356 -0.039989702 -0.019825922 0.016958322 -0.014430023 -0.019441245 0.024288107
-0.006464358 0.013053165 0.021337975 -0.024900818 -0.03546096 0.024386432 0.033531982 0.02355866
0.013187807 0.04231552 -0.010785627 -0.004564808 0.011437355 -0.018338153 -0.030514155 0.041103818

siam_layer.conv3.bias f4 [7]
00000000: 4c63 023d b466 ac3c d0bb c23c a066 c4ba
00000010: 407f fd3a e0a8 143d a838 523c
0.031832978 0.021045066 0.023771197 -0.0014984198 0.0019340292 0.036293864 0.012830891

siam_layer.conv4.weight f4 [3, 14, 6, 6]
00000000: 77c6 b2bb ca6d 45ba 5df3 0f3d 183d afbc
00000010: d595 003d 38af d339 86f8 dabb 70eb 23bb
00000020: c546 10bb 0bea dcbc 78de da3c b778 e9bc
00000030: eb64 b6bc 9ac3 c03c a27f df3c 3fe8 0a3c
00000040: 0942 ddbc f38c 8bbc 004e 4d3b ab09 9f3c
00000050: 09c6 0d3d ba1d b0bc d4c1 16bd 1f42 c93b
00000060: f5dc 5a3c 3895 023d 1839 f73c d1e1 103c
00000070: 9df5 173b 7c08 3f3b 820b 523c 57a6 bdbc
00000080: 073a adbc dd46 fd3c 2dce 563b f669 70bc
00000090: c224 c1bc 9730 033d d391 cabb 4700 2abd
000000a0: a287 963c 6e36 173d 7ab8 fdbc 25cf 333c
000000b0: 1fd7 5a3c e8b5 cd3c a701 d23c e21e 97bc
000000c0: 48ea eebc 1657 ad3c a2ba 363d 0845 d6bc
000000d0: 1ffa 0e3d dcec 373d a9b0 acbc 46a8 bfbb
000000e0: f576 0b3b 0ffb f9bc e49d b33b 0a6a 053d
000000f0: 309e e539 5167 933c 8cba 3a3b 54ad bfbb
00000100: ee1b 333c c811 2cbd db1b 66bc 6780 ea3c
00000110: 01b7 49bb fe3f a6bc ba09 7e3c 3a2a 993b
00000120: a574 18bc 6075 bfbc e4fb 86bc 82b3 1f3c
00000130: 1eee 993b 7344 2cbc 365a 223d 84d4 96bc
00000140: 5a5e 04bd 4b85 2abd e7d9 babc e21b 0fbc
00000150: 8e10 983c c708 24bd 66d9 19bd a093 c6bc
00000160: 3638 b53c 89c6 cdbc efca 8a3c f032 863c
00000170: bbd4 65bc 32e1 cabc c398 533c ec35 0ebd
00000180: 2efc 29bd a71a 2bbd c5f2 273d 9d2d 65bc
00000190: c54e b0bc ef4e 55bc 3c73 13bd 4f1d 21bd
000001a0: 883e 4cbc e497 d43c f194 3bbc b996 1a3d
000001b0: d34d abbb dfd9 48bc 69f4 17bd 51a5 343d
000001c0: 112e 543c 9e98 363d 270e 643c 28bc 0b3d
000001d0: 86d3 f2ba c027 103d 2193 6b3a c73f 0a3d
000001e0: 6957 d93c 0dc6 b03c 0cd6 9b39 0a28 ce3c
000001f0: 1a47 c8bc 4fdb 1cbc 5084 cf3c da0d 743c
00000200: a70a 9b3c 823a ccbc b389 1abb df00 943b
00000210: 631d 0abc 7d56 b6bc 2733 443b e97b bdbc
00000220: 04e6 dcbc 19af 213d b458 d83c cea9 76bc
00000230: ffa5 ff3c 3f8b 88ba a296 093d 749a 57bc
00000240: 942c bc3a 0fa8 e0bc 2e56 313d 697a 67bc
00000250: f803 973c fa31 e4bc 6b2f 0bbd 90e7 d3bb
00000260: 8f69 edbc 98b3 6c3b 50b5 963c 55f5 d53c
00000270: 71df 1d3c 027d db3c a2f0 223d 5331 ef3c
00000280: df06 1a3d 011d 833b 7979 2bbb 83b5 ae3c
00000290: 5ca9 71bc 4dc6 2abd 0d9a 7f3c 4d17 b23b
000002a0: 1fef d7bc 121a ea3c 3d0c 453c b6d8 2a3c
000002b0: 1695 33bd a95e d93c 7d9f 113c 3f75 77bc
000002c0: 602d fdbc fcdd 6dbc 65e9 f1bc 2750 afbb
000002d0: e4f0 813c 39bc 58bc 44b5 fb3c ab5f 413c
000002e0: e7d8 173d 0fd6 973c bf75 31bb 160b 013d
000002f0: c9bf 173d 2b11 8abb 8753 15bd 98cd 5ebb
00000300: aec2 533c 08a2 cebc ffe7 16bd 76db 51bc
00000310: 5d06 803c 926c 183d 9f6a c13c 88aa cbbb
00000320: 38a8 303d 54b7 9ebb cac1 6dbc 2f68 31bc
00000330: 7021 2bbc ae27 323d f270 82bc ec16 99bc
00000340: 2842 ad3c bb11 0e3d a078 113d f788 28bd
00000350: 8adf a4bc 9d5a ad3b de2e a03c cb13 02bd
00000360: 6484 78bc 1205 313d 0777 aa3b de46 9abc
00000370: ee7d 1abb c87f 58bc 88e0 1bbc ef33 0d3d
00000380: bbeb 243c a9a9 ba3c 7646 89bc 0ff0 863c
00000390: ba72 9c3c 90e0 d13c 07f4 0e3d 4934 2ebc
000003a0: e8ab ce3c 7778 8bbb 3f48 ad3c bd5f 10bd
000003b0: dd1b 103c e019 2a3c 579b 283d 6197 8d3c
000003c0: f361 013c 7d18 be3c 5c1d 0ebd 31f5 59bc
000003d0: b246 ed3c d854 29bd 1015 cb3c 67d5 183c
000003e0: 90ef 12bd a956 a63c ac41 e43c 25a2 103d
000003f0: d496 3b3c b674 22bd 94cb cfbb 0269 153d
-0.0054557878 -0.00075313135 0.0351442 -0.021391436 0.03139289 0.00040375604 -0.0066824583 -0.0025012158
-0.0022014838 -0.02696707 0.02671741 -0.028499944 -0.022264918 0.02353077 0.02728254 0.008478223
-0.027009027 -0.017034983 0.003132701 0.01941379 0.03461269 -0.02149855 -0.036805943 0.0061419155
0.013358344 0.031880587 0.030178592 0.008842901 0.0023187168 0.0029149344 0.0128201265 -0.023150606
-0.021145834 0.03091758 0.00327767 -0.014673701 -0.023577098 0.03202876 -0.0061819344 -0.04150417
0.018375222 0.036917143 -0.030971754 0.01097468 0.013356953 0.025111154 0.025635554 -0.018447343
-0.029164448 0.02115969 0.04461158 -0.026155964 0.034906503 0.04490362 -0.021080332 -0.005848917
0.002128062 -0.030515222 0.0054814685 0.03257183 0.00043796143 0.017993601 0.0028492538 -0.0058495197
0.010931952 -0.042009145 -0.014044727 0.02862568 -0.0030779245 -0.020294186 0.015505249 0.0046742233
-0.009305154 -0.023371398 -0.016477533 0.009747388 0.0046975752 -0.010514366 0.039636813 -0.018411882
-0.032316543 -0.041631024 -0.022808982 -0.008734675 0.018562581 -0.040047433 -0.037560843 -0.024240315
0.02212153 -0.025119083 0.01694247 0.01638171 -0.01402777 -0.024765585 0.012914839 -0.034719393
-0.041500263 -0.041773465 0.041003007 -0.013987926 -0.021521935 -0.0130193075 -0.035998568 -0.03933459
-0.0124660805 0.025951333 -0.011449085 0.037741397 -0.005227783 -0.012258976 -0.037098322 0.04410297
0.012950436 0.04457914 0.01391939 0.034114987 -0.0018526174 0.03519416 0.00089864625 0.03375223
0.026530938 0.021578813 0.0002972338 0.025165576 -0.024447966 -0.009573772 0.025331646 0.014895881
0.018925978 -0.024930242 -0.002358061 0.0045167054 -0.008429858 -0.022258038 0.0029937716 -0.023130374
-0.026965149 0.039473627 0.026409484 -0.015055133 0.031207083 -0.0010417475 0.03359092 -0.013159383
0.0014356547 -0.027423887 0.043295078 -0.014128306 0.01843451 -0.027855862 -0.03398077 -0.0064668134
-0.028980998 0.0036117788 0.018397003 0.02611796 0.009635792 0.026793007 0.039780267 0.029198324
0.03760421 0.0040012603 -0.0026164933 0.021326786 -0.014749851 -0.04169302 0.015600693 0.0054349066
-0.026359139 0.028576884 0.012026844 0.0104276445 -0.04384335 0.026534395 0.008888123 -0.015103637
-0.030905426 -0.014518257 -0.029530236 -0.005350131 0.015861936 -0.0132284695 0.030726083 0.011802594
0.03707209 0.018534688 -0.0027078239 0.031504713 0.037048135 -0.0042134724 -0.03645661 -0.0033997055
0.012924833 -0.025223747 -0.036842342 -0.012808671 0.015628034 0.037212916 0.023610411 -0.0062153973
0.043129176 -0.0048436318 -0.014511535 -0.010828062 -0.010444984 0.043494873 -0.015922997 -0.018687688
0.02114971 0.034684878 0.035515428 -0.041146245 -0.020126123 0.005290343 0.019553598 -0.031757157
-0.015168283 0.043217726 0.0052021774 -0.01883262 -0.0023573595 -0.013214059 -0.009513982 0.034473356
0.010065968 0.022785978 -0.016757231 0.01647189 0.019097675 0.025619775 0.03490069 -0.010632583
0.025228456 -0.004256304 0.021152614 -0.035247553 0.008795706 0.010382146 0.04116377 0.017284097
0.007896888 0.023205036 -0.034695968 -0.013303087 0.028964374 -0.04134068 0.024790317 0.009328223
-0.035872996 0.020304995 0.027863346 0.035310883 0.011449534 -0.039662085 -0.006341407 0.036477096

siam_layer.conv4.bias f4 [3]
00000000: e21a 94bc c4b3 c03c 7eaa 10bd
-0.018079225 0.023523219 -0.035318844

siam_layer.conv5.weight f4 [1, 3, 6, 6]
00000000: d372 b3bd 65c8 37bd 4c7a 1a3c d8c0 a13d
00000010: fc39 23bc a35e 6c3d 5e36 803d 9ef2 c43c
00000020: e19c 72bd b1d4 13bd 4b00 b8bd eb6f 993d
00000030: 97c3 b8bd ac20 883c ea36 8dbd 94c9 503d
00000040: 030d 953d d9b2 c7bc ac40 6cbc 4d46 06bd
00000050: 3f79 9bbc 13f5 c3bd 7485 6fbd bef3 2abd
00000060: fbec 9a3c 8f8a 643d 797f 163d 7f32 363c
00000070: 4cb5 a2bd 519b c4bc ed0f 45bd 821b fabc
00000080: 4374 e23c 7339 88bd b088 8a3d ef5f 503d
00000090: a73a 493d 5b33 86bd d9c2 c3bc 7de7 0bbd
000000a0: 6ed2 e53c 2d2f aebb c82f 9bbc c99d 0fbb
000000b0: 3572 7c39 e95a ea3c 1e40 a4bc e227 c5bc
000000c0: 7c3f 963d b490 b13d 6401 9d3c 0e28 b03d
000000d0: b59b a1bd 1aca bf3d 4e25 a1bd a254 80bd
000000e0: 22cb fdbb 10f3 95bd ea13 1ebd a49f 53bd
000000f0: d4a4 a5bd ea14 7c3d 5bee 9f3d aec6 923b
00000100: 74eb d13c 7e00 adbc 1914 25bd 5d6f 52bc
00000110: 9143 8a3d 414c bc3d 4cea 623c 9f9d d1bb
00000120: 4afd b83d bfbb e93b d0ac c5bd d836 6fbd
00000130: b194 39bc 965a bdbc 4438 b63d 6413 5dbd
00000140: 3d6e a33c 3d7e 33bc 6b21 7f3d 7819 493d
00000150: 222d 713c 33f0 babc d299 5bbd f1e7 bbbd
00000160: 5a3a 483d 15f7 143d 048f 203d b140 d43c
00000170: 2c7a a43d 94ff f53c 22da 1c3c 38a1 24bd
00000180: 6665 833d 503d 7ebd 8fbc b33c e25c ef3c
00000190: 2762 a7bb 0c57 9e3d ea37 493d 5bfe acbd
000001a0: 2162 0ebd 867a 1ebd 7a63 303d f8ce 093c
-0.08762135 -0.044868845 0.009428572 0.0789811 -0.009962555 0.05770744 0.0626037 0.02404147
-0.059231643 -0.03609151 -0.08984431 0.0749205 -0.09021681 0.016617142 -0.0689524 0.05097349
0.072778724 -0.024377273 -0.014419716 -0.032781888 -0.018978713 -0.095682286 -0.05847688 -0.041736357
0.01891183 0.055796202 0.03674266 0.011120438 -0.07944736 -0.023999842 -0.04811089 -0.030530695
0.027643329 -0.066515826 0.06764352 0.05087274 0.0491282 -0.06552764 -0.023896622 -0.03415631
0.028054442 -0.0053156824 -0.018943682 -0.0021914116 0.00024075138 0.028607802 -0.020050105 -0.02406687
0.073363274 0.08670178 0.019165702 0.0860139 -0.07891027 0.0936472 -0.078684434 -0.062661424
-0.0077451626 -0.07321751 -0.03859321 -0.051665917 -0.08088079 0.061543383 0.078091346 0.004479251
0.025624968 -0.021118399 -0.04030237 -0.012843934 0.067511685 0.09194232 0.013849806 -0.0063969637
0.09032686 0.007132977 -0.09652102 -0.058401912 -0.011326955 -0.023114484 0.088974506 -0.05397357
0.019950027 -0.0109553905 0.06228773 0.049096555 0.014720233 -0.022819614 -0.05361349 -0.09175099
0.048883773 0.03636845 0.03919889 0.025909754 0.08031115 0.030029096 0.009573491 -0.040192813
0.064158246 -0.06207019 0.021940498 0.029219095 -0.005108136 0.077314466 0.04912559 -0.08446952
-0.03476155 -0.038691066 0.04306362 0.008411162

siam_layer.conv6.weight f4 [1, 3, 6, 6]
00000000: 34ef 30bc 3c92 16bc 0b91 713d 5768 b5bc
00000010: b40a 8d3d b50c a7bd 3239 a03d 7d1e f43c
00000020: 7e08 283d 5c9d 7dbd a71b bcbd d129 c4bd
00000030: 225c 31bc 608b bf3d 06cb c03d 728a f23b
00000040: d4ff ba3d ef4d b7bd a3fa 70bb 71c2 933d
00000050: 5f57 003d c08f b93d 43ef d33c ce3b c3bd
00000060: 50ab b1bd b4c1 4b3c 5c16 54bd 7295 833c
00000070: c7e3 fd3c a8cf bb3d 7006 b63c afe5 8d3b
00000080: 7fde a4bd 6d66 b73d da98 623d fcf5 42bd
00000090: 9bbb 96bd 2b78 67bd 0609 f23a 3147 fbbc
000000a0: dea1 07bd bc8f acbd a353 30bd 0aee 22bd
000000b0: 23ea 683d 324f 463d 6eea 323d 9742 c8bb
000000c0: 8d31 9dbd e461 c7b9 43d1 673d 9ebd 023d
000000d0: 313c 243d 8e4d 873d 19b5 99bc 878d a0bc
000000e0: de69 48bc 8d64 8dbc 199d 49bd fd3a 6ebd
000000f0: 1bba 9c3d 3f96 633d c33f 8abd b22b 383c
00000100: 2681 46bd 009c e4bb b48a 9ebd 8a98 9ebd
00000110: b84d ad3d 3a1a 4e3d ee68 803d 535c 0d3d
00000120: f9e1 96bd fced 1fbd 082a 513d 8ac5 4cbc
00000130: ddc8 97bd e571 c3bd 6de3 c4bd 329c 35bd
00000140: 3b84 373d 6115 b13d e549 4a3d 8957 65bd
00000150: a4ad 31bd ef32 893c 7ef9 c1bd 890f b0bd
00000160: 472e 97bd eb09 e33c 0d94 01bd ef9c 1dbd
00000170: 9101 9b3d 6c01 6c3d acbd f23c 07b9 5dbd
00000180: efd3 f9bc fd3f 3b3b 5ac5 4fbd d561 51bd
00000190: c8c0 c3bd 1aad 78bd 0e0e b9bd 4fa4 743d
000001a0: e1f2 3e3c 1e34 d5bc f5e4 a23d 9407 22bd
-0.010799218 -0.009190138 0.058976214 -0.02214448 0.06886807 -0.081567205 0.07823409 0.029799694
0.041023724 -0.061917648 -0.09184962 -0.09578288 -0.010825189 0.093527555 0.09413724 0.007401758
0.091308266 -0.089504115 -0.0036770485 0.07214821 0.031333324 0.09060621 0.025870925 -0.09532891
-0.086752534 0.012436319 -0.051779136 0.016062472 0.030992402 0.09170467 0.022219867 0.004330359
-0.0805025 0.08955083 0.05532155 -0.04759787 -0.07360002 -0.056511085 0.0018465824 -0.030673595
-0.033113353 -0.08425853 -0.043048512 -0.039777793 0.056863915 0.04841537 0.0436806 -0.0061114538
-0.07675467 -0.00038029172 0.056596052 0.031919114 0.040096465 0.06606589 -0.018763112 -0.019598735
-0.012232272 -0.01725986 -0.049222086 -0.058161724 0.07652684 0.055563208 -0.06750443 0.0112408865
-0.04846301 -0.0069766045 -0.07741299 -0.07743938 0.08462089 0.05031798 0.06270014 0.034511875
-0.073673196 -0.03904532 0.051065475 -0.012498269 -0.074113585 -0.09543208 -0.096136905 -0.044338413
0.04480384 0.08646656 0.049386878 -0.055991683 -0.043378487 0.01674792 -0.09471415 -0.08596713
-0.073818736 0.02771469 -0.031635333 -0.03847974 0.07568658 0.057618544 0.029631458 -0.054131534
-0.030496566 0.0028572076 -0.05072532 -0.05111869 -0.095582545 -0.060711958 -0.09035884 0.05972701
0.0116545865 -0.026025828 0.07953826 -0.03955801

siam_layer.conv7.weight f4 [1, 2, 6, 6]
00000000: ae4d ed3c db36 823d 0a68 abbd 174f e13d
00000010: 767a 523c a397 a43d 5b80 0c3d ea56 cfbd
00000020: ec3e a4bd bbed 93bd 3d23 c13d 6c84 97ba
00000030: e5db 61bd ce60 d13a 6771 e4bd 3a15 ba3d
00000040: 3a04 e5bd d4b1 1abc 9d72 2bbd cc14 adbc
00000050: da7d e4bd cca5 8e3c 9edf e43d 3556 c8bc
00000060: 0398 be3c 4fdb 823c 7da2 ac3d aa48 81bc
00000070: 64ab dc3d 8c4a 7738 0c60 b8bd d518 f03c
00000080: 1410 d23b b1cd c2bc 13bd c3bd 4d78 3f3d
00000090: a184 ba3d 13a2 10bd d753 dbbd 2e84 85bd
000000a0: f1f2 253d 365e b73d 3eb4 683d c3ef 863d
000000b0: 075c 83bd f7ac 8cbd cadb e13d 189f c9bd
000000c0: 5739 dbbd d90f 0f3c f77b c2bd 2fb6 eebb
000000d0: 93db 103d ce7e b8bd 4be5 4fbd e4f5 ea3d
000000e0: 01cb e6bd d4de bfbd d797 bcbd b449 97bc
000000f0: 3ba5 e53c bd68 e23c 8fd4 cc3d 12ca 083d
00000100: d5dd c9bd ad92 103d 45b9 e9bd 96e8 9abd
00000110: 171f 7dbc 94d8 8d3d 04d8 cb3c 333f da3d
0.028967705 0.06358119 -0.08369453 0.11001413 0.01284658 0.08036735 0.034302097 -0.101239994
-0.08019814 -0.07223078 0.09430549 -0.001155985 -0.05514135 0.0015974285 -0.11154442 0.0908608
-0.11182447 -0.009441812 -0.04185735 -0.02112808 -0.11156817 0.017413042 0.11175464 -0.02445517
0.023265844 0.015973715 0.0842943 -0.01578172 0.10774878 5.8958816e-05 -0.090026945 0.029308716
0.006410608 -0.023779722 -0.095575474 0.046745587 0.09107328 -0.035310816 -0.107093506 -0.06519352
0.04051489 0.08953516 0.056812517 0.065887 -0.06414037 -0.06868928 0.110282496 -0.09844798
-0.10704296 0.008731806 -0.09496301 -0.0072849016 0.035365652 -0.09008561 -0.05075578 0.11472681
-0.11269189 -0.09368673 -0.09208649 -0.018467762 0.02803289 0.027637834 0.1000148 0.033395834
-0.09856764 0.03529613 -0.114122905 -0.075638935 -0.015449307 0.069260746 0.024883278 0.106565855

dense.weight f4 [1, 308]
00000000: aa0c 09bd e09d 233d 8862 14bd d45a 473d
00000010: 4c00 85bc 0647 913c e6b4 433c 7dcd d7bb
00000020: 7ee7 133b 9fb1 43bb 6744 3fbd dc6f bebc
00000030: c354 babb 56e2 b73c bea8 24bd 803c 0dbd
00000040: f080 02bd d488 ccb9 0572 a13c b487 2c3c
00000050: 58a6 22bd 17c8 053d 50a3 7c3c 941d 1f3d
00000060: 90d5 1ebd 1a66 57ba e305 7dbb 5310 d83c
00000070: 56c1 bdbc fff8 1f3d d306 c83c be35 963c
00000080: 9e01 dfbc ee33 33bc aab6 85bc 034f 0ebd
00000090: c017 09bd e2fd 103b 47b0 b23c 03d1 203c
000000a0: f560 46bc 27b2 0c3b 8969 9c3c 1bed 9ebc
000000b0: ef61 44bd 2395 51bd 1658 6739 2cb2 5a3b
000000c0: ec6a 203b 5f34 fe3c 2332 423d f757 53bd
000000d0: a8d6 8fbc 3b80 36bb fa4b 29bd 4039 b53b
000000e0: 3d7c 4fbd d6b1 41bd 6ab4 ed3c 6237 613d
000000f0: 8680 4d3d f06a 38bd 881f e33b 223e 303d
00000100: 09df 003c 1f1c 243d cb48 513d fb1b 183d
00000110: 0019 1ebd 35a1 32bc 7d88 cd3c a92c 023c
00000120: 8a05 aabc 69fe fabb acd2 5abc 9013 5f3d
00000130: 4e60 0cbd 3c7d 2d3d c3dd 44bd 449d 233d
00000140: 2a84 e3bc 7dbd 8f3a e660 6fbc bb89 b33b
00000150: 8ade 25bc 4533 903c 81eb 32bd b2e9 6abc
00000160: 849b 8bbc 551c 5bbd 4869 033c 4582 083d
00000170: b2cb 1cbc f8cc 0abd 4b43 53bd 2167 ee3c
00000180: f522 61bd 70c3 c43b e527 05bd 8d1e 593d
00000190: 82b3 953c 3387 1e3d d503 313d cebf d5bc
000001a0: 48a4 06bd 90f8 01bb 2ac9 d8bb 140d 4fbd
000001b0: c493 ac3c d340 40bd 17f1 a13c 8386 96bc
000001c0: c020 fe3b 3699 0abd f7f1 5a3c b6e7 913b
000001d0: fe89 95bc 8466 123d dc0e 003d c9bd 06b8
000001e0: 160b 26bd 75ea 46bd 8605 723b 91e1 1f3d
000001f0: dd9d ccbc aa6a d3bc 9996 5abd 420f 52bd
00000200: 8588 4dbc f23c b53b 5248 133b fdd1 60bc
00000210: fb92 d4bc 6f4c 53bd 52e9 383d 2df1 36bd
00000220: fcfe 053d 65b6 d83c 9346 1b3c ce7b 2abd
00000230: 2eed 09bd 69f3 d23c 7e90 51bd 820c ad3c
00000240: b257 e7b9 8aa9 1fbd 39e9 1bbc 2f09 f63c
00000250: 109e 54bd 6754 7f3c 839c a53a ccb0 45bd
00000260: 0865 dfbc 8b67 c23c 1cb5 893c 835f 943b
00000270: afbf 653b 4437 633d 155f e13c a99d 383d
00000280: 6093 283d 93bd 533d d4aa 60bd 9cef 33bc
00000290: ad2d 1e3d 8550 0e3d 4aba 18bc 0d98 583d
000002a0: 2147 283d c503 9ebc 9b8a 4fbd 3d01 b13c
000002b0: 086d 053d 8f3e edb9 904a 5f3d cf13 65bc
000002c0: 4b87 9bbc 461d 473d 17aa f83c b9a2 303d
000002d0: 6fd1 56bd 09c1 273d cd0b 5abc 6c28 38bd
000002e0: 0a9a 2d3d e7d1 fc3c 6a17 1a3d 96d2 b13b
000002f0: b293 d13b d4f7 0f3d df00 d4bc dfda afbc
00000300: b7a0 893b d63e afbb 2994 8e3c cb74 ca3a
00000310: 5c88 203d e1b1 35bc f0f0 533d e154 633d
00000320: 64a6 c8bb 99de c53c 18ac 653c 30b1 0d3d
00000330: c6e4 f7bc cdb0 183d 0a7e 353d 5c14 91bc
00000340: 426c fa3c 17ce 80bc b7ec 1dbd a5c7 1d3d
00000350: a4a4 b6bc e5b5 0f3d 847f 17bd 7666 d63c
00000360: ee8e d1bc 5b42 583d 4be7 22bd d03d d3bc
00000370: 9345 433d e088 9c3c f9ab f03c 638f b73c
00000380: 4668 00bd 09d2 643c cead 3b3d d212 8c3c
00000390: 0b10 273b 1acf 12bd d7d3 5b3d 2bcd e03c
000003a0: 3eba 0bbc 4ab3 babc caa9 5e3d c5e4 bfbc
000003b0: 1660 aebc 755f 0b3d 3758 65bd 1b6d 32bc
000003c0: a03c 1f3d 2417 05bd f345 d43c 650c e8bc
000003d0: 9baf ef3c 48a4 41bd 2e90 8b3c a5ca 1f3d
000003e0: b5e1 00bc 841d 843c ad71 af3c efd6 bf3c
000003f0: 691a 073d 1171 34bd 849e 48bd 95e3 55bc
-0.033459343 0.039945483 -0.03622678 0.048670605 -0.016235493 0.017734062 0.011944985 -0.0065857754
0.00225684 -0.002986051 -0.046696093 -0.023246698 -0.005686374 0.022446793 -0.040199988 -0.034481525
-0.031861246 -0.00039011857 0.019707689 0.010530401 -0.03970942 0.032661524 0.015419796 0.038846567
-0.038777888 -0.00082168134 -0.0038608245 0.026374971 -0.023163479 0.03905582 0.024417317 0.018336173
-0.02722245 -0.010937674 -0.016322453 -0.03474332 -0.033469915 0.0022123982 0.021812571 0.009815457
-0.012108077 0.0021468492 0.019093292 -0.01940017 -0.04794496 -0.05116762 0.00022062691 0.003337036
0.0024477793 0.031030832 0.047411095 -0.05159756 -0.01755841 -0.0027847427 -0.041332223 0.0055305064
-0.050655592 -0.04728874 0.029016692 0.054984458 0.050171398 -0.04502386 0.006931249 0.043028004
0.007865676 0.04006588 0.05109481 0.03713606 -0.03859806 -0.010902693 0.025089497 0.007945218
-0.020754594 -0.0076597226 -0.013355892 0.054462016 -0.03427153 0.04235576 -0.04806305 0.039944902
-0.027772982 0.0010966506 -0.014610505 0.0054790652 -0.010123858 0.017602572 -0.043681625 -0.014337944
-0.017041929 -0.053493816 0.0080207065 0.03332736 -0.009570049 -0.03388688 -0.051577847 0.02910191
-0.05496498 0.0060047433 -0.03250875 0.05300765 0.018274073 0.038703155 0.043216545 -0.026092436
-0.032871515 -0.0019831993 -0.0066157775 -0.05054958 0.021066554 -0.04693682 0.01976828 -0.018374687
0.007755369 -0.03383752 0.013363353 0.004452671 -0.018254276 0.035742298 0.03126417 -3.212484e-05
-0.040537916 -0.04856344 0.0036929562 0.039033476 -0.024977619 -0.025807697 -0.053366277 -0.051284082
-0.012544756 0.005530947 0.0022473526 -0.01372194 -0.025948992 -0.051586565 0.045144387 -0.044663597
0.032713875 0.02645416 0.009477275 -0.041621976 -0.033673458 0.025750833 -0.05116319 0.021124128
-0.00044125092 -0.038980044 -0.009516054 0.030033676 -0.051908553 0.015584088 0.0012635145 -0.04826431
-0.027269855 0.023731014 0.016809992 0.0045279874 0.003505688 0.055472627 0.027511159 0.04507223
0.041156173 0.051694464 -0.054850414 -0.01098242 0.03861778 0.03474476 -0.0093217585 0.052879382
0.04108346 -0.019288907 -0.050669294 0.021607036 0.032574683 -0.00045250772 0.054514468 -0.0139817735
-0.018985411 0.0486119 0.030354543 0.043123934 -0.052445825 0.040955577 -0.013308478 -0.044960424
0.04238323 0.030861808 0.037619986 0.005426715 0.0063957805 0.035148457 -0.025879322 -0.02146667
0.004200067 -0.005348067 0.017404633 0.0015446184 0.039192542 -0.011089773 0.051743448 0.05550087
-0.006123351 0.024153994 0.014018081 0.034592807 -0.030260455 0.037277985 0.044309653 -0.017709903
0.0305692 -0.015723271 -0.038555827 0.038520474 -0.022295304 0.035085578 -0.036986843 0.026171904
-0.02558085 0.052797657 -0.03977136 -0.02578631 0.047673773 0.019108236 0.029378878 0.02240724
-0.031349443 0.013966092 0.04582005 0.017098818 0.002549174 -0.03584204 0.053668823 0.027441582
-0.00852829 -0.02279057 0.054361142 -0.023424516 -0.021286052 0.03402658 -0.05599233 -0.010890271
0.038876176 -0.03249277 0.02591226 -0.028326223 0.02925854 -0.04727581 0.017036524 0.039011616
-0.007866313 0.016127355 0.02141651 0.023417918 0.03298417 -0.04405314 -0.048979297 -0.013054748
