siamese-classifier/siam_v3_55.pth (torch, 104363 bytes, 12 tensors)

siam_layer.conv1.weight f4 [14, 31, 6, 6]
-0.0012700695 -0.014587446 0.005009571 -0.0023375233 0.02676605 0.001144846 0.005320461 -0.01301489
-0.019216122 -0.02950737 -0.024808003 0.026033444 -0.02667763 -0.0055707674 0.0027776205 0.0075858906
-0.0010136048 -0.018182844 -0.023903104 0.0049509485 0.004527978 0.0012810704 0.018238362 0.025170896
-0.014778249 -0.016273424 -0.024302311 -0.0022616475 0.024839552 0.025692517 0.027796177 0.019682812
-0.019051408 0.01803353 0.012778164 -0.0098761255 -0.0023429808 0.020398738 -0.016948583 0.0025020381
0.014159374 -0.0033733267 0.02382896 0.0024206073 -0.005371997 -0.0019381421 0.019062035 -0.024185969
0.0034871786 0.025216011 -0.015023546 0.010339478 0.020231143 -0.012228851 -0.021612927 -0.025878137
-0.002326928 0.020990383 -0.009784545 0.018406762 0.012879098 0.0109133655 -0.0064187646 0.016774919
-0.028903268 -0.025500854 0.028343555 -0.021932973 -0.02877137 0.02127192 -0.015528943 -0.026605893
-0.022773655 0.012245841 -0.022139877 0.027721763 -0.004012869 -0.024557635 -0.02733219 0.019558439
0.018878363 -0.010160366 -0.0013515755 -0.008293358 0.007915906 0.015617198 0.021506572 0.015301541
0.006570889 -0.01896972 -0.028519481 0.024255194 0.014631366 0.012098816 -0.027851626 -0.0027358208
-0.005326088 -0.01909455 -0.024506396 -0.02522522 0.019412365 -0.023574568 -0.012539738 0.00641927
-0.02688986 -0.020402895 -0.007983193 -0.017343668 -0.015205558 0.0008304227 0.028639775 0.0040284055
-0.027019583 -0.01713837 0.022474416 0.016215278 -0.01846444 0.0013342326 -0.029855793 -0.026207024
-0.017521573 -0.012191424 -0.02963662 0.002103946 -0.026727457 0.0021020083 -0.0077313576 -0.026665747
-0.016591862 0.0095911035 0.007434705 0.0078859525 -0.02974006 0.00836428 -0.026061105 -0.020623114
-0.009910694 -0.0012598381 0.013940642 0.023852112 0.018106585 0.012237133 -0.013523234 -0.01393313
-0.007968899 -0.0040765386 -0.015459613 -0.025159823 -0.015907189 0.011018215 0.015487351 0.017827615
-0.028162666 -0.025863199 0.017442547 0.01567891 -0.012850715 0.017427817 -0.017960818 0.0024863037
0.014337559 0.00990649 0.024429755 0.021599865 -0.026848039 0.02109503 -0.025162885 0.009450023
-0.022089291 -0.015097055 0.028377399 0.01543531 -0.0051537803 0.026021605 -0.0001352536 0.002202244
0.010220269 -0.0034347174 0.008129814 -0.024907803 -0.00083100173 0.021914512 -0.008395509 -0.011058125
0.008230321 0.0056571127 -0.017257905 0.011881031 -0.02325832 0.019027479 -0.023366347 -0.02199661
-0.01789263 0.0170403 0.01619048 -0.018140057 0.004122589 -0.0246594 -0.00039347043 -0.01884654
-0.008408724 0.017891897 -0.02833804 0.024857411 0.0017261896 -0.00521749 0.018458096 0.028099393
-0.027792063 0.0067181024 0.02716825 0.015027008 0.0016742678 0.0146355815 -0.024289643 0.01001054
0.023747958 -0.013780832 0.018361073 -0.0021562274 0.022282466 -0.011686871 0.024968814 -0.008347954
-0.019436006 0.006152836 0.010539045 0.007895611 -0.029529681 0.02918602 -0.015574437 -0.006832677
-0.012739109 0.0026163836 -0.016000332 0.004731043 -0.02911213 -0.0067954157 -0.027436707 0.0057755057
-0.0016723172 0.014102703 -0.02288364 0.013130577 0.026613964 0.0044578086 -0.014841978 -0.0072017624
0.0002674222 -0.010525443 -0.010144276 -0.028120546 0.020510502 0.009970062 0.00863524 -0.002838825
00000000: 7678 a6ba 2f00 6fbc 5427 a43b 2231 19bb
00000010: 7a44 db3c a80e 963a 4357 ae3b 683c 55bc
00000020: 216b 9dbc 71b9 f1bc 273a cbbc 1744 d53c
00000030: 0c8b dabc fc8a b6bb bd08 363b 1093 f83b
00000040: efda 84ba 30f4 94bc 71d0 c3bc 913b a23b
00000050: 6f5f 943b 97e9 a73a 9e68 953c 3233 ce3c
00000060: 7820 72bc d84f 85bc a415 c7bc 2638 14bb
00000070: 517c cb3c 1d79 d23c cfb4 e33c d93d a13c
00000080: b311 9cbc 0ebb 933c 815b 513c 79cf 21bc
00000090: b28c 19bb 411b a73c c1d7 8abc 3cf9 233b
000000a0: b8fc 673c 0813 5dbb f334 c33c 0da3 1e3b
000000b0: 9407 b0bb 4209 feba fc27 9c3c a721 c6bc
000000c0: 2689 643b cf91 ce3c 5225 76bc ea66 293c
000000d0: c8bb a53c 855b 48bc 980d b1bc 63fe d3bc
000000e0: 607f 18bb 06f4 ab3c 5b4f 20bc c7c9 963c
000000f0: da02 533c f9cd 323c 8054 d2bb 8e6b 893c
00000100: 8cc6 ecbc 2be7 d0bc be30 e83c c7ac b3bc
00000110: f0b1 ebbc 7342 ae3c 1c6d 7ebc 9af4 d9bc
00000120: d18f babc c8a2 483c b05e b5bc c018 e33c
00000130: 637e 83bb 182d c9bc c2e7 dfbc 0539 a03c
00000140: cca6 9a3c aa77 26bc 5927 b1ba dde0 07bc
00000150: b7b1 013c 47df 7f3c 8d2e b03c 51b3 7a3c
00000160: 9d50 d73b 6366 9bbc b0a1 e9bc d4b2 c63c
00000170: 66b8 6f3c 1d3a 463c 1829 e4bc 754b 33bb
00000180: 7786 aebb 2c6c 9cbc a3c1 c8bc 1fa5 cebc
00000190: ae06 9f3c 741f c1bc 7973 4dbc bd58 d23b
000001a0: 2048 dcbc f923 a7bc f0cb 02bc 4f14 8ebc
000001b0: bc20 79bc b9b0 593a f69d ea3c b700 843b
000001c0: 2c58 ddbc c465 8cbc 441c b83c e7d5 843c
000001d0: bd42 97bc 6be1 ae3a 2394 f4bc 1db0 d6bc
000001e0: 6789 8fbc 8abe 47bc 7fc8 f2bc 5be2 093b
000001f0: 8af3 dabc d9c1 093b 5457 fdbb 2072 dabc
00000200: a8eb 87bc 0124 1d3c d39e f33b 1534 013c
00000210: 6da1 f3bc 550a 093c 197e d5bc cef1 a8bc
00000220: 7760 22bc 2721 a5ba 4a67 643c 8165 c33c
00000230: 4354 943c 427e 483c 8e90 5dbc c847 64bc
00000240: fc8f 02bc 7c94 85bb 514a 7dbc f91b cebc
00000250: cb4f 82bc be85 343c a9be 7d3c 380b 923c
00000260: 64b5 e6bc 0fdf d3bc ace3 8e3c 0f71 803c
00000270: ce8b 52bc c8c4 8e3c 9122 93bc 41f1 223b
00000280: 15e8 6a3c d54e 223c e920 c83c 33f2 b03c
00000290: 6bf0 dbbc 7ccf ac3c 6522 cebc 45d4 1a3c
000002a0: 9af4 b4bc a359 77bc b877 e83c 62e4 7c3c
000002b0: 0be1 a8bb 432b d53c ddd2 0db9 8653 103b
000002c0: ea72 273c ff18 61bb e932 053c 730b ccbc
000002d0: 95d7 59ba 1086 b33c 518d 09bc 232d 35bc
000002e0: 78d8 063c 4d5f b93b 7360 8dbc a8a8 423c
000002f0: 3b88 bebc 84df 9b3c c86a bfbc 3c32 b4bc
00000300: 9193 92bc 1998 8b3c e6a1 843c 759a 94bc
00000310: c816 873b 8302 cabc b54a ceb9 0f64 9abc
00000320: bfc4 09bc 0792 923c 2d25 e8bc c5a1 cb3c
00000330: 5041 e23a 7af7 aabb 6f35 973c b330 e63c
00000340: 2eac e3bc 8723 dc3b f38f de3c d733 763c
00000350: 1b73 db3a 14ca 6f3c 13fb c6bc 3f03 243c
00000360: 148b c23c 00c9 61bc f669 963c 7e4f 0dbb
00000370: b889 b63c 4a7a 3fbc 668b cc3c dbc5 08bc
00000380: 4238 9fbc bb9d c93b f5ab 2c3c 985c 013c
00000390: 3be8 f1bc 8517 ef3c ec2b 7fbc a6e4 dfbb
000003a0: b2b7 50bc a277 2b3b 2113 83bc dd06 9b3b
000003b0: 907c eebc 14ac debb f2c2 e0bc 7440 bd3b
000003c0: a731 dbba 060f 673c 7976 bbbc a221 573c
000003d0: 8705 da3c cf12 923b c52b 73bc c3fc ebbb
000003e0: cd34 8c39 e872 2cbc 2d34 26bc 0f5d e6bc
000003f0: a405 a83c 7959 233c d27a 0d3c 950b 3abb

siam_layer.conv1.bias f4 [14]
0.013243269 0.029896725 0.007830504 -0.02579119 0.023425046 0.029426802 -0.021587111 0.00545327
-0.01438779 0.00821913 0.015507054 0.026560917 0.018008836 0.009157915
00000000: 4cfa 583c fae9 f43c 844b 003c 0c48 d3bc
00000010: e2e5 bf3c 7a10 f13c 74d7 b0bc 58b1 b23b
00000020: c4ba 6bbc 88a9 063c 4c11 7e3c 4896 d93c
00000030: 4487 933c 140b 163c

siam_layer.conv2.weight f4 [7, 14, 6, 6]
-0.013401575 -0.042753574 0.007907429 -0.0145229185 -0.006155194 0.009107842 -0.034303427 0.02315434
0.00654846 -0.0391802 -0.017065693 0.025453687 0.014059121 -0.04379253 0.0058246297 0.043976646
0.011538208 0.01999106 -0.017563162 -0.012440818 0.022661671 0.039743166 0.03360874 0.009134519
-0.009337995 -0.018207233 -0.044255845 0.009695112 0.032033447 0.0012373172 0.03972713 -0.023036176
0.023244916 0.028992256 0.012862885 -0.009339975 -0.04053058 0.0326727 -0.019588808 -0.041301418
0.03919641 0.010484147 -0.019757167 0.03326442 0.021867754 0.033548728 0.029317403 -0.024211476
0.03018587 -0.025617447 -0.034191184 0.016177494 -0.03432414 -0.02685051 0.008428298 0.01098674
-0.0331953 -0.024649534 -0.020265425 -0.0057620704 0.03627887 -0.02584106 -0.024231633 -0.015821924
0.018155558 -0.021996366 -0.044513304 0.007868813 -0.031556595 -0.026450148 0.039552208 0.03818718
-0.034021612 -0.00814847 -0.010549747 0.013596868 0.02606663 -0.004820433 0.014934661 0.0013770096
-0.011925752 0.0009911867 -0.040566824 0.011636975 0.01799295 -0.011716513 0.008789778 -0.044006083
-0.0077104648 -0.015130546 -0.041518755 -0.016167862 -0.013777906 0.017297681 0.010495682 -0.03425978
-0.004143736 0.03811909 0.018948782 -0.013941762 0.040536147 0.015760174 0.03615121 0.033986006
-0.0018925407 0.024460582 0.019418726 -0.041744515 0.03826162 -0.01130093 -0.0095261205 -0.022342212
0.015789362 -0.043455835 -0.036981568 0.033559855 0.041199684 0.024483671 -0.012993998 0.018720537
-0.024212226 -0.036369607 0.033465963 -0.008127284 -0.0061019263 0.0073011876 0.023909802 0.015055459
-0.010311805 0.010853163 -0.015029315 -0.00384752 0.025167022 -0.03231837 -0.02423724 -0.007179291
-0.019942869 -0.0061745443 0.03244993 -0.030824304 -0.025493162 0.015080923 -0.040664528 -0.016272372
-0.025163898 -0.0017357664 -0.0243153 -0.00015561654 0.015475008 -0.003413609 -0.024309492 -0.018463407
-0.03784778 0.019143855 0.016042659 -0.016241739 -0.0042183343 -0.0049653244 0.03401021 -0.0026013781
-0.01930552 0.007382867 0.039682906 0.02527407 0.029851751 -0.018238412 -0.021454131 0.023691673
-0.014784703 -0.013574477 0.014616848 0.041700803 -0.021651544 -0.040253937 0.0054436927 -0.021136757
-0.024751218 0.02256883 0.003508099 -0.03101847 0.044028535 0.021864584 0.028743308 -0.01443687
-0.043195575 0.030891355 -0.03178598 -0.038963955 0.03679639 -0.005131137 0.012959563 -0.030807873
0.023962356 0.008619066 0.018308915 0.031634778 -0.0062922603 -0.037501767 -0.009259111 -0.029350413
-0.016643966 -0.034142844 0.0065222583 -0.033722315 0.0074061733 0.024661677 0.02679358 -0.027300531
0.008827079 0.008927909 0.032171957 0.028810205 0.008617514 -0.024931828 0.028542604 0.017681794
0.030861333 0.04271316 -0.04349568 -0.0024890148 0.02570014 0.022325011 0.01280815 -0.00565583
0.044556156 0.028245846 0.02878087 0.017822415 -0.025740858 -0.0100117 0.00912439 0.002520441
-0.013037515 0.041830372 -0.0143719 0.036082976 -0.0006141709 -0.017729422 -0.019663135 0.027387155
0.02062604 0.005697412 0.02732453 0.031306636 -0.036363903 0.033820134 0.0064397813 -0.011652841
-0.027580066 0.020631956 0.041737568 0.02616764 -0.037804123 0.014963208 0.03869173 -0.03794754
00000000: 4892 5bbc 5f1e 2fbd 298e 013c 89f1 6dbc
00000010: 82b1 c9bb 0f39 153c c081 0cbd 2cae bd3c
00000020: 7794 d63b 6b7b 20bd 5acd 8bbc 4084 d03c
00000030: 3a58 663c cc5f 33bd 89dc be3b db20 343d
00000040: c10a 3d3c 4bc4 a33c 9fe0 8fbc 93d4 4bbc
00000050: f8a4 b93c bbc9 223d 51a9 093d f3a8 153c
00000060: 64fe 18bc 5627 95bc 9e45 35bd 3fd8 1e3c
00000070: 8135 033d 7a2d a23a eab8 223d 5db6 bcbc
00000080: 1f6c be3c 2b81 ed3c dabe 523c b206 19bc
00000090: 6503 26bd cfd3 053d b578 a0bc ad2b 29bd
000000a0: 6a8c 203d b3c5 2b3c c8d9 a1bc 4640 083d
000000b0: 0124 b33c 646a 093d 0d2b f03c 2557 c6bc
000000c0: 5c48 f73c aedb d1bc 0e0c 0cbd aa86 843c
000000d0: 7897 0cbd 9af5 dbbc d816 0a3c ba01 343c
000000e0: cbf7 07bd d2ed c9bc ad03 a6bc c0cf bcbb
000000f0: 2799 143d a1b0 d3bc 6b81 c6bc fb9c 81bc
00000100: f7ba 943c b931 b4bc 9553 36bd 32ec 003c
00000110: 7d41 01bd fbad d8bc 7f01 223d 296a 1c3d
00000120: 3f5a 0bbd 2981 05bc d9d8 2cbc 66c5 5e3c
00000130: af89 d53c b9f4 9dbb 82b0 743c c67c b43a
00000140: 3b64 43bc b5ea 813a 6629 26bd 03a9 3e3c
00000150: f365 933c 9ef6 3fbc 0003 103c b93f 34bd
00000160: 11a8 fcbb 1ce6 77bc 920f 2abd 7772 84bc
00000170: babc 61bc deb3 8d3c 15f6 2b3c fc53 0cbd
00000180: 2dc8 87bb c322 1c3d 7a3a 9b3c fd6b 64bc
00000190: 3b09 263d 7b1b 813c 4b13 143d e934 0b3d
000001a0: 210f f8ba 8f61 c83c 0514 9f3c 4cfc 2abd
000001b0: 37b8 1c3d 8927 39bc 7213 1cbc 0407 b7bc
000001c0: b158 813c bffe 31bd fc79 17bd 0f76 093d
000001d0: 00c1 283d fb91 c83c c7e4 54bc d05b 993c
000001e0: b858 c6bc 4cf8 14bd 9b13 093d 4d28 05bc
000001f0: abf2 c7bb cd3e ef3b 7dde c33c 2cab 763c
00000200: d8f2 28bc 77d1 313c 843d 76bc ad26 7cbb
00000210: 122b ce3c 4460 04bd 2d8d c6bc 4240 ebbb
00000220: 3a5f a3bc d553 cabb 38ea 043d 4083 fcbc
00000230: 09d7 d0bc fa15 773c d98f 26bd a34d 85bc
00000240: 8524 cebc a882 e3ba e130 c7bc ff2c 23b9
00000250: e38a 7d3c dbb6 5fbb b324 c7bc 9240 97bc
00000260: 4606 1bbd 93d3 9c3c e56b 833c 650d 85bc
00000270: f439 8abb 29b4 a2bb 4a4e 0b3d e27b 2abb
00000280: 9c26 9ebc faeb f13b 8b8a 223d 910b cf3c
00000290: a98b f43c b968 95bc 93c0 afbc 0a15 c23c
000002a0: 8a3b 72bc 7c67 5ebc 817b 6f3c 76ce 2a3d
000002b0: 945e b1bc 50e1 24bd 0161 b23b fe26 adbc
000002c0: 11c3 cabc 44e2 b83c 22e8 653b 721a febc
000002d0: 4457 343d 5b1d b33c 1677 eb3c 9f88 6cbc
000002e0: d8ed 30bd de0f fd3c 0432 02bd ab98 1fbd
000002f0: d0b7 163d 1923 a8bb 5954 543c cb60 fcbc
00000300: b44c c43c fc36 0d3c 94fc 953c 7893 013d
00000310: 4e2f cebb 749b 19bd 87b3 17bc 4770 f0bc
00000320: ed58 88bc 5ed9 0bbd abb8 d53b 6920 0abd
00000330: 7caf f23b 4907 ca3c 367e db3c 5da5 dfbc
00000340: 749f 103c 5d46 123c bec6 033d 6103 ec3c
00000350: 7930 0d3c d53d ccbc 2ed2 e93c 69d9 903c
00000360: e8d0 fc3c fff3 2e3d 8728 32bd bd1e 23bb
00000370: 1a89 d23c f1e2 b63c 46d9 513c 8a54 b9bb
00000380: 8480 363d d563 e73c dcc5 eb3c 5000 923c
00000390: 7ede d2bc 1d08 24bc 777e 153c fc2d 253b
000003a0: 4d9b 55bc 5356 2b3d 1e78 6bbc becb 133d
000003b0: 5000 21ba 4b3d 91bc 9514 a1bc 075b e03c
000003c0: f1f7 a83c 5bb1 ba3b b1d7 df3c 633b 003d
000003d0: 51f2 14bd fb86 0a3d cd04 d33b 8feb 3ebc
000003e0: 97ef e1bc 5904 a93c 03f5 2a3d 855d d63c
000003f0: 7fd8 1abd 3e28 753c 387b 1e3d e16e 1bbd

siam_layer.conv2.bias f4 [7]
0.03018704 0.019988477 -0.017950283 -0.014132177 -0.03968897 0.033790126 -0.021836435
00000000: d04a f73c e0be a33c 790c 93bc a68a 67bc
00000010: e790 22bd 8467 0a3d 53e2 b2bc

siam_layer.conv3.weight f4 [7, 14, 6, 6]
0.00986722 0.02479346 -0.028361915 -0.029841075 0.0063475803 0.018642537 0.021967487 0.041974314
-0.029138666 0.020333702 0.012576353 -0.04224446 0.04130231 -0.028038293 -0.0031087324 -0.020358909
-0.040479682 -0.04286802 -0.0038994367 -0.0128792785 -0.0135791395 0.015926346 -0.028196534 0.03510882
-0.029495532 0.003818921 -0.036529366 -0.018685935 0.012777476 0.029694276 -0.009844446 0.0041209976
0.01164441 -0.026398052 -0.04203535 -0.027373524 -0.014162888 0.03237302 0.006524677 0.0034682266
0.022777395 -0.0001962837 0.018884098 0.037378747 0.030139292 0.016029587 -0.02181777 0.0009956078
-0.004770685 0.011027469 -0.010523234 -0.03212709 0.0291892 0.0056937323 -0.023389272 -0.027176015
0.024598595 0.023831246 -0.010600062 -0.024009092 0.0056232107 0.029464323 0.03703758 -0.038708813
0.03304159 -0.001948646 0.023935134 -0.037632305 -0.0012528301 -0.027577203 0.036895666 -0.0034981596
-0.017780283 0.010676775 0.04134906 -0.042005554 -0.024878593 -0.041743286 0.026690293 -0.029981716
-0.019449944 -0.035354715 0.019611629 -0.013893181 -0.042388897 0.022740372 -0.036959104 -0.00073788443
0.03872755 -0.036150627 0.013316804 -0.0059227967 0.020670386 -0.03932747 0.010875614 -0.013189631
-0.0065628914 -0.03520255 0.023906138 -0.020954324 0.025227295 -0.004208901 -0.011563983 -0.040556602
-0.041323174 -0.03347413 0.0010671198 -0.041100904 0.040981766 -0.03748042 -0.013174281 0.01158139
-0.03830692 0.008338988 -0.027304478 -0.011668361 0.015235342 0.04029747 0.028167026 0.024316113
-0.03796235 0.01382821 0.02212877 -0.04323319 -0.0064370595 -0.043137584 0.03538512 -0.006724093
-0.0030715384 -0.0050595677 -0.030572323 0.038099222 0.022359671 -0.039829157 -0.024390293 0.036397465
0.025522806 -0.010402058 -0.015080166 -0.03171761 -0.016189171 -0.006696735 0.02239831 -0.00017734877
0.011484716 -0.02444635 0.00090891053 0.036592096 -0.008146627 0.030621773 0.038587973 -0.027943501
0.018894643 -0.035465386 0.039055664 -0.033918045 -0.015085303 -0.003811714 -0.040812377 0.037970014
-0.029233932 0.03325672 0.022686591 0.008912842 -0.0056819324 -0.04067024 -0.020271923 -0.03125599
-0.039381035 -0.0081617115 0.0068206545 0.014090472 -0.027723925 0.008911251 -0.008143567 -0.016035201
-0.042535547 -0.0040241876 -0.038165472 -0.029556384 0.044097986 0.004288676 -0.014795029 0.022824667
-0.029617308 0.011819098 -0.01461355 0.028897213 -0.029196918 0.012407674 0.027467648 0.02641229
0.020806061 -0.0052116783 -0.0019988716 -0.043172948 0.03383158 -0.008701432 0.022999413 -0.015317608
-0.03578328 0.010886485 -0.030921726 -0.003383534 -0.037193123 0.0084831305 -0.0048100124 0.0030145792
-0.021918317 0.0062773805 -0.015939122 -0.044446263 -0.037700746 -0.026069287 0.018974341 -0.02113243
0.042107746 -0.01602583 -0.03920472 0.00616544 0.0011203408 -0.0073776413 -0.035798334 -0.022859236
-0.01896562 -0.0063207666 -0.016963908 0.013823955 -0.037243113 -0.03219184 -0.005851623 0.023748374
0.008239017 0.036068838 -0.040022243 -0.019815186 0.0169478 -0.014424162 -0.019406714 0.024326961
-0.006509676 0.013055622 0.021319449 -0.024886575 -0.035442546 0.024399614 0.03349237 0.02356499
0.013143131 0.042297073 -0.010804125 -0.0045663835 0.011413025 -0.018394995 -0.030560432 0.041047383
00000000: 1faa 213c a71b cb3c 3f57 e8bc 4575 f4bc
00000010: 5dff cf3b 3cb8 983c 29f5 b33c 42ed 2b3d
00000020: 36b4 eebc dd92 a63c 0c0d 4e3c 8708 2dbd
00000030: 9c2c 293d 90b0 e5bc e0bb 4bbb bac7 a6bc
00000040: 06ce 25bd 6096 2fbd b18d 7fbb 9c03 53bc
00000050: 0a7b 5ebc f877 823c 6bfc e6bc 44ce 0f3d
00000060: 9da0 f1bc dd46 7a3b d19f 15bd 3f13 99bc
00000070: 9e58 513c 6941 f33c 994a 21bc 6f09 873b
00000080: 32c8 3e3c ba40 d8bc 422d 2cbd 713e e0bc
00000090: 750b 68bc 9299 043d f5cc d53b 304b 633b
000000a0: a997 ba3c 81d1 4db9 d3b2 9a3c 751a 193d
000000b0: ade6 f63c 7b50 833c 2ebb b2bc 0e7f 823a
000000c0: 6853 9cbb 8fac 343c a469 2cbc b297 03bd
000000d0: 301e ef3c 7d92 ba3b dc9a bfbc 3ca0 debc
000000e0: fe82 c93c bf39 c33c e2ab 2dbc b7ae c4bc
000000f0: e942 b83b 2a5f f13c b8b4 173d 228d 1ebd
00000100: 9e56 073d b669 ffba 9d13 c43c 5524 1abd
00000110: 0136 a4ba 96e9 e1bc e91f 173d 6141 65bb
00000120: f5a7 91bc a4ed 2e3c a25d 293d 040e 2cbd
00000130: 31ce cbbc 02fb 2abd 9aa5 da3c 379c f5bc
00000140: 7d55 9fbc 1bd0 10bd 91a8 a03c 3aa0 63bc
00000150: fb9f 2dbd 044a ba3c 6e62 17bd 966e 41ba
00000160: c8a0 1e3d ae12 14bd b92e 5a3c 0514 c2bb
00000170: f154 a93c d715 21bd a22f 323c 5219 58bc
00000180: 860d d7bb 8d30 10bd ced6 c33c 67a8 abbc
00000190: 79a9 ce3c d2ea 89bb dc76 3dbc ae1e 26bd
000001a0: 7d42 29bd 2b1c 09bd 99de 8b3a 6c59 28bd
000001b0: 7fdc 273d 1285 19bd f1d8 57bc dfbf 3d3c
000001c0: b8e7 1cbd 40a0 083c a4ad dfbc a72c 3fbc
000001d0: a89d 793c f60e 253d 89be e63c 9632 c73c
000001e0: 697e 1bbd b78f 623c 6547 b53c 4915 31bd
000001f0: f8ed d2bb 09b1 30bd fdef 103d c855 dcbb
00000200: dd4b 49bb bbca a5bb cf72 fabc ee0d 1c3d
00000210: a12b b73c e623 23bd 27ce c7bc 8215 153d
00000220: 3415 d13c 656d 2abc cd12 77bc 53ea 01bd
00000230: 279f 84bc 4970 dbbb a97c b73c b3f6 39b9
00000240: 642a 3c3c b643 c8bc f443 6e3a 98e1 153d
00000250: 6e79 05bc 83da fa3c 6c0e 1e3d c5e9 e4bc
00000260: f0c8 9a3c 2744 11bd d5f8 1f3d a6ed 0abd
00000270: 5928 77bc f3cd 79bb e12a 27bd 7286 1b3d
00000280: 007c efbc 3338 083d 3bd9 b93c 2b07 123c
00000290: 812f babb d695 26bd 4e11 a6bc 4806 00bd
000002a0: 024e 21bd b3b8 05bc cc7f df3b b9db 663c
000002b0: 491d e3bc 7f00 123c 986c 05bc 415c 83bc
000002c0: c139 2ebd 55dd 83bb 6653 1cbd 3b20 f2bc
000002d0: 17a0 343d 0688 8c3b d966 72bc ccfa ba3c
000002e0: ff9f f2bc e4a4 413c ac6d 6fbc d9b9 ec3c
000002f0: 602e efbc 8f49 4b3c d503 e13c 965e d83c
00000300: 7971 aa3c bac6 aabb 80ff 02bb 1ed6 30bd
00000310: fc92 0a3d 7390 0ebc 4469 bc3c b4f6 7abc
00000320: 7d91 12bd 3a5d 323c 8f4f fdbc 48be 5dbb
00000330: d157 18bd d4fc 0a3c 4f9d 9dbb 3f90 453b
00000340: 0b8e b3bc 7cb2 cd3b c392 82bc 490d 36bd
00000350: 196c 1abd 428f d5bc 1470 9b3c eb1d adbc
00000360: 2c79 2c3d 9a48 83bc 2195 20bd 7607 ca3b
00000370: 66d8 923a 24c0 f1bb 46a1 12bd 4b43 bbbc
00000380: ca5d 9bbc 6f1e cfbb e5f7 8abc df7d 623c
00000390: 3c8c 18bd 97db 03bd f9be bfbb f38b c23c
000003a0: f1fc 063c ebbc 133d 5dee 23bd 7553 a2bc
000003b0: 1dd6 8a3c 5253 6cbc d4fa 9ebc 5649 c73c
000003c0: 1f4f d5bb 3fe7 553c 20a6 ae3c eede cbbc
000003d0: 342c 11bd b3e1 c73c 4c2f 093d 5e0b c13c
000003e0: 4956 573c b23f 2d3d c903 31bc 9aa1 95bb
000003f0: b2fd 3a3c 1ab1 96bc df59 fabc 4d21 283d

siam_layer.conv3.bias f4 [7]
0.031832978 0.021045066 0.023771197 -0.0014984198 0.0019340292 0.036293864 0.012830891
00000000: 4c63 023d b466 ac3c d0bb c23c a066 c4ba
00000010: 407f fd3a e0a8 143d a838 523c

siam_layer.conv4.weight f4 [3, 14, 6, 6]
-0.00553299 -0.0009082369 0.035357542 -0.021524018 0.031607054 0.00046086343 -0.006708457 -0.0026008475
-0.0020480258 -0.02683474 0.026989825 -0.02829868 -0.0223362 0.023443382 0.027448913 0.008470828
-0.026867166 -0.016860731 0.0032561189 0.019550182 0.034839854 -0.021342972 -0.03649383 0.006425287
0.013310169 0.031742528 0.03019437 0.008887457 0.0026794497 0.0029544106 0.012684098 -0.023457
-0.021165486 0.030709416 0.0035245575 -0.014685006 -0.02361103 0.03201562 -0.0063461196 -0.041615713
0.01826543 0.036791872 -0.031078584 0.010951853 0.013111746 0.025006585 0.02541255 -0.018692307
-0.02918687 0.021189295 0.04449321 -0.02621806 0.034823548 0.044774223 -0.021076076 -0.00586762
0.0018609725 -0.030657584 0.005310709 0.032552715 0.00047168793 0.018061094 0.0026793825 -0.0057558
0.0107968105 -0.042128313 -0.01404038 0.028783046 -0.0032336472 -0.020390557 0.015237198 0.0045418534
-0.009182077 -0.023540696 -0.016309751 0.009889975 0.004959048 -0.010194015 0.039919976 -0.018431647
-0.032181207 -0.041611966 -0.022662127 -0.008305207 0.01861755 -0.04006333 -0.03754459 -0.024337316
0.022152765 -0.024950113 0.016931538 0.016234422 -0.013949758 -0.024832569 0.013003359 -0.03475743
-0.04156196 -0.041933533 0.041218325 -0.014016737 -0.021277344 -0.012783358 -0.035942238 -0.039550208
-0.012428453 0.02582215 -0.011286375 0.03789754 -0.0052419496 -0.012169558 -0.037123933 0.044088833
0.012918384 0.044473 0.014074284 0.03423687 -0.0017673131 0.035395548 0.0010003855 0.033847347
0.026598753 0.021630757 0.00033530497 0.025354011 -0.024379093 -0.009511016 0.02544518 0.015063207
0.018983971 -0.024749914 -0.0021813728 0.0048161154 -0.008478128 -0.02228273 0.002855259 -0.023106365
-0.02703618 0.039489295 0.02641404 -0.015020895 0.031138973 -0.00094740366 0.033551637 -0.01308868
0.0014751503 -0.027341835 0.043273393 -0.014114931 0.018579928 -0.027852226 -0.034130104 -0.0066368347
-0.029126303 0.0034161496 0.018388614 0.026020287 0.009525036 0.026585827 0.039635986 0.029030673
0.03740332 0.003828301 -0.002676643 0.021406393 -0.014689862 -0.04169425 0.015660273 0.005299145
-0.026295476 0.028569933 0.01214604 0.01044642 -0.043769155 0.026461918 0.008982225 -0.015022108
-0.03084624 -0.014443477 -0.02943132 -0.005439577 0.015849426 -0.013252441 0.030643992 0.011652857
0.036998846 0.018571919 -0.0026727242 0.031375855 0.037009552 -0.0043521086 -0.03651999 -0.0035584033
0.012991373 -0.025284182 -0.036806267 -0.012854842 0.015464606 0.03719132 0.023463396 -0.006382512
0.043020476 -0.0050936355 -0.014856301 -0.011146213 -0.010285382 0.043545727 -0.01587418 -0.01878344
0.02113016 0.034678556 0.035669774 -0.041039377 -0.020075819 0.0052272948 0.019509712 -0.031827245
-0.015329653 0.04326186 0.005076607 -0.018836359 -0.0024568012 -0.013316136 -0.009404209 0.034688033
0.010272657 0.022893282 -0.016455363 0.016639747 0.019148044 0.025733585 0.03512985 -0.010417927
0.025325965 -0.0043365895 0.021125795 -0.035125665 0.008998437 0.010613797 0.0413074 0.017195974
0.007890272 0.023199916 -0.03457016 -0.013258344 0.029048437 -0.04142963 0.02476359 0.009374906
-0.035834856 0.020499608 0.028021106 0.035205543 0.011454552 -0.039729387 -0.006458997 0.03648022
00000000: 164e b5bb bf16 6eba 12d3 103d 2353 b0bc
00000010: 6676 013d 0ba0 f139 9ed2 dbbb fb72 2abb
00000020: 2c38 06bb 87d4 dbbc c419 dd3c a2d2 e7bc
00000030: 68fa b6bc 560c c03c 8bdc e03c 3ac9 0a3c
00000040: 8818 dcbc 841f 8abc 9c64 553b b427 a03c
00000050: 3cb4 0e3d 75d7 aebc 8e7a 15bd 378b d23b
00000060: e512 5a3c 7404 023d 2f5a f73c b29c 113c
00000070: b599 2f3b c99e 413b f7d0 4f3c e528 c0bc
00000080: 3e63 adbc 5092 fb3c 43fc 663b 6199 70bc
00000090: eb6b c1bc d022 033d 1cf3 cfbb 3d75 2abd
000000a0: 62a1 953c 13b3 163d 8498 febc 676f 333c
000000b0: a6d2 563c 9cda cc3c fb2d d03c 9c20 99bc
000000c0: 4e19 efbc 2c95 ad3c 833e 363d 42c7 d6bc
000000d0: 23a3 0e3d 2d65 373d bca7 acbc 2a45 c0bb
000000e0: e0eb f33a 9d25 fbbc 7505 ae3b ff55 053d
000000f0: e24c f739 dcf4 933c 9498 2f3b 269b bcbb
00000100: 1be5 303c bd8e 2cbd 9f09 66bc 6cca eb3c
00000110: 99eb 53bb 190a a7bc 71a5 793c d4d3 943b
00000120: 6c70 16bc 6bd8 c0bc 079c 85bc 9009 223c
00000130: 827f a23b cc04 27bc 2183 233d f7fd 96bc
00000140: 71d0 03bd 4f71 2abd eda5 b9bc 9012 08bc
00000150: d583 983c 7219 24bd 5bc8 19bd 0d5f c7bc
00000160: b779 b53c 2e64 ccbc 02b4 8a3c 0dfe 843c
00000170: 878d 64bc ac6d cbbc 0a0c 553c cf5d 0ebd
00000180: e03c 2abd 7fc2 2bbd 8cd4 283d 75a6 65bc
00000190: d34d aebc 4a71 51bc 2b38 13bd 66ff 21bd
000001a0: b6a0 4bbc f988 d33c 7dea 38bc 733a 1b3d
000001b0: a9c4 abbb d362 47bc 440f 18bd 7e96 343d
000001c0: a1a7 533c 5229 363d d397 663c f63b 0c3d
000001d0: 30a5 e7ba ecfa 103d 5e1f 833a 84a3 0a3d
000001e0: a1e5 d93c fc32 b13c dfcb af39 37b3 cf3c
000001f0: aab6 c7bc 18d4 1bbc 6972 d03c abcb 763c
00000200: 4684 9b3c 55c0 cabc 5df5 0ebb 81d0 9d3b
00000210: d9e7 0abc 468a b6bc 4c1f 3b3b 8f49 bdbc
00000220: fb7a ddbc 87bf 213d 4262 d83c 331a 76bc
00000230: 2917 ff3c 2f5b 78ba 716d 093d e771 56bc
00000240: d559 c13a fcfb dfbc 713f 313d 5042 67bc
00000250: ef34 983c 5a2a e4bc 02cc 0bbd ce79 d9bb
00000260: 499a eebc 7be1 5f3b b8a3 963c 7f28 d53c
00000270: e60e 1c3c 85ca d93c 5859 223d bcd1 ed3c
00000280: 3934 193d 3ce4 7a3b 9e6a 2fbb 765c af3c
00000290: bfad 70bc 97c7 2abd f949 803c 73a4 ad3b
000002a0: 9c69 d7bc 7e0b ea3c 2f00 473c 7627 2b3c
000002b0: 4947 33bd aac6 d83c 2f2a 133c 4a1f 76bc
000002c0: 41b1 fcbc 55a4 6cbc f419 f1bc 7b3e b2bb
000002d0: a8d6 813c c420 59bc 1c09 fb3c a0eb 3e3c
000002e0: 1a8c 173d 2324 983c df28 2fbb f883 003d
000002f0: 5497 173d 229c 8ebb fc95 15bd 1a34 69bb
00000300: c5d9 543c c620 cfbc 2bc2 16bd 1d9d 52bc
00000310: 425f 7d3c ed55 183d 4f36 c03c 6424 d1bb
00000320: 3d36 303d 83e8 a6bb d867 73bc 9b9e 36bc
00000330: 0584 28bc 015d 323d 910a 82bc bbdf 99bc
00000340: 2819 ad3c 1a0b 0e3d 781a 123d e818 28bd
00000350: 0b76 a4bc ba49 ab3b d5d2 9f3c 495d 02bd
00000360: 3a29 7bbc 5933 313d ab59 a63b b54e 9abc
00000370: 4902 21bb ec2b 5abc 1d14 1abc 0a15 0e3d
00000380: a54e 283c b18a bb3c 66cd 86bc 1450 883c
00000390: 5cdc 9c3c 3dcf d23c 51e4 0f3d f4af 2abc
000003a0: 6678 cf3c f319 8ebb 0110 ad3c eedf 0fbd
000003b0: 2e6e 133c 7ee5 2d3c f331 293d 92de 8c3c
000003c0: 3346 013c c00d be3c 7199 0dbd 8639 59bc
000003d0: fdf6 ed3c 1eb2 29bd 03dd ca3c 3599 193c
000003e0: 92c7 12bd cbee a73c 858c e53c b033 103d
000003f0: e0ab 3b3c 48bb 22bd fea5 d3bb 486c 153d

siam_layer.conv4.bias f4 [3]
-0.018079225 0.023523219 -0.035318844
00000000: e21a 94bc c4b3 c03c 7eaa 10bd

siam_layer.conv5.weight f4 [1, 3, 6, 6]
-0.08765047 -0.044789467 0.009368131 0.07900736 -0.010019503 0.057669204 0.06265682 0.024396734
-0.05924152 -0.03583906 -0.08985623 0.07510393 -0.09013168 0.016786983 -0.06883933 0.051177967
0.072808295 -0.024314042 -0.014512065 -0.032710545 -0.018946448 -0.09547292 -0.058600113 -0.041796323
0.018728955 0.055595405 0.03654485 0.011099104 -0.07965725 -0.02404937 -0.048251037 -0.030595424
0.027554393 -0.066280924 0.06753874 0.05107008 0.049071293 -0.065551996 -0.023993341 -0.03433247
0.027978724 -0.0053733615 -0.018990446 -0.0021857421 0.00010106557 0.028445907 -0.020136291 -0.024161443
0.073238544 0.08660789 0.018984703 0.08572506 -0.07923222 0.09354709 -0.07860336 -0.062496882
-0.0078018834 -0.07326079 -0.03862561 -0.05167765 -0.08095339 0.061435357 0.07794374 0.0042995024
0.025527004 -0.021238178 -0.040166564 -0.012543998 0.06769144 0.09197321 0.013874044 -0.006379682
0.090617746 0.007323463 -0.09628061 -0.058242485 -0.011143502 -0.02305356 0.08931152 -0.053697713
0.020208137 -0.010708901 0.0625883 0.049215324 0.014975711 -0.022597224 -0.053428575 -0.09152566
0.04921489 0.036511943 0.039300755 0.025922585 0.08031738 0.029993791 0.009607348 -0.040334087
0.06423166 -0.0620836 0.021910522 0.029213997 -0.0051846756 0.07720822 0.04914534 -0.08457224
-0.03488694 -0.038830467 0.043056384 0.008343198
00000000: 1782 b3bd 2975 37bd ca7c 193c 9cce a13d
00000010: d728 24bc 8b36 6c3d 3852 803d a9db c73c
00000020: 3ca7 72bd facb 12bd 8b06 b8bd 17d0 993d
00000030: f596 b8bd db84 893c a2fb 8cbd fd9f 513d
00000040: 841c 953d 3e2e c7bc 03c4 6dbc 7efb 05bd
00000050: 9535 9bbc 4e87 c3bd ac06 70bd 9f32 2bbd
00000060: 776d 993c 02b8 633d 0db0 153d 04d9 353c
00000070: 5723 a3bd 2f03 c5bc e1a2 45bd 41a3 fabc
00000080: c0b9 e13c 4bbe 87bd c051 8a3d dc2e 513d
00000090: fbfe 483d 2040 86bd af8d c4bc 34a0 0cbd
000000a0: a333 e53c 0613 b0bb da91 9bbc ab3e 0fbb
000000b0: 2af3 d338 6407 e93c ddf4 a4bc 38ee c5bc
000000c0: 17fe 953d 7a5f b13d cf85 9b3c 9f90 af3d
000000d0: 8144 a2bd 9e95 bf3d ccfa a0bd bbfc 7fbd
000000e0: f1a6 ffbb c109 96bd e335 1ebd f2ab 53bd
000000f0: e4ca a5bd a4a3 7b3d f8a0 9f3d d7e2 8c3b
00000100: 021e d13c b0fb adbc b285 24bd 5785 4dbc
00000110: cfa1 8a3d 735c bc3d f54f 633c a70c d1bb
00000120: cc95 b93d a9f9 ef3b c52e c5bd ac8f 6ebd
00000130: 3c93 36bc d2da bcbc f5e8 b63d 22f2 5bbd
00000140: 898b a53c 6374 2fbc 4b2e 803d 0296 493d
00000150: af5c 753c d01d b9bc ecd7 5abd ce71 bbbd
00000160: 8d95 493d 8c8d 153d d4f9 203d 9a5b d43c
00000170: 707d a43d 8ab5 f53c 2368 1d3c 5b35 25bd
00000180: e38b 833d 5f4b 7ebd b27d b33c 3152 ef3c
00000190: 36e4 a9bb 581f 9e3d a04c 493d 3634 adbd
000001a0: 9ce5 0ebd b20c 1fbd e45b 303d e9b1 083c

siam_layer.conv6.weight f4 [1, 3, 6, 6]
-0.010782436 -0.009236438 0.058947142 -0.02205853 0.06885347 -0.08155525 0.07832656 0.029680492
0.0410705 -0.061848897 -0.091850564 -0.095672905 -0.01082717 0.093426116 0.09418619 0.0075227646
0.09137906 -0.08952869 -0.0036851119 0.072158374 0.031372543 0.09070451 0.025867626 -0.09531509
-0.08669217 0.012468245 -0.05182157 0.01608662 0.03113107 0.09173579 0.022380136 0.0042175725
-0.080592714 0.08971608 0.05538071 -0.04775507 -0.07368223 -0.056464873 0.0019196778 -0.030699402
-0.033271704 -0.08434065 -0.0431329 -0.039728835 0.05698786 0.048409604 0.0435813 -0.0061992384
-0.07681699 -0.0003027248 0.05676186 0.031947736 0.040159307 0.06607252 -0.018785369 -0.019613756
-0.012245768 -0.017259007 -0.04925046 -0.058315746 0.07661318 0.055563226 -0.06746393 0.011262663
-0.04839555 -0.0070426245 -0.07742297 -0.07738301 0.08466655 0.050292496 0.06275132 0.034513168
-0.07354171 -0.03888159 0.051251512 -0.012365967 -0.07398845 -0.09525937 -0.09594701 -0.044212736
0.04497038 0.08661911 0.049509827 -0.05582216 -0.043259848 0.016877584 -0.09453545 -0.0859133
-0.07375689 0.027796883 -0.031463448 -0.038274705 0.075833365 0.05768711 0.029702712 -0.05403313
-0.030331718 0.0030226074 -0.050600585 -0.05105926 -0.095530696 -0.060647447 -0.09022938 0.05984844
0.01168273 -0.025995394 0.07956572 -0.03954201
00000000: d0a8 30bc 6e54 17bc 8f72 713d 17b4 b4bc
00000010: 0c03 8d3d 7006 a7bd ad69 a03d 8124 f33c
00000020: 8a39 283d 4555 7dbd 261c bcbd 28f0 c3bd
00000030: 7164 31bc 3156 bf3d b0e4 c03d 8681 f63b
00000040: f224 bb3d d15a b7bd eb81 71bb c5c7 933d
00000050: 7f80 003d 49c3 b93d 58e8 d33c 8f34 c3bd
00000060: aa8b b1bd 9c47 4c3c db42 54bd 16c8 833c
00000070: 9606 ff3c f9df bb3d 8c56 b73c 9033 8a3b
00000080: cb0d a5bd 10bd b73d e2d6 623d d29a 43bd
00000090: b6e6 96bd b647 67bd b39d fb3a 507d fbbc
000000a0: e947 08bd caba acbd 20ac 30bd b4ba 22bd
000000b0: 1a6c 693d 2649 463d 4e82 323d fb22 cbbb
000000c0: 3a52 9dbd 09b7 9eb9 207f 683d a1db 023d
000000d0: 167e 243d 0851 873d c6e3 99bc 07ad a0bc
000000e0: 79a2 48bc c362 8dbc daba 49bd 7edc 6ebd
000000f0: 5fe7 9c3d 4496 633d 872a 8abd 0887 383c
00000100: 6a3a 46bd d1c5 e6bb ef8f 9ebd fc7a 9ebd
00000110: a865 ad3d 81ff 4d3d c483 803d ae5d 0d3d
00000120: 099d 96bd 4d42 1fbd 1bed 513d a09a 4abc
00000130: 4287 97bd 5817 c3bd de7f c4bd 6a18 35bd
00000140: dc32 383d 5c65 b13d d1ca 4a3d c7a5 64bd
00000150: 3d31 31bd dc42 8a3c cd9b c1bd 50f3 afbd
00000160: da0d 97bd 4ab6 e33c d1df 00bd f0c5 1cbd
00000170: 864e 9b3d 5249 6c3d 1a53 f33c d851 5dbd
00000180: 397a f8bc f016 463b 8f42 4fbd 8423 51bd
00000190: 99a5 c3bd 7569 78bd 2eca b8bd a323 753d
000001a0: ec68 3f3c 4bf4 d4bc 5af3 a23d cdf6 21bd

siam_layer.conv7.weight f4 [1, 2, 6, 6]
0.028924786 0.06372607 -0.083724126 0.11000771 0.012767993 0.080288306 0.03440467 -0.10110484
-0.07999468 -0.07214714 0.0945093 -0.0010364627 -0.054930795 0.0019167712 -0.11139778 0.090993434
-0.11177022 -0.009379713 -0.041826766 -0.020936966 -0.1114058 0.017434895 0.11183199 -0.024276702
0.023325138 0.015981942 0.08443635 -0.015700294 0.10777785 5.3085223e-05 -0.09020215 0.029339774
0.006247616 -0.023804696 -0.095622145 0.046940196 0.09098199 -0.035474278 -0.10720731 -0.06537826
0.04036685 0.089457996 0.05677071 0.06568846 -0.06440406 -0.06894637 0.11011033 -0.0985548
-0.106965356 0.008719295 -0.09502663 -0.0073979986 0.035367806 -0.090057895 -0.050548952 0.11483074
-0.11258942 -0.0937485 -0.09211335 -0.018462848 0.02804918 0.027691493 0.09995439 0.033280335
-0.09864717 0.035256527 -0.11413669 -0.07556345 -0.015437539 0.06917783 0.02491313 0.1066853
00000000: acf3 ec3c d082 823d 8e77 abbd b94b e13d
00000010: d830 513c 326e a43d e9eb 0c3d 0e10 cfbd
00000020: 40d4 a3bd e1c1 93bd 188e c13d ebd9 87ba
00000030: 1dff 60bd 2b3c fb3a 8524 e4bd c45a ba3d
00000040: c9e7 e4bd 5ead 19bc 8b52 2bbd 0084 abbc
00000050: b928 e4bd a0d3 8e3c 2c08 e53d efdf c6bc
00000060: 5c14 bf3c 90ec 823c f7ec ac3d e79d 80bc
00000070: a2ba dc3d d3a7 5e38 e8bb b8bd f759 f03c
00000080: cdb8 cc3b 1102 c3bc 8bd5 c3bd 5d44 403d
00000090: c454 ba3d 7a4d 11bd 828f dbbd 0ae5 85bd
000000a0: b657 253d c135 b73d 6788 683d ac87 863d
000000b0: 47e6 83bd c133 8dbd 8681 e13d 19d7 c9bd
000000c0: a710 dbbd 60db 0e3c 529d c2bd e96a f2bb
000000d0: d5dd 103d 4670 b8bd 6b0c 4fbd 612c eb3d
000000e0: 4895 e6bd 37ff bfbd eda5 bcbd 663f 97bc
000000f0: 65c7 e53c 45d9 e23c e3b4 cc3d f650 083d
00000100: 8707 cabd 2669 103d 7fc0 e9bd 03c1 9abd
00000110: bbed 7cbc 1bad 8d3d 9f16 cc3c d37d da3d

dense.weight f4 [1, 308]
-0.033348072 0.040027358 -0.035943937 0.049108982 -0.015865814 0.018085508 0.012235759 -0.0063474188
0.0025571059 -0.0027366264 -0.04648797 -0.023022665 -0.005514884 0.022632541 -0.040027183 -0.034355965
-0.031692926 -0.00017613891 0.01993527 0.010649523 -0.03949348 0.03278295 0.01575234 0.039037302
-0.038452532 -0.00035131004 -0.0034435317 0.02685167 -0.02271608 0.039462868 0.024798026 0.01866851
-0.026908765 -0.010665199 -0.016155064 -0.034541704 -0.033321828 0.0023519779 0.02193701 0.01007248
-0.011731394 0.0024098163 0.0194149 -0.01915256 -0.047762588 -0.0507654 0.00046551213 0.003623263
0.0026360487 0.031245321 0.047596157 -0.05146098 -0.01738027 -0.0025928926 -0.041202232 0.005654365
-0.0505717 -0.04719997 0.029143423 0.055090785 0.050302863 -0.044805866 0.0074197645 0.043304462
0.0083074095 0.040314205 0.051106438 0.037274703 -0.038556717 -0.010843265 0.025138555 0.008041756
-0.020617984 -0.007535901 -0.013214438 0.054667093 -0.03406992 0.042551335 -0.047897376 0.040164486
-0.02755753 0.0012806542 -0.014438559 0.005701972 -0.009603639 0.017911954 -0.043199882 -0.014019126
-0.016945492 -0.053291924 0.008129046 0.033429414 -0.009512879 -0.03381182 -0.051454477 0.029262047
-0.054789748 0.006129522 -0.032285083 0.053240754 0.01857166 0.038932357 0.043521628 -0.025803437
-0.032602698 -0.0017773481 -0.0061530266 -0.050227378 0.021615975 -0.0466771 0.019866662 -0.018110821
0.00786278 -0.033638008 0.01345412 0.004597116 -0.01801018 0.035936024 0.03148844 0.0002085025
-0.04030123 -0.048286002 0.0039985147 0.03924757 -0.024741296 -0.025508475 -0.053056147 -0.051128075
-0.012138519 0.00599989 0.0027062625 -0.013407389 -0.025847685 -0.051381484 0.04523829 -0.044516057
0.032892667 0.026627224 0.009623813 -0.041423235 -0.03356856 0.025994381 -0.050949436 0.021516116
-7.436694e-05 -0.038598042 -0.009145408 0.030398676 -0.051607534 0.015894188 0.0017008301 -0.047868617
-0.026871352 0.024013741 0.016889028 0.004800314 0.0035788277 0.05565388 0.027698552 0.045239102
0.041330535 0.051903404 -0.054609295 -0.010661317 0.03896595 0.035127185 -0.008875514 0.053267833
0.041474544 -0.019041436 -0.050374407 0.021935815 0.033021405 -0.00014159753 0.054964278 -0.013744357
-0.018873172 0.048973262 0.030520225 0.0433172 -0.05234049 0.041168235 -0.013119172 -0.044723194
0.04278254 0.031132283 0.037929453 0.005792761 0.0069211833 0.035662647 -0.025514638 -0.021180332
0.0046260874 -0.0048972685 0.017928446 0.0019264249 0.03957088 -0.010905573 0.051761832 0.055719092
-0.0059513776 0.024220742 0.0141280405 0.03474323 -0.030065281 0.037568092 0.04457131 -0.017487641
0.030757168 -0.0153566385 -0.038258165 0.038833715 -0.022087978 0.035432912 -0.036616676 0.026528513
-0.025014445 0.05308014 -0.039331064 -0.025557566 0.047737896 0.019330075 0.029476386 0.022525448
-0.031190004 0.014138278 0.04604529 0.017310765 0.002750036 -0.03552336 0.05392934 0.02780648
-0.008201943 -0.022539228 0.054650202 -0.023257999 -0.020888489 0.034335323 -0.05531204 -0.010402587
0.039244063 -0.032218248 0.026055867 -0.027993841 0.029320052 -0.047212508 0.017116243 0.03919132
-0.0077798506 0.016369462 0.021580793 0.023615314 0.033204976 -0.043900404 -0.04881203 -0.0128605915
00000000: fd97 08bd baf3 233d f339 13bd 8026 493d
00000010: 06f9 81bc 0f28 943c 7e78 483c 02fe cfbb
00000020: 1e95 273b f958 33bb 2b6a 3ebd 079a bcbc
00000030: 33b6 b4bb e167 b93c 8bf3 23bd d7b8 0cbd
00000040: 71d0 01bd eeb1 38b9 4b4f a33c 567b 2e3c
00000050: eac3 21bd 6a47 063d 0d0b 813c 94e5 1f3d
00000060: 6780 1dbd 0930 b8b9 e0ac 61bb 09f8 db3c
00000070: 1317 babc d1a3 213d 3b25 cb3c b4ee 983c
00000080: c56f dcbc 16bd 2ebc a057 84bc 9a7b 0dbd
00000090: 787c 08bd a423 1a3b 3fb5 b33c 0b07 253c
000000a0: 0835 40bc 02ee 1d3b ff0b 9f3c d4e5 9cbc
000000b0: b4a2 43bd 61ef 4fbd fb0f f439 4474 6d3b
000000c0: 8fc1 2c3b 30f6 ff3c 30f4 423d c0c8 52bd
000000d0: 1161 8ebc 85ed 29bb acc3 28bd 4048 b93b
000000e0: 4524 4fbd c154 41bd 30be ee3c e0a6 613d
000000f0: 600a 4e3d 5b86 37bd 7f21 f33b 0560 313d
00000100: cd1b 083c 8220 253d fc54 513d 5cad 183d
00000110: a6ed 1dbd f3a7 31bc 5fef cd3c 92c1 033c
00000120: 0ce7 a8bc b8ef f6bb 5f81 58bc 9aea 5f3d
00000130: e78c 0bbd 4f4a 2e3d 0a30 44bd 8483 243d
00000140: 54c0 e1bc a0db a73a b58f 6cbc 9cd7 ba3b
00000150: 9558 1dbc 17bc 923c 5cf2 30bd 7ab0 65bc
00000160: 46d1 8abc a248 5abd b12f 053c 48ed 083d
00000170: e8db 1bbc 437e 0abd eec1 52bd f6b6 ef3c
00000180: 376b 60bd 28da c83b 5d3d 04bd fa12 5a3d
00000190: 9823 983c 8977 1f3d bc43 323d bb61 d3bc
000001a0: 688a 05bd e8f5 e8ba 549f c9bb 39bb 4dbd
000001b0: fc13 b13c 7d30 3fbd 69bf a23c 255d 94bc
000001c0: e4d2 003c 02c8 09bd ab6e 5c3c 67a3 963b
000001d0: 168a 93bc a731 133d 06fa 003d 77a1 5a39
000001e0: e712 25bd 8bc7 45bd f905 833b 0fc2 203d
000001f0: 42ae cabc 26f7 d0bc 6751 59bd ac6b 51bd
00000200: a4e0 46bc ba9a c43b 8d5b 313b aaaa 5bbc
00000210: 86be d3bc 6475 52bd c94b 393d 7856 36bd
00000220: 76ba 063d 5621 da3c 33ad 1d3c 69ab 29bd
00000230: 307f 09bd 2bf2 d43c 5bb0 50bd 9142 b03c
00000240: 72f5 9bb8 fb18 1ebd 9fd6 15bc a506 f93c
00000250: 6c62 53bd 8734 823c 63ee de3a e211 44bd
00000260: 4f21 dcbc 77b8 c43c dc5a 8a3c f44b 9d3b
00000270: c48a 6a3b 53f5 633d 13e8 e23c a34c 393d
00000280: 354a 293d aa98 543d ffad 5fbd ceac 2ebc
00000290: c39a 1f3d 86e1 0f3d 9b6a 11bc 5f2f 5a3d
000002a0: 36e1 293d c9fc 9bbc 6555 4ebd bdb2 b33c
000002b0: 7441 073d cc79 14b9 3922 613d 0330 61bc
000002c0: e99b 9abc 3098 483d 8d05 fa3c 606d 313d
000002d0: fb62 56bd 06a0 283d ccf1 56bc ab2f 37bd
000002e0: bf3c 2f3d 2109 ff3c ea5b 1b3d 34d1 bd3b
000002f0: 18cb e23b ff12 123d 1304 d1bc 6082 adbc
00000300: 6f96 973b 4479 a0bb adde 923c 1880 fc3a
00000310: 1315 223d 4aad 32bc 3704 543d b439 643d
00000320: c603 c3bb 946a c63c 4c79 673c eb4e 0e3d
00000330: 774b f6bc 00e1 193d 6890 363d 3e42 8fbc
00000340: 75f6 fb3c 699a 7bbc 98b4 1cbd 1a10 1f3d
00000350: d9f1 b4bc 1a22 113d 5efb 15bd 5352 d93c
00000360: 18eb ccbc 906a 593d 9c19 21bd 1a5e d1bc
00000370: d088 433d 1b5a 9e3c 7678 f13c 4a87 b83c
00000380: 2e82 ffbc 3ca4 673c fc99 3c3d 4ecf 8d3c
00000390: f339 343b f180 11bd 03e5 5c3d 6aca e33c
000003a0: 7161 06bc 30a4 b8bc e4d8 5f3d 8f87 bebc
000003b0: 561e abbc 32a3 0c3d e18e 62bd 9d6f 2abc
000003c0: 62be 203d 48f7 03bd 1d73 d53c 5753 e5bc
000003d0: 9b30 f03c e761 41bd 5d37 8c3c 1487 203d
000003e0: 1eee febb 4019 863c 34ca b03c e774 c13c
000003f0: f101 083d e9d0 33bd 20ef 47bd 3bb5 52bc
