siamese-classifier/siam_v3_40.pth (torch, 104363 bytes, 12 tensors)

siam_layer.conv1.weight f4 [14, 31, 6, 6]
0	0xbaa579c6	-0.0012624792
1	0xbc6ee6b4	-0.014581371
2	0x3ba43a89	0.0050118607
3	0xbb18d2ad	-0.0023318932
4	0x3cdb583e	0.026775476
5	0x3a967c6d	0.0011481174
6	0x3baeb1d0	0.0053312555
7	0xbc550f84	-0.0130041875
8	0xbc9d5b9d	-0.019208724
9	0xbcf1af55	-0.02950255
10	0xbccb28d8	-0.02479975
11	0x3cd53f5b	0.026031187
12	0xbcda7ce5	-0.026670882
13	0xbbb66fff	-0.00556755
14	0x3b3666c0	0.002783224
15	0x3bf89bc5	0.0075869286
16	0xba84e0f3	-0.0010137841
17	0xbc94e209	-0.018174188
18	0xbcc3bb85	-0.023893127
19	0x3ba266a1	0.004956082
20	0x3b9479dc	0.0045311283
21	0x3aa88ee2	0.0012859965
22	0x3c957c53	0.018247759
23	0x3cce2ecc	0.025168799
24	0xbc72233f	-0.014778911
25	0xbc8552d4	-0.016274847
26	0xbcc71422	-0.024301592
27	0xbb1410bc	-0.0022592982
28	0x3ccb826c	0.024842463
29	0x3cd27bca	0.025693793
30	0x3ce3b3ac	0.027795635
31	0x3ca13e5a	0.019683052
32	0xbc9c0a2a	-0.019047815
33	0x3c93b500	0.018030643
34	0x3c514e36	0.012774995
35	0xbc21dd6f	-0.009879454
36	0xbb191176	-0.0023356355
37	0x3ca724a3	0.020403212
38	0xbc8ae0e2	-0.016952936
39	0x3b242d70	0.0025051497
40	0x3c68232d	0.014168543
41	0xbb5cb91b	-0.0033679667
42	0x3cc33ce4	0.023832746
43	0x3b1f067d	0.0024265342
44	0xbbb01b4b	-0.0053743473
45	0xbafe6a23	-0.0019410293
46	0x3c9c2019	0.019058274
47	0xbcc637d5	-0.024196545
48	0x3b64b21e	0.0034896205
49	0x3cce94b4	0.025217392
50	0xbc7614b9	-0.015019589
51	0x3c2957e8	0.0103359
52	0x3ca5b42e	0.020227518
53	0xbc480f9d	-0.012210754
54	0xbcb0ff82	-0.02160621
55	0xbcd3f29c	-0.025872521
56	0xbb183c75	-0.0023229395
57	0x3cabfe18	0.020995185
58	0xbc20312b	-0.009777348
59	0x3c96bb06	0.018399727
60	0x3c52de01	0.012870313
61	0x3c32ac06	0.010905271
62	0xbbd291b1	-0.006426059
63	0x3c8962ff	0.016770838
64	0xbcecce50	-0.028906971
65	0xbcd0ea21	-0.025502266
66	0x3ce8330f	0.02834466
67	0xbcb3a805	-0.021930704
68	0xbceb9f63	-0.028762525
69	0x3cae37ec	0.0212669
70	0xbc7e7a6a	-0.0155321155
71	0xbcd9fb83	-0.026609188
72	0xbcba8398	-0.022767827
73	0x3c48a854	0.012247164
74	0xbcb56d99	-0.022146987
75	0x3ce32ff9	0.027732836
76	0xbb832c03	-0.0040030493
77	0xbcc929af	-0.02455601
78	0xbcdfd118	-0.027321383
79	0x3ca0549b	0.019571593
80	0x3c9ab526	0.018885206
81	0xbc268be9	-0.010165193
82	0xbab055dd	-0.0013453324
83	0xbc07f0bc	-0.008297142
84	0x3c01c8cb	0.007921408
85	0x3c7fd755	0.015615304
86	0x3cb03964	0.021511741
87	0x3c7acbd4	0.0153073855
88	0x3bd6fdc1	0.0065610115
89	0xbc9b3b2f	-0.01894912
90	0xbce98bf8	-0.028509125
91	0x3cc6c859	0.024265455
92	0x3c6fd270	0.014637575
93	0x3c464aac	0.012102764
94	0xbce40ad5	-0.027837196
95	0xbb337e14	-0.002738838
96	0xbbaeacc0	-0.005330652
97	0xbc9c7a50	-0.019101292
98	0xbcc8c78b	-0.024509212
99	0xbccea51d	-0.025225217
100	0x3c9efd37	0.019407852
101	0xbcc11c59	-0.023573088
102	0xbc4d71b7	-0.012539319
103	0x3bd25231	0.0064184894
104	0xbcdc3b2c	-0.026883684
105	0xbca729fa	-0.020405758
106	0xbc02dbb6	-0.0079869535
107	0xbc8e1713	-0.017344987
108	0xbc790455	-0.015198787
109	0x3a599b17	0.0008301003
110	0x3ceaa1d2	0.028641615
111	0x3b842a92	0.004033395
112	0xbcdd40f9	-0.02700852
113	0xbc8c5b1f	-0.017133294
114	0x3cb83c78	0.022489771
115	0x3c84e7be	0.016223785
116	0xbc972839	-0.018451797
117	0x3aaf2335	0.0013361933
118	0xbcf478e7	-0.029842807
119	0xbcd6b700	-0.026210308
120	0xbc8f73bd	-0.017511243
121	0xbc47c053	-0.01219185
122	0xbcf2ad50	-0.029623657
123	0x3b0a5319	0.002110666
124	0xbcdb026d	-0.026734555
125	0x3b0aa6a8	0.0021156464
126	0xbbfcc43c	-0.0077138226
127	0xbcda779a	-0.026668359
128	0xbc87dda5	-0.01658518
129	0x3c1d4021	0.009597809
130	0x3bf4276a	0.0074509876
131	0x3c013314	0.007885713
132	0xbcf399f5	-0.029736498
133	0x3c08ecad	0.008357209
134	0xbcd5702e	-0.026054468
135	0xbca8ef95	-0.020622054
136	0xbc226d52	-0.009913759
137	0xbaa4b7ed	-0.0012567021
138	0x3c646cab	0.013941924
139	0x3cc35416	0.023843806
140	0x3c94660e	0.01811507
141	0x3c4870f1	0.012233959
142	0xbc5da380	-0.013527751
143	0xbc642ffa	-0.013927454
144	0xbc026c0f	-0.0079603335
145	0xbb8578d0	-0.00407324
146	0xbc7d3ff2	-0.01545714
147	0xbcce1d10	-0.025160342
148	0xbc823422	-0.015894
149	0x3c34ab44	0.011027161
150	0x3c7e0183	0.01550329
151	0x3c92194d	0.01783433
152	0xbce6a0a2	-0.028152768
153	0xbcd3cd47	-0.02585472
154	0x3c8ef9d8	0.01745312
155	0x3c8060ee	0.01567122
156	0xbc52615b	-0.012840594
157	0x3c8ec67d	0.017428631
158	0xbc930146	-0.017944943
159	0x3b2307da	0.0024876506
160	0x3c6acd80	0.014331222
161	0x3c228c3d	0.009921131
162	0x3cc84771	0.024448128
163	0x3cb0e495	0.021593371
164	0xbcdbe5fc	-0.026843064
165	0x3cace07b	0.021103134
166	0xbccdfd25	-0.025145123
167	0x3c1acdbf	0.009448468
168	0xbcb4f147	-0.022087706
169	0xbc777489	-0.015103468
170	0x3ce88321	0.02838284
171	0x3c7cef45	0.015437906
172	0xbba8f19b	-0.0051557547
173	0x3cd534ee	0.026026215
174	0xb90c6e65	-0.00013392566
175	0x3b0fde40	0.002195254
176	0x3c279f76	0.01023089
177	0xbb617991	-0.0034404735
178	0x3c051ae0	0.008124083
179	0xbccc0192	-0.024903093
180	0xba570883	-0.00082028675
181	0x3cb3972c	0.02192267
182	0xbc09a895	-0.0084020095
183	0xbc354540	-0.011063874
184	0x3c072851	0.008249358
185	0x3bb9b843	0.0056677177
186	0xbc8d4726	-0.01724584
187	0x3c42cef1	0.011890159
188	0xbcbe8824	-0.023258276
189	0x3c9bf7df	0.019039093
190	0xbcbf6374	-0.023362853
191	0xbcb457d9	-0.022014545
192	0xbc928f12	-0.017890487
193	0x3c8b9edf	0.01704353
194	0x3c84ba27	0.016202046
195	0xbc94b002	-0.018150333
196	0x3b86cf60	0.0041140765
197	0xbcc9ccd8	-0.02463381
198	0xb9c58c70	-0.00037679402
199	0xbc9a61a3	-0.018845385
200	0xbc09b3f6	-0.008404722
201	0x3c92a46a	0.017900664
202	0xbce8003c	-0.028320424
203	0x3ccb8956	0.02484576
204	0x3ae0f49d	0.0017162744
205	0xbbab34a8	-0.005224783
206	0x3c972d60	0.018454254
207	0x3ce63000	0.02809906
208	0xbce3aaea	-0.02779146
209	0x3bdc44b4	0.0067220572
210	0x3cde96a4	0.02717144
211	0x3c763631	0.015027569
212	0x3add8c11	0.0016902705
213	0x3c6f948c	0.014622819
214	0xbcc70445	-0.024294028
215	0x3c23eb88	0.0100048855
216	0x3cc2972b	0.023753723
217	0xbc61b6c0	-0.013776481
218	0x3c9672fd	0.018365378
219	0xbb0d40de	-0.0021553556
220	0x3cb6931c	0.022286944
221	0xbc3f693c	-0.011682805
222	0x3ccc8098	0.024963662
223	0xbc08dcfd	-0.008353469
224	0xbc9f45b3	-0.019442415
225	0x3bc979b2	0.0061485404
226	0x3c2c9ae0	0.010534972
227	0x3c014668	0.007890321
228	0xbcf1de95	-0.02952508
229	0x3cef1de3	0.029189056
230	0xbc7f2155	-0.015571912
231	0xbbdfb1d3	-0.006826618
232	0xbc50a16b	-0.012733798
233	0x3b2be1d0	0.0026227124
234	0xbc83141f	-0.016000805
235	0x3b9b0a37	0.0047314423
236	0xbcee7c6f	-0.029112069
237	0xbbdec5b8	-0.0067984723
238	0xbce0c170	-0.027435988
239	0x3bbd4026	0.0057754694
240	0xbadba71e	-0.0016758179
241	0x3c66e7a4	0.014093313
242	0xbcbb8288	-0.02288939
243	0x3c570b2b	0.013125221
244	0x3cd9f65a	0.026606727
245	0x3b91c97e	0.0044490686
246	0xbc732c28	-0.014842071
247	0xbbec0d4f	-0.007203735
248	0x398cade0	0.00026832428
249	0xbc2c5f4b	-0.0105207665
250	0xbc26279b	-0.010141279
251	0xbce655ad	-0.028117025
252	0x3ca809a9	0.020512419
253	0x3c2368d8	0.009973727
254	0x3c0dac54	0.008647043
255	0xbb3a7560	-0.0028451309

siam_layer.conv1.bias f4 [14]
0	0x3c58fa4c	0.013243269
1	0x3cf4e9fa	0.029896725
2	0x3c004b84	0.007830504
3	0xbcd3480c	-0.02579119
4	0x3cbfe5e2	0.023425046
5	0x3cf1107a	0.029426802
6	0xbcb0d774	-0.021587111
7	0x3bb2b158	0.00545327
8	0xbc6bbac4	-0.01438779
9	0x3c06a988	0.00821913
10	0x3c7e114c	0.015507054
11	0x3cd99648	0.026560917
12	0x3c938744	0.018008836
13	0x3c160b14	0.009157915

siam_layer.conv2.weight f4 [7, 14, 6, 6]
0	0xbc5bdcaa	-0.01341931
1	0xbd2f3996	-0.042779528
2	0x3c017d83	0.0079034595
3	0xbc6e234b	-0.014534782
4	0xbbc9c881	-0.006157935
5	0x3c1518a9	0.009100118
6	0xbd0c8a61	-0.034311656
7	0x3cbda3dd	0.023149425
8	0x3bd6dff8	0.006557461
9	0xbd207ac1	-0.039179567
10	0xbc8bb62f	-0.017054645
11	0x3cd0807d	0.025451893
12	0x3c6683f1	0.014069543
13	0xbd3349bc	-0.04377149
14	0x3bbfadcd	0.005849576
15	0x3d342ba1	0.04398692
16	0x3c3d35d0	0.011548474
17	0x3ca3dba0	0.020002186
18	0xbc8fe778	-0.017566428
19	0xbc4be178	-0.012443893
20	0x3cb9b7ac	0.02267059
21	0x3d22c667	0.039739992
22	0x3d09b7c4	0.03362252
23	0x3c15e034	0.0091476925
24	0xbc19285a	-0.0093479995
25	0xbc95289a	-0.018207837
26	0xbd353c84	-0.044247165
27	0x3c1ef04f	0.009700849
28	0x3d033143	0.0320294
29	0x3aa27af5	0.0012396263
30	0x3d22b1a7	0.039720204
31	0xbcbcc5bc	-0.023043506
32	0x3cbe50ad	0.023231829
33	0x3ced757e	0.028986689
34	0x3c52c5fa	0.012864584
35	0xbc192637	-0.00934749
36	0xbd25e977	-0.040505853
37	0x3d05ed48	0.032696992
38	0xbca03acf	-0.019559292
39	0xbd292985	-0.04129936
40	0x3d208c73	0.039196443
41	0x3c2c41fe	0.010513781
42	0xbca1def9	-0.019759642
43	0x3d084c21	0.033275727
44	0x3cb30f73	0.021857953
45	0x3d097286	0.033556484
46	0x3cf05ccb	0.029341122
47	0xbcc64581	-0.024203064
48	0x3cf713f1	0.030160876
49	0xbcd1b7fc	-0.025600426
50	0xbd0c1af8	-0.034205407
51	0x3c84693c	0.01616346
52	0xbd0cabf2	-0.034343667
53	0xbcdbf076	-0.02684806
54	0x3c09d906	0.008413559
55	0x3c340b50	0.010989025
56	0xbd080031	-0.033203308
57	0xbcc9ed07	-0.024649156
58	0xbca5fc9e	-0.020262059
59	0xbbbcc2ff	-0.00576055
60	0x3d1496de	0.03627669
61	0xbcd3985d	-0.025829488
62	0xbcc67d33	-0.024229622
63	0xbc81a922	-0.01582772
64	0x3c94b225	0.018151352
65	0xbcb40e1d	-0.021979386
66	0xbd365003	-0.0445099
67	0x3c00f73c	0.007871445
68	0xbd013ef7	-0.03155419
69	0xbcd8cd15	-0.026464978
70	0x3d2202b0	0.039553344
71	0x3d1c70d8	0.038193554
72	0xbd0b8055	-0.034057934
73	0xbc05e0a9	-0.008171239
74	0xbc2cf79c	-0.010557082
75	0x3c5eb520	0.013592988
76	0x3cd57c53	0.026060259
77	0xbb9e4e3a	-0.0048311027
78	0x3c740523	0.014893803
79	0x3ab00901	0.0013430418
80	0xbc43ff64	-0.011962745
81	0x3a817135	0.0009875657
82	0xbd262ab4	-0.04056807
83	0x3c3e5d57	0.011618934
84	0x3c936299	0.017991351
85	0xbc406036	-0.0117416885
86	0x3c0f9386	0.0087632
87	0xbd343ef0	-0.044005334
88	0xbbfca83c	-0.007710485
89	0xbc77d069	-0.015125372
90	0xbd2a1135	-0.041520316
91	0xbc84980a	-0.01618578
92	0xbc621f07	-0.013801343
93	0x3c8db069	0.017296033
94	0x3c2bd618	0.010488056
95	0xbd0c6f75	-0.03428598
96	0xbb87978e	-0.00413794
97	0x3d1c2254	0.038118675
98	0x3c9b12fa	0.018929947
99	0xbc649ce0	-0.013953418
100	0x3d2614bc	0.040547118
101	0x3c812892	0.015766416
102	0x3d13fdf4	0.03613086
103	0x3d0b3860	0.03398931
104	0xbaf8e618	-0.0018989472
105	0x3cc853f1	0.024454089
106	0x3c9f1718	0.019420192
107	0xbd2b0697	-0.04175433
108	0x3d1c92a3	0.03822578
109	0xbc39b174	-0.011333812
110	0xbc1c6a46	-0.009546822
111	0xbcb706b6	-0.022342067
112	0x3c814baa	0.01578315
113	0xbd320dcd	-0.043470193
114	0xbd17767a	-0.036978222
115	0x3d09773c	0.033560976
116	0x3d28b583	0.041188728
117	0x3cc89b00	0.024487972
118	0xbc54be6e	-0.012984855
119	0x3c99722f	0.018731205
120	0xbcc66e5b	-0.024222543
121	0xbd150f0a	-0.036391295
122	0x3d090231	0.033449356
123	0xbc058b32	-0.0081508625
124	0xbbc80ca0	-0.0061050206
125	0x3beebf24	0.0072859693
126	0x3cc3e683	0.023913627
127	0x3c7682bd	0.015045819
128	0xbc28e4dd	-0.0103084715
129	0x3c31da3b	0.010855253
130	0xbc75f555	-0.015012105
131	0xbb7c93ca	-0.0038540238
132	0x3cce14d5	0.025156418
133	0xbd046a8c	-0.032328174
134	0xbcc6955e	-0.024241146
135	0xbbeb6d61	-0.00718467
136	0xbca3629c	-0.019944482
137	0xbbca8aa0	-0.006181076
138	0x3d04fb76	0.032466374
139	0xbcfc75dc	-0.030817918
140	0xbcd0ce9a	-0.02548914
141	0x3c775b3f	0.015097438
142	0xbd267f81	-0.04064894
143	0xbc85291d	-0.016254956
144	0xbccde5e6	-0.025134038
145	0xbadfd620	-0.0017077364
146	0xbcc70b98	-0.02429752
147	0xb923eb9c	-0.00015632663
148	0x3c7ddd4b	0.015494655
149	0xbb5f5776	-0.003407923
150	0xbcc720b3	-0.024307584
151	0xbc975c49	-0.018476622
152	0xbd1b02d5	-0.037844498
153	0x3c9c9dd5	0.019118229
154	0x3c8357af	0.016033022
155	0xbc851b88	-0.01624848
156	0xbb8a12f2	-0.0042136842
157	0xbba2aabc	-0.004964201
158	0x3d0b4d5d	0.034009326
159	0xbb2c6410	-0.002630476
160	0xbc9e374e	-0.01931348
161	0x3bf166af	0.007366977
162	0x3d2281dd	0.03967463
163	0x3ccef115	0.025261441
164	0x3cf47522	0.02984101
165	0xbc9591ef	-0.018258063
166	0xbcafc495	-0.021456042
167	0x3cc2047d	0.02368378
168	0xbc7223ce	-0.014779044
169	0xbc5e4115	-0.013565321
170	0x3c6fb3ba	0.0146302525
171	0x3d2acf3d	0.041701544
172	0xbcb15480	-0.021646738
173	0xbd24e7f8	-0.040260285
174	0x3bb252b5	0.0054419884
175	0xbcad2c6e	-0.02113935
176	0xbccac0ac	-0.024750076
177	0x3cb8d9df	0.022564827
178	0x3b655d12	0.0034998101
179	0xbcfe16f2	-0.0310168
180	0x3d343f0d	0.044005442
181	0x3cb300d1	0.021850975
182	0x3ceb5415	0.028726617
183	0xbc6cf213	-0.014462012
184	0xbd310607	-0.04321864
185	0x3cfcfac4	0.030881293
186	0xbd022799	-0.031776045
187	0xbd1f92d4	-0.038958386
188	0x3d16af38	0.036788195
189	0xbba8ac87	-0.00514752
190	0x3c545973	0.0129607795
191	0xbcfc4e34	-0.030799009
192	0x3cc44aed	0.023961509
193	0x3c0d4f70	0.008624896
194	0x3c95ece9	0.018301444
195	0x3d017ba9	0.031612072
196	0xbbcea5c8	-0.0063063838
197	0xbd198625	-0.037481446
198	0xbc175497	-0.009236476
199	0xbcf03a4b	-0.029324671
200	0xbc8818d8	-0.016613409
201	0xbd0bc100	-0.034119606
202	0x3bd617c0	0.006533593
203	0xbd0a1759	-0.033713672
204	0x3bf1fdce	0.007384992
205	0x3cca1379	0.024667488
206	0x3cdb6109	0.026779668
207	0xbcdfb986	-0.027310144
208	0x3c10a31f	0.008827954
209	0x3c1296f0	0.008947119
210	0x3d03b96d	0.032159258
211	0x3cec2ee2	0.02883095
212	0x3c0d4a1d	0.008623627
213	0xbccc23cc	-0.024919413
214	0x3ce9db6f	0.028547017
215	0x3c90c546	0.017672192
216	0x3cfca562	0.03084058
217	0x3d2ee82c	0.042701885
218	0xbd3216e5	-0.043478865
219	0xbb23406b	-0.0024910222
220	0x3cd28b27	0.025701119
221	0x3cb6ee6a	0.022330482
222	0x3c518742	0.012788596
223	0xbbba812c	-0.005691668
224	0x3d367e9c	0.044554338
225	0x3ce74d08	0.028234974
226	0x3ceb938d	0.028756881
227	0x3c91fb23	0.017819947
228	0xbcd3050f	-0.025759248
229	0xbc2468d6	-0.01003476
230	0x3c158836	0.0091267135
231	0x3b2526d0	0.0025200136
232	0xbc55bf44	-0.01304609
233	0x3d2b5a96	0.041834436
234	0xbc6bce4a	-0.014392445
235	0x3d13c1cb	0.036073487
236	0xba227e65	-0.0006198644
237	0xbc91437a	-0.01773237
238	0xbca12e9e	-0.01967555
239	0x3ce05b2a	0.02738722
240	0x3ca8d342	0.020608548
241	0x3bba364c	0.005682742
242	0x3cdfe9a1	0.027333083
243	0x3d003dc2	0.031308897
244	0xbd14e97d	-0.036355484
245	0x3d0a8975	0.033822495
246	0x3bd277c5	0.006422969
247	0xbc3ef16d	-0.01165424
248	0xbce219f5	-0.027600268
249	0x3ca8d65f	0.020610033
250	0x3d2af7ce	0.04174023
251	0x3cd645ec	0.026156388
252	0xbd1ad4db	-0.03780065
253	0x3c75578f	0.014974489
254	0x3d1e7ce4	0.038693324
255	0xbd1b60df	-0.03793418

siam_layer.conv2.bias f4 [7]
0	0x3cf74ad0	0.03018704
1	0x3ca3bee0	0.019988477
2	0xbc930c79	-0.017950283
3	0xbc678aa6	-0.014132177
4	0xbd2290e7	-0.03968897
5	0x3d0a6784	0.033790126
6	0xbcb2e253	-0.021836435

siam_layer.conv3.weight f4 [7, 14, 6, 6]
0	0x3c219211	0.009861485
1	0x3ccb1a3b	0.024792781
2	0xbce85295	-0.02835969
3	0xbcf469f9	-0.029835688
4	0x3bd0ea73	0.006375605
5	0x3c98d952	0.018658314
6	0x3cb3fe45	0.021971831
7	0x3d2c0092	0.04199273
8	0xbcee9fd0	-0.029128939
9	0x3ca6c2aa	0.020356495
10	0x3c4e5b33	0.012594986
11	0xbd2cfed1	-0.0422352
12	0x3d29293d	0.041299094
13	0xbce59517	-0.028025193
14	0xbb4b8f1b	-0.003106064
15	0xbca6bc58	-0.020353481
16	0xbd25c680	-0.040472507
17	0xbd2f8ebc	-0.04286073
18	0xbb804829	-0.003914852
19	0xbc53146f	-0.01288329
20	0xbc5e7d64	-0.0135797
21	0x3c8277cc	0.015926264
22	0xbce70b8f	-0.028203754
23	0x3d0fc29c	0.035097703
24	0xbcf1a105	-0.029495725
25	0x3b7a6f12	0.0038213176
26	0xbd15ac24	-0.03654112
27	0xbc9915ea	-0.018687207
28	0x3c515c6d	0.012778384
29	0x3cf34d02	0.029699806
30	0xbc216188	-0.009849913
31	0x3b86cecd	0.004114008
32	0x3c3ed2a0	0.011646897
33	0xbcd83f74	-0.026397444
34	0xbd2c1d6e	-0.042020254
35	0xbce0075c	-0.02734726
36	0xbc67eb64	-0.014155243
37	0x3d049d3a	0.032376505
38	0x3bd56e11	0.006513365
39	0x3b63759f	0.0034707559
40	0x3cba9392	0.022775445
41	0xb9592f93	-0.00020712455
42	0x3c9ace25	0.018897125
43	0x3d190517	0.03735837
44	0x3cf68fbd	0.030097837
45	0x3c833522	0.016016547
46	0xbcb2c306	-0.02182151
47	0x3a85487b	0.0010168696
48	0xbb9c485a	-0.004769367
49	0x3c3462e7	0.011009908
50	0xbc2cd4b0	-0.0105487555
51	0xbd03a054	-0.032135323
52	0x3ceef670	0.029170245
53	0x3bba8cfc	0.005693076
54	0xbcbfb352	-0.023400936
55	0xbcdec513	-0.027193582
56	0x3cc97f28	0.024596766
57	0x3cc33ca4	0.023832627
58	0xbc2da3af	-0.010598107
59	0xbcc4bdeb	-0.024016341
60	0x3bb83b7e	0.0056223264
61	0x3cf14d59	0.029455828
62	0x3d17bb9f	0.037044164
63	0xbd1e84b2	-0.038700767
64	0x3d075bc2	0.03304649
65	0xbafccd45	-0.0019287249
66	0x3cc41145	0.023934016
67	0xbd1a348e	-0.037647776
68	0xbaa4ff4d	-0.0012588293
69	0xbce202b4	-0.02758918
70	0x3d1717ea	0.03688804
71	0xbb65cb34	-0.0035063745
72	0xbc91d9c9	-0.017804043
73	0x3c2f137a	0.010685796
74	0x3d296176	0.04135271
75	0xbd2c0330	-0.041995227
76	0xbccb84bd	-0.024843568
77	0xbd2adbe2	-0.041713603
78	0x3cda8a8b	0.02667739
79	0xbcf5bfa8	-0.029998615
80	0xbc9f3576	-0.019434672
81	0xbd10c65a	-0.035345413
82	0x3ca0a8d1	0.019611748
83	0xbc632f87	-0.013866312
84	0xbd2db66e	-0.042410307
85	0x3cba3989	0.022732513
86	0xbd175ee7	-0.03695574
87	0xba3ef274	-0.0007284053
88	0x3d1ea10b	0.0387278
89	0xbd14187f	-0.036156174
90	0x3c5a1138	0.013309769
91	0xbbc249a4	-0.005929189
92	0x3ca932b5	0.020654062
93	0xbd2114f2	-0.039326616
94	0x3c31cef8	0.010852568
95	0xbc58323f	-0.013195573
96	0xbbd7ce37	-0.006585862
97	0xbd103da6	-0.035215043
98	0x3cc39ab8	0.023877487
99	0xbcabb200	-0.0209589
100	0x3cceaa54	0.025227703
101	0xbb8a20f6	-0.004215355
102	0xbc3da5e9	-0.011575201
103	0xbd262246	-0.04056003
104	0xbd29771f	-0.04137337
105	0xbd0927aa	-0.033485092
106	0x3a8d95b7	0.0010802065
107	0xbd286687	-0.041113403
108	0x3d27c745	0.040961523
109	0xbd19908a	-0.03749136
110	0xbc57e8d9	-0.013178074
111	0x3c3ddf42	0.011588873
112	0xbd1cd3d0	-0.038287938
113	0x3c08ef95	0.008357902
114	0xbcdfaaae	-0.027303066
115	0xbc3f2f5c	-0.011669006
116	0x3c79a73d	0.015237627
117	0x3d251643	0.040304434
118	0x3ce6b589	0.028162735
119	0x3cc7383e	0.02431881
120	0xbd1bb4ad	-0.038014103
121	0x3c6221d3	0.01380201
122	0x3cb53189	0.022118347
123	0xbd3121e2	-0.043245204
124	0xbbd393ea	-0.0064568417
125	0xbd30c177	-0.043153252
126	0x3d10d686	0.035360835
127	0xbbdcd2e0	-0.0067390054
128	0xbb49b13f	-0.0030775813
129	0xbba62dc2	-0.0050713727
130	0xbcfa7256	-0.030572098
131	0x3d1c1528	0.038106114
132	0x3cb72fa5	0.022361586
133	0xbd233363	-0.039843928
134	0xbcc7e8e3	-0.024403041
135	0x3d15096e	0.036385946
136	0x3cd0edb1	0.025503965
137	0xbc2a6790	-0.010400668
138	0xbc771eac	-0.015082996
139	0xbd01f46a	-0.031727232
140	0xbc84ba81	-0.016202213
141	0xbbdbedf7	-0.006711717
142	0x3cb75e4a	0.022383828
143	0xb9408e76	-0.00018363618
144	0x3c3c9c85	0.011511927
145	0xbcc832c7	-0.024438275
146	0x3a6d10bc	0.0009043326
147	0x3d15e504	0.03659536
148	0xbc059c06	-0.008154875
149	0x3cfaca3b	0.03061401
150	0x3d1e19e7	0.03859892
151	0xbce4e15c	-0.027939491
152	0x3c9a8c6c	0.018865786
153	0xbd11601e	-0.035492055
154	0x3d20002a	0.039062656
155	0xbd0afa66	-0.033930205
156	0xbc76e3e0	-0.015068978
157	0xbb79a674	-0.0038093599
158	0xbd273955	-0.04082616
159	0x3d1b743f	0.037952658
160	0xbcef721a	-0.029229213
161	0x3d08373b	0.033255797
162	0x3cba0f28	0.022712305
163	0x3c1202a9	0.008911767
164	0xbbba48a8	-0.005684931
165	0xbd269fb2	-0.04067964
166	0xbca5ef18	-0.02025561
167	0xbcffe464	-0.031236835
168	0xbd212c31	-0.039348785
169	0xbc05567b	-0.008138294
170	0x3be00581	0.0068365936
171	0x3c670a20	0.014101535
172	0xbce2f867	-0.027706338
173	0x3c121eb9	0.008918458
174	0xbc0503a4	-0.008118544
175	0xbc834ea6	-0.016028713
176	0xbd2e2ba0	-0.042522073
177	0xbb83870a	-0.0040139006
178	0xbd1c5545	-0.038167257
179	0xbcf216ac	-0.029551826
180	0x3d34a2a9	0.044100437
181	0x3b8c62eb	0.004284253
182	0xbc729446	-0.014805859
183	0x3cbaf7e0	0.022823274
184	0xbcf2c490	-0.029634744
185	0x3c420980	0.011843085
186	0xbc6f36c2	-0.014600458
187	0x3cec9953	0.028881704
188	0xbcef5174	-0.029213645
189	0x3c4b5a0e	0.012411607
190	0x3ce11743	0.027476912
191	0x3cd89c51	0.026441725
192	0x3caa6a1c	0.02080255
193	0xbbab5a83	-0.0052292957
194	0xbb03e3e1	-0.002012484
195	0xbd30dc87	-0.04317906
196	0x3d0a87f1	0.03382105
197	0xbc0e6005	-0.008689885
198	0x3cbc6dea	0.02300163
199	0xbc7b1608	-0.015325077
200	0xbd12ab2a	-0.035807766
201	0x3c32597e	0.010885594
202	0xbcfd5f6b	-0.030929288
203	0xbb5e43b7	-0.0033914873
204	0xbd1872a9	-0.037218723
205	0x3c0a6f33	0.0084493635
206	0xbb9e2c08	-0.0048270263
207	0x3b455264	0.0030108923
208	0xbcb3bea4	-0.02194149
209	0x3bcd8af5	0.0062726685
210	0xbc827a7c	-0.015927546
211	0xbd360292	-0.044436045
212	0xbd1a74d3	-0.03770907
213	0xbcd5acf5	-0.026083449
214	0x3c9b4ac4	0.01895655
215	0xbcad1b74	-0.021131255
216	0x3d2c70b4	0.04209967
217	0xbc8353bf	-0.016031144
218	0xbd208dbf	-0.03919768
219	0x3bca3a10	0.0061714724
220	0x3a93d537	0.0011278753
221	0xbbf1bacf	-0.0073770056
222	0xbd12b535	-0.035817344
223	0xbcbb4587	-0.022860302
224	0xbc9b5d22	-0.018965308
225	0xbbcf1a0d	-0.006320244
226	0xbc8af78e	-0.016963746
227	0x3c625f6d	0.013816697
228	0xbd189825	-0.03725447
229	0xbd03d039	-0.032181
230	0xbbbf4652	-0.0058372403
231	0x3cc2a368	0.023759559
232	0x3c0714d4	0.008244712
233	0x3d13bfd6	0.03607162
234	0xbd2402b4	-0.04004164
235	0xbca24f84	-0.019813307
236	0x3c8abb85	0.01693512
237	0xbc6c2d61	-0.014415116
238	0xbc9eedd3	-0.019400513
239	0x3cc7648e	0.02433994
240	0xbbd624f2	-0.006535166
241	0x3c55d7b7	0.013051919
242	0x3cae9706	0.021312248
243	0xbccbd4ef	-0.024881808
244	0xbd112226	-0.035432957
245	0x3cc7e4a5	0.024401018
246	0x3d091674	0.03346868
247	0x3cc10c74	0.023565508
248	0x3c56fb91	0.013121502
249	0x3d2d2e65	0.042280573
250	0xbc312bef	-0.010813697
251	0xbb95c677	-0.004570778
252	0x3c3ae95b	0.011408175
253	0xbc96e74c	-0.018420838
254	0xbcfa7bcb	-0.030576607
255	0x3d280f72	0.041030355

siam_layer.conv3.bias f4 [7]
0	0x3d02634c	0.031832978
1	0x3cac66b4	0.021045066
2	0x3cc2bbd0	0.023771197
3	0xbac466a0	-0.0014984198
4	0x3afd7f40	0.0019340292
5	0x3d14a8e0	0.036293864
6	0x3c5238a8	0.012830891

siam_layer.conv4.weight f4 [3, 14, 6, 6]
0	0xbbb69b74	-0.0055727307
1	0xba80e8e2	-0.000983503
2	0x3d112a7a	0.0354409
3	0xbcb0b2a9	-0.021569567
4	0x3d01e447	0.031711843
5	0x3a053bcf	0.00050824595
6	0xbbdcb23c	-0.0067351144
7	0xbb2d410a	-0.0026436471
8	0xbb02de0b	-0.0019968774
9	0xbcdb5633	-0.026774501
10	0x3cde09ae	0.027104225
11	0xbce72477	-0.02821563
12	0xbcb782ed	-0.022401297
13	0x3cbfa7aa	0.023395378
14	0x3ce16175	0.027512291
15	0x3c0aa341	0.008461774
16	0xbcdbbeb3	-0.02682433
17	0xbc895057	-0.016761942
18	0x3b58b30a	0.00330657
19	0x3ca04db2	0.019568298
20	0x3d0ee3ae	0.0348851
21	0xbcaeb8b9	-0.021328317
22	0xbd14e18d	-0.036347914
23	0x3bd6c7d0	0.006554581
24	0x3c59d68c	0.013295781
25	0x3d01a29e	0.031649224
26	0x3cf77af6	0.03021
27	0x3c11c27e	0.008896468
28	0x3b3a46d9	0.0028423576
29	0x3b40d8c7	0.0029426084
30	0x3c4f2b6b	0.012644629
31	0xbcc15000	-0.023597717
32	0xbcad4f3b	-0.021155944
33	0x3cfaa0ef	0.030594317
34	0x3b6c46b5	0.0036052887
35	0xbc706ae8	-0.014673926
36	0xbcc19e02	-0.023634914
37	0x3d031fc9	0.032012735
38	0xbbd2095b	-0.0064098067
39	0xbd2aa4d5	-0.041661102
40	0x3c9517d8	0.018199846
41	0x3d1672da	0.036730625
42	0xbcfed157	-0.03110568
43	0x3c33be5d	0.010970679
44	0x3c558ede	0.0130345505
45	0x3ccc72c9	0.024957078
46	0x3ccf9490	0.025339395
47	0xbc99ea3c	-0.01878845
48	0xbcef1c42	-0.029188279
49	0x3cade759	0.02122848
50	0x3d35eca5	0.044415135
51	0xbcd7086d	-0.026249135
52	0x3d0e84ac	0.034794495
53	0x3d371536	0.044697963
54	0xbcac9b16	-0.021070044
55	0xbbbffea2	-0.005859212
56	0x3ae7598c	0.0017650588
57	0xbcfb9f46	-0.030715596
58	0x3bab60d3	0.005230048
59	0x3d053958	0.03252539
60	0x39f94807	0.00047546646
61	0x3c9442ce	0.018098261
62	0x3b2b2977	0.0026117244
63	0xbbbaf979	-0.005706009
64	0x3c2fa518	0.010720514
65	0xbd2cd239	-0.04219267
66	0xbc6611a8	-0.0140422955
67	0x3cec7a31	0.02886686
68	0xbb58f267	-0.0033103467
69	0xbca78a4f	-0.020451693
70	0x3c77b5f3	0.015119064
71	0x3b927e46	0.0044706194
72	0xbc15e29e	-0.009148268
73	0xbcc19bb0	-0.023633808
74	0xbc8520e7	-0.01625104
75	0x3c22c72f	0.009935184
76	0x3ba599e4	0.0050537456
77	0xbc248deb	-0.0100436015
78	0x3d23df3f	0.040007826
79	0xbc975da0	-0.018477261
80	0xbd037485	-0.032093544
81	0xbd2a794c	-0.041619584
82	0xbcb97056	-0.022636574
83	0xbc04d121	-0.008106501
84	0x3c98c330	0.01864776
85	0xbd2425dc	-0.040075168
86	0xbd19c5e8	-0.037542254
87	0xbcc7c076	-0.024383765
88	0x3cb56ed0	0.022147566
89	0xbccb8afd	-0.024846548
90	0x3c8ae70e	0.016955879
91	0x3c84e7a7	0.016223742
92	0xbc633b20	-0.013869077
93	0xbccbaa0f	-0.024861364
94	0x3c557394	0.013028044
95	0xbd0e5893	-0.03475244
96	0xbd2a3b57	-0.041560497
97	0xbd2c0dbe	-0.042005293
98	0x3d2932b6	0.041308127
99	0xbc659f77	-0.01401507
100	0xbcad5446	-0.021158349
101	0xbc4f2b21	-0.01264456
102	0xbd132589	-0.03592447
103	0xbd224eb8	-0.039625853
104	0xbc4ae256	-0.012383064
105	0x3cd3232e	0.02577361
106	0xbc37a1b5	-0.011207988
107	0x3d1b6f84	0.037948146
108	0xbbabf483	-0.005247654
109	0xbc46dc59	-0.012137496
110	0xbd181231	-0.037126724
111	0x3d347d21	0.044064645
112	0x3c53be4e	0.01292379
113	0x3d35efdc	0.0444182
114	0x3c677bae	0.014128609
115	0x3d0c58b6	0.03426429
116	0xbae5e6c7	-0.001754009
117	0x3d113da1	0.035459165
118	0x3a86e82d	0.0010292582
119	0x3d0ab3d4	0.033862904
120	0x3cda184d	0.026622916
121	0x3cb1828c	0.021668695
122	0x39af38ff	0.00033421066
123	0x3cd070fd	0.025444502
124	0xbcc7671b	-0.024341157
125	0xbc1b6ad2	-0.009485917
126	0x3cd0b9ba	0.025479186
127	0x3c77b0b5	0.015117814
128	0x3c9baf06	0.019004356
129	0xbcca424d	-0.024689818
130	0xbb0bc0f5	-0.0021324728
131	0x3ba1777a	0.004927573
132	0xbc0b24d1	-0.008492664
133	0xbcb67ee7	-0.022277309
134	0x3b38ef0d	0.0028218657
135	0xbcbd13b1	-0.023080679
136	0xbcddbb8c	-0.027066968
137	0x3d21bebd	0.039488543
138	0x3cd8a143	0.026444083
139	0xbc75c622	-0.015000852
140	0x3cfed223	0.03110606
141	0xba6dcff2	-0.0009071819
142	0x3d097999	0.03356323
143	0xbc55c955	-0.01304849
144	0x3ac2f258	0.001487325
145	0xbcdfc017	-0.027313275
146	0x3d3139b9	0.04326794
147	0xbc67b540	-0.014142334
148	0x3c98f03a	0.018669236
149	0xbce41a0a	-0.027844448
150	0xbd0bf32b	-0.03416745
151	0xbbdb9f41	-0.006702334
152	0xbcef2cb9	-0.02919613
153	0x3b5b18ce	0.0033431533
154	0x3c96d206	0.018410694
155	0x3cd50737	0.026004417
156	0x3c1b79ae	0.00948946
157	0x3cd919cb	0.026501557
158	0x3d2221d7	0.039583053
159	0x3ced7b97	0.028989596
160	0x3d18e509	0.0373278
161	0x3b76980c	0.0037627248
162	0xbb308b19	-0.0026938377
163	0x3cafb523	0.021448677
164	0xbc708129	-0.014679232
165	0xbd2abe43	-0.041685354
166	0x3c8090a3	0.015693968
167	0x3bac02cd	0.0052493573
168	0xbcd73449	-0.026270049
169	0x3cea2970	0.028584212
170	0x3c47ffb2	0.012206959
171	0x3c2b2bb2	0.0104474295
172	0xbd334014	-0.04376228
173	0x3cd86c12	0.02641872
174	0x3c1332cd	0.00898428
175	0xbc75c5b2	-0.0150007475
176	0xbcfcafb4	-0.0308455
177	0xbc6c5a61	-0.014425845
178	0xbcf078f0	-0.029354542
179	0xbbb2bb1b	-0.0054544336
180	0x3c81e999	0.015858458
181	0xbc5939b8	-0.01325839
182	0x3cfac43a	0.030611146
183	0x3c3df951	0.011595086
184	0x3d177d3a	0.03698466
185	0x3c9848cc	0.0185894
186	0xbb2f7928	-0.0026775096
187	0x3d00561c	0.03133212
188	0x3d179404	0.037006393
189	0xbb900e7f	-0.0043962593
190	0xbd15a232	-0.036531635
191	0xbb6bf36f	-0.0036003252
192	0x3c55534a	0.013020346
193	0xbccf82b5	-0.02533088
194	0xbd16bb8b	-0.03679995
195	0xbc5340d2	-0.012893872
196	0x3c7c2e4f	0.0153919
197	0x3d1831bc	0.037156805
198	0x3cbfb555	0.023401896
199	0xbbd3f953	-0.0064689307
200	0x3d300862	0.042976744
201	0xbba8f995	-0.0051567056
202	0xbc75750f	-0.014981522
203	0xbc3874d9	-0.011258327
204	0xbc27b1d4	-0.010235269
205	0x3d325a9e	0.04354345
206	0xbc81f87e	-0.01586556
207	0xbc9a9006	-0.018867504
208	0x3cacd6ea	0.021098573
209	0x3d0e157e	0.034688465
210	0x3d124cdf	0.03571784
211	0xbd281228	-0.04103294
212	0xbca48894	-0.020084657
213	0x3baa2423	0.005192296
214	0x3c9f8883	0.019474274
215	0xbd028514	-0.031865194
216	0xbc7c2466	-0.015389537
217	0x3d313eb3	0.043272685
218	0x3ba4b53c	0.0050264876
219	0xbc9a355c	-0.018824272
220	0xbb230225	-0.0024873104
221	0xbc5ac0e1	-0.01335165
222	0xbc19bdd5	-0.009383638
223	0x3d0e5e15	0.034757692
224	0x3c2988fc	0.010347601
225	0x3cbbf4f2	0.022943947
226	0xbc85ea47	-0.016347064
227	0x3c88bfe5	0.016693065
228	0x3c9cbc5d	0.019132787
229	0x3cd31bed	0.025770152
230	0x3d102a4d	0.03519659
231	0xbc295f22	-0.010337623
232	0x3ccfef9c	0.02538281
233	0xbb8eab90	-0.004353948
234	0x3caccc0d	0.021093393
235	0xbd0fba66	-0.035089873
236	0x3c143a8d	0.009047163
237	0x3c2f5738	0.010701947
238	0x3d297ff0	0.041381776
239	0x3c8c894f	0.017155318
240	0x3c012d5e	0.007884352
241	0x3cbdce9e	0.023169812
242	0xbd0d689b	-0.034523588
243	0xbc59094b	-0.0132468445
244	0x3cee5cb0	0.029096931
245	0xbd29d401	-0.04146195
246	0x3ccaa55f	0.024737058
247	0x3c1979cc	0.009367418
248	0xbd12c620	-0.035833478
249	0x3ca86a14	0.020558394
250	0x3ce62ad5	0.028096596
251	0x3d102333	0.03518982
252	0x3c3bafe1	0.011455507
253	0xbd22e75b	-0.03977142
254	0xbbd59bd7	-0.0065188217
255	0x3d155fc2	0.036468275

siam_layer.conv4.bias f4 [3]
0	0xbc941ae2	-0.018079225
1	0x3cc0b3c4	0.023523219
2	0xbd10aa7e	-0.035318844

siam_layer.conv5.weight f4 [1, 3, 6, 6]
0	0xbdb379c7	-0.087634616
1	0xbd37404e	-0.04473906
2	0x3c191f93	0.009345907
3	0x3da1c78a	0.07899387
4	0xbc23c5f2	-0.009995924
5	0x3d6c2452	0.057651825
6	0x3d806c99	0.06270713
7	0x3cc90fad	0.024543608
8	0xbd72996b	-0.059228342
9	0xbd126768	-0.035743147
10	0xbdb7fb5d	-0.089834906
11	0x3d9a0dc3	0.07522156
12	0xbdb886a5	-0.090100564
13	0x3c89c9dd	0.016819889
14	0xbd8ce38a	-0.06879337
15	0x3d51e597	0.051244345
16	0x3d951877	0.07280057
17	0xbcc6e507	-0.02427913
18	0xbc6dd06b	-0.014515023
19	0xbd05d39e	-0.032672517
20	0xbc9abd69	-0.018889146
21	0xbdc35109	-0.095369406
22	0xbd705e94	-0.058683947
23	0xbd2b4a24	-0.041818753
24	0x3c993972	0.01870415
25	0x3d63676e	0.05551856
26	0x3d159347	0.036517408
27	0x3c35e98a	0.011103043
28	0xbda33503	-0.079690956
29	0xbcc519f4	-0.024060227
30	0xbd45b64f	-0.048269566
31	0xbcfaa704	-0.030597217
32	0x3ce14590	0.02749899
33	0xbd8785f1	-0.06617344
34	0x3d8a499d	0.06752322
35	0x3d5170de	0.05113303
36	0x3d48de45	0.049040098
37	0xbd864bc7	-0.06557422
38	0xbcc51e04	-0.024062164
39	0xbd0cf964	-0.034417525
40	0x3ce4bb00	0.0279212
41	0xbbb12b8c	-0.0054068025
42	0xbc9bafbc	-0.019004695
43	0xbb0e34eb	-0.0021699022
44	0x38650d76	5.461039e-05
45	0x3ce8390e	0.028347518
46	0xbca58479	-0.02020477
47	0xbcc64c04	-0.024206169
48	0x3d95ea7b	0.07320114
49	0x3db15e51	0.086605676
50	0x3c9b1665	0.018931577
51	0x3daf4cde	0.08559583
52	0xbda291b2	-0.079379454
53	0x3dbf8e37	0.09353297
54	0xbda0f98b	-0.078600965
55	0xbd7fb69f	-0.06243002
56	0xbc00377b	-0.007825728
57	0xbd9610a3	-0.07327392
58	0xbd1e3d8f	-0.038632926
59	0xbd53ad55	-0.051678974
60	0xbda5cab3	-0.080953024
61	0x3d7b8795	0.061408598
62	0x3d9f8b47	0.07790237
63	0x3b8b80a3	0.004257278
64	0x3cd0fabb	0.025510183
65	0xbcadfdeb	-0.021239242
66	0xbd24616f	-0.040131982
67	0xbc4bd425	-0.012440716
68	0x3d8ac84c	0.06776485
69	0x3dbc63c1	0.09198714
70	0x3c63449b	0.013871337
71	0xbbd16685	-0.006390395
72	0x3db9cd38	0.090723455
73	0x3bf2b1c7	0.0074064466
74	0xbdc50537	-0.09620135
75	0xbd6e5bc9	-0.058193002
76	0xbc35abe6	-0.011088347
77	0xbcbca55d	-0.02302807
78	0x3db7267d	0.08942888
79	0xbd5b9e0b	-0.05361752
80	0x3ca62da4	0.020285435
81	0xbc2e294b	-0.010629962
82	0x3d806363	0.062689565
83	0x3d49b9c3	0.04924942
84	0x3c76aa8e	0.015055312
85	0xbcb8a714	-0.022540607
86	0xbd5a9828	-0.053367764
87	0xbdbb4fac	-0.091460556
88	0x3d4a1278	0.04933402
89	0x3d159996	0.036523424
90	0x3d211897	0.03933009
91	0x3cd47e9c	0.025939278
92	0x3da4791a	0.08030911
93	0x3cf59029	0.029975967
94	0x3c1d3eda	0.0095975045
95	0xbd259d0b	-0.04043297
96	0x3d83a523	0.06427982
97	0xbd7e4c9e	-0.062084787
98	0x3cb3730b	0.021905443
99	0x3cef6350	0.02922216
100	0xbbab2bcb	-0.0052237264
101	0x3d9e09c7	0.07716709
102	0x3d496cf9	0.04917619
103	0xbdad41bb	-0.08459803
104	0xbd0ef87d	-0.034904946
105	0xbd1f3365	-0.038867373
106	0x3d3068ba	0.043068625
107	0x3c082943	0.008310619

siam_layer.conv6.weight f4 [1, 3, 6, 6]
0	0xbc308830	-0.010774657
1	0xbc178722	-0.009248527
2	0x3d71632c	0.05893247
3	0xbcb467b8	-0.022022113
4	0x3d8d0189	0.068850584
5	0xbda705db	-0.08155414
6	0x3da07fca	0.07836874
7	0x3cf2b0e0	0.029625356
8	0x3d2833c9	0.04106501
9	0xbd7d21cf	-0.06179982
10	0xbdbc2047	-0.09185844
11	0xbdc3e17e	-0.095644936
12	0xbc3143e4	-0.010819409
13	0x3dbf3707	0.093366675
14	0x3dc0eb73	0.094199084
15	0x3bf7e5a0	0.007565215
16	0x3dbb306c	0.09140095
17	0xbdb76dd3	-0.08956494
18	0xbb734eae	-0.0037125754
19	0x3d93bf1f	0.07214188
20	0x3d007fc5	0.03137185
21	0x3db9d2ae	0.09073387
22	0x3cd3bfeb	0.02584835
23	0xbdc339cc	-0.09532508
24	0xbdb17f95	-0.086669125
25	0x3c4c4869	0.012468436
26	0xbd5447ce	-0.05182629
27	0x3c83f0a2	0.016105954
28	0x3cff5e79	0.031172978
29	0x3dbbe4e6	0.09174518
30	0x3cb7ed65	0.022452066
31	0x3b88a35a	0.0041698636
32	0xbda520b9	-0.08062882
33	0x3db7dc18	0.089775264
34	0x3d62fe76	0.055418454
35	0xbd43ce2e	-0.04780405
36	0xbd96f41e	-0.073707804
37	0xbd673bf0	-0.056453645
38	0x3afe675b	0.0019409464
39	0xbcfb9ee3	-0.030715412
40	0xbd087eca	-0.03332404
41	0xbdacca82	-0.08437063
42	0xbd30d5da	-0.043172695
43	0xbd22b41a	-0.03972254
44	0x3d69a1f7	0.057039227
45	0x3d46552c	0.04842107
46	0x3d326242	0.043550737
47	0xbbcc104b	-0.006227528
48	0xbd9d5ce8	-0.07683736
49	0xb9988305	-0.00029089316
50	0x3d68cf2a	0.056838192
51	0x3d02f7cc	0.0319746
52	0x3d249983	0.040185463
53	0x3d8753f2	0.06607808
54	0xbc9a00f7	-0.018799288
55	0xbca0a7e2	-0.019611303
56	0xbc48d0ba	-0.012256796
57	0xbc8d614b	-0.017258307
58	0xbd49b32e	-0.049243145
59	0xbd6f01f1	-0.05835146
60	0x3d9cf5b7	0.07664054
61	0x3d638ffa	0.05555723
62	0xbd8a2279	-0.067448564
63	0x3c38a451	0.011269645
64	0xbd46111e	-0.048356168
65	0xbbe6c441	-0.0070424383
66	0xbd9e8ce1	-0.07741714
67	0xbd9e68a1	-0.077348
68	0x3dad7096	0.0846874
69	0x3d4df89c	0.05028592
70	0x3d809b3a	0.06279607
71	0x3d0d6f5a	0.03453002
72	0xbd968814	-0.073501736
73	0xbd1f05cd	-0.03882389
74	0x3d5228e2	0.05130852
75	0xbc49ec9a	-0.012324477
76	0xbd977378	-0.07395071
77	0xbdc2f5bd	-0.09519527
78	0xbdc45d68	-0.09588128
79	0xbd34eefd	-0.04417323
80	0x3d386e8a	0.045027293
81	0x3db18238	0.086674154
82	0x3d4af878	0.049553365
83	0xbd64605d	-0.05575596
84	0xbd310e5f	-0.043226596
85	0x3c8a8d82	0.01691318
86	0xbdc17ecc	-0.09448013
87	0xbdafeb33	-0.085897826
88	0xbd970648	-0.07374245
89	0x3ce3de05	0.027815828
90	0xbd00a514	-0.03140743
91	0xbd1c7c34	-0.038204387
92	0x3d9b69f1	0.07588566
93	0x3d6c60ea	0.057709612
94	0x3cf38762	0.029727641
95	0xbd5d3d53	-0.05401356
96	0xbcf800da	-0.030273844
97	0x3b49a805	0.0030770313
98	0xbd4efc21	-0.050533418
99	0xbd5101a8	-0.05102697
100	0xbdc398b2	-0.09550609
101	0xbd784a26	-0.06061759
102	0xbdb8b097	-0.09018057
103	0x3d755a6c	0.059900686
104	0x3c3fb099	0.011699819
105	0xbcd4cf82	-0.025977854
106	0x3da2f9fc	0.07957837
107	0xbd21e9f5	-0.03952976

siam_layer.conv7.weight f4 [1, 2, 6, 6]
0	0x3cec8300	0.02887106
1	0x3d8287a6	0.06373529
2	0xbdab98e4	-0.08378771
3	0x3de12ab1	0.10994471
4	0x3c4fc609	0.012681493
5	0x3da44288	0.08020502
6	0x3d0ce877	0.034401383
7	0xbdceff71	-0.10107315
8	0xbda3c420	-0.07996392
9	0xbd93c94e	-0.0721613
10	0x3dc1a877	0.0945596
11	0xba872d9b	-0.0010313274
12	0xbd60dcf8	-0.054898232
13	0x3b022f02	0.0019864445
14	0xbde42382	-0.11139585
15	0x3dba5e28	0.0909999
16	0xbde4eab3	-0.11177578
17	0xbc19dd01	-0.00939107
18	0xbd2b76f4	-0.04186149
19	0xbcab27c7	-0.02089299
20	0xbde41526	-0.11136846
21	0x3c8eb807	0.017421735
22	0x3de50c57	0.11183994
23	0xbcc65d17	-0.02421431
24	0x3cbf0d33	0.023321724
25	0x3c82d301	0.015969755
26	0x3dad0b47	0.084494166
27	0xbc805276	-0.01566432
28	0x3ddcb354	0.107763916
29	0x385cfc73	5.26872e-05
30	0xbdb8e1d0	-0.09027445
31	0x3cf05ca4	0.02934105
32	0x3bca1147	0.0061666104
33	0xbcc32aa3	-0.023824042
34	0xbdc3e4cd	-0.09565125
35	0x3d409067	0.047012713
36	0x3dba3ba9	0.090934105
37	0xbd11a31e	-0.03555595
38	0xbddbb318	-0.10727519
39	0xbd861ace	-0.06548081
40	0x3d250619	0.04028902
41	0x3db716ee	0.0893992
42	0x3d6862ae	0.056734733
43	0x3d865152	0.06558479
44	0xbd84292e	-0.06453167
45	0xbd8d79f6	-0.06908028
46	0x3de1526e	0.1100205
47	0xbdc9ffcc	-0.098632425
48	0xbddb1a88	-0.1069842
49	0x3c0dd5f5	0.008656968
50	0xbdc2c0e4	-0.09509447
51	0xbbf515fc	-0.0074794274
52	0x3d10b496	0.03532847
53	0xbdb87e26	-0.09008436
54	0xbd4ed08c	-0.050491855
55	0x3deb3403	0.1148453
56	0xbde68ff6	-0.11257927
57	0xbdc02165	-0.093813695
58	0xbdbcba8b	-0.09215268
59	0xbc975e33	-0.018477535
60	0x3ce5c097	0.028045936
61	0x3ce304dd	0.02771228
62	0x3dcca801	0.09992982
63	0x3d081f81	0.03323317
64	0xbdca2075	-0.09869472
65	0x3d105249	0.035234723
66	0xbde9cd8f	-0.1141616
67	0xbd9ab087	-0.07553201
68	0xbc7c9df4	-0.015418518
69	0x3d8d9b58	0.06914395
70	0x3ccbf997	0.024899287
71	0x3dda95ca	0.10673101

dense.weight f4 [1, 308]
0	0xbd087256	-0.033312164
1	0x3d241824	0.040062085
2	0xbd12cae1	-0.03583801
3	0x3d49d356	0.04927381
4	0xbc80c62c	-0.015719496
5	0x3c953750	0.018214852
6	0x3c4a4de5	0.012347673
7	0xbbccfc80	-0.0062556863
8	0x3b2ec9f9	0.0026670678
9	0xbb2d85f2	-0.0026477543
10	0xbd3e1fe6	-0.04641714
11	0xbcbbfdbf	-0.022948144
12	0xbbb312a0	-0.0054648668
13	0x3cba02e9	0.022706466
14	0xbd23b03f	-0.039963003
15	0xbd0c8e0e	-0.03431516
16	0xbd01931f	-0.031634446
17	0xb8bf141b	-9.111335e-05
18	0x3ca40049	0.020019667
19	0x3c2f53f3	0.010701167
20	0xbd215e60	-0.039396644
21	0x3d067d80	0.03283453
22	0x3c820b7c	0.015874617
23	0x3d203982	0.039117344
24	0xbd1cfd58	-0.038327545
25	0xb93248c6	-0.00017002513
26	0xbb56914a	-0.0032740408
27	0x3cdd8bb6	0.027044158
28	0xbcb8a0ce	-0.022537615
29	0x3d225bb1	0.039638225
30	0x3ccc85bc	0.024966113
31	0x3c9a046c	0.018800937
32	0xbcdb588e	-0.026775625
33	0xbc2cd147	-0.0105479425
34	0xbc83c9ef	-0.0160875
35	0xbd0d255c	-0.034459457
36	0xbd082b4c	-0.033244416
37	0x3b1e3a34	0.0024143578
38	0x3cb42716	0.021991294
39	0x3c270902	0.010195019
40	0xbc3d9010	-0.011569992
41	0x3b25d074	0.002530125
42	0x3ca053de	0.019571241
43	0xbc9bfcde	-0.019041475
44	0xbd436637	-0.0477049
45	0xbd4f4442	-0.050602205
46	0x3a12b40a	0.0005596286
47	0x3b75df03	0.0037516959
48	0x3b3234c0	0.0027192086
49	0x3d0061b5	0.03134318
50	0x3d434571	0.047673646
51	0xbd528e04	-0.051404968
52	0xbc8da5b9	-0.017290937
53	0xbb232b32	-0.0024897573
54	0xbd28823b	-0.041139822
55	0x3bbb3a1f	0.0057137157
56	0xbd4efaf6	-0.050532304
57	0xbd411c87	-0.047146346
58	0x3cef5191	0.029213699
59	0x3d61e126	0.05514636
60	0x3d4e54df	0.050373908
61	0xbd372647	-0.04471424
62	0x3bf99046	0.0076160757
63	0x3d31d00c	0.0434113
64	0x3c0b6023	0.0085068075
65	0x3d2597d8	0.040428013
66	0x3d515717	0.051108446
67	0x3d18e52f	0.03732794
68	0xbd1ddc33	-0.038540076
69	0xbc311cb2	-0.010810064
70	0x3cce2afc	0.02516698
71	0x3c04be8c	0.008102071
72	0xbca86bc0	-0.020559192
73	0xbbf4cd7c	-0.0074707847
74	0xbc573b76	-0.013136735
75	0x3d60576a	0.054770865
76	0xbd0b2d0a	-0.0339785
77	0x3d2eb331	0.04265136
78	0xbd43d889	-0.047813926
79	0x3d24ecbd	0.040264834
80	0xbce0ef74	-0.02745793
81	0x3ab422e2	0.0013743306
82	0xbc6af5a3	-0.014340791
83	0x3bbe64a2	0.005810336
84	0xbc1991a7	-0.009373105
85	0x3c93c2a7	0.018037153
86	0xbd300c87	-0.042980697
87	0xbc635ec5	-0.013877575
88	0xbc8a884a	-0.01691069
89	0xbd59fc23	-0.053218972
90	0x3c060b8f	0.008181467
91	0x3d091db2	0.033475585
92	0xbc1b3601	-0.009473325
93	0xbd0a5539	-0.03377268
94	0xbd527dbe	-0.05138945
95	0x3cf052b1	0.029336305
96	0xbd6015ae	-0.054708175
97	0x3bca99c8	0.006182883
98	0xbd03d4ed	-0.032185484
99	0x3d5a8c14	0.053356245
100	0x3c9948cc	0.01871147
101	0x3d1ffab0	0.039057434
102	0x3d32da51	0.043665234
103	0xbcd254a1	-0.02567512
104	0xbd0512e7	-0.03248873
105	0xbadcbdec	-0.0016841269
106	0xbbc2ced1	-0.0059450646
107	0xbd4d2335	-0.050082404
108	0x3cb32877	0.021869881
109	0xbd3eb221	-0.046556596
110	0x3ca30830	0.019901365
111	0xbc938437	-0.01800738
112	0x3c01ab84	0.007914428
113	0xbd097764	-0.033561125
114	0x3c5d253a	0.013497645
115	0x3b997587	0.0046832
116	0xbc92a64e	-0.017901566
117	0x3d139829	0.036033783
118	0x3d016f64	0.03160037
119	0x39a9b27a	0.00032367167
120	0xbd249260	-0.040178657
121	0xbd4538d6	-0.048149906
122	0x3b87ba5e	0.0041420897
123	0x3d21299c	0.039346322
124	0xbcc9cf8d	-0.0246351
125	0xbccfc6b3	-0.025363302
126	0xbd58b563	-0.05290736
127	0xbd512e31	-0.051069442
128	0xbc4427d4	-0.011972386
129	0x3bcb65b3	0.006207192
130	0x3b40c9d0	0.0029417165
131	0xbc59833e	-0.0132759195
132	0xbcd36707	-0.025805963
133	0xbd522188	-0.05130151
134	0x3d39781b	0.045280557
135	0xbd360912	-0.044442244
136	0x3d070be4	0.032970324
137	0x3cdacbf0	0.026708573
138	0x3c1ea981	0.009683968
139	0xbd2942d6	-0.041323505
140	0xbd094568	-0.033513457
141	0x3cd5e665	0.026110837
142	0xbd50311f	-0.050828096
143	0x3cb1c39b	0.021699717
144	0x38f8f209	0.00011870644
145	0xbd1d6e7e	-0.03843545
146	0xbc130796	-0.008973977
147	0x3cfa3de9	0.0305471
148	0xbd52bed5	-0.051451523
149	0x3c837a2b	0.016049465
150	0x3af6fc7e	0.0018843559
151	0xbd4350e7	-0.047684576
152	0xbcda7b4f	-0.026670126
153	0x3cc5a491	0.024126323
154	0x3c8aa730	0.016925424
155	0x3ba0af32	0.0049036974
156	0x3b6cb0e9	0.003611619
157	0x3d64504c	0.05574064
158	0x3ce397de	0.027782377
159	0x3d39a638	0.045324534
160	0x3d299b34	0.04140778
161	0x3d550dec	0.05201523
162	0xbd5f2bba	-0.05448506
163	0xbc2c3d6e	-0.010512693
164	0x3d204fd2	0.039138623
165	0x3d109f1f	0.035308
166	0xbc0e1c8c	-0.008673798
167	0x3d5af6ff	0.05345821
168	0x3d2aa57e	0.041661732
169	0xbc9b0477	-0.018923027
170	0xbd4dd220	-0.05024922
171	0x3cb50117	0.022095246
172	0x3d0810a6	0.033219002
173	0x331c85a0	3.644311e-08
174	0x3d620249	0.05517796
175	0xbc5f7471	-0.013638602
176	0xbc9a3cdd	-0.01882785
177	0x3d493a46	0.04912784
178	0x3cfa97a7	0.030589892
179	0x3d31c804	0.04340364
180	0xbd5635da	-0.05229745
181	0x3d290dd2	0.041272946
182	0xbc556eca	-0.013026902
183	0xbd36b757	-0.04460844
184	0x3d300f1e	0.042983167
185	0x3d000c8c	0.031261966
186	0x3d1bf93e	0.038079493
187	0x3bc35756	0.005961339
188	0x3bea91e0	0.007158503
189	0x3d12fc06	0.03588488
190	0xbccfa8a7	-0.025348974
191	0xbcac5415	-0.021036187
192	0x3b9dd7e9	0.0048169983
193	0xbb999da3	-0.004687981
194	0x3c94ca77	0.018162949
195	0x3b094d79	0.0020950718
196	0x3d22d495	0.039753515
197	0xbc31657e	-0.01082742
198	0x3d54110c	0.05177407
199	0x3d64a147	0.05581787
200	0xbbc0824f	-0.005874909
201	0x3cc6b8b7	0.024258
202	0x3c686586	0.014184361
203	0x3d0ea0c0	0.034821272
204	0xbcf57bc6	-0.029966246
205	0x3d1a74f7	0.037709203
206	0x3d37168e	0.044699244
207	0xbc8e6582	-0.017382387
208	0x3cfcc5ca	0.030856032
209	0xbc788797	-0.015169046
210	0xbd1c2c95	-0.038128454
211	0x3d1f9c6f	0.038967546
212	0xbcb427ff	-0.021991728
213	0x3d11de5d	0.035612453
214	0xbd154599	-0.036443327
215	0x3cdaa820	0.026691496
216	0xbccad807	-0.024761213
217	0x3d59e96e	0.05320113
218	0xbd20531d	-0.039141763
219	0xbcd09a0b	-0.025464078
220	0x3d43a65e	0.047766082
221	0x3c9f15d3	0.019419586
222	0x3cf1e85f	0.029529748
223	0x3cb8ed27	0.02257402
224	0xbcfee671	-0.031115742
225	0x3c68da37	0.014212183
226	0x3d3d13b4	0.04616137
227	0x3c8ed5d4	0.017435946
228	0x3b3b8db4	0.0028618397
229	0xbd10cecf	-0.035353478
230	0x3d5d7767	0.05406895
231	0x3ce52f43	0.027976638
232	0xbc03a590	-0.008035079
233	0xbcb7c854	-0.022434391
234	0x3d605081	0.054764275
235	0xbcbde667	-0.023181153
236	0xbca9cd10	-0.020727664
237	0x3d0d2a51	0.034464184
238	0xbd6159ec	-0.055017397
239	0xbc2719e9	-0.010199049
240	0x3d21714e	0.039414696
241	0xbd038354	-0.032107666
242	0x3cd5c46a	0.026094634
243	0xbce43e68	-0.027861789
244	0x3cf0720a	0.029351253
245	0xbd413e5f	-0.047178622
246	0x3c8ca910	0.017170459
247	0x3d20de17	0.0392743
248	0xbbfd64a4	-0.0077329446
249	0x3c86faad	0.016476953
250	0x3cb184ec	0.021669827
251	0x3cc23a31	0.023709388
252	0x3d0865cb	0.033300202
253	0xbd338522	-0.043828137
254	0xbd478f80	-0.048720837
255	0xbc513601	-0.012769223
