siamese-classifier/siam_v3_109.pth (torch, 104381 bytes, 12 tensors)

siam_layer.conv1.weight f4 [14, 31, 6, 6]
000000 06 2f aa ba 77 5c 6f bc e7 f3 a3 3b c2 f6 1a bb
       -0.0012983985 -0.014609448 0.0050034407 -0.0023645614
000010 03 11 db 3c 3e c7 93 3a 3a 26 ad 3b 01 d6 55 bc
       0.02674151 0.0011274589 0.005284098 -0.013051511
000020 19 86 9d bc 30 d8 f1 bc 53 61 cb bc bc 4b d5 3c
       -0.019228982 -0.029522032 -0.024826681 0.02603709
000030 c6 be da bc 9a f4 b6 bb 04 ce 34 3b 50 36 f8 3b
       -0.026702296 -0.005583358 0.0027588615 0.007574834
000040 f9 03 86 ba 81 40 95 bc c0 0a c4 bc 60 f5 a1 3b
       -0.0010224573 -0.018219234 -0.023930907 0.004942581
000050 4c f3 93 3b 8b 4b a6 3a f8 41 95 3c 30 41 ce 3c
       0.004515087 0.0012687308 0.018219933 0.025177568
000060 6a 1b 72 bc 04 27 85 bc 4c 11 c7 bc 36 53 14 bb
       -0.014777044 -0.016253956 -0.02430024 -0.0022632605
000070 82 73 cb 3c 65 71 d2 3c 69 c7 e3 3c 11 49 a1 3c
       0.024835352 0.025688836 0.027805047 0.019688161
000080 f1 04 9c bc 23 e4 93 3c 4e ce 51 3c 60 7f 21 bc
       -0.019045325 0.01805312 0.0128055345 -0.009857029
000090 f7 1f 1b bb fa fa a6 3c cb d6 8a bc 0d 3c 22 3b
       -0.0023670176 0.020383347 -0.016948124 0.0024755031
0000a0 83 82 67 3c 8f 13 5f bb 2b 06 c3 3c 53 ac 1c 3b
       0.0141302375 -0.0034038757 0.023806652 0.0023906424
0000b0 0b 8c af bb a0 78 fc ba 74 38 9c 3c b3 de c5 bc
       -0.0053572706 -0.0019262023 0.019069888 -0.024154043
0000c0 93 48 62 3b 1f 5a ce 3c b0 b1 76 bc 98 29 29 3c
       0.003452812 0.025189457 -0.015057012 0.010324858
0000d0 4a 89 a5 3c 6a b2 49 bc 80 45 b1 bc 73 2d d4 bc
       0.020207066 -0.012310604 -0.021639585 -0.025900578
0000e0 f1 a1 1a bb 6b d0 ab 3c da a4 20 bc 90 df 96 3c
       -0.002359506 0.020973405 -0.009804929 0.01841715
0000f0 4f 2f 53 3c 0e 1c 33 3c b1 2d d2 bb 54 67 89 3c
       0.012889697 0.010931982 -0.0064141382 0.016772904
000100 7c d8 ec bc 4c fb d0 bc 47 ab e8 3c e6 5e b3 bc
       -0.028911822 -0.025510453 0.028401984 -0.021895837
000110 02 4c eb bc 6e d5 ae 3c 6d 43 7d bc 2d 63 d9 bc
       -0.028722767 0.021342006 -0.01545797 -0.026536549
000120 d9 cd ba bc 0c 83 48 3c ed 4d b5 bc 0a b9 e2 3c
       -0.022803234 0.012238275 -0.022131884 0.027676124
000130 d3 7e 84 bb 55 66 c9 bc 11 40 e0 bc a5 be 9f 3c
       -0.004043439 -0.024584929 -0.0273743 0.019500086
000140 d1 a2 9a 3c 21 33 26 bc 81 91 b3 ba 43 ba 07 bc
       0.018876465 -0.010144026 -0.001369998 -0.008284154
000150 17 23 01 3c 0e 9e 7f 3c 9d f7 af 3c d6 24 7a 3c
       0.007881901 0.015601648 0.021480376 0.015267571
000160 96 1b d7 3b fe fc 9b bc ec dd e9 bc 9d 75 c6 3c
       0.006564568 -0.019041535 -0.028548203 0.024226004
000170 61 1b 6f 3c 2b 0b 46 3c cc 74 e4 bc f1 15 33 bb
       0.01459393 0.012087624 -0.027887724 -0.002732631
000180 ac d1 ae bb 4a 30 9c bc d5 bb c8 bc 39 aa ce bc
       -0.0053350534 -0.019065995 -0.024503628 -0.025227653
000190 d1 fd 9e 3c 6c 35 c1 bc 04 b7 4c bc d3 17 d3 3b
       0.019408138 -0.023585044 -0.012494806 0.006442049
0001a0 ab f3 db bc 49 b6 a6 bc 45 a5 01 bc 9f be 8d bc
       -0.026849588 -0.020350592 -0.0079129385 -0.01730281
0001b0 e7 00 7a bc f5 91 57 3a 41 a5 ea 3c d2 14 83 3b
       -0.015259004 0.00082233484 0.028643252 0.0040002847
0001c0 f4 a6 dd bc c9 ba 8c bc db 8d b7 3c b4 85 84 3c
       -0.027057149 -0.01717891 0.02240651 0.016177036
0001d0 8c 59 97 bc 95 ac ae 3a 18 f2 f4 bc a1 ad d6 bc
       -0.018475316 0.001332658 -0.029900596 -0.02620584
0001e0 9e f2 8f bc 46 d5 47 bc 68 0b f3 bc 4c 9a 08 3b
       -0.017571744 -0.012196844 -0.029668525 0.0020843921
0001f0 ad f1 da bc af 98 06 3b 79 38 ff bb 7f 4c da bc
       -0.026726568 0.0020537784 -0.0077887145 -0.026647804
000200 47 26 88 bc 68 e1 1c 3c d2 4b f2 3b 5e 42 01 3c
       -0.016619815 0.009575225 0.0073942924 0.007889358
000210 e1 de f3 bc 97 d0 09 3c cb 9d d5 bc 11 f1 a8 bc
       -0.029769363 0.008411548 -0.026076218 -0.020622762
000220 f2 3b 22 bc 17 e6 a6 ba 68 43 64 3c be 94 c3 3c
       -0.009901987 -0.0012733367 0.0139320865 0.023874637
000230 79 3b 94 3c 02 cd 48 3c 90 01 5d bc 93 72 64 bc
       0.018094765 0.012255909 -0.013489142 -0.013943332
000240 41 79 03 bc 10 31 86 bb 07 3a 7d bc fe 40 ce bc
       -0.008024515 -0.004095204 -0.015455729 -0.025177475
000250 ef a1 82 bc 92 b4 33 3c 9b 95 7c 3c 52 c9 91 3c
       -0.015946357 0.010968344 0.015416528 0.017796192
000260 f7 ba e6 bc a6 05 d4 bc 9b 93 8e 3c 8d 96 80 3c
       -0.028165324 -0.0258816 0.017404368 0.015696788
000270 17 66 53 bc 32 b6 8e 3c a9 7b 93 bc 30 a7 22 3b
       -0.012902758 0.017420862 -0.018003302 0.002481889
000280 b1 f4 6a 3c b3 3b 21 3c c0 a3 c7 3c 99 2d b1 3c
       0.014340566 0.009840894 0.024370074 0.021628188
000290 08 23 dc bc bf a6 ac 3c 2d 75 ce bc b6 f3 1a 3c
       -0.026872173 0.021075604 -0.025202358 0.009457519
0002a0 ce 1f b5 bc c9 9b 76 bc 01 5c e8 3c 3d d0 7c 3c
       -0.022109892 -0.0150517905 0.028364183 0.015430507
0002b0 ab c5 a8 bb 23 06 d5 3c 32 7e 19 b9 ad ae 11 3b
       -0.005150517 0.026003903 -0.00014638228 0.002222936
0002c0 aa 30 27 3c d0 8f 5f bb 04 b7 05 3c d0 0a cc bc
       0.0102044735 -0.0034112819 0.00816131 -0.0249075
0002d0 e4 dc 64 ba 25 4a b3 3c b9 55 09 bc 51 66 35 bc
       -0.0008730425 0.02188594 -0.008382254 -0.011071757
0002e0 03 14 06 3c 83 da b7 3b 44 c8 8d bc b6 f7 41 3c
       0.008183482 0.0056107654 -0.017307408 0.011838844
0002f0 1a 62 be bc de a7 9b 3c 95 84 bf bc d7 b2 b3 bc
       -0.023240138 0.019000944 -0.02337865 -0.021935863
000300 f7 d3 92 bc c8 6b 8b 3c a1 30 84 3c fb 80 94 bc
       -0.017923338 0.017019168 0.01613647 -0.018127909
000310 63 02 87 3b 57 f7 ca bc 2e 45 e9 b9 9b 5c 9a bc
       0.0041201576 -0.024776144 -0.00044492766 -0.018842986
000320 3c 60 0a bc a5 68 92 3c 71 78 e8 bc f7 e6 cb 3c
       -0.008445796 0.017872164 -0.028377743 0.024890406
000330 ec 8e e4 3a 08 d0 a9 bb f5 36 97 3c cd 1a e6 3c
       0.0017437614 -0.00518227 0.018458823 0.028088951
000340 09 d6 e3 bc 15 69 db 3b 28 dc de 3c ea 76 76 3c
       -0.02781202 0.0066958764 0.027204588 0.015043
000350 7f 88 de 3a d7 ed 70 3c 16 81 c6 bc 9f 36 25 3c
       0.0016977935 0.014705143 -0.024231475 0.010083823
000360 20 4c c2 3c d2 47 62 bc 29 44 96 3c 2d 31 0e bb
       0.02371794 -0.013811069 0.018343048 -0.0021696792
000370 49 61 b6 3c c5 b7 3f bc c0 99 cc 3c 35 a0 08 bc
       0.022263186 -0.011701529 0.024975657 -0.008338978
000380 2b 0a 9f bc 82 f9 c9 3b a4 f0 2c 3c 8b a2 01 3c
       -0.019414028 0.006163777 0.01055542 0.007912288
000390 1e 39 f2 bc 20 d8 ee 3c d3 84 7f bc be 1b e1 bb
       -0.029568251 0.02915579 -0.015595633 -0.006869762
0003a0 4c 56 51 bc e6 7f 28 3b 79 21 83 bc 1f 75 9a 3b
       -0.012776922 0.0025711 -0.016007172 0.004713669
0003b0 7a 9b ee bc 58 df de bb ff e5 e0 bc 6c 9c bc 3b
       -0.029126871 -0.006801527 -0.02745342 0.0057559516
0003c0 9e da db ba 51 4e 67 3c 20 72 bb bc 6c 22 57 3c
       -0.0016773527 0.014117793 -0.022881567 0.013130765
0003d0 a8 1e da 3c cc 38 92 3b 09 62 72 bc c4 c3 e9 bb
       0.026625946 0.004462337 -0.014793881 -0.007133933
0003e0 87 e2 a4 39 da c9 2b bc 3e 8a 25 bc 64 01 e6 bc
       0.00031449294 -0.010485137 -0.01010376 -0.028076835
0003f0 b2 ba a7 3c 25 d9 22 3c d4 b9 0c 3c ef 3b 3a bb
       0.020474765 0.009939467 0.008589227 -0.002841707

siam_layer.conv1.bias f4 [14]
000000 4c fa 58 3c fa e9 f4 3c 84 4b 00 3c 0c 48 d3 bc
       0.013243269 0.029896725 0.007830504 -0.02579119
000010 e2 e5 bf 3c 7a 10 f1 3c 74 d7 b0 bc 58 b1 b2 3b
       0.023425046 0.029426802 -0.021587111 0.00545327
000020 c4 ba 6b bc 88 a9 06 3c 4c 11 7e 3c 48 96 d9 3c
       -0.01438779 0.00821913 0.015507054 0.026560917
000030 44 87 93 3c 14 0b 16 3c
       0.018008836 0.009157915

siam_layer.conv2.weight f4 [7, 14, 6, 6]
000000 14 a9 5a bc f6 b1 2e bd e7 52 02 3c a7 d1 6c bc
       -0.013345975 -0.042650186 0.007954336 -0.014454282
000010 41 4c c8 bb a7 27 16 3c f6 63 0c bd c7 ce bd 3c
       -0.006112606 0.009164727 -0.034275018 0.023169888
000020 6a cd d5 3b 5e 7c 20 bd e9 1a 8c bc 95 a5 d0 3c
       0.0065247314 -0.039181106 -0.017102676 0.02546958
000030 90 b3 65 3c c2 af 33 bd 1c 82 bc 3b a4 0a 34 3d
       0.014019862 -0.043868788 0.005752815 0.04395546
000040 98 fd 3b 3c 06 71 a3 3c 97 b9 8f bc d4 37 4b bc
       0.011474036 0.019951355 -0.01754455 -0.012403447
000050 ca ad b9 3c 15 e0 22 3d 2b 7c 09 3d 25 f1 14 3c
       0.022665877 0.039764483 0.03356568 0.009090696
000060 a7 7a 18 bc 17 26 95 bc fb 52 35 bd f8 1d 1f 3c
       -0.009306586 -0.01820664 -0.04426859 0.009711735
000070 7c 21 03 3d 56 fb 9e 3a 41 c9 22 3d f6 90 bc bc
       0.032014355 0.0012129347 0.039742712 -0.023018342
000080 6b a7 be 3c 39 75 ed 3c 6b be 52 3c 27 d9 18 bc
       0.02327319 0.02898656 0.012862782 -0.009329117
000090 7e 47 26 bd c5 7f 05 3d 7c 21 a1 bc 1d 33 29 bd
       -0.040595524 0.032592554 -0.019669287 -0.04130851
0000a0 54 7f 20 3d 9f 17 2a 3c 79 c3 a1 bc d9 24 08 3d
       0.03918393 0.010381608 -0.019746529 0.033238266
0000b0 06 27 b3 3c 52 6e 09 3d 89 68 ef 3c 66 7f c6 bc
       0.021869194 0.033552475 0.029224651 -0.02423067
0000c0 17 d6 f7 3c 2f 30 d2 bc 79 b5 0b bd ff 20 85 3c
       0.030253453 -0.025657741 -0.034108613 0.016251085
0000d0 b3 61 0c bd 15 d8 db bc 95 5b 0a 3c 54 ba 33 3c
       -0.03427286 -0.026836434 0.008444686 0.010969717
0000e0 af dd 07 bd 20 d8 c9 bc 90 12 a6 bc 19 7d bc bb
       -0.0331704 -0.02463919 -0.020272523 -0.0057522175
0000f0 79 92 14 3d 2e 03 d4 bc 32 62 c6 bc 2b 7b 81 bc
       0.0362725 -0.025880422 -0.024216745 -0.015805801
000100 26 e7 94 3c b8 77 b4 bc 8c 5f 36 bd 83 0c 01 3c
       0.018176626 -0.022029743 -0.044524714 0.007876518
000110 f5 47 01 bd 3a 67 d8 bc da 08 22 3d 47 44 1c 3d
       -0.031562764 -0.02641641 0.039559223 0.03815105
000120 ae cb 0a bd 92 9c 03 bc c8 cf 2b bc 63 d7 5f 3c
       -0.03388565 -0.008032935 -0.010486551 0.013662192
000130 5c 09 d6 3c 2c bb 9b bb 76 96 77 3c e0 39 c6 3a
       0.02612751 -0.0047525372 0.015111556 0.0015123449
000140 2a 7d 40 bc 4c b4 8a 3a 2c 1f 26 bd 2f 0e 40 3c
       -0.011748591 0.0010582297 -0.04055707 0.011722132
000150 8b 83 93 3c 60 fc 3e bc 27 af 11 3c 5c 41 34 bd
       0.01800706 -0.011656851 0.008891857 -0.044007644
000160 9c 06 fc bb 17 a5 77 bc ad 0f 2a bd 93 fd 83 bc
       -0.0076912176 -0.015115044 -0.041518856 -0.016112125
000170 aa f8 5f bc f4 38 8e 3c 76 5a 2c 3c 2b f6 0b bd
       -0.013670126 0.017361142 0.010519614 -0.03417031
000180 cd 54 88 bb 3d 25 1c 3d 5e 99 9b 3c 43 1c 64 bc
       -0.0041604997 0.03812145 0.01899403 -0.013922754
000190 c6 03 26 3d 00 de 80 3c 64 3b 14 3d 99 2c 0b 3d
       0.040530942 0.015730858 0.03618945 0.03397808
0001a0 aa 8f f8 ba e8 cc c8 3c dc 0c 9f 3c 30 e0 2a bd
       -0.0018963714 0.02451177 0.019415312 -0.041717708
0001b0 23 3b 1d 3d 35 09 37 bc d4 e5 19 bc b0 c7 b6 bc
       0.038386475 -0.011171629 -0.009393174 -0.022312015
0001c0 a0 8e 81 3c 56 a4 31 bd 0d c7 17 bd 12 3e 09 3d
       0.01581508 -0.043369614 -0.037055064 0.03350646
0001d0 8f cc 28 3d 12 75 c8 3c 89 29 55 bc 49 26 99 3c
       0.041210707 0.024469886 -0.013010391 0.018695014
0001e0 1b 3b c6 bc 00 d4 14 bd 1b 46 09 3d 61 b2 03 bc
       -0.024198106 -0.03633499 0.033514123 -0.008038134
0001f0 53 b5 c6 bb 8c ca f1 3b 68 a7 c3 3c 5f ca 76 3c
       -0.006064096 0.007378882 0.023883536 0.0150628975
000200 5d b4 29 bc 76 16 32 3c a8 a0 76 bc 47 d4 78 bb
       -0.010357943 0.010869613 -0.015052952 -0.0037968324
000210 a3 54 ce 3c c2 51 04 bd 28 94 c6 bc b3 29 eb bb
       0.025186842 -0.032304533 -0.024240568 -0.007176602
000220 88 41 a3 bc a7 a2 c9 bb 0a c7 04 3d b1 ca fc bc
       -0.019928709 -0.006153423 0.03241638 -0.03085837
000230 89 1b d1 bc 1b 89 76 3c 89 ac 26 bd ed 98 85 bc
       -0.025525825 0.015047337 -0.040691886 -0.016308272
000240 07 52 cf bc f3 73 f1 ba 96 e2 c7 bc 84 61 46 b9
       -0.025307668 -0.0018421396 -0.024400037 -0.00018919079
000250 a1 b0 7b 3c c8 56 65 bb c4 87 c7 bc 3b 14 97 bc
       0.015361936 -0.0034994353 -0.02435673 -0.018442264
000260 a1 2b 1b bd 81 3f 9d 3c 78 8c 83 3c db 0f 85 bc
       -0.037883405 0.01919532 0.016058192 -0.016242912
000270 b1 04 8b bb d6 4c a3 bb 20 33 0b 3d 08 74 25 bb
       -0.0042425026 -0.004983525 0.033984303 -0.0025246162
000280 12 28 9e bc 8b 85 f1 3b c3 a6 22 3d 48 45 cf 3c
       -0.019306216 0.007370656 0.039709818 0.02530159
000290 1b 8d f4 3c 71 f6 94 bc 6e 8e af bc 18 7b c2 3c
       0.02985244 -0.018183919 -0.02143022 0.023740336
0002a0 73 18 73 bc 3b 0f 5f bc a8 af 6e 3c 3c cd 2a 3d
       -0.014837372 -0.013614471 0.014568247 0.041699633
0002b0 67 75 b1 bc b0 cc 24 bd 4b b4 b1 3b 12 a2 ad bc
       -0.021662427 -0.040234268 0.005423104 -0.021195445
0002c0 f8 0a cb bc c3 c1 b8 3c 22 4b 65 3b 85 23 fe bc
       -0.024785504 0.02255333 0.003498741 -0.031022796
0002d0 b2 c5 34 3d ba 70 b3 3c dc e5 eb 3c 03 39 6a bc
       0.04413385 0.021904338 0.028796129 -0.014295819
0002e0 37 85 30 bd 13 a1 fd 3c 8a 58 02 bd 06 9e 1f bd
       -0.043095794 0.030960595 -0.03182272 -0.038969062
0002f0 fd bf 16 3d 73 39 a7 bb 5b 0b 54 3c 70 c6 fc bc
       0.036804188 -0.005103284 0.0129421605 -0.030856341
000300 95 35 c4 3c fe 71 0c 3c c4 30 96 3c 53 ab 01 3d
       0.023951331 0.0085721 0.0183338 0.031657528
000310 66 95 cc bb 3c b9 19 bd 10 74 19 bc 86 75 f1 bc
       -0.0062433956 -0.03753017 -0.00936605 -0.029474985
000320 48 46 89 bc ef 33 0c bd 80 7c d4 3b 0c 5e 0a bd
       -0.016757146 -0.034229215 0.006484568 -0.033781096
000330 3f 40 f4 3b 2e 1c ca 3c 7b 81 db 3c 76 5a df bc
       0.007453948 0.02467164 0.02679514 -0.027264815
000340 ca 50 10 3c ac 08 12 3c f3 da 03 3d 39 5e eb 3c
       0.008808324 0.0089132 0.032191228 0.028731452
000350 e5 a0 0c 3c ac 44 cc bc 95 ca e9 3c 23 e9 90 3c
       0.008583282 -0.024935089 0.028538981 0.017689293
000360 60 c7 fd 3c 49 2e 2f 3d 8e 3c 32 bd e1 03 21 bb
       0.030978858 0.04276875 -0.04351478 -0.0024568962
000370 fa b1 d2 3c 5c ec b6 3c ae c0 53 3c 7e 45 b4 bb
       0.025719631 0.022329502 0.012924356 -0.005501448
000380 c2 d5 36 3d 2c f8 e7 3c 4e 6e ec 3c 31 4f 92 3c
       0.04463745 0.02831658 0.028861191 0.017860027
000390 2f 3b d2 bc 0c c9 22 bc 4f d6 15 3c 75 cd 26 3b
       -0.025662987 -0.009935629 0.009145333 0.0025452052
0003a0 e0 1d 55 bc 1d 63 2b 3d b1 66 6a bc a1 f6 13 3d
       -0.013007611 0.04184257 -0.01430671 0.036123876
0003b0 62 8b 13 ba cd 15 91 bc 50 87 a0 bc 57 51 e0 3c
       -0.00056283746 -0.01771059 -0.019595772 0.027382536
0003c0 89 6d a9 3c d4 34 bc 3b fb c5 df 3c 95 5d 00 3d
       0.020682113 0.0057436023 0.027316084 0.031339247
0003d0 0f 08 15 bd 32 96 0a 3d b7 ca d4 3b 30 de 3e bc
       -0.03638464 0.033834644 0.006493892 -0.011649653
0003e0 20 6b e1 bc 99 c5 a9 3c 40 05 2b 3d 55 d0 d6 3c
       -0.027516901 0.020724105 0.041753054 0.026222387
0003f0 98 06 1b bd 85 0d 74 3c 70 3b 1e 3d 35 ab 1b bd
       -0.037848085 0.014895801 0.038630903 -0.038005073

siam_layer.conv2.bias f4 [7]
000000 d0 4a f7 3c e0 be a3 3c 79 0c 93 bc a6 8a 67 bc
       0.03018704 0.019988477 -0.017950283 -0.014132177
000010 e7 90 22 bd 84 67 0a 3d 53 e2 b2 bc
       -0.03968897 0.033790126 -0.021836435

siam_layer.conv3.weight f4 [7, 14, 6, 6]
000000 6a 74 21 3c 46 b9 ca 3c e2 95 e8 bc cd ca f4 bc
       0.009854415 0.024746548 -0.028391782 -0.02988186
000010 63 16 cc 3b 96 da 97 3c ad a1 b3 3c eb a2 2b 3d
       0.0062282546 0.018536847 0.021927679 0.041903418
000020 aa 04 ef bc 56 d7 a5 3c 6d cb 4c 3c 53 39 2d bd
       -0.029177029 0.020244282 0.012499672 -0.042290997
000030 ec 0e 29 3d ba 0f e6 bc 06 c0 4d bb be f3 a6 bc
       0.041273996 -0.02808367 -0.0031394972 -0.020379897
000040 9a f5 25 bd 07 d2 2f bd 5c 45 7d bb ad 15 53 bc
       -0.040517427 -0.042924907 -0.0038646078 -0.012883586
000050 2b 72 5e bc 44 50 82 3c 34 f0 e6 bc a2 d8 0f 3d
       -0.013577024 0.015907414 -0.02819071 0.035118707
000060 1c ae f1 bc a6 dd 77 3b b5 97 15 bd 9c 39 99 bc
       -0.029501967 0.0037821322 -0.036521632 -0.018704228
000070 cc e5 50 3c 3a ba f2 3c 8e 0d 21 bc f8 a0 86 3b
       0.0127501 0.029629815 -0.009829892 0.0041085444
000080 a6 ef 3d 3c 43 67 d8 bc 07 9b 2c bd 16 36 e1 bc
       0.011592781 -0.026416427 -0.042140033 -0.02749161
000090 b8 67 68 bc e1 91 04 3d 2f c0 d7 3b 7f 4d 64 3b
       -0.014184885 0.032365683 0.0065841894 0.003483623
0000a0 15 c4 ba 3c 1c 2d 3a b9 45 43 9a 3c 71 66 19 3d
       0.022798577 -0.00017755147 0.018830905 0.03745121
0000b0 c5 bc f7 3c c6 b7 83 3c e3 bd b2 bc 54 9c 6c 3a
       0.03024138 0.016078841 -0.02181906 0.000902598
0000c0 29 14 9e bb 00 ff 34 3c 3e 6a 2b bc ea 85 03 bd
       -0.0048241806 0.011047125 -0.010462342 -0.032110132
0000d0 bb 4a ef 3c 9f 54 b9 3b f6 a8 bf bc c7 65 de bc
       0.029210439 0.0056558396 -0.023395997 -0.02714814
0000e0 07 1e c9 3c 3e f2 c2 3c ae 50 2d bc 3f aa c4 bc
       0.024550451 0.02379715 -0.010578318 -0.02400696
0000f0 a4 64 b8 3b 51 c5 f1 3c 42 9f 17 3d 83 9c 1e bd
       0.0056272317 0.029513033 0.037017114 -0.03872348
000100 4d 4d 07 3d 6f 8b 04 bb fb f2 c3 3c d0 e8 19 bd
       0.033032704 -0.002022471 0.023919573 -0.037575543
000110 a8 a5 9b ba 57 38 e1 bc ec 5a 17 3d 32 6e 61 bb
       -0.0011874931 -0.027492685 0.036951944 -0.0034397957
000120 25 51 91 bc f5 52 2e 3c 73 55 29 3d 72 89 2c bd
       -0.017738888 0.010639896 0.041341256 -0.042123266
000130 55 07 cd bc 97 6d 2b bd 03 b2 da 3c 82 c2 f5 bc
       -0.02502791 -0.04185256 0.02669621 -0.029999975
000140 4b a3 9f bc fb 53 11 bd 77 02 a0 3c 2f 75 65 bc
       -0.019487044 -0.03548048 0.019532425 -0.0140049895
000150 f6 80 2d bd 3e 29 ba 3c 39 69 17 bd 55 24 4a ba
       -0.042359315 0.022724744 -0.036965583 -0.00077111024
000160 ea 70 1e 3d 1f 01 14 bd d6 d9 5a 3c 57 35 c3 bb
       0.038681902 -0.03613388 0.0133576 -0.0059572863
000170 23 86 a9 3c 6c 34 21 bd 23 2a 32 3c cb 0d 59 bc
       0.020693844 -0.039356634 0.010874304 -0.013247917
000180 ea ac d4 bb 96 20 10 bd e7 69 c4 3c 4b f0 ab bc
       -0.0064903395 -0.035187326 0.02397628 -0.020988604
000190 db 1e ce 3c 47 54 8a bb 0f d4 3c bc 6f fa 25 bd
       0.025161197 -0.0042214724 -0.011525168 -0.040522035
0001a0 f3 95 28 bd c7 14 09 bd 8c a4 83 3a e1 6d 28 bd
       -0.041158628 -0.03346708 0.0010043546 -0.041120414
0001b0 ab 10 28 3d 52 58 19 bd 35 b1 57 bc 86 2f 3d 3c
       0.04103152 -0.037437744 -0.013164808 0.011546975
0001c0 78 4d 1d bd 10 4a 07 3c 05 e5 df bc 2c fa 3e bc
       -0.038403958 0.008257404 -0.027330885 -0.011656325
0001d0 84 da 79 3c 06 ec 24 3d 4f c3 e6 3c 4a fe c6 3c
       0.015249852 0.040264152 0.028169302 0.024291176
0001e0 42 12 1b bd d6 db 63 3c 78 32 b5 3c 1e 09 31 bd
       -0.03785921 0.013907393 0.022118792 -0.043221585
0001f0 7f fb d1 bb 0f 81 30 bd c3 24 11 3d 56 9b da bb
       -0.0064081545 -0.04309183 0.03543545 -0.0066713495
000200 33 8a 48 bb 93 48 a5 bb c0 93 fa bc 9d e9 1b 3d
       -0.0030599951 -0.005044052 -0.03058803 0.038064588
000210 2a 0a b7 3c b8 f0 22 bd 18 78 c7 bc 2c 40 15 3d
       0.022343714 -0.03978035 -0.024349257 0.036438152
000220 f9 57 d1 3c 33 33 2a bc d7 e5 77 bc 25 e6 01 bd
       0.025554644 -0.010388183 -0.015130482 -0.031713624
000230 34 84 84 bc f1 95 da bb ad 80 b7 3c 72 39 39 b9
       -0.01617632 -0.0066707064 0.022400225 -0.00017664375
000240 44 3e 3b 3c 7b 35 c8 bc cf f9 6e 3a 5d fe 15 3d
       0.0114284195 -0.024439564 0.0009116204 0.036619533
000250 e2 97 04 bc 81 1f fb 3c 8d 09 1e 3d f6 ba e4 bc
       -0.008092852 0.03065467 0.038583327 -0.027921181
000260 23 7d 9b 3c 8a e3 10 bd 15 12 20 3d 56 bf 0a bd
       0.018980568 -0.03537325 0.039079744 -0.03387388
000270 b0 90 77 bc 6b 19 78 bb 24 f0 26 bd 99 af 1b 3d
       -0.01511018 -0.0037856947 -0.04075636 0.03800926
000280 bb 7a ef bc b3 3e 08 3d 54 51 b9 3c 40 bb 12 3c
       -0.029233327 0.03326292 0.022621788 0.008955777
000290 64 79 b9 bb 39 66 26 bd 7f 25 a6 bc 4d 0f 00 bd
       -0.005660223 -0.04062483 -0.020281551 -0.031264592
0002a0 ea a0 21 bd 1c 23 06 bc c1 77 df 3b 28 8e 66 3c
       -0.0394601 -0.008187082 0.0068196957 0.014071979
0002b0 f2 34 e3 bc b7 4c 12 3c ab 6a 06 bc c7 44 83 bc
       -0.027735207 0.008929423 -0.008204143 -0.016024007
0002c0 83 3b 2e bd fb c8 83 bb a2 13 1c bd 23 c4 f1 bc
       -0.042537224 -0.0040217615 -0.03810466 -0.02951247
0002d0 8c 52 34 3d bc 8a 8b 3b 6b 43 72 bc fe 1e bb 3c
       0.044024035 0.004258482 -0.0147865815 0.022841927
0002e0 5a 1d f2 bc 47 39 3f 3c d4 87 70 bc 3f a9 ec 3c
       -0.029555012 0.011671371 -0.014680821 0.028889297
0002f0 33 11 ef bc 69 28 4a 3c 41 8e e0 3c 56 60 d7 3c
       -0.029183006 0.012338736 0.027411582 0.026291054
000300 71 25 aa 3c 5c 58 a9 bb 2c 28 01 bb a3 ba 30 bd
       0.020769807 -0.005168004 -0.0019707782 -0.04314674
000310 73 b4 0a 3d 59 e9 0f bc 98 54 bc 3c 61 96 7a bc
       0.033863496 -0.008783662 0.022989556 -0.015294642
000320 3b 49 12 bd 56 02 33 3c fa e0 fc bc 38 bb 5c bb
       -0.03571437 0.01092585 -0.030868996 -0.0033680927
000330 b9 f8 17 bd 9d 75 0c 3c 22 67 9c bb 38 87 44 3b
       -0.037102435 0.008572963 -0.0047730366 0.0029987823
000340 4a 20 b3 bc 31 32 ce 3b d1 65 83 bc a6 53 36 bd
       -0.021865983 0.0062926044 -0.01603976 -0.044513367
000350 15 83 1a bd 22 60 d5 bc b0 05 9c 3c 27 a2 ad bc
       -0.037722666 -0.026046816 0.01904568 -0.021195484
000360 e4 85 2c 3d a7 3a 83 bc 67 c2 20 bd 8a 28 c7 3b
       0.042119876 -0.016019179 -0.039247897 0.0060778307
000370 43 0c 88 3a 51 30 f3 bb dd 67 12 bd 8b 9f bb bc
       0.0010379631 -0.0074215312 -0.035743583 -0.022903224
000380 ff 45 9b bc 3b 70 d0 bb ff 92 8b bc d2 61 62 3c
       -0.018954275 -0.006361035 -0.017037867 0.0138172675
000390 93 74 18 bd b3 22 04 bd 15 c0 c1 bb 14 f3 c1 3c
       -0.03722055 -0.032259654 -0.0059127905 0.023675479
0003a0 cd 8c 06 3c ea 6c 13 3d f5 b8 23 bd c8 67 a2 bc
       0.00821228 0.03599254 -0.03997131 -0.019824877
0003b0 3d f1 8a 3c 60 d4 6c bc f7 72 9f bc 1b c6 c6 3c
       0.016960735 -0.014454931 -0.019464 0.024264386
0003c0 db e5 d2 bb 7f fd 55 3c 5b d8 ae 3c 29 18 cc bc
       -0.0064360923 0.013060926 0.0213434 -0.024913864
0003d0 26 50 11 bd 49 ac c7 3c a2 6d 09 3d c1 ff c0 3c
       -0.035476826 0.024374144 0.03355182 0.023559453
0003e0 70 61 58 3c 3f 59 2d 3d e7 b4 30 bc 52 1f 96 bb
       0.013206825 0.04232144 -0.010785318 -0.0045813704
0003f0 56 fc 3b 3c e0 ef 95 bc 01 b5 f9 bc f7 89 28 3d
       0.011473736 -0.018302858 -0.030481817 0.0411472

siam_layer.conv3.bias f4 [7]
000000 4c 63 02 3d b4 66 ac 3c d0 bb c2 3c a0 66 c4 ba
       0.031832978 0.021045066 0.023771197 -0.0014984198
000010 40 7f fd 3a e0 a8 14 3d a8 38 52 3c
       0.0019340292 0.036293864 0.012830891

siam_layer.conv4.weight f4 [3, 14, 6, 6]
000000 84 ea b0 bb 10 b9 2b ba 48 6b 0f 3d 46 71 ae bc
       -0.00539905 -0.0006550709 0.03501442 -0.021294247
000010 e0 fd ff 3c 6e 3e c9 39 09 2e db bb 43 7c 1f bb
       0.031248987 0.0003838422 -0.0066888374 -0.002433554
000020 f2 c9 15 bb ba 72 dd bc 62 bf d9 3c 48 65 ea bc
       -0.0022855964 -0.027032245 0.026580516 -0.028612748
000030 f3 fa b5 bc f8 34 c1 3c b7 6d de 3c 26 72 0a 3c
       -0.022214388 0.023584828 0.027151925 0.008450067
000040 ba 11 de bc 23 53 8c bc 5e d7 47 3b e4 0d 9e 3c
       -0.027108062 -0.017129486 0.003049336 0.019293733
000050 44 fe 0c 3d 40 be b0 bc a4 aa 17 bd 8e 93 c3 3b
       0.034422174 -0.021575093 -0.03702797 0.0059685176
000060 e0 43 5b 3c 58 30 03 3d 08 1a f7 3c 21 d0 10 3c
       0.013382882 0.032028526 0.03016378 0.008838684
000070 bd 1b 0d 3b 10 99 3b 3b dd 21 53 3c e1 08 bc bc
       0.0021531426 0.0028625168 0.012886492 -0.022953453
000080 a0 28 ad bc b2 18 fe 3c e7 a3 4a 3b a6 b1 70 bc
       -0.021137536 0.031017635 0.0030920447 -0.014690792
000090 41 09 c1 bc 5d 2c 03 3d 2f c8 c7 bb 84 e3 29 bd
       -0.023563983 0.03202473 -0.006096862 -0.04147674
0000a0 22 ea 96 3c e1 7c 17 3d 33 36 fd bc b7 69 34 3c
       0.01842219 0.03698433 -0.030909633 0.0110115325
0000b0 ea e6 5c 3c 52 2a ce 3c 05 f3 d2 3c 31 fc 95 bc
       0.013482789 0.025166664 0.025750646 -0.01830873
0000c0 8d ee ee bc 27 19 ad 3c fc 0d 37 3d 23 f1 d5 bc
       -0.029166484 0.021130158 0.04469107 -0.02611596
0000d0 57 29 0f 3d 5f 37 38 3d 8a 9c ac bc 4f d5 be bb
       0.034951534 0.04497468 -0.021070737 -0.005823768
0000e0 22 97 16 3b 5c 46 f9 bc b2 80 b6 3b 5f 68 05 3d
       0.0022978266 -0.030429058 0.005569541 0.03257024
0000f0 96 cb de 39 da 2b 93 3c 74 79 40 3b ad cd c1 bb
       0.00042494823 0.017965246 0.0029369267 -0.005914411
000100 08 86 34 3c a3 c4 2b bd eb 62 66 bc b0 e8 e9 3c
       0.011018284 -0.041935574 -0.01406167 0.028553337
000110 08 e4 43 bb de e8 a5 bc ff 19 80 3c 33 af 9a 3b
       -0.0029890556 -0.020252641 0.015637396 0.0047205924
000120 32 b0 19 bc 7f 97 be bc 70 9f 87 bc 86 c3 1e 3c
       -0.009380387 -0.023265598 -0.016555518 0.009690171
000130 e9 22 96 3b 6d 3e 2f bc dc b7 21 3d 18 ad 96 bc
       0.0045817983 -0.010696036 0.039481983 -0.018393084
000140 07 d8 04 bd 28 7b 2a bd cf 9b bb bc d3 69 12 bc
       -0.032432582 -0.041621357 -0.022901444 -0.008936363
000150 06 d1 97 3c 95 0d 24 bd 68 17 1a bd b1 2d c6 bc
       0.018532287 -0.040052015 -0.03761998 -0.02419171
000160 20 1a b5 3c 78 59 ce bc a7 02 8b 3c 07 23 87 3c
       0.022107184 -0.025189146 0.016969038 0.016496195
000170 77 48 66 bc 8b 66 ca bc c2 4e 52 3c 5c 25 0e bd
       -0.014055363 -0.0247071 0.01283616 -0.034703597
000180 65 bb 29 bd 0c 98 2a bd d4 73 27 3d bf 85 64 bc
       -0.04143848 -0.04164891 0.040881947 -0.013947903
000190 0f 9d b1 bc fb 1d 57 bc 6d 92 13 bd fb 93 20 bd
       -0.021681337 -0.0131297065 -0.036028314 -0.039203625
0001a0 15 dd 4c bc b4 d2 d4 3c f6 83 3d bc 25 10 1a 3d
       -0.012503882 0.025979377 -0.0115671065 0.037613053
0001b0 d0 78 ab bb 90 f3 49 bc 61 ed 17 bd b1 9d 34 3d
       -0.005232908 -0.012326136 -0.037091617 0.0440957
0001c0 ea d0 53 3c e0 d3 36 3d d4 6d 62 3c 6f 5c 0b 3d
       0.012928227 0.044635653 0.01382013 0.0340237
0001d0 51 e4 fd ba 0f af 0f 3d dd f9 55 3a 2c eb 09 3d
       -0.0019370412 0.03507906 0.00081625377 0.033671543
0001e0 de 00 d9 3c e4 68 b0 3c 87 7c 92 39 a0 28 cd 3c
       0.026489671 0.02153439 0.0002794007 0.025043786
0001f0 26 c1 c8 bc 19 c1 1d bc 0f c5 ce 3c de cf 71 3c
       -0.024506163 -0.009628558 0.02524045 0.014759032
000200 6c b5 9a 3c 79 34 cd bc 4f 54 20 bb b3 fc 8d 3b
       0.018885337 -0.025049435 -0.0024464314 0.0043331026
000210 6b e2 09 bc 35 69 b6 bc 3e d4 47 3b 02 d4 bd bc
       -0.008415799 -0.022266963 0.0030491496 -0.023172382
000220 dc a1 dc bc 4e 7f 21 3d cf 4b d8 3c 2d 4c 77 bc
       -0.02693265 0.039428048 0.026403336 -0.015093845
000230 8d 15 00 3d b0 dd 8e ba 79 c4 09 3d fb be 57 bc
       0.031270552 -0.0010899808 0.033634637 -0.013168092
000240 11 f7 ba 3a ba ff e0 bc 58 6b 31 3d 73 66 67 bc
       0.0014264305 -0.02746569 0.04331526 -0.014123547
000250 f6 6e 96 3c 35 48 e4 bc 57 cd 0a bd 8f b9 cf bb
       0.018363457 -0.027866462 -0.033887234 -0.006339259
000260 d1 e9 ec bc 7a 44 73 3b 43 d5 96 3c 1c 59 d6 3c
       -0.028920086 0.0037119673 0.018412238 0.026165538
000270 3d 62 1f 3c 6d a1 dc 3c 73 74 23 3d 18 f9 ef 3c
       0.009728012 0.026932443 0.039905977 0.029293582
000280 18 7e 1a 3d 25 6c 86 3b 17 0e 28 bb fd 3b ae 3c
       0.03771791 0.0041022473 -0.0025643164 0.021268839
000290 1a 68 72 bc e9 dc 2a bd 4c a3 7e 3c 49 42 b5 3b
       -0.014795328 -0.041714583 0.015541863 0.0055315834
0002a0 dd ed d7 bc a3 51 ea 3c e8 14 44 3c 38 9b 2a 3c
       -0.02635854 0.02860338 0.011967875 0.010412984
0002b0 4d b7 33 bd 3d 98 d9 3c 30 3f 11 3c e4 51 78 bc
       -0.04387598 0.02656185 0.008865163 -0.015156243
0002c0 75 41 fd bc dc 2e 6e bc 92 3c f2 bc 04 3f ac bb
       -0.030915001 -0.014537539 -0.029569898 -0.0052565355
0002d0 3f 1c 82 3c 96 78 58 bc 1a 24 fc 3c 80 c0 42 3c
       0.01588261 -0.013212344 0.030778933 0.011886716
0002e0 41 04 18 3d a8 e1 97 3c 89 dc 33 bb ad 50 01 3d
       0.03711343 0.018540218 -0.0027444682 0.03157108
0002f0 9a f4 17 3d 4b a7 86 bb 91 18 15 bd 4f 6a 58 bb
       0.037098505 -0.0041092983 -0.03640038 -0.003302235
000300 50 29 53 3c f7 31 ce bc d1 01 17 bd e4 7d 51 bc
       0.012888268 -0.02517031 -0.036866967 -0.012786362
000310 03 b2 80 3c c4 87 18 3d ee 39 c2 3c cc 77 c7 bb
       0.015709883 0.03723885 0.023709264 -0.006087279
000320 b9 f7 30 3d 98 18 99 bb ed c6 6a bc ab 65 2e bc
       0.043204997 -0.0046721213 -0.014329654 -0.010644357
000330 b6 90 2c bc 8b 02 32 3d 29 be 82 bc 82 b7 98 bc
       -0.010532549 0.043459456 -0.015959816 -0.01864219
000340 c5 66 ad 3c bf 14 0e 3d 97 16 11 3d 8c b4 28 bd
       0.021167168 0.034687754 0.035421934 -0.041187808
000350 5a 55 a5 bc d6 29 ad 3b 47 2e a0 3c fd 13 02 bd
       -0.0201823 0.0052845282 0.019553317 -0.031757344
000360 a5 dd 77 bc be fe 30 3d bb 4a ac 3b 0f 43 9a bc
       -0.015128528 0.04321169 0.005257932 -0.018830804
000370 87 5e 16 bb a9 17 57 bc 3c bc 1c bc 30 9a 0c 3d
       -0.0022944526 -0.0131282 -0.009566363 0.034326732
000380 c4 f2 21 3c 64 d4 b9 3c cc 85 8a bc 2d 51 86 3c
       0.00988454 0.022684284 -0.016909502 0.01639613
000390 5d 4f 9c 3c 6e 0f d1 3c 78 5a 0e 3d c9 c3 2f bc
       0.019080812 0.025520053 0.034754246 -0.010727831
0003a0 68 3a ce 3c dc f5 8b bb 33 3d ad 3c 8f b8 10 bd
       0.025174335 -0.004271252 0.021147346 -0.03533226
0003b0 f2 d1 0d 3c aa 30 28 3c 34 3c 28 3d 85 47 8e 3c
       0.008656012 0.010265509 0.04107304 0.017368088
0003c0 98 6a 01 3c b2 37 be 3c 76 91 0e bd 89 15 5b bc
       0.007898949 0.023219917 -0.03480669 -0.013371834
0003d0 16 80 ec 3c cf 26 29 bd a4 38 cb 3c df f7 18 3c
       0.02886967 -0.041296776 0.024807282 0.009336441
0003e0 3a 04 13 bd 2b b7 a5 3c 5e 62 e3 3c 5a e3 10 3d
       -0.035892703 0.020228943 0.027756866 0.03537307
0003f0 04 e5 3b 3c 92 2f 22 bd b7 1d cd bb c8 77 15 3d
       0.011468176 -0.039596148 -0.006259646 0.036491185

siam_layer.conv4.bias f4 [3]
000000 e2 1a 94 bc c4 b3 c0 3c 7e aa 10 bd
       -0.018079225 0.023523219 -0.035318844

siam_layer.conv5.weight f4 [1, 3, 6, 6]
000000 02 42 b3 bd 8c db 37 bd c8 15 1b 3c d0 cd a1 3d
       -0.08752824 -0.04488711 0.009465642 0.07900584
000010 c1 50 22 bc 32 55 6c 3d 84 30 80 3d dd 85 c3 3c
       -0.009906949 0.057698436 0.062592536 0.023867542
000020 ec a4 72 bd c9 7c 14 bd 09 11 b8 bd 24 24 99 3d
       -0.059239313 -0.036251817 -0.08987624 0.074775964
000030 3d db b8 bd 44 75 87 3c da 4f 8d bd 86 37 50 3d
       -0.090261914 0.016535409 -0.06899996 0.0508342
000040 61 0a 95 3d db d3 c7 bc 70 db 6b bc a2 93 06 bd
       0.0727737 -0.024393013 -0.01439558 -0.032855637
000050 a6 d4 9b bc 08 4a c4 bd a0 48 6f bd af 03 2b bd
       -0.019022297 -0.09584433 -0.05841887 -0.04175156
000060 29 e0 9b 3c e1 13 65 3d f5 07 17 3d e2 91 36 3c
       0.019027786 0.05592716 0.036872823 0.01114318
000070 35 72 a2 bd 37 6f c4 bc bc ab 44 bd c5 de f9 bc
       -0.079319395 -0.023978813 -0.04801534 -0.030501733
000080 07 05 e3 3c 6c 97 88 bd 8b 9a 8a 3d 2f c8 4f 3d
       0.027712358 -0.066695064 0.06767758 0.05072802
000090 12 7e 49 3d 8d 28 86 bd 64 57 c3 bc 32 6b 0b bd
       0.049192496 -0.06550703 -0.023845382 -0.034037776
0000a0 37 53 e6 3c a3 1a ad bb 57 c2 9a bc 29 a7 0f bb
       0.028115852 -0.0052827164 -0.018891497 -0.0021919704
0000b0 c7 51 ae 39 89 56 eb 3c c6 ca a3 bc d7 98 c4 bc
       0.00033248795 0.028727787 -0.01999415 -0.023998661
0000c0 ca 75 96 3d fe b3 b1 3d 9e 8f 9d 3c fb 75 b0 3d
       0.07346685 0.08676909 0.019233521 0.08616253
0000d0 3b 47 a1 bd 7f e6 bf 3d 89 43 a1 bd 98 89 80 bd
       -0.07874914 0.093701355 -0.078742094 -0.06276244
0000e0 48 bd fc bb e5 f7 95 bd f8 25 1e bd 0b 8e 53 bd
       -0.007712994 -0.07322673 -0.03861043 -0.051649135
0000f0 9d 83 a5 bd 74 6a 7c 3d 75 1d a0 3d 45 9a 95 3b
       -0.08081744 0.06162496 0.078181185 0.0045655095
000100 22 46 d2 3c 6c 71 ac bc e3 45 25 bd 54 0c 55 bc
       0.025668208 -0.021050178 -0.040349852 -0.013003428
000110 53 06 8a 3d d2 3d bc 3d 87 91 62 3c d9 c9 d1 bb
       0.067394875 0.09191479 0.013828642 -0.006402236
000120 31 a2 b8 3d 08 a1 e6 3b 76 ec c5 bd 12 85 6f bd
       0.090153106 0.0070382394 -0.09664242 -0.058476515
000130 c6 eb 3a bc db ba bd bc 82 c2 b5 3d a7 b7 5d bd
       -0.011408752 -0.023160389 0.0887499 -0.054130223
000140 bc 2e a2 3c f2 cf 35 bc f3 59 7e 3d b4 bf 48 3d
       0.019797675 -0.011096941 0.0620975 0.049010947
000150 18 ed 6d 3c 29 16 bc bc d3 1c 5c bd 5f 3a bc bd
       0.01452186 -0.022959786 -0.053738426 -0.09190821
000160 88 51 47 3d ef 93 14 3d a5 06 20 3d f7 cf d3 3c
       0.04866174 0.036273893 0.039068837 0.025856001
000170 9e 67 a4 3d 07 e4 f5 3c ab ca 1b 3c 51 8a 24 bd
       0.08027576 0.030015958 0.009508769 -0.04017097
000180 06 41 83 3d 10 6d 7e bd e1 91 b3 3c 43 25 ef 3c
       0.064088866 -0.06211573 0.021920146 0.029192572
000190 a2 e5 a6 bb 9e 6d 9e 3d b9 d7 48 3d 3d 02 ad bd
       -0.0050932923 0.077357516 0.049033854 -0.084476925
0001a0 ce 48 0e bd 34 81 1e bd 56 24 30 3d d1 5c 09 3c
       -0.0347374 -0.038697436 0.043003403 0.008383946

siam_layer.conv6.weight f4 [1, 3, 6, 6]
000000 95 4b 31 bc 2e fe 15 bc 59 a4 71 3d 02 e7 b5 bc
       -0.010821243 -0.009154839 0.058994625 -0.02220488
000010 78 13 8d 3d f8 08 a7 bd 8e 10 a0 3d e5 8f f4 3c
       0.06888479 -0.081560075 0.078156576 0.02985377
000020 c6 e8 27 3d 93 d2 7d bd 1d 1d bc bd 02 54 c4 bd
       0.040993474 -0.061968397 -0.091852404 -0.09586336
000030 1e e6 31 bc 43 9f bf 3d 86 c3 c0 3d ae 5c f0 3b
       -0.010858087 0.09356549 0.09412293 0.007335267
000040 f9 e6 ba 3d c2 4c b7 bd 74 2a 71 bb 1c b3 93 3d
       0.09126086 -0.08950187 -0.0036798986 0.07211897
000050 e0 36 00 3d cf 74 b9 3d 4d ee d3 3c d5 3b c3 bd
       0.031302333 0.090554826 0.025870467 -0.095328964
000060 a7 bc b1 bd 15 72 4b 3c 91 0b 54 bd f4 53 83 3c
       -0.08678561 0.012417336 -0.051768843 0.016031243
000070 9a 6e fd 3c 7a be bb 3d 49 2a b5 3c 57 61 8f 3b
       0.030936528 0.0916719 0.02211489 0.0043756175
000080 32 be a4 bd 30 32 b7 3d 51 7a 62 3d a2 85 42 bd
       -0.080440894 0.089451194 0.05529243 -0.047490723
000090 0d a7 96 bd c7 9b 67 bd b5 d2 ee 3a af 22 fb bc
       -0.07356081 -0.056545045 0.0018220755 -0.030656187
0000a0 11 42 07 bd ea 71 ac bd dd 27 30 bd c5 14 23 bd
       -0.03302199 -0.08420165 -0.043006767 -0.03981473
0000b0 55 a7 68 3d 73 64 46 3d f6 24 33 3d ce a9 c6 bb
       0.056800205 0.04843564 0.04373642 -0.0060627228
0000c0 26 1e 9d bd fc 80 dc b9 f1 59 67 3d 3c b1 02 3d
       -0.07671766 -0.0004205777 0.05648226 0.031907305
0000d0 77 20 24 3d b8 47 87 3d 6e 7a 99 bc ac 63 a0 bc
       0.040070023 0.06605476 -0.018735137 -0.019578777
0000e0 7e 7a 48 bc c6 58 8d bc 02 7d 49 bd 58 ca 6d bd
       -0.012236236 -0.017254245 -0.049191482 -0.0580543
0000f0 05 96 9c 3d 24 8e 63 3d 30 4a 8a bd ab 07 38 3c
       0.076458015 0.055555478 -0.067524314 0.011232297
000100 86 ab 46 bd a4 79 e3 bb b3 8b 9e bd 2e a8 9e bd
       -0.04850342 -0.006941991 -0.07741489 -0.077469215
000110 42 45 ad 3d f4 3d 4e 3d 3f 55 80 3d 72 68 0d 3d
       0.084604755 0.05035205 0.062662594 0.034523435
000120 bf 11 97 bd 68 5a 20 bd d6 b1 50 3d 58 1e 4e bc
       -0.07376432 -0.039148718 0.050950848 -0.012580477
000130 ad f6 97 bd 7b ab c3 bd 21 2a c5 bd 4f f3 35 bd
       -0.074200965 -0.09554192 -0.09627176 -0.04442149
000140 0d 1c 37 3d b8 e2 b0 3d ed f5 49 3d 05 d0 65 bd
       0.044704486 0.08636993 0.0493068 -0.056106586
000150 f5 fc 31 bd a9 85 88 3c 60 32 c2 bd 7c 1f b0 bd
       -0.04345413 0.016665297 -0.094822645 -0.08599755
000160 d7 46 97 bd ea a5 e2 3c 93 03 02 bd 0b 1b 1e bd
       -0.073865585 0.027667005 -0.03174169 -0.03860001
000170 55 d1 9a 3d f2 ca 6b 3d 15 55 f2 3c 6f ed 5d bd
       0.07559458 0.05756659 0.029581586 -0.054181512
000180 6a aa fa bc 3d f0 34 3b 6e 16 50 bd 53 8c 51 bd
       -0.030598838 0.0027609013 -0.05080264 -0.051159214
000190 f5 cf c3 bd dd cd 78 bd 51 33 b9 bd 2c 4e 74 3d
       -0.09561149 -0.0607432 -0.09042991 0.059644863
0001a0 33 bd 3e 3c b5 48 d5 bc 4a dc a2 3d 46 17 22 bd
       0.011641788 -0.026035646 0.07952173 -0.039572977

siam_layer.conv7.weight f4 [1, 2, 6, 6]
000000 16 ee ec 3c 28 ee 81 3d c5 76 ab bd 54 45 e1 3d
       0.028922122 0.06344253 -0.08372263 0.109995514
000010 09 df 52 3c 3e 9e a4 3d 3a 1d 0c 3d 24 93 cf bd
       0.012870559 0.08037995 0.03420756 -0.10135487
000020 50 94 a4 bd ea 19 94 bd 4a d2 c0 3d fc d0 a7 ba
       -0.08036101 -0.07231505 0.094151095 -0.0012803371
000030 11 7f 62 bd 6d 54 b7 3a 45 ac e4 bd f7 e0 b9 3d
       -0.05529696 0.0013986953 -0.1116567 0.09076112
000040 6d 1d e5 bd 59 bd 1b bc 30 cc 2b bd 8b 07 ae bc
       -0.11187253 -0.009505593 -0.041942775 -0.021243831
000050 6c be e4 bd 6f 68 8e 3c 68 b6 e4 3d d2 67 c9 bc
       -0.111691326 0.017383782 0.11167604 -0.024585638
000060 47 ae bd 3c d2 80 82 3c 72 5a ac 3d 03 ea 81 bc
       0.023154391 0.015930567 0.084156886 -0.015858656
000070 ac 9c dc 3d ac 0c 25 38 c4 40 b8 bd 5e 8b ef 3c
       0.1077207 3.9350867e-05 -0.08996728 0.02924126
000080 57 16 d3 3b b3 ef c2 bc 0c c8 c3 bd 55 dd 3e 3d
       0.006441872 -0.023795938 -0.0955964 0.046597797
000090 91 98 ba 3d 7c 51 10 bd a9 36 db bd 6f 50 85 bd
       0.09111131 -0.03523396 -0.10703785 -0.06509482
0000a0 59 3e 26 3d 62 6d b7 3d 2e bc 68 3d 67 26 87 3d
       0.040586803 0.0895641 0.056820087 0.065991215
0000b0 80 15 83 bd 29 68 8c bd 9a 05 e2 3d cb 8e c9 bd
       -0.06400585 -0.068558045 0.11036225 -0.09841689
0000c0 02 6b db bd ec 61 0e 3c 72 8d c2 bd ef 82 ee bb
       -0.107137695 0.008690339 -0.09499635 -0.007278792
0000d0 77 a5 10 3d 3a a7 b8 bd 3f 96 50 bd c6 b9 ea 3d
       0.03531405 -0.09016271 -0.050924536 0.11461215
0000e0 c6 13 e7 bd c8 ed bf bd 9a ad bc bd bf c4 97 bc
       -0.11283068 -0.09371525 -0.09212799 -0.018526433
0000f0 73 38 e5 3c ab e1 e1 3c 7d d3 cc 3d 6d fb 08 3d
       0.027981019 0.027573427 0.10001276 0.033442903
000100 b9 d2 c9 bd 84 91 10 3d 74 ba e9 bd d6 05 9b bd
       -0.09854645 0.035295025 -0.11412516 -0.075694725
000110 55 8e 7d bc 4a f1 8d 3d b2 b2 cb 3c f0 18 da 3d
       -0.015475829 0.06930788 0.024865482 0.10649288

dense.weight f4 [1, 308]
000000 e8 5e 09 bd 5c 6c 23 3d 84 22 15 bd 67 3f 46 3d
       -0.033537775 0.03989826 -0.03640987 0.04840031
000010 1d f8 86 bc 32 6d 8f 3c 23 80 40 3c c7 41 dd bb
       -0.016475732 0.017508123 0.0117493 -0.006752226
000020 99 e8 06 3b b1 38 4f bb 6d ec 3f bd c0 bc bf bc
       0.0020585416 -0.0031619484 -0.046856333 -0.023405433
000030 fd 49 be bb f4 cb b6 3c 16 1e 25 bd ab 8a 0d bd
       -0.00580716 0.02231405 -0.040311895 -0.034556072
000040 83 f0 02 bd 35 0e 0b ba a7 54 a0 3c 21 5e 2b 3c
       -0.03196765 -0.0005304546 0.019571615 0.010459454
000050 38 30 23 bd f9 71 05 3d 52 3e 79 3c 03 9f 1e 3d
       -0.039840907 0.032579396 0.015212612 0.038725864
000060 6a b2 1f bd 62 37 92 ba f7 a2 87 bb 6c b1 d5 3c
       -0.03898851 -0.0011155421 -0.0041393 0.026085578
000070 14 09 c0 bc d5 ef 1e 3d b4 18 c6 3c 47 9e 94 3c
       -0.023441829 0.03880294 0.024181701 0.018141879
000080 a3 8d e0 bc 3f 08 36 bc 37 7c 86 bc aa cb 0e bd
       -0.027411288 -0.011110364 -0.016416652 -0.034862198
000090 79 70 09 bd 19 de 0b 3b f1 1d b2 3c 7d 99 1e 3c
       -0.033554528 0.0021342097 0.021742793 0.009680149
0000a0 0d 1d 4a bc 5a 2a 03 3b 21 fa 9a 3c 18 3c a0 bc
       -0.012336028 0.0020014257 0.018918099 -0.019559905
0000b0 1b e8 44 bd d7 a3 52 bd 67 0d 8c 38 12 82 4e 3b
       -0.048072916 -0.05142578 6.6782166e-05 0.0031510633
0000c0 9e 23 18 3b fe 04 fd 3c 02 bd 41 3d 40 ab 53 bd
       0.002321459 0.03088617 0.047299393 -0.05167699
0000d0 fc ac 90 bc 79 84 3c bb ac 8f 29 bd a5 1f b3 3b
       -0.01766061 -0.0028765483 -0.04139678 0.005466419
0000e0 cc ac 4f bd 2a ed 41 bd da 18 ed 3c c0 ff 60 3d
       -0.0507019 -0.047345318 0.028942514 0.054931402
0000f0 9b 36 4d 3d 95 f8 38 bd 14 6b d9 3b de 93 2f 3d
       0.050100904 -0.04515894 0.006635079 0.042865627
000100 44 0f fa 3b 73 84 23 3d 62 38 51 3d 0f c7 17 3d
       0.0076312143 0.039921235 0.05107916 0.03705507
000110 b2 29 1e bd 44 0f 33 bc f7 4c cd 3c eb 56 01 3c
       -0.038613982 -0.010928933 0.025061114 0.007894258
000120 b2 a2 aa bc ad 4f fd bb 63 d8 5b bc 0b a9 5e 3d
       -0.020829532 -0.0077304454 -0.01341829 0.05436043
000130 ab c4 0c bd 6b 1b 2d 3d 91 26 45 bd 5a 2a 23 3d
       -0.034367245 0.042262476 -0.048132483 0.03983531
000140 ef 6c e4 bc 93 5e 82 3a e4 d8 70 bc f9 d1 af 3b
       -0.027883975 0.0009946398 -0.014700148 0.005365607
000150 54 5d 2b bc c4 a2 8e 3c 54 09 34 bd 3d 04 6e bc
       -0.010459263 0.017411597 -0.04395421 -0.014527378
000160 d1 26 8c bc 82 9c 5b bd b3 3e 02 3c ef 4c 08 3d
       -0.017108353 -0.053616054 0.007949519 0.033276495
000170 76 11 1d bc 62 ea 0a bd 1c 7f 53 bd 19 9a ed 3c
       -0.009586683 -0.03391493 -0.051634893 0.029004144
000180 2d 84 61 bd c7 cf c2 3b 6f a8 05 bd 1d a7 58 3d
       -0.055057693 0.005945179 -0.032631334 0.052893747
000190 25 83 94 3c 5c 04 1e 3d fb 54 30 3d 9f f2 d6 bc
       0.01812894 0.038578376 0.043049794 -0.026238738
0001a0 ae 29 07 bd f2 92 09 bb aa 13 e2 bb 6d e5 4f bd
       -0.032998733 -0.0020992127 -0.006899317 -0.050755907
0001b0 93 16 aa 3c 92 ea 40 bd 5c 5a a1 3c eb e6 97 bc
       0.020762717 -0.047098704 0.019696407 -0.018542727
0001c0 b6 df fb 3b 16 12 0b bd 7c 07 5a 3c 99 d0 8e 3b
       0.0076865805 -0.033952795 0.0133074485 0.004358363
0001d0 12 9a 96 bc 6d f8 11 3d a3 29 ff 3c 5c 35 22 b9
       -0.018384013 0.035637308 0.031147784 -0.00015469402
0001e0 8d 93 26 bd ac 89 47 bd 3d 9d 67 3b 3e 7d 1f 3d
       -0.04066806 -0.04871528 0.0035341524 0.0389378
0001f0 17 a3 cd bc 38 f9 d4 bc 74 4b 5b bd 46 58 52 bd
       -0.025102181 -0.025997743 -0.053538755 -0.051353715
000200 7d 9f 51 bc 29 c9 ab 3b dc ae 01 3b 53 e8 63 bc
       -0.012794373 0.005242486 0.0019788062 -0.013910371
000210 19 43 d5 bc 36 d3 53 bd e8 ae 38 3d cd 49 37 bd
       -0.026032971 -0.0517151 0.04508868 -0.044748116
000220 6e 92 05 3d 50 f1 d7 3c a3 23 1a 3c dd ef 2a bd
       0.03261035 0.026360184 0.0094079105 -0.041732658
000230 66 31 0a bd 35 ee d1 3c 38 11 52 bd d6 35 ab 3c
       -0.033738516 0.025626281 -0.051285952 0.020899694
000240 f0 7d 25 ba 60 7c 20 bd 14 62 1f bc 34 85 f4 3c
       -0.00063130166 -0.039181113 -0.0097279735 0.029848672
000250 05 5c 55 bd 1a 9a 7c 3c 72 6d 81 3a d9 b6 46 bd
       -0.05208971 0.0154176 0.0009874536 -0.04851422
000260 b7 46 e1 bc ab 10 c1 3c 72 35 89 3c 97 ca 8e 3b
       -0.02749954 0.023567518 0.016749118 0.0043576467
000270 49 40 63 3b 7c c2 62 3d cf 7b e0 3c 0d 41 38 3d
       0.0034675768 0.055361256 0.027402787 0.044983912
000280 96 42 28 3d 35 38 53 3d a0 3a 61 bd a3 0c 37 bc
       0.041079126 0.051567275 -0.05498755 -0.011172446
000290 ee 6b 1d 3d 8a 6b 0d 3d cd d2 1c bc 6f bc 57 3d
       0.038433008 0.034526385 -0.009571743 0.05266994
0002a0 ed 6a 27 3d e6 29 9f bc fe 2a 50 bd 37 8c af 3c
       0.040873457 -0.019429158 -0.05082225 0.021429164
0002b0 26 3c 04 3d ea 37 28 ba d4 41 5e 3d 2b 8b 67 bc
       0.032283925 -0.0006417023 0.054261997 -0.014132301
0002c0 48 20 9c bc 97 36 46 3d 37 e2 f7 3c c5 25 30 3d
       -0.019058362 0.048391905 0.030259235 0.04300477
0002d0 00 01 57 bd db 3c 27 3d af c8 5b bc 63 aa 38 bd
       -0.052491188 0.04082952 -0.013414546 -0.04508437
0002e0 3d b1 2c 3d 40 a3 fb 3c 00 70 19 3d 1e ea ab 3b
       0.042161215 0.030717492 0.037460327 0.005246415
0002f0 5a 00 c8 3b a4 c7 0e 3d a4 a6 d5 bc 20 1d b1 bc
       0.0061035575 0.03485836 -0.026080437 -0.021620333
000300 b3 b4 81 3b 23 d5 b7 bb e3 db 8b 3c 6c dd aa 3a
       0.0039583086 -0.0056101247 0.017072624 0.001303596
000310 c3 a2 1f 3d c9 a3 37 bc de e5 53 3d 08 cd 62 3d
       0.03897358 -0.011208483 0.05173289 0.055371314
000320 e7 35 cc bb 07 94 c5 3c c3 cd 64 3c 2c 64 0d 3d
       -0.0062320116 0.024118437 0.013965073 0.03451936
000330 2b d1 f8 bc 1f 01 18 3d eb d7 34 3d de 09 92 bc
       -0.030373177 0.037110444 0.044151228 -0.01782697
000340 ef bb f9 3c af 8e 82 bc f0 95 1e bd 11 11 1d 3d
       0.030485122 -0.015937177 -0.03871721 0.038346354
000350 ed 8e b7 bc 7d de 0e 3d e3 5b 18 bd 78 ab d4 3c
       -0.02240702 0.03488015 -0.037197005 0.025960669
000360 be 6c d4 bc 02 79 57 3d 3f e7 23 bd 02 66 d4 bc
       -0.025930759 0.052605636 -0.040015455 -0.025927547
000370 2a 28 43 3d c9 84 9b 3c 19 17 f0 3c 32 fe b6 3c
       0.047645725 0.018984215 0.029307889 0.022338007
000380 e9 bb 00 bd 92 4a 63 3c 9b 28 3b 3d fa 21 8b 3c
       -0.031429205 0.013872759 0.04569302 0.016983975
000390 a1 27 1f 3b 43 9a 13 bd 4e 2e 5b 3d 62 18 df 3c
       0.0024285095 -0.036035787 0.053510956 0.027233306
0003a0 ad d3 0e bc 77 05 bc bc 04 f5 5d 3d 95 a3 c0 bc
       -0.00871746 -0.022951825 0.054188743 -0.023515502
0003b0 f7 4d b0 bc 2f a0 0a 3d 25 23 67 bd ca 57 37 bc
       -0.021521552 0.03384417 -0.05643 -0.011190364
0003c0 ba 73 1e 3d 52 c4 05 bd 7a 46 d3 3c dd d8 e9 bc
       0.038684584 -0.03265793 0.025790442 -0.028545791
0003d0 a9 65 ef 3c b1 cb 41 bd 4f 3b 8b 3c 66 63 1f 3d
       0.02922328 -0.047313396 0.016996054 0.038913153
0003e0 5a b1 01 bc 4f f2 82 3c f0 9e ae 3c da ed be 3c
       -0.007915819 0.015984682 0.021316022 0.023306776
0003f0 22 99 06 3d 67 c4 34 bd bb 05 49 bd e7 b4 57 bc
       0.032860883 -0.044132616 -0.04907773 -0.013165689
