siamese-classifier/siam_v3_97.pth (torch, 104363 bytes, 12 tensors)

siam_layer.conv1.weight f4 [14, 31, 6, 6]
0	0xbaa958f0	-0.0012920182
1	0xbc6f4d75	-0.01460587
2	0x3ba3eb2f	0.0050024013
3	0xbb1ab331	-0.0023605342
4	0x3cdb1a9e	0.02674609
5	0x3a943512	0.001130732
6	0x3bad5d80	0.005290687
7	0xbc55c00d	-0.013046277
8	0xbc9d84af	-0.019228308
9	0xbcf1cf17	-0.029517693
10	0xbccb5af1	-0.024823638
11	0x3cd543a9	0.02603324
12	0xbcdab545	-0.026697764
13	0xbbb6edf4	-0.0055825654
14	0x3b350e6c	0.0027627004
15	0x3bf83ff1	0.007575982
16	0xba8604ca	-0.0010224816
17	0xbc953038	-0.018211469
18	0xbcc400b4	-0.023926117
19	0x3ba20427	0.0049443427
20	0x3b9401c0	0.00451681
21	0x3aa687aa	0.0012705226
22	0x3c954656	0.018222015
23	0x3cce3fa5	0.025176832
24	0xbc721feb	-0.014778118
25	0xbc8536e6	-0.01626153
26	0xbcc7176e	-0.024303164
27	0xbb1430aa	-0.0022612014
28	0x3ccb6bdf	0.02483171
29	0x3cd26f39	0.0256878
30	0x3ce3be48	0.027800694
31	0x3ca140f1	0.019684287
32	0xbc9c0ddb	-0.019049576
33	0x3c93d4de	0.018045839
34	0x3c51a5eb	0.012795906
35	0xbc219661	-0.009862513
36	0xbb1acad3	-0.0023619428
37	0x3ca700ef	0.020386187
38	0xbc8adb72	-0.016950343
39	0x3b2273d0	0.0024788268
40	0x3c6795ce	0.014134837
41	0xbb5eb2d7	-0.0033981109
42	0x3cc30f1c	0.023810916
43	0x3b1d18cd	0.0023971081
44	0xbbafaa55	-0.0053608813
45	0xbafc6b96	-0.0019258137
46	0x3c9c3742	0.019069318
47	0xbcc5f2a3	-0.02416355
48	0x3b62ab4a	0.003458696
49	0x3cce6083	0.025192505
50	0xbc7698d0	-0.015051082
51	0x3c2927bf	0.010324418
52	0x3ca58fa2	0.020210091
53	0xbc496deb	-0.012294273
54	0xbcb135b8	-0.02163206
55	0xbcd41d66	-0.025892925
56	0xbb1a0231	-0.0023499841
57	0x3cabddca	0.02097978
58	0xbc208655	-0.009797652
59	0x3c96df29	0.018416958
60	0x3c533512	0.012891071
61	0x3c330e3d	0.010928688
62	0xbbd21e8a	-0.006412332
63	0x3c897953	0.016781485
64	0xbcecd557	-0.028910322
65	0xbcd0f770	-0.025508612
66	0x3ce881ed	0.028382266
67	0xbcb37d82	-0.021910433
68	0xbceb713d	-0.02874052
69	0x3caea722	0.02131993
70	0xbc7d9f62	-0.015479894
71	0xbcd99197	-0.02655868
72	0xbcbaba9d	-0.022794062
73	0x3c488615	0.012238999
74	0xbcb5591c	-0.022137217
75	0x3ce2ca8e	0.027684476
76	0xbb844fcb	-0.0040378324
77	0xbcc95925	-0.02457864
78	0xbce030f6	-0.027367096
79	0x3c9fd665	0.019511411
80	0x3c9a9f3d	0.018874759
81	0xbc26342c	-0.010144275
82	0xbab2fe48	-0.0013656104
83	0xbc07d8c8	-0.008291431
84	0x3c013fca	0.007888744
85	0x3c7fa596	0.015603444
86	0x3caffe39	0.021483527
87	0x3c7a3268	0.015270807
88	0x3bd72469	0.0065656197
89	0xbc9bdc7b	-0.019026032
90	0xbce9d0c8	-0.028541937
91	0x3cc68345	0.024232516
92	0x3c6f46de	0.014604298
93	0x3c461aef	0.012091382
94	0xbce46292	-0.027879033
95	0xbb33180c	-0.0027327565
96	0xbbaebfba	-0.005332914
97	0xbc9c3e07	-0.019072546
98	0xbcc8bfca	-0.024505515
99	0xbcce98d5	-0.02521936
100	0x3c9ef3e4	0.019403405
101	0xbcc13176	-0.023583155
102	0xbc4cf15d	-0.012508717
103	0x3bd2b2f2	0.0064300233
104	0xbcdc1050	-0.026863247
105	0xbca6de0a	-0.020369548
106	0xbc01f95a	-0.007932985
107	0xbc8ddd59	-0.01731746
108	0xbc79c41a	-0.015244508
109	0x3a5803ce	0.0008240313
110	0x3cea9f04	0.028640278
111	0x3b833284	0.0040038247
112	0xbcdd91be	-0.027047034
113	0xbc8ca86e	-0.017170157
114	0x3cb7aace	0.022420313
115	0x3c84908b	0.016182205
116	0xbc975c1a	-0.018476535
117	0x3aaeb4ab	0.001332899
118	0xbcf4df3f	-0.029891608
119	0xbcd6b772	-0.02621052
120	0xbc8fd998	-0.017559811
121	0xbc47de17	-0.012198946
122	0xbcf2fdcb	-0.029662034
123	0x3b08bffb	0.0020866382
124	0xbcdaf246	-0.026726853
125	0x3b074046	0.0020637675
126	0xbbfed8b4	-0.007777298
127	0xbcda55e3	-0.026652282
128	0xbc881d42	-0.016615514
129	0x3c1ce7e7	0.009576774
130	0x3bf287fb	0.007401464
131	0x3c013f24	0.007888589
132	0xbcf3d4e7	-0.029764606
133	0x3c099b51	0.008398847
134	0xbcd59c55	-0.026075521
135	0xbca8eb62	-0.020620052
136	0xbc225ed2	-0.009910302
137	0xbaa67eb5	-0.0012702557
138	0x3c64438c	0.01393212
139	0x3cc38509	0.023867147
140	0x3c943db4	0.018095829
141	0x3c48a840	0.012247145
142	0xbc5d28c7	-0.013498492
143	0xbc646a20	-0.013941318
144	0xbc033fbb	-0.0080108
145	0xbb86085c	-0.004090352
146	0xbc7d46a0	-0.015458733
147	0xbcce4092	-0.025177274
148	0xbc828a25	-0.015935013
149	0x3c33dec1	0.010978402
150	0x3c7cd36c	0.015431266
151	0x3c91d03d	0.017799491
152	0xbce6c194	-0.028168477
153	0xbcd3fdb5	-0.025877813
154	0x3c8ea4cf	0.017412571
155	0x3c808549	0.015688555
156	0xbc5332f9	-0.012890571
157	0x3c8eaee7	0.017417384
158	0xbc936508	-0.017992511
159	0x3b229c1c	0.0024812287
160	0x3c6aed35	0.014338781
161	0x3c2172d3	0.009854036
162	0x3cc7bbe2	0.024381582
163	0x3cb123b7	0.021623475
164	0xbcdc1f34	-0.026870348
165	0x3cacaa1d	0.02107721
166	0xbcce6591	-0.025194915
167	0x3c1aef9a	0.0094565395
168	0xbcb51625	-0.022105286
169	0xbc76d352	-0.015065031
170	0x3ce85e05	0.028365145
171	0x3c7ce1f2	0.015434729
172	0xbba8f8e8	-0.005156625
173	0x3cd50c0f	0.026006727
174	0xb919df2b	-0.00014674354
175	0x3b114150	0.0022164173
176	0x3c2735d1	0.010205702
177	0xbb602bab	-0.0034205716
178	0x3c058c1a	0.008151079
179	0xbccc0936	-0.024906736
180	0xba626f6a	-0.0008637818
181	0x3cb35778	0.021892294
182	0xbc096b02	-0.008387329
183	0xbc356bbf	-0.011073052
184	0x3c063d7b	0.008193369
185	0x3bb82aee	0.005620352
186	0xbc8db2ea	-0.017297227
187	0x3c421675	0.0118461745
188	0xbcbe70c4	-0.02324713
189	0x3c9bba2a	0.019009668
190	0xbcbf7c93	-0.023374831
191	0xbcb3d732	-0.021953199
192	0xbc92c729	-0.017917233
193	0x3c8b685b	0.017017534
194	0x3c844f76	0.016151171
195	0xbc948da2	-0.018133942
196	0x3b86eb29	0.0041173887
197	0xbccac34d	-0.02475133
198	0xb9e3124e	-0.00043310452
199	0xbc9a555a	-0.018839527
200	0xbc0a430e	-0.008438839
201	0x3c927071	0.017875882
202	0xbce8623e	-0.028367158
203	0x3ccbdde4	0.02488608
204	0x3ae4b0ac	0.0017447672
205	0xbbaa2f04	-0.005193593
206	0x3c97386c	0.018459521
207	0x3ce63126	0.028099608
208	0xbce3d353	-0.027810728
209	0x3bdb738c	0.006697124
210	0x3cdebc23	0.02718932
211	0x3c765557	0.015034995
212	0x3adcea36	0.0016854468
213	0x3c709594	0.0146841
214	0xbcc6a91d	-0.024250561
215	0x3c24df47	0.010062999
216	0x3cc25ab9	0.0237249
217	0xbc622fcb	-0.01380534
218	0x3c964931	0.018345447
219	0xbb0e13aa	-0.00216792
220	0x3cb66c16	0.022268336
221	0xbc3fb11e	-0.011699943
222	0x3ccc9633	0.024973964
223	0xbc08a62d	-0.008340401
224	0xbc9f143e	-0.019418832
225	0x3bc9e57b	0.0061613894
226	0x3c2ce6dd	0.010553089
227	0x3c01902a	0.007907907
228	0xbcf22969	-0.029560762
229	0x3ceee05c	0.029159717
230	0xbc7f73bf	-0.015591561
231	0xbbe0f207	-0.0068647894
232	0xbc513826	-0.0127697345
233	0x3b290dc8	0.0025795568
234	0xbc831b40	-0.016004205
235	0x3b9a9dcf	0.0047185193
236	0xbcee908e	-0.029121663
237	0xbbdec8cf	-0.0067988406
238	0xbce0d920	-0.027447283
239	0x3bbcd30a	0.0057624625
240	0xbadb7778	-0.0016743978
241	0x3c674ecd	0.014117909
242	0xbcbb6d4f	-0.02287927
243	0x3c573198	0.013134383
244	0x3cda202f	0.026626674
245	0x3b9245e3	0.0044638976
246	0xbc72abc2	-0.014811458
247	0xbbea734c	-0.0071548577
248	0x399c4f10	0.00029813545
249	0xbc2c04ad	-0.010499162
250	0xbc25c24b	-0.010117124
251	0xbce61f9b	-0.028091243
252	0x3ca7cccd	0.020483399
253	0x3c22f3d6	0.00994583
254	0x3c0ce183	0.008598688
255	0xbb3a5e4c	-0.0028437553

siam_layer.conv1.bias f4 [14]
0	0x3c58fa4c	0.013243269
1	0x3cf4e9fa	0.029896725
2	0x3c004b84	0.007830504
3	0xbcd3480c	-0.02579119
4	0x3cbfe5e2	0.023425046
5	0x3cf1107a	0.029426802
6	0xbcb0d774	-0.021587111
7	0x3bb2b158	0.00545327
8	0xbc6bbac4	-0.01438779
9	0x3c06a988	0.00821913
10	0x3c7e114c	0.015507054
11	0x3cd99648	0.026560917
12	0x3c938744	0.018008836
13	0x3c160b14	0.009157915

siam_layer.conv2.weight f4 [7, 14, 6, 6]
0	0xbc5ad111	-0.013355509
1	0xbd2eca9e	-0.0426737
2	0x3c02104e	0.007938458
3	0xbc6d2500	-0.0144741535
4	0xbbc89612	-0.0061214054
5	0x3c15ef6e	0.009151323
6	0xbd0c6adc	-0.034281597
7	0x3cbdc83a	0.023166765
8	0x3bd5f930	0.0065299496
9	0xbd207eb8	-0.03918335
10	0xbc8c11e2	-0.017098371
11	0x3cd094f0	0.025461644
12	0x3c65d1db	0.014027084
13	0xbd339cc5	-0.04385068
14	0x3bbce8db	0.005765063
15	0x3d340f96	0.043960176
16	0x3c3c2d8c	0.011485469
17	0x3ca383ec	0.019960366
18	0xbc8fc535	-0.01755009
19	0xbc4b4176	-0.012405744
20	0x3cb9a37c	0.022660963
21	0x3d22d569	0.039754305
22	0x3d0981d1	0.03357107
23	0x3c151ef8	0.009101622
24	0xbc1897ed	-0.009313566
25	0xbc952126	-0.018204283
26	0xbd355338	-0.044268817
27	0x3c1f0edf	0.009708135
28	0x3d032462	0.03201712
29	0x3aa09e97	0.0012254295
30	0x3d22c8cb	0.039742272
31	0xbcbc9322	-0.023019377
32	0x3cbe930c	0.023263477
33	0x3ced731b	0.02898555
34	0x3c52bd39	0.012862497
35	0xbc18d22b	-0.009327452
36	0xbd2641c4	-0.040590063
37	0x3d058b3c	0.032603487
38	0xbca0faa6	-0.019650768
39	0xbd293512	-0.041310377
40	0x3d208098	0.039185137
41	0x3c2a6986	0.010401135
42	0xbca1d376	-0.019754153
43	0x3d082737	0.033240523
44	0x3cb31cea	0.021864373
45	0x3d096c54	0.033550575
46	0x3cef9fff	0.029251097
47	0xbcc678fc	-0.024227612
48	0x3cf7c095	0.030243197
49	0xbcd215ff	-0.025645254
50	0xbd0bc6a9	-0.034125004
51	0x3c850c5e	0.016241249
52	0xbd0c673c	-0.03427814
53	0xbcdbcbc6	-0.026830565
54	0x3c0a54a6	0.008443033
55	0x3c33df9d	0.0109786065
56	0xbd07dcac	-0.033169433
57	0xbcc9cbc3	-0.024633294
58	0xbca60d0a	-0.02026989
59	0xbbbcb2d8	-0.0057586245
60	0x3d148f93	0.036269736
61	0xbcd3fdd8	-0.025877878
62	0xbcc66b4f	-0.02422109
63	0xbc816818	-0.015796706
64	0x3c94ded6	0.018172663
65	0xbcb4647e	-0.022020575
66	0xbd3659b1	-0.04451913
67	0x3c0109d3	0.007875877
68	0xbd0147d0	-0.031562626
69	0xbcd87e3c	-0.02642738
70	0x3d220966	0.039559744
71	0x3d1c5300	0.038165092
72	0xbd0ae777	-0.03391215
73	0xbc0414dd	-0.008061615
74	0xbc2c00f9	-0.010498279
75	0x3c5f89c1	0.013643683
76	0x3cd5f64a	0.026118416
77	0xbb9c6045	-0.0047722184
78	0x3c770dc8	0.015078969
79	0x3ac2141c	0.0014807018
80	0xbc412524	-0.01178864
81	0x3a88cb00	0.0010436475
82	0xbd262083	-0.04055835
83	0x3c3fd1c8	0.011707731
84	0x3c938ff3	0.018012976
85	0xbc3f2a6c	-0.011667829
86	0x3c116153	0.008873302
87	0xbd344924	-0.044015065
88	0xbbfc7cb4	-0.0077052955
89	0xbc77b715	-0.015119334
90	0xbd2a0dd9	-0.041517112
91	0xbc84112b	-0.016121468
92	0xbc605952	-0.013693171
93	0x3c8e1ba8	0.017347172
94	0x3c2c4522	0.010514529
95	0xbd0c0b3d	-0.034190405
96	0xbb881efe	-0.004154085
97	0x3d1c29fa	0.03812597
98	0x3c9b93cf	0.018991379
99	0xbc643243	-0.013927999
100	0x3d260942	0.040536173
101	0x3c80f475	0.015741566
102	0x3d143811	0.03618628
103	0x3d0b2d16	0.033978544
104	0xbaf79757	-0.0018889707
105	0x3cc8aad9	0.024495529
106	0x3c9f0d1a	0.019415427
107	0xbd2ae6c0	-0.041723967
108	0x3d1d209d	0.03836118
109	0xbc378919	-0.01120212
110	0xbc1a7679	-0.00942766
111	0xbcb6c726	-0.022311758
112	0x3c8188c7	0.01581229
113	0xbd31bb25	-0.043391366
114	0xbd17af85	-0.037032623
115	0x3d09537a	0.033526875
116	0x3d28c1cb	0.04120044
117	0x3cc87d63	0.024473852
118	0xbc551d3f	-0.013007461
119	0x3c99318d	0.018700385
120	0xbcc63bbe	-0.02419841
121	0xbd14cf7e	-0.036330692
122	0x3d093cf6	0.033505403
123	0xbc03f989	-0.008055099
124	0xbbc6f5f4	-0.0060718004
125	0x3bf1374c	0.007361328
126	0x3cc3bb86	0.02389313
127	0x3c76dee1	0.015067787
128	0xbc298968	-0.010347702
129	0x3c3214e4	0.0108692385
130	0xbc768f1f	-0.015048771
131	0xbb79cd05	-0.0038116586
132	0x3cce5842	0.025188569
133	0xbd045238	-0.032304972
134	0xbcc68c5d	-0.024236852
135	0xbbeb29a0	-0.007176593
136	0xbca34175	-0.019928673
137	0xbbc9a11b	-0.0061532385
138	0x3d04ca18	0.032419294
139	0xbcfcc668	-0.030856326
140	0xbcd10c3b	-0.025518527
141	0x3c76b37a	0.015057439
142	0xbd26ab5b	-0.04069076
143	0xbc859350	-0.016305596
144	0xbccf118f	-0.025276927
145	0xbaef6c10	-0.0018266458
146	0xbcc7c8f0	-0.024387807
147	0xb945d57f	-0.00018866918
148	0x3c7c2779	0.01539027
149	0xbb641146	-0.0034800335
150	0xbcc7622a	-0.0243388
151	0xbc971c12	-0.018446002
152	0xbd1b1ad7	-0.037867393
153	0x3c9d2929	0.019184666
154	0x3c838dda	0.016058851
155	0xbc850996	-0.016239922
156	0xbb8a962b	-0.004229327
157	0xbba332b2	-0.0049804086
158	0x3d0b3f34	0.033995822
159	0xbb2655e4	-0.0025380785
160	0xbc9e0f18	-0.019294307
161	0x3bf1bf20	0.00737752
162	0x3d22ad2c	0.03971593
163	0x3ccf37a1	0.02529508
164	0x3cf48e1d	0.029852921
165	0xbc950e17	-0.018195195
166	0xbcaf911b	-0.021431496
167	0x3cc264f2	0.023729775
168	0xbc72f338	-0.014828496
169	0xbc5efb39	-0.013609701
170	0x3c6ed279	0.014576548
171	0x3d2acd0f	0.041699465
172	0xbcb1726d	-0.021661008
173	0xbd24d0da	-0.04023824
174	0x3bb1f860	0.00543122
175	0xbcad8662	-0.021182243
176	0xbccaf507	-0.024775041
177	0x3cb8d128	0.022560671
178	0x3b6568fa	0.0035005198
179	0xbcfe1918	-0.031017825
180	0x3d34af5e	0.044112556
181	0x3cb35b9f	0.021894274
182	0x3cebd3e4	0.02878756
183	0xbc6ac875	-0.014330019
184	0xbd309906	-0.043114685
185	0x3cfd8562	0.030947391
186	0xbd024ee3	-0.031813513
187	0xbd1f9906	-0.038964294
188	0x3d16c4b9	0.036808703
189	0xbba76839	-0.00510886
190	0x3c543c9a	0.012953902
191	0xbcfcab7b	-0.030843487
192	0x3cc44a16	0.023961108
193	0x3c0c8a00	0.008577824
194	0x3c962c92	0.0183318
195	0x3d01ad8a	0.03165964
196	0xbbccc6ee	-0.0062493
197	0xbd19b604	-0.0375271
198	0xbc190b46	-0.009341067
199	0xbcf14483	-0.029451614
200	0xbc890cc7	-0.016729726
201	0xbd0c2622	-0.034216054
202	0x3bd4a15e	0.006488963
203	0xbd0a56ae	-0.03377407
204	0x3bf3c024	0.0074386764
205	0x3cca1b15	0.024671117
206	0x3cdb8bed	0.02680012
207	0xbcdf62d1	-0.027268799
208	0x3c10879c	0.008821394
209	0x3c120855	0.008913119
210	0x3d03dba8	0.032191902
211	0x3ceb8e1c	0.028754286
212	0x3c0caaed	0.008585674
213	0xbccc5253	-0.024941599
214	0x3ce9c343	0.02853549
215	0x3c90e498	0.017687127
216	0x3cfd8739	0.030948268
217	0x3d2f1851	0.0427478
218	0xbd323b2b	-0.04351346
219	0xbb21b097	-0.0024671906
220	0x3cd2a4e5	0.025713393
221	0x3cb6ed56	0.022329967
222	0x3c537273	0.012905705
223	0xbbb561e3	-0.0055353506
224	0x3d36c473	0.044620942
225	0x3ce7d22c	0.02829846
226	0x3cec4a06	0.02884389
227	0x3c923f52	0.01785246
228	0xbcd2532a	-0.025674421
229	0xbc22fc56	-0.009947857
230	0x3c15ce6b	0.009143452
231	0x3b2670f5	0.0025396917
232	0xbc552db6	-0.013011387
233	0x3d2b5ac6	0.041834615
234	0xbc6a9417	-0.014317534
235	0x3d13f094	0.036118105
236	0xba152192	-0.00056889013
237	0xbc912064	-0.01771564
238	0xbca0a656	-0.019610565
239	0x3ce0534b	0.027383467
240	0x3ca96517	0.020678086
241	0x3bbbdf85	0.0057334327
242	0x3cdfcba5	0.027318785
243	0x3d0052ca	0.031328954
244	0xbd14feb5	-0.03637572
245	0x3d0a8f28	0.03382793
246	0x3bd4978a	0.0064877914
247	0xbc3ecba3	-0.01164523
248	0xbce1810d	-0.027527357
249	0x3ca9941c	0.020700507
250	0x3d2b053b	0.041753035
251	0x3cd6b984	0.026211508
252	0xbd1af5fb	-0.03783224
253	0x3c747f34	0.014922906
254	0x3d1e47f8	0.038642853
255	0xbd1b9aa5	-0.037989277

siam_layer.conv2.bias f4 [7]
0	0x3cf74ad0	0.03018704
1	0x3ca3bee0	0.019988477
2	0xbc930c79	-0.017950283
3	0xbc678aa6	-0.014132177
4	0xbd2290e7	-0.03968897
5	0x3d0a6784	0.033790126
6	0xbcb2e253	-0.021836435

siam_layer.conv3.weight f4 [7, 14, 6, 6]
0	0x3c21b01b	0.009868647
1	0x3ccade9e	0.024764355
2	0xbce88514	-0.02838377
3	0xbcf4a64c	-0.029864453
4	0x3bcd3fc7	0.0062637064
5	0x3c981dbc	0.018568866
6	0x3cb3b44a	0.021936554
7	0x3d2bb6dc	0.041922435
8	0xbceeeed9	-0.029166626
9	0x3ca60af4	0.020268895
10	0x3c4d1bdc	0.012518849
11	0xbd2d2a9d	-0.042276967
12	0x3d291194	0.04127653
13	0xbce6057c	-0.028078787
14	0xbb4d4cec	-0.0031326367
15	0xbca6d7ae	-0.020366516
16	0xbd25e5be	-0.040502302
17	0xbd2fc314	-0.04291065
18	0xbb7da076	-0.0038700378
19	0xbc5309ec	-0.0128807835
20	0xbc5e70b4	-0.013576675
21	0x3c825af2	0.015912507
22	0xbce6e9c9	-0.02818765
23	0x3d0fd853	0.035118412
24	0xbcf1a8c7	-0.029499425
25	0x3b7883c4	0.0037920335
26	0xbd1598be	-0.03652262
27	0xbc9926d5	-0.018695274
28	0x3c5115db	0.012761558
29	0x3cf2ddba	0.029646743
30	0xbc211f96	-0.009834191
31	0x3b86965b	0.0041072792
32	0x3c3e1a53	0.011602956
33	0xbcd852a1	-0.026406588
34	0xbd2c7cad	-0.042111088
35	0xbce0eb4c	-0.027455948
36	0xbc685db9	-0.0141825015
37	0x3d048d68	0.032361418
38	0x3bd70e17	0.006562959
39	0x3b63c366	0.0034753918
40	0x3cbaaa04	0.022786148
41	0xb93f216f	-0.00018227634
42	0x3c9a5d5d	0.018843347
43	0x3d1958be	0.037438147
44	0x3cf790be	0.030220386
45	0x3c839a8c	0.016064905
46	0xbcb2d2c2	-0.021829013
47	0x3a6fcee0	0.0009147953
48	0xbb9d888f	-0.004807539
49	0x3c35129d	0.011051801
50	0xbc2b78d6	-0.010465821
51	0xbd0387d5	-0.03211196
52	0x3cef4cbd	0.029211396
53	0x3bb9a180	0.0056650043
54	0xbcbf9b14	-0.023389377
55	0xbcde7019	-0.027153062
56	0x3cc9396b	0.024563512
57	0x3cc3110e	0.023811843
58	0xbc2d4618	-0.010575794
59	0xbcc4acd2	-0.024008188
60	0x3bb86d7c	0.005628286
61	0x3cf1b8f4	0.029507138
62	0x3d17a7e6	0.037025355
63	0xbd1e947c	-0.038715824
64	0x3d075020	0.033035398
65	0xbb03fb54	-0.0020138817
66	0x3cc3fd09	0.023924368
67	0xbd19efe2	-0.037582286
68	0xba9d0a02	-0.0011981132
69	0xbce161cb	-0.027512452
70	0x3d1749b9	0.03693554
71	0xbb6265ed	-0.0034545616
72	0xbc9166cc	-0.017749213
73	0x3c2e96e5	0.010656093
74	0x3d295a20	0.041345716
75	0xbd2c6aaa	-0.04209391
76	0xbcccb150	-0.024986893
77	0xbd2b5559	-0.04182944
78	0x3cdaaf9e	0.026695069
79	0xbcf5b623	-0.029994076
80	0xbc9f8c3b	-0.019476047
81	0xbd113108	-0.03544715
82	0x3ca042a7	0.019563032
83	0xbc65119f	-0.013981252
84	0xbd2d8fd1	-0.042373482
85	0x3cba3fba	0.022735465
86	0xbd176484	-0.036961094
87	0xba48568d	-0.00076422916
88	0x3d1e804f	0.038696583
89	0xbd13f496	-0.036121927
90	0x3c5a9461	0.01334104
91	0xbbc2c7d9	-0.005944234
92	0x3ca97c65	0.020689199
93	0xbd212ad1	-0.039347474
94	0x3c323e7a	0.010879153
95	0xbc58be64	-0.013228986
96	0xbbd52b33	-0.006505394
97	0xbd1025c6	-0.035192274
98	0x3cc44cfb	0.023962488
99	0xbcabddda	-0.02097981
100	0x3cce39e0	0.025174081
101	0xbb8a2dba	-0.004216877
102	0xbc3ce779	-0.011529797
103	0xbd2600e1	-0.040528182
104	0xbd28b84a	-0.041191377
105	0xbd09146a	-0.033466734
106	0x3a858d9f	0.0010189301
107	0xbd286622	-0.041113026
108	0x3d280908	0.041024238
109	0xbd19617f	-0.037446495
110	0xbc57bf54	-0.013168175
111	0x3c3d5fc9	0.0115584815
112	0xbd1d36c1	-0.038382296
113	0x3c0780b2	0.008270429
114	0xbcdfdb26	-0.027326178
115	0xbc3ef7dc	-0.011655774
116	0x3c79c93e	0.015245734
117	0x3d24fcc1	0.040280107
118	0x3ce6bd8b	0.028166553
119	0x3cc70f83	0.024299389
120	0xbd1b2674	-0.03787847
121	0x3c63a528	0.013894357
122	0x3cb5406b	0.022125443
123	0xbd3108fe	-0.043221466
124	0xbbd2049b	-0.0064092404
125	0xbd3085ad	-0.043096233
126	0x3d111b5c	0.035426483
127	0xbbdafa96	-0.006682704
128	0xbb48c84f	-0.0030636971
129	0xbba54278	-0.005043324
130	0xbcfa79e8	-0.030575708
131	0x3d1bf2c9	0.038073335
132	0x3cb71758	0.022349998
133	0xbd22f811	-0.039787356
134	0xbcc788dc	-0.024357252
135	0x3d153570	0.036427915
136	0x3cd14c6a	0.025549132
137	0xbc2a4295	-0.010391851
138	0xbc77a22c	-0.015114348
139	0xbd01dba0	-0.03170359
140	0xbc847e28	-0.016173437
141	0xbbdabe84	-0.0066755433
142	0x3cb7851d	0.02240234
143	0xb92e4233	-0.00016618594
144	0x3c3b498d	0.01143111
145	0xbcc8501f	-0.024452267
146	0x3a6cb95b	0.00090303057
147	0x3d15f16b	0.036607187
148	0xbc04ea34	-0.008112479
149	0x3cfaf8dc	0.030636244
150	0x3d1e01d7	0.038575973
151	0xbce4d389	-0.0279329
152	0x3c9b51e7	0.018959953
153	0xbd110171	-0.035401765
154	0x3d20040d	0.039066363
155	0xbd0acbf6	-0.03388592
156	0xbc778650	-0.015107706
157	0xbb78cac0	-0.0037962645
158	0xbd26fd72	-0.040769048
159	0x3d1ba69b	0.038000684
160	0xbcef8443	-0.029237872
161	0x3d08379a	0.03325615
162	0x3cb96793	0.022632396
163	0x3c128554	0.008942921
164	0xbbb9b156	-0.005666892
165	0xbd267069	-0.040634546
166	0xbca6289a	-0.020283032
167	0xbd000eb6	-0.03126403
168	0xbd21929a	-0.03944645
169	0xbc062363	-0.008187148
170	0x3bdf5f32	0.006816768
171	0x3c6689fe	0.014070986
172	0xbce34626	-0.02774341
173	0x3c1214bd	0.008916077
174	0xbc0650ee	-0.008198006
175	0xbc83567f	-0.016032455
176	0xbd2e40ad	-0.04254215
177	0xbb83f8bb	-0.0040274537
178	0xbd1c2964	-0.03812541
179	0xbcf1ed98	-0.029532239
180	0x3d345f21	0.044036034
181	0x3b8bae12	0.004262694
182	0xbc725500	-0.014790773
183	0x3cbb2393	0.022844112
184	0xbcf23159	-0.029564546
185	0x3c3fb5c7	0.011701054
186	0xbc704250	-0.014664248
187	0x3cecbf10	0.0288997
188	0xbcef14c8	-0.029184714
189	0x3c4a6f50	0.0123556405
190	0x3ce0ad8d	0.027426505
191	0x3cd799e9	0.026318507
192	0x3caa4eb5	0.020789484
193	0xbba97b4c	-0.005172169
194	0xbb015107	-0.0019732134
195	0xbd30c1a1	-0.04315341
196	0x3d0ab3da	0.033862926
197	0xbc0f9148	-0.008762665
198	0x3cbc5f5a	0.022994686
199	0xbc7abb3c	-0.015303429
200	0xbd1253f1	-0.035724584
201	0x3c32eee9	0.010921218
202	0xbcfcf9f2	-0.030880902
203	0xbb5cb3e0	-0.003367655
204	0xbd180f7c	-0.037124142
205	0x3c0c17a0	0.0085505545
206	0xbb9c9a3d	-0.004779129
207	0x3b451b2a	0.0030076005
208	0xbcb33629	-0.021876412
209	0x3bce3e8c	0.0062940773
210	0xbc83342c	-0.016016088
211	0xbd363f37	-0.04449388
212	0xbd1a7b66	-0.03771534
213	0xbcd56287	-0.026047958
214	0x3c9becc3	0.019033795
215	0xbcad7c06	-0.021177303
216	0x3d2c87e7	0.042121794
217	0xbc833ee4	-0.0160212
218	0xbd20af06	-0.039229415
219	0x3bc7c150	0.0060960427
220	0x3a8af560	0.0010601692
221	0xbbf2be73	-0.007407957
222	0xbd127618	-0.035757154
223	0xbcbb93ae	-0.022897568
224	0xbc9b3f82	-0.018951181
225	0xbbcfc074	-0.006340081
226	0xbc8b726f	-0.01702234
227	0x3c6274e1	0.013821811
228	0xbd187856	-0.037224136
229	0xbd041425	-0.032245774
230	0xbbc16a3d	-0.005902557
231	0x3cc222fa	0.023698319
232	0x3c06a374	0.008217681
233	0x3d13825a	0.036012985
234	0xbd23c3cd	-0.039981652
235	0xbca25dae	-0.01982006
236	0x3c8aee81	0.01695943
237	0xbc6c98e1	-0.014440746
238	0xbc9f532a	-0.019448835
239	0x3cc6df30	0.024276346
240	0xbbd37459	-0.0064530787
241	0x3c55f8c0	0.013059795
242	0x3caec7df	0.02133554
243	0xbccc0228	-0.024903372
244	0xbd11444a	-0.035465516
245	0x3cc7b92c	0.024380289
246	0x3d0961c9	0.03354052
247	0x3cc10643	0.023562556
248	0x3c582e5b	0.013194646
249	0x3d2d511b	0.042313676
250	0xbc30b69a	-0.010785723
251	0xbb95bf88	-0.0045699514
252	0x3c3bade4	0.011455033
253	0xbc96230f	-0.018327264
254	0xbcf9e456	-0.030504387
255	0x3d286954	0.041116074

siam_layer.conv3.bias f4 [7]
0	0x3d02634c	0.031832978
1	0x3cac66b4	0.021045066
2	0x3cc2bbd0	0.023771197
3	0xbac466a0	-0.0014984198
4	0x3afd7f40	0.0019340292
5	0x3d14a8e0	0.036293864
6	0x3c5238a8	0.012830891

siam_layer.conv4.weight f4 [3, 14, 6, 6]
0	0xbbb14826	-0.005410212
1	0xba38d551	-0.00070508296
2	0x3d0fd9ec	0.035119936
3	0xbcaebde8	-0.021330789
4	0x3d005db8	0.031339377
5	0x39bd75a6	0.00036136544
6	0xbbdb2df0	-0.006688826
7	0xbb207eb8	-0.0024489593
8	0xbb117e1d	-0.0022200414
9	0xbcdd0cd2	-0.026983652
10	0x3cda7124	0.026665278
11	0xbce9b812	-0.028530154
12	0xbcb63eae	-0.022246685
13	0x3cc0e957	0.023548765
14	0x3cdef170	0.027214736
15	0x3c0ad5a6	0.008473789
16	0xbcdd8bf1	-0.027044268
17	0xbc8b9eb8	-0.017043456
18	0x3b4a4e63	0.0030869476
19	0x3c9e8c21	0.019353928
20	0x3d0d5a9b	0.034510236
21	0xbcb07bb2	-0.021543358
22	0xbd173091	-0.03691155
23	0x3bc6780c	0.006056791
24	0x3c5b20fc	0.013374563
25	0x3d02e738	0.03195879
26	0x3cf72e7a	0.030173529
27	0x3c10cf31	0.008838461
28	0x3b128d10	0.0022361912
29	0x3b3cbb5b	0.0028798196
30	0x3c526d5f	0.012843459
31	0xbcbcfc1e	-0.023069438
32	0xbcad28b9	-0.021137582
33	0x3cfd9975	0.030956963
34	0x3b50cf5a	0.0031861872
35	0xbc707c78	-0.014678113
36	0xbcc121b4	-0.023575641
37	0x3d032fa3	0.03202785
38	0xbbc8e721	-0.0061310683
39	0xbd29f60a	-0.041494407
40	0x3c96cd26	0.01840837
41	0x3d1758fb	0.036950093
42	0xbcfd7544	-0.030939706
43	0x3c340ad0	0.010988906
44	0x3c5b9367	0.013401843
45	0x3ccdc792	0.025119577
46	0x3cd272e3	0.025689548
47	0xbc969446	-0.01838125
48	0xbcef0b50	-0.029180199
49	0x3cad0dba	0.02112471
50	0x3d36d86a	0.044639982
51	0xbcd61812	-0.026134524
52	0x3d0f067f	0.034918305
53	0x3d380288	0.04492429
54	0xbcaca51a	-0.02107482
55	0xbbbf41f2	-0.0058367187
56	0x3b0fd5da	0.0021947534
57	0xbcf9c6b5	-0.030490259
58	0x3bb48502	0.00550902
59	0x3d055d01	0.0325594
60	0x39de485c	0.00042397052
61	0x3c934c66	0.017980766
62	0x3b3d7ee6	0.0028914749
63	0xbbc07422	-0.005873219
64	0x3c33e710	0.010980383
65	0xbd2be3aa	-0.041965164
66	0xbc664198	-0.014053725
67	0x3cea36dc	0.028590612
68	0xbb470b7d	-0.0030371838
69	0xbca62115	-0.020279447
70	0x3c7ef73b	0.015561874
71	0x3b99cb48	0.0046934225
72	0xbc191e8b	-0.009345661
73	0xbcbf1cbb	-0.02332913
74	0xbc875e52	-0.016524468
75	0x3c1f6568	0.009728767
76	0x3b98691d	0.0046512024
77	0xbc2dd819	-0.010610604
78	0x3d22042b	0.039554756
79	0xbc96f0c7	-0.018425358
80	0xbd04a5a2	-0.032384522
81	0xbd2a8a59	-0.041635845
82	0xbcbb576d	-0.022868836
83	0xbc10977b	-0.008825178
84	0x3c97f307	0.018548502
85	0xbd2409ce	-0.040048413
86	0xbd19d754	-0.03755887
87	0xbcc64eca	-0.024207491
88	0x3cb52b0b	0.022115251
89	0xbccdf45c	-0.025140934
90	0x3c8ad7c4	0.016948588
91	0x3c86869e	0.016421612
92	0xbc663cee	-0.014052613
93	0xbccabf1a	-0.024749327
94	0x3c52df59	0.012870633
95	0xbd0e3889	-0.034721885
96	0xbd29e2d5	-0.04147609
97	0xbd2ae942	-0.04172636
98	0x3d27b5ce	0.040944867
99	0xbc64cc2f	-0.013964697
100	0xbcb0f836	-0.021602731
101	0xbc55f58c	-0.013059031
102	0xbd137e2a	-0.03600899
103	0xbd20eb99	-0.039287183
104	0xbc4cb321	-0.0124938795
105	0x3cd4b725	0.025966236
106	0xbc3c7d2a	-0.011504451
107	0x3d1a5028	0.0376741
108	0xbbab616d	-0.00523012
109	0xbc494b55	-0.012286027
110	0xbd17dfd4	-0.037078694
111	0x3d34b8fe	0.044121735
112	0x3c542847	0.012949056
113	0x3d36c6f7	0.04462334
114	0x3c639a0c	0.013891708
115	0x3d0b9237	0.03407499
116	0xbaf7de9f	-0.0018910951
117	0x3d0ff7e0	0.0351485
118	0x3a6312e9	0.00086621806
119	0x3d0a234e	0.033725075
120	0x3cd92c10	0.026510268
121	0x3cb0a7fa	0.021564472
122	0x39979700	0.00028913468
123	0x3ccdc875	0.02512
124	0xbcc86dea	-0.024466474
125	0xbc1d220a	-0.009590635
126	0x3ccf42bb	0.025300374
127	0x3c732be3	0.014842006
128	0x3c9aee04	0.018912323
129	0xbccc96a5	-0.024974177
130	0xbb1bd51f	-0.0023778153
131	0x3b91c992	0.004449078
132	0xbc09fae4	-0.008421633
133	0xbcb6610a	-0.022263069
134	0x3b4537bd	0.0030093037
135	0xbcbda9c6	-0.023152243
136	0xbcdcc389	-0.026948707
137	0x3d219acd	0.03945427
138	0x3cd8444a	0.02639975
139	0xbc770303	-0.015076402
140	0x3cffe45e	0.031236824
141	0xba8adf77	-0.0010595162
142	0x3d09af57	0.033614483
143	0xbc5794e7	-0.01315806
144	0x3ab85304	0.0014062827
145	0xbce0efc4	-0.02745808
146	0x3d314273	0.04327626
147	0xbc67add6	-0.014140567
148	0x3c96aabb	0.018391958
149	0xbce43db0	-0.027861446
150	0xbd0afd23	-0.033932816
151	0xbbd1d6fd	-0.0064038024
152	0xbced3bd2	-0.028959189
153	0x3b6ea203	0.0036412484
154	0x3c969aba	0.018384326
155	0x3cd602f3	0.026124453
156	0x3c1e0f45	0.009647195
157	0x3cdbe20b	0.026841184
158	0x3d231cd5	0.03982242
159	0x3cef99a5	0.029248068
160	0x3d1a4607	0.03766444
161	0x3b846596	0.0040404303
162	0xbb2959a1	-0.0025840777
163	0x3cae93a8	0.021310642
164	0xbc722aca	-0.0147807095
165	0xbd2af506	-0.04173758
166	0x3c7ef184	0.0155605115
167	0x3bb330ec	0.0054684784
168	0xbcd808e3	-0.026371425
169	0x3cea18eb	0.028576335
170	0x3c4496d4	0.011998851
171	0x3c2ad8d4	0.010427672
172	0xbd33a30f	-0.043856677
173	0x3cd94b9b	0.02652531
174	0x3c1198b1	0.008886502
175	0xbc77d6b3	-0.015126872
176	0xbcfd1c82	-0.030897383
177	0xbc6e281e	-0.014535932
178	0xbcf21b87	-0.029554142
179	0xbbade2c8	-0.0053065754
180	0x3c81e7b6	0.015857559
181	0xbc58a581	-0.013223053
182	0x3cfbcfe3	0.030738777
183	0x3c41bfe8	0.011825539
184	0x3d17d557	0.03706869
185	0x3c97c809	0.018528001
186	0xbb330ed6	-0.0027322075
187	0x3d01241a	0.03152857
188	0x3d17db09	0.037074123
189	0xbb88c216	-0.0041735275
190	0xbd153a83	-0.036432754
191	0xbb5b8af7	-0.0033499578
192	0x3c536fba	0.012905056
193	0xbcce6ae5	-0.025197456
194	0xbd16edc7	-0.036847856
195	0xbc51b282	-0.012798907
196	0x3c804873	0.015659546
197	0x3d18786a	0.03722421
198	0x3cc1aa40	0.023640752
199	0xbbca20a0	-0.00616844
200	0x3d30bb2d	0.043147255
201	0xbb9c487c	-0.004769383
202	0xbc6c6a39	-0.014429622
203	0xbc300f7e	-0.010745881
204	0xbc2bb512	-0.010480182
205	0x3d321ec6	0.04348638
206	0xbc829504	-0.015940197
207	0xbc99029d	-0.018678004
208	0x3cad4bb6	0.021154266
209	0x3d0e0fcb	0.03468303
210	0x3d114d56	0.035474144
211	0xbd289d86	-0.04116585
212	0xbca51487	-0.02015139
213	0x3bad5bed	0.0052904994
214	0x3ca0314e	0.01955476
215	0xbd021be1	-0.03176487
216	0xbc7804f5	-0.015137901
217	0x3d31244c	0.043247506
218	0x3bab82e3	0.005234109
219	0xbc9a39d1	-0.018826397
220	0xbb1978e5	-0.0023418006
221	0xbc57ebff	-0.013178824
222	0xbc1c8be0	-0.009554833
223	0x3d0cd584	0.034383312
224	0x3c237233	0.009975958
225	0x3cba6336	0.022752386
226	0xbc89cb04	-0.016820438
227	0x3c86a462	0.016435806
228	0x3c9c73f1	0.019098254
229	0x3cd1a35c	0.025590591
230	0x3d0ebd8f	0.034848746
231	0xbc2ead49	-0.010661432
232	0x3cce7eba	0.025206912
233	0xbb8b87b1	-0.004258119
234	0x3cad43e4	0.021150537
235	0xbd108d28	-0.035290867
236	0x3c0ef47a	0.00872528
237	0x3c291b41	0.010321439
238	0x3d28689e	0.041115396
239	0x3c8e0763	0.017337507
240	0x3c01340e	0.007885946
241	0x3cbe17c3	0.02320469
242	0xbd0e4e61	-0.034742717
243	0xbc5a6f12	-0.013332145
244	0x3cece211	0.02891639
245	0xbd2950f7	-0.04133698
246	0x3ccb200d	0.024795556
247	0x3c18d20d	0.009327424
248	0xbd12f710	-0.03588015
249	0x3ca61305	0.020272741
250	0x3ce3d2fa	0.027810562
251	0x3d10c646	0.03534534
252	0x3c3bd3c6	0.011464065
253	0xbd22557f	-0.039632317
254	0xbbce8bb1	-0.0063032736
255	0x3d15713a	0.036484934

siam_layer.conv4.bias f4 [3]
0	0xbc941ae2	-0.018079225
1	0x3cc0b3c4	0.023523219
2	0xbd10aa7e	-0.035318844

siam_layer.conv5.weight f4 [1, 3, 6, 6]
0	0xbdb36382	-0.08759214
1	0xbd37d2b5	-0.04487868
2	0x3c1a7ae4	0.0094287135
3	0x3da1bd93	0.078974865
4	0xbc22a247	-0.009926385
5	0x3d6c49ef	0.057687696
6	0x3d802976	0.06257908
7	0x3cc4529d	0.023965174
8	0xbd729de5	-0.05923261
9	0xbd142251	-0.03616554
10	0xbdb80b45	-0.089865245
11	0x3d994a10	0.074848294
12	0xbdb8d909	-0.09025771
13	0x3c87d30b	0.016580125
14	0xbd8d4599	-0.0689804
15	0x3d507b42	0.050898798
16	0x3d9509c1	0.07277251
17	0xbcc7bbe3	-0.024381584
18	0xbc6c4c31	-0.014422462
19	0xbd066b0c	-0.03281693
20	0xbc9bb922	-0.019009177
21	0xbdc424b5	-0.09577314
22	0xbd6f68f2	-0.058449693
23	0xbd2afad7	-0.041743126
24	0x3c9b4ac6	0.018956553
25	0x3d64b4af	0.055836376
26	0x3d16ac45	0.036785383
27	0x3c366532	0.011132525
28	0xbda28df5	-0.079372324
29	0xbcc48d4a	-0.023993153
30	0xbd44f089	-0.048080955
31	0xbcfa1d81	-0.030531647
32	0x3ce2b904	0.027676113
33	0xbd886918	-0.0666067
34	0x3d8a926c	0.06766209
35	0x3d5022d9	0.050814483
36	0x3d4951b2	0.049150176
37	0xbd862eda	-0.06551905
38	0xbcc3aedd	-0.023887092
39	0xbd0bbe50	-0.034117043
40	0x3ce5ffdc	0.028076105
41	0xbbadecac	-0.0053077545
42	0xbc9b0ab2	-0.018925998
43	0xbb0f3150	-0.002184946
44	0x398d7b05	0.00026985272
45	0x3ceaafde	0.028648313
46	0xbca4285b	-0.020038774
47	0xbcc4f42a	-0.024042208
48	0x3d964ec1	0.0733924
49	0x3db1a050	0.08673155
50	0x3c9d0f96	0.019172471
51	0x3db03dfc	0.086055726
52	0xbda17e61	-0.07885433
53	0x3dbfd4af	0.09366738
54	0xbda13966	-0.07872276
55	0xbd806e65	-0.06271056
56	0xbbfd8a7c	-0.007737456
57	0xbd95f7c5	-0.07322649
58	0xbd1e35a1	-0.038625363
59	0xbd53abde	-0.051677577
60	0xbda59f2a	-0.08086999
61	0x3d7c3a68	0.061579138
62	0x3d9ffee4	0.078122884
63	0x3b93b88c	0.0045080837
64	0x3cd1e92e	0.025623884
65	0xbcacd399	-0.021096991
66	0xbd25323f	-0.04033112
67	0xbc5376a3	-0.012906703
68	0x3d8a2826	0.06745939
69	0x3dbc46d0	0.09193194
70	0x3c62a47f	0.013833164
71	0xbbd13bd3	-0.0063853054
72	0x3db8d828	0.090256035
73	0x3be85683	0.007090391
74	0xbdc5c0d0	-0.09655917
75	0xbd6f489d	-0.05841886
76	0xbc3a0a15	-0.011354943
77	0xbcbd9704	-0.023143299
78	0x3db606a9	0.08887989
79	0xbd5d56de	-0.05403792
80	0x3ca2fe99	0.019896792
81	0xbc3452c3	-0.01100606
82	0x3d7ed0b8	0.06221077
83	0x3d48f21e	0.049059026
84	0x3c6fbf5b	0.014633025
85	0xbcbb67e4	-0.022876687
86	0xbd5bd728	-0.053671986
87	0xbdbc0ffc	-0.09182736
88	0x3d47d43d	0.04878639
89	0x3d14d69d	0.036337484
90	0x3d204e1e	0.039137
91	0x3cd3eb6e	0.025869098
92	0x3da46a4a	0.080280855
93	0x3cf5d578	0.030009016
94	0x3c1c3b65	0.009535645
95	0xbd249aa8	-0.040186554
96	0x3d8354dc	0.0641267
97	0xbd7e61f9	-0.062105153
98	0x3cb384d9	0.021913933
99	0x3cef2dd6	0.029196661
100	0xbba78d81	-0.005113304
101	0x3d9e5b61	0.07732273
102	0x3d48f892	0.04906518
103	0xbdad0838	-0.08448833
104	0xbd0e5b5c	-0.034755096
105	0xbd1e8ccb	-0.03870849
106	0x3d304232	0.04303188
107	0x3c098c3f	0.008395254

siam_layer.conv6.weight f4 [1, 3, 6, 6]
0	0xbc3128e1	-0.010812969
1	0xbc16540c	-0.009175312
2	0x3d719a53	0.058985066
3	0xbcb59f42	-0.022170667
4	0x3d8d0d23	0.06887271
5	0xbda70a08	-0.0815621
6	0x3da02bd8	0.078208625
7	0x3cf43c8c	0.029814027
8	0x3d27ff9e	0.04101526
9	0xbd7da86b	-0.061928194
10	0xbdbc199f	-0.09184574
11	0xbdc43bc7	-0.09581714
12	0xbc31a4b8	-0.010842495
13	0x3dbf913e	0.093538746
14	0x3dc0c641	0.09412814
15	0x3bf171f3	0.00736832
16	0x3dbaf884	0.09129432
17	0xbdb74b69	-0.0894993
18	0xbb71681e	-0.003683574
19	0x3d93c282	0.07214834
20	0x3d004b5f	0.03132188
21	0x3db987be	0.09059094
22	0x3cd3edbc	0.025870197
23	0xbdc334b3	-0.09531536
24	0xbdb1b205	-0.08676533
25	0x3c4ba844	0.012430254
26	0xbd541f14	-0.05178745
27	0x3c83701c	0.016044669
28	0x3cfdac9f	0.030966101
29	0x3dbbc6bf	0.09168767
30	0x3cb59485	0.022165546
31	0x3b8ec51c	0.0043569934
32	0xbda4cdb2	-0.08047046
33	0x3db74e64	0.08950499
34	0x3d627fa9	0.055297527
35	0xbd42c1e0	-0.047548175
36	0xbd96b401	-0.07358552
37	0xbd678cf3	-0.056530904
38	0x3af16282	0.0018416198
39	0xbcfb2fc6	-0.030662429
40	0xbd0786d5	-0.03308757
41	0xbdac84c3	-0.0842376
42	0xbd30448a	-0.043034114
43	0xbd230521	-0.039799813
44	0x3d68c335	0.05682679
45	0x3d4657e6	0.04842367
46	0x3d32fbe2	0.043697245
47	0xbbc7cd8d	-0.0060975016
48	0xbd9d2751	-0.07673515
49	0xb9d39689	-0.00040357214
50	0x3d679840	0.05654168
51	0x3d02b6b9	0.03191254
52	0x3d242ef7	0.04008385
53	0x3d874aba	0.0660605
54	0xbc998be5	-0.018743465
55	0xbca07563	-0.019587224
56	0xbc488451	-0.012238578
57	0xbc8d56da	-0.017253328
58	0xbd498ae1	-0.04920471
59	0xbd6e0b36	-0.05811616
60	0x3d9cadf2	0.07650365
61	0x3d63961e	0.055563085
62	0xbd8a4381	-0.067511566
63	0x3c380299	0.011231088
64	0xbd469627	-0.04848304
65	0xbbe417b7	-0.006960835
66	0xbd9e89d4	-0.077411324
67	0xbd9e9b00	-0.07744408
68	0x3dad4d8f	0.08462059
69	0x3d4e2eea	0.05033771
70	0x3d805c6a	0.062676266
71	0x3d0d6141	0.034516577
72	0xbd96f6d1	-0.07371295
73	0xbd201798	-0.039085
74	0x3d50f303	0.051013004
75	0xbc4d6a0b	-0.01253749
76	0xbd97dd55	-0.074152626
77	0xbdc38a71	-0.0954789
78	0xbdc5016e	-0.09619413
79	0xbd35c2f4	-0.044375375
80	0x3d3750a1	0.044754628
81	0x3db0fbf0	0.08641803
82	0x3d4a2764	0.049353972
83	0xbd6592d6	-0.056048237
84	0xbd31cc8d	-0.043407965
85	0x3c88d567	0.01670332
86	0xbdc21659	-0.09476919
87	0xbdb01a4c	-0.08598766
88	0xbd973a0c	-0.073841184
89	0x3ce2cf7c	0.027686827
90	0xbd01c73f	-0.031684157
91	0xbd1ddc1c	-0.03853999
92	0x3d9ae631	0.07563437
93	0x3d6be1c9	0.057588372
94	0x3cf28e87	0.029608978
95	0xbd5dd750	-0.054160416
96	0xbcfa3f94	-0.030547895
97	0x3b3811bf	0.002808675
98	0xbd4fefbf	-0.05076575
99	0xbd51819e	-0.051149003
100	0xbdc3cd73	-0.09560671
101	0xbd78c0af	-0.060730632
102	0xbdb924a6	-0.09040193
103	0x3d747ca1	0.059689168
104	0x3c3eb755	0.011640389
105	0xbcd54c28	-0.02603729
106	0x3da2dcfe	0.07952307
107	0xbd220f9f	-0.03956568

siam_layer.conv7.weight f4 [1, 2, 6, 6]
0	0x3ced3379	0.028955208
1	0x3d82202e	0.06353794
2	0xbdab6bad	-0.08370147
3	0x3de14b49	0.11000688
4	0x3c5304ba	0.012879545
5	0x3da4a505	0.080392875
6	0x3d0c6375	0.034274537
7	0xbdcf6e34	-0.101284415
8	0xbda45e52	-0.08025803
9	0xbd940039	-0.07226605
10	0x3dc10579	0.09424872
11	0xba9b8028	-0.0011863755
12	0xbd62153b	-0.05519603
13	0x3ac76234	0.0015211762
14	0xbde485bd	-0.11158321
15	0x3db9fbf9	0.09081263
16	0xbde50ceb	-0.111841045
17	0xbc1ae987	-0.009455091
18	0xbd2b9b98	-0.041896433
19	0xbcad7a27	-0.02117641
20	0xbde49158	-0.111605346
21	0x3c8e82f5	0.01739643
22	0x3de4cfb8	0.11172432
23	0xbcc8e032	-0.024520967
24	0x3cbe2a5f	0.023213563
25	0x3c82a7c4	0.015949138
26	0x3dac7dad	0.08422408
27	0xbc81a3a9	-0.01582511
28	0x3ddca066	0.10772781
29	0x3837e004	4.383923e-05
30	0xbdb84e84	-0.08999351
31	0x3cefbb4a	0.029264111
32	0x3bd28bf2	0.006425374
33	0xbcc2f568	-0.02379866
34	0xbdc3c5d0	-0.09559214
35	0x3d3f38d6	0.046685062
36	0x3dba9218	0.091098964
37	0xbd107cfa	-0.035275437
38	0xbddb4594	-0.1070663
39	0xbd856977	-0.065142564
40	0x3d2614df	0.040547248
41	0x3db76993	0.089556836
42	0x3d68b468	0.056812674
43	0x3d87076c	0.065932125
44	0xbd833a8b	-0.064076506
45	0xbd8c89a8	-0.06862193
46	0x3de1f158	0.11032361
47	0xbdc98be0	-0.09841132
48	0xbddb4e4b	-0.107082926
49	0x3c0ed2c6	0.0087172445
50	0xbdc27e74	-0.09496775
51	0xbbee7800	-0.0072774887
52	0x3d10c494	0.03534372
53	0xbdb88863	-0.09010389
54	0xbd503210	-0.050828993
55	0x3deadabf	0.11467504
56	0xbde6e7fb	-0.112747155
57	0xbdbfe303	-0.09369471
58	0xbdbca350	-0.09210837
59	0xbc9772db	-0.018487385
60	0x3ce566cf	0.028003125
61	0x3ce224ee	0.0276055
62	0x3dccd174	0.100008875
63	0x3d08e0da	0.03341756
64	0xbdc9d9ac	-0.09855971
65	0x3d109598	0.035298914
66	0xbde9c12b	-0.11413797
67	0xbd9af958	-0.0756709
68	0xbc7d736a	-0.015469411
69	0x3d8de194	0.06927791
70	0x3ccbc38d	0.02487352
71	0x3dda2d82	0.10653211

dense.weight f4 [1, 308]
0	0xbd092f63	-0.033492457
1	0x3d238898	0.039925188
2	0xbd14b56d	-0.036305834
3	0x3d46e474	0.048557714
4	0xbc85d04f	-0.01633468
5	0x3c90830e	0.017640617
6	0x3c424c6f	0.0118590435
7	0xbbda251d	-0.0066572563
8	0x3b0e23dd	0.0021688857
9	0xbb4912ef	-0.0030681451
10	0xbd3f9484	-0.046772495
11	0xbcbeff74	-0.023315169
12	0xbbbc38b6	-0.005744065
13	0x3cb76416	0.022386592
14	0xbd24da83	-0.04024745
15	0xbd0d6494	-0.034519747
16	0xbd02b0f6	-0.031907044
17	0xb9ecffe2	-0.00045204075
18	0x3ca0f1c0	0.019646525
19	0x3c2c0162	0.010498377
20	0xbd22e283	-0.0397668
21	0x3d05a14d	0.03262453
22	0x3c7b3117	0.015331528
23	0x3d1ee587	0.038793113
24	0xbd1f3178	-0.038865536
25	0xba796b2f	-0.0009514568
26	0xbb827143	-0.003980787
27	0x3cd70cc3	0.026251202
28	0xbcbec57d	-0.02328753
29	0x3d1f8011	0.038940493
30	0x3cc72275	0.024308423
31	0x3c957d94	0.018248357
32	0xbcdfbcb1	-0.027311655
33	0xbc34973c	-0.011022385
34	0xbc860d17	-0.016363664
35	0xbd0e85c0	-0.034795523
36	0xbd093c75	-0.033504922
37	0x3b0eee91	0.0021809677
38	0x3cb26c68	0.021780208
39	0x3c1fd15e	0.009754507
40	0xbc480d21	-0.012210161
41	0x3b084ff1	0.0020799602
42	0x3c9bc4ab	0.019014677
43	0xbc9f865e	-0.019473251
44	0xbd44983f	-0.047996756
45	0xbd520bdb	-0.051280838
46	0x3923e97e	0.00015631874
47	0x3b554154	0.003254016
48	0x3b1c872a	0.0023884275
49	0x3cfdaa34	0.030964948
50	0x3d42024c	0.04736547
51	0xbd5378b8	-0.0516288
52	0xbc903506	-0.017603409
53	0xbb38900f	-0.0028162037
54	0xbd29698d	-0.041360427
55	0x3bb43b5b	0.00550024
56	0xbd4f9256	-0.050676666
57	0xbd41c824	-0.04731001
58	0x3ced6e89	0.028983371
59	0x3d6113f6	0.054950677
60	0x3d4d5ef2	0.050139375
61	0xbd38a45f	-0.04507863
62	0x3bdf0cea	0.0068069594
63	0x3d2ff7d3	0.042960953
64	0x3bfe4d10	0.0077606514
65	0x3d23d4e4	0.03999795
66	0x3d514186	0.05108788
67	0x3d17f3a2	0.03709758
68	0xbd1e1c7b	-0.03860138
69	0xbc32ce9d	-0.010913518
70	0x3ccd64bb	0.025072446
71	0x3c01ddb1	0.0079263905
72	0xbcaa43ff	-0.020784376
73	0xbbfc506a	-0.007700016
74	0xbc5b2de8	-0.013377644
75	0x3d5ee21c	0.054414853
76	0xbd0c92d0	-0.0343197
77	0x3d2d506e	0.04231303
78	0xbd44faa6	-0.0480906
79	0x3d236ca1	0.03989852
80	0xbce3d422	-0.027811114
81	0x3a88c427	0.0010434435
82	0xbc6ffd4e	-0.014647795
83	0x3bb1fff9	0.0054321256
84	0xbc283176	-0.010265699
85	0x3c8f7900	0.017513752
86	0xbd336bad	-0.04380386
87	0xbc6c613c	-0.014427479
88	0xbc8bd3e5	-0.017068813
89	0xbd5b545d	-0.053547252
90	0x3c02df62	0.007987829
91	0x3d0865c8	0.03330019
92	0xbc1ce60a	-0.00957633
93	0xbd0ad9e5	-0.033899207
94	0xbd53573c	-0.051596865
95	0x3cee0bdf	0.029058395
96	0xbd614d59	-0.055005405
97	0x3bc3c3f5	0.0059742876
98	0xbd055fcf	-0.032562073
99	0x3d58e3c2	0.05295158
100	0x3c952a41	0.018208625
101	0x3d1e4bec	0.038646623
102	0x3d30b251	0.043138806
103	0xbcd6420a	-0.026154537
104	0xbd06de40	-0.032926798
105	0xbb055ce3	-0.0020349554
106	0xbbdce7d0	-0.0067415014
107	0xbd4f6ff6	-0.050643884
108	0x3cab7018	0.020927474
109	0xbd4086ad	-0.047003437
110	0x3ca1b3d5	0.01973907
111	0xbc972389	-0.018449562
112	0x3bfd3b76	0.0077280356
113	0xbd0acac4	-0.03388478
114	0x3c5a9894	0.0133420415
115	0x3b907c4e	0.0044093495
116	0xbc95ffff	-0.018310545
117	0x3d12345c	0.035694465
118	0x3cffb673	0.031214928
119	0xb8abfbb7	-8.200801e-05
120	0xbd26471f	-0.04059517
121	0xbd472d1f	-0.048627015
122	0x3b6d14ae	0.0036175656
123	0x3d1fadd4	0.038984135
124	0xbccd1d95	-0.02503852
125	0xbcd42587	-0.0258968
126	0xbd5ae64f	-0.053442296
127	0xbd522e3c	-0.051313624
128	0xbc4f6058	-0.0126572475
129	0x3bb0ff6f	0.005401544
130	0x3b0b5c5f	0.0021264774
131	0xbc62331e	-0.013806133
132	0xbcd4d64e	-0.025981095
133	0xbd538b46	-0.051646493
134	0x3d38cc39	0.045116637
135	0xbd3714bf	-0.04469752
136	0x3d05d17c	0.032670483
137	0x3cd863d3	0.026414787
138	0x3c1ac9d2	0.009447532
139	0xbd2ab1e2	-0.04167355
140	0xbd0a10e3	-0.03370751
141	0x3cd28bf3	0.025701499
142	0xbd51cc14	-0.051220015
143	0x3cac4550	0.021029145
144	0xba0ac760	-0.00052939914
145	0xbd2000ce	-0.039063267
146	0xbc1d7864	-0.009611223
147	0x3cf55a9b	0.02995043
148	0xbd54f670	-0.051992834
149	0x3c7e0e95	0.015506406
150	0x3a94819c	0.001133013
151	0xbd4628b5	-0.048378665
152	0xbce03bfc	-0.027372353
153	0x3cc1d23b	0.023659816
154	0x3c89805b	0.016784837
155	0x3b92004f	0.004455603
156	0x3b64b61b	0.0034898582
157	0x3d6304a4	0.055424348
158	0x3ce0ff30	0.027465433
159	0x3d3872f4	0.045031503
160	0x3d2877bd	0.041129816
161	0x3d537c5c	0.05163227
162	0xbd60ef76	-0.054915868
163	0xbc3570d8	-0.011074267
164	0x3d1dd91c	0.03853713
165	0x3d0de450	0.034641564
166	0xbc1a65c4	-0.009423677
167	0x3d583075	0.052780587
168	0x3d27e90f	0.040993746
169	0xbc9e7a7f	-0.01934552
170	0xbd4fca11	-0.050729815
171	0x3cb060ae	0.021530475
172	0x3d04e322	0.032443173
173	0xba0cc670	-0.00053701457
174	0x3d5ecd35	0.05439492
175	0xbc6621aa	-0.014046112
176	0xbc9bcd93	-0.019018924
177	0x3d46b717	0.04851445
178	0x3cf84deb	0.030310592
179	0x3d306e44	0.043073907
180	0xbd56e367	-0.05246296
181	0x3d2783de	0.040897243
182	0xbc5acd47	-0.013354606
183	0xbd386963	-0.04502238
184	0x3d2d2c0c	0.042278334
185	0x3cfc468d	0.03079536
186	0x3d19c891	0.03754479
187	0x3baf2b3a	0.005345729
188	0x3bcd7bee	0.006270877
189	0x3d0f6c3f	0.03501534
190	0xbcd4bed1	-0.025969895
191	0xbcb06fd8	-0.021537706
192	0x3b867aea	0.004104008
193	0xbbb34642	-0.005471022
194	0x3c8d73a9	0.017267065
195	0x3abd8646	0.0014459572
196	0x3d202527	0.03909793
197	0xbc36a048	-0.011146612
198	0x3d53e95c	0.05173622
199	0x3d6312b1	0.055437747
200	0xbbca2054	-0.0061684046
201	0x3cc5bbbf	0.024137376
202	0x3c655966	0.013998365
203	0x3d0d8b5f	0.034556743
204	0xbcf85210	-0.030312568
205	0x3d1860f0	0.03720182
206	0x3d352dc9	0.044233117
207	0xbc918903	-0.017765528
208	0x3cfa1f81	0.0305326
209	0xbc819cdd	-0.015821869
210	0xbd1e3cc9	-0.038632188
211	0x3d1d7724	0.0384437
212	0xbcb71a64	-0.022351451
213	0x3d0f5826	0.034996174
214	0xbd17dc49	-0.037075315
215	0x3cd5b4e6	0.026087236
216	0xbcd2c0e6	-0.025726747
217	0x3d57f331	0.05272216
218	0xbd235ac3	-0.03988148
219	0xbcd3c08a	-0.025848646
220	0x3d43392b	0.04766194
221	0x3c9c1259	0.019051718
222	0x3cf0690c	0.029346965
223	0x3cb74e1e	0.022376116
224	0xbd008611	-0.031377856
225	0x3c643c96	0.01393046
226	0x3d3b77ed	0.045768667
227	0x3c8b9e06	0.017043125
228	0x3b235c73	0.002492693
229	0xbd132ee6	-0.035933398
230	0x3d5b875d	0.05359589
231	0x3cdffe95	0.027343074
232	0xbc0d2733	-0.008615303
233	0xbcbb4a2c	-0.022862516
234	0x3d5e5fe0	0.054290652
235	0xbcc0319d	-0.023461157
236	0xbcaf4295	-0.021394053
237	0x3d0b1028	0.033950955
238	0xbd6611c1	-0.056169275
239	0xbc347146	-0.011013335
240	0x3d1ed71e	0.03877937
241	0xbd0564de	-0.032566898
242	0x3cd3e24f	0.025864748
243	0xbce8d49c	-0.028421693
244	0x3cef8e70	0.029242724
245	0xbd41b88c	-0.04729514
246	0x3c8b6c88	0.017019525
247	0x3d1f995b	0.03896461
248	0xbc013bce	-0.007887794
249	0x3c839edf	0.016066967
250	0x3caf04ec	0.021364652
251	0x3cbf6c58	0.023367092
252	0x3d06dc30	0.03292483
253	0xbd3496cc	-0.044089124
254	0xbd48d29e	-0.049028985
255	0xbc56b2b1	-0.013104127
