siamese-classifier/siam_v3_83.pth (torch, 104363 bytes, 12 tensors)

siam_layer.conv1.weight f4 [14, 31, 6, 6]
-0.0012842352 -0.014600975 0.0050048325 -0.0023539218 0.026752302 0.0011353325 0.0052989405 -0.013038377
-0.019225776 -0.029513868 -0.02482013 0.026034681 -0.026691534 -0.0055776006 0.0027662865 0.0075805574
-0.0010209956 -0.018201007 -0.023918366 0.0049447706 0.0045194803 0.0012720012 0.018225845 0.025175776
-0.014781841 -0.016266292 -0.024303101 -0.0022660068 0.024833357 0.02569037 0.027797047 0.019682635
-0.019051602 0.018040014 0.01278875 -0.009865614 -0.0023530812 0.020390788 -0.016947446 0.0024863589
0.014144239 -0.0033893352 0.023815403 0.0024007556 -0.005367108 -0.0019283169 0.019067286 -0.024170946
0.0034651777 0.02520086 -0.01504285 0.010331005 0.020213246 -0.012273711 -0.021624997 -0.025890378
-0.0023423904 0.020981615 -0.009794341 0.018415308 0.012883585 0.010922029 -0.0064142034 0.016775075
-0.028907795 -0.025505066 0.028366992 -0.021919575 -0.02875245 0.021301566 -0.015498856 -0.026572123
-0.02278436 0.012239632 -0.0221365 0.027695442 -0.0040285224 -0.024571765 -0.027357588 0.019523535
0.018873561 -0.010148536 -0.0013612258 -0.008289105 0.007894067 0.01560908 0.021488033 0.0152846165
0.006564097 -0.01901047 -0.02853223 0.02424001 0.014610329 0.012092224 -0.027872078 -0.0027301365
-0.0053340043 -0.019082626 -0.024505023 -0.025226047 0.019406557 -0.023579434 -0.012521131 0.0064239977
-0.026871966 -0.020384433 -0.007954929 -0.017320331 -0.015227194 0.0008241137 0.02863861 0.0040118583
-0.027035924 -0.017160814 0.022437433 0.016191525 -0.018474782 0.0013358366 -0.02988106 -0.026204754
-0.017544704 -0.012194413 -0.029660696 0.0020965044 -0.026725817 0.0020766158 -0.0077573904 -0.026657142
-0.01660982 0.009579942 0.0074123926 0.007891081 -0.029758116 0.008385116 -0.026069364 -0.020626364
-0.009910816 -0.0012663748 0.013933467 0.0238616 0.018097665 0.012240494 -0.013508992 -0.013935672
-0.007991245 -0.004087413 -0.015459614 -0.025171876 -0.015923182 0.010990051 0.015447687 0.017806605
-0.028169595 -0.025869187 0.017420536 0.015688688 -0.012873995 0.017424209 -0.017989527 0.0024877414
0.014339074 0.009873328 0.02440248 0.021612814 -0.026863148 0.021080166 -0.025184633 0.009457638
-0.022101775 -0.015076853 0.028371755 0.015428559 -0.005155526 0.026011817 -0.0001443634 0.0022115842
0.010206681 -0.0034280105 0.008143466 -0.024904922 -0.00084775506 0.021899061 -0.008387265 -0.011069778
0.008208231 0.0056314836 -0.017288258 0.011851974 -0.023254417 0.019020172 -0.023374394 -0.021967102
-0.017909182 0.017028231 0.016160643 -0.018131796 0.0041147494 -0.024718652 -0.00041704677 -0.01884934
-0.008425725 0.017877221 -0.028359363 0.024878616 0.001732733 -0.005201605 0.01846262 0.028090829
-0.027803184 0.0067048557 0.027179696 0.015032391 0.0016757911 0.014666366 -0.02426424 0.010048151
0.023735141 -0.013796961 0.018351573 -0.0021634777 0.022273928 -0.011695447 0.024971912 -0.008343435
-0.019425958 0.006159303 0.010548753 0.007906882 -0.029552912 0.029167725 -0.015584273 -0.006853974
-0.012760719 0.002592203 -0.016003925 0.004721968 -0.029116713 -0.006797668 -0.027442243 0.005767381
-0.001674667 0.0141120525 -0.022881018 0.013132821 0.026623577 0.0044599134 -0.014822545 -0.0071708914
0.00028413185 -0.010510553 -0.010127963 -0.028103564 0.020493384 0.009952521 0.008610968 -0.0028402607
00000000: c853 a8ba ee38 6fbc 94ff a33b 4144 1abb
00000010: a527 db3c 70cf 943a bca2 ad3b eb9e 55bc
00000020: 607f 9dbc 11c7 f1bc 9653 cbbc af46 d53c
00000030: 34a8 dabc 4ec4 b6bb 964a 353b 5366 f83b
00000040: edd2 85ba 471a 95bc 73f0 c3bc be07 a23b
00000050: 2618 943b 47b9 a63a 5e4e 953c 6e3d ce3c
00000060: 892f 72bc e340 85bc 4c17 c7bc 4981 14bb
00000070: 536f cb3c 9c74 d23c a2b6 e33c 7a3d a13c
00000080: 1b12 9cbc a7c8 933c e887 513c 62a3 21bc
00000090: 2736 1abb 950a a73c 5fd5 8abc 2ef2 223b
000000a0: 3dbd 673c 9c1f 5ebb 8518 c33c ff55 1d3b
000000b0: 91de afbb 94bf fcba ff32 9c3c 2602 c6bc
000000c0: 0918 633b 0972 ce3c 4976 76bc 6043 293c
000000d0: 4096 a53c ad17 49bc e826 b1bc 0f18 d4bc
000000e0: ca82 19bb a3e1 ab3c 7278 20bc b3db 963c
000000f0: ac15 533c 4ff2 323c 3d2e d2bb e26b 893c
00000100: 0ad0 ecbc 00f0 d0bc e561 e83c ae90 b3bc
00000110: 428a ebbc 9f80 ae3c eaee 7dbc c8ad d9bc
00000120: 44a6 babc bd88 483c 9b57 b5bc 8de1 e23c
00000130: b201 84bb ba4a c9bc 051d e0bc d2ef 9f3c
00000140: ba9c 9a3c 0c46 26bc 296b b2ba 07cf 07bc
00000150: 1e56 013c 3abd 7f3c ac07 b03c 546c 7a3c
00000160: a317 d73b d8bb 9bbc 6cbc e9bc fc92 c63c
00000170: 2960 6f3c 771e 463c fc53 e4bc 17ec 32bb
00000180: dfc8 aebb 2b53 9cbc c2be c8bc dba6 cebc
00000190: 80fa 9e3c a829 c1bc 6e25 4dbc 6680 d23b
000001a0: 9922 dcbc 41fd a6bc 6455 02bc 5ee3 8dbc
000001b0: 7b7b 79bc 5609 583a 859b ea3c e875 833b
000001c0: 717a ddbc d694 8cbc b5ce b73c 17a4 843c
000001d0: 6d58 97bc 3d17 af3a 20c9 f4bc 5aab d6bc
000001e0: e9b9 8fbc 13cb 47bc fdfa f2bc 8265 093b
000001f0: 1af0 dabc d517 083b b531 febb 1460 dabc
00000200: 5111 88bc 30f5 1c3c a8e3 f23b 9849 013c
00000210: 4bc7 f3bc ba61 093c 6b8f d5bc 9ff8 a8bc
00000220: fa60 22bc 7dfc a5ba 3249 643c 6779 c33c
00000230: 8e41 943c 5a8c 483c d254 5dbc 7252 64bc
00000240: b6ed 02bc b5ef 85bb 524a 7dbc 4035 cebc
00000250: 5571 82bc 9d0f 343c 4c18 7d3c 28df 913c
00000260: ecc3 e6bc 9eeb d3bc 83b5 8e3c 9085 803c
00000270: 73ed 52bc 37bd 8e3c c65e 93bc 6009 233b
00000280: 6fee 6a3c bdc3 213c b6e7 c73c 5b0d b13c
00000290: 1b10 dcbc 50b0 ac3c 0150 cebc 35f4 1a3c
000002a0: c80e b5bc e804 77bc e26b e83c 11c8 7c3c
000002b0: b0ef a8bb bc16 d53c 4160 17b9 3af0 103b
000002c0: ec39 273c 79a8 60bb 2c6c 053c 6805 ccbc
000002d0: e13b 5eba a965 b33c bd6a 09bc 045e 35bc
000002e0: d17b 063c 4f88 b83b 1ba0 8dbc c82e 423c
000002f0: 0c80 bebc 31d0 9b3c a87b bfbc 5af4 b3bc
00000300: 47b6 92bc ca7e 8b3c 5363 843c 2289 94bc
00000310: 05d5 863b c57e cabc 12a7 dab9 ee69 9abc
00000320: 0d0c 0abc 4073 923c e551 e8bc 3dce cb3c
00000330: df1c e33a 3a72 aabb ec3e 973c bd1e e63c
00000340: 81c3 e3bc 68b4 db3b f4a7 de3c 6b4a 763c
00000350: 38a6 db3a 334b 703c cdc5 c6bc 00a1 243c
00000360: 3370 c23c a60c 62bc 0a56 963c 22c9 0dbb
00000370: d077 b63c 439e 3fbc e591 cc3c e7b2 08bc
00000380: 3023 9fbc fad3 c93b add4 2c3c de8b 013c
00000390: f318 f2bc 27f1 ee3c 2e55 7fbc 4d97 e0bb
000003a0: 5612 51bc f3e1 293b aa1a 83bc bdba 9a3b
000003b0: 2c86 eebc f9be debb 8ece e0bc 4cfc bc3b
000003c0: 8080 dbba 3d36 673c f970 bbbc 0b2b 573c
000003d0: b019 da3c 7724 923b 43da 72bc ccf9 eabb
000003e0: 88f7 9439 7434 2cbc c1ef 25bc 7239 e6bc
000003f0: bee1 a73c e60f 233c 0415 0d3c ab23 3abb

siam_layer.conv1.bias f4 [14]
0.013243269 0.029896725 0.007830504 -0.02579119 0.023425046 0.029426802 -0.021587111 0.00545327
-0.01438779 0.00821913 0.015507054 0.026560917 0.018008836 0.009157915
00000000: 4cfa 583c fae9 f43c 844b 003c 0c48 d3bc
00000010: e2e5 bf3c 7a10 f13c 74d7 b0bc 58b1 b23b
00000020: c4ba 6bbc 88a9 063c 4c11 7e3c 4896 d93c
00000030: 4487 933c 140b 163c

siam_layer.conv2.weight f4 [7, 14, 6, 6]
-0.013373825 -0.04269206 0.007928401 -0.01448698 -0.006137773 0.009131975 -0.034290966 0.023161147
0.0065345704 -0.039184142 -0.017092371 0.025456827 0.014040749 -0.043836676 0.0057822186 0.04396765
0.011496781 0.01996534 -0.017557519 -0.012417835 0.022668328 0.03975491 0.033580936 0.0091083115
-0.009321015 -0.01820544 -0.044262834 0.009702383 0.032015868 0.0012242444 0.039740775 -0.023022782
0.023256622 0.02898136 0.012855398 -0.009339637 -0.04057659 0.032626107 -0.01963086 -0.04130808
0.039179955 0.010416687 -0.019754484 0.033252906 0.021863144 0.03355077 0.029275961 -0.024223227
0.030227534 -0.025633348 -0.034146067 0.016221708 -0.034297775 -0.026838372 0.008440204 0.010982261
-0.033178568 -0.024640793 -0.020271756 -0.0057559554 0.036278438 -0.02586367 -0.02422697 -0.015813548
0.018164732 -0.022016212 -0.044524923 0.007879412 -0.03156168 -0.02643212 0.039558154 0.038166218
-0.033948895 -0.0080893645 -0.010524705 0.013623842 0.026101237 -0.0047847084 0.015031124 0.0014365911
-0.0118360035 0.0010265566 -0.0405607 0.011686696 0.018005641 -0.011679399 0.008853756 -0.04400821
-0.007712051 -0.015120811 -0.041514065 -0.016140642 -0.013717148 0.017323947 0.010507035 -0.034211334
-0.0041512223 0.03812368 0.018975241 -0.013936266 0.040539864 0.015749788 0.036170766 0.033981945
-0.0018902924 0.02448157 0.019412428 -0.04172621 0.038330354 -0.011238765 -0.009463765 -0.02231953
0.015805386 -0.04340883 -0.037012998 0.033533055 0.041202534 0.024479834 -0.013003634 0.018702088
-0.024199938 -0.036345072 0.03349207 -0.008085262 -0.006087017 0.0073447893 0.02389682 0.015068994
-0.010330683 0.010861549 -0.015044945 -0.0038246599 0.025187328 -0.032309934 -0.024239711 -0.007180769
-0.019931024 -0.0061544934 0.032429375 -0.030835923 -0.025504876 0.015065253 -0.040689096 -0.016290158
-0.025249038 -0.0017974081 -0.024358708 -0.0001819708 0.015411875 -0.0034598 -0.024329614 -0.01844967
-0.03785684 0.019179696 0.016054029 -0.016243294 -0.0042269 -0.004970732 0.034000624 -0.0025606756
-0.019298932 0.0073829093 0.039702505 0.02529048 0.02985896 -0.018204479 -0.02143525 0.023718523
-0.0148186 -0.013592353 0.014592202 0.041702725 -0.021650648 -0.040239327 0.005433471 -0.021167098
-0.024763752 0.022568844 0.0035042241 -0.03101719 0.044092502 0.021903798 0.02877171 -0.014374987
-0.04314934 0.030923082 -0.031809952 -0.038971484 0.036800478 -0.005119371 0.01296024 -0.03083302
0.023964442 0.008595403 0.018330064 0.031651657 -0.0062667727 -0.037522953 -0.009317971 -0.029420484
-0.016707443 -0.034183636 0.0065015736 -0.03376693 0.0074255196 0.024667706 0.026796006 -0.027279956
0.008820892 0.008909454 0.032177832 0.028777067 0.008600553 -0.024931183 0.028541565 0.017679136
0.030917874 0.042728674 -0.043511305 -0.002474603 0.025707293 0.022322793 0.012876446 -0.005573988
0.04459487 0.028281735 0.028828952 0.017841712 -0.025691438 -0.009969805 0.009140612 0.0025313627
-0.013020733 0.041827656 -0.014331984 0.03610407 -0.00058785913 -0.01772447 -0.01962953 0.02738908
0.020654848 0.0057207076 0.027319703 0.031316333 -0.03637326 0.033831637 0.006470887 -0.011644051
-0.027545597 0.020674733 0.041741725 0.026192814 -0.03782807 0.014935262 0.038665626 -0.037967756
00000000: e31d 5bbc dfdd 2ebd 20e6 013c cc5a 6dbc
00000010: 5f1f c9bb 479e 153c af74 0cbd 72bc bd3c
00000020: f31f d63b 8d7f 20bd 4d05 8cbc d68a d03c
00000030: 2b0b 663c 168e 33bd c478 bd3b 6c17 343d
00000040: ff5c 3c3c 5a8e a33c c9d4 8fbc 2d74 4bbc
00000050: eeb2 b93c 0bd6 223d 2a8c 093d 073b 153c
00000060: 2cb7 18bc 9323 95bc f24c 35bd bef6 1e3c
00000070: 1223 033d d376 a03a 39c7 223d 469a bcbc
00000080: ac84 be3c 516a ed3c 729f 523c 4705 19bc
00000090: a333 26bd f4a2 053d e6d0 a0bc a932 29bd
000000a0: 297b 203d c0aa 2a3c 28d4 a1bc 3334 083d
000000b0: 561a b33c 886c 093d 24d4 ef3c ca6f c6bc
000000c0: bc9f f73c 07fd d1bc bfdc 0bbd 63e3 843c
000000d0: d37b 0cbd 25dc dbbc c848 0a3c f1ee 333c
000000e0: 40e6 07bd 7ddb c9bc f410 a6bc 749c bcbb
000000f0: b398 143d 0ce0 d3bc a377 c6bc 6a8b 81bc
00000100: 34ce 943c 585b b4bc c45f 36bd a618 013c
00000110: d246 01bd 2c88 d8bc bb07 223d 2e54 1c3d
00000120: ff0d 0bbd 4189 04bc d06f 2cbc 8936 5f3c
00000130: 43d2 d53c 0bc9 9cbb 1b45 763c 004c bc3a
00000140: cceb 41bc 868d 863a fa22 26bd 8e79 3f3c
00000150: 9180 933c f35a 3fbc 580f 113c f441 34bd
00000160: 5fb5 fcbb 47bd 77bc a70a 2abd 6139 84bc
00000170: e4bd 60bc f3ea 8d3c b325 2c3c 2f21 0cbd
00000180: fa06 88bb 9327 1c3d f771 9b3c f054 64bc
00000190: 210d 263d b305 813c cc27 143d a730 0b3d
000001a0: b0c3 f7ba 938d c83c d006 9f3c 1ae9 2abd
000001b0: 4a00 1d3d cc22 38bc e80d 1bbc 72d7 b6bc
000001c0: 4c7a 813c 75cd 31bd f19a 17bd f559 093d
000001d0: fdc3 283d ef89 c83c 320d 55bc 1f35 993c
000001e0: f33e c6bc 92de 14bd fb2e 093d 0c78 04bc
000001f0: 9975 c7bb 8fac f03b 44c3 c33c f1e3 763c
00000200: 0642 29bc a3f4 313c 137f 76bc 25a7 7abb
00000210: a855 ce3c 6c57 04bd 5c92 c6bc a84c ebbb
00000220: 6346 a3bc a2ab c9bb aad4 043d 9e9b fcbc
00000230: 9aef d0bc 40d4 763c 9ca9 26bd f072 85bc
00000240: 12d7 cebc 0297 ebba ea8b c7bc 6acf 3eb9
00000250: 1782 7c3c d0bd 62bb e64e c7bc c323 97bc
00000260: c60f 1bbd bd1e 9d3c bd83 833c a810 85bc
00000270: cf81 8abb 86e1 a2bb 3d44 0b3d 02d1 27bb
00000280: cb18 9ebc 55ec f13b 189f 223d fb2d cf3c
00000290: c79a f43c 8f21 95bc fa98 afbc 594d c23c
000002a0: b7c9 72bc 76b2 5ebc 2214 6f3c 7ad0 2a3d
000002b0: b35c b1bc fed1 24bd 420b b23b 9f66 adbc
000002c0: 5add cabc 4ce2 b83c 20a7 653b c317 febc
000002d0: 579a 343d 986f b33c a6b2 eb3c 1185 6bbc
000002e0: 5dbd 30bd 6752 fd3c 274b 02bd 90a0 1fbd
000002f0: 19bc 163d 66c0 a7bb 3057 543c 8895 fcbc
00000300: 1451 c43c bcd3 0c3c ee28 963c 2ba5 013d
00000310: 8059 cdbb abb1 19bd 67aa 18bc 3a03 f1bc
00000320: 0cde 88bc 2404 0cbd 270b d53b 314f 0abd
00000330: c651 f33b ee13 ca3c 4c83 db3c 377a dfbc
00000340: 8185 103c f5f8 113c e7cc 033d e2bd eb3c
00000350: 55e9 0c3c 7b3c ccbc 00d0 e93c d6d3 903c
00000360: 7b47 fd3c 4304 2f3d e938 32bd f32c 22bb
00000370: 1a98 d23c 4ade b63c bbf7 523c 00a6 b6bb
00000380: 1ca9 363d 19af e73c b22a ec3c c828 923c
00000390: da76 d2bc 6558 23bc 81c2 153c 38e5 253b
000003a0: ea54 55bc 7a53 2b3d b3d0 6abc dce1 133d
000003b0: 8f1a 1aba e832 91bc 1cce a0bc 105f e03c
000003c0: 5b34 a93c c674 bb3b 92cd df3c 8e45 003d
000003d0: 21fc 14bd 0b93 0a3d bc09 d43b b1c6 3ebc
000003e0: 4ea7 e1bc 0f5e a93c 5ff9 2a3d 5092 d63c
000003f0: 9bf1 1abd 07b3 743c d95f 1e3d 1484 1bbd

siam_layer.conv2.bias f4 [7]
0.03018704 0.019988477 -0.017950283 -0.014132177 -0.03968897 0.033790126 -0.021836435
00000000: d04a f73c e0be a33c 790c 93bc a68a 67bc
00000010: e790 22bd 8467 0a3d 53e2 b2bc

siam_layer.conv3.weight f4 [7, 14, 6, 6]
0.009871844 0.02477003 -0.028376838 -0.029850805 0.006287483 0.018598584 0.02195195 0.04193833
-0.029162101 0.020285694 0.012529134 -0.042261798 0.041291755 -0.028071323 -0.0031272862 -0.020373952
-0.040503167 -0.04289962 -0.0038799122 -0.012883653 -0.013580892 0.015910462 -0.028188746 0.03510902
-0.029495697 0.0038033621 -0.036521867 -0.01869594 0.012768643 0.029666409 -0.009841845 0.0041128434
0.011618837 -0.026407631 -0.042082924 -0.027430546 -0.014180109 0.032370545 0.0065541617 0.0034666483
0.022773735 -0.0001909609 0.018857412 0.037410993 0.030201765 0.016057724 -0.021823032 0.0009508585
-0.0047889566 0.011044422 -0.010476464 -0.032121565 0.029202573 0.005688249 -0.023380937 -0.027159227
0.02457721 0.023813393 -0.010587442 -0.024012435 0.0056259907 0.029487794 0.037028804 -0.038720116
0.03303368 -0.0019995347 0.023924338 -0.037597276 -0.0012222746 -0.027545232 0.036917474 -0.0034669766
-0.01775547 0.010672711 0.041350164 -0.04205904 -0.02494896 -0.041799605 0.026695369 -0.029986331
-0.019468045 -0.03540897 0.019578874 -0.013956823 -0.04238135 0.022740273 -0.03696944 -0.0007618468
0.038706385 -0.03613852 0.013330446 -0.0059355907 0.020683248 -0.03934769 0.010875178 -0.013218121
-0.0065307734 -0.035193566 0.02394003 -0.020964557 0.025187146 -0.0042183846 -0.011537094 -0.040536225
-0.041240472 -0.033463106 0.00103457 -0.04110611 0.04100374 -0.037460864 -0.013170108 0.011567199
-0.038358144 0.008290699 -0.027315687 -0.011666629 0.015250612 0.040288545 0.028172472 0.024308667
-0.037903998 0.013873533 0.02212061 -0.043230325 -0.0064176037 -0.04311465 0.03541561 -0.0066952845
-0.003068593 -0.005049263 -0.03057543 0.038082514 0.022354985 -0.039797403 -0.024372248 0.036420662
0.025541462 -0.010397875 -0.015102403 -0.031705946 -0.016182922 -0.0066856197 0.02240137 -0.0001684943
0.0114491945 -0.02444988 0.00090943323 0.036601588 -0.008127271 0.03063554 0.038583547 -0.027938548
0.018944722 -0.035418056 0.03905883 -0.033897925 -0.015099907 -0.0037971972 -0.040777527 0.03799591
-0.029239504 0.033258554 0.02264902 0.008929102 -0.005664898 -0.04064929 -0.020283187 -0.03126613
-0.03942759 -0.008183098 0.0068226974 0.014074481 -0.02773833 0.008911264 -0.008184162 -0.01603532
-0.04253366 -0.0040286346 -0.038139656 -0.029544028 0.044062372 0.0042694663 -0.014802765 0.022836963
-0.029583005 0.011746241 -0.014643231 0.028901583 -0.029184524 0.012381856 0.027441967 0.0263593
0.020799628 -0.005177174 -0.0019810733 -0.04315772 0.033850785 -0.008738706 0.023001138 -0.015305578
-0.035742164 0.010908536 -0.030894497 -0.0033760215 -0.03714624 0.0085320175 -0.004778245 0.0030006333
-0.021889728 0.006285664 -0.015986655 -0.044480395 -0.03770933 -0.026056787 0.019011628 -0.021159068
0.042110942 -0.016028425 -0.03922341 0.0061250785 0.0010804104 -0.007398008 -0.035777 -0.022882802
-0.01895617 -0.006336899 -0.016999202 0.013825731 -0.037227668 -0.032228008 -0.0058829603 0.023720361
0.008223072 0.036036048 -0.03999057 -0.019823158 0.016954817 -0.01443295 -0.019437531 0.024299538
-0.0064705 0.013058494 0.021333218 -0.024898624 -0.035457462 0.024397025 0.033526108 0.023559775
0.0131744025 0.042314265 -0.0107894605 -0.004561164 0.011433033 -0.01835339 -0.030522555 0.04109669
00000000: 84bd 213c 85ea ca3c 8b76 e8bc ad89 f4bc
00000010: 3b07 ce3b 0f5c 983c 93d4 b33c 87c7 2b3d
00000020: 5ce5 eebc 2f2e a63c ff46 4d3c b51a 2dbd
00000030: 8b21 293d d5f5 e5bc 28f3 4cbb 46e7 a6bc
00000040: a6e6 25bd 83b7 2fbd 2046 7ebb f515 53bc
00000050: 6482 5ebc a856 823c 16ec e6bc 7ace 0f3d
00000060: f6a0 f1bc d441 793b f497 15bd 3a28 99bc
00000070: 9233 513c f806 f33c b13f 21bc 08c5 863b
00000080: ef5c 3e3c d154 d8bc 255f 2cbd 06b6 e0bc
00000090: b053 68bc fa96 043d 4bc4 d63b b530 633b
000000a0: fc8f ba3c ad3c 48b9 dc7a 9a3c 453c 193d
000000b0: b169 f73c 7d8b 833c 37c6 b2bc 0943 793a
000000c0: aeec 9cbb aaf3 343c 7aa5 2bbc e791 03bd
000000d0: 3c3a ef3c 7e64 ba3b 6189 bfbc 077d debc
000000e0: 2556 c93c 4e14 c33c f376 2dbc bab5 c4bc
000000f0: 3b5a b83b 6390 f13c 84ab 173d fc98 1ebd
00000100: 534e 073d a00a 03bb f9fc c33c 9aff 19bd
00000110: bb34 a0ba 8aa6 e1bc c736 173d 3736 63bb
00000120: eb73 91bc 98dc 2e3c ca5e 293d 1a46 2cbd
00000130: c361 ccbc 1036 2bbd 3fb0 da3c e5a5 f5bc
00000140: 737b 9fbc ff08 11bd e063 a03c 29ab 64bc
00000150: 1198 2dbd cf49 ba3c 446d 17bd acb6 47ba
00000160: 968a 1e3d fc05 14bd f167 5a3c 587f c2bb
00000170: ea6f a93c 0b2b 21bd cd2d 323c d190 58bc
00000180: 1900 d6bb 2127 10bd e21d c43c ddbd abbc
00000190: 4655 ce3c 603a 8abb 1406 3dbc 5009 26bd
000001a0: c5eb 28bd 9c10 09bd 699a 873a e15e 28bd
000001b0: 8af3 273d 9070 19bd 70c7 57bc 5984 3d3c
000001c0: 6e1d 1dbd b6d5 073c 26c5 dfbc 6425 3fbc
000001d0: b4dd 793c 9a05 253d f5c9 e63c f822 c73c
000001e0: 3941 1bbd d14d 633c 4836 b53c 4812 31bd
000001f0: c34a d2bb fd98 30bd f50f 113d 1e64 dbbb
00000200: 731a 49bb 4a74 a5bb 5379 fabc 69fc 1b3d
00000210: cd21 b73c 9a02 23bd 4fa8 c7bc d52d 153d
00000220: 543c d13c d95b 2abc 1270 77bc 18de 01bd
00000230: 0c92 84bc 0b13 dbbb 1483 b73c d8ad 30b9
00000240: 6795 3b3c 1d4b c8bc 0867 6e3a 8ceb 153d
00000250: 3f28 05bc 62f7 fa3c c809 1e3d 62df e4bc
00000260: f631 9b3c 8612 11bd 27fc 1f3d 8dd8 0abd
00000270: 9a65 77bc 66da 78bb 5606 27bd 99a1 1b3d
00000280: af87 efbc 1f3a 083d 708a b93c 5e4b 123c
00000290: 9ca0 b9bb df7f 26bd ed28 a6bc ea10 00bd
000002a0: d37e 21bd 6712 06bc ef90 df3b a798 663c
000002b0: 7f3b e3bc 8d00 123c dd16 06bc 815c 83bc
000002c0: c637 2ebd a302 84bb 5438 1cbd 5106 f2bc
000002d0: bf7a 343d e1e6 8b3b 4c87 72bc 9514 bb3c
000002e0: 0f58 f2bc 4e73 403c 2aea 6fbc 03c3 ec3c
000002f0: 6214 efbc 45dd 4a3c facd e03c 75ef d73c
00000300: fb63 aa3c 49a5 a9bb e5d4 01bb 26c6 30bd
00000310: 1fa7 0a3d ca2c 0fbc e26c bc3c 3fc4 7abc
00000320: 6066 12bd b7b9 323c 7516 fdbc 3e40 5dbb
00000330: a826 18bd e0c9 0b3c d392 9cbb 46a6 443b
00000340: 1652 b3bc f9f7 cd3b 72f6 82bc 1331 36bd
00000350: 1975 1abd 0b75 d5bc 46be 9b3c c855 adbc
00000360: 867c 2c3d 0b4e 83bc baa8 20bd e2b4 c83b
00000370: 8f9c 8d3a fd6a f2bb e78a 12bd b774 bbbc
00000380: f849 9bbc c3a5 cfbb e941 8bbc 5285 623c
00000390: 0a7c 18bd 8401 04bd d9c5 c0bb 3451 c23c
000003a0: 10ba 063c 899a 133d 27cd 23bd 2d64 a2bc
000003b0: d4e4 8a3c 2e78 6cbc 753b 9fbc d30f c73c
000003c0: 7d06 d4bb 4bf3 553c 00c3 ae3c 33f8 cbbc
000003d0: d83b 11bd 45dc c73c ac52 093d 6e00 c13c
000003e0: 73d9 573c b951 2d3d 47c6 30bc d175 95bb
000003f0: 9e51 3b3c d959 96bc 700a fabc 0155 283d

siam_layer.conv3.bias f4 [7]
0.031832978 0.021045066 0.023771197 -0.0014984198 0.0019340292 0.036293864 0.012830891
00000000: 4c63 023d b466 ac3c d0bb c23c a066 c4ba
00000010: 407f fd3a e0a8 143d a838 523c

siam_layer.conv4.weight f4 [3, 14, 6, 6]
-0.0054592346 -0.00078922015 0.035187174 -0.021441473 0.03141377 0.0003906848 -0.0066979374 -0.002524551
-0.00219812 -0.026941577 0.026748037 -0.028473305 -0.022270529 0.023504332 0.027316205 0.008462995
-0.026994754 -0.01703527 0.0031463883 0.019426586 0.034651086 -0.021468403 -0.036771465 0.0061902865
0.013324411 0.031852804 0.030188998 0.008861943 0.0023843057 0.0028881917 0.012774209 -0.023203673
-0.021172592 0.030884383 0.003309089 -0.014673311 -0.023587715 0.03202627 -0.006204144 -0.041520774
0.018371908 0.036905464 -0.030971661 0.010984147 0.013308656 0.025088012 0.025591625 -0.01848408
-0.029180054 0.021144453 0.044600222 -0.026169334 0.03489657 0.04488442 -0.02108674 -0.005850055
0.0020942024 -0.030530633 0.005461701 0.03257724 0.00045456647 0.018005662 0.002831222 -0.005818321
0.0109149655 -0.04201011 -0.014025212 0.028656477 -0.0031018287 -0.020322196 0.015458929 0.0046774014
-0.00930889 -0.02339818 -0.016459951 0.009771158 0.004740314 -0.010469205 0.039664537 -0.01843906
-0.03232232 -0.041629277 -0.02278593 -0.00866287 0.018568384 -0.04003433 -0.037551083 -0.024234239
0.02213479 -0.025082381 0.01693681 0.016353112 -0.014048218 -0.024787502 0.012928356 -0.034725036
-0.041498262 -0.041791726 0.04101951 -0.013998093 -0.021492667 -0.0129902745 -0.03599961 -0.03939525
-0.012468383 0.025906846 -0.0114139 0.03776186 -0.0052187964 -0.01223166 -0.03708003 0.044115372
0.012949962 0.044571377 0.013945027 0.03413135 -0.0018382249 0.03523154 0.0009197849 0.033773504
0.026542123 0.021576855 0.0002962606 0.02519425 -0.024437323 -0.00955561 0.025336495 0.014920599
0.018942611 -0.024901124 -0.002330701 0.004565375 -0.008452992 -0.022284506 0.0029570754 -0.023135763
-0.026983202 0.039480023 0.026395882 -0.015040419 0.031203005 -0.0010335747 0.033556137 -0.013155941
0.0014232675 -0.027442984 0.043290537 -0.014126877 0.018454319 -0.027860103 -0.033973545 -0.0064670886
-0.029005 0.0035654735 0.01835413 0.026117966 0.009594102 0.026742667 0.03976727 0.029187473
0.037585918 0.003977358 -0.002603894 0.021340592 -0.01475371 -0.041692395 0.0156083135 0.005430515
-0.02632711 0.028588954 0.012065327 0.010429819 -0.04383785 0.026534658 0.00890951 -0.015092409
-0.030906888 -0.014475163 -0.029493293 -0.005340279 0.015871368 -0.013232228 0.030707262 0.011768435
0.037059948 0.018533638 -0.0027066555 0.03147106 0.037050612 -0.0042278254 -0.03646464 -0.0034242154
0.012955584 -0.025220089 -0.036824264 -0.012829816 0.015591789 0.03721716 0.02359027 -0.006230294
0.04311363 -0.0048780646 -0.014560225 -0.010868333 -0.010401298 0.04350729 -0.015919736 -0.018701287
0.021143595 0.03468631 0.03553927 -0.041106287 -0.020098997 0.0052986243 0.019550236 -0.03176855
-0.015215925 0.043253627 0.0051534097 -0.018818978 -0.0023651756 -0.013229398 -0.009533432 0.03447348
0.010064179 0.022791874 -0.016713556 0.01646319 0.019103337 0.025627099 0.034945592 -0.010592674
0.025236085 -0.0042924136 0.021145644 -0.03522225 0.008805942 0.010368396 0.04114887 0.017235355
0.007902686 0.023195632 -0.03468358 -0.013314075 0.028964067 -0.041397255 0.024787182 0.009329224
-0.035878636 0.020319127 0.027899371 0.035290867 0.01144763 -0.039677925 -0.0063597485 0.0364874
00000000: 61e3 b2bb abe3 4eba 6d20 103d 07a6 afbc
00000010: baab 003d d4d4 cc39 5f7a dbbb f072 25bb
00000020: 560e 10bb 95b4 dcbc b31e db3c d940 e9bc
00000030: af70 b6bc 288c c03c 3cc6 df3c 60a8 0a3c
00000040: 1a24 ddbc 8d8d 8bbc a333 4e3b 8124 9f3c
00000050: 4cee 0d3d 81de afbc ad9d 16bd e3d7 ca3b
00000060: a14e 5a3c 1678 023d eb4e f73c af31 113c
00000070: 0342 1c3b d147 3d3b ea4a 513c a115 bebc
00000080: 2572 adbc 3f01 fd3c 4ddd 583b 5468 70bc
00000090: 063b c1bc fa2d 033d 224c cbbb b011 2abd
000000a0: af80 963c 2f2a 173d 48b8 fdbc daf6 333c
000000b0: 8d0c 5a3c 6085 cd3c 87a5 d13c ed6b 97bc
000000c0: 020b efbc 2237 ad3c b9ae 363d 1261 d6bc
000000d0: b5ef 0e3d bad8 373d 19be acbc d1b1 bfbb
000000e0: e33e 093b 611b fabc 12f8 b23b b66f 053d
000000f0: e152 ee39 9c80 933c 068c 393b 9da7 bebb
00000100: afd4 323c cb12 2cbd 01ca 65bc fdc0 ea3c
00000110: 0d48 4bbb bc7a a6bc 7347 7d3c e344 993b
00000120: 5184 18bc 8aad bfbc 05d7 86bc 3517 203c
00000130: a354 9b3b 0787 2bbc 4877 223d 830d 97bc
00000140: 6964 04bd 7683 2abd 8fa9 babc b6ee 0dbc
00000150: b91c 983c 0afb 23bd 2acf 19bd e286 c6bc
00000160: 0554 b53c 9179 cdbc 11bf 8a3c f6f6 853c
00000170: 7f2a 66bc 290f cbbc 75d1 533c d73b 0ebd
00000180: 15fa 29bd cd2d 2bbd 1304 283d 4258 65bc
00000190: 6411 b0bc 29d5 54bc 5474 13bd ea5c 21bd
000001a0: 3048 4cbc 983a d43c 5e01 3bbc 2eac 1a3d
000001b0: 7002 abbb 4d67 48bc 3be1 17bd 52b2 343d
000001c0: 142c 543c 7a90 363d af79 643c 51cd 0b3d
000001d0: 98f0 f0ba f34e 103d b81d 713a 1656 0a3d
000001e0: de6e d93c f2c1 b03c 6d53 9b39 2c64 ce3c
000001f0: c830 c8bc 228f 1cbc 7b8e cf3c 8775 743c
00000200: 892d 9b3c 71fd cbbc adbe 18bb 2499 953b
00000210: 6b7e 0abc ff8d b6bc 7ecb 413b 3687 bdbc
00000220: e00b ddbc ceb5 213d 2d3c d83c 176c 76bc
00000230: 729d ff3c 0379 87ba 2972 093d 048c 57bc
00000240: ef8c ba3a 1cd0 e0bc 6b51 313d 6b74 67bc
00000250: 832d 973c df3a e4bc d827 0bbd dfe9 d3bb
00000260: e59b edbc b8aa 693b 675b 963c 58f5 d53c
00000270: 9530 1d3c 7013 db3c 01e3 223d 911a ef3c
00000280: b1f3 193d 7f54 823b 18a6 2abb 77d2 ae3c
00000290: 8bb9 71bc a5c5 2abd 03ba 7f3c 76f2 b13b
000002a0: f4ab d7bc 6233 ea3c a6ad 453c d5e1 2a3c
000002b0: 518f 33bd 365f d93c 32f9 113c 2746 77bc
000002c0: 7130 fdbc 3c29 6dbc eb9b f1bc 82fd aebb
000002d0: ac04 823c fdcb 58bc cc8d fb3c 65d0 403c
000002e0: 2ccc 173d dbd3 973c 2562 31bb cce7 003d
000002f0: 62c2 173d 9289 8abb f25b 15bd cd68 60bb
00000300: a843 543c 5c9a cebc 0ad5 16bd 2634 52bc
00000310: b474 7f3c 0571 183d 6240 c13c 7e27 ccbb
00000320: eb97 303d 2cd8 9fbb 038e 6ebc 1811 32bc
00000330: 356a 2abc b334 323d 1b6a 82bc 7133 99bc
00000340: 5535 ad3c 3b13 0e3d a091 113d 115f 28bd
00000350: a7a6 a4bc 15a0 ad3b d127 a03c bd1f 02bd
00000360: 374c 79bc b72a 313d efdd a83b 422a 9abc
00000370: 1001 1bbb 1ec0 58bc 1d32 1cbc 1034 0d3d
00000380: 3ae4 243c 06b6 ba3c deea 88bc d0dd 863c
00000390: 9a7e 9c3c ecef d13c 1c23 0f3d e58c 2dbc
000003a0: e8bb ce3c 60a7 8cbb a139 ad3c 3545 10bd
000003b0: cc46 103c 34e0 293c b88b 283d 2931 8d3c
000003c0: 447a 013c c404 be3c 5f10 0ebd 4723 5abc
000003d0: 0d46 ed3c 2b90 29bd 7d0e cb3c 9ad9 183c
000003e0: 7af5 12bd 4c74 a63c 398d e43c 288d 103d
000003f0: d78e 3b3c 5285 22bd 7065 d0bb d073 153d

siam_layer.conv4.bias f4 [3]
-0.018079225 0.023523219 -0.035318844
00000000: e21a 94bc c4b3 c03c 7eaa 10bd

siam_layer.conv5.weight f4 [1, 3, 6, 6]
-0.08759051 -0.044853255 0.009411993 0.07898332 -0.009961395 0.05769986 0.062594324 0.02411673
-0.059220403 -0.036057185 -0.0898528 0.0749476 -0.09023267 0.01664511 -0.06893339 0.05102818
0.07278004 -0.024377218 -0.014441598 -0.032769814 -0.018969882 -0.09564612 -0.058492426 -0.04172718
0.018860051 0.05577347 0.036724385 0.011101578 -0.07948942 -0.024007412 -0.048165478 -0.030548131
0.027610635 -0.06649944 0.06761223 0.05089449 0.04911023 -0.06554366 -0.023908056 -0.034161527
0.028056007 -0.005320113 -0.018966429 -0.0021843049 0.00023820446 0.028592201 -0.02005324 -0.024075551
0.07333821 0.08667849 0.019127525 0.08596725 -0.07896169 0.09363213 -0.07867174 -0.062641665
-0.0077627297 -0.07322041 -0.038584426 -0.05164915 -0.08088792 0.06153668 0.078091815 0.0044625374
0.025607647 -0.021119101 -0.040255737 -0.012772355 0.06755243 0.091964945 0.01387412 -0.0063752737
0.09037452 0.0071727163 -0.09647778 -0.058370955 -0.011282561 -0.023102073 0.08903155 -0.053922817
0.02000616 -0.010908586 0.062342044 0.04912102 0.014770753 -0.022782056 -0.053577825 -0.091703
0.048953287 0.0364018 0.039204784 0.025908995 0.08030381 0.030007582 0.009581309 -0.04022481
0.06414552 -0.0620946 0.021917423 0.029206071 -0.005139073 0.077294804 0.04911132 -0.08450463
-0.03480972 -0.038743567 0.04303931 0.0083847735
00000000: a762 b3bd 0cb8 37bd c334 1a3c 02c2 a13d
00000010: 1e35 23bc b056 6c3d 7431 803d 7390 c53c
00000020: 1891 72bd b3b0 13bd bf04 b8bd 217e 993d
00000030: e8cb b8bd 535b 883c f32c 8dbd ed02 513d
00000040: b40d 953d bbb2 c7bc 749c 6cbc a439 06bd
00000050: ba66 9bbc 1de2 c3bd c195 6fbd 1fea 2abd
00000060: 6580 9a3c b972 643d 4f6c 163d 65e3 353c
00000070: 59cb a2bd 31ab c4bc 2a49 45bd 1340 fabc
00000080: b32f e23c dc30 88bd 4878 8a3d be76 503d
00000090: cf27 493d c13b 86bd d4da c3bc f5ec 0bbd
000000a0: b6d5 e53c 5854 aebb 7c5f 9bbc 8e26 0fbb
000000b0: 86c6 7939 313a ea3c b146 a4bc 173a c5bc
000000c0: 5832 963d 7e84 b13d 54b1 9c3c 990f b03d
000000d0: abb6 a1bd 34c2 bf3d a61e a1bd 464a 80bd
000000e0: 7f5e febb 95f4 95bd b40a 1ebd 0f8e 53bd
000000f0: 91a8 a5bd e30d 7c3d 9aee 9f3d 7a3a 923b
00000100: 21c7 d13c f701 adbc 33e3 24bd 2443 51bc
00000110: ee58 8a3d 1e58 bc3d 4750 633c ace7 d0bb
00000120: 4716 b93d 1b09 eb3b 2496 c5bd 6216 6fbd
00000130: 7eda 38bc 8f40 bdbc 2c56 b63d 2cde 5cbd
00000140: f5e3 a33c edb9 32bc 5f5a 7f3d 1f33 493d
00000150: 0701 723c 6fa1 babc 6c74 5bbd c8ce bbbd
00000160: 3e83 483d 0e1a 153d 3295 203d 1a3f d43c
00000170: 5376 a43d 76d2 f53c ecfa 1c3c c5c2 24bd
00000180: ba5e 833d e856 7ebd 2b8c b33c 9241 ef3c
00000190: ab65 a8bb bd4c 9e3d f428 493d c310 adbd
000001a0: a394 0ebd 93b1 1ebd fd49 303d 4a60 093c

siam_layer.conv6.weight f4 [1, 3, 6, 6]
-0.01081487 -0.009211873 0.058967084 -0.022139765 0.068860345 -0.08156126 0.07825005 0.029786073
0.04102722 -0.061901372 -0.09183824 -0.09576133 -0.0108254505 0.09350269 0.09414572 0.0074283
0.09133417 -0.08950799 -0.0036900511 0.07216115 0.03135046 0.09063447 0.02586612 -0.0953304
-0.08674795 0.012445723 -0.0517845 0.016057014 0.031009069 0.09170851 0.022231912 0.0043160254
-0.080509365 0.08957802 0.055331927 -0.047618926 -0.07360562 -0.056506824 0.0018471874 -0.030680912
-0.033138376 -0.084279075 -0.04305917 -0.0397709 0.056878913 0.048412673 0.04366184 -0.0061322246
-0.0767517 -0.00035618446 0.056628264 0.031921625 0.04009299 0.06606802 -0.018763691 -0.019591978
-0.012233646 -0.017267508 -0.049229324 -0.0581875 0.076549284 0.05557534 -0.06750078 0.011243027
-0.04844822 -0.0069883107 -0.07742091 -0.0774378 0.08462347 0.050309375 0.06270957 0.034512058
-0.0736574 -0.039018814 0.051096838 -0.012475535 -0.07408945 -0.095394924 -0.09609771 -0.044313826
0.04483024 0.08649195 0.049430277 -0.055953324 -0.043359756 0.016770702 -0.09468939 -0.08596122
-0.07379875 0.027731976 -0.031599198 -0.03843802 0.075715505 0.057637148 0.029641284 -0.054110073
-0.030476559 0.0028759392 -0.05070526 -0.05110757 -0.09557402 -0.060700975 -0.09034921 0.0597398
0.011649516 -0.026017943 0.07954441 -0.03956023
00000000: da30 31bc 65ed 16bc 7887 713d 745e b5bc
00000010: a706 8d3d 9709 a7bd 9041 a03d ec01 f43c
00000020: 290c 283d 4b8c 7dbd b015 bcbd 841e c4bd
00000030: 3b5d 31bc 577e bf3d 79cf c03d 1969 f33b
00000040: 690d bb3d f74f b7bd c9d4 71bb 3ac9 933d
00000050: 5769 003d 919e b93d 2fe5 d33c 963c c3bd
00000060: e9a8 b1bd 25e9 4b3c fc1b 54bd 008a 833c
00000070: bb06 fe3c acd1 bb3d b31f b63c 726d 8d3b
00000080: 18e2 a4bd ae74 b73d bba3 623d 100c 43bd
00000090: 8bbe 96bd b373 67bd 531d f23a 8956 fbbc
000000a0: 1bbc 07bd 829a acbd d05e 30bd d0e6 22bd
000000b0: ddf9 683d 5e4c 463d c2d6 323d d4f0 c8bb
000000c0: ff2f 9dbd 45be bab9 0af3 673d 40c0 023d
000000d0: 8c38 243d ac4e 873d 50b6 99bc 5b7f a0bc
000000e0: a16f 48bc 9774 8dbc b0a4 49bd 0456 6ebd
000000f0: dfc5 9c3d f8a2 633d d93d 8abd ac34 383c
00000100: a471 46bd 33fe e4bb db8e 9ebd b697 9ebd
00000110: 124f ad3d 3411 4e3d e06d 803d 845c 0d3d
00000120: b1d9 96bd 31d2 1fbd eb4a 513d 3066 4cbc
00000130: 36bc 97bd 6a5e c3bd e0ce c4bd 6a82 35bd
00000140: ea9f 373d b122 b13d 6777 4a3d 502f 65bd
00000150: 009a 31bd b662 893c 83ec c1bd 700c b0bd
00000160: cd23 97bd 2b2e e33c 296e 01bd 2f71 1dbd
00000170: bb10 9b3d ee14 6c3d 47d2 f23c 86a2 5dbd
00000180: faa9 f9bc 417a 3c3b 52b0 4fbd 2c56 51bd
00000190: 50bc c3bd 96a1 78bd 0209 b9bd b8b1 743d
000001a0: 9ddd 3e3c 9523 d5bc 2ee8 a23d e809 22bd

siam_layer.conv7.weight f4 [1, 2, 6, 6]
0.028963048 0.063619316 -0.08368349 0.11001506 0.012842125 0.08034785 0.034323618 -0.10121463
-0.08015728 -0.07221783 0.09434601 -0.0011531275 -0.055105746 0.001658086 -0.11153012 0.09087919
-0.11179931 -0.009436805 -0.041846815 -0.021077035 -0.1115508 0.017423514 0.11177124 -0.024430024
0.023286566 0.015980348 0.08431921 -0.015761174 0.10776735 5.8006462e-05 -0.09005296 0.029312095
0.006401392 -0.023781853 -0.0955806 0.046786968 0.09104684 -0.035346914 -0.10711482 -0.06521202
0.040505674 0.089534685 0.05680582 0.06586137 -0.06416918 -0.06871146 0.11025754 -0.098457284
-0.107030794 0.008744619 -0.09495319 -0.0072817295 0.035365637 -0.09007406 -0.050737027 0.114744484
-0.11266624 -0.09366911 -0.092082016 -0.018452065 0.028006457 0.027642997 0.10000668 0.03336596
-0.0985821 0.035295766 -0.114127204 -0.07563143 -0.015448905 0.06923899 0.024878537 0.10658706
00000000: ea43 ed3c d84a 823d 4062 abbd 934f e13d
00000010: c767 523c 6a8d a43d ec96 0c3d 9e49 cfbd
00000020: 8029 a4bd f1e6 93bd 7b38 c13d 8a24 97ba
00000030: 90b6 61bd 2254 d93a e769 e4bd de1e ba3d
00000040: 09f7 e4bd d49c 1abc 9167 2bbd bfa9 acbc
00000050: bf74 e4bd c2bb 8e3c 52e8 e43d 7921 c8bc
00000060: 78c3 be3c 38e9 823c 8daf ac3d 941d 81bc
00000070: 21b5 dc3d f74b 7338 b06d b8bd eb1f f03c
00000080: c5c2 d13b 29d2 c2bc c3bf c3bd b1a3 3f3d
00000090: c476 ba3d edc7 10bd 045f dbbd e18d 85bd
000000a0: 47e9 253d f65d b73d 38ad 683d 53e2 863d
000000b0: 226b 83bd 98b8 8cbd b5ce e13d f9a3 c9bd
000000c0: f632 dbbd 9745 0f3c d176 c2bd 939b eebb
000000d0: 8fdb 103d c078 b8bd a1d1 4fbd 28ff ea3d
000000e0: 8fbd e6bd 97d5 bfbd 7f95 bcbd c928 97bc
000000f0: cc6d e53c 9173 e23c 4dd0 cc3d bfaa 083d
00000100: 69e5 c9bd 4b92 103d 86bb e9bd a7e4 9abd
00000110: 671d 7dbc 2ccd 8d3d 13ce cb3c 514a da3d

dense.weight f4 [1, 308]
-0.03344298 0.039956823 -0.03618057 0.048739284 -0.01617507 0.017794523 0.0119917905 -0.0065494315
0.002307336 -0.002950901 -0.046673354 -0.023214227 -0.0056704315 0.022467654 -0.04017287 -0.034463122
-0.031831667 -0.00036622316 0.01973483 0.010546194 -0.03967896 0.032676052 0.015478345 0.038873937
-0.038731482 -0.000745234 -0.0037957032 0.026452685 -0.023100035 0.039111935 0.024470292 0.01838211
-0.027195035 -0.010913721 -0.016298579 -0.034732807 -0.033454422 0.0022343772 0.021828761 0.009855171
-0.012062877 0.0021830692 0.019142933 -0.019360334 -0.047914118 -0.05109777 0.00026340282 0.0033788204
0.002472429 0.031064043 0.04744005 -0.051581234 -0.01754546 -0.002762002 -0.041320637 0.0055499277
-0.05064761 -0.04728337 0.029024635 0.0549854 0.050186135 -0.04499496 0.007009168 0.043064572
0.00792444 0.04010056 0.051098466 0.037157945 -0.038593087 -0.010898084 0.025097102 0.007964466
-0.02074129 -0.007647055 -0.013337654 0.05447752 -0.0342491 0.04237275 -0.048051663 0.039979268
-0.027743787 0.0011097534 -0.014586617 0.0055230185 -0.010052546 0.01765513 -0.043611333 -0.014289282
-0.0170197 -0.053461898 0.0080309715 0.033338226 -0.009559683 -0.03387727 -0.05156081 0.02911809
-0.05494102 0.0060157073 -0.032479845 0.053035315 0.01831618 0.03873311 0.043253485 -0.026055845
-0.03283484 -0.0019562822 -0.006544652 -0.050499734 0.021153074 -0.046899192 0.01978817 -0.018328426
0.0077679255 -0.03380409 0.013370104 0.004466587 -0.018204842 0.035766393 0.031302627 -4.6283856e-07
-0.040503222 -0.048520975 0.003739746 0.03906252 -0.024942983 -0.025794113 -0.053328846 -0.051252827
-0.0124792475 0.0055931276 0.0023096646 -0.013684879 -0.025931247 -0.051552262 0.04515238 -0.044639032
0.03273736 0.026470693 0.0095014535 -0.041588873 -0.033649974 0.025789952 -0.05112799 0.021183895
-0.00037598153 -0.03892722 -0.00948218 0.030081552 -0.051887866 0.015621738 0.0013177736 -0.048215084
-0.027214793 0.023767196 0.016824398 0.004575063 0.0035189146 0.05549865 0.027533071 0.045101915
0.041183833 0.051714335 -0.054814745 -0.010932257 0.0386475 0.0347881 -0.009261826 0.052945353
0.04113893 -0.019268908 -0.05062988 0.021658204 0.032626703 -0.00041176745 0.054581374 -0.013945013
-0.018964011 0.048675656 0.030379988 0.043154802 -0.052427765 0.040976536 -0.013277345 -0.04492469
0.04244428 0.030897323 0.037671544 0.0054935883 0.006484507 0.035205368 -0.025833366 -0.021420276
0.004273169 -0.005281332 0.017492747 0.001598498 0.039248515 -0.011069903 0.051739812 0.055541907
-0.0060910336 0.024160579 0.014027957 0.034604445 -0.03024011 0.03731687 0.04435545 -0.017673042
0.030597556 -0.015677297 -0.038513564 0.03856372 -0.022280645 0.03512854 -0.036934406 0.026229009
-0.025475811 0.052823354 -0.0396952 -0.025744595 0.04768616 0.01914104 0.029392077 0.022422882
-0.031322893 0.013988682 0.045847625 0.017118026 0.0025824693 -0.035807677 0.053707354 0.027491378
-0.008507531 -0.022761494 0.054400854 -0.023405418 -0.021228787 0.034089852 -0.0558699 -0.010818743
0.038913727 -0.032441564 0.02594997 -0.028265433 0.029269248 -0.047262233 0.017051047 0.039028607
-0.007855876 0.016161747 0.021434005 0.023434285 0.0330151 -0.044037677 -0.048959237 -0.013025154
00000000: 82fb 08bd c4a9 233d 1432 14bd d8a2 473d
00000010: 9581 84bc d2c5 913c 3779 443c 9d9c d6bb
00000020: ad36 173b e763 41bb 8f2c 3fbd c32b bebc
00000030: 07cf b9bb 160e b83c 4f8c 24bd 3429 0dbd
00000040: ec61 02bd a401 c0b9 f0aa a13c f2c9 2c3c
00000050: 6886 22bd 53d7 053d e298 7d3c 473a 1f3d
00000060: e7a4 1ebd cf5b 43ba 55c1 78bb 4db3 d83c
00000070: 493c bdbc d633 203d ec75 c83c 1496 963c
00000080: 1fc8 debc 77cf 32bc 9984 85bc fd43 0ebd
00000090: 8107 09bd a16e 123b 3bd2 b23c 9577 213c
000000a0: 60a3 45bc d311 0f3b a4d1 9c3c 9099 9ebc
000000b0: 9841 44bd e54b 51bd 5419 8a39 336f 5d3b
000000c0: 7a08 223b 057a fe3c 7f50 423d d846 53bd
000000d0: 7fbb 8fbc b402 35bb d43f 29bd 2bdc b53b
000000e0: de73 4fbd 35ac 41bd 12c5 ed3c 5f38 613d
000000f0: fa8f 4d3d a34c 38bd 2aad e53b 7a64 303d
00000100: 83d5 013c 7c40 243d a04c 513d ee32 183d
00000110: c913 1ebd e18d 32bc 7098 cd3c 647d 023c
00000120: a3e9 a9bc 2694 fabb 2d86 5abc d223 5f3d
00000130: c948 0cbd 0c8f 2d3d d2d1 44bd 4dc1 233d
00000140: f046 e3bc 2575 913a b5fc 6ebc 70fa b43b
00000150: 6fb3 24bc 7ea1 903c cca1 32bd 981d 6abc
00000160: e66c 8bbc ddfa 5abd 5694 033c aa8d 083d
00000170: 37a0 1cbc e4c2 0abd 6e31 53bd 1089 ee3c
00000180: d609 61bd 691f c53b 9609 05bd 8f3b 593d
00000190: d00b 963c 9ca6 1e3d 912a 313d 1173 d5bc
000001a0: d37d 06bd f834 00bb 8574 d6bb cfd8 4ebd
000001b0: 3649 ad3c 5e19 40bd cd1a a23c 7f25 96bc
000001c0: 158a fe3b 2876 0abd 480e 5b3c 735c 923b
000001d0: 5222 95bc c87f 123d 2f37 003d 0c7c f8b4
000001e0: b5e6 25bd eebd 46bd 8716 753b 0500 203d
000001f0: 3a55 ccbc 2d4e d3bc 596f 5abd 7cee 51bd
00000200: c275 4cbc 8e46 b73b be5d 173b 8b36 60bc
00000210: c46d d4bc 7728 53bd b4f1 383d 6bd7 36bd
00000220: 9c17 063d 11d9 d83c fcab 1b3c 1859 2abd
00000230: 8ed4 09bd 7345 d33c 956b 51bd d989 ad3c
00000240: 631f c5b9 2672 1fbd 255b 1bbc 966d f63c
00000250: 5f88 54bd 51f2 7f3c 25b9 ac3a 2e7d 45bd
00000260: 8ff1 debc 6cb3 c23c 52d3 893c 69ea 953b
00000270: 979d 663b 8d52 633d 098d e13c c9bc 383d
00000280: 61b0 283d 69d2 533d 6d85 60bd 361d 33bc
00000290: d74c 1e3d f77d 0e3d eabe 17bc 3add 583d
000002a0: 4b81 283d d4d9 9dbc 4761 4fbd 8c6c b13c
000002b0: 94a3 053d 7ee2 d7b9 b890 5f3d a079 64bc
000002c0: 6a5a 9bbc 2060 473d 74df f83c 17c3 303d
000002d0: 7fbe 56bd 03d7 273d 3989 59bc f402 38bd
000002e0: 0eda 2d3d 621c fd3c 7a4d 1a3d 8f03 b43b
000002f0: fd7b d43b 8133 103d 7fa0 d3bc 9379 afbc
00000300: f105 8c3b 060f adbb f34c 8f3c b184 d13a
00000310: 0dc3 203d 8a5e 35bc 20ed 533d e97f 633d
00000320: 4b97 c7bb 68ec c53c 84d5 653c 64bd 0d3d
00000330: 1bba f7bc 93d9 183d 0fae 353d 0ec7 90bc
00000340: baa7 fa3c ad6d 80bc 66c0 1dbd fef4 1d3d
00000350: e685 b6bc f2e2 0f3d 8848 17bd 38de d63c
00000360: a6b2 d0bc 4d5d 583d 6f97 22bd 54e6 d2bc
00000370: 9052 433d accd 9c3c a7c7 f03c 31b0 b73c
00000380: 6f4c 00bd c930 653c b8ca 3b3d 1a3b 8c3c
00000390: a53e 293b 12ab 12bd 3efc 5b3d 9935 e13c
000003a0: 2c63 0bbc 5076 babc 6ed3 5e3d b8bc bfbc
000003b0: fee7 adbc cda1 0b3d d6d7 64bd 1941 31bc
000003c0: 0064 1f3d 72e1 04bd 0895 d43c e98c e7bc
000003d0: 10c6 ef3c 0b96 41bd a3ae 8b3c 76dc 1f3d
000003e0: efb5 00bc a465 843c 5e96 af3c 42f9 bf3c
000003f0: d73a 073d da60 34bd 7b89 48bd 7567 55bc
