siamese-classifier/siam_v3_95.pth (torch, 104363 bytes, 12 tensors)

siam_layer.conv1.weight f4 [14, 31, 6, 6]
000000 b9 63 a9 ba a1 58 6f bc 32 dd a3 3b 69 be 1a bb
       -0.0012923396 -0.014608533 0.005000734 -0.0023612028
000010 69 17 db 3c 27 fe 93 3a 2d 57 ad 3b c6 c3 55 bc
       0.026744561 0.0011290953 0.005289933 -0.013047164
000020 87 89 9d bc 4a d5 f1 bc b5 5e cb bc 98 42 d5 3c
       -0.019230617 -0.02952065 -0.024825433 0.026032731
000030 7e b7 da bc 7b fc b6 bb 78 e8 34 3b fa 35 f8 3b
       -0.026698824 -0.0055842972 0.0027604382 0.007574794
000040 b8 3a 86 ba b0 31 95 bc 95 00 c4 bc 19 fe a1 3b
       -0.0010240888 -0.01821217 -0.023926059 0.004943621
000050 7c 01 94 3b 2b 5f a6 3a db 46 95 3c 78 3b ce 3c
       0.0045167785 0.0012693157 0.018222263 0.025174841
000060 1e 2f 72 bc b3 3c 85 bc 59 1b c7 bc 8f 5b 14 bb
       -0.014781741 -0.016264295 -0.024305033 -0.002263758
000070 5e 67 cb 3c 41 6c d2 3c e4 b9 e3 3c 24 3d a1 3c
       0.024829563 0.025686385 0.0277986 0.019682474
000080 0c 11 9c bc 3a d2 93 3c 3f 99 51 3c af 9f 21 bc
       -0.019051097 0.01804458 0.012792884 -0.009864732
000090 51 c7 1a bb e5 fb a6 3c 19 df 8a bc 09 62 22 3b
       -0.0023617337 0.020383785 -0.016952084 0.0024777672
0000a0 26 92 67 3c c7 de 5e bb 13 13 c3 3c c1 37 1d 3b
       0.014133966 -0.0034007297 0.023812806 0.002398953
0000b0 4e bc af bb 4d d8 fc ba 7f 35 9c 3c a8 f3 c5 bc
       -0.005363024 -0.0019290537 0.019068478 -0.024164036
0000c0 8d c8 62 3b d1 64 ce 3c 06 95 76 bc 62 33 29 3c
       0.00346044 0.025194557 -0.015050178 0.010327192
0000d0 91 93 a5 3c 07 62 49 bc 71 32 b1 bc f8 18 d4 bc
       0.020211967 -0.012291438 -0.021630498 -0.025890812
0000e0 c5 e8 19 bb 09 e0 ab 3c 08 7b 20 bc 7d df 96 3c
       -0.0023484689 0.020980852 -0.009794958 0.018417114
0000f0 e0 2b 53 3c 2b 09 33 3c d3 26 d2 bb 8f 78 89 3c
       0.012888879 0.010927479 -0.0064133196 0.01678112
000100 cd d7 ec bc 1a f3 d0 bc f3 75 e8 3c 6b 86 b3 bc
       -0.028911496 -0.025506545 0.028376555 -0.021914681
000110 5a 7b eb bc 3a 9c ae 3c 51 be 7d bc 6a 9d d9 bc
       -0.028745342 0.021314729 -0.0154872695 -0.026564319
000120 59 ba ba bc a3 76 48 3c 74 5f b5 bc 62 c8 e2 3c
       -0.022793936 0.012235316 -0.022140242 0.02768344
000130 d4 5f 84 bb e3 60 c9 bc 1e 2f e0 bc 70 db 9f 3c
       -0.004039744 -0.024582332 -0.027366217 0.019513816
000140 e2 97 9a 3c 33 47 26 bc 89 05 b3 ba 56 d2 07 bc
       0.018871251 -0.010148811 -0.0013658266 -0.008289894
000150 75 41 01 3c 81 a1 7f 3c 58 fb af 3c 6e 3b 7a 3c
       0.007889141 0.01560247 0.021482155 0.015272958
000160 ec 12 d7 3b ad d9 9b bc 11 d0 e9 bc de 8a c6 3c
       0.006563535 -0.019024694 -0.028541597 0.024236139
000170 55 4a 6f 3c 23 1a 46 3c af 5c e4 bc 85 2c 33 bb
       0.0146051245 0.012091192 -0.027876226 -0.0027339768
000180 f1 d9 ae bb 1b 46 9c bc 57 c2 c8 bc ff 99 ce bc
       -0.0053360392 -0.019076398 -0.024506731 -0.025219915
000190 25 ea 9e 3c 6b 2e c1 bc a0 04 4d bc b3 95 d2 3b
       0.019398758 -0.023581704 -0.01251331 0.006426537
0001a0 4e 18 dc bc de e3 a6 bc c1 12 02 bc 00 e6 8d bc
       -0.026867058 -0.020372327 -0.007939042 -0.017321587
0001b0 0f ba 79 bc 35 b0 56 3a 00 9d ea 3c 85 2b 83 3b
       -0.015242114 0.0008189709 0.028639317 0.0040029907
0001c0 d3 98 dd bc 67 ab 8c bc 3f ab b7 3c 8e 8e 84 3c
       -0.027050411 -0.017171575 0.022420524 0.016181257
0001d0 b4 5e 97 bc 68 5d ae 3a 71 e1 f4 bc 8a b3 d6 bc
       -0.018477775 0.0013302984 -0.029892655 -0.026208658
0001e0 06 d6 8f bc 08 e7 47 bc 8c 02 f3 bc 67 c4 08 3b
       -0.017558109 -0.012201078 -0.0296643 0.0020869018
0001f0 54 f8 da bc ee 38 07 3b 99 c6 fe bb a8 58 da bc
       -0.02672974 0.0020633298 -0.0077751395 -0.026653603
000200 49 19 88 bc 82 e1 1c 3c 32 97 f2 3b ef 35 01 3c
       -0.01661362 0.00957525 0.007403278 0.007886394
000210 a8 d8 f3 bc 1a 87 09 3c c3 9c d5 bc 90 ef a8 bc
       -0.029766396 0.008394027 -0.026075726 -0.020622045
000220 ca 6f 22 bc b7 a5 a6 ba ff 43 64 3c 35 7e c3 3c
       -0.009914348 -0.0012714182 0.013932227 0.023863891
000230 7a 3e 94 3c c1 a6 48 3c c4 37 5d bc 88 69 64 bc
       0.018096197 0.0122467885 -0.013502065 -0.013941176
000240 cc 31 03 bc 14 33 86 bb 15 47 7d bc 87 42 ce bc
       -0.008007478 -0.0040954445 -0.015458842 -0.025178207
000250 b1 90 82 bc 12 dc 33 3c 64 d2 7c 3c b7 cb 91 3c
       -0.015938135 0.010977762 0.01543102 0.017797334
000260 cc c3 e6 bc 48 03 d4 bc ee a0 8e 3c 85 86 80 3c
       -0.028169535 -0.02588047 0.017410722 0.015689144
000270 f2 2a 53 bc 92 ac 8e 3c 4a 6a 93 bc a8 a2 22 3b
       -0.012888657 0.017416272 -0.017995019 0.002481619
000280 b5 e4 6a 3c 37 74 21 3c 7e c1 c7 3c 42 1d b1 3c
       0.014336755 0.009854368 0.024384256 0.021620397
000290 4a 19 dc bc fb a5 ac 3c 23 63 ce bc ce e5 1a 3c
       -0.026867528 0.02107524 -0.025193756 0.009454204
0002a0 81 1b b5 bc fe e3 76 bc a7 5b e8 3c e4 d9 7c 3c
       -0.022107841 -0.015069006 0.028364016 0.015432809
0002b0 04 10 a9 bb a0 08 d5 3c f0 ea 19 b9 a9 0e 11 3b
       -0.00515938 0.02600509 -0.00014678738 0.0022133982
0002c0 be 36 27 3c 72 34 60 bb 27 7a 05 3c 9e 08 cc bc
       0.010205923 -0.0034210947 0.008146799 -0.024906453
0002d0 c3 fc 61 ba 1f 4d b3 3c 66 70 09 bc a1 74 35 bc
       -0.0008620733 0.02188736 -0.008388614 -0.01107517
0002e0 1c 39 06 3c 43 11 b8 3b 1f b3 8d bc 60 14 42 3c
       0.008192327 0.005617292 -0.017297326 0.011845678
0002f0 99 74 be bc b9 b0 9b 3c 2d 80 bf bc 3d da b3 bc
       -0.023248957 0.019005166 -0.023376549 -0.02195465
000300 93 c6 92 bc cf 6b 8b 3c fe 4c 84 3c e0 89 94 bc
       -0.017916953 0.01701918 0.016149994 -0.01813215
000310 85 ec 86 3b 81 be ca bc 10 9a e1 b9 ae 57 9a bc
       0.004117551 -0.024749042 -0.0004303013 -0.018840637
000320 0d 34 0a bc ef 6d 92 3c 79 5d e8 bc b7 d9 cb 3c
       -0.008435261 0.017874686 -0.028364884 0.024884088
000330 b1 f0 e3 3a 38 3e aa bb 4a 32 97 3c 97 2e e6 3c
       0.0017390457 -0.0051954053 0.018456597 0.028098388
000340 53 d6 e3 bc 6a 7a db 3b 16 b4 de 3c c2 45 76 3c
       -0.027812159 0.0066979425 0.027185481 0.01503128
000350 d5 78 dc 3a 6d 87 70 3c d0 b9 c6 bc a7 d1 24 3c
       0.0016820679 0.0146807255 -0.024258524 0.010059751
000360 ae 5c c2 3c 8d 2e 62 bc 9f 4b 96 3c a6 0b 0e bb
       0.023725834 -0.013805044 0.018346606 -0.0021674423
000370 63 6e b6 3c a9 b0 3f bc eb 98 cc 3c 60 a1 08 bc
       0.022269433 -0.011699834 0.02497526 -0.008339256
000380 79 14 9f bc 32 ef c9 3b 78 ec 2c 3c e4 97 01 3c
       -0.019418942 0.0061625475 0.010554425 0.007909749
000390 7b 21 f2 bc 8e e7 ee 3c 45 6a 7f bc 80 d8 e0 bb
       -0.02955698 0.029163148 -0.0155893015 -0.0068617463
0003a0 d2 27 51 bc 8a 55 29 3b ed 19 83 bc 7f ac 9a 3b
       -0.012765842 0.0025838339 -0.016003573 0.00472027
0003b0 ea 8c ee bc e6 bc de bb 78 d5 e0 bc 29 e3 bc 3b
       -0.029119927 -0.006797421 -0.02744554 0.0057643843
0003c0 a5 36 db ba 1e 4e 67 3c ad 6c bb bc e8 36 57 3c
       -0.0016724659 0.014117746 -0.02287897 0.013135649
0003d0 f0 1e da 3c f4 46 92 3b 48 be 72 bc d6 a5 ea bb
       0.02662608 0.0044640247 -0.014815874 -0.0071608825
0003e0 8b 05 9a 39 b6 15 2c bc 16 d7 25 bc 9a 28 e6 bc
       0.000293773 -0.010503223 -0.010122081 -0.028095532
0003f0 e7 d0 a7 3c bc f4 22 3c f6 e2 0c 3c d9 60 3a bb
       0.020485355 0.009946045 0.008599034 -0.0028439073

siam_layer.conv1.bias f4 [14]
000000 4c fa 58 3c fa e9 f4 3c 84 4b 00 3c 0c 48 d3 bc
       0.013243269 0.029896725 0.007830504 -0.02579119
000010 e2 e5 bf 3c 7a 10 f1 3c 74 d7 b0 bc 58 b1 b2 3b
       0.023425046 0.029426802 -0.021587111 0.00545327
000020 c4 ba 6b bc 88 a9 06 3c 4c 11 7e 3c 48 96 d9 3c
       -0.01438779 0.00821913 0.015507054 0.026560917
000030 44 87 93 3c 14 0b 16 3c
       0.018008836 0.009157915

siam_layer.conv2.weight f4 [7, 14, 6, 6]
000000 62 e6 5a bc 28 d1 2e bd a8 fe 01 3c 61 35 6d bc
       -0.013360592 -0.042679936 0.00793425 -0.014478059
000010 da bc c8 bb c3 d9 15 3c 9e 6b 0c bd 78 c6 bd 3c
       -0.0061260285 0.009146157 -0.03428232 0.023165926
000020 58 10 d6 3b 20 7d 20 bd c3 0d 8c bc d6 99 d0 3c
       0.00653271 -0.03918183 -0.017096406 0.02546398
000030 8e d0 65 3c 00 9a 33 bd 22 06 bd 3b bf 10 34 3d
       0.014026774 -0.043848038 0.0057685534 0.043961283
000040 f2 52 3c 3c 33 91 a3 3c 41 cc 8f bc 38 4d 4b bc
       0.011494385 0.019966697 -0.01755345 -0.012408547
000050 93 a1 b9 3c fc d7 22 3d 6a 87 09 3d 8c 40 15 3c
       0.022660052 0.03975676 0.033576407 0.009109627
000060 8e ab 18 bc 3e 25 95 bc 85 53 35 bd ec 0f 1f 3c
       -0.009318246 -0.018206235 -0.044269104 0.009708386
000070 eb 22 03 3d d3 0a a1 3a d8 c2 22 3d ad 9b bc bc
       0.032015722 0.0012286551 0.0397366 -0.02302345
000080 02 89 be 3c 67 6f ed 3c 0a a4 52 3c fa d2 18 bc
       0.02325869 0.028983785 0.012856493 -0.0093276445
000090 9b 41 26 bd 6b 8e 05 3d fa e9 a0 bc 1e 34 29 bd
       -0.04058991 0.032606523 -0.019642819 -0.04130947
0000a0 96 80 20 3d ce 83 2a 3c c4 d1 a1 bc 19 25 08 3d
       0.03918513 0.010407401 -0.019753344 0.033238504
0000b0 e1 19 b3 3c db 6a 09 3d 79 a6 ef 3c d7 70 c6 bc
       0.021862926 0.03354917 0.029254185 -0.024223728
0000c0 49 b4 f7 3c de 0e d2 bc bd ca 0b bd f8 01 85 3c
       0.030237334 -0.025641855 -0.034128893 0.01623629
0000d0 88 69 0c bd 89 cf db bc f9 54 0a 3c 7b db 33 3c
       -0.03428033 -0.026832359 0.008443111 0.010977621
0000e0 9d dc 07 bd e3 d8 c9 bc 7a 0d a6 bc 0e bf bc bb
       -0.033169378 -0.024639552 -0.020270098 -0.00576008
0000f0 b6 8f 14 3d c5 f9 d3 bc 6e 6d c6 bc bf 69 81 bc
       0.036269866 -0.025875935 -0.024222102 -0.015797494
000100 a8 e6 94 3c e9 64 b4 bc b6 58 36 bd d8 0b 01 3c
       0.018176392 -0.022020774 -0.044518195 0.007876359
000110 d9 40 01 bd 59 7b d8 bc 7e 0d 22 3d 0a 5b 1c 3d
       -0.031555984 -0.026426004 0.03956365 0.03817276
000120 64 f4 0a bd d0 2e 04 bc 8a 06 2c bc 38 8e 5f 3c
       -0.033924475 -0.008067802 -0.010499606 0.013644747
000130 82 f5 d5 3c 31 56 9c bb 45 d9 76 3c 71 a2 c1 3a
       0.026118044 -0.004771017 0.0150664495 0.0014773143
000140 7d 4e 41 bc 9f 92 88 3a f7 19 26 bd 2c af 3f 3c
       -0.011798498 0.0010419673 -0.040552106 0.011699479
000150 87 8c 93 3c 7e 39 3f bc bc 56 11 3c e6 4b 34 bd
       0.018011345 -0.011671422 0.008870777 -0.044017695
000160 58 67 fc bb 39 bc 77 bc 2e 14 2a bd d6 13 84 bc
       -0.007702749 -0.015120559 -0.04152315 -0.01612274
000170 27 61 60 bc 5c 1c 8e 3c 06 4f 2c 3c 73 0f 0c bd
       -0.013695038 0.017347507 0.0105168875 -0.03419442
000180 04 23 88 bb 1e 2c 1c 3d 54 87 9b 3c 6f 1e 64 bc
       -0.004154565 0.03812801 0.018985428 -0.013923272
000190 f7 07 26 3d 81 f2 80 3c 35 34 14 3d 24 2b 0b 3d
       0.04053494 0.015740635 0.0361826 0.03397669
0001a0 50 7e f7 ba ec a4 c8 3c 05 14 9f 3c 4e e8 2a bd
       -0.0018882249 0.024492703 0.019418726 -0.04172545
0001b0 b3 17 1d 3d e0 bd 37 bc ab 93 1a bc 96 d5 b6 bc
       0.03835268 -0.011214703 -0.009434621 -0.022318643
0001c0 5a 85 81 3c f4 c5 31 bd 8f ab 17 bd 22 56 09 3d
       0.015810657 -0.043401673 -0.037028845 0.03352941
0001d0 ab c2 28 3d b8 80 c8 3c f8 03 55 bc fb 35 99 3c
       0.041201275 0.02447544 -0.0130014345 0.018702498
0001e0 5f 3a c6 bc 48 cf 14 bd 4b 39 09 3d 3e 16 04 bc
       -0.024197755 -0.03633049 0.033501904 -0.008061944
0001f0 9e 23 c7 bb cc f1 f0 3b 3d be c3 3c 0d d4 76 3c
       -0.006077244 0.007353043 0.023894424 0.015065205
000200 ff 79 29 bc 2c 0d 32 3c e1 7c 76 bc fa 31 7a bb
       -0.010344028 0.010867398 -0.015044422 -0.003817676
000210 32 54 ce 3c 10 51 04 bd b2 92 c6 bc 09 17 eb bb
       0.025186632 -0.03230387 -0.024239872 -0.007174377
000220 70 3c a3 bc b0 9b c9 bb a9 cd 04 3d 0f c5 fc bc
       -0.01992628 -0.0061525926 0.032422695 -0.030855684
000230 39 0f d1 bc f2 ba 76 3c 19 aa 26 bd 9b 92 85 bc
       -0.025519954 0.01505922 -0.04068956 -0.016305258
000240 5c 05 cf bc c8 55 ef ba 2c c6 c7 bc 64 ce 45 b9
       -0.02527111 -0.0018259818 -0.024386488 -0.0001886427
000250 bd 2e 7c 3c 15 e1 63 bb d3 65 c7 bc 63 21 97 bc
       0.015392003 -0.003477161 -0.024340546 -0.018448537
000260 50 1f 1b bd ed 1c 9d 3c de 7f 83 3c f9 0d 85 bc
       -0.03787166 0.019178832 0.016052183 -0.016242014
000270 e9 b3 8a bb bd 2b a3 bb 64 3e 0b 3d 8d e1 26 bb
       -0.0042328727 -0.0049795792 0.033995047 -0.0025464029
000280 d6 17 9e bc 11 b7 f1 3b 79 a7 22 3d ad 33 cf 3c
       -0.019298475 0.0073765595 0.039710496 0.025293196
000290 d9 82 f4 3c 4f 1e 95 bc 38 a3 af bc b0 58 c2 3c
       0.02984755 -0.018202929 -0.021440133 0.02372393
0002a0 fb ec 72 bc 52 ee 5e bc 2f dd 6e 3c 96 cb 2a 3d
       -0.014827008 -0.013606625 0.014579101 0.04169806
0002b0 e6 76 b1 bc 51 d1 24 bd a1 d7 b1 3b dd 77 ad bc
       -0.02166314 -0.040238682 0.0054273163 -0.02117532
0002c0 e6 f8 ca bc 42 d8 b8 3c 03 3f 65 3b de 18 fe bc
       -0.024776887 0.022564057 0.0034980185 -0.031017717
0002d0 d6 a9 34 3d c0 55 b3 3c fe c8 eb 3c 53 ef 6a bc
       0.04410728 0.021891475 0.028782364 -0.014339286
0002e0 bc a4 30 bd fd 83 fd 3c 83 50 02 bd fa 9a 1f bd
       -0.043125853 0.030946726 -0.031815063 -0.038966157
0002f0 98 c3 16 3d f7 80 a7 bb 9f 3c 54 3c 48 a5 fc bc
       0.036807626 -0.0051118094 0.012953906 -0.030840531
000300 83 48 c4 3c 30 a5 0c 3c ee 27 96 3c 8a ae 01 3d
       0.023960358 0.008584306 0.018329587 0.031660594
000310 75 c9 cc bb d7 b9 19 bd b2 ed 18 bc a8 3c f1 bc
       -0.0062496015 -0.037530746 -0.009334015 -0.029447868
000320 ef 03 89 bc 34 1f 0c bd 87 de d4 3b 65 4e 0a bd
       -0.016725508 -0.034209445 0.006496254 -0.03376617
000330 ad c8 f3 3b bf 25 ca 3c 62 8e db 3c 33 67 df bc
       0.007439694 0.024676202 0.026801292 -0.027270889
000340 ad 7e 10 3c a9 17 12 3c 96 d4 03 3d df 88 eb 3c
       0.008819264 0.008916774 0.03218516 0.028751789
000350 43 97 0c 3c 64 58 cc bc b0 bd e9 3c 71 e7 90 3c
       0.0085809855 -0.024944492 0.028532833 0.017688485
000360 f6 73 fd 3c f0 16 2f 3d a1 3b 32 bd da a3 21 bb
       0.030939084 0.042746484 -0.043513898 -0.0024664314
000370 6c aa d2 3c dd e9 b6 3c d0 4c 53 3c 0f c6 b5 bb
       0.02571603 0.022328312 0.0128967315 -0.005547292
000380 9d bd 36 3d af bb e7 3c 3e 43 ec 3c f6 3a 92 3c
       0.044614423 0.028287737 0.028840657 0.01785038
000390 47 60 d2 bc 4b 0d 23 bc 87 c6 15 3c 38 56 26 3b
       -0.025680674 -0.0099519 0.009141571 0.002538098
0003a0 87 2d 55 bc 91 5b 2b 3d 30 97 6a bc 08 ed 13 3d
       -0.013011343 0.04183537 -0.0143182725 0.036114722
0003b0 a9 22 16 ba d9 26 91 bc 39 b1 a0 bc 44 50 e0 3c
       -0.00057272107 -0.01771872 -0.019615756 0.027382024
0003c0 4f 58 a9 3c 3d cc bb 3b 9d c5 df 3c a1 51 00 3d
       0.020671992 0.005731134 0.027315909 0.031327847
0003d0 1c ff 14 bd 28 8e 0a 3d ad 70 d4 3b 78 bb 3e bc
       -0.036376104 0.033826977 0.0064831586 -0.011641376
0003e0 ba 8b e1 bc 82 8c a9 3c 02 06 2b 3d d8 b8 d6 3c
       -0.027532447 0.020696882 0.041753776 0.026211187
0003f0 2d f6 1a bd b7 90 74 3c 97 4b 1e 3d 2a 9a 1b bd
       -0.037832428 0.014927081 0.038646307 -0.03798882

siam_layer.conv2.bias f4 [7]
000000 d0 4a f7 3c e0 be a3 3c 79 0c 93 bc a6 8a 67 bc
       0.03018704 0.019988477 -0.017950283 -0.014132177
000010 e7 90 22 bd 84 67 0a 3d 53 e2 b2 bc
       -0.03968897 0.033790126 -0.021836435

siam_layer.conv3.weight f4 [7, 14, 6, 6]
000000 af a2 21 3c de d8 ca 3c 39 8f e8 bc 14 a5 f4 bc
       0.009865447 0.024761613 -0.028388606 -0.029863872
000010 5d 44 cd 3b 71 21 98 3c 60 bc b3 3c 48 b8 2b 3d
       0.006264253 0.018570634 0.02194041 0.04192379
000020 1c e8 ee bc d9 17 a6 3c da 3c 4d 3c 0a 26 2d bd
       -0.029163413 0.020275043 0.012526715 -0.042272605
000030 af 16 29 3d c6 f9 e5 bc d8 25 4d bb 22 ca a6 bc
       0.0412814 -0.028073203 -0.0031303074 -0.020360056
000040 e0 df 25 bd 44 bf 2f bd 86 bd 7d bb 48 08 53 bc
       -0.040496707 -0.042907014 -0.00387177 -0.012880392
000050 1d 79 5e bc c1 63 82 3c 0f e0 e6 bc c5 db 0f 3d
       -0.01357868 0.015916707 -0.028183011 0.035121698
000060 79 ae f1 bc 91 b5 78 3b 05 9b 15 bd 34 1e 99 bc
       -0.02950214 0.003795002 -0.03652479 -0.01869116
000070 fb 21 51 3c 95 ec f2 3c 80 37 21 bc 6c a4 86 3b
       0.012764449 0.029653827 -0.009839892 0.004108956
000080 8c 19 3e 3c 33 4f d8 bc 5b 7b 2c bd 0c e0 e0 bc
       0.011602771 -0.026404953 -0.04210983 -0.027450584
000090 18 55 68 bc a7 93 04 3d 1a 15 d7 3b dc bd 63 3b
       -0.014180444 0.032367375 0.006563795 0.0034750616
0000a0 8b b0 ba 3c ca 2f 3a b9 29 63 9a 3c 13 54 19 3d
       0.02278926 -0.00017756145 0.018846111 0.037433695
0000b0 f1 8c f7 3c 64 90 83 3c 36 cd b2 bc f0 66 71 3a
       0.030218573 0.016060062 -0.021826368 0.00092087593
0000c0 5d 96 9d bb f4 0e 35 3c f8 88 2b bc 24 95 03 bd
       -0.0048091845 0.011050928 -0.010469668 -0.032124653
0000d0 6a 3d ef 3c 1a 83 b9 3b 5c 9b bf bc 7d 78 de bc
       0.02920409 0.0056613805 -0.02338951 -0.027157063
0000e0 9a 36 c9 3c d2 02 c3 3c e5 79 2d bc fa c0 c4 bc
       0.024562169 0.023805056 -0.010588144 -0.0240178
0000f0 b3 76 b8 3b 22 b4 f1 3c 13 a7 17 3d 32 9a 1e bd
       0.0056293844 0.02950484 0.03702457 -0.03872127
000100 4a 51 07 3d 4a eb 03 bb a1 ed c3 3c c1 f8 19 bd
       0.033036508 -0.0020129257 0.023917021 -0.037590746
000110 a3 e6 9d ba 1e 6b e1 bc 71 45 17 3d 51 9c 62 bb
       -0.0012046885 -0.027516898 0.03693146 -0.0034578035
000120 72 6f 91 bc 03 8e 2e 3c 39 59 29 3d 8e 65 2c bd
       -0.017753337 0.010653975 0.041344855 -0.042089038
000130 19 a4 cc bc f8 51 2b bd f8 9e da 3c 6c ac f5 bc
       -0.024980592 -0.04182622 0.02668713 -0.029989444
000140 07 93 9f bc 85 2a 11 bd eb 47 a0 3c 3a 07 65 bc
       -0.019479288 -0.03544094 0.019565543 -0.013978774
000150 2f 8f 2d bd cb 44 ba 3c 7f 65 17 bd cf 3d 47 ba
       -0.04237288 0.022737881 -0.03696203 -0.0007600458
000160 f0 7f 1e 3d 41 f5 13 bd 2c 75 5a 3c d7 a6 c2 bb
       0.03869623 -0.036122564 0.0133336 -0.005940299
000170 2e 86 a9 3c 00 29 21 bd e0 4a 32 3c f7 bc 58 bc
       0.020693865 -0.03934574 0.010882109 -0.0132286465
000180 9d 68 d5 bb 0b 25 10 bd 21 47 c4 3c d1 d1 ab bc
       -0.006512715 -0.035191577 0.023959698 -0.020974072
000190 e4 45 ce 3c c5 18 8a bb ab 0b 3d bc b0 09 26 bd
       0.02517981 -0.0042143785 -0.011538426 -0.040536582
0001a0 31 c1 28 bd bc 17 09 bd be 41 85 3a 49 64 28 bd
       -0.041199867 -0.0334699 0.0010166687 -0.041111264
0001b0 bc 02 28 3d 1b 62 19 bd 1b d2 57 bc ba 60 3d 3c
       0.041018233 -0.037447076 -0.013172652 0.011558706
0001c0 54 33 1d bd 5a 96 07 3c 05 e0 df bc cc 06 3f bc
       -0.03837903 0.008275593 -0.0273285 -0.011659335
0001d0 0a c6 79 3c 94 fd 24 3d be c7 e6 3c fe 13 c7 3c
       0.01524497 0.040280893 0.028171416 0.024301525
0001e0 c0 29 1b bd cf 91 63 3c 8f 41 b5 3c 98 0a 31 bd
       -0.037881613 0.013889744 0.022125987 -0.043222994
0001f0 87 21 d2 bb 7c 8a 30 bd 27 18 11 3d 3e 07 db bb
       -0.006412688 -0.04310082 0.035423424 -0.006684213
000200 21 d2 48 bb 96 4d a5 bb a1 74 fa bc 29 f3 1b 3d
       -0.0030642825 -0.0050446494 -0.030573191 0.038073692
000210 8e 06 b7 3c 87 01 23 bd 7f 95 c7 bc 48 33 15 3d
       0.022341993 -0.03979638 -0.024363277 0.03642586
000220 f8 4a d1 3c 2f 5c 2a bc 05 9d 77 bc 28 db 01 bd
       0.025548443 -0.010397955 -0.01511312 -0.031703144
000230 4f 82 84 bc b0 9c da bb d4 87 b7 3c 54 cc 2e b9
       -0.016175417 -0.0066715106 0.022403635 -0.00016670051
000240 4b 67 3b 3c be 41 c8 bc 2e af 6d 3a 8d ee 15 3d
       0.011438201 -0.02444541 0.00090669363 0.036604453
000250 8f f9 04 bc 28 fa fa 3c df 05 1e 3d b1 d7 e4 bc
       -0.00811614 0.030636862 0.038579818 -0.02793488
000260 55 4c 9b 3c 31 05 11 bd ab fc 1f 3d 4c ce 0a bd
       0.018957296 -0.03540534 0.039059322 -0.033888146
000270 1d 6f 77 bc 54 b7 78 bb b6 fc 26 bd 7e 9f 1b 3d
       -0.015102175 -0.003795107 -0.040768348 0.0379939
000280 59 88 ef bc 92 3b 08 3d 1d 6d b9 3c b4 7c 12 3c
       -0.02923982 0.033259936 0.022635037 0.008940864
000290 bd b8 b9 bb f0 75 26 bd 8c 37 a6 bc af 0e 00 bd
       -0.0056677745 -0.040639818 -0.020290159 -0.031264003
0002a0 fd 8b 21 bd 9b 22 06 bc 9f 77 df 3b bd 88 66 3c
       -0.039440144 -0.0081869615 0.00681968 0.014070687
0002b0 0a 48 e3 bc 0c 23 12 3c ef 49 06 bc 73 55 83 bc
       -0.027744312 0.008919489 -0.008196338 -0.016031956
0002c0 61 3e 2e bd 2c 16 84 bb 0d 33 1c bd d0 f3 f1 bc
       -0.042539958 -0.0040309634 -0.038134623 -0.029535204
0002d0 8a 67 34 3d 9b c4 8b 3b 1f 6e 72 bc b2 2c bb 3c
       0.044044055 0.0042653806 -0.014796763 0.02284846
0002e0 78 43 f2 bc e6 db 3f 3c 1a 2b 70 bc 08 b5 ec 3c
       -0.029573187 0.011710143 -0.014658714 0.028894916
0002f0 95 1d ef bc 1b 84 4a 3c 44 ab e0 3c 26 9f d7 3c
       -0.02918891 0.012360598 0.027425416 0.026321005
000300 1f 57 aa 3c 5f 9e a9 bb b5 e9 01 bb 47 c0 30 bd
       0.020793496 -0.00517635 -0.0019823138 -0.04315212
000310 41 b1 0a 3d d2 91 0f bc bb 63 bc 3c 53 ab 7a bc
       0.03386045 -0.008762794 0.022996774 -0.015299636
000320 87 55 12 bd dc f4 32 3c 2f f2 fc bc c0 46 5c bb
       -0.035726096 0.010922637 -0.0308772 -0.0033611506
000330 ce 11 18 bd b7 09 0c 3c ee d6 9c bb 11 b4 44 3b
       -0.037126355 0.008547238 -0.004786364 0.0030014555
000340 bc 37 b3 bc a2 47 ce 3b 47 27 83 bc 09 40 36 bd
       -0.021877162 0.0062951604 -0.01600994 -0.044494662
000350 72 7a 1a bd 0c 77 d5 bc ab e3 9b 3c 9b 6e ad bc
       -0.03771443 -0.026057743 0.019029459 -0.021170905
000360 b4 87 2c 3d 28 3d 83 bc 25 af 20 bd ed 02 c8 3b
       0.042121604 -0.016020373 -0.03922953 0.0061038644
000370 56 cb 8b 3a 7e ae f2 bb b4 77 12 bd 4f 8d bb bc
       0.0010665457 -0.007406055 -0.03575869 -0.02289453
000380 ca 43 9b bc 4f ba cf bb da 6b 8b bc 83 78 62 3c
       -0.018953223 -0.0063393484 -0.017019201 0.013822678
000390 52 7a 18 bd af 10 04 bd a2 3e c1 bb 7b 2d c2 3c
       -0.03722603 -0.032242473 -0.005897359 0.023703327
0003a0 42 9f 06 3c dd 82 13 3d 05 c8 23 bd 9a 5c a2 bc
       0.008216681 0.036013473 -0.039985675 -0.019819546
0003b0 5c e8 8a 3c 18 8f 6c bc 6a 4d 9f bc f9 df c6 3c
       0.0169565 -0.014438413 -0.019446094 0.02427672
0003c0 03 7d d3 bb 95 f9 55 3c 5d cf ae 3c 38 f6 cb bc
       -0.0064541115 0.013059993 0.021339113 -0.02489768
0003d0 f4 40 11 bd 4b c2 c7 3c cf 5c 09 3d 4d 06 c1 3c
       -0.035462335 0.024384638 0.033535775 0.023562575
0003e0 ed 28 58 3c 5d 54 2d 3d a2 b2 30 bc 28 b2 95 bb
       0.013193351 0.042316783 -0.010784777 -0.004568357
0003f0 33 8e 3b 3c 6e 26 96 bc 7f e7 f9 bc 79 5e 28 3d
       0.011447477 -0.018328872 -0.030505894 0.04110572

siam_layer.conv3.bias f4 [7]
000000 4c 63 02 3d b4 66 ac 3c d0 bb c2 3c a0 66 c4 ba
       0.031832978 0.021045066 0.023771197 -0.0014984198
000010 40 7f fd 3a e0 a8 14 3d a8 38 52 3c
       0.0019340292 0.036293864 0.012830891

siam_layer.conv4.weight f4 [3, 14, 6, 6]
000000 da f1 b1 bb e4 05 3b ba 06 e1 0f 3d cc ca ae bc
       -0.0054304423 -0.00071343617 0.03512671 -0.021336935
000010 1c 6e 00 3d f6 b7 bf 39 29 59 db bb f5 40 21 bb
       0.03135501 0.0003656742 -0.0066939783 -0.0024605368
000020 03 7f 11 bb ef f5 dc bc 1c 6b da 3c 7b 82 e9 bc
       -0.002220095 -0.026972739 0.026662402 -0.0285046
000030 92 57 b6 bc 7c e0 c0 3c 21 05 df 3c e6 ff 0a 3c
       -0.022258554 0.023544542 0.027224125 0.0084838625
000040 98 74 dd bc 77 84 8b bc 7b 7a 4b 3b fd 74 9e 3c
       -0.027033135 -0.017030938 0.0031048346 0.019342894
000050 a1 75 0d 3d d4 84 b0 bc 3e 13 17 bd 0a 13 c7 3b
       0.034536008 -0.021547712 -0.036883585 0.0060752677
000060 c9 13 5b 3c c2 c6 02 3d fb 51 f7 3c 71 eb 10 3c
       0.013371416 0.03192783 0.030190459 0.008845196
000070 79 a3 12 3b c0 12 3d 3b 2f 50 52 3c 73 4f bd bc
       0.002237527 0.0028850287 0.0128365 -0.023109173
000080 2b 35 ad bc 00 67 fd 3c e2 c0 52 3b ca 30 70 bc
       -0.021143517 0.030932903 0.0032158424 -0.01466007
000090 06 11 c1 bc d5 44 03 3d 39 3c c9 bb 62 fe 29 bd
       -0.023567688 0.032048065 -0.0061412123 -0.041502364
0000a0 79 d7 96 3c 8c 58 17 3d 55 6b fd bc b2 2d 34 3c
       0.018413292 0.03694968 -0.030934969 0.010997223
0000b0 c1 75 5b 3c ab c1 cd 3c 3a 6d d2 3c d9 96 96 bc
       0.013394774 0.025116762 0.025686849 -0.018382477
0000c0 5d ef ee bc 61 2d ad 3c 57 c9 36 3d 1b 21 d6 bc
       -0.029166872 0.021139802 0.044625606 -0.026138833
0000d0 42 06 0f 3d f0 f9 37 3d 5f b4 ac bc 1e 06 bf bb
       0.034918077 0.044916093 -0.021082101 -0.0058295866
0000e0 58 74 0f 3b 00 cf f9 bc fa 5c b4 3b 09 58 05 3d
       0.0021889415 -0.030494213 0.0055042477 0.03255466
0000f0 70 7f e5 39 1a 6d 93 3c c0 ea 3d 3b ba 6b c0 bb
       0.00043773232 0.01799636 0.0028979033 -0.005872217
000100 65 c0 33 3c 69 f6 2b bd 84 1a 66 bc ce 5a ea 3c
       0.010971163 -0.041983042 -0.014044408 0.028607752
000110 59 32 47 bb c9 00 a6 bc 59 0b 7f 3c ce c1 99 3b
       -0.0030395 -0.020264046 0.01556667 0.004692293
000120 16 3e 19 bc 83 4c bf bc 27 50 87 bc 19 3c 1f 3c
       -0.009353181 -0.023351913 -0.016517712 0.009718918
000130 65 cf 98 3b 11 9e 2d bc 32 11 22 3d da 01 97 bc
       0.004663395 -0.010596768 0.03956718 -0.0184335
000140 51 a1 04 bd 1e 92 2a bd fc 28 bb bc 1b 21 10 bc
       -0.032380406 -0.041643254 -0.022846691 -0.008796955
000150 d7 0f 98 3c c1 19 24 bd b5 da 19 bd c9 5f c6 bc
       0.01856224 -0.040063623 -0.03756209 -0.024215596
000160 8f 19 b5 3c 0c 1e ce bc 28 e0 8a 3c 46 93 86 3c
       0.022106914 -0.025160812 0.01695259 0.016427647
000170 53 f2 65 bc 1d b8 ca bc de 0e 53 3c 8c 21 0e bd
       -0.014034825 -0.024745995 0.012881963 -0.03469996
000180 a7 f5 29 bd fe f9 2a bd b7 bb 27 3d 0b ee 64 bc
       -0.041494038 -0.041742317 0.040950503 -0.0139727695
000190 a1 e6 b0 bc 99 b8 55 bc 8e 80 13 bd 76 f0 20 bd
       -0.021594347 -0.0130445 -0.03601127 -0.03929182
0001a0 c7 ac 4c bc bc c0 d4 3c 1f 56 3c bc 49 58 1a 3d
       -0.012492365 0.02597081 -0.011495142 0.03768185
0001b0 2f 19 ab bb ed 03 49 bc 55 e0 17 bd 8f b5 34 3d
       -0.005221508 -0.012269002 -0.037079174 0.04411846
0001c0 f7 30 54 3c eb bb 36 3d 4b a5 63 3c df a1 0b 3d
       0.012951127 0.044612806 0.013894389 0.03408992
0001d0 14 bc f6 ba 30 05 10 3d c9 6d 62 3a 86 2b 0a 3d
       -0.0018824362 0.035161197 0.0008637575 0.033732913
0001e0 10 4d d9 3c 47 b2 b0 3c 5d 83 95 39 c4 e6 cd 3c
       0.026526004 0.021569384 0.00028517368 0.025134452
0001f0 5a 60 c8 bc 3e 03 1d bc c9 30 cf 3c b5 4d 73 3c
       -0.024460007 -0.0095832925 0.025291817 0.01485007
000200 51 f8 9a 3c f8 7f cc bc d2 e3 1b bb 9b 15 92 3b
       0.018917235 -0.024963364 -0.0023786915 0.004458142
000210 75 f9 09 bc 75 6a b6 bc 5c f6 44 3b 71 af bd bc
       -0.008421292 -0.02226756 0.0030054068 -0.023154946
000220 1f d8 dc bc 72 97 21 3d 7d 40 d8 3c 3b 15 77 bc
       -0.026958523 0.03945107 0.026397938 -0.015080745
000230 0e c9 ff 3c a5 ae 8b ba 45 9d 09 3d 68 c1 57 bc
       0.0312238 -0.0010656907 0.03359725 -0.01316867
000240 88 1e b9 3a 61 f9 e0 bc 44 45 31 3d b0 85 67 bc
       0.0014123479 -0.027462663 0.043278947 -0.014130995
000250 d6 cf 96 3c d8 37 e4 bc 33 04 0b bd d6 19 d2 bb
       0.01840965 -0.02785866 -0.03393955 -0.0064117713
000260 f0 43 ed bc 05 3b 6e 3b a9 c9 96 3c 19 fc d5 3c
       -0.02896306 0.0036351096 0.018406706 0.026121186
000270 37 22 1e 3c 96 bd db 3c 79 19 23 3d ec 66 ef 3c
       0.009651712 0.0268238 0.039819214 0.029223882
000280 a0 3f 1a 3d c2 3e 84 3b 0b 02 29 bb 0a 97 ae 3c
       0.037658334 0.0040358016 -0.0025788571 0.021312255
000290 17 d1 71 bc 7b da 2a bd 08 26 7f 3c 76 67 b3 3b
       -0.014759324 -0.041712265 0.015573032 0.00547498
0002a0 57 1b d8 bc 3a 15 ea 3c c3 be 44 3c 12 ea 2a 3c
       -0.026380224 0.028574575 0.012008372 0.010431783
0002b0 ca 95 33 bd 2f 6d d9 3c 03 e5 11 3c d3 cd 77 bc
       -0.04384402 0.02654132 0.008904698 -0.015124756
0002c0 3a 22 fd bc 79 fc 6d bc 99 1c f2 bc 71 ec ad bb
       -0.03090011 -0.014525526 -0.029554652 -0.005307727
0002d0 4f ec 81 3c 4a a1 58 bc d7 c6 fb 3c 91 b3 41 3c
       0.015859751 -0.013222048 0.030734463 0.011822597
0002e0 f9 e4 17 3d 23 e2 97 3c 8b d1 32 bb e1 22 01 3d
       0.0370836 0.018540448 -0.0027285542 0.031527404
0002f0 c5 da 17 3d 88 be 88 bb ce 33 15 bd c7 52 5c bb
       0.03707387 -0.0041731037 -0.036426358 -0.0033618675
000300 45 b6 53 3c 16 6d ce bc 26 e4 16 bd c7 cb 51 bc
       0.012921874 -0.0251985 -0.036838673 -0.012804932
000310 63 56 80 3c 3f 7c 18 3d 97 93 c1 3c 6c d9 ca bb
       0.015666192 0.037227865 0.023629947 -0.0061904695
000320 d5 b8 30 3d 9a b3 9c bb 05 9f 6c bc bd 43 30 bc
       0.04314502 -0.0047821524 -0.01444221 -0.010758338
000330 e5 55 2b bc 47 2b 32 3d f1 8a 82 bc 26 f6 98 bc
       -0.010457491 0.043498304 -0.015935393 -0.01867206
000340 24 5d ad 3c 4b 1d 0e 3d 4d 62 11 3d bf 8c 28 bd
       0.021162577 0.034695905 0.035494138 -0.04114985
000350 92 fb a4 bc 43 a0 ad 3b 00 3d a0 3c 22 0d 02 bd
       -0.02013949 0.0052986457 0.019560337 -0.031750806
000360 c2 96 78 bc 5d 1e 31 3d 17 dd aa 3b 03 4f 9a bc
       -0.015172662 0.043241847 0.0052143442 -0.018836504
000370 45 04 19 bb 34 2c 58 bc c1 27 1c bc b6 df 0c 3d
       -0.0023348492 -0.013194133 -0.009530962 0.034393035
000380 f2 e3 23 3c 3d 86 ba 3c f4 ac 89 bc 9a 73 86 3c
       0.010003077 0.022769088 -0.016806103 0.016412545
000390 65 34 9c 3c 5f aa d1 3c f1 c0 0e 3d e0 98 2e bc
       0.019067952 0.025593935 0.034851972 -0.010656565
0003a0 f9 8f ce 3c d8 42 8b bb fc 48 ad 3c ea 84 10 bd
       0.025215136 -0.0042499118 0.021152966 -0.035283007
0003b0 74 4f 0f 3c cd 2e 29 3c 2a 69 28 3d f0 d8 8d 3c
       0.00874697 0.0103261 0.041115917 0.017315358
0003c0 54 32 01 3c 2f ee bd 3c 48 4f 0e bd d5 5d 5a bc
       0.007885534 0.023184864 -0.034743577 -0.013328035
0003d0 49 03 ed 3c e1 4a 29 bd 6c 14 cb 3c 9f 93 18 3c
       0.02893223 -0.041331176 0.024790011 0.009312539
0003e0 b5 f8 12 bd d6 19 a6 3c 64 d2 e3 3c a0 b4 10 3d
       -0.035881717 0.020275991 0.027810283 0.035328507
0003f0 fd e4 3b 3c 36 58 22 bd 97 ca ce bb 8a 71 15 3d
       0.011468169 -0.039634906 -0.0063107717 0.036485232

siam_layer.conv4.bias f4 [3]
000000 e2 1a 94 bc c4 b3 c0 3c 7e aa 10 bd
       -0.018079225 0.023523219 -0.035318844

siam_layer.conv5.weight f4 [1, 3, 6, 6]
000000 d8 69 b3 bd f1 db 37 bd 6a 55 1a 3c 9f bc a1 3d
       -0.087604225 -0.044887487 0.009419778 0.07897305
000010 8b f5 22 bc e7 55 6c 3d 6f 26 80 3d 22 8a c4 3c
       -0.009946237 0.05769911 0.062573306 0.023991648
000020 b7 90 72 bd c8 1a 14 bd 35 08 b8 bd 2c 55 99 3d
       -0.059220042 -0.036158353 -0.0898594 0.07486948
000030 e8 d1 b8 bd cf ee 87 3c 94 3b 8d bd 2b 77 50 3d
       -0.090244114 0.016593365 -0.06896129 0.050894897
000040 c9 ff 94 3d ad d7 c7 bc 4a 4b 6c bc 77 57 06 bd
       0.0727535 -0.024394834 -0.014422247 -0.032798257
000050 79 94 9b bc 0f 16 c4 bd 45 7b 6f bd 18 f9 2a bd
       -0.018991696 -0.0957452 -0.05846717 -0.04174146
000060 7e 1b 9b 3c 3f aa 64 3d 4e 9a 16 3d 47 66 36 3c
       0.018934008 0.05582642 0.03676825 0.011132783
000070 8c 93 a2 bd f1 b1 c4 bc 5c f7 44 bd 58 1a fa bc
       -0.079382986 -0.02401063 -0.048087463 -0.03053014
000080 63 c2 e2 3c 90 63 88 bd 73 92 8a 3d cf 27 50 3d
       0.027680581 -0.06659615 0.06766214 0.050819214
000090 6d 62 49 3d 0c 27 86 bd aa 82 c3 bc 51 b1 0b bd
       0.04916613 -0.06550416 -0.023866016 -0.03410465
0000a0 ef 1d e6 3c b5 75 ad bb c5 03 9b bc 7b b1 0e bb
       0.028090445 -0.005293573 -0.018922696 -0.0021773267
0000b0 56 e5 8b 39 9f bb ea 3c 1a 22 a4 bc a6 ff c4 bc
       0.00026683015 0.028653918 -0.020035792 -0.024047684
0000c0 30 4b 96 3d ab a8 b1 3d 6e 26 9d 3c da 3e b0 3d
       0.0733856 0.08674749 0.019183364 0.08605738
0000d0 50 77 a1 bd fe db bf 3d 6c 34 a1 bd 99 65 80 bd
       -0.07884085 0.09368132 -0.07871327 -0.06269378
0000e0 7c 24 fd bb ae ef 95 bd c7 1b 1e bd 9a 91 53 bd
       -0.0077252965 -0.07321106 -0.03860071 -0.05165253
0000f0 d7 9d a5 bd f1 4a 7c 3d e3 ff 9f 3d d9 eb 93 3b
       -0.08086746 0.061594907 0.078124784 0.004514199
000100 78 ee d1 3c fd e4 ac bc 58 1d 25 bd f4 c0 52 bc
       0.025626406 -0.021105284 -0.040311188 -0.012863386
000110 b4 39 8a 3d 3b 52 bc 3d a4 0d 63 3c 88 44 d1 bb
       0.06749287 0.09195372 0.013858233 -0.0063863434
000120 ba df b8 3d 71 c2 e8 3b 86 c0 c5 bd b1 4d 6f bd
       0.090270475 0.0071032573 -0.096558616 -0.0584237
000130 ac 11 3a bc b5 83 bd bc 78 16 b6 3d b9 3b 5d bd
       -0.011356752 -0.023134092 0.08891004 -0.054012034
000140 9f 15 a3 3c 6b 4c 34 bc 17 dd 7e 3d 06 f8 48 3d
       0.01990777 -0.011004548 0.062222566 0.04906466
000150 05 3c 70 3c 87 32 bb bc f2 b9 5b bd 2d 02 bc bd
       0.014662747 -0.022851242 -0.05364413 -0.091801025
000160 91 e5 47 3d 7f dd 14 3d 6c 63 20 3d 40 0e d4 3c
       0.048802916 0.036344048 0.039157316 0.025885701
000170 3c 72 a4 3d 0e f0 f5 3c c1 50 1c 3c eb 9e 24 bd
       0.08029601 0.030021694 0.009540738 -0.04019062
000180 2a 57 83 3d c5 53 7e bd 11 a3 b3 3c b7 48 ef 3c
       0.064131096 -0.062091608 0.021928342 0.029209478
000190 88 51 a7 bb 42 56 9e 3d 81 05 49 3d c6 08 ad bd
       -0.005106155 0.07731296 0.049077515 -0.08448939
0001a0 fa 60 0e bd 7b 87 1e bd c5 48 30 3d 54 88 09 3c
       -0.034760453 -0.038703423 0.04303815 0.00839432

siam_layer.conv6.weight f4 [1, 3, 6, 6]
000000 d3 20 31 bc 8b 65 16 bc 53 92 71 3d 46 9a b5 bc
       -0.010811049 -0.009179483 0.058977436 -0.02216829
000010 3f 0f 8d 3d 0f 0e a7 bd 6f 2e a0 3d d7 3a f4 3c
       0.068876736 -0.08156978 0.078213565 0.029813213
000020 47 02 28 3d df a7 7d bd ad 1b bc bd 19 3b c4 bd
       0.041017797 -0.061927672 -0.09184966 -0.095815845
000030 ad 70 31 bc 24 90 bf 3d 6c c6 c0 3d e2 95 f1 3b
       -0.010830087 0.093536645 0.09412846 0.0073726038
000040 51 f6 ba 3d 51 4d b7 bd a0 72 71 bb 4f bd 93 3d
       0.091290124 -0.08950294 -0.0036842003 0.07213842
000050 44 51 00 3d 82 8c b9 3d 36 f5 d3 3c 54 36 c3 bd
       0.0313275 0.09060003 0.025873762 -0.09531847
000060 e2 b1 b1 bd 5d 94 4b 3c 65 14 54 bd 59 7c 83 3c
       -0.086765066 0.012425509 -0.051777262 0.016050505
000070 05 ae fd 3c 09 cd bb 3d a2 b4 b5 3c d2 4e 8e 3b
       0.030966768 0.09169967 0.022180859 0.004342892
000080 db d3 a4 bd 26 52 b7 3d b9 85 62 3d 49 ca 42 bd
       -0.08048221 0.089512154 0.05530331 -0.047556195
000090 83 b3 96 bd d9 8c 67 bd 1f c7 f1 3a e7 2b fb bc
       -0.07358458 -0.056530807 0.0018446184 -0.030660583
0000a0 2f 8d 07 bd ee 85 ac bd ad 47 30 bd f7 04 23 bd
       -0.033093628 -0.084239826 -0.043037105 -0.039799657
0000b0 62 ca 68 3d 6e 5a 46 3d 8a 07 33 3d 43 f0 c7 bb
       0.056833632 0.048426084 0.04370836 -0.0061016395
0000c0 a7 26 9d bd 4f cd cc b9 f4 a9 67 3d d6 af 02 3d
       -0.07673388 -0.0003906288 0.056558564 0.03190597
0000d0 9b 33 24 3d c4 4d 87 3d 09 a0 99 bc 52 72 a0 bc
       0.040088277 0.066066295 -0.018753069 -0.019585762
0000e0 cd 5d 48 bc ac 5f 8d bc 70 90 49 bd 53 16 6e bd
       -0.012229395 -0.017257534 -0.049210012 -0.05812676
0000f0 7c b3 9c 3d 43 91 63 3d 52 42 8a bd bc 35 38 3c
       0.076514214 0.055558454 -0.06750931 0.01124328
000100 61 92 46 bd a6 2f e4 bb 70 88 9e bd 1e 99 9e bd
       -0.04847944 -0.006963688 -0.07740867 -0.077440485
000110 3e 4b ad 3d 21 31 4e 3d 56 66 80 3d 75 64 0d 3d
       0.08461617 0.05033982 0.06269519 0.03451963
000120 3f f0 96 bd be 0b 20 bd 32 08 51 3d cc 39 4d bc
       -0.07370042 -0.0390737 0.051033206 -0.012525987
000130 a7 d9 97 bd 71 84 c3 bd 2c f9 c4 bd a6 b6 35 bd
       -0.07414561 -0.095467456 -0.09617838 -0.04436364
000140 b9 67 37 3d 1a 04 b1 3d 98 2e 4a 3d aa 87 65 bd
       0.044776652 0.086433604 0.04936084 -0.056037582
000150 02 c1 31 bd d7 fa 88 3c 21 0a c2 bd 47 16 b0 bd
       -0.043396957 0.016721172 -0.09474588 -0.08597999
000160 e5 34 97 bd 5c e0 e2 3c 29 ba 01 bd d9 c3 1d bd
       -0.07383136 0.027694874 -0.031671677 -0.038516853
000170 09 ed 9a 3d 5e f1 6b 3d e6 aa f2 3c af cb 5d bd
       0.07564742 0.057603233 0.029622506 -0.054149326
000180 c8 1b fa bc 26 af 38 3b 17 e6 4f bd 44 75 51 bd
       -0.030530825 0.0028180568 -0.05075654 -0.051137224
000190 33 c7 c3 bd b6 b4 78 bd 57 1d b9 bd 98 85 74 3d
       -0.095594786 -0.060719214 -0.09038799 0.059697717
0001a0 08 d1 3e 3c 21 4e d5 bc e5 de a2 3d 84 0c 22 bd
       0.011646517 -0.026038231 0.0795267 -0.039562717

siam_layer.conv7.weight f4 [1, 2, 6, 6]
000000 9d 28 ed 3c a5 1c 82 3d 10 69 ab bd ab 4f e1 3d
       0.02895003 0.0635312 -0.083696485 0.110015236
000010 61 ce 52 3c dc 9e a4 3d a3 66 0c 3d ae 6e cf bd
       0.012866587 0.080381125 0.03427757 -0.10128532
000020 05 5f a4 bd d0 fa 93 bd 2a 0e c1 3d 64 f4 99 ba
       -0.08025936 -0.07225573 0.0942653 -0.0011745808
000030 cf 09 62 bd e0 d7 ca 3a 59 7e e4 bd 2e 01 ba 3d
       -0.055185135 0.0015475713 -0.111569114 0.09082256
000040 81 06 e5 bd 78 c9 1a bc 66 93 2b bd 32 6b ad bc
       -0.11182881 -0.009447448 -0.041888617 -0.021169279
000050 e2 88 e4 bd 9c 85 8e 3c 71 d9 e4 3d ac ae c8 bc
       -0.11158921 0.017397694 0.11174286 -0.024497353
000060 d7 41 be 3c 48 ae 82 3c 5e 8b ac 3d 03 95 81 bc
       0.023224754 0.015952244 0.0842502 -0.015818125
000070 8d 9d dc 3d 2e 7d 6f 38 04 57 b8 bd 87 e6 ef 3c
       0.10772238 5.7098623e-05 -0.09000972 0.029284729
000080 9a 87 d2 3b a5 de c2 bc 80 c8 c3 bd 53 4b 3f 3d
       0.0064248564 -0.023787806 -0.09559727 0.046702694
000090 a0 89 ba 3d 4a 8c 10 bd 97 49 db bd 7c 6f 85 bd
       0.09108281 -0.03529004 -0.107073955 -0.065154046
0000a0 29 05 26 3d 17 66 b7 3d 20 ad 68 3d f1 fd 86 3d
       0.040532265 0.08955019 0.05680573 0.06591404
0000b0 a3 44 83 bd eb 96 8c bd b6 e5 e1 3d c0 92 c9 bd
       -0.06409576 -0.06864723 0.11030142 -0.098424435
0000c0 35 49 db bd 11 af 0e 3c dc 7e c2 bd 4b a8 ee bb
       -0.107073225 0.008708731 -0.09496853 -0.0072832457
0000d0 4e c5 10 3d f0 82 b8 bd 14 20 50 bd 46 de ea 3d
       0.035344414 -0.09009349 -0.050811842 0.114681765
0000e0 15 e0 e6 bd 38 e1 bf bd 60 a2 bc bd 58 51 97 bc
       -0.11273209 -0.09369129 -0.09210658 -0.018471405
0000f0 e6 78 e5 3c 0c 35 e2 3c 63 d6 cc 3d b5 e1 08 3d
       0.02801175 0.027613185 0.100018285 0.033418376
000100 57 da c9 bd 9a 95 10 3d 0a bb e9 bd 72 f6 9a bd
       -0.09856098 0.03529892 -0.11412628 -0.07566537
000110 0d 33 7d bc b3 e1 8d 3d 7c c6 cb 3c b2 30 da 3d
       -0.015454066 0.06927814 0.024874918 0.10653819

dense.weight f4 [1, 308]
000000 78 28 09 bd df 8d 23 3d 5d a5 14 bd cd 02 47 3d
       -0.03348586 0.03993022 -0.036290515 0.048586655
000010 64 96 85 bc 77 b2 90 3c 6e 98 42 3c 66 89 d9 bb
       -0.016307063 0.017663224 0.011877162 -0.0066386936
000020 2b 3b 0f 3b a5 d3 47 bb c6 82 3f bd 20 dd be bc
       0.0021855335 -0.003049114 -0.046755575 -0.0232988
000030 9a f7 bb bb e2 88 b7 3c c7 c8 24 bd fd 56 0d bd
       -0.0057363035 0.022404138 -0.04023054 -0.034506787
000040 8b a2 02 bd d1 50 de b9 5b 23 a1 3c 0f 2e 2c 3c
       -0.031893294 -0.00042403353 0.01967018 0.010509028
000050 a4 d1 22 bd 05 ae 05 3d d8 7e 7b 3c 6a ef 1e 3d
       -0.03975071 0.03263666 0.015350066 0.03880254
000060 8c 18 1f bd e9 76 71 ba 35 a2 81 bb 4d 4d d7 3c
       -0.03884177 -0.00092111394 -0.003956104 0.026281977
000070 78 8e be bc 0f 9d 1f 3d c9 62 c7 3c c5 a0 95 3c
       -0.023261294 0.038968142 0.024339097 0.018265137
000080 fb 8a df bc 59 45 34 bc 44 f0 85 bc 3c 7c 0e bd
       -0.02728795 -0.011002862 -0.01634992 -0.034786448
000090 c9 2b 09 bd 0f 39 0f 3b 34 8d b2 3c 6f 20 20 3c
       -0.033489022 0.0021854078 0.021795847 0.009773358
0000a0 41 96 47 bc 88 77 09 3b 5a f7 9b 3c 11 5a 9f bc
       -0.012181819 0.0020975787 0.019038845 -0.019452127
0000b0 45 8d 44 bd b9 ee 51 bd 2a c7 30 39 44 9f 56 3b
       -0.047986288 -0.051253054 0.00016858862 0.0032748738
0000c0 95 77 1d 3b e1 cb fd 3c 96 0d 42 3d aa 78 53 bd
       0.0024027575 0.030981006 0.047376238 -0.051628746
0000d0 73 23 90 bc 65 f0 37 bb 99 61 29 bd 48 87 b4 3b
       -0.017595029 -0.002806687 -0.041352842 0.005509291
0000e0 96 8e 4f bd 07 c7 41 bd 06 80 ed 3c 79 1c 61 3d
       -0.05067309 -0.047308948 0.02899171 0.054958794
0000f0 0d 65 4d 3d 42 90 38 bd 4d 39 e0 3b 3e 0a 30 3d
       0.050145198 -0.04505945 0.0068427683 0.042978518
000100 c7 33 ff 3b 63 e7 23 3d 22 42 51 3d 93 fc 17 3d
       0.0077881548 0.04001559 0.05108846 0.037106108
000110 e1 1e 1e bd 47 bf 32 bc 30 71 cd 3c a8 e7 01 3c
       -0.038603667 -0.010909862 0.025078386 0.007928766
000120 e8 35 aa bc 3e e1 fb bb d1 47 5b bc 3a e6 5e 3d
       -0.020777658 -0.007686763 -0.013383822 0.05441878
000130 be 86 0c bd fc 54 2d 3d 80 f4 44 bd 10 74 23 3d
       -0.034308188 0.042317376 -0.048084736 0.039905608
000140 f6 c2 e3 bc 17 61 8a 3a fa e2 6f bc c4 54 b2 3b
       -0.027802926 0.00105575 -0.014641518 0.0054422338
000150 f6 99 27 bc a7 a4 8f 3c e1 4e 33 bd 71 00 6c bc
       -0.010229578 0.017534567 -0.043776397 -0.014404402
000160 47 c4 8b bc c8 43 5b bd 91 f9 02 3c aa 6e 08 3d
       -0.017061366 -0.053531438 0.007994072 0.033308662
000170 5e ee 1c bc 7f de 0a bd aa 48 53 bd a4 23 ee 3c
       -0.009578316 -0.033903595 -0.05158297 0.02906973
000180 ec 43 61 bd 9a c6 c3 3b aa 54 05 bd cc ed 58 3d
       -0.054996416 0.005974603 -0.032551445 0.052961156
000190 92 57 95 3c ee 48 1e 3d 9d c8 30 3d 92 30 d6 bc
       0.018230233 0.03864377 0.04316007 -0.026146207
0001a0 c9 d9 06 bd 3d 6f 04 bb 65 e5 db bb 37 55 4f bd
       -0.03292254 -0.0020207905 -0.0067106956 -0.050618377
0001b0 3b bd ab 3c 7f 79 40 bd 75 c1 a1 3c 34 f4 96 bc
       0.020964256 -0.046990868 0.019745568 -0.018426992
0001c0 7e 7b fd 3b ed be 0a bd 2d b3 5a 3c ce e9 90 3b
       0.0077356687 -0.033873487 0.013348383 0.004422403
0001d0 73 e1 95 bc 75 3b 12 3d 59 cf ff 3c c5 33 91 b8
       -0.01829598 0.035701234 0.0312268 -6.9237816e-05
0001e0 23 3e 26 bd ed 1f 47 bd d7 71 6e 3b e3 b8 1f 3d
       -0.040586602 -0.04861443 0.0036383772 0.03899468
0001f0 51 14 cd bc 5c 16 d4 bc 01 e1 5a bd 29 25 52 bd
       -0.025034102 -0.025889568 -0.053437237 -0.05130497
000200 52 c2 4e bc 3b e1 b1 3b 1c 4e 0d 3b 5d e4 61 bc
       -0.012619572 0.005428461 0.002156145 -0.013787356
000210 68 c6 d4 bc cb 7b 53 bd d5 d6 38 3d e0 0b 37 bd
       -0.025973514 -0.05163173 0.045126755 -0.04468906
000220 35 de 05 3d fd 6f d8 3c 05 dd 1a 3c 8c a5 2a bd
       0.032682616 0.026420588 0.009452109 -0.041661784
000230 7e 08 0a bd 73 ab d2 3c 41 c6 51 bd ae 73 ac 3c
       -0.033699505 0.025716519 -0.05121446 0.021051254
000240 b2 d5 07 ba bd df 1f bd 9f 45 1d bc f8 6c f5 3c
       -0.00051816844 -0.039031733 -0.0095991185 0.029959187
000250 ba eb 54 bd b3 73 7e 3c 48 21 99 3a 87 03 46 bd
       -0.05198262 0.0155305145 0.0011682892 -0.048343208
000260 65 10 e0 bc bd fe c1 3c cb 91 89 3c 5c 72 92 3b
       -0.027351568 0.023681039 0.016793152 0.004469199
000270 62 a2 65 3b 37 13 63 3d 42 1c e1 3c 30 7c 38 3d
       0.0035039415 0.055438247 0.027479295 0.04504031
000280 74 81 28 3d 1b 88 53 3d 6d e1 60 bd cc 23 35 bc
       0.04113908 0.051643472 -0.054902483 -0.011055898
000290 ad f5 1d 3d a9 f9 0d 3d d7 0f 1a bc 4c 3f 58 3d
       0.038564373 0.034661923 -0.009403191 0.05279474
0002a0 73 fd 27 3d 49 67 9e bc 03 c0 4f bd 87 83 b0 3c
       0.041013192 -0.01933636 -0.050720226 0.021547092
0002b0 b0 0d 05 3d 77 e7 06 ba f1 eb 5e 3d 0a e1 65 bc
       0.032483757 -0.0005146185 0.05442423 -0.014030704
0002c0 9d c1 9b bc 26 d2 46 3d 8d 71 f8 3c f5 7e 30 3d
       -0.01901322 0.048540257 0.030327583 0.043089826
0002d0 2c db 56 bd 00 92 27 3d 05 86 5a bc e9 56 38 bd
       -0.052455112 0.04091072 -0.013337617 -0.04500476
0002e0 06 3d 2d 3d 7a 4e fc 3c 31 cf 19 3d ff ae af 3b
       0.042294525 0.03079914 0.03755111 0.0053614373
0002f0 1b 22 ce 3b e9 94 0f 3d cc ae d4 bc d7 44 b0 bc
       0.006290687 0.03505412 -0.025962256 -0.0215172
000300 d2 68 87 3b eb 66 b2 bb df c9 8d 3c 7a dd c1 3a
       0.0041323686 -0.0054443977 0.017308174 0.0014790737
000310 05 40 20 3d 68 5a 36 bc 5a ed 53 3d a7 20 63 3d
       0.039123554 -0.011129953 0.051740028 0.05545106
000320 46 cb c9 bb d9 c6 c5 3c 7b 68 65 3c a6 92 0d 3d
       -0.0061582653 0.02414267 0.014001961 0.034563683
000330 c1 36 f8 bc 89 71 18 3d af 3c 35 3d ee 71 91 bc
       -0.030299546 0.03721765 0.044247326 -0.017754521
000340 9c 23 fa 3c ed 7b 81 bc 5d 2c 1e bd 5e 81 1d 3d
       0.030534558 -0.015806163 -0.038616527 0.038453452
000350 97 09 b7 bc e7 6b 0f 3d b9 bc 17 bd 4a d2 d5 3c
       -0.02234344 0.035015013 -0.037045214 0.02610125
000360 f3 71 d2 bc d8 05 58 3d f3 45 23 bd 26 a2 d3 bc
       -0.0256891 0.052739948 -0.03986163 -0.025834154
000370 d9 3d 43 3d f5 2e 9c 3c a8 7a f0 3c af 58 b7 3c
       0.047666404 0.01906536 0.029355362 0.022381155
000380 6b 82 00 bd 39 85 64 3c f3 88 3b 3d 75 bc 8b 3c
       -0.031374376 0.013947778 0.0457849 0.017057637
000390 82 87 24 3b a9 21 13 bd c1 98 5b 3d 50 21 e0 3c
       0.0025105183 -0.035920773 0.053612474 0.027359635
0003a0 d1 eb 0c bc 30 31 bb bc 23 68 5e 3d fd 1f c0 bc
       -0.008601145 -0.022850603 0.05429853 -0.023452753
0003b0 7a 12 af bc 55 24 0b 3d 14 e4 65 bd c8 de 33 bc
       -0.021371115 0.033970196 -0.056125715 -0.010978408
0003c0 75 e6 1e 3d 1b 52 05 bd 24 05 d4 3c 5c a6 e8 bc
       0.038794 -0.032549005 0.025881357 -0.028399639
0003d0 82 9b ef 3c 50 b0 41 bd ce 76 8b 3c c8 a2 1f 3d
       0.029248957 -0.047287285 0.017024424 0.0389736
0003e0 97 25 01 bc f4 bd 83 3c 35 1e af 3c 79 97 bf 3c
       -0.007882497 0.016081788 0.021376709 0.023387657
0003f0 7a e8 06 3d 4c 8c 34 bd 3d c7 48 bd 36 78 56 bc
       0.03293655 -0.04407911 -0.049018133 -0.013090184
