siamese-classifier/siam_v3_54.pth (torch, 104363 bytes, 12 tensors)

siam_layer.conv1.weight f4 [14, 31, 6, 6]
0	0xbaa67c73	-0.0012701884
1	0xbc6efef2	-0.014587151
2	0x3ba424f2	0.005009287
3	0xbb1934b6	-0.0023377365
4	0x3cdb4397	0.026765628
5	0x3a95feea	0.0011443768
6	0x3bae57b6	0.0053205146
7	0xbc553c44	-0.013014857
8	0xbc9d6be0	-0.019216478
9	0xbcf1b9d2	-0.029507551
10	0xbccb39ec	-0.024807893
11	0x3cd54410	0.026033431
12	0xbcda8b7f	-0.026677845
13	0xbbb68c4c	-0.005570924
14	0x3b360575	0.0027774249
15	0x3bf891bb	0.007585732
16	0xba84e102	-0.0010137858
17	0xbc94f45d	-0.018182928
18	0xbcc3cffa	-0.023902882
19	0x3ba23c99	0.0049510715
20	0x3b9460a2	0.004528121
21	0x3aa7ebc0	0.0012811348
22	0x3c95681f	0.018238125
23	0x3cce3372	0.025171015
24	0xbc7220df	-0.014778345
25	0xbc855009	-0.016273515
26	0xbcc71545	-0.024302134
27	0xbb143487	-0.0022614317
28	0x3ccb7c98	0.024839684
29	0x3cd278cf	0.025692372
30	0x3ce3b51f	0.027796326
31	0x3ca13dce	0.019682791
32	0xbc9c11ff	-0.01905155
33	0x3c93ba63	0.018033212
34	0x3c515aa1	0.012777955
35	0xbc21cff8	-0.009876244
36	0xbb198dc7	-0.0023430453
37	0x3ca71c1a	0.020399142
38	0xbc8ad825	-0.016948769
39	0x3b23fc18	0.0025022086
40	0x3c67fafa	0.014158959
41	0xbb5d1de8	-0.003373975
42	0x3cc3356e	0.023829188
43	0x3b1ea199	0.0024205206
44	0xbbb00c4a	-0.0053725587
45	0xbafe0b35	-0.0019382002
46	0x3c9c2865	0.01906223
47	0xbcc620f9	-0.024185644
48	0x3b64841f	0.003486879
49	0x3cce91be	0.02521598
50	0xbc76255b	-0.015023555
51	0x3c2967ab	0.010339658
52	0x3ca5bc8e	0.020231511
53	0xbc485a9b	-0.012228633
54	0xbcb10e6a	-0.021613318
55	0xbcd3fed1	-0.025878342
56	0xbb188540	-0.0023272783
57	0x3cabf2c1	0.020989778
58	0xbc20521f	-0.009785204
59	0x3c96c8f5	0.01840637
60	0x3c5300ca	0.012878606
61	0x3c32cd60	0.010913223
62	0xbbd25105	-0.0064183497
63	0x3c896c62	0.016775314
64	0xbcecc5f0	-0.028902978
65	0xbcd0e76c	-0.025500976
66	0x3ce8308f	0.028343467
67	0xbcb3acbd	-0.021932954
68	0xbcebb24f	-0.028771548
69	0x3cae40ae	0.021271076
70	0xbc7e7090	-0.015529767
71	0xbcd9f5c2	-0.026606444
72	0xbcba8fdc	-0.022773676
73	0x3c48a48f	0.012246265
74	0xbcb55fda	-0.022140432
75	0x3ce319bb	0.02772223
76	0xbb8384c4	-0.0040136296
77	0xbcc92e66	-0.024558257
78	0xbcdfe796	-0.027332108
79	0x3ca03911	0.019558461
80	0x3c9aa634	0.01887808
81	0xbc2679fb	-0.010160918
82	0xbab11ab6	-0.0013511989
83	0xbc07e026	-0.008293187
84	0x3c01aee0	0.007915229
85	0x3c7fdfea	0.01561735
86	0x3cb02dcf	0.021506218
87	0x3c7ab446	0.01530177
88	0x3bd75291	0.006571122
89	0xbc9b665d	-0.018969709
90	0xbce9a140	-0.028519273
91	0x3cc6b2b8	0.024255142
92	0x3c6fb9ac	0.01463167
93	0x3c4637c8	0.01209826
94	0xbce42a07	-0.027852071
95	0xbb334e23	-0.0027359806
96	0xbbae8d0c	-0.0053268727
97	0xbc9c6c6e	-0.019094672
98	0xbcc8c11a	-0.02450614
99	0xbccea39f	-0.025224505
100	0x3c9f074f	0.019412665
101	0xbcc1203f	-0.023574946
102	0xbc4d71c1	-0.012539328
103	0x3bd25972	0.006419354
104	0xbcdc4820	-0.02688986
105	0xbca725d4	-0.02040378
106	0xbc02d0e6	-0.007984376
107	0xbc8e147d	-0.017343754
108	0xbc7920ff	-0.015205621
109	0x3a59cd2e	0.0008308467
110	0x3cea9cdd	0.028639251
111	0x3b84031c	0.004028691
112	0xbcdd58d7	-0.027019901
113	0xbc8c6702	-0.017138962
114	0x3cb81c7c	0.02247452
115	0x3c84d5b0	0.016215175
116	0xbc974335	-0.018464664
117	0x3aaedc82	0.0013340863
118	0xbcf49350	-0.0298554
119	0xbcd6b0a0	-0.026207268
120	0xbc8f895f	-0.017521558
121	0xbc47bdbc	-0.012191232
122	0xbcf2c825	-0.029636452
123	0x3b09e0e4	0.0021038586
124	0xbcdaf405	-0.026727686
125	0x3b09c609	0.002102258
126	0xbbfd527a	-0.0077307792
127	0xbcda72ab	-0.026666006
128	0xbc87ea84	-0.016591318
129	0x3c1d2452	0.009591179
130	0x3bf39d0d	0.0074344934
131	0x3c0136c7	0.007886595
132	0xbcf3a111	-0.029739888
133	0x3c090a64	0.008364294
134	0xbcd57d4d	-0.026060725
135	0xbca8f17f	-0.020622967
136	0xbc225fcf	-0.009910538
137	0xbaa52d01	-0.0012601913
138	0x3c646ab3	0.013941455
139	0x3cc364d0	0.023851782
140	0x3c945431	0.018106552
141	0x3c487bf7	0.012236587
142	0xbc5d91c7	-0.013523526
143	0xbc6447f7	-0.013933173
144	0xbc0290d6	-0.007969102
145	0xbb858efc	-0.004075883
146	0xbc7d4bfe	-0.0154600125
147	0xbcce1bc1	-0.025159718
148	0xbc825035	-0.015907386
149	0x3c34828a	0.011017451
150	0x3c7dbf98	0.015487574
151	0x3c920ad2	0.017827425
152	0xbce6b698	-0.02816324
153	0xbcd3dec0	-0.025863051
154	0x3c8ee46f	0.01744291
155	0x3c807096	0.015678685
156	0xbc528af1	-0.012850509
157	0x3c8ec517	0.017427964
158	0xbc9321a3	-0.017960375
159	0x3b22ec00	0.0024859905
160	0x3c6ae726	0.014337337
161	0x3c225030	0.0099068135
162	0x3cc821cb	0.024430176
163	0x3cb0f15f	0.02159947
164	0xbcdbeffa	-0.026847828
165	0x3cacd02e	0.021095362
166	0xbcce22f6	-0.025163155
167	0x3c1ad756	0.009450754
168	0xbcb4f3ce	-0.022088911
169	0xbc77595f	-0.015096991
170	0x3ce878f5	0.02837799
171	0x3c7ce43c	0.015435275
172	0xbba8df5b	-0.005153579
173	0x3cd52a7d	0.026021237
174	0xb90d25f5	-0.00013460948
175	0x3b104bbd	0.00220178
176	0x3c2772be	0.010220228
177	0xbb6124b8	-0.0034354161
178	0x3c053305	0.00812984
179	0xbccc0c12	-0.0249081
180	0xba59f730	-0.0008314727
181	0x3cb3882e	0.021915521
182	0xbc098f61	-0.008396001
183	0xbc352d39	-0.011058145
184	0x3c06d713	0.008229989
185	0x3bb95510	0.005655892
186	0xbc8d5f38	-0.017257318
187	0x3c42a7ea	0.011880854
188	0xbcbe8aaf	-0.023259489
189	0x3c9be094	0.019027986
190	0xbcbf6a47	-0.023366107
191	0xbcb43184	-0.021996267
192	0xbc92937a	-0.017892588
193	0x3c8b97f0	0.017040223
194	0x3c84a262	0.016190711
195	0xbc949b34	-0.018140413
196	0x3b871718	0.004122626
197	0xbcca01ea	-0.024659116
198	0xb9ce520b	-0.0003935251
199	0xbc9a647e	-0.018846747
200	0xbc09c686	-0.008409148
201	0x3c9291cc	0.017891787
202	0xbce8268f	-0.028338699
203	0x3ccba288	0.024857774
204	0x3ae234d7	0.0017258179
205	0xbbaaf820	-0.005217567
206	0x3c973743	0.018458968
207	0x3ce630c0	0.028099418
208	0xbce3ab66	-0.02779169
209	0x3bdc217d	0.0067178593
210	0x3cde8f9d	0.02716809
211	0x3c7632be	0.015026746
212	0x3adb6c74	0.0016740696
213	0x3c6fc59f	0.014634519
214	0xbcc6fba5	-0.024289915
215	0x3c24004e	0.010009838
216	0x3cc28b7b	0.02374815
217	0xbc61c766	-0.01378045
218	0x3c966a5c	0.018361263
219	0xbb0d4a3a	-0.0021559135
220	0x3cb68997	0.022282405
221	0xbc3f798a	-0.011686692
222	0x3ccc8b8a	0.024968881
223	0xbc08c5c6	-0.008347934
224	0xbc9f381e	-0.019435938
225	0x3bc99a76	0.0061524464
226	0x3c2caae5	0.010538791
227	0x3c015bb9	0.007895404
228	0xbcf1e835	-0.02952967
229	0x3cef1881	0.029186489
230	0xbc7f2b06	-0.015574222
231	0xbbdfe498	-0.0068326704
232	0xbc50b506	-0.012738472
233	0x3b2b8064	0.0026169056
234	0xbc831524	-0.016001292
235	0x3b9aff91	0.004730173
236	0xbcee7e97	-0.029113097
237	0xbbdeb138	-0.0067960285
238	0xbce0c446	-0.02743734
239	0x3bbd39c1	0.005774707
240	0xbadb3ceb	-0.0016726529
241	0x3c670daa	0.014102379
242	0xbcbb7743	-0.022884017
243	0x3c5721e2	0.013130637
244	0x3cda05a3	0.026614016
245	0x3b921359	0.004457873
246	0xbc732cd1	-0.014842228
247	0xbbec0006	-0.007202151
248	0x398c2ad1	0.00026734782
249	0xbc2c739d	-0.010525611
250	0xbc26348e	-0.010144366
251	0xbce65dff	-0.028120993
252	0x3ca80505	0.020510206
253	0x3c235c34	0.009970713
254	0x3c0d7b05	0.008635287
255	0xbb3a0c76	-0.0028388775

siam_layer.conv1.bias f4 [14]
0	0x3c58fa4c	0.013243269
1	0x3cf4e9fa	0.029896725
2	0x3c004b84	0.007830504
3	0xbcd3480c	-0.02579119
4	0x3cbfe5e2	0.023425046
5	0x3cf1107a	0.029426802
6	0xbcb0d774	-0.021587111
7	0x3bb2b158	0.00545327
8	0xbc6bbac4	-0.01438779
9	0x3c06a988	0.00821913
10	0x3c7e114c	0.015507054
11	0x3cd99648	0.026560917
12	0x3c938744	0.018008836
13	0x3c160b14	0.009157915

siam_layer.conv2.weight f4 [7, 14, 6, 6]
0	0xbc5b8dbc	-0.013400491
1	0xbd2f1e6a	-0.042753614
2	0x3c01905a	0.007907951
3	0xbc6dee78	-0.014522187
4	0xbbc9b425	-0.006155508
5	0x3c153eca	0.009109208
6	0xbd0c80bd	-0.034302462
7	0x3cbdaeff	0.023154734
8	0x3bd69c23	0.0065493747
9	0xbd207a57	-0.039179172
10	0xbc8bcc4e	-0.017065194
11	0x3cd086ad	0.025454843
12	0x3c665947	0.014059371
13	0xbd335e4a	-0.043791093
14	0x3bbee947	0.0058261487
15	0x3d34226f	0.04397815
16	0x3c3d0aba	0.011538202
17	0x3ca3c5c7	0.019991769
18	0xbc8fdef1	-0.017562361
19	0xbc4bce82	-0.012439372
20	0x3cb9a590	0.022661954
21	0x3d22c94e	0.03974276
22	0x3d09a8b0	0.03360814
23	0x3c15aa2b	0.0091348095
24	0xbc18fc16	-0.009337446
25	0xbc952606	-0.018206608
26	0xbd3544ac	-0.044254944
27	0x3c1edc82	0.009696128
28	0x3d033674	0.032034352
29	0x3aa26bc3	0.0012391735
30	0x3d22ba67	0.03972855
31	0xbcbcb58d	-0.023035789
32	0x3cbe6dd0	0.023245722
33	0x3ced82cf	0.028993038
34	0x3c52c238	0.012863688
35	0xbc18ffc5	-0.009338324
36	0xbd260244	-0.040529504
37	0x3d05d4a7	0.032673504
38	0xbca078cb	-0.019588849
39	0xbd292b9a	-0.041301347
40	0x3d208c88	0.03919652
41	0x3c2bc908	0.010484941
42	0xbca1d6e1	-0.019755783
43	0x3d0840d3	0.033264946
44	0x3cb3230f	0.021867303
45	0x3d096bc3	0.033550035
46	0x3cf02b10	0.029317409
47	0xbcc65423	-0.024210041
48	0x3cf74457	0.030183954
49	0xbcd1dd1c	-0.025618128
50	0xbd0c0c76	-0.03419157
51	0x3c848654	0.016177334
52	0xbd0c96b7	-0.03432342
53	0xbcdbf60d	-0.026850725
54	0x3c0a145a	0.008427704
55	0x3c340574	0.010987628
56	0xbd07f7cb	-0.0331953
57	0xbcc9eba2	-0.024648491
58	0xbca601fd	-0.02026462
59	0xbbbcd4d9	-0.005762678
60	0x3d149867	0.036278155
61	0xbcd3b15c	-0.025841407
62	0xbcc68061	-0.024231138
63	0xbc819cd6	-0.015821856
64	0x3c94bad8	0.0181555
65	0xbcb4316f	-0.021996228
66	0xbd36548d	-0.044514228
67	0x3c00ebe1	0.007868738
68	0xbd014239	-0.031557295
69	0xbcd8ae34	-0.026450254
70	0x3d2202a7	0.03955331
71	0x3d1c6be9	0.03818885
72	0xbd0b5974	-0.034020856
73	0xbc05836d	-0.00814901
74	0xbc2cdb0b	-0.010550271
75	0x3c5ec758	0.013597332
76	0x3cd58d67	0.026068402
77	0xbb9ddf0d	-0.0048178495
78	0x3c74ad37	0.014933876
79	0x3ab46c91	0.0013765265
80	0xbc435de8	-0.011924244
81	0x3a81f5a8	0.000991513
82	0xbd262871	-0.04056591
83	0x3c3eaa0d	0.011637223
84	0x3c9368bf	0.017994283
85	0xbc3ff1ae	-0.011715336
86	0x3c1005b2	0.00879042
87	0xbd344093	-0.044006895
88	0xbbfca510	-0.0077101067
89	0xbc77e24f	-0.01512964
90	0xbd2a0ed4	-0.041518047
91	0xbc8471bc	-0.016167514
92	0xbc61ba71	-0.013777361
93	0x3c8db5ae	0.017298546
94	0x3c2bf97d	0.010496494
95	0xbd0c5321	-0.034258965
96	0xbb87cc1a	-0.004144204
97	0x3d1c247c	0.03812073
98	0x3c9b3b5f	0.018949209
99	0xbc646aa6	-0.013941443
100	0x3d26099c	0.040536508
101	0x3c811c27	0.015760494
102	0x3d1412c5	0.036150713
103	0x3d0b3546	0.033986352
104	0xbaf80044	-0.0018920978
105	0x3cc85f54	0.024459518
106	0x3c9f16a7	0.019419981
107	0xbd2afb99	-0.04174385
108	0x3d1cb8ef	0.038262304
109	0xbc392666	-0.011300659
110	0xbc1c15bc	-0.009526666
111	0xbcb7054f	-0.022341399
112	0x3c815b06	0.015790474
113	0xbd31ff50	-0.043456376
114	0xbd1779d7	-0.03698143
115	0x3d097509	0.03355888
116	0x3d28c130	0.041199863
117	0x3cc892e0	0.024484098
118	0xbc54e320	-0.012993604
119	0x3c995e26	0.018721651
120	0xbcc659a8	-0.024212673
121	0xbd14f810	-0.036369383
122	0x3d0911e2	0.03346432
123	0xbc052d46	-0.00812847
124	0xbbc7f83b	-0.0061025894
125	0x3bef44c1	0.0073018973
126	0x3cc3dee8	0.02391
127	0x3c76a828	0.01505474
128	0xbc28f3be	-0.010312019
129	0x3c31d325	0.010853563
130	0xbc763c0e	-0.015028967
131	0xbb7c2ae7	-0.003847772
132	0x3cce2cc1	0.025167825
133	0xbd045f7f	-0.032317635
134	0xbcc68d23	-0.024237221
135	0xbbeb44a6	-0.0071798144
136	0xbca36036	-0.019943338
137	0xbbca45f2	-0.006172889
138	0x3d04e9ea	0.03244964
139	0xbcfc8470	-0.03082487
140	0xbcd0d8c8	-0.025493994
141	0x3c7713fe	0.01508045
142	0xbd2690b4	-0.040665343
143	0xbc854d51	-0.016272219
144	0xbcce22c1	-0.025163056
145	0xbae3898a	-0.0017359715
146	0xbcc72d85	-0.024313698
147	0xb9222b37	-0.00015465623
148	0x3c7d8fe0	0.015476197
149	0xbb5fafe0	-0.003413193
150	0xbcc72369	-0.024308877
151	0xbc9740bd	-0.018463487
152	0xbd1b05f9	-0.037847493
153	0x3c9cd1d5	0.019143024
154	0x3c836b9f	0.016042529
155	0xbc850ce4	-0.016241498
156	0xbb8a3a67	-0.004218388
157	0xbba2b95b	-0.0049659437
158	0x3d0b4eaa	0.034010567
159	0xbb2a7f06	-0.0026015653
160	0xbc9e2611	-0.01930526
161	0x3bf1ef02	0.0073832283
162	0x3d228ad0	0.039683163
163	0x3ccf0c30	0.025274366
164	0x3cf48c5a	0.029852081
165	0xbc9568fe	-0.01823854
166	0xbcafbff7	-0.02145384
167	0x3cc21629	0.023692207
168	0xbc723cf2	-0.014785038
169	0xbc5e69c3	-0.01357502
170	0x3c6f7a9a	0.014616633
171	0x3d2acdeb	0.041700285
172	0xbcb15d0a	-0.02165081
173	0xbd24e0f4	-0.040253595
174	0x3bb25998	0.0054428093
175	0xbcad27ae	-0.021137085
176	0xbccac2a3	-0.024751013
177	0x3cb8e435	0.022569755
178	0x3b65f03a	0.0035085813
179	0xbcfe18fe	-0.031017777
180	0x3d345745	0.04402854
181	0x3cb31d8f	0.02186468
182	0x3ceb74fd	0.028742308
183	0xbc6c8d64	-0.014438007
184	0xbd30ee76	-0.043196164
185	0x3cfd1077	0.03089164
186	0xbd023293	-0.031786513
187	0xbd1f997b	-0.03896473
188	0x3d16b7f1	0.036796514
189	0xbba8289c	-0.005131794
190	0x3c545b5e	0.012961237
191	0xbcfc6059	-0.03080766
192	0x3cc44b60	0.023961723
193	0x3c0d3b6f	0.008620127
194	0x3c95fd10	0.018309146
195	0x3d019253	0.031633686
196	0xbbce345d	-0.0062928633
197	0xbd199cf1	-0.037503187
198	0xbc17b8b4	-0.009260345
199	0xbcf072b3	-0.029351568
200	0xbc885a93	-0.016644752
201	0xbd0bd9ee	-0.03414338
202	0x3bd5b6c7	0.006522033
203	0xbd0a2085	-0.03372242
204	0x3bf2aa65	0.0074055665
205	0x3cca09ed	0.024662936
206	0x3cdb7d8e	0.026793268
207	0xbcdfa365	-0.027299592
208	0x3c10a0d1	0.008827404
209	0x3c124254	0.008926947
210	0x3d03c738	0.03217241
211	0x3cec073b	0.028812042
212	0x3c0d2e8e	0.0086170565
213	0xbccc3d7d	-0.024931664
214	0x3ce9cfe0	0.028541505
215	0x3c90d668	0.017680362
216	0x3cfcd10a	0.030861396
217	0x3d2ef434	0.04271336
218	0xbd322789	-0.043494735
219	0xbb2318a2	-0.0024886508
220	0x3cd28ba7	0.025701357
221	0x3cb6e482	0.022325758
222	0x3c51de4c	0.012809347
223	0xbbb959f3	-0.0056564747
224	0x3d3681ee	0.044557504
225	0x3ce762ce	0.028245356
226	0x3cebc4f8	0.028780445
227	0x3c9200b0	0.017822593
228	0xbcd2de77	-0.025740845
229	0xbc240bd9	-0.01001259
230	0x3c157fb8	0.009124689
231	0x3b2535de	0.002520911
232	0xbc55981a	-0.013036752
233	0x3d2b56c5	0.041830797
234	0xbc6b77f0	-0.014371857
235	0x3d13cbba	0.03608296
236	0xba20c34d	-0.0006132618
237	0xbc913d7d	-0.017729515
238	0xbca112c9	-0.019662278
239	0x3ce05b3c	0.027387254
240	0x3ca8f68f	0.02062538
241	0x3bbaa6c8	0.0056961514
242	0x3cdfd72d	0.027324283
243	0x3d003abe	0.03130602
244	0xbd14f206	-0.036363624
245	0x3d0a87ea	0.033821024
246	0x3bd302bb	0.0064395345
247	0xbc3ee9cc	-0.011652421
248	0xbce1f022	-0.027580325
249	0x3ca90372	0.020631526
250	0x3d2af554	0.04173787
251	0x3cd65e04	0.026167877
252	0xbd1ad800	-0.03780365
253	0x3c75276d	0.014963013
254	0x3d1e7a63	0.038690936
255	0xbd1b6dcb	-0.037946504

siam_layer.conv2.bias f4 [7]
0	0x3cf74ad0	0.03018704
1	0x3ca3bee0	0.019988477
2	0xbc930c79	-0.017950283
3	0xbc678aa6	-0.014132177
4	0xbd2290e7	-0.03968897
5	0x3d0a6784	0.033790126
6	0xbcb2e253	-0.021836435

siam_layer.conv3.weight f4 [7, 14, 6, 6]
0	0x3c21ab9d	0.009867576
1	0x3ccb1b4a	0.024793286
2	0xbce8580e	-0.0283623
3	0xbcf474a9	-0.029840784
4	0x3bcffd1d	0.006347312
5	0x3c98b87b	0.018642655
6	0x3cb3f569	0.021967607
7	0x3d2beeed	0.041975904
8	0xbceeb3cf	-0.029138474
9	0x3ca693a0	0.020334065
10	0x3c4e106c	0.0125771575
11	0xbd2d0814	-0.042244032
12	0x3d292cfb	0.041302662
13	0xbce5afb8	-0.02803789
14	0xbb4bb87f	-0.003108531
15	0xbca6c6c1	-0.020358445
16	0xbd25cde2	-0.04047955
17	0xbd2f9593	-0.042867254
18	0xbb7f8487	-0.0038988905
19	0xbc5300c0	-0.012878597
20	0xbc5e7c86	-0.013579493
21	0x3c8276ea	0.015925843
22	0xbce6fd91	-0.028197082
23	0x3d0fcdd5	0.035108406
24	0xbcf19f4b	-0.029494902
25	0x3b7a313f	0.0038176326
26	0xbd15a087	-0.036530044
27	0xbc9913ee	-0.018686261
28	0x3c5156a5	0.012777005
29	0x3cf340d9	0.029694008
30	0xbc2148dd	-0.009844032
31	0x3b870989	0.0041210097
32	0x3c3ec6a2	0.011644037
33	0xbcd840ba	-0.026398052
34	0xbd2c2d35	-0.0420353
35	0xbce03a18	-0.027371451
36	0xbc6807c6	-0.01416201
37	0x3d04993b	0.032372694
38	0x3bd5d09e	0.0065251132
39	0x3b63628a	0.0034696185
40	0x3cba98b7	0.022777898
41	0xb94c3c74	-0.00019477477
42	0x3c9ab3e9	0.018884616
43	0x3d19191f	0.037377473
44	0x3cf6e7a9	0.030139761
45	0x3c8350d3	0.01602975
46	0xbcb2b994	-0.021817006
47	0x3a82a08a	0.0009966057
48	0xbb9c4ea4	-0.004770117
49	0x3c34ae61	0.011027903
50	0xbc2c6815	-0.010522862
51	0xbd0398bf	-0.032128092
52	0x3cef2010	0.029190093
53	0x3bba8f72	0.0056933695
54	0xbcbf9d70	-0.023390502
55	0xbcde9eb3	-0.027175283
56	0x3cc9827e	0.024598356
57	0x3cc33a1c	0.02383142
58	0xbc2da37a	-0.010598058
59	0xbcc4afbf	-0.024009584
60	0x3bb84fd8	0.0056247525
61	0x3cf16361	0.029466333
62	0x3d17b576	0.03703829
63	0xbd1e8bda	-0.03870759
64	0x3d0757f4	0.033042863
65	0xbaff46e9	-0.0019476089
66	0x3cc412c6	0.023934733
67	0xbd1a2335	-0.037631232
68	0xbaa418a5	-0.0012519552
69	0xbce1e8c3	-0.02757681
70	0x3d172119	0.0368968
71	0xbb653361	-0.0034973251
72	0xbc91a886	-0.017780554
73	0x3c2ef181	0.010677696
74	0x3d295d8a	0.04134897
75	0xbd2c0cdb	-0.042004447
76	0xbccbc9ad	-0.02487644
77	0xbd2afaed	-0.041743208
78	0x3cdaa3e9	0.026689487
79	0xbcf59b5c	-0.029981308
80	0xbc9f52d8	-0.019448683
81	0xbd10cfe0	-0.035354495
82	0x3ca0ab34	0.019612886
83	0xbc63a10e	-0.013893379
84	0xbd2da0bf	-0.042389628
85	0x3cba4e23	0.022742337
86	0xbd176001	-0.03695679
87	0xba40fa00	-0.00073614717
88	0x3d1ea2fb	0.03872965
89	0xbd1412aa	-0.036150612
90	0x3c5a2eb5	0.0133168
91	0xbbc21871	-0.005923324
92	0x3ca955c1	0.020670773
93	0xbd211409	-0.039325748
94	0x3c322fa2	0.010875614
95	0xbc58148f	-0.013188495
96	0xbbd70f53	-0.006563106
97	0xbd1030ce	-0.035202794
98	0x3cc3d788	0.023906484
99	0xbcaba512	-0.020952735
100	0x3cceaa26	0.025227617
101	0xbb89e464	-0.0042081345
102	0xbc3d6e73	-0.011561978
103	0xbd261e2b	-0.040556114
104	0xbd294259	-0.04132304
105	0xbd091b64	-0.033473387
106	0x3a8be2ab	0.0010672411
107	0xbd28589c	-0.04110013
108	0x3d27dc53	0.040981602
109	0xbd198475	-0.037479836
110	0xbc57d800	-0.013174057
111	0x3c3dc6a5	0.011583005
112	0xbd1ce5bc	-0.03830503
113	0x3c08a41d	0.008339909
114	0xbcdfac97	-0.027303977
115	0xbc3f298e	-0.011667622
116	0x3c79a609	0.01523734
117	0x3d2510e3	0.040299308
118	0x3ce6c0d0	0.028168112
119	0x3cc73360	0.02431649
120	0xbd1b7fbe	-0.03796362
121	0x3c628f11	0.013828055
122	0x3cb543bc	0.022127025
123	0xbd3114bc	-0.043232664
124	0xbbd2eba9	-0.0064367843
125	0xbd30b091	-0.043137137
126	0x3d10f07e	0.0353856
127	0xbbdc51c4	-0.0067236144
128	0xbb493e36	-0.0030707247
129	0xbba5bca7	-0.0050578895
130	0xbcfa71b1	-0.03057179
131	0x3d1c0e41	0.03809953
132	0x3cb72b86	0.02235962
133	0xbd232466	-0.039829634
134	0xbcc7cf38	-0.024390802
135	0x3d15155c	0.036397323
136	0x3cd114b4	0.025522567
137	0xbc2a6b70	-0.010401592
138	0xbc77100c	-0.0150795095
139	0xbd01ea17	-0.031717386
140	0xbc84a0af	-0.016189901
141	0xbbdb6e21	-0.006696478
142	0x3cb77f94	0.022399701
143	0xb939e646	-0.00017728758
144	0x3c3c298e	0.011484517
145	0xbcc844c2	-0.024446849
146	0x3a6df622	0.0009077509
147	0x3d15e103	0.03659154
148	0xbc057f1a	-0.008147979
149	0x3cfadb7f	0.030622242
150	0x3d1e0e27	0.038587715
151	0xbce4ec45	-0.027944693
152	0x3c9ac8d3	0.018894589
153	0xbd11448f	-0.035465773
154	0x3d1ff8ff	0.03905582
155	0xbd0aee4f	-0.033918675
156	0xbc7728ef	-0.015085443
157	0xbb79d3e9	-0.0038120693
158	0xbd272c61	-0.040813807
159	0x3d1b8586	0.037969135
160	0xbcef7d0d	-0.029234434
161	0x3d0837bb	0.033256274
162	0x3cb9d595	0.022684852
163	0x3c12051b	0.00891235
164	0xbbba289d	-0.005681111
165	0xbd2697a7	-0.04067197
166	0xbca6136a	-0.02027293
167	0xbd0006e1	-0.03125656
168	0xbd214e23	-0.039381158
169	0xbc05b908	-0.008161791
170	0x3bdf81cd	0.0068208934
171	0x3c66d800	0.014089584
172	0xbce31d43	-0.027723914
173	0x3c11f9cd	0.008909655
174	0xbc056d68	-0.00814376
175	0xbc835d28	-0.016035631
176	0xbd2e396c	-0.04253523
177	0xbb83e54e	-0.004025138
178	0xbd1c5408	-0.038166076
179	0xbcf2214f	-0.029556898
180	0x3d34a00e	0.044097953
181	0x3b8c8eae	0.0042894697
182	0xbc726780	-0.014795184
183	0x3cbafc44	0.022825368
184	0xbcf29fe8	-0.029617265
185	0x3c41a899	0.011819982
186	0xbc6f6fd1	-0.014614061
187	0x3cecb96c	0.02889701
188	0xbcef3140	-0.029198289
189	0x3c4b4a32	0.012407826
190	0x3ce10692	0.027468953
191	0x3cd86147	0.026413573
192	0x3caa70b0	0.020805687
193	0xbbaac204	-0.0052111167
194	0xbb02f2fc	-0.0019981256
195	0xbd30d6ac	-0.043173477
196	0x3d0a949a	0.033833124
197	0xbc0e8c22	-0.008700402
198	0x3cbc6b4b	0.02300038
199	0xbc7af6bd	-0.015317616
200	0xbd1291f1	-0.03578371
201	0x3c325e40	0.010886729
202	0xbcfd4f2b	-0.03092154
203	0xbb5db1ca	-0.0033827894
204	0xbd185779	-0.037192795
205	0x3c0af15a	0.008480394
206	0xbb9d982c	-0.0048094
207	0x3b458192	0.0030137044
208	0xbcb38fc5	-0.02191914
209	0x3bcdafd2	0.006277063
210	0xbc829253	-0.015938913
211	0xbd360cac	-0.04444568
212	0xbd1a69d4	-0.03769858
213	0xbcd59349	-0.026071208
214	0x3c9b6dff	0.018973349
215	0xbcad1fe2	-0.021133367
216	0x3d2c7856	0.04210695
217	0xbc8349be	-0.016026374
218	0xbd2093aa	-0.039203323
219	0x3bca0e53	0.0061662584
220	0x3a92edcd	0.0011209786
221	0xbbf1bea6	-0.0073774634
222	0xbd12a16c	-0.035798475
223	0xbcbb4184	-0.022858389
224	0xbc9b58c8	-0.018963233
225	0xbbcf1b47	-0.0063203904
226	0xbc8af7a1	-0.016963782
227	0x3c628143	0.013824764
228	0xbd188c3d	-0.037243117
229	0xbd03db90	-0.032191813
230	0xbbbfb2c8	-0.00585017
231	0x3cc28cce	0.023748782
232	0x3c06fdae	0.008239193
233	0x3d13bdac	0.036069557
234	0xbd23ef1c	-0.040022954
235	0xbca2521c	-0.019814543
236	0x3c8ad698	0.01694803
237	0xbc6c5014	-0.014423389
238	0xbc9ef959	-0.019406008
239	0x3cc749da	0.024327207
240	0xbbd544dc	-0.006508453
241	0x3c55ed0e	0.0130570065
242	0x3caea824	0.02132041
243	0xbccbdd50	-0.024885803
244	0xbd112ad7	-0.035441246
245	0x3cc7e673	0.024401879
246	0x3d092f0e	0.03349214
247	0x3cc10b64	0.023565002
248	0x3c5754f6	0.013142815
249	0x3d2d4022	0.04229749
250	0xbc30ff30	-0.010803029
251	0xbb959ae3	-0.004565583
252	0x3c3af7d3	0.011411625
253	0xbc96b50c	-0.018396877
254	0xbcfa589f	-0.030559836
255	0x3d281fcb	0.041045945

siam_layer.conv3.bias f4 [7]
0	0x3d02634c	0.031832978
1	0x3cac66b4	0.021045066
2	0x3cc2bbd0	0.023771197
3	0xbac466a0	-0.0014984198
4	0x3afd7f40	0.0019340292
5	0x3d14a8e0	0.036293864
6	0x3c5238a8	0.012830891

siam_layer.conv4.weight f4 [3, 14, 6, 6]
0	0xbbb55e03	-0.0055348887
1	0xba6e3c3b	-0.00090879545
2	0x3d10d485	0.035358924
3	0xbcb05219	-0.021523522
4	0x3d017633	0.031606864
5	0x39f1eca7	0.00046143422
6	0xbbdbd95d	-0.0067092613
7	0xbb2a95d5	-0.0026029248
8	0xbb063b66	-0.0020482182
9	0xbcdbd450	-0.026834637
10	0x3cdd1c9a	0.026991177
11	0xbce7cb2b	-0.02829512
12	0xbcb6f90f	-0.022335557
13	0x3cc01135	0.023445705
14	0x3ce0db8c	0.027448438
15	0x3c0ac4ab	0.008469741
16	0xbcdc21f3	-0.026871657
17	0xbc8a2e09	-0.016867654
18	0x3b5570f2	0.0032568541
19	0x3ca02142	0.019547109
20	0x3d0eb631	0.03484172
21	0xbcaed7f3	-0.021343207
22	0xbd157539	-0.036488745
23	0x3bd2bdca	0.006431316
24	0x3c5a2442	0.013314309
25	0x3d01faa6	0.031733178
26	0x3cf75988	0.030194059
27	0x3c11a750	0.008889988
28	0x3b2f7dfb	0.002677797
29	0x3b41df49	0.0029582551
30	0x3c4fcab4	0.012682606
31	0xbcc02675	-0.023455838
32	0xbcad63b3	-0.021165704
33	0x3cfb9561	0.030710878
34	0x3b66ca3d	0.0035215758
35	0xbc70936c	-0.014683586
36	0xbcc17325	-0.023614476
37	0x3d032366	0.03201618
38	0xbbcff547	-0.006346378
39	0xbd2a7983	-0.04161979
40	0x3c959f72	0.018264506
41	0x3d16b210	0.036790907
42	0xbcfe96ce	-0.031077769
43	0x3c3373cc	0.010952901
44	0x3c56ce31	0.013110683
45	0x3cccd703	0.02500487
46	0x3cd02d49	0.025412219
47	0xbc9923ab	-0.018693766
48	0xbcef1a8f	-0.029187469
49	0x3cad9b0f	0.021192102
50	0x3d363a93	0.044489454
51	0xbcd6c7d4	-0.026218332
52	0x3d0ea250	0.034822762
53	0x3d3762f2	0.044772096
54	0xbcaca6ce	-0.021075632
55	0xbbc050a9	-0.0058689904
56	0x3af3af5d	0.0018591691
57	0xbcfb2f5d	-0.030662233
58	0x3badfb04	0.0053094644
59	0x3d055498	0.032551378
60	0x39f534f5	0.00046769498
61	0x3c93f978	0.018063292
62	0x3b2fc54a	0.0026820474
63	0xbbbc8f1f	-0.005754366
64	0x3c30ddd2	0.010795074
65	0xbd2c91cc	-0.04213123
66	0xbc660b5c	-0.014040794
67	0x3cebc956	0.028782528
68	0xbb5411ba	-0.0032359199
69	0xbca712de	-0.020394739
70	0x3c79acbb	0.015238936
71	0x3b94bdbf	0.004539221
72	0xbc166b4c	-0.009180855
73	0xbcc0da38	-0.023541555
74	0xbc859c7a	-0.016309965
75	0x3c221dbf	0.009894787
76	0x3ba285ad	0.004959783
77	0xbc26eeee	-0.010188801
78	0x3d238427	0.039920952
79	0xbc96f817	-0.018428845
80	0xbd03cf50	-0.03218013
81	0xbd2a6ee1	-0.04160965
82	0xbcb9ac65	-0.022665212
83	0xbc0802af	-0.008301421
84	0x3c987b9a	0.018613625
85	0xbd241e9c	-0.040068254
86	0xbd19c527	-0.037541535
87	0xbcc76266	-0.024338912
88	0x3cb579de	0.022152837
89	0xbccc65a8	-0.024950817
90	0x3c8aba73	0.016934609
91	0x3c850539	0.016237842
92	0xbc647c85	-0.013945703
93	0xbccb74cb	-0.024835965
94	0x3c5517eb	0.013006191
95	0xbd0e5d49	-0.034756932
96	0xbd2a38de	-0.04155814
97	0xbd2bc4ab	-0.041935604
98	0x3d28d840	0.041221857
99	0xbc659f1c	-0.014014985
100	0xbcae4499	-0.021272944
101	0xbc516d85	-0.012782459
102	0xbd133299	-0.035936926
103	0xbd21fe43	-0.039549123
104	0xbc4b9e2e	-0.01242785
105	0x3cd385b8	0.025820598
106	0xbc38ea74	-0.011286367
107	0x3d1b3c6b	0.037899416
108	0xbbabc182	-0.005241574
109	0xbc47613c	-0.012169179
110	0xbd180f89	-0.03712419
111	0x3d34971c	0.04408942
112	0x3c53aacd	0.01291914
113	0x3d3624b0	0.04446858
114	0x3c6691ba	0.01407283
115	0x3d0c3b56	0.034236275
116	0xbae7d603	-0.0017687682
117	0x3d10fa1b	0.03539477
118	0x3a82eefb	0.0009989435
119	0x3d0aa29b	0.03384648
120	0x3cd9eb4b	0.026601454
121	0x3cb13837	0.02163325
122	0x39affc1a	0.0003356643
123	0x3ccfb8bb	0.025356641
124	0xbcc7b435	-0.024377922
125	0xbc1bd7b6	-0.009511879
126	0x3cd06c8f	0.02544239
127	0x3c76c600	0.015061855
128	0x3c9b813c	0.018982522
129	0xbccabfd0	-0.024749666
130	0xbb0ed25e	-0.002179287
131	0x3b9dcd6f	0.0048157494
132	0xbc0ae32d	-0.0084770145
133	0xbcb68bdc	-0.022283487
134	0x3b3b3fe2	0.0028572013
135	0xbcbd47de	-0.023105558
136	0xbcdd80ad	-0.027038896
137	0x3d21be62	0.039488204
138	0x3cd862fe	0.02641439
139	0xbc761683	-0.015020016
140	0x3cff14ba	0.031137813
141	0xba77b0c2	-0.0009448641
142	0x3d09701c	0.03355418
143	0xbc56679b	-0.013086225
144	0x3ac17693	0.0014760069
145	0xbcdffcef	-0.027342288
146	0x3d313def	0.043271955
147	0xbc6744ec	-0.014115553
148	0x3c983778	0.018581137
149	0xbce420d3	-0.027847683
150	0xbd0bca04	-0.034128204
151	0xbbd96760	-0.0066346377
152	0xbcee97ea	-0.029125173
153	0x3b6008a7	0.0034184845
154	0x3c96a42b	0.018388828
155	0x3cd52895	0.026020328
156	0x3c1c0bbb	0.009524281
157	0x3cd9befb	0.026580324
158	0x3d225b27	0.03963771
159	0x3cedd519	0.029032277
160	0x3d19347b	0.037403565
161	0x3b7afe80	0.0038298666
162	0xbb2f4bc1	-0.0026748034
163	0x3caf5dfe	0.021407124
164	0xbc70afbb	-0.014690335
165	0xbd2aca0a	-0.041696586
166	0x3c8044a4	0.01565773
167	0x3badb992	0.0053016627
168	0xbcd76590	-0.026293546
169	0x3cea0610	0.028567344
170	0x3c46ff68	0.0121458545
171	0x3c2b2c48	0.010447569
172	0xbd334577	-0.04376742
173	0x3cd8c583	0.026461368
174	0x3c1331fe	0.008984087
175	0xbc761210	-0.015018955
176	0xbcfcb27e	-0.03084683
177	0xbc6ca59c	-0.014443781
178	0xbcf1209a	-0.029434491
179	0xbbb23ae5	-0.0054391497
180	0x3c81de58	0.015853092
181	0xbc591916	-0.01325061
182	0x3cfb0b8d	0.030645156
183	0x3c3ef157	0.01165422
184	0x3d178b93	0.036998343
185	0x3c981f30	0.018569559
186	0xbb2f4326	-0.0026742904
187	0x3d0081ab	0.03137366
188	0x3d179588	0.03700784
189	0xbb8e810e	-0.0043488806
190	0xbd1595bb	-0.036519747
191	0xbb69268e	-0.003557596
192	0x3c54da43	0.012991491
193	0xbccf2118	-0.025284335
194	0xbd16c0e2	-0.03680504
195	0xbc52a2d7	-0.012856207
196	0x3c7d5584	0.015462283
197	0x3d185686	0.03719189
198	0x3cc03117	0.023460908
199	0xbbd13270	-0.0063841864
200	0x3d303651	0.04302055
201	0xbba6d316	-0.0050910814
202	0xbc736650	-0.014855936
203	0xbc369f6c	-0.011146408
204	0xbc28869b	-0.010285999
205	0x3d325a95	0.043543417
206	0xbc821390	-0.015878469
207	0xbc99eb28	-0.018788889
208	0x3cad13a7	0.021127535
209	0x3d0e0d0c	0.03468041
210	0x3d121aed	0.03567021
211	0xbd281abd	-0.041041125
212	0xbca47574	-0.020075537
213	0x3bab57bb	0.005228964
214	0x3c9fced9	0.019507812
215	0xbd025f31	-0.031829063
216	0xbc7b210f	-0.015327706
217	0x3d31304d	0.043258954
218	0x3ba66e8d	0.0050790966
219	0xbc9a4fd6	-0.018836897
220	0xbb210597	-0.0024569982
221	0xbc5a3a0c	-0.0133195035
222	0xbc1a0845	-0.009401386
223	0x3d0e137c	0.03468655
224	0x3c285ee3	0.010276529
225	0x3cbb8430	0.02289018
226	0xbc86d049	-0.01645674
227	0x3c885198	0.01664047
228	0x3c9cda8b	0.019147178
229	0x3cd2d092	0.02573422
230	0x3d0fea8a	0.035135783
231	0xbc2aa7c6	-0.010415977
232	0x3ccf80ad	0.025329912
233	0xbb8e1b72	-0.004336768
234	0x3cad0f26	0.021125387
235	0xbd0fe467	-0.03512993
236	0x3c136ef4	0.008998621
237	0x3c2dea91	0.010615007
238	0x3d2934c4	0.041310087
239	0x3c8cdebf	0.017196057
240	0x3c013ef8	0.007888548
241	0x3cbe0b32	0.023198698
242	0xbd0d9bc0	-0.034572363
243	0xbc592f34	-0.013255883
244	0x3cedfaf6	0.029050332
245	0xbd29b3a1	-0.041431073
246	0x3ccad1ca	0.024758238
247	0x3c19962a	0.009374181
248	0xbd12c98e	-0.03583675
249	0x3ca7f381	0.020501854
250	0x3ce593fb	0.028024664
251	0x3d1032bc	0.035204634
252	0x3c3baeb4	0.011455227
253	0xbd22bb73	-0.039729547
254	0xbbd3a610	-0.006459005
255	0x3d156d30	0.036481082

siam_layer.conv4.bias f4 [3]
0	0xbc941ae2	-0.018079225
1	0x3cc0b3c4	0.023523219
2	0xbd10aa7e	-0.035318844

siam_layer.conv5.weight f4 [1, 3, 6, 6]
0	0xbdb382fb	-0.08765217
1	0xbd377a74	-0.044794515
2	0x3c197220	0.009365588
3	0x3da1ced1	0.07900775
4	0xbc24333d	-0.010021982
5	0x3d6c36cf	0.057669457
6	0x3d8051cd	0.06265602
7	0x3cc7da4f	0.02439609
8	0xbd72a3de	-0.059238307
9	0xbd12caac	-0.035837814
10	0xbdb809a9	-0.089862175
11	0x3d99d112	0.0751058
12	0xbdb89978	-0.09013647
13	0x3c8980fd	0.01678514
14	0xbd8cfb67	-0.06883889
15	0x3d51a232	0.051180072
16	0x3d951b4f	0.07280599
17	0xbcc73133	-0.024315452
18	0xbc6dbebb	-0.014510806
19	0xbd05f60b	-0.032705348
20	0xbc9b345b	-0.018945863
21	0xbdc387e6	-0.09547405
22	0xbd700afb	-0.05860422
23	0xbd2b34e6	-0.041798495
24	0x3c996c74	0.018728472
25	0x3d63b22e	0.055589847
26	0x3d15aabd	0.03653978
27	0x3c35d5f2	0.011098372
28	0xbda324cf	-0.07966005
29	0xbcc504d6	-0.024050158
30	0xbd45a269	-0.04825059
31	0xbcfaa03f	-0.03059399
32	0x3ce1b5ce	0.027552512
33	0xbd87bd30	-0.066278815
34	0x3d8a522d	0.06753955
35	0x3d512ff6	0.05107113
36	0x3d48f8a3	0.049065243
37	0xbd8641a9	-0.065554924
38	0xbcc48f39	-0.023994075
39	0xbd0ca2c5	-0.034334917
40	0x3ce52ccf	0.027975468
41	0xbbaff485	-0.005369725
42	0xbc9b9c01	-0.018995287
43	0xbb0f2e2a	-0.0021847584
44	0x38d4dcd9	0.00010150084
45	0x3ce903ec	0.028444253
46	0xbca4f410	-0.02013591
47	0xbcc5ee95	-0.024161616
48	0x3d95fd08	0.073236525
49	0x3db15f7e	0.08660792
50	0x3c9b791b	0.018978646
51	0x3daf8f01	0.08572198
52	0xbda242b7	-0.07922881
53	0x3dbf9569	0.093546696
54	0xbda0fbe2	-0.07860543
55	0xbd7ffe9a	-0.062498666
56	0xbbffac40	-0.007802516
57	0xbd960877	-0.07325833
58	0xbd1e3251	-0.038622204
59	0xbd53ae8d	-0.051680136
60	0xbda5cc52	-0.08095612
61	0x3d7ba07c	0.061432347
62	0x3d9f9f4a	0.07794054
63	0x3b8cddd7	0.0042989063
64	0x3cd11948	0.02552475
65	0xbcadfbab	-0.021238169
66	0xbd248962	-0.04017008
67	0xbc4d9259	-0.012547099
68	0x3d8aa2f6	0.067693636
69	0x3dbc5bfd	0.09197233
70	0x3c634847	0.013872213
71	0xbbd0fca9	-0.0063777757
72	0x3db995ab	0.0906175
73	0x3befef18	0.0073222034
74	0xbdc52ff4	-0.09628287
75	0xbd6e9190	-0.058244288
76	0xbc369d76	-0.01114594
77	0xbcbcdf12	-0.023055587
78	0x3db6e8a4	0.089310914
79	0xbd5bf2e8	-0.05369845
80	0x3ca58c36	0.02020846
81	0xbc2f7f9b	-0.010711576
82	0x3d802c99	0.06258506
83	0x3d499570	0.04921478
84	0x3c7556f4	0.0149743445
85	0xbcb921c8	-0.022599116
86	0xbd5ad938	-0.053429812
87	0xbdbb71c4	-0.091525584
88	0x3d499351	0.049212757
89	0x3d158b6e	0.036509924
90	0x3d20f879	0.039299462
91	0x3cd45f40	0.025924325
92	0x3da47c08	0.080314696
93	0x3cf5b4bb	0.029993406
94	0x3c1d5f7b	0.009605284
95	0xbd253aa2	-0.04033912
96	0x3d838bd9	0.06423158
97	0xbd7e4d20	-0.06208527
98	0x3cb37a4f	0.021908907
99	0x3cef4b89	0.029210823
100	0xbba9f0e7	-0.0051861885
101	0x3d9e1daf	0.077205054
102	0x3d494d1f	0.049145814
103	0xbdad3449	-0.08457238
104	0xbd0ee6f0	-0.034888208
105	0xbd1f0b49	-0.03882912
106	0x3d305f2b	0.04305951
107	0x3c08b442	0.008343758

siam_layer.conv6.weight f4 [1, 3, 6, 6]
0	0xbc30aedc	-0.010783877
1	0xbc1753c8	-0.009236284
2	0x3d71740d	0.058948565
3	0xbcb4b2c9	-0.022057908
4	0x3d8d02dd	0.06885312
5	0xbda7078b	-0.081557356
6	0x3da06aff	0.07832908
7	0x3cf3244f	0.0296804
8	0x3d28382e	0.041069202
9	0xbd7d5508	-0.06184867
10	0xbdbc1b43	-0.09184887
11	0xbdc3efbe	-0.095672116
12	0xbc315e66	-0.010825729
13	0x3dbf55e5	0.09342555
14	0x3dc0e491	0.094185956
15	0x3bf68267	0.0075228694
16	0x3dbb268b	0.09138211
17	0xbdb75ade	-0.089528784
18	0xbb71b03f	-0.0036878732
19	0x3d93c773	0.07215776
20	0x3d00817e	0.031373493
21	0x3db9c261	0.09070278
22	0x3cd3e993	0.025868213
23	0xbdc3341d	-0.09531424
24	0xbdb18b1e	-0.086691126
25	0x3c4c4706	0.012468105
26	0xbd543ff5	-0.051818807
27	0x3c83c845	0.016086707
28	0x3cff0931	0.031132312
29	0x3dbbe0e8	0.09173757
30	0x3cb7578c	0.022380613
31	0x3b8a3420	0.0042176396
32	0xbda50e97	-0.080594234
33	0x3db7be83	0.08971884
34	0x3d62db41	0.055384878
35	0xbd439bec	-0.04775612
36	0xbd96e78a	-0.07368381
37	0xbd674b04	-0.056468025
38	0x3afb7309	0.0019184063
39	0xbcfb8337	-0.030702217
40	0xbd0848a3	-0.033272397
41	0xbdacbaba	-0.08434053
42	0xbd30ad7b	-0.043134194
43	0xbd22bc4c	-0.039730355
44	0x3d696a8c	0.056986377
45	0x3d464866	0.04840889
46	0x3d3281b0	0.04358071
47	0xbbcb2a9a	-0.006200147
48	0xbd9d524a	-0.07681711
49	0xb99f07d2	-0.0003033267
50	0x3d6880ac	0.056763336
51	0x3d02dc37	0.031948294
52	0x3d247eb2	0.04015989
53	0x3d875163	0.0660732
54	0xbc99e067	-0.018783761
55	0xbca0acfc	-0.019613735
56	0xbc48a257	-0.012245736
57	0xbc8d6209	-0.01725866
58	0xbd49b9d3	-0.04924948
59	0xbd6edbf9	-0.05831525
60	0x3d9ce730	0.07661283
61	0x3d6395c3	0.055562746
62	0xbd8a2b73	-0.067465685
63	0x3c3888d5	0.011263092
64	0xbd46391f	-0.04839432
65	0xbbe6b526	-0.0070406375
66	0xbd9e9000	-0.077423096
67	0xbd9e7a50	-0.07738173
68	0x3dad6539	0.08466572
69	0x3d4dfe39	0.050291274
70	0x3d8084aa	0.06275304
71	0x3d0d5eda	0.034514286
72	0xbd969d05	-0.07354168
73	0xbd1f41ff	-0.0388813
74	0x3d51ee43	0.051252615
75	0xbc4a9592	-0.012364762
76	0xbd978723	-0.07398822
77	0xbdc316a2	-0.09525801
78	0xbdc47f4c	-0.095945925
79	0xbd3516b6	-0.044211112
80	0x3d3834c5	0.0449722
81	0x3db166a6	0.08662157
82	0x3d4acc6b	0.049511354
83	0xbd64a3dc	-0.05582033
84	0xbd31305c	-0.04325901
85	0x3c8a4600	0.016879082
86	0xbdc19ae5	-0.09453372
87	0xbdaff2ef	-0.08591258
88	0xbd970d5e	-0.073755965
89	0x3ce3ba38	0.027798757
90	0xbd00dd18	-0.03146085
91	0xbd1cc43e	-0.03827309
92	0x3d9b4e5b	0.075833045
93	0x3d6c4998	0.057687372
94	0x3cf356fe	0.029704567
95	0xbd5d5063	-0.05403174
96	0xbcf87301	-0.030328276
97	0x3b4615d2	0.0030225408
98	0xbd4f401e	-0.050598256
99	0xbd512264	-0.051058188
100	0xbdc3a3ec	-0.0955275
101	0xbd7867c5	-0.060645837
102	0xbdb8ca07	-0.09022909
103	0x3d75241d	0.059848893
104	0x3c3f69af	0.011682912
105	0xbcd4f356	-0.025994938
106	0x3da2f3da	0.07956667
107	0xbd21f646	-0.039541505

siam_layer.conv7.weight f4 [1, 2, 6, 6]
0	0x3cecf5d8	0.028925821
1	0x3d828227	0.06372481
2	0xbdab777f	-0.083724014
3	0x3de149f8	0.110004365
4	0x3c5124fd	0.012765166
5	0x3da46c5e	0.08028482
6	0x3d0ce6c0	0.034399748
7	0xbdcf0fed	-0.101104595
8	0xbda3d52a	-0.07999642
9	0xbd93c348	-0.07214981
10	0x3dc18f14	0.09451118
11	0xba87ee94	-0.0010370784
12	0xbd610181	-0.054933075
13	0x3afaf630	0.0019146856
14	0xbde42566	-0.11139946
15	0x3dba5a69	0.090992756
16	0xbde4e834	-0.11177102
17	0xbc19b6b1	-0.009381936
18	0xbd2b547d	-0.04182862
19	0xbcab81fb	-0.020936003
20	0xbde428e9	-0.111406155
21	0x3c8ecf6a	0.017432887
22	0x3de50976	0.11183445
23	0xbcc6e1b2	-0.024277542
24	0x3cbf155d	0.023325616
25	0x3c82eb39	0.015981304
26	0x3dacee23	0.084438585
27	0xbc809cdf	-0.015699802
28	0x3ddcbb37	0.10777896
29	0x3862b9f3	5.4055778e-05
30	0xbdb8bd10	-0.09020436
31	0x3cf05538	0.02933751
32	0x3bccb9d6	0.0062477393
33	0xbcc303cd	-0.023805523
34	0xbdc3d772	-0.09562577
35	0x3d404612	0.046941824
36	0x3dba53dd	0.09098027
37	0xbd114b58	-0.035472244
38	0xbddb8ec7	-0.10720592
39	0xbd85e587	-0.065379195
40	0x3d25595d	0.040368427
41	0x3db7367b	0.08945938
42	0x3d6888ab	0.05677096
43	0x3d8687cd	0.06568871
44	0xbd83e65a	-0.064404204
45	0xbd8d346d	-0.06894765
46	0x3de18120	0.11010957
47	0xbdc9d6a7	-0.09855395
48	0xbddb1035	-0.106964506
49	0x3c0ee236	0.008720925
50	0xbdc29bda	-0.095023826
51	0xbbf25c46	-0.0073962538
52	0x3d10deb0	0.03536862
53	0xbdb8701a	-0.09005757
54	0xbd4f0cbe	-0.05054926
55	0x3deb2cf0	0.114831805
56	0xbde6947d	-0.11258791
57	0xbdbffefd	-0.09374807
58	0xbdbca5af	-0.09211289
59	0xbc9742a8	-0.018464401
60	0x3ce5c5c9	0.028048413
61	0x3ce2dcbf	0.02769315
62	0x3dccb565	0.09995536
63	0x3d0851eb	0.033281248
64	0xbdca0818	-0.09864825
65	0x3d10684e	0.035255723
66	0xbde9c03f	-0.11413621
67	0xbd9abf7a	-0.075560525
68	0xbc7cdd0a	-0.015433559
69	0x3d8dae0e	0.06917964
70	0x3ccc1630	0.024912924
71	0x3dda7de7	0.10668545

dense.weight f4 [1, 308]
0	0xbd0897ae	-0.033347778
1	0x3d23f421	0.04002774
2	0xbd133827	-0.035942223
3	0x3d4928c3	0.04911114
4	0xbc81f4ae	-0.015863743
5	0x3c942a18	0.018086478
6	0x3c487ff1	0.012237535
7	0xbbcff077	-0.0063458043
8	0x3b27adc3	0.0025585748
9	0xbb334ca1	-0.0027358907
10	0xbd3e69d3	-0.04648764
11	0xbcbc988b	-0.023021957
12	0xbbb4bb2d	-0.005515477
13	0x3cb96993	0.02263335
14	0xbd23f2f6	-0.040026627
15	0xbd0cb73f	-0.034354445
16	0xbd01cebe	-0.031691305
17	0xb93773d5	-0.00017495391
18	0x3ca3508b	0.019935867
19	0x3c2e7d3f	0.010649978
20	0xbd21c2ab	-0.03949229
21	0x3d0647de	0.03278338
22	0x3c810ff0	0.01575467
23	0x3d1fe60e	0.039037757
24	0xbd1d7f0d	-0.038451243
25	0xb9b75941	-0.0003497098
26	0xbb617cad	-0.0034406588
27	0x3cdbfd82	0.02685428
28	0xbcba13f1	-0.022714587
29	0x3d21a60f	0.039465006
30	0x3ccb2b68	0.024800971
31	0x3c98f05f	0.018669305
32	0xbcdc6e24	-0.026907988
33	0xbc2eb74c	-0.010663819
34	0xbc845576	-0.016154032
35	0xbd0d7c45	-0.03454234
36	0xbd087c6b	-0.03332178
37	0x3b1a3319	0.0023528992
38	0x3cb3b539	0.021937
39	0x3c250e44	0.010074202
40	0xbc403799	-0.0117320055
41	0x3b1de3dd	0.0024092116
42	0x3c9f0d4b	0.019415518
43	0xbc9ce636	-0.019152742
44	0xbd43a1c4	-0.047761694
45	0xbd4fec1b	-0.050762277
46	0x39f45386	0.00046601536
47	0x3b6d8818	0.0036244448
48	0x3b2cd598	0.002637243
49	0x3cfffd29	0.031248646
50	0x3d42f46f	0.04759639
51	0xbd52c677	-0.051458802
52	0xbc8e5cf1	-0.017378302
53	0xbb29cd1f	-0.0025909615
54	0xbd28c41e	-0.041202657
55	0x3bb94651	0.0056541343
56	0xbd4f2304	-0.050570503
57	0xbd41545b	-0.04719959
58	0x3ceebe25	0.029143402
59	0x3d61a8a2	0.05509246
60	0x3d4e0a8f	0.05030304
61	0xbd3783d5	-0.04480346
62	0x3bf33399	0.0074219224
63	0x3d315f5c	0.043303832
64	0x3c081f1b	0.008308197
65	0x3d2520af	0.040314373
66	0x3d5154d6	0.051106296
67	0x3d18ae8d	0.03727584
68	0xbd1dee06	-0.038557075
69	0xbc31a43b	-0.010842378
70	0x3ccdf37e	0.02514052
71	0x3c03c369	0.008042195
72	0xbca8e7e7	-0.020618392
73	0xbbf6e47d	-0.007534562
74	0xbc587e6b	-0.013213734
75	0x3d5fec7a	0.05466888
76	0xbd0b8af3	-0.03406806
77	0x3d2e4c94	0.0425535
78	0xbd442f9e	-0.047896974
79	0x3d24856f	0.040166315
80	0xbce1b93e	-0.02755415
81	0x3aa7db51	0.001280645
82	0xbc6c8609	-0.014436253
83	0x3bbad9e4	0.005702244
84	0xbc1d59a7	-0.009603894
85	0x3c92bbec	0.017911874
86	0xbd30f29f	-0.04320013
87	0xbc65a987	-0.014017469
88	0xbc8ace2f	-0.01694402
89	0xbd5a4756	-0.053290688
90	0x3c052fbe	0.008129058
91	0x3d08ee6a	0.033430494
92	0xbc1bda41	-0.009512485
93	0xbd0a7d99	-0.033811186
94	0xbd52c0af	-0.05145329
95	0x3cefb905	0.029263029
96	0xbd606a70	-0.054789007
97	0x3bc8deb9	0.0061300662
98	0xbd043abb	-0.032282572
99	0x3d5a1436	0.05324193
100	0x3c982394	0.018571652
101	0x3d1f7b72	0.038936086
102	0x3d324577	0.043523278
103	0xbcd360f6	-0.02580307
104	0xbd058944	-0.03260161
105	0xbae8ca53	-0.0017760493
106	0xbbc98bc1	-0.006150693
107	0xbd4dbab2	-0.050226875
108	0x3cb1176c	0.021617614
109	0xbd3f2fb5	-0.046676356
110	0x3ca2be7c	0.01986622
111	0xbc945814	-0.018108405
112	0x3c00d826	0.007864034
113	0xbd09c7a0	-0.033637643
114	0x3c5c72df	0.013455122
115	0x3b96b9ea	0.0045997994
116	0xbc938881	-0.018009426
117	0x3d133309	0.035937343
118	0x3d00fcf1	0.031491224
119	0x395c4237	0.00021005502
120	0xbd250fea	-0.04029838
121	0xbd45c36b	-0.04828207
122	0x3b830846	0.003998789
123	0x3d20c313	0.039248537
124	0xbccaa8d1	-0.024738701
125	0xbcd0ef23	-0.025504654
126	0xbd594d04	-0.053051963
127	0xbd516c03	-0.0511284
128	0xbc46e6e3	-0.012140009
129	0x3bc4b9b9	0.006003585
130	0x3b317c54	0.0027082162
131	0xbc5ba5e6	-0.0134062525
132	0xbcd3bc51	-0.025846632
133	0xbd527472	-0.051380582
134	0x3d394d0f	0.045239504
135	0xbd36553f	-0.04451489
136	0x3d06ba58	0.032892555
137	0x3cda24a0	0.026628792
138	0x3c1da63c	0.009622153
139	0xbd29a91b	-0.041421037
140	0xbd097c5b	-0.03356586
141	0x3cd4f7c0	0.025997043
142	0xbd50ad86	-0.050946735
143	0x3cb049d2	0.021519575
144	0xb8973f59	-7.2120405e-05
145	0xbd1e1893	-0.038597655
146	0xbc15c43d	-0.009141025
147	0x3cf90ca1	0.03040153
148	0xbd536260	-0.05160749
149	0x3c8239c7	0.015896691
150	0x3adee7c1	0.0017006324
151	0xbd441102	-0.047867782
152	0xbcdc1992	-0.026867662
153	0x3cc4b948	0.02401413
154	0x3c8a5c88	0.016889825
155	0x3b9d5129	0.004800935
156	0x3b6a9a0f	0.0035797392
157	0x3d63f580	0.05565405
158	0x3ce2ebae	0.027700271
159	0x3d394fb1	0.045242015
160	0x3d294b74	0.041331723
161	0x3d549a56	0.051905
162	0xbd5faa69	-0.054605875
163	0xbc2ea480	-0.010659337
164	0x3d1f9c8d	0.038967658
165	0x3d0fe575	0.035130937
166	0xbc1167f7	-0.008874885
167	0x3d5a33ef	0.053272184
168	0x3d29e47a	0.041477658
169	0xbc9bf132	-0.01903591
170	0xbd4e54c8	-0.050373822
171	0x3cb3b2bb	0.021935811
172	0x3d0744a6	0.033024453
173	0xb9159e88	-0.00014268805
174	0x3d612397	0.05496558
175	0xbc612d8b	-0.013743768
176	0xbc9a9ad0	-0.018872648
177	0x3d489944	0.04897429
178	0x3cfa07ac	0.030521236
179	0x3d316ddd	0.043317664
180	0xbd5662da	-0.052340366
181	0x3d28a392	0.041171618
182	0xbc56e84b	-0.013116906
183	0xbd372cff	-0.044720646
184	0x3d2f4183	0.042787086
185	0x3cff0faf	0.031135408
186	0x3d1b5d2f	0.037930664
187	0x3bbdd7ab	0.005793532
188	0x3be2ef8c	0.006925529
189	0x3d1214df	0.035664435
190	0xbcd0fbb4	-0.025510646
191	0xbcad7f86	-0.021178972
192	0x3b97a0ed	0.004627338
193	0xbba0584c	-0.0048933383
194	0x3c92e041	0.017929198
195	0x3afc66ff	0.001925677
196	0x3d2216d6	0.03957256
197	0xbc32a4ab	-0.010903518
198	0x3d5404db	0.051762443
199	0x3d643af4	0.055720285
200	0xbbc2f306	-0.005949381
201	0x3cc66c53	0.024221575
202	0x3c677d30	0.014128968
203	0x3d0e5042	0.03474451
204	0xbcf6482e	-0.030063715
205	0x3d19e1ca	0.037568845
206	0x3d369692	0.04457719
207	0xbc8f4254	-0.017487682
208	0x3cfbfa2c	0.03075894
209	0xbc7b8f8c	-0.015354048
210	0xbd1cb1e3	-0.038255583
211	0x3d1f10da	0.03883443
212	0xbcb4f0ce	-0.02208748
213	0x3d1124e2	0.035435565
214	0xbd15f9b6	-0.036615096
215	0x3cd94f30	0.026527017
216	0xbcccea28	-0.025013998
217	0x3d596a48	0.053079873
218	0xbd21198b	-0.039331
219	0xbcd15925	-0.025555203
220	0x3d43893a	0.04773829
221	0x3c9e5cb2	0.01933131
222	0x3cf17968	0.029476836
223	0x3cb88614	0.022524871
224	0xbcff81ee	-0.031189885
225	0x3c679e32	0.014136838
226	0x3d3c9a81	0.046045784
227	0x3c8dd334	0.017312624
228	0x3b344f36	0.0027513034
229	0xbd117e74	-0.035520986
230	0x3d5ce613	0.053930353
231	0x3ce3c97a	0.027806032
232	0xbc066580	-0.00820291
233	0xbcb8a798	-0.022540852
234	0x3d5fd90e	0.05465036
235	0xbcbe8429	-0.023256378
236	0xbcab1c1d	-0.020887429
237	0x3d0ca2f9	0.03433511
238	0xbd628ce2	-0.055310138
239	0xbc2a6cf4	-0.010401953
240	0x3d20c06a	0.039246
241	0xbd03f649	-0.032217298
242	0x3cd57448	0.026056424
243	0xbce55104	-0.027992733
244	0x3cf03042	0.029319886
245	0xbd41620c	-0.047212645
246	0x3c8c3a1d	0.017117554
247	0x3d2088c6	0.039192937
248	0xbbfee8ab	-0.007779201
249	0x3c861659	0.016368078
250	0x3cb0cb44	0.0215813
251	0x3cc17aa6	0.023618054
252	0x3d0802fc	0.03320597
253	0xbd33cebb	-0.043898325
254	0xbd47f17c	-0.04881428
255	0xbc52aeaa	-0.012859026
