siamese-classifier/siam_v3_94.pth (torch, 104363 bytes, 12 tensors)

siam_layer.conv1.weight f4 [14, 31, 6, 6]
0	0xbaa9710e	-0.001292737
1	0xbc6f58d7	-0.014608583
2	0x3ba3e33a	0.0050014528
3	0xbb1ac28a	-0.002361449
4	0x3cdb18bc	0.026745193
5	0x3a93ee7c	0.0011286284
6	0x3bad55dc	0.0052897763
7	0xbc55c827	-0.013048208
8	0xbc9d8b8a	-0.019231576
9	0xbcf1d722	-0.029521529
10	0xbccb5faf	-0.024825899
11	0x3cd54198	0.026032254
12	0xbcdab987	-0.026699794
13	0xbbb7040a	-0.0055851983
14	0x3b34f0db	0.0027609381
15	0x3bf830c8	0.0075741746
16	0xba86394c	-0.0010240464
17	0xbc95329c	-0.018212609
18	0xbcc404cf	-0.023928074
19	0x3ba1f713	0.0049427836
20	0x3b93f56a	0.0045153396
21	0x3aa62cc7	0.001267814
22	0x3c9547ff	0.018222807
23	0x3cce39e1	0.025174083
24	0xbc7235ca	-0.014783332
25	0xbc853f3f	-0.01626551
26	0xbcc71d6c	-0.024306022
27	0xbb146ed2	-0.0022649062
28	0x3ccb6699	0.024829196
29	0x3cd26931	0.025684925
30	0x3ce3b801	0.0277977
31	0x3ca13ba0	0.019681752
32	0xbc9c148b	-0.019052764
33	0x3c93cd67	0.01804228
34	0x3c5190bd	0.012790856
35	0xbc21aa7f	-0.00986731
36	0xbb1ae492	-0.0023634774
37	0x3ca6fbf5	0.020383814
38	0xbc8addfe	-0.016951557
39	0x3b226014	0.0024776505
40	0x3c67937d	0.014134285
41	0xbb5ee9e1	-0.0034013914
42	0x3cc314f0	0.023813695
43	0x3b1d37e4	0.0023989612
44	0xbbafbdd3	-0.005363205
45	0xbafcdfb9	-0.0019292749
46	0x3c9c3532	0.019068334
47	0xbcc5f285	-0.024163494
48	0x3b62c541	0.0034602436
49	0x3cce6339	0.025193797
50	0xbc768ec5	-0.015048687
51	0x3c2933d9	0.010327303
52	0x3ca594ce	0.020212557
53	0xbc4960a8	-0.012291111
54	0xbcb13a69	-0.021634297
55	0xbcd41dce	-0.025893118
56	0xbb1a147a	-0.002351074
57	0x3cabda78	0.020978197
58	0xbc207c98	-0.00979533
59	0x3c96dcf3	0.018415904
60	0x3c5320c8	0.012886234
61	0x3c32ffed	0.010925275
62	0xbbd22f9c	-0.006414367
63	0x3c897567	0.016779615
64	0xbcecda3a	-0.028912652
65	0xbcd0f680	-0.025508165
66	0x3ce87740	0.028377175
67	0xbcb3846f	-0.021913735
68	0xbceb7d86	-0.028746378
69	0x3cae9709	0.021312254
70	0xbc7dc55f	-0.0154889515
71	0xbcd9a19c	-0.02656632
72	0xbcbabe2b	-0.022795757
73	0x3c4876e4	0.012235377
74	0xbcb55b24	-0.022138186
75	0x3ce2c54d	0.027681971
76	0xbb845a74	-0.004039103
77	0xbcc95fe6	-0.02458186
78	0xbce02d3f	-0.027365325
79	0x3c9fd8cd	0.019512558
80	0x3c9a9508	0.018869892
81	0xbc264a7a	-0.0101495925
82	0xbab30ebd	-0.0013661009
83	0xbc07d08c	-0.008289468
84	0x3c0139b6	0.0078872945
85	0x3c7f9e6f	0.015601738
86	0x3caffe41	0.021483542
87	0x3c7a3b56	0.015272936
88	0x3bd71a3b	0.006564406
89	0xbc9bdafc	-0.019025318
90	0xbce9d85d	-0.028545553
91	0x3cc687e3	0.024234718
92	0x3c6f3ea3	0.014602336
93	0x3c46135c	0.012089577
94	0xbce45b85	-0.027875671
95	0xbb333add	-0.0027348318
96	0xbbaee7e5	-0.0053377026
97	0xbc9c4990	-0.019078046
98	0xbcc8c48c	-0.024507783
99	0xbcce9eac	-0.025222145
100	0x3c9ee91c	0.019398265
101	0xbcc1335a	-0.023584057
102	0xbc4d02f4	-0.012512911
103	0x3bd29459	0.006426376
104	0xbcdc1add	-0.026868278
105	0xbca6e92d	-0.020374859
106	0xbc022135	-0.0079424875
107	0xbc8deaf7	-0.017323954
108	0xbc79b914	-0.01524188
109	0x3a569946	0.00081862917
110	0x3ceaa07f	0.028640984
111	0x3b831e60	0.0040014237
112	0xbcdd96f1	-0.027049514
113	0xbc8ca954	-0.017170586
114	0x3cb7aeae	0.022422161
115	0x3c848c2b	0.016180119
116	0xbc9761c9	-0.018479245
117	0x3aae3196	0.0013289924
118	0xbcf4e206	-0.029892933
119	0xbcd6b5ab	-0.026209673
120	0xbc8fdbdd	-0.017560894
121	0xbc47eb0b	-0.012202035
122	0xbcf30054	-0.029663242
123	0x3b08ad55	0.0020855267
124	0xbcdaf692	-0.026728902
125	0x3b07300d	0.0020628006
126	0xbbfedccb	-0.0077777854
127	0xbcda587c	-0.02665352
128	0xbc881b75	-0.016614655
129	0x3c1cdc26	0.009573972
130	0x3bf2aed8	0.007406097
131	0x3c013321	0.007885725
132	0xbcf3db62	-0.029767696
133	0x3c0982ae	0.008392973
134	0xbcd59fa8	-0.026077107
135	0xbca8f1ee	-0.020623174
136	0xbc226fad	-0.009914321
137	0xbaa7014d	-0.0012741477
138	0x3c6442e1	0.013931961
139	0x3cc37c22	0.023862902
140	0x3c943a6c	0.018094264
141	0x3c489f61	0.01224503
142	0xbc5d41a5	-0.01350442
143	0xbc647136	-0.013943007
144	0xbc03308f	-0.008007183
145	0xbb8632bd	-0.004095404
146	0xbc7d433b	-0.0154579235
147	0xbcce44dc	-0.02517932
148	0xbc828e78	-0.015937075
149	0x3c33dc93	0.010977882
150	0x3c7cdc18	0.015433334
151	0x3c91caba	0.017796863
152	0xbce6c6df	-0.028171001
153	0xbcd404ff	-0.025881289
154	0x3c8e9fb4	0.017410137
155	0x3c80837b	0.015687695
156	0xbc5336a6	-0.012891447
157	0x3c8ea97a	0.017414797
158	0xbc9366bd	-0.017993325
159	0x3b22832a	0.0024797418
160	0x3c6ae674	0.014337171
161	0x3c2174d9	0.009854519
162	0x3cc7bb84	0.024381407
163	0x3cb11dad	0.021620596
164	0xbcdc1b76	-0.026868563
165	0x3caca24c	0.021073483
166	0xbcce5c8e	-0.025190618
167	0x3c1ae2ac	0.009453457
168	0xbcb51f2e	-0.022109594
169	0xbc76e955	-0.015070279
170	0x3ce85892	0.028362546
171	0x3c7cd806	0.015432363
172	0xbba911fa	-0.0051596137
173	0x3cd50363	0.026002591
174	0xb91a4679	-0.00014712838
175	0x3b110086	0.0022125556
176	0x3c272ced	0.010203582
177	0xbb60602c	-0.003423701
178	0x3c0573c1	0.008145274
179	0xbccc0cdf	-0.024908481
180	0xba6289a3	-0.0008641725
181	0x3cb34f4e	0.021888401
182	0xbc09702b	-0.008388559
183	0xbc35741a	-0.011075044
184	0x3c063fa0	0.00819388
185	0x3bb801a9	0.0056154323
186	0xbc8daf7e	-0.017295595
187	0x3c421531	0.011845873
188	0xbcbe76ac	-0.023249947
189	0x3c9bb03e	0.019004937
190	0xbcbf8223	-0.023377484
191	0xbcb3dc6f	-0.021955697
192	0xbc92c962	-0.017918292
193	0x3c8b667e	0.017016646
194	0x3c8453bd	0.01615321
195	0xbc948c64	-0.01813335
196	0x3b86eb15	0.0041173794
197	0xbccabd14	-0.024748363
198	0xb9e39780	-0.0004340969
199	0xbc9a59d1	-0.018841656
200	0xbc0a3eff	-0.008437871
201	0x3c9265cb	0.017870804
202	0xbce85965	-0.02836294
203	0x3ccbd704	0.0248828
204	0x3ae37b07	0.0017355391
205	0xbbaa52e6	-0.0051978705
206	0x3c972ff5	0.018455485
207	0x3ce62d1a	0.028097678
208	0xbce3d868	-0.027813151
209	0x3bdb68c2	0.0066958377
210	0x3cdeb3e9	0.027185397
211	0x3c764ad7	0.015032492
212	0x3adc257d	0.001679584
213	0x3c7074e6	0.014676308
214	0xbcc6bc61	-0.024259748
215	0x3c24c494	0.0100566335
216	0x3cc25b57	0.023725195
217	0xbc622d32	-0.013804721
218	0x3c964c68	0.01834698
219	0xbb0e1231	-0.0021678323
220	0x3cb66d29	0.022268848
221	0xbc3fb20b	-0.011700164
222	0x3ccc9b98	0.024976537
223	0xbc08a280	-0.008339524
224	0xbc9f1407	-0.01941873
225	0x3bc9f583	0.0061633005
226	0x3c2cf20c	0.010555755
227	0x3c019636	0.007909348
228	0xbcf22061	-0.029556455
229	0x3ceee89e	0.029163655
230	0xbc7f6492	-0.015587943
231	0xbbe0d163	-0.0068608983
232	0xbc5124c5	-0.012765114
233	0x3b295e2b	0.0025843482
234	0xbc831ed7	-0.016005917
235	0x3b9a99fe	0.0047180643
236	0xbcee9220	-0.029122412
237	0xbbdecf47	-0.0067996117
238	0xbce0d9ee	-0.027447667
239	0x3bbccf0f	0.005761988
240	0xbadb62f9	-0.001673787
241	0x3c674c7e	0.014117358
242	0xbcbb707f	-0.02288079
243	0x3c5733a4	0.013134871
244	0x3cda1dc8	0.026625529
245	0x3b923a91	0.004462548
246	0xbc72be84	-0.01481593
247	0xbbeaa641	-0.0071609323
248	0x3999f58e	0.00029365387
249	0xbc2c1624	-0.010503326
250	0xbc25d407	-0.010121352
251	0xbce628d5	-0.028095642
252	0x3ca7cef0	0.020484418
253	0x3c22fa21	0.009947331
254	0x3c0ce655	0.008599837
255	0xbb3a705d	-0.0028448321

siam_layer.conv1.bias f4 [14]
0	0x3c58fa4c	0.013243269
1	0x3cf4e9fa	0.029896725
2	0x3c004b84	0.007830504
3	0xbcd3480c	-0.02579119
4	0x3cbfe5e2	0.023425046
5	0x3cf1107a	0.029426802
6	0xbcb0d774	-0.021587111
7	0x3bb2b158	0.00545327
8	0xbc6bbac4	-0.01438779
9	0x3c06a988	0.00821913
10	0x3c7e114c	0.015507054
11	0x3cd99648	0.026560917
12	0x3c938744	0.018008836
13	0x3c160b14	0.009157915

siam_layer.conv2.weight f4 [7, 14, 6, 6]
0	0xbc5aeb8c	-0.013361823
1	0xbd2ed390	-0.04268223
2	0x3c01faf7	0.00793337
3	0xbc6d3abe	-0.014479337
4	0xbbc8d118	-0.0061284415
5	0x3c15cf16	0.009143611
6	0xbd0c6c01	-0.034282688
7	0x3cbdc434	0.023164846
8	0x3bd60a82	0.0065320143
9	0xbd207f2d	-0.039183784
10	0xbc8c0947	-0.017094268
11	0x3cd093dc	0.02546113
12	0x3c65cf64	0.014026497
13	0xbd3397be	-0.043845885
14	0x3bbd0ec8	0.0057695843
15	0x3d3411bb	0.04396222
16	0x3c3c61b9	0.011497908
17	0x3ca38b77	0.019963963
18	0xbc8fc6b5	-0.017550806
19	0xbc4b4bc3	-0.0124082
20	0x3cb9a4f9	0.022661673
21	0x3d22d8ef	0.039757665
22	0x3d098998	0.033578485
23	0x3c154026	0.009109532
24	0xbc18a02e	-0.009315534
25	0xbc951de3	-0.018202728
26	0xbd355123	-0.04426683
27	0x3c1f1285	0.009709005
28	0x3d032516	0.03201779
29	0x3aa1021a	0.0012283952
30	0x3d22c1e1	0.03973568
31	0xbcbc9a2d	-0.023022735
32	0x3cbe8e12	0.023261104
33	0x3ced72ff	0.028985498
34	0x3c52a35f	0.0128563335
35	0xbc18e102	-0.00933099
36	0xbd263ecb	-0.040587228
37	0x3d0590ae	0.03260868
38	0xbca0e50d	-0.01964047
39	0xbd293400	-0.041309357
40	0x3d207c8f	0.03918129
41	0x3c2a8ae0	0.010409087
42	0xbca1d231	-0.019753547
43	0x3d08285c	0.033241615
44	0x3cb31e10	0.02186492
45	0x3d096cf1	0.03355116
46	0x3cefadd0	0.029257685
47	0xbcc66c29	-0.024221497
48	0x3cf7b680	0.03023839
49	0xbcd20b1c	-0.025640063
50	0xbd0bca9f	-0.03412878
51	0x3c84fff6	0.016235333
52	0xbd0c6b18	-0.03428182
53	0xbcdbcf14	-0.026832141
54	0x3c0a4e01	0.008441449
55	0x3c33d718	0.010976575
56	0xbd07dfa0	-0.03317225
57	0xbcc9d9e3	-0.02464003
58	0xbca60c17	-0.020269437
59	0xbbbcc407	-0.005760673
60	0x3d148d43	0.03626753
61	0xbcd3f491	-0.025873454
62	0xbcc66fc2	-0.024223212
63	0xbc816e99	-0.015799807
64	0x3c94e47d	0.018175358
65	0xbcb46332	-0.022019956
66	0xbd365c22	-0.04452146
67	0x3c011158	0.00787767
68	0xbd013ecf	-0.03155404
69	0xbcd87c8d	-0.026426578
70	0x3d220c56	0.039562546
71	0x3d1c5d09	0.038174663
72	0xbd0af6bd	-0.033926714
73	0xbc043f02	-0.008071663
74	0xbc2c15a7	-0.010503209
75	0x3c5f80e7	0.013641573
76	0x3cd5f553	0.026117956
77	0xbb9c6037	-0.004772212
78	0x3c76bc9f	0.015059619
79	0x3ac14207	0.0014744409
80	0xbc4160ca	-0.0118028615
81	0x3a888199	0.00104146
82	0xbd261974	-0.040551618
83	0x3c3fa6dc	0.011697497
84	0x3c938993	0.018009936
85	0xbc3f3822	-0.011671098
86	0x3c115202	0.00886965
87	0xbd344a89	-0.044016395
88	0xbbfc6e61	-0.007703588
89	0xbc77b843	-0.015119615
90	0xbd2a136a	-0.04152242
91	0xbc84103c	-0.016121022
92	0xbc606f88	-0.013698466
93	0x3c8e1aab	0.0173467
94	0x3c2c48b2	0.010515379
95	0xbd0c1134	-0.034196094
96	0xbb8815dc	-0.0041529965
97	0x3d1c2ba6	0.038127564
98	0x3c9b8a3e	0.018986817
99	0xbc641520	-0.013921052
100	0x3d260866	0.040535353
101	0x3c80f2c3	0.015740758
102	0x3d1433c3	0.036182176
103	0x3d0b2b4b	0.033976834
104	0xbaf7acba	-0.0018896081
105	0x3cc8a0e3	0.02449078
106	0x3c9f1015	0.019416848
107	0xbd2ae83b	-0.04172538
108	0x3d1d16d2	0.03835184
109	0xbc37cc47	-0.011218137
110	0xbc1a982d	-0.009435696
111	0xbcb6d40b	-0.022317907
112	0x3c81873e	0.015811559
113	0xbd31c309	-0.04339889
114	0xbd17ad03	-0.03703023
115	0x3d095804	0.033531204
116	0x3d28c352	0.041201897
117	0x3cc881fa	0.02447604
118	0xbc54fffb	-0.013000484
119	0x3c9934c9	0.018701928
120	0xbcc63063	-0.024192994
121	0xbd14ce5d	-0.036329616
122	0x3d093767	0.0335001
123	0xbc0426a5	-0.008065854
124	0xbbc73b9d	-0.0060801045
125	0x3bf0e918	0.0073520057
126	0x3cc3be63	0.023894494
127	0x3c76e4f4	0.015069235
128	0xbc296f42	-0.010341467
129	0x3c320da1	0.010867507
130	0xbc7689c5	-0.015047495
131	0xbb7a4d48	-0.0038193036
132	0x3cce560e	0.025187518
133	0xbd044df7	-0.032300916
134	0xbcc68fde	-0.024238523
135	0xbbeb05df	-0.0071723307
136	0xbca3394f	-0.019924788
137	0xbbc99d5e	-0.006152793
138	0x3d04cde0	0.0324229
139	0xbcfcbe85	-0.030852566
140	0xbcd10e15	-0.02551941
141	0x3c76b3ab	0.015057485
142	0xbd26ad3f	-0.040692564
143	0xbc8597c9	-0.016307728
144	0xbccf023d	-0.025269622
145	0xbaeebb8a	-0.001821385
146	0xbcc7c0ce	-0.024383929
147	0xb944b9d7	-0.00018761247
148	0x3c7c37ff	0.01539421
149	0xbb63a561	-0.0034736025
150	0xbcc76040	-0.024337888
151	0xbc9720b1	-0.018448206
152	0xbd1b1bde	-0.037868373
153	0x3c9d249c	0.019182496
154	0x3c8380df	0.016052661
155	0xbc850836	-0.016239267
156	0xbb8a942d	-0.0042290897
157	0xbba31f8b	-0.0049781254
158	0x3d0b4132	0.033997722
159	0xbb26f7df	-0.0025477333
160	0xbc9e124b	-0.019295832
161	0x3bf1bfba	0.007377592
162	0x3d22a513	0.03970821
163	0x3ccf332c	0.025292955
164	0x3cf488ca	0.029850382
165	0xbc951b7e	-0.018201586
166	0xbcaf9e84	-0.02143789
167	0x3cc25d2e	0.023726072
168	0xbc72e9b5	-0.014826228
169	0xbc5ee711	-0.013604895
170	0x3c6ef382	0.014584424
171	0x3d2acc82	0.04169894
172	0xbcb173bf	-0.021661637
173	0xbd24cef7	-0.04023644
174	0x3bb1dda6	0.005428034
175	0xbcad770e	-0.021174934
176	0xbccaf0fa	-0.02477311
177	0x3cb8dc67	0.022566034
178	0x3b65771f	0.0035013629
179	0xbcfe16a9	-0.031016665
180	0x3d34a7c6	0.044105314
181	0x3cb3609a	0.02189665
182	0x3cebc828	0.028781965
183	0xbc6b0177	-0.014343611
184	0xbd30a7ca	-0.043128766
185	0x3cfd7ddf	0.03094381
186	0xbd024f5f	-0.031813975
187	0xbd1f9cec	-0.03896801
188	0x3d16c499	0.036808584
189	0xbba787d2	-0.0051126266
190	0x3c544a46	0.012957161
191	0xbcfca1cd	-0.030838871
192	0x3cc443ec	0.023958169
193	0x3c0cb3c8	0.008587785
194	0x3c962eeb	0.01833292
195	0x3d01b049	0.03166226
196	0xbbccd246	-0.0062506525
197	0xbd19b7e7	-0.0375289
198	0xbc18e6af	-0.009332343
199	0xbcf131c7	-0.029442681
200	0xbc8900dc	-0.016724043
201	0xbd0c1cc8	-0.034207135
202	0x3bd4dc56	0.0064959927
203	0xbd0a4fc6	-0.033767484
204	0x3bf3d9d7	0.00744174
205	0x3cca254a	0.024675984
206	0x3cdb8d78	0.026800856
207	0xbcdf632c	-0.027268969
208	0x3c108ac8	0.0088221505
209	0x3c12102c	0.0089149885
210	0x3d03d11b	0.03218184
211	0x3ceb8bb6	0.028753143
212	0x3c0cb23d	0.008587417
213	0xbccc515f	-0.024941145
214	0x3ce9c28d	0.028535152
215	0x3c90dedd	0.017684394
216	0x3cfd6b19	0.030934857
217	0x3d2f1215	0.042741854
218	0xbd323d6f	-0.04351562
219	0xbb2193e0	-0.002465479
220	0x3cd2af6a	0.02571841
221	0x3cb6eab1	0.022328706
222	0x3c5343bf	0.01289457
223	0xbbb5f29d	-0.0055526034
224	0x3d36bbca	0.044612683
225	0x3ce7be64	0.028289028
226	0x3cec419a	0.028839875
227	0x3c923da2	0.017851654
228	0xbcd26185	-0.025681267
229	0xbc23203c	-0.009956416
230	0x3c15cae4	0.009142611
231	0x3b2631eb	0.0025359343
232	0xbc553325	-0.013012682
233	0x3d2b5ddc	0.04183756
234	0xbc6a9485	-0.014317636
235	0x3d13eaeb	0.036112707
236	0xba168e1f	-0.00057432236
237	0xbc912a20	-0.017720282
238	0xbca0b362	-0.019616786
239	0x3ce055a7	0.027384592
240	0x3ca95845	0.020671973
241	0x3bbbced0	0.005731441
242	0x3cdfc2b5	0.027314523
243	0x3d00511f	0.031327363
244	0xbd15003d	-0.03637718
245	0x3d0a9101	0.033829693
246	0x3bd4687a	0.006482181
247	0xbc3eb8ee	-0.01164077
248	0xbce18840	-0.02753079
249	0x3ca98f5d	0.020698244
250	0x3d2b058b	0.041753333
251	0x3cd6b5c0	0.026209712
252	0xbd1af230	-0.037828624
253	0x3c749299	0.01492753
254	0x3d1e4dd9	0.03864846
255	0xbd1b96a0	-0.037985444

siam_layer.conv2.bias f4 [7]
0	0x3cf74ad0	0.03018704
1	0x3ca3bee0	0.019988477
2	0xbc930c79	-0.017950283
3	0xbc678aa6	-0.014132177
4	0xbd2290e7	-0.03968897
5	0x3d0a6784	0.033790126
6	0xbcb2e253	-0.021836435

siam_layer.conv3.weight f4 [7, 14, 6, 6]
0	0x3c21a1b0	0.009865209
1	0x3ccaddac	0.024763905
2	0xbce88709	-0.028384702
3	0xbcf49af2	-0.02985904
4	0x3bcd6492	0.0062680924
5	0x3c98223d	0.018571014
6	0x3cb3be76	0.021941405
7	0x3d2bbbe0	0.04192722
8	0xbceee6c6	-0.029162776
9	0x3ca61b9c	0.020276837
10	0x3c4d42ab	0.012528102
11	0xbd2d2487	-0.042271163
12	0x3d291a6d	0.041284967
13	0xbce5f835	-0.028072456
14	0xbb4d0414	-0.0031282948
15	0xbca6cc01	-0.020360949
16	0xbd25dfc9	-0.04049662
17	0xbd2fc076	-0.042908154
18	0xbb7daf81	-0.0038709345
19	0xbc53075b	-0.012880172
20	0xbc5e73aa	-0.013577381
21	0x3c8265c8	0.015917674
22	0xbce6da80	-0.02818036
23	0x3d0fd916	0.03511914
24	0xbcf1b163	-0.02950353
25	0x3b78c531	0.0037959332
26	0xbd159b34	-0.036524966
27	0xbc991698	-0.018687531
28	0x3c512d19	0.0127671
29	0x3cf2f2fd	0.029656881
30	0xbc213976	-0.00984036
31	0x3b869569	0.0041071665
32	0x3c3e1af9	0.0116031105
33	0xbcd847d6	-0.026401442
34	0xbd2c775a	-0.04210601
35	0xbce0ded9	-0.027450012
36	0xbc6853c6	-0.014180129
37	0x3d0492d0	0.032366574
38	0x3bd703bc	0.0065617245
39	0x3b63dd94	0.0034769522
40	0x3cbab5c2	0.022791747
41	0xb93c9383	-0.0001798403
42	0x3c9a6bc7	0.01885022
43	0x3d1950c0	0.037430525
44	0x3cf78d7e	0.030218836
45	0x3c839684	0.016062982
46	0xbcb2cf12	-0.021827254
47	0x3a726220	0.0009246189
48	0xbb9d8c30	-0.0048079714
49	0x3c34fe4e	0.011046959
50	0xbc2b811c	-0.010467794
51	0xbd039351	-0.032122914
52	0x3cef3b6a	0.029203136
53	0x3bb99dc5	0.0056645595
54	0xbcbf9678	-0.023387179
55	0xbcde737a	-0.027154673
56	0x3cc9349d	0.02456122
57	0x3cc30611	0.023806604
58	0xbc2d74f0	-0.010586962
59	0xbcc4c8e8	-0.02402158
60	0x3bb87717	0.005629431
61	0x3cf1b61b	0.02950578
62	0x3d17a74d	0.037024785
63	0xbd1e9962	-0.038720496
64	0x3d074fe2	0.033035167
65	0xbb03e0e7	-0.0020123066
66	0x3cc3ed0e	0.023916747
67	0xbd19f46f	-0.037586626
68	0xba9df827	-0.0012052105
69	0xbce16ff3	-0.027519202
70	0x3d1747e3	0.03693379
71	0xbb62bded	-0.0034598068
72	0xbc916f93	-0.017753398
73	0x3c2ea1c0	0.010658681
74	0x3d295b31	0.041346733
75	0xbd2c6000	-0.04208374
76	0xbccc9e6f	-0.02497789
77	0xbd2b49fc	-0.041818604
78	0x3cda9fa2	0.026687447
79	0xbcf5ac0e	-0.029989269
80	0xbc9f8534	-0.019472696
81	0xbd1127ae	-0.035438232
82	0x3ca051b1	0.019570203
83	0xbc64f0ad	-0.013973397
84	0xbd2d89fb	-0.042367917
85	0x3cba4179	0.022736298
86	0xbd17647a	-0.036961056
87	0xba478faa	-0.0007612655
88	0x3d1e8330	0.03869933
89	0xbd13f241	-0.036119703
90	0x3c5a7d27	0.013335503
91	0xbbc2aa59	-0.005940717
92	0x3ca98768	0.02069445
93	0xbd2129cc	-0.0393465
94	0x3c324b51	0.010882215
95	0xbc58ae1f	-0.013225107
96	0xbbd56ed2	-0.006513455
97	0xbd1026fe	-0.035193436
98	0x3cc44ce8	0.023962453
99	0xbcabc448	-0.020967618
100	0x3cce41ff	0.025177954
101	0xbb89f054	-0.0042095575
102	0xbc3d08ad	-0.011537713
103	0xbd260859	-0.040535305
104	0xbd28c12a	-0.04119984
105	0xbd0915b4	-0.033467963
106	0x3a853ebc	0.0010165791
107	0xbd285ff2	-0.041107126
108	0x3d280223	0.041017663
109	0xbd19652c	-0.03745
110	0xbc57c9c8	-0.013170667
111	0x3c3d70f0	0.011562571
112	0xbd1d3012	-0.03837592
113	0x3c07a014	0.008277912
114	0xbcdfe453	-0.027330553
115	0xbc3f0b46	-0.011660403
116	0x3c79d811	0.015249268
117	0x3d24ff15	0.040282328
118	0x3ce6cfab	0.028175196
119	0x3cc7103f	0.024299739
120	0xbd1b2b1b	-0.037882905
121	0x3c63998c	0.013891589
122	0x3cb54102	0.022125725
123	0xbd3109be	-0.04322218
124	0xbbd21959	-0.006411713
125	0xbd308a55	-0.043100674
126	0x3d11167f	0.035421845
127	0xbbdb0f01	-0.006685138
128	0xbb48a151	-0.003061373
129	0xbba53c03	-0.0050425543
130	0xbcfa79fb	-0.030575743
131	0x3d1bf396	0.0380741
132	0x3cb7079b	0.022342494
133	0xbd22fcdc	-0.039791927
134	0xbcc79348	-0.024362221
135	0x3d1531a9	0.036424313
136	0x3cd14174	0.025543906
137	0xbc2a6867	-0.010400868
138	0xbc779b66	-0.0151127335
139	0xbd01dbcc	-0.031703755
140	0xbc848abe	-0.016179439
141	0xbbda945d	-0.0066705183
142	0x3cb7874c	0.022403382
143	0xb92edf54	-0.0001667713
144	0x3c3b6fa5	0.011440192
145	0xbcc8492d	-0.024448955
146	0x3a6d1872	0.0009044475
147	0x3d15ee23	0.036604058
148	0xbc0501f1	-0.008118139
149	0x3cfafc28	0.030637816
150	0x3d1e07aa	0.038581528
151	0xbce4da27	-0.027936054
152	0x3c9b4681	0.018954517
153	0xbd11050a	-0.035405196
154	0x3d1ffab7	0.03905746
155	0xbd0accdf	-0.033886787
156	0xbc77755d	-0.015103665
157	0xbb78d2d5	-0.0037967463
158	0xbd26fdee	-0.04076951
159	0x3d1b9ef2	0.03799338
160	0xbcef84c6	-0.029238116
161	0x3d083ce7	0.033261206
162	0x3cb97418	0.022638366
163	0x3c1273cd	0.008938742
164	0xbbb9bc93	-0.0056682318
165	0xbd267705	-0.04064085
166	0xbca63bea	-0.020292241
167	0xbd00107f	-0.031265732
168	0xbd218bb4	-0.039439872
169	0xbc062843	-0.00818831
170	0x3bdf75c1	0.0068194573
171	0x3c6677c1	0.0140666375
172	0xbce34490	-0.027742654
173	0x3c121ac4	0.008917514
174	0xbc064824	-0.008195911
175	0xbc835a63	-0.01603431
176	0xbd2e3e48	-0.042539865
177	0xbb84370f	-0.004034884
178	0xbd1c37a2	-0.038138993
179	0xbcf1fd90	-0.029539853
180	0x3d3467df	0.04404437
181	0x3b8ba88d	0.004262036
182	0xbc727a1b	-0.01479962
183	0x3cbb2af4	0.02284763
184	0xbcf24439	-0.029573547
185	0x3c3fedee	0.011714442
186	0xbc7029da	-0.014658416
187	0x3cecb47e	0.02889466
188	0xbcef190d	-0.02918675
189	0x3c4a9448	0.012364455
190	0x3ce0b706	0.027431022
191	0x3cd7adf1	0.026328059
192	0x3caa5950	0.02079454
193	0xbba98d35	-0.005174304
194	0xbb01d3e4	-0.0019810135
195	0xbd30bd01	-0.043149
196	0x3d0ab076	0.033859693
197	0xbc0f8942	-0.008760752
198	0x3cbc6b86	0.02300049
199	0xbc7ab283	-0.01530135
200	0xbd1254d9	-0.03572545
201	0x3c32fccd	0.01092453
202	0xbcfcf4d2	-0.030878458
203	0xbb5c4970	-0.0033613108
204	0xbd18147e	-0.037128918
205	0x3c0c0e14	0.008548278
206	0xbb9cc816	-0.0047845943
207	0x3b44a318	0.0030004438
208	0xbcb32ed5	-0.021872917
209	0x3bce1d47	0.006290111
210	0xbc83221d	-0.016007477
211	0xbd363f7f	-0.04449415
212	0xbd1a7dba	-0.03771756
213	0xbcd57c02	-0.026060108
214	0x3c9be1de	0.0190286
215	0xbcad7221	-0.021172585
216	0x3d2c865b	0.04212032
217	0xbc833dd8	-0.0160207
218	0xbd20ad6f	-0.0392279
219	0x3bc83bca	0.006110643
220	0x3a8bc77c	0.0010664309
221	0xbbf295dc	-0.0074031185
222	0xbd1277c7	-0.03575876
223	0xbcbb8c53	-0.02289406
224	0xbc9b4329	-0.018952923
225	0xbbcfa367	-0.0063366177
226	0xbc8b6849	-0.0170175
227	0x3c627fd8	0.013824426
228	0xbd18786d	-0.037224222
229	0xbd040fb1	-0.032241527
230	0xbbc127cb	-0.0058946363
231	0x3cc23802	0.023708347
232	0x3c06aa6f	0.0082193455
233	0x3d13885a	0.036018707
234	0xbd23c13c	-0.039979205
235	0xbca25e42	-0.019820336
236	0x3c8aece8	0.016958669
237	0xbc6c7732	-0.014432715
238	0xbc9f51e0	-0.01944822
239	0x3cc6ea84	0.024281748
240	0xbbd373b8	-0.0064530037
241	0x3c55f47d	0.013058779
242	0x3caed51e	0.021341857
243	0xbccbf3cb	-0.024896523
244	0xbd113cda	-0.035458423
245	0x3cc7c9a6	0.024388146
246	0x3d095f83	0.033538353
247	0x3cc10931	0.023563953
248	0x3c582ccd	0.013194275
249	0x3d2d54e9	0.042317305
250	0xbc30aade	-0.010782925
251	0xbb95b506	-0.004568699
252	0x3c3b8215	0.011444588
253	0xbc962977	-0.018330319
254	0xbcf9f011	-0.03050998
255	0x3d285d64	0.04110469

siam_layer.conv3.bias f4 [7]
0	0x3d02634c	0.031832978
1	0x3cac66b4	0.021045066
2	0x3cc2bbd0	0.023771197
3	0xbac466a0	-0.0014984198
4	0x3afd7f40	0.0019340292
5	0x3d14a8e0	0.036293864
6	0x3c5238a8	0.012830891

siam_layer.conv4.weight f4 [3, 14, 6, 6]
0	0xbbb1f830	-0.0054311976
1	0xba3af538	-0.00071318774
2	0x3d0fdc76	0.035122357
3	0xbcaee0f6	-0.021347504
4	0x3d007eca	0.031370915
5	0x39c4efc8	0.00037562684
6	0xbbdbf9ec	-0.0067131426
7	0xbb220bdd	-0.002472631
8	0xbb122c13	-0.0022304102
9	0xbcdcdd9a	-0.026961137
10	0x3cda81d1	0.02667323
11	0xbce97827	-0.028499676
12	0xbcb65521	-0.02225739
13	0x3cc0e36c	0.023545943
14	0x3cdf18eb	0.027233562
15	0x3c0ab2de	0.008465497
16	0xbcdd6b3a	-0.027028669
17	0xbc8b9609	-0.017039316
18	0x3b4bb9dc	0.0031086123
19	0x3c9e8d21	0.019354405
20	0x3d0d8723	0.034552705
21	0xbcb07673	-0.021540856
22	0xbd16fb26	-0.036860608
23	0x3bc74857	0.0060816216
24	0x3c5b3116	0.013378402
25	0x3d02c84b	0.031929296
26	0x3cf74e15	0.0301886
27	0x3c10d1e5	0.008839105
28	0x3b13f2d3	0.0022575154
29	0x3b3d00c6	0.0028839572
30	0x3c52393c	0.012831029
31	0xbcbd5523	-0.023111885
32	0xbcad1ad6	-0.02113096
33	0x3cfd62cc	0.0309309
34	0x3b53fd58	0.003234705
35	0xbc707c46	-0.014678067
36	0xbcc114a6	-0.023569416
37	0x3d033df4	0.032041505
38	0xbbc983e0	-0.006149754
39	0xbd29f2ed	-0.041491438
40	0x3c96d849	0.01841368
41	0x3d175dad	0.03695457
42	0xbcfd7241	-0.03093827
43	0x3c343ff0	0.011001572
44	0x3c5b6150	0.0133899
45	0x3ccdd2be	0.025124904
46	0x3cd25332	0.025674436
47	0xbc9695fd	-0.018382067
48	0xbceefb5f	-0.029172597
49	0x3cad399a	0.02114563
50	0x3d36c521	0.04462159
51	0xbcd62038	-0.02613841
52	0x3d0f00e3	0.034912955
53	0x3d37f893	0.044914793
54	0xbcaca318	-0.021073863
55	0xbbbf11bc	-0.0058309715
56	0x3b0e74a9	0.0021737015
57	0xbcf9d60f	-0.030497579
58	0x3bb41b23	0.005496399
59	0x3d05662c	0.03256814
60	0x39e2c206	0.00043250638
61	0x3c9365f4	0.017992951
62	0x3b3d2824	0.0028863037
63	0xbbc00b74	-0.0058607403
64	0x3c33aefa	0.010967011
65	0xbd2bfb7f	-0.041987892
66	0xbc662fb1	-0.014049456
67	0x3cea6402	0.02861214
68	0xbb47b308	-0.0030471701
69	0xbca620e5	-0.020279357
70	0x3c7ec994	0.01555099
71	0x3b999da4	0.0046879817
72	0xbc18efcc	-0.009334516
73	0xbcbf5dff	-0.02336025
74	0xbc874a8b	-0.016515037
75	0x3c1f26bf	0.009713828
76	0x3b993f34	0.004676724
77	0xbc2d5ec4	-0.010581676
78	0x3d222136	0.039582454
79	0xbc96f2c6	-0.01842631
80	0xbd049481	-0.032368187
81	0xbd2a9c0c	-0.041652724
82	0xbcbb2652	-0.022845421
83	0xbc10176c	-0.008794647
84	0x3c980846	0.018558633
85	0xbd240d2b	-0.04005162
86	0xbd19d0ae	-0.037552528
87	0xbcc672b1	-0.024224611
88	0x3cb525c0	0.022112727
89	0xbcce212f	-0.025162308
90	0x3c8ad6fa	0.016948212
91	0x3c868543	0.016420966
92	0xbc661410	-0.014042869
93	0xbccac2ae	-0.024751034
94	0x3c5328be	0.012888132
95	0xbd0e34d9	-0.03471837
96	0xbd29f7a6	-0.04149594
97	0xbd2afa50	-0.041742623
98	0x3d27d597	0.04097518
99	0xbc64fe01	-0.013976575
100	0xbcb0ceb9	-0.021582948
101	0xbc55a2ac	-0.013039272
102	0xbd138b96	-0.03602179
103	0xbd20f745	-0.039298315
104	0xbc4cb00c	-0.012493145
105	0x3cd4b914	0.025967158
106	0xbc3c11f7	-0.0114788925
107	0x3d1a6080	0.037689686
108	0xbbab0b31	-0.00521984
109	0xbc48f787	-0.012266046
110	0xbd17deee	-0.037077837
111	0x3d34b6d7	0.044119682
112	0x3c541f84	0.012946967
113	0x3d36b8c2	0.044609793
114	0x3c63a142	0.013893427
115	0x3d0ba4d4	0.03409274
116	0xbaf62660	-0.0018779747
117	0x3d100c1d	0.035167802
118	0x3a636725	0.00086747325
119	0x3d0a3b71	0.033748094
120	0x3cd94d1b	0.026526025
121	0x3cb0b9f9	0.021573054
122	0x39971c2b	0.0002882195
123	0x3ccdf576	0.025141459
124	0xbcc8653f	-0.02446234
125	0xbc1d1631	-0.00958781
126	0x3ccf31f9	0.025292384
127	0x3c735a13	0.014853018
128	0x3c9af81a	0.018917132
129	0xbccc60cc	-0.0249485
130	0xbb1b4af4	-0.0023695799
131	0x3b92b767	0.0044774297
132	0xbc09f11e	-0.008419303
133	0xbcb671d1	-0.022271069
134	0x3b446a68	0.002997065
135	0xbcbdac80	-0.023153543
136	0xbcdcddf7	-0.02696131
137	0x3d219996	0.03945311
138	0x3cd84d2a	0.026403982
139	0xbc76f098	-0.01507201
140	0x3cffd2a6	0.031228375
141	0xba8a6d7c	-0.0010561193
142	0x3d09a1c9	0.033601556
143	0xbc57b181	-0.013164879
144	0x3ab912a0	0.001411993
145	0xbce0ed60	-0.02745694
146	0x3d3142d6	0.04327663
147	0xbc678c64	-0.014132593
148	0x3c96d155	0.018410364
149	0xbce4289b	-0.027851393
150	0xbd0b0a02	-0.03394509
151	0xbbd24e08	-0.0064179935
152	0xbced3e32	-0.028960321
153	0x3b6d40c7	0.003620194
154	0x3c96c87f	0.01840615
155	0x3cd5ff1a	0.026122618
156	0x3c1e16d8	0.009649001
157	0x3cdba9b3	0.026814317
158	0x3d231030	0.03981036
159	0x3cef6aca	0.029225726
160	0x3d1a36ec	0.037650034
161	0x3b8433ea	0.004034509
162	0xbb29024d	-0.0025788725
163	0x3caeb82f	0.02132806
164	0xbc71d1fc	-0.014759537
165	0xbd2ae6a3	-0.04172386
166	0x3c7f1283	0.015568378
167	0x3bb2ca31	0.005456232
168	0xbcd81628	-0.026377752
169	0x3cea0ef1	0.028571578
170	0x3c44f742	0.0120218415
171	0x3c2ad7e8	0.010427453
172	0xbd339542	-0.043843515
173	0x3cd953bf	0.026529191
174	0x3c11ce7a	0.0088993255
175	0xbc77b2d6	-0.015118321
176	0xbcfd2198	-0.030899808
177	0xbc6de74e	-0.014520479
178	0xbcf21977	-0.029553158
179	0xbbae85eb	-0.005326023
180	0x3c81e51f	0.015856324
181	0xbc589d37	-0.013221077
182	0x3cfbcf66	0.030738544
183	0x3c41c5cc	0.011826944
184	0x3d17df3d	0.03707813
185	0x3c97de73	0.01853869
186	0xbb329182	-0.0027247374
187	0x3d011ac9	0.031519685
188	0x3d17d632	0.037069507
189	0xbb89224e	-0.0041849976
190	0xbd153512	-0.036427565
191	0xbb5cba68	-0.0033680443
192	0x3c53a60d	0.012918008
193	0xbcce7af5	-0.025205115
194	0xbd16e24b	-0.036836904
195	0xbc51c671	-0.01280366
196	0x3c805202	0.015664104
197	0x3d187dee	0.03722947
198	0x3cc19473	0.023630356
199	0xbbcb086b	-0.006196072
200	0x3d30b73d	0.0431435
201	0xbb9d16a0	-0.004793957
202	0xbc6cb956	-0.014448484
203	0xbc307f88	-0.010772593
204	0xbc2b3f1c	-0.010452058
205	0x3d322815	0.043495256
206	0xbc8287ca	-0.01593389
207	0xbc990e44	-0.01868356
208	0x3cad51df	0.021157203
209	0x3d0e152a	0.034688152
210	0x3d116232	0.035494037
211	0xbd2893bb	-0.04115651
212	0xbca4faf1	-0.02013919
213	0x3bad7fb5	0.005294765
214	0x3ca02e15	0.019553224
215	0xbd021c0a	-0.03176502
216	0xbc789a12	-0.015173452
217	0x3d31155a	0.043233253
218	0x3baa94d9	0.0052057323
219	0xbc9a5180	-0.01883769
220	0xbb1989c9	-0.0023428074
221	0xbc57ff15	-0.013183375
222	0xbc1c4bee	-0.009539587
223	0x3d0ce3c1	0.03439689
224	0x3c2408a3	0.010011825
225	0x3cba793f	0.022762893
226	0xbc899b0d	-0.016797567
227	0x3c8675d1	0.016413601
228	0x3c9c5377	0.019082768
229	0x3cd1b61e	0.025599536
230	0x3d0ebd06	0.034848236
231	0xbc2ea109	-0.010658511
232	0x3cce8ad8	0.02521269
233	0xbb8b2128	-0.004245896
234	0x3cad3377	0.021142704
235	0xbd1081c6	-0.03528001
236	0x3c0f79fd	0.008757112
237	0x3c2975db	0.01034304
238	0x3d28718d	0.041123915
239	0x3c8dc39d	0.01730519
240	0x3c01250b	0.007882367
241	0x3cbddcfb	0.02317666
242	0xbd0e41ff	-0.034730908
243	0xbc5a40fc	-0.013321158
244	0x3ced0e7d	0.028937573
245	0xbd294cd8	-0.04133305
246	0x3ccb295a	0.024799991
247	0x3c18913b	0.009311969
248	0xbd12f2c8	-0.035876065
249	0x3ca60c7e	0.020269629
250	0x3ce3e1a1	0.02781755
251	0x3d10b79e	0.03533136
252	0x3c3be464	0.011468027
253	0xbd22586e	-0.039635114
254	0xbbced491	-0.006311961
255	0x3d156fd4	0.0364836

siam_layer.conv4.bias f4 [3]
0	0xbc941ae2	-0.018079225
1	0x3cc0b3c4	0.023523219
2	0xbd10aa7e	-0.035318844

siam_layer.conv5.weight f4 [1, 3, 6, 6]
0	0xbdb367a6	-0.08760004
1	0xbd37ddaa	-0.04488913
2	0x3c1a4f8b	0.009418379
3	0x3da1bbb2	0.07897128
4	0xbc230b3f	-0.009951412
5	0x3d6c52f4	0.057696298
6	0x3d802aea	0.06258185
7	0x3cc4a232	0.024003122
8	0xbd729469	-0.059223566
9	0xbd140df5	-0.036146123
10	0xbdb80bc3	-0.08986618
11	0x3d995b7e	0.07488154
12	0xbdb8d0bd	-0.09024189
13	0x3c880179	0.016602265
14	0xbd8d3b83	-0.068961166
15	0x3d50857b	0.050908547
16	0x3d94fde9	0.07274992
17	0xbcc7cee7	-0.02439065
18	0xbc6c87e9	-0.0144367
19	0xbd065853	-0.032799076
20	0xbc9b938c	-0.018991254
21	0xbdc40ebd	-0.095731236
22	0xbd6f92c7	-0.058489587
23	0xbd2af87a	-0.041740872
24	0x3c9b18ba	0.018932689
25	0x3d649b2e	0.055812053
26	0x3d16957b	0.03676365
27	0x3c365612	0.011128919
28	0xbda29d7d	-0.07940195
29	0xbcc4bd95	-0.024016181
30	0xbd44fac9	-0.04809073
31	0xbcfa19a9	-0.030529814
32	0x3ce29663	0.0276596
33	0xbd885b2b	-0.06658014
34	0x3d8a91f5	0.0676612
35	0x3d5029ff	0.0508213
36	0x3d495aa9	0.049158726
37	0xbd8627d6	-0.06550567
38	0xbcc39543	-0.023874884
39	0xbd0bbd56	-0.03411611
40	0x3ce61a23	0.028088635
41	0xbbad6d86	-0.005292597
42	0xbc9b0d6a	-0.018927295
43	0xbb0eb96c	-0.0021778
44	0x39886877	0.00026017774
45	0x3ceaaa26	0.028645586
46	0xbca42459	-0.020036863
47	0xbcc51267	-0.024056626
48	0x3d964d21	0.0733893
49	0x3db1a510	0.08674061
50	0x3c9d1b4c	0.019178055
51	0x3db03a5c	0.08604881
52	0xbda180b7	-0.078858785
53	0x3dbfd6d0	0.09367144
54	0xbda12ec7	-0.0787025
55	0xbd806080	-0.06268406
56	0xbbfd0b07	-0.007722262
57	0xbd95ef82	-0.07321073
58	0xbd1e237d	-0.038608063
59	0xbd5391d9	-0.051652763
60	0xbda59d37	-0.08086627
61	0x3d7c3e2a	0.06158272
62	0x3d9ff808	0.0781098
63	0x3b938aae	0.004502616
64	0x3cd1ebb7	0.025625093
65	0xbcacf6d3	-0.021113789
66	0xbd25191c	-0.04030715
67	0xbc52b0ad	-0.012859506
68	0x3d8a3eed	0.067502834
69	0x3dbc5160	0.091952085
70	0x3c63204b	0.01386268
71	0xbbd111ba	-0.006380287
72	0x3db8e59a	0.09028168
73	0x3be9002e	0.007110617
74	0xbdc5b8fe	-0.09654425
75	0xbd6f478f	-0.058417853
76	0xbc39f7ca	-0.011350581
77	0xbcbd770d	-0.023128057
78	0x3db61ccb	0.088922106
79	0xbd5d35f0	-0.054006517
80	0x3ca32b14	0.019918002
81	0xbc343043	-0.010997835
82	0x3d7ee710	0.062232077
83	0x3d48fcc6	0.04906919
84	0x3c706648	0.014672823
85	0xbcbb17ae	-0.02283844
86	0xbd5baeca	-0.05363349
87	0xbdbbff4f	-0.091795556
88	0x3d47f65d	0.048818935
89	0x3d14e878	0.036354512
90	0x3d20677d	0.039161194
91	0x3cd4184b	0.02589049
92	0x3da475a8	0.08030254
93	0x3cf5fcfa	0.030027855
94	0x3c1c61fd	0.009544847
95	0xbd249d8f	-0.040189322
96	0x3d835398	0.064124286
97	0xbd7e5240	-0.06209016
98	0x3cb39c6d	0.021925176
99	0x3cef51a5	0.029213736
100	0xbba7755e	-0.005110427
101	0x3d9e562a	0.07731278
102	0x3d490280	0.04907465
103	0xbdad0a7e	-0.08449267
104	0xbd0e6889	-0.03476766
105	0xbd1e933a	-0.038714625
106	0x3d304510	0.043034613
107	0x3c098f79	0.008396023

siam_layer.conv6.weight f4 [1, 3, 6, 6]
0	0xbc311e1e	-0.010810403
1	0xbc166893	-0.009180206
2	0x3d718fb9	0.058974955
3	0xbcb58e09	-0.022162454
4	0x3d8d0df0	0.06887424
5	0xbda71161	-0.08157612
6	0x3da02da9	0.07821209
7	0x3cf435e6	0.029810857
8	0x3d27faa8	0.04101053
9	0xbd7daa08	-0.061929733
10	0xbdbc1abf	-0.09184789
11	0xbdc434e8	-0.095804036
12	0xbc317523	-0.01083115
13	0x3dbf8f1c	0.09353468
14	0x3dc0c564	0.09412649
15	0x3bf1a7a9	0.007374723
16	0x3dbaf4b5	0.091287054
17	0xbdb74ec6	-0.08950572
18	0xbb717f44	-0.0036849538
19	0x3d93bcc3	0.07213738
20	0x3d004e23	0.031324517
21	0x3db98d31	0.09060133
22	0x3cd3ed08	0.025869861
23	0xbdc3392f	-0.09532391
24	0xbdb1b330	-0.086767554
25	0x3c4b871c	0.012422349
26	0xbd5412e9	-0.051775847
27	0x3c837ca6	0.016050648
28	0x3cfdbeb9	0.030974733
29	0x3dbbccb2	0.09169902
30	0x3cb5ba12	0.022183452
31	0x3b8e27e7	0.004338253
32	0xbda4d6d7	-0.0804879
33	0x3db758e9	0.08952505
34	0x3d6287b3	0.055305194
35	0xbd42d46a	-0.047565855
36	0xbd96b610	-0.073589444
37	0xbd678747	-0.056525495
38	0x3af1c362	0.001844507
39	0xbcfb2b58	-0.030660316
40	0xbd0792d6	-0.033099018
41	0xbdac88df	-0.084245436
42	0xbd30471b	-0.04303656
43	0xbd22fddb	-0.039792877
44	0x3d68cf89	0.056838546
45	0x3d465876	0.048424207
46	0x3d330649	0.043707166
47	0xbbc7e0ee	-0.0060998118
48	0xbd9d28e6	-0.076738164
49	0xb9c8e84f	-0.00038320056
50	0x3d67acbc	0.056561217
51	0x3d02b133	0.03190727
52	0x3d24387f	0.04009294
53	0x3d874fa0	0.06606984
54	0xbc99a842	-0.01875699
55	0xbca07427	-0.019586636
56	0xbc4863f9	-0.012230867
57	0xbc8d60a2	-0.017257992
58	0xbd49969a	-0.04921589
59	0xbd6e1ba4	-0.05813183
60	0x3d9cb30b	0.07651337
61	0x3d6393bd	0.055560816
62	0xbd8a3e8c	-0.06750211
63	0x3c3830f5	0.011242141
64	0xbd46894d	-0.048470784
65	0xbbe44f61	-0.0069674705
66	0xbd9e8536	-0.07740252
67	0xbd9e978c	-0.07743749
68	0x3dad4e1e	0.08462165
69	0x3d4e2f59	0.050338123
70	0x3d80671b	0.06269666
71	0x3d0d6702	0.034522064
72	0xbd96ee4d	-0.07369671
73	0xbd20082b	-0.03907029
74	0x3d510f71	0.051040117
75	0xbc4d3b17	-0.012526295
76	0xbd97d5fd	-0.07413862
77	0xbdc381c5	-0.09546236
78	0xbdc4f656	-0.09617297
79	0xbd35b632	-0.044363208
80	0x3d376a14	0.0447789
81	0x3db10635	0.08643762
82	0x3d4a3148	0.049363405
83	0xbd657dad	-0.056028057
84	0xbd31c1f6	-0.043397866
85	0x3c88ff4e	0.016723301
86	0xbdc20a0d	-0.09474573
87	0xbdb0171d	-0.085981585
88	0xbd973764	-0.07383612
89	0x3ce2e247	0.027695788
90	0xbd01b75d	-0.03166901
91	0xbd1dc2d0	-0.038515866
92	0x3d9aed22	0.07564761
93	0x3d6bf004	0.057601944
94	0x3cf2a257	0.029618425
95	0xbd5dc87c	-0.054146275
96	0xbcfa1cf3	-0.030531382
97	0x3b38b9f6	0.0028187013
98	0xbd4fe65d	-0.0507568
99	0xbd51759c	-0.05113755
100	0xbdc3c61a	-0.09559269
101	0xbd78b492	-0.06071908
102	0xbdb91bbe	-0.090384945
103	0x3d7484c2	0.05969692
104	0x3c3ec7fb	0.011644359
105	0xbcd5478e	-0.026035096
106	0x3da2ded4	0.07952657
107	0xbd220abc	-0.03956102

siam_layer.conv7.weight f4 [1, 2, 6, 6]
0	0x3ced3a40	0.02895844
1	0x3d8224b7	0.06354659
2	0xbdab65f9	-0.08369059
3	0x3de14ff8	0.11001581
4	0x3c52c45e	0.0128642
5	0x3da49e0b	0.08037957
6	0x3d0c6944	0.034280077
7	0xbdcf6ada	-0.10127802
8	0xbda457f5	-0.08024589
9	0xbd93f99a	-0.07225342
10	0x3dc114b2	0.094277754
11	0xba98b8d1	-0.0011651759
12	0xbd6202b0	-0.055178344
13	0x3acb4e2e	0.001551097
14	0xbde47bbc	-0.11156413
15	0x3dba0091	0.09082139
16	0xbde50510	-0.11182606
17	0xbc1aad73	-0.009440768
18	0xbd2b8ef2	-0.04188437
19	0xbcad608f	-0.021164207
20	0xbde48b5e	-0.11159395
21	0x3c8e87a7	0.017398668
22	0x3de4de0a	0.11175163
23	0xbcc88f0b	-0.02448227
24	0x3cbe564e	0.023234513
25	0x3c82befb	0.015960207
26	0x3dac9061	0.084259756
27	0xbc818ccc	-0.015814207
28	0x3ddc9b0f	0.107717626
29	0x3856d276	5.1217583e-05
30	0xbdb853a6	-0.0900033
31	0x3ceffa87	0.029294265
32	0x3bd2734f	0.0064224373
33	0xbcc2e4d1	-0.023790749
34	0xbdc3c616	-0.09559266
35	0x3d3f4d08	0.046704322
36	0x3dba88c2	0.09108116
37	0xbd10930e	-0.035296492
38	0xbddb4d6d	-0.10708127
39	0xbd8574a0	-0.06516385
40	0x3d25ff55	0.040526707
41	0x3db763a5	0.089545526
42	0x3d68ad4d	0.056805898
43	0x3d86faee	0.0659083
44	0xbd8346f0	-0.06410015
45	0xbd8c9bb2	-0.06865634
46	0x3de1e086	0.110291526
47	0xbdc99486	-0.09842782
48	0xbddb45fb	-0.10706707
49	0x3c0ed272	0.008717166
50	0xbdc27d03	-0.094965
51	0xbbeecde5	-0.007287728
52	0x3d10c6de	0.035345905
53	0xbdb880ae	-0.09008919
54	0xbd501494	-0.050800875
55	0x3deae312	0.114690915
56	0xbde6dc13	-0.112724446
57	0xbdbfdf6a	-0.09368785
58	0xbdbc9e15	-0.09209839
59	0xbc97473e	-0.018466588
60	0x3ce58612	0.028018031
61	0x3ce23b5e	0.0276162
62	0x3dccd699	0.10001869
63	0x3d08de8b	0.03341536
64	0xbdc9d840	-0.098556995
65	0x3d10958d	0.035298873
66	0xbde9b8f1	-0.11412228
67	0xbd9af21f	-0.07565712
68	0xbc7d1d47	-0.015448875
69	0x3d8de1fc	0.06927869
70	0x3ccbd936	0.024883848
71	0x3dda38e6	0.10655384

dense.weight f4 [1, 308]
0	0xbd092249	-0.033479962
1	0x3d239225	0.039934296
2	0xbd14986a	-0.036278166
3	0x3d471405	0.048603076
4	0xbc85803b	-0.016296497
5	0x3c90cadf	0.017674861
6	0x3c42bf04	0.011886362
7	0xbbd945c0	-0.0066306293
8	0x3b104442	0.002201334
9	0xbb46fe93	-0.003036414
10	0xbd3f7ceb	-0.04674999
11	0xbcbed32d	-0.023294056
12	0xbbbbbe8e	-0.005729503
13	0x3cb792fe	0.022408959
14	0xbd24c3aa	-0.040225662
15	0xbd0d5473	-0.034504365
16	0xbd029f46	-0.031890176
17	0xb9dd1832	-0.00042170432
18	0x3ca12d47	0.01967491
19	0x3c2c4938	0.010515504
20	0xbd22c786	-0.03974106
21	0x3d05b13b	0.032639723
22	0x3c7badc4	0.015361253
23	0x3d1ef565	0.038808245
24	0xbd1f093e	-0.038827173
25	0xba6dcb7e	-0.0009071155
26	0xbb810d1f	-0.0039383317
27	0x3cd76fed	0.026298488
28	0xbcbe64c0	-0.0232414
29	0x3d1faca1	0.03898299
30	0x3cc78265	0.02435417
31	0x3c95b892	0.018276487
32	0xbcdf7cad	-0.02728113
33	0xbc341629	-0.0109916115
34	0xbc85f416	-0.01635174
35	0xbd0e7686	-0.034781
36	0xbd092b41	-0.033488516
37	0x3b0f8a62	0.002190255
38	0x3cb294c3	0.02179945
39	0x3c20328c	0.009777676
40	0xbc475c1c	-0.012167957
41	0x3b0a1c0b	0.0021073844
42	0x3c9c0e7d	0.019049877
43	0xbc9f464f	-0.019442705
44	0xbd4486b1	-0.047980014
45	0xbd51e25d	-0.051241267
46	0x393b6da0	0.00017874548
47	0x3b570868	0.0032811407
48	0x3b1da3f2	0.0024054018
49	0x3cfdde2d	0.03098973
50	0x3d421a9b	0.047388654
51	0xbd53712e	-0.05162161
52	0xbc901235	-0.017586807
53	0xbb3793e6	-0.0028011738
54	0xbd295ecb	-0.041350167
55	0x3bb46e8f	0.0055063437
56	0xbd4f877a	-0.05066631
57	0xbd41c183	-0.047303688
58	0x3ced8ce1	0.02899784
59	0x3d611a4d	0.054956723
60	0x3d4d6c55	0.05015214
61	0xbd388af0	-0.045054376
62	0x3be0baa6	0.0068581877
63	0x3d301609	0.042989764
64	0x3bff9671	0.0077999164
65	0x3d23f092	0.040024348
66	0x3d514262	0.0510887
67	0x3d1802c1	0.037112
68	0xbd1e1cff	-0.03860187
69	0xbc32ad85	-0.010905628
70	0x3ccd7356	0.02507941
71	0x3c020344	0.007935349
72	0xbcaa2d16	-0.020773452
73	0xbbfbb1d2	-0.00768111
74	0xbc5b3292	-0.013378756
75	0x3d5ef0c1	0.05442882
76	0xbd0c811d	-0.03430282
77	0x3d2d5b8c	0.042323634
78	0xbd44f64b	-0.048086446
79	0x3d237f54	0.03991635
80	0xbce3b1f6	-0.02779482
81	0x3a8c45e9	0.0010701987
82	0xbc6fd66f	-0.014638527
83	0x3bb29613	0.005450019
84	0xbc276aef	-0.010218366
85	0x3c8fb1d9	0.017540859
86	0xbd333ba4	-0.04375805
87	0xbc6bc5e7	-0.014390445
88	0xbc8bc023	-0.017059391
89	0xbd5b39c9	-0.053521905
90	0x3c03044c	0.00799663
91	0x3d0875a3	0.033315312
92	0xbc1ce897	-0.009576938
93	0xbd0add87	-0.03390267
94	0xbd534331	-0.05157775
95	0x3cee3827	0.02907951
96	0xbd613bd3	-0.054988693
97	0x3bc40585	0.0059821033
98	0xbd055025	-0.032547135
99	0x3d58f8e8	0.05297175
100	0x3c9561ca	0.018235106
101	0x3d1e5bd5	0.038661797
102	0x3d30cdee	0.04316514
103	0xbcd63240	-0.026147008
104	0xbd06cf1d	-0.032912362
105	0xbb047d8f	-0.002021644
106	0xbbdb76e0	-0.0066975206
107	0xbd4f431b	-0.050601106
108	0x3cabe695	0.020983974
109	0xbd406de9	-0.04697982
110	0x3ca1ccac	0.019750915
111	0xbc96e81a	-0.018421222
112	0x3bfda988	0.007741157
113	0xbd0ab773	-0.033866357
114	0x3c5aabd2	0.013346629
115	0x3b90f11b	0.0044232733
116	0xbc95cb2e	-0.01828536
117	0x3d1243c1	0.035709146
118	0x3cffded9	0.031234192
119	0xb8833ff2	-6.2584775e-05
120	0xbd2633cd	-0.040576745
121	0xbd471a0f	-0.048608836
122	0x3b6ed924	0.0036445344
123	0x3d1fbb7f	0.03899717
124	0xbcccf061	-0.025016965
125	0xbcd40ac2	-0.025884036
126	0xbd5ad78e	-0.053428225
127	0xbd5222c5	-0.05130269
128	0xbc4ea119	-0.012611651
129	0x3bb2a474	0.0054517332
130	0x3b0ec3e9	0.0021784252
131	0xbc61a850	-0.013773039
132	0xbcd4c146	-0.025971066
133	0xbd537391	-0.051623885
134	0x3d38d5c2	0.04512573
135	0xbd3703df	-0.044681426
136	0x3d05e309	0.03268722
137	0x3cd87266	0.026421737
138	0x3c1b0f0b	0.009464036
139	0xbd2a97b0	-0.041648567
140	0xbd09ff7b	-0.03369091
141	0x3cd2a981	0.025715591
142	0xbd51c1c3	-0.051210176
143	0x3cac8baf	0.0210627
144	0xba03ca93	-0.00050274393
145	0xbd1fe52b	-0.03903691
146	0xbc1d1805	-0.009588246
147	0x3cf5848c	0.02997043
148	0xbd54deb9	-0.051970217
149	0x3c7eb93b	0.015547092
150	0x3a9cd4a8	0.0011965232
151	0xbd45f28c	-0.048327014
152	0xbcdfe47a	-0.027330626
153	0x3cc21a6d	0.023694241
154	0x3c899854	0.016796269
155	0x3b92d2df	0.004480704
156	0x3b65761c	0.0035013026
157	0x3d631668	0.05544129
158	0x3ce131dd	0.027489597
159	0x3d387f0f	0.045043048
160	0x3d288b0c	0.04114823
161	0x3d539187	0.051652458
162	0xbd60d544	-0.054890886
163	0xbc350533	-0.011048603
164	0x3d1df9de	0.03856837
165	0x3d0e024e	0.034670167
166	0xbc19bf9e	-0.009384064
167	0x3d584eda	0.052809574
168	0x3d28093d	0.041024435
169	0xbc9e59e6	-0.019329976
170	0xbd4fb47a	-0.050709225
171	0x3cb09b7e	0.02155852
172	0x3d051f5d	0.032500613
173	0xba0249f6	-0.00049701275
174	0x3d5eff10	0.054442465
175	0xbc65a714	-0.014016885
176	0xbc9bbb27	-0.01901014
177	0x3d46dfdd	0.048553336
178	0x3cf87aa9	0.030331926
179	0x3d30879d	0.04309808
180	0xbd56d430	-0.05244845
181	0x3d279751	0.04091579
182	0xbc5a8402	-0.013337137
183	0xbd384f41	-0.044997457
184	0x3d2d4ba9	0.042308483
185	0x3cfc636f	0.030809132
186	0x3d19d525	0.037556786
187	0x3bafff44	0.005371006
188	0x3bce8f49	0.006303702
189	0x3d0fa95c	0.035073623
190	0xbcd480a4	-0.025940247
191	0xbcb022d7	-0.021500988
192	0x3b881c47	0.0041537615
193	0xbbb196fe	-0.005419611
194	0x3c8dfba5	0.017331908
195	0x3ac3776e	0.0014912912
196	0x3d205061	0.039139155
197	0xbc363742	-0.011121573
198	0x3d53ec5b	0.051739078
199	0x3d632797	0.055457678
200	0xbbc9a430	-0.006153606
201	0x3cc5cbb8	0.024144992
202	0x3c656eb7	0.014003447
203	0x3d0d9b51	0.03457195
204	0xbcf82a85	-0.030293712
205	0x3d187eb1	0.037230197
206	0x3d354a7a	0.04426048
207	0xbc916599	-0.01774864
208	0x3cfa2f41	0.03054011
209	0xbc815825	-0.0157891
210	0xbd1e24cc	-0.03860931
211	0x3d1d89a0	0.038461328
212	0xbcb6f019	-0.022331284
213	0x3d0f813b	0.035035353
214	0xbd17aba3	-0.03702892
215	0x3cd5ff32	0.026122663
216	0xbcd23470	-0.02565977
217	0x3d5811eb	0.052751463
218	0xbd2332e8	-0.03984347
219	0xbcd396c3	-0.025828725
220	0x3d433e7f	0.047667023
221	0x3c9c3d50	0.019072205
222	0x3cf083bf	0.029359696
223	0x3cb76240	0.022385716
224	0xbd007c9a	-0.03136883
225	0x3c648f71	0.013950215
226	0x3d3b918d	0.045793105
227	0x3c8bc5e9	0.017062144
228	0x3b24cdf7	0.0025147179
229	0xbd13139d	-0.035907377
230	0x3d5baa38	0.05362913
231	0x3ce03701	0.027369978
232	0xbc0c9bca	-0.008582065
233	0xbcbb224f	-0.022843508
234	0x3d5e6efa	0.054305054
235	0xbcc0265f	-0.023455797
236	0xbcaef2c7	-0.021356
237	0x3d0b2ae8	0.033976465
238	0xbd65ba7f	-0.05608606
239	0xbc339a39	-0.0109620625
240	0x3d1ef3c2	0.038806684
241	0xbd05482d	-0.032539535
242	0x3cd415e4	0.025889345
243	0xbce885af	-0.028384058
244	0x3cefa08b	0.029251358
245	0xbd41ae55	-0.047285397
246	0x3c8b7618	0.017024085
247	0x3d1faae4	0.038981333
248	0xbc0123dc	-0.007882085
249	0x3c83ccf4	0.01608894
250	0x3caf2c09	0.021383302
251	0x3cbf9d4a	0.023390431
252	0x3d06eb01	0.03293896
253	0xbd34873a	-0.044074275
254	0xbd48bba0	-0.04900706
255	0xbc564305	-0.013077502
