siamese-classifier/siam_v3_7.pth (torch, 104345 bytes, 12 tensors)

siam_layer.conv1.weight f4 [14, 31, 6, 6]
-0.0012366055 -0.014560348 0.0050261724 -0.0023043246 0.026801351 0.0011640254 0.0053713867 -0.012962992
-0.019179951 -0.029480778 -0.024773566 0.026038948 -0.026642513 -0.0055479137 0.002801773 0.007607978
-0.000993134 -0.018148705 -0.02386077 0.0049785986 0.0045506167 0.0013118939 0.018275827 0.025173616
-0.014763681 -0.01626546 -0.024284218 -0.0022400038 0.024861947 0.025713164 0.02780914 0.01970208
-0.019030748 0.018038636 0.012782101 -0.009877426 -0.0023196982 0.020408556 -0.016954483 0.0025272793
0.014187091 -0.0033552297 0.023851879 0.0024518385 -0.005372759 -0.0019494226 0.019053573 -0.024214678
0.0034936504 0.025214918 -0.015021666 0.010331677 0.020230569 -0.012178185 -0.02159585 -0.0258625
-0.002317077 0.021001691 -0.009777019 0.01838157 0.012858699 0.010892069 -0.006433465 0.016768066
-0.028912466 -0.025500767 0.028357668 -0.021908572 -0.028739667 0.021273995 -0.015524571 -0.026607916
-0.022737695 0.012243439 -0.022145329 0.027778288 -0.0039829393 -0.0245424 -0.02728274 0.01961796
0.018912114 -0.010171916 -0.0013248943 -0.008294481 0.007936364 0.015620536 0.02151675 0.015333636
0.00656652 -0.018917598 -0.028490942 0.02429831 0.014656467 0.012118164 -0.027812466 -0.0027405901
-0.0053214896 -0.019106565 -0.024505952 -0.025208002 0.01940898 -0.023554627 -0.012523573 0.0064426614
-0.026859017 -0.020397542 -0.007987397 -0.017338505 -0.015162821 0.0008280558 0.02866176 0.004066467
-0.02698216 -0.017107287 0.022545526 0.016250469 -0.0184104 0.001347565 -0.029807087 -0.026202222
-0.017471086 -0.012181938 -0.029585931 0.002143742 -0.026726017 0.0021425935 -0.007672199 -0.02666779
-0.016552063 0.009627142 0.007486144 0.007895755 -0.029709266 0.008343248 -0.026023418 -0.020601248
-0.009911934 -0.0012251957 0.01396457 0.02384195 0.018145757 0.012237793 -0.0135315955 -0.013908665
-0.007927646 -0.0040644244 -0.015439623 -0.025136024 -0.015862597 0.01105821 0.0155632505 0.017858021
-0.028116036 -0.02583289 0.017482689 0.015669866 -0.012797783 0.017439382 -0.017899882 0.002509273
0.014341052 0.009960408 0.02449346 0.021583678 -0.026812552 0.021138187 -0.02511121 0.009454432
-0.022066334 -0.0151168965 0.028414134 0.015457896 -0.005152957 0.026060073 -0.00011195388 0.002194284
0.010261679 -0.003437639 0.008123166 -0.024887864 -0.0007981055 0.02194547 -0.008406766 -0.011046262
0.008288893 0.0056925956 -0.017197317 0.01192936 -0.023245996 0.019063124 -0.02335081 -0.022042962
-0.01787062 0.017052121 0.016226992 -0.018157847 0.0041196044 -0.024570374 -0.0003376972 -0.018844176
-0.008386846 0.017929798 -0.02829658 0.024824774 0.0017094684 -0.0052342475 0.018462598 0.028109645
-0.027783152 0.0067466255 0.027188912 0.015052261 0.001719589 0.014624433 -0.024282712 0.009999828
0.023769315 -0.013765198 0.018372422 -0.0021476944 0.022295188 -0.011676616 0.024957731 -0.008365545
-0.01945797 0.0061381557 0.010519253 0.00786991 -0.029523699 0.029185856 -0.015581378 -0.006821142
-0.012731472 0.0026246835 -0.016012209 0.004721799 -0.029121267 -0.0068117245 -0.02744557 0.0057664975
-0.0016854089 0.014073909 -0.022900624 0.013108765 0.026583508 0.0044348175 -0.01483066 -0.0072013587
0.00028467114 -0.010503486 -0.010124033 -0.028101776 0.020523038 0.009979375 0.008676296 -0.0028436105
00000000: 9815 a2ba 878e 6ebc 97b2 a43b 2704 17bb
00000010: 828e db3c 3692 983a 7502 b03b bb62 54bc
00000020: 461f 9dbc ac81 f1bc eff1 cabc a24f d53c
00000030: 6641 dabc 46cb b5bb f39d 373b 584c f93b
00000040: 0c2c 82ba 98ac 94bc a977 c3bc 8323 a33b
00000050: 571d 953b dbf3 ab3a 30b7 953c e638 ce3c
00000060: 5ee3 71bc 243f 85bc b2ef c6bc 07cd 12bb
00000070: 48ab cb3c 6aa4 d23c fecf e33c 4266 a13c
00000080: 5fe6 9bbc c3c5 933c 046c 513c edd4 21bc
00000090: 1406 18bb d82f a73c 21e4 8abc b6a0 253b
000000a0: f970 683c 6ae3 5bbb 0465 c33c 06af 203b
000000b0: f80d b0bb c583 ffba 3d16 9c3c dc5d c6bc
000000c0: baf5 643b 848f ce3c 6f1d 76bc 3246 293c
000000d0: 94ba a53c 0387 47bc c8e9 b0bc 98dd d3bc
000000e0: 1ada 17bb bd0b ac3c ca2f 20bc f294 963c
000000f0: 4bad 523c a674 323c d1cf d2bb 2f5d 893c
00000100: d6d9 ecbc fce6 d0bc 574e e83c 9b79 b3bc
00000110: 736f ebbc cd46 ae3c c55a 7ebc d8f8 d9bc
00000120: 6744 babc b598 483c 1f6a b5bc 4b8f e33c
00000130: 5183 82bb 250d c9bc 0e80 dfbc d8b5 a03c
00000140: 94ed 9a3c 1ca8 26bc 13a8 adba 93e5 07bc
00000150: 8607 023c 47ed 7f3c e543 b03c ee39 7b3c
00000160: f62b d73b 14f9 9abc d665 e9bc 400d c73c
00000170: ae21 703c 448b 463c f8d6 e3bc 799b 33bb
00000180: e45f aebb 5f85 9cbc b5c0 c8bc 0381 cebc
00000190: 95ff 9e3c a2f5 c0bc ac2f 4dbc f61c d33b
000001a0: 7107 dcbc bf18 a7bc 92dd 02bc 7b09 8ebc
000001b0: 7b6d 78bc e211 593a 11cc ea3c ff3f 853b
000001c0: b109 ddbc 9524 8cbc 65b1 b83c b41f 853c
000001d0: 68d1 96bc c7a0 b03a fe2d f4bc 0ba6 d6bc
000001e0: 861f 8fbc c096 47bc 325e f2bc 067e 0c3b
000001f0: 85f0 dabc c16a 0c3b 1267 fbbb 6976 dabc
00000200: 3198 87bc 29bb 1d3c 544e f53b 325d 013c
00000210: d960 f3bc 1eb2 083c 102f d5bc f3c3 a8bc
00000220: aa65 22bc bf96 a0ba a7cb 643c 3150 c33c
00000230: 69a6 943c 0681 483c a0b3 5dbc 2be1 63bc
00000240: f5e2 01bc dd2e 85bb 79f6 7cbc 10ea cdbc
00000250: 47f2 81bc 7f2d 353c 01fd 7e3c fc4a 923c
00000260: 9a53 e6bc 7f9f d3bc db37 8f3c 175e 803c
00000270: cbad 51bc 09dd 8e3c c6a2 92bc 9d72 243b
00000280: bbf6 6a3c fb30 233c 82a6 c83c 41d0 b03c
00000290: ffa5 dbbc fe29 ad3c 06b6 cdbc c3e6 1a3c
000002a0: 75c4 b4bc dcac 77bc c2c4 e83c 1d43 7d3c
000002b0: 23da a8bb ef7b d53c c8c8 eab8 facd 0f3b
000002c0: 9a20 283c 034a 61bb 0717 053c a2e1 cbbc
000002d0: f437 51ba fcc6 b33c 88bc 09bc 62fb 34bc
000002e0: 23ce 073c f488 ba3b 63e1 8cbc 5d73 433c
000002f0: 636e bebc 452a 9c3c 334a bfbc 7193 b4bc
00000300: 6865 92bc e4b0 8b3c 78ee 843c c4bf 94bc
00000310: bffd 863b cf47 c9bc f30c b1b9 1a5f 9abc
00000320: fb68 09bc 83e1 923c 3bce e7bc 535d cb3c
00000330: 3e10 e03a 0d84 abbb e03e 973c 3346 e63c
00000340: 7e99 e3bc cc12 dd3b 48bb de3c c29d 763c
00000350: d563 e13a 519b 6f3c 8aec c6bc 52d6 233c
00000360: deb7 c23c 6d87 61bc c381 963c 55c0 0cbb
00000370: 66a4 b63c 474f 3fbc 2874 cc3c a40f 09bc
00000380: 5266 9fbc 9522 c93b f258 2c3c ccf0 003c
00000390: afdb f1bc 2d17 ef3c 0949 7fbc e383 dfbb
000003a0: aa97 50bc e202 2c3b 092c 83bc 52b9 9a3b
000003b0: b98f eebc e334 dfbb 88d5 e0bc e3f4 bc3b
000003c0: f0e8 dcba 4196 663c 179a bbbc 25c6 563c
000003d0: a8c5 d93c f251 913b 4cfc 72bc 60f9 ebbb
000003e0: ea3f 9539 d016 2cbc 46df 25bc b235 e6bc
000003f0: ee1f a83c 8880 233c 0627 0e3c de5b 3abb

siam_layer.conv1.bias f4 [14]
0.013243269 0.029896725 0.007830504 -0.02579119 0.023425046 0.029426802 -0.021587111 0.00545327
-0.01438779 0.00821913 0.015507054 0.026560917 0.018008836 0.009157915
00000000: 4cfa 583c fae9 f43c 844b 003c 0c48 d3bc
00000010: e2e5 bf3c 7a10 f13c 74d7 b0bc 58b1 b23b
00000020: c4ba 6bbc 88a9 063c 4c11 7e3c 4896 d93c
00000030: 4487 933c 140b 163c

siam_layer.conv2.weight f4 [7, 14, 6, 6]
-0.013450056 -0.04283044 0.007891773 -0.014562137 -0.006178227 0.009085926 -0.034337472 0.02314249
0.0065946495 -0.03915582 -0.017013509 0.025456442 0.014078 -0.043735225 0.005898978 0.044012215
0.011602372 0.020043314 -0.01757474 -0.0124426065 0.0226863 0.03972739 0.03366559 0.009189463
-0.009361737 -0.018203052 -0.044235762 0.009700369 0.03205611 0.0012662061 0.039703194 -0.02304609
0.023239452 0.028996876 0.012892128 -0.009334049 -0.04045429 0.03277342 -0.019522708 -0.041301455
0.039207105 0.010569555 -0.019763725 0.03331074 0.021861417 0.03356111 0.029376714 -0.02419295
0.030103562 -0.025570597 -0.034256533 0.016110709 -0.03437135 -0.02685823 0.00839989 0.011013322
-0.03321346 -0.024641624 -0.020262677 -0.005774045 0.036281545 -0.025808662 -0.024237843 -0.015827926
0.018135753 -0.021947075 -0.0444894 0.007866475 -0.03156043 -0.02650231 0.039546195 0.038206134
-0.034118608 -0.008226532 -0.010577711 0.013581652 0.026020378 -0.0048561036 0.014814614 0.0012755648
-0.012050106 0.0009798412 -0.040564455 0.011572203 0.017992485 -0.011773152 0.008711636 -0.043994546
-0.0077033993 -0.015106685 -0.041503668 -0.01620474 -0.013864197 0.01728262 0.010481774 -0.034322776
-0.004114739 0.03813205 0.018898608 -0.013958942 0.04055361 0.015793435 0.03611 0.034002755
-0.0018937648 0.024446163 0.01942577 -0.041775543 0.03815828 -0.0113995755 -0.009598101 -0.022339154
0.015791498 -0.043486573 -0.03696049 0.03355962 0.041180044 0.024494618 -0.012980194 0.018739343
-0.024242453 -0.036417753 0.033439804 -0.008194624 -0.006116577 0.0072573083 0.023918614 0.015040874
-0.010283389 0.01085244 -0.0149791585 -0.0038793832 0.025120875 -0.03235817 -0.024225088 -0.0071937
-0.019969204 -0.0062067835 0.032499082 -0.030793719 -0.025458436 0.015144808 -0.040600687 -0.016217
-0.025067743 -0.0016530079 -0.024277026 -0.00016436182 0.01554125 -0.00339057 -0.02430428 -0.018493535
-0.037838224 0.019065488 0.016015543 -0.016257966 -0.004222081 -0.0049691196 0.03400415 -0.002690679
-0.019330628 0.007333731 0.03965902 0.025264036 0.029846976 -0.018314686 -0.021485768 0.023653459
-0.014763271 -0.013532348 0.014653151 0.04168917 -0.02165029 -0.040279318 0.0054474967 -0.021100309
-0.02473976 0.022544524 0.0034912322 -0.031015685 0.043969076 0.021838194 0.028703908 -0.014506695
-0.04326091 0.030871691 -0.031768996 -0.03895868 0.036783077 -0.005167103 0.012961156 -0.030777235
0.023953807 0.008640427 0.018271677 0.03158421 -0.006335305 -0.03745169 -0.009187287 -0.029262207
-0.01655563 -0.034092154 0.0065585524 -0.03367607 0.0073496634 0.024672782 0.026793227 -0.02733398
0.00884353 0.008965977 0.032160886 0.028896295 0.0086576445 -0.024915835 0.028563602 0.017689412
0.030777834 0.04268805 -0.043444566 -0.0024884432 0.0257119 0.022331862 0.01272891 -0.005760304
0.044536848 0.028218614 0.028734809 0.017825281 -0.025804738 -0.0100727575 0.009122452 0.0025169798
-0.013046446 0.04183311 -0.014437974 0.03604582 -0.00062348286 -0.017727515 -0.019705137 0.027398292
0.020578379 0.0056638806 0.027356038 0.0312997 -0.03634536 0.03382223 0.0063683 -0.011655136
-0.02762219 0.020571142 0.041725874 0.02613258 -0.03780615 0.01498437 0.038702883 -0.037916105
00000000: a05d 5cbc f96e 2fbd 7f4c 013c 0896 6ebc
00000010: b972 cabb 23dd 143c 73a5 0cbd 5295 bd3c
00000020: ee17 d83b da61 20bd ea5f 8bbc 078a d03c
00000030: 69a7 663c b523 33bd 374c c13b 2746 343d
00000040: e017 3e3c e031 a43c e7f8 8fbc 13dc 4bbc
00000050: 9fd8 b93c 30b9 223d eee4 093d 678f 163c
00000060: f961 19bc 911e 95bc 8f30 35bd 4cee 1e3c
00000070: 454d 033d d4f6 a53a d19f 223d 27cb bcbc
00000080: aa60 be3c db8a ed3c 8139 533c d7ed 18bc
00000090: 66b3 25bd 6c3d 063d 16ee 9fbc b72b 29bd
000000a0: a197 203d ed2b 2d3c 89e7 a1bc d870 083d
000000b0: b716 b33c 6077 093d 6fa7 f03c 4b30 c6bc
000000c0: bf9b f63c 6e79 d1bc 9450 0cbd 9bfa 833c
000000d0: f9c8 0cbd ca05 dcbc b19f 093c 3871 343c
000000e0: d60a 08bd 3bdd c9bc eafd a5bc 3334 bdbb
000000f0: f59b 143d b06c d3bc 718e c6bc 91a9 81bc
00000100: 6e91 943c 5aca b3bc 843a 36bd 63e2 003c
00000110: 8245 01bd 5f1b d9bc 31fb 213d 097e 1c3d
00000120: f4bf 0bbd 93c8 06bc 234e 2dbc 9485 5e3c
00000130: b028 d53c f31f 9fbb ffb8 723c da30 a73a
00000140: cf6d 45bc 046e 803a ea26 26bd 5699 3d3c
00000150: fa64 933c 2ee4 40bc 40bb 0e3c a033 34bd
00000160: cc6c fcbb 0882 77bc c0ff 29bd cebf 84bc
00000170: a826 63bc 4894 8d3c bfbb 2b3c 0a96 0cbd
00000180: efd4 86bb 5a30 1c3d 41d1 9a3c 0cb4 64bc
00000190: 8b1b 263d 3c61 813c 14e8 133d 7946 0b3d
000001a0: 3438 f8ba 5243 c83c cb22 9f3c d51c 2bbd
000001b0: db4b 1c3d 49c5 3abc 5a41 1dbc 9a00 b7bc
000001c0: 2c5d 813c fa1e 32bd e263 17bd d075 093d
000001d0: 68ac 283d f0a8 c83c e1aa 54bc 4083 993c
000001e0: 1c98 c6bc c82a 15bd 2df8 083d bf42 06bc
000001f0: 916d c8bb b7ce ed3b f8f0 c33c ff6d 763c
00000200: a97b 28bc 6fce 313c 256b 75bc 403d 7ebb
00000210: 4bca cd3c 008a 04bd b173 c6bc 21b9 ebbb
00000220: 7596 a3bc 4662 cbbb c21d 053d 1c43 fcbc
00000230: 368e d0bc ee21 783c e84c 26bd 84d9 84bc
00000240: de5a cdbc bea9 d8ba 9de0 c6bc 8a58 2cb9
00000250: baa0 7e3c 5334 5ebb c519 c7bc c17f 97bc
00000260: 41fc 1abd 3a2f 9c3c 0733 833c 6d2f 85bc
00000270: 6259 8abb ffd3 a2bb f047 0b3d 1a56 30bb
00000280: 445b 9ebc cb4f f03b 7f71 223d 86f6 ce3c
00000290: a581 f43c ae08 96bc ec02 b0bc e6c4 c13c
000002a0: a6e1 71bc c8b6 5dbc c513 703c 43c2 2a3d
000002b0: f35b b1bc edfb 24bd ea80 b23b 8eda acbc
000002c0: 0aab cabc 4baf b83c 28cd 643b 9b14 febc
000002d0: eb18 343d 03e6 b23c 7524 eb3c 7dad 6dbc
000002e0: 5a32 31bd a1e6 fc3c 3520 02bd 2393 1fbd
000002f0: daa9 163d cd50 a9bb 075b 543c 8a20 fcbc
00000300: c63a c43c 9490 0d3c 7cae 953c 725e 013d
00000310: 6498 cfbb f166 19bd 4686 16bc 4cb7 efbc
00000320: ac9f 87bc 37a4 0bbd 20e9 d63b ebef 09bd
00000330: 72d5 f03b 931e ca3c 787d db3c 83eb dfbc
00000340: 74e4 103c 08e6 123c 22bb 033d ecb7 ec3c
00000350: cbd8 0d3c 4b1c ccbc 37fe e93c 63e9 903c
00000360: cc21 fc3c aad9 2e3d eef2 31bd 2615 23bb
00000370: c3a1 d23c 4ff1 b63c eb8c 503c efc0 bcbb
00000380: 456c 363d b92a e73c 4365 eb3c 5306 923c
00000390: 7564 d3bc 3508 25bc 5676 153c eaf3 243b
000003a0: c3c0 55bc 3259 2b3d 418d 6cbc c8a4 133d
000003b0: 3a71 23ba 4b39 91bc ab6c a1bc 6272 e03c
000003c0: fd93 a83c 1398 b93b c519 e03c 1d34 003d
000003d0: dfde 14bd 2e89 0a3d 2cad d03b 2ff5 3ebc
000003e0: ee47 e2bc d084 a83c c0e8 2a3d fe13 d63c
000003f0: 9fda 1abd 0181 753c ea86 1e3d eb4d 1bbd

siam_layer.conv2.bias f4 [7]
0.03018704 0.019988477 -0.017950283 -0.014132177 -0.03968897 0.033790126 -0.021836435
00000000: d04a f73c e0be a33c 790c 93bc a68a 67bc
00000010: e790 22bd 8467 0a3d 53e2 b2bc

siam_layer.conv3.weight f4 [7, 14, 6, 6]
0.009834538 0.024811419 -0.028366296 -0.029838556 0.006429745 0.018691152 0.021977553 0.04204335
-0.029103702 0.020389795 0.012619096 -0.042233955 0.041287698 -0.028006474 -0.003094055 -0.020368254
-0.040473804 -0.042856522 -0.003961626 -0.012883985 -0.013587377 0.015911818 -0.028233118 0.03507587
-0.029515682 0.0038417447 -0.036557503 -0.018696774 0.012770142 0.02971976 -0.009894298 0.0041112006
0.011648039 -0.026420608 -0.041991264 -0.02730982 -0.014171158 0.032354936 0.0064619347 0.0034489234
0.02276156 -0.00022465906 0.01891134 0.037281618 0.029986385 0.01597367 -0.021835255 0.0010680007
-0.0047440073 0.010971106 -0.010626959 -0.03215894 0.029132407 0.005698332 -0.023418207 -0.027239712
0.024594089 0.023864757 -0.010639739 -0.024052393 0.0055833394 0.029395748 0.037028093 -0.038711477
0.03303836 -0.0018959207 0.023931038 -0.037700113 -0.0013197776 -0.027638404 0.036864422 -0.00355835
-0.01786378 0.010659063 0.04132012 -0.04197407 -0.0247889 -0.041702256 0.026642967 -0.030010188
-0.019447519 -0.035314992 0.019615572 -0.01385468 -0.04245843 0.022692028 -0.03696967 -0.00073226047
0.03870736 -0.036234032 0.01325298 -0.005953651 0.020620465 -0.039337475 0.010808625 -0.01322364
-0.0066691935 -0.03527165 0.023793165 -0.02096467 0.025253246 -0.00423323 -0.011634322 -0.040629853
-0.04150537 -0.033534423 0.0010972144 -0.04114778 0.040910363 -0.03752752 -0.0131985415 0.011584331
-0.038274128 0.008394856 -0.027314324 -0.011704501 0.015209906 0.04029283 0.028122209 0.024293013
-0.038104977 0.013726206 0.02210686 -0.043277137 -0.006516029 -0.043197688 0.03530285 -0.0067909453
-0.0030974315 -0.0051030284 -0.030584726 0.038110398 0.022338867 -0.03989363 -0.024446033 0.036346167
0.025446469 -0.010433388 -0.0150893545 -0.031774484 -0.016256655 -0.0067762528 0.022330133 -0.00025387554
0.011591243 -0.02438714 0.00092462316 0.036613706 -0.008135898 0.03062966 0.038633958 -0.027913013
0.018833628 -0.035517085 0.039088786 -0.03392448 -0.015020081 -0.0037808847 -0.040858213 0.03795985
-0.029180339 0.033289984 0.022768823 0.0089086285 -0.005705472 -0.04067873 -0.02020838 -0.031182747
-0.039285865 -0.008094451 0.0068378537 0.014134797 -0.027658649 0.00892797 -0.008052791 -0.016001167
-0.042524405 -0.0039916905 -0.038167875 -0.029536327 0.044122554 0.0042904057 -0.01481894 0.022792382
-0.02966774 0.011922464 -0.0145926485 0.028867034 -0.029249215 0.01244507 0.027503505 0.026490081
0.020801961 -0.005260547 -0.0020437213 -0.043183766 0.033795476 -0.008649357 0.02298499 -0.015340344
-0.03585175 0.010842826 -0.030960709 -0.0034093685 -0.03728103 0.008384582 -0.00487836 0.003014773
-0.021979313 0.006257348 -0.01590795 -0.044416543 -0.037726093 -0.026120447 0.018881626 -0.021103503
0.042068206 -0.016039299 -0.039199628 0.006183373 0.0011316246 -0.007384181 -0.035885133 -0.022830177
-0.018990863 -0.006354809 -0.016953249 0.013770233 -0.037297264 -0.032134205 -0.005818355 0.023756417
0.008230526 0.036066663 -0.040118378 -0.019812994 0.016914722 -0.014437157 -0.019392114 0.024333972
-0.0066087265 0.013051802 0.02128881 -0.024909262 -0.035421476 0.02438704 0.03341246 0.023556659
0.013056775 0.042234804 -0.010863868 -0.004597135 0.011418919 -0.018419823 -0.030575765 0.04101043
00000000: 0b21 213c 5141 cb3c 6f60 e8bc fd6f f4bc
00000010: 9cb0 d23b 301e 993c 450a b43c a635 2c3d
00000020: e36a eebc 8008 a73c 53c0 4e3c 83fd 2cbd
00000030: 4a1d 293d d56d e5bc a1c5 4abb 53db a6bc
00000040: dcc7 25bd 528a 2fbd 87d0 81bb 5a17 53bc
00000050: 979d 5ebc 8059 823c 2449 e7bc b7ab 0f3d
00000060: dfca f1bc c8c5 7b3b 52bd 15bd fa29 99bc
00000070: dc39 513c db76 f33c b21b 22bc 40b7 863b
00000080: 6bd7 3e3c 0870 d8bc 08ff 2bbd d8b8 dfbc
00000090: 252e 68bc 9c86 043d a3be d33b 5507 623b
000000a0: 7376 ba3c 7592 6bb9 f4eb 9a3c 9cb4 183d
000000b0: 02a6 f53c 37db 823c d9df b2bc 28fc 8b3a
000000c0: 9e73 9bbb 27c0 333c b21c 2ebc 18b9 03bd
000000d0: 16a7 ee3c 13b9 ba3b 8ad7 bfbc d125 dfbc
000000e0: 8b79 c93c 0680 c33c 4d52 2ebc 8609 c5bc
000000f0: 72f4 b63b 5acf f03c c5aa 173d ed8f 1ebd
00000100: 3b53 073d 8b80 f8ba 060b c43c 6f6b 1abd
00000110: 63fc acba ef69 e2bc 26ff 163d 3533 69bb
00000120: 1057 92bc 5aa3 2e3c 493f 293d 01ed 2bbd
00000130: 1712 cbbc fccf 2abd 5a42 da3c edd7 f5bc
00000140: 6750 9fbc 74a6 10bd d6b0 a03c bdfe 62bc
00000150: e4e8 2dbd a2e4 b93c 826d 17bd 2bf5 3fba
00000160: 9c8b 1e3d 236a 14bd 0723 593c d816 c3bb
00000170: 40ec a83c 5520 21bd a916 313c f7a7 58bc
00000180: 4089 dabb 0179 10bd e2e9 c23c 1abe abbc
00000190: e5df ce3c e8b6 8abb e29d 3ebc 7d6b 26bd
000001a0: 8901 2abd 645b 09bd 68d0 8f3a 938a 28bd
000001b0: a091 273d 75b6 19bd b23e 58bc 35cc 3d3c
000001c0: 55c5 1cbd 948a 093c 4ac2 dfbc 3cc4 3fbc
000001d0: f832 793c 180a 253d 8c60 e63c 2402 c73c
000001e0: f713 1cbd e1e3 603c 7219 b53c 5e43 31bd
000001f0: 6a84 d5bb 0ff0 30bd b999 103d 9486 debb
00000200: 47fe 4abb 4e37 a7bb d28c fabc a619 1c3d
00000210: 0000 b73c 8167 23bd 0c43 c8bc b8df 143d
00000220: 1d75 d03c cdf0 2abc 5739 77bc f625 02bd
00000230: ad2c 85bc 540b debb afed b63c 991a 85b9
00000240: 32e9 3d3c 8ac7 c7bc 6962 723a 41f8 153d
00000250: 6e4c 05bc 0deb fa3c a43e 1e3d d5a9 e4bc
00000260: fb48 9a3c 5d7a 11bd 901b 203d 65f4 0abd
00000270: c916 76bc b8c8 77bb f15a 27bd ca7b 1b3d
00000280: 9b0b efbc 145b 083d af85 ba3c 7ff5 113c
00000290: f8f4 babb bd9e 26bd 0b8c a5bc f672 ffbc
000002a0: 37ea 20bd 979e 04bc 1310 e03b a395 673c
000002b0: 6494 e2bc 9f46 123c daef 03bc e114 83bc
000002c0: 122e 2ebd bacc 82bb eb55 1cbd 2bf6 f1bc
000002d0: dab9 343d 8896 8c3b 24cb 72bc 17b7 ba3c
000002e0: c309 f3bc 7056 433c 0116 6fbc 8f7a ec3c
000002f0: 0d9c efbc 68e6 4b3c 084f e13c ba01 d93c
00000300: e068 aa3c ab60 acbb f4ef 05bb 76e1 30bd
00000310: 206d 0a3d 08b6 0dbc 054b bc3c 1156 7bbc
00000320: 49d9 12bd 1ca6 313c 50a1 fdbc b66f 5fbb
00000330: feb3 18bd 7c5f 093c a6da 9fbb 7f93 453b
00000340: f60d b4bc 710a cd3b 6451 82bc 1fee 35bd
00000350: ad86 1abd 8cfa d5bc a4ad 9a3c 41e1 acbc
00000360: b64f 2c3d d964 83bc ca8f 20bd e49d ca3b
00000370: 0553 943a 00f7 f1bb 4afc 12bd 5a06 bbbc
00000380: ba92 9bbc 003c d0bb 8ae1 8abc 8b9c 613c
00000390: 04c5 18bd 289f 03bd e6a7 bebb d19c c23c
000003a0: 54d9 063c a3ba 133d 2b53 24bd dc4e a2bc
000003b0: be90 8a3c d389 6cbc 36dc 9ebc 0a58 c73c
000003c0: 048e d8bb 3ad7 553c df65 ae3c 820e ccbc
000003d0: 1c16 11bd 54c7 c73c 81db 083d e5f9 c03c
000003e0: 15ec 553c 67fe 2c3d 5dfe 31bc 90a3 96bb
000003f0: 6b16 3b3c 2be5 96bc 077a fabc 8dfa 273d

siam_layer.conv3.bias f4 [7]
0.031832978 0.021045066 0.023771197 -0.0014984198 0.0019340292 0.036293864 0.012830891
00000000: 4c63 023d b466 ac3c d0bb c23c a066 c4ba
00000010: 407f fd3a e0a8 143d a838 523c

siam_layer.conv4.weight f4 [3, 14, 6, 6]
-0.0056614564 -0.0010738643 0.035680577 -0.021629872 0.031913303 0.00058947125 -0.006784562 -0.0027440751
-0.0018761089 -0.02665546 0.02743403 -0.027992629 -0.022454169 0.023329116 0.027623696 0.008470147
-0.02669146 -0.016541252 0.0033924952 0.01962676 0.03509147 -0.021271663 -0.036053523 0.006802979
0.013241589 0.031472165 0.030244665 0.0089320075 0.0032620118 0.0030251967 0.012500271 -0.023960065
-0.021203704 0.030420085 0.003814945 -0.014633791 -0.023659071 0.032019548 -0.0065785935 -0.04180531
0.018070599 0.036537487 -0.03119716 0.010948382 0.012823485 0.024849141 0.025117936 -0.019090232
-0.029214397 0.021207958 0.04423446 -0.026379796 0.034636687 0.04450901 -0.021081673 -0.0058639213
0.0015399168 -0.030863792 0.005028407 0.03242556 0.0005143519 0.018160895 0.0024152044 -0.005659575
0.0105235865 -0.0424009 -0.01410664 0.02898856 -0.0034738507 -0.020580206 0.014812161 0.004227597
-0.009000017 -0.023732629 -0.016016493 0.010098944 0.0052815126 -0.00959914 0.040302616 -0.018455107
-0.031894002 -0.04156851 -0.022433234 -0.0076845745 0.018721573 -0.04000257 -0.03740363 -0.02443357
0.022200104 -0.024661979 0.01692966 0.016050745 -0.0137254875 -0.024869027 0.013193666 -0.034727488
-0.041634914 -0.042165805 0.041562863 -0.014023381 -0.020908594 -0.0123359235 -0.035840966 -0.039790373
-0.0122917 0.025641987 -0.011010818 0.03817063 -0.005296154 -0.01213239 -0.037212014 0.044011254
0.012865303 0.044250216 0.014214064 0.034265645 -0.0017842789 0.03553773 0.0010498578 0.033890404
0.026663437 0.02164684 0.000271218 0.025573414 -0.024341945 -0.009463882 0.025521388 0.015191891
0.018960645 -0.024649946 -0.0020883137 0.00508175 -0.008546796 -0.02237409 0.0026452283 -0.023095742
-0.027214268 0.03948217 0.026461342 -0.014962427 0.031043625 -0.0008445478 0.03349905 -0.013043057
0.0015301681 -0.027168032 0.043318346 -0.014093097 0.018815083 -0.027871864 -0.03420594 -0.006783034
-0.029168202 0.00323347 0.018450728 0.025980849 0.009486967 0.026407138 0.039584406 0.028959347
0.037221316 0.0036367616 -0.002732013 0.021613706 -0.014523524 -0.041601256 0.015853208 0.0051334435
-0.02611123 0.028629055 0.012343682 0.010582302 -0.0436416 0.026423996 0.009023291 -0.014829941
-0.03071628 -0.014281793 -0.029183911 -0.005460781 0.015938165 -0.013227259 0.030550562 0.011498166
0.036934856 0.01867764 -0.0025813146 0.03128993 0.03704781 -0.00442112 -0.03657954 -0.0037358534
0.013050287 -0.02540144 -0.036737215 -0.012930558 0.01520594 0.03711614 0.023368921 -0.006525755
0.04296878 -0.0053099524 -0.015245716 -0.011504928 -0.010093335 0.043589238 -0.01580416 -0.018955817
0.021148374 0.034705896 0.03587971 -0.04092664 -0.020022584 0.0051238323 0.019376086 -0.031980656
-0.015456355 0.043405145 0.0049984204 -0.018774884 -0.0025642565 -0.01350094 -0.00931721 0.034961425
0.010543339 0.023026187 -0.016097885 0.0168321 0.019143116 0.025918696 0.03538338 -0.010136604
0.02555816 -0.0044385437 0.021066643 -0.034963373 0.009226339 0.010905941 0.041550376 0.017018277
0.007956736 0.023215003 -0.034392066 -0.013214998 0.029226577 -0.04151175 0.024712699 0.009403676
-0.035742242 0.020764507 0.028288426 0.03510326 0.011441414 -0.03986421 -0.006675377 0.036376417
00000000: bd83 b9bb e8c0 8cba cc25 123d 2131 b1bc
00000010: 86b7 023d bf86 1a3a 0851 debb f1d5 33bb
00000020: c5e7 f5ba 8d5c dabc 55bd e03c cc50 e5bc
00000030: cef1 b7bc b41c bf3c 174b e23c 5fc6 0a3c
00000040: 0ca8 dabc 8581 87bc a054 5e3b 4dc8 a03c
00000050: 13bc 0f3d e941 aebc dcac 13bd 86eb de3b
00000060: 40f3 583c f5e8 003d a9c3 f73c 8e57 123c
00000070: 7ac7 553b 6142 463b f0cd 4c3c e647 c4bc
00000080: 64b3 adbc 8b33 f93c 2804 7a3b 91c2 6fbc
00000090: abd0 c1bc ee26 033d 3e91 d7bb 0b3c 2bbd
000000a0: cb08 943c 55a8 153d 3091 ffbc d860 333c
000000b0: 9819 523c 6d90 cb3c 21c4 cd3c 1e63 9cbc
000000c0: 0853 efbc 50bc ad3c 312f 353d 711a d8bc
000000d0: 33df 0d3d 144f 363d 79b3 acbc 2326 c0bb
000000e0: 09d7 c93a 10d6 fcbc 56c5 a43b aad0 043d
000000f0: 92d5 063a 28c6 943c 6848 1e3b f573 b9bb
00000100: 1f6b 2c3c 91ac 2dbd 891f 67bc 6b79 ed3c
00000110: 8ba9 63bb d297 a8bc b5ae 723c a787 8a3b
00000120: cf74 13bc ee6a c2bc 0535 83bc 0b76 253c
00000130: 8a10 ad3b b645 1dbc 5b14 253d 2a2f 97bc
00000140: 49a3 02bd be43 2abd e7c5 b7bc e2ce fbbb
00000150: fc5d 993c bcd9 23bd 8c34 19bd e928 c8bc
00000160: fedc b53c eb07 cabc 12b0 8a3c da7c 833c
00000170: dee0 60bc 21ba cbbc 3f2a 583c 693e 0ebd
00000180: 5f89 2abd 0db6 2cbd d23d 2a3d 53c2 65bc
00000190: 8048 abbc 9d1c 4abc facd 12bd 3bfb 22bd
000001a0: 2063 49bc 250f d23c b866 34bc ce58 1c3d
000001b0: 5c8b adbb efc6 46bc a06b 18bd 2545 343d
000001c0: fec8 523c b73f 353d 1be2 683c 225a 0c3d
000001d0: 77de e9ba 0390 113d 629b 893a aad0 0a3d
000001e0: 486d da3c b754 b13c 4432 8e39 567f d13c
000001f0: c268 c7bc 660e 1bbc 3b12 d13c 69e7 783c
00000200: 5b53 9b3c afee c9bc 17dc 08bb cf84 a63b
00000210: dc07 0cbc de49 b7bc 915b 2d3b 4833 bdbc
00000220: 75f0 debc 0eb8 213d 75c5 d83c f824 75bc
00000230: 334f fe3c a564 5dba 4d36 093d 8cb2 55bc
00000240: ec8f c83a 7e8f debc 946e 313d bce6 66bc
00000250: 1722 9a3c 8953 e4bc 871b 0cbd 3744 debb
00000260: 27f2 eebc a0e8 533b fb25 973c cad5 d43c
00000270: 396f 1b3c c853 d83c 4223 223d 273c ed3c
00000280: 6175 183d bc56 6e3b 920b 33bb 3a0f b13c
00000290: 13f4 6dbc 1466 2abd 96de 813c 7236 a83b
000002a0: 38e7 d5bc 7b87 ea3c 283d 4a3c 6461 2d3c
000002b0: 89c1 32bd 2377 d83c 6dd6 133c 48f9 72bc
000002c0: b5a0 fbbc 2efe 69bc 1913 efbc 5af0 b2bb
000002d0: c190 823c 25b7 58bc 2c45 fa3c ce62 3c3c
000002e0: 0149 173d da01 993c 462b 29bb df29 003d
000002f0: 72bf 173d 0bdf 90bb 6ed4 15bd 38d5 74bb
00000300: dfd0 553c ae16 d0bc c379 16bd b1da 53bc
00000310: 5622 793c 1807 183d 2e70 bf3c 00d6 d5bb
00000320: 0800 303d 1cff adbb 2bc9 79bc 2a7f 3cbc
00000330: 845e 25bc a18a 323d ba77 81bc 3b49 9bbc
00000340: 5b3f ad3c c527 0e3d 9af6 123d b1a2 27bd
00000350: 6706 a4bc d2e5 a73b 99ba 9e3c 26fe 02bd
00000360: a73c 7dbc 98c9 313d cac9 a33b c9cd 99bc
00000370: 160d 28bb 0c33 5dbc 36a7 18bc b633 0f3d
00000380: f8bd 2c3c 6aa1 bc3c b6df 83bc 79e3 893c
00000390: 06d2 9c3c 7253 d43c 2aee 103d 0014 26bc
000003a0: 595f d13c 3471 91bb f493 ac3c c135 0fbd
000003b0: 122a 173c d5ae 323c ba30 2a3d ea69 8b3c
000003c0: f85c 023c 642d be3c b2de 0cbd b883 58bc
000003d0: 936c ef3c 3a08 2abd 4972 ca3c e011 1a3c
000003e0: 7566 12bd 541a aa3c 21bd e73c 70c8 0f3d
000003f0: c574 3b3c a748 23bd 1fbd dabb 70ff 143d

siam_layer.conv4.bias f4 [3]
-0.018079225 0.023523219 -0.035318844
00000000: e21a 94bc c4b3 c03c 7eaa 10bd

siam_layer.conv5.weight f4 [1, 3, 6, 6]
-0.08758006 -0.04459317 0.009282709 0.07909113 -0.009962865 0.057591356 0.062763385 0.024883153
-0.05926083 -0.035562668 -0.089798436 0.07536568 -0.09003108 0.016996015 -0.06874856 0.051374793
0.072767414 -0.024414804 -0.014525089 -0.03259924 -0.018869149 -0.095168136 -0.05883127 -0.041996587
0.018637909 0.055388622 0.03637225 0.011127772 -0.07987343 -0.024110226 -0.04833337 -0.03063796
0.027399827 -0.065926164 0.06750447 0.05130756 0.049061365 -0.0655909 -0.024199666 -0.03463588
0.027822398 -0.00549356 -0.01897489 -0.0020735122 -6.1448176e-05 0.028160645 -0.02033527 -0.024315143
0.07313715 0.08662706 0.018755658 0.085310966 -0.07974598 0.09332701 -0.078497894 -0.06230086
-0.0079444675 -0.07334595 -0.038705077 -0.051766794 -0.08087937 0.06139399 0.07784639 0.004150519
0.02548816 -0.021262502 -0.03993596 -0.012112928 0.06791198 0.092028014 0.013877566 -0.006407785
0.09088746 0.0075102495 -0.096064635 -0.058035847 -0.010943334 -0.022976264 0.089615434 -0.05346518
0.020457273 -0.010464964 0.06291584 0.04930267 0.0151667725 -0.022452742 -0.05334123 -0.091370955
0.049516365 0.036519907 0.03934929 0.025870143 0.08025158 0.029859994 0.009507653 -0.04070416
0.06426227 -0.062137153 0.021894708 0.029151358 -0.005390344 0.07699952 0.049143746 -0.08475152
-0.035067987 -0.03901209 0.04301297 0.008200849
00000000: 2d5d b3bd 54a7 36bd 8116 183c 88fa a13d
00000010: 493b 23bc eae4 6b3d 178a 803d c1d7 cb3c
00000020: 7cbb 72bd 29aa 11bd 3ee8 b7bd 5259 9a3d
00000030: 3762 b8bd 3a3b 8b3c 0ccc 8cbd 606e 523d
00000040: 1507 953d 8e01 c8bc a4fa 6dbc c886 05bd
00000050: 7993 9abc 83e7 c2bd 0ff9 70bd 9d04 2cbd
00000060: 87ae 983c 2edf 623d 12fb 143d 4251 363c
00000070: ae94 a3bd cf82 c5bc 36f9 45bd 76fc fabc
00000080: 9a75 e03c 4c04 87bd c93f 8a3d e027 523d
00000090: 92f4 483d 8654 86bd 613e c6bc 5ade 0dbd
000000a0: cceb e33c 5203 b4bb 3a71 9bbc c3e3 07bb
000000b0: bddd 80b8 27b1 e63c 2796 a6bc 8d30 c7bc
000000c0: eec8 953d 8769 b13d 77a5 993c 84b7 ae3d
000000d0: dc51 a3bd 3b22 bf3d 81c3 a0bd 302f 7fbd
000000e0: 8329 02bc 6736 96bd 3789 1ebd 6b09 54bd
000000f0: 15a4 a5bd 4478 7b3d ee6d 9f3d 1401 883b
00000100: 8ccc d03c b32e aebc e493 23bd 4d75 46bc
00000110: 7015 8b3d 2f79 bc3d bb5e 633c 66f8 d1bb
00000120: 3423 ba3d 8a18 f63b 89bd c4bd ffb6 6dbd
00000130: ab4b 33bc b838 bcbc 4c88 b73d 4efe 5abd
00000140: 0396 a73c 3e75 2bbc 05da 803d 99f1 493d
00000150: 0e7e 783c d0ee b7bc 557c 5abd b220 bbbd
00000160: acd1 4a3d e695 153d b92c 213d 9fed d33c
00000170: f15a a43d f29c f43c fdc5 1b3c 68b9 26bd
00000180: f09b 833d 8783 7ebd 885c b33c d4ce ee3c
00000190: 7ca1 b0bb edb1 9d3d f44a 493d 3492 adbd
000001a0: 73a3 0fbd 24cb 1fbd 5e2e 303d db5c 063c

siam_layer.conv6.weight f4 [1, 3, 6, 6]
-0.010768274 -0.009319053 0.0588998 -0.02190823 0.06881292 -0.08154303 0.078425065 0.029443344
0.04111062 -0.061711457 -0.09191006 -0.095591806 -0.01084509 0.09321053 0.09420933 0.007645502
0.09142081 -0.08960792 -0.0037216486 0.07211759 0.03133518 0.0907824 0.025820192 -0.0953255
-0.08663694 0.012437693 -0.05185425 0.016168833 0.03129823 0.09173931 0.022605604 0.0040728822
-0.0806661 0.08996169 0.05544904 -0.047949914 -0.07381896 -0.0563956 0.0020378383 -0.030717999
-0.033474557 -0.08445129 -0.043252166 -0.039672747 0.057190966 0.048408538 0.043486167 -0.006284517
-0.076908655 -0.00026070164 0.056987602 0.032019448 0.040265314 0.066085465 -0.018838719 -0.019642694
-0.012269955 -0.017260997 -0.04924309 -0.05849239 0.07672348 0.055543043 -0.067405015 0.011284104
-0.048265092 -0.0070863767 -0.07744921 -0.07727791 0.084763326 0.05025601 0.06286511 0.034579612
-0.073398314 -0.038707543 0.051472556 -0.012184449 -0.07386669 -0.09507326 -0.09569664 -0.04407878
0.04519706 0.08682821 0.049656812 -0.05560673 -0.043135233 0.017030895 -0.09429947 -0.08586593
-0.0737108 0.02788334 -0.031270634 -0.038014952 0.07605402 0.057777446 0.029784797 -0.05392279
-0.030101262 0.0032430908 -0.050383367 -0.05093782 -0.095447935 -0.060559306 -0.09006589 0.060004886
0.011768625 -0.025904002 0.07963558 -0.03948836
00000000: 6a6d 30bc f1ae 18bc eb40 713d e378 b3bc
00000010: caed 8c3d 0800 a7bd 529d a03d 2b33 f13c
00000020: 9c63 283d 27c5 7cbd 573b bcbd a3c5 c3bd
00000030: 9baf 31bc 2ae5 be3d d2f0 c03d 1f87 fa3b
00000040: d53a bb3d 5b84 b7bd e7e6 73bb 63b2 933d
00000050: 5159 003d 1fec b93d de84 d33c 043a c3bd
00000060: b56e b1bd 77c7 4b3c 1f65 54bd 8074 843c
00000070: 9332 003d d2e1 bb3d 632f b93c d075 853b
00000080: 4534 a5bd d63d b83d 881e 633d 2167 44bd
00000090: 652e 97bd 13ff 66bd 418d 053b 50a4 fbbc
000000a0: 9e1c 09bd ccf4 acbd 2f29 31bd e47f 22bd
000000b0: 1341 6a3d 0848 463d 8d1e 323d 59ee cdbb
000000c0: 4982 9dbd c8ae 88b9 d56b 693d d326 033d
000000d0: 3eed 243d d157 873d a853 9abc b7e9 a0bc
000000e0: ec07 49bc ef66 8dbc 1fb3 49bd b795 6fbd
000000f0: 3321 9d3d 1a81 633d a40b 8abd f6e0 383c
00000100: 9eb1 45bd d634 e8bb b19d 9ebd e243 9ebd
00000110: 6598 ad3d 3fd9 4d3d 6cbf 803d 5aa3 0d3d
00000120: db51 96bd cd8b 1ebd e3d4 523d 48a1 47bc
00000130: 6b47 97bd c5b5 c2bd 9afc c3bd f38b 34bd
00000140: 8d20 393d fdd2 b13d f164 4b3d e2c3 63bd
00000150: 92ae 30bd 6084 8b3c 1520 c1bd 7ada afbd
00000160: b0f5 96bd 9a6b e43c a315 00bd 91b5 1bbd
00000170: 36c2 9b3d 0ba8 6c3d 3fff f33c 25de 5cbd
00000180: ec96 f6bc 098a 543b ca5e 4ebd 2da4 50bd
00000190: 357a c3bd 090d 78bd 7774 b8bd afc7 753d
000001a0: 31d1 403c a134 d4bc fb17 a33d 8cbe 21bd

siam_layer.conv7.weight f4 [1, 2, 6, 6]
0.028707258 0.06379508 -0.08393797 0.109824955 0.012497097 0.08001057 0.03431825 -0.10109839
-0.07993815 -0.07219817 0.09465831 -0.0010121339 -0.054860935 0.0021217244 -0.111454315 0.09102137
-0.111816876 -0.0094106905 -0.04194612 -0.020825373 -0.11136314 0.017345352 0.111852214 -0.02411408
0.023277983 0.015914043 0.084548794 -0.01562273 0.10773221 1.4264363e-05 -0.090529576 0.029337006
0.005980967 -0.023877593 -0.0957229 0.047176372 0.09078784 -0.035808403 -0.10745161 -0.06573111
0.04003962 0.08920754 0.056624144 0.06527476 -0.06492638 -0.06944775 0.10973882 -0.098850906
-0.10704768 0.008461526 -0.09532619 -0.007752348 0.03513183 -0.090233006 -0.05037127 0.11482671
-0.11262809 -0.09403225 -0.09235136 -0.018626405 0.02805324 0.027746227 0.099817485 0.033089638
-0.09881801 0.035127327 -0.11419498 -0.07547288 -0.015417035 0.06905569 0.024905235 0.106797315
00000000: 7c2b eb3c ffa6 823d ace7 abbd e8eb e03d
00000010: a0c0 4c3c 95dc a33d 4b91 0c3d ac0c cfbd
00000020: 9db6 a3bd a2dc 93bd 37dc c13d 94a9 84ba
00000030: dcb5 60bd a10c 0b3b 2942 e4bd 6969 ba3d
00000040: 3f00 e5bd 4c2f 1abc b2cf 2bbd f999 aabc
00000050: 5c12 e4bd d717 8e3c c612 e53d e48a c5bc
00000060: 78b1 be3c 2b5e 823c eb27 ad3d 7bf6 7fbc
00000070: b4a2 dc3d f950 6f37 9267 b9bd 2954 f03c
00000080: fdfb c33b f19a c3bc 5e0a c4bd 033c 413d
00000090: faee b93d d5ab 12bd 970f dcbd 089e 86bd
000000a0: 9600 243d 71b2 b63d b8ee 673d c6ae 853d
000000b0: 1ff8 84bd 9f3a 8ebd bfbe e03d 5872 cabd
000000c0: d03b dbbd 36a2 0a3c 613a c3bd 6907 febb
000000d0: 65e6 0f3d 15cc b8bd 1b52 4ebd 442a eb3d
000000e0: 8ea9 e6bd fb93 c0bd b622 bdbd 6796 98bc
000000f0: e9cf e53c 0e4c e33c 1c6d cc3d 0089 073d
00000100: 1961 cabd ace1 0f3d 0fdf e9bd 8691 9abd
00000110: bb97 7cbc 126d 8d3d 1006 cc3c 8db8 da3d

dense.weight f4 [1, 308]
-0.03321868 0.040148742 -0.03559575 0.049681067 -0.015387784 0.018522361 0.012593672 -0.006055485
0.0029310088 -0.0024187807 -0.04622854 -0.022752007 -0.0052982904 0.022879131 -0.03980404 -0.034179423
-0.03147619 0.00012409443 0.02026505 0.010836476 -0.039142847 0.032956935 0.016167836 0.03933993
-0.03802422 0.00030122956 -0.0028607948 0.027540887 -0.022074902 0.04006515 0.025380233 0.019185223
-0.026425637 -0.010212331 -0.01586395 -0.03420278 -0.033050634 0.0026125808 0.022152862 0.010532998
-0.0111321295 0.0028567708 0.019994648 -0.018758599 -0.047578894 -0.050188016 0.0007916775 0.004057838
0.0029025509 0.03159118 0.04788753 -0.05123369 -0.017067732 -0.0022472958 -0.040951252 0.0058863778
-0.050365686 -0.04700913 0.02941248 0.055328358 0.050548553 -0.044430174 0.00814616 0.043753933
0.009072793 0.040723614 0.05113283 0.037469573 -0.038478587 -0.010738633 0.025262471 0.008244231
-0.020352699 -0.0072584767 -0.012932267 0.055050857 -0.033693608 0.04294836 -0.047579817 0.040572304
-0.027165312 0.0016494758 -0.014086489 0.0060831713 -0.008816151 0.018430065 -0.042373005 -0.0135197975
-0.01683297 -0.0530393 0.00832143 0.033609368 -0.0093677845 -0.033646908 -0.051205464 0.029587202
-0.054456256 0.006393299 -0.031846344 0.05369672 0.019090412 0.03939597 0.044069264 -0.025280694
-0.032144982 -0.0013918565 -0.0054163258 -0.04969703 0.022524964 -0.04625519 0.019983098 -0.0177457
0.008050397 -0.03333345 0.013632764 0.0048942906 -0.01759649 0.036301475 0.031924076 0.0006714511
-0.039818145 -0.047750838 0.0045569697 0.03969252 -0.024274861 -0.024900265 -0.052519727 -0.05082877
-0.011505091 0.0067613525 0.0034992266 -0.012944688 -0.025736045 -0.05111069 0.045413464 -0.044275854
0.033222254 0.026943812 0.009912185 -0.041042563 -0.033306666 0.026465362 -0.050505858 0.02221875
0.00059021055 -0.037973225 -0.008453622 0.031051109 -0.050997283 0.01645872 0.002417852 -0.04722251
-0.02618671 0.02442463 0.016990423 0.0051401025 0.0037042995 0.05595129 0.028043548 0.04557102
0.04166737 0.052354373 -0.054115612 -0.010065206 0.039627835 0.035852563 -0.0081011355 0.053976245
0.042171463 -0.018520227 -0.049856253 0.022540241 0.033758156 0.00040395893 0.055732008 -0.013388055
-0.018738192 0.049457386 0.030764766 0.043645564 -0.052125935 0.04156863 -0.012761023 -0.04428075
0.043523364 0.03166644 0.038505554 0.0064586904 0.0078230575 0.0365856 -0.024837058 -0.020617263
0.0053959563 -0.00411245 0.018767819 0.0025550057 0.04023245 -0.010618365 0.051813018 0.056051053
-0.005685986 0.024369461 0.014354741 0.035049785 -0.029694818 0.038102314 0.045083288 -0.017054705
0.031158948 -0.014685813 -0.03771013 0.039417133 -0.021669308 0.03608986 -0.035973012 0.0271439
-0.024161028 0.05353128 -0.038643 -0.025240306 0.047872838 0.019655842 0.029658379 0.02274087
-0.030882439 0.0144496495 0.046491116 0.017733756 0.003172429 -0.034926273 0.05448013 0.028456712
-0.0076287393 -0.022044916 0.055156033 -0.022934556 -0.0202299 0.034855634 -0.054317303 -0.009690194
0.039890684 -0.03183798 0.02618484 -0.027588924 0.029442538 -0.047072113 0.017323148 0.039516587
-0.007595599 0.016814616 0.021919977 0.024005724 0.033620987 -0.043577496 -0.04846398 -0.0124924015
00000000: 5010 08bd 0273 243d d9cc 11bd 607e 4b3d
00000010: 0b1d 7cbc 35bc 973c b055 4e3c 176d c6bb
00000020: 2b16 403b 6884 1ebb 235a 3dbd 6b62 babc
00000030: 489d adbb 046d bb3c 9009 23bd b9ff 0bbd
00000040: 2ded 00bd 581f 0239 e402 a63c 7a8b 313c
00000050: 4054 20bd dafd 063d 6972 843c e822 213d
00000060: 49bf 1bbd 59ee 9d39 2c7c 3bbb 6d9d e13c
00000070: 6dd6 b4bc 5b1b 243d 35ea cf3c 542a 9d3c
00000080: 947a d8bc 9f51 27bc 1df5 81bc 3718 0cbd
00000090: 1a60 07bd d537 2b3b eb79 b53c 9892 2c3c
000000a0: 8963 36bc a938 3b3b d1cb a33c a2ab 99bc
000000b0: 16e2 42bd f391 4dbd 9488 4f3a 9df7 843b
000000c0: b938 3e3b c165 013d b725 443d 6bda 51bd
000000d0: a1d1 8bbc 5e47 13bb 80bc 27bd 84e2 c03b
000000e0: 404c 4ebd a58c 40bd 71f2 f03c fd9f 623d
000000f0: 000c 4f3d 6afc 35bd 7977 053c 5337 333d
00000100: 0da6 143c cecd 263d a970 513d b279 193d
00000110: b99b 1dbd 17f1 2fbc 3ef3 ce3c d012 073c
00000120: b4ba a6bc 84d8 edbb dce1 53bc 027d 613d
00000130: 4f02 0abd 9fea 2f3d 0ee3 42bd 252f 263d
00000140: ca89 debc 3933 d83a 04cb 66bc 5755 c73b
00000150: 9e71 10bc a6fa 963c 518f 2dbd 2482 5dbc
00000160: 4ce5 89bc bd3f 59bd 9b56 083c faa9 093d
00000170: 567b 19bc 57d1 09bd d2bc 51bd dc60 f23c
00000180: 860d 5fbd e17e d13b 5071 02bd 18f1 5b3d
00000190: 7f63 9c3c ab5d 213d f981 343d 7519 cfbc
000001a0: 75aa 03bd f46e b6ba 6f7b b1bb 1d8f 4bbd
000001b0: 4686 b83c 1576 3dbd 98b3 a33c 6e5f 91bc
000001c0: d0e5 033c a888 08bd f55b 5f3c 4960 a03b
000001d0: 8426 90bc dbb0 143d d2c2 023d 5204 303a
000001e0: 5a18 23bd 6296 43bd a252 953b a094 223d
000001f0: 13dc c6bc a4fb cbbc ed1e 57bd d431 50bd
00000200: d97f 3cbc 568e dd3b 4853 653b f515 54bc
00000210: 66d4 d2bc 7159 51bd 7803 3a3d 995a 35bd
00000220: 0f14 083d 45b9 dc3c b866 223c 3f1c 28bd
00000230: 926c 08bd e3cd d83c 3bdf 4ebd 1904 b63c
00000240: 5cb8 1a3a d089 1bbd 1081 0abc e55e fe3c
00000250: 87e2 50bd 70d4 863c d374 1e3b 646c 41bd
00000260: 8385 d6bc 2916 c83c 802f 8b3c 4e6e a83b
00000270: d5c3 723b 2e2d 653d 95bb e53c aea8 3a3d
00000280: 67ab 2a3d 8a71 563d 55a8 5dbd 89e8 24bc
00000290: cc50 223d 23da 123d a0ba 04bc 3216 5d3d
000002a0: fcbb 2c3d bbb7 97bc 1236 4cbd 50a6 b83c
000002b0: fe45 0a3d 73ca d339 3f47 643d 9359 5bbc
000002c0: d680 99bc d493 4a3d 6406 fc3c b1c5 323d
000002d0: 0182 55bd de43 2a3d 9c13 51bc bb5f 35bd
000002e0: 8e45 323d abb4 013d 00b8 1d3d 6ca3 d33b
000002f0: 482c 003c c8da 153d 1677 cbbc 89e5 a8bc
00000300: 90d0 b03b bbc1 86bb f8be 993c e271 273b
00000310: c8ca 243d a7f8 2dbc e339 543d ca95 653d
00000320: 8251 babb 77a2 c73c 2630 6b3c 5d90 0f3d
00000330: 8c42 f3bc 2c11 1c3d 41a9 383d 4fb6 8bbc
00000340: 0d41 ff3c c49c 70bc f075 1abd dc73 213d
00000350: d583 b1bc f6d2 133d 7058 13bd e25c de3c
00000360: 59ed c5bc 9e43 5b3d 1f48 1ebd c2c4 cebc
00000370: 4f16 443d 4a05 a13c 21f6 f23c 104b ba3c
00000380: 2bfd fcbc 39be 6c3c 786d 3e3d 6246 913c
00000390: 87e8 4f3b da0e 0fbd 8f26 5f3d 0d1e e93c
000003a0: 81fa f9bb 8a97 b4bc 4beb 613d 40e1 bbbc
000003b0: 2db9 a5bc c8c4 0e3d d27b 5ebd 9fc3 1ebc
000003c0: 6a64 233d 8b68 02bd 9781 d63c 2b02 e2bc
000003d0: 7a31 f13c b0ce 40bd 46e9 8d3c 25dc 213d
000003e0: 81e4 f8bb cebe 893c 8691 b33c a7a7 c43c
000003f0: 29b6 093d 517e 32bd 2b82 46bd eeac 4cbc
